Case_Study_1/trained_transformer/verification2/vit_18_4_6_24.pt (torch, 498634 bytes, 52 tensors)

pos_embedding f4 [1, 50, 18]
1.3336011 0.3083101 -0.159615 0.465458 -0.5404886 0.64242357 -0.5072368 1.071797
-0.35396844 -0.39339712 0.1744455 -2.5153477 -0.29795173 -0.42979187 -1.0734948 1.4891247
-0.016685285 -0.80517226 1.3678771 1.6181139 -2.552784 -1.2661382 -0.36730087 0.6760101
0.45647693 -2.0064292 0.23872705 -0.65508246 2.3529077 -2.1988046 0.6926494 0.29758087
-1.1174818 -0.81622547 0.05834684 0.5536255 0.24971385 0.5769735 -1.0486627 -1.4957432
0.23906124 -1.4549844 0.7866597 1.0611659 -0.42064476 -0.74084026 0.6613092 0.34498465
1.8958887 2.2241693 0.283455 -1.0347114 -1.1174377 -0.010934466 -0.0076844413 1.6215279
-1.2872449 0.3791342 0.17323367 0.52641594 0.11568371 -1.0240921 0.69768864 1.7626147
0.038192384 -2.1017852 0.058295067 0.59183884 2.1052313 1.6248051 -1.9963888 -0.79536957
-0.7575165 1.1377507 0.92620176 -0.2957866 1.6470631 -0.8761418 -0.63622606 0.08267603
-0.61446583 -0.59604144 1.19657 -0.17713341 -0.54861945 0.7899439 -0.639846 -2.122506
-0.39887127 -0.6775214 2.4646547 0.4099898 -1.1952815 1.7152941 0.11051128 1.1202464
0.52572244 -0.69164306 -1.3266736 -0.967127 0.1847262 0.3268211 0.58997583 -0.31313598
-0.14466445 -2.018776 -0.35809076 0.13363414 0.7706967 -0.6328681 -1.2184576 -0.48274148
1.0264188 1.1191981 0.6585523 -0.085268185 1.5344112 0.23064259 1.3330692 -0.20205899
-1.1403719 -1.412701 -0.14139864 -0.08026415 -0.14334102 -0.30066043 -0.01197537 0.8021373
0.94346726 0.33899164 1.081307 -0.66725063 0.066882186 -0.20229137 1.2998312 0.76610005
0.21010855 1.6990978 0.03048306 1.5993627 0.7248419 0.07580587 -0.30044442 -1.666381
-0.526772 0.013977461 0.021045022 0.31827915 0.30244035 -0.582549 1.023623 0.17128722
-1.5164623 1.148726 2.1541953 0.6778518 -0.5976167 1.4203267 0.77149093 -0.38780728
0.06311803 1.0288147 -0.9946072 -1.0836046 -2.8188753 -2.1118984 0.39679942 0.05261317
-0.32367337 1.2055166 0.99129367 0.45286834 1.3745242 0.55329 -2.295033 1.2071341
-0.23559578 -0.5782059 -1.5454966 -1.0753213 -1.1167324 0.25605142 0.96560025 1.0153222
-0.24511054 0.2959398 1.1993363 -0.008910195 1.3827922 0.34332845 -0.5689205 -1.349465
-0.043890174 0.65433455 -0.8042306 -0.643765 -0.115786396 1.2072011 -0.10397147 0.82859486
3.5535204 0.3968572 0.51778746 0.57662344 -0.78446126 -0.23650411 1.0608472 0.23833635
-0.91702294 0.60641927 -1.0443872 -0.3145017 -0.42119944 0.5165923 1.169325 0.7681225
1.9277982 -0.08538877 0.5583526 0.69245017 -0.47482607 -0.26217896 -0.20429628 1.280172
-0.12885028 -2.589069 -0.28196242 1.0454098 2.315203 -0.9625949 -1.0577123 0.031783625
-1.2302997 1.4502672 -0.47604567 1.5533317 0.7527948 -2.3094282 -1.2558019 -1.4177182
2.395949 1.1675538 -0.011033202 -0.88908243 0.14120965 1.4301882 -0.68405265 0.26759726
-1.1843135 2.9235132 -1.0166742 -0.61482143 -1.3423802 -0.9951099 -1.4168596 -0.11820744
00000000: 71b3 aa3f d2da 9d3e 1d72 23be 8350 ee3e
00000010: 765d 0abf df75 243f 45da 01bf a530 893f
00000020: 5a3b b5be 596b c9be d7a1 323e 75fb 20c0
00000030: 218d 98be ae0d dcbe 4768 89bf a39b be3f
00000040: 94af 88bc c51f 4ebf 9916 af3f 5b1e cf3f
00000050: d060 23c0 d110 a2bf dc0e bcbe ff0e 2d3f
00000060: 58b7 e93e 5669 00c0 dd74 743e 7cb3 27bf
00000070: 0a96 1640 37b9 0cc0 7951 313f 855c 983e
00000080: a509 8fbf 27f4 50bf 19fd 6e3d 67ba 0d3f
00000090: fdb4 7f3e 89b4 133f 943a 86bf 8374 bfbf
000000a0: 78cc 743e ee3c babf 8862 493f 49d4 873f
000000b0: c05e d7be b5a7 3dbf 8f4b 293f d4a1 b03e
000000c0: 7bac f23f ca58 0e40 0421 913e 6c71 84bf
000000d0: 3308 8fbf 7926 33bc c4cd fbbb 3a8e cf3f
000000e0: 71c4 a4bf e11d c23e 2b64 313e 32c3 063f
000000f0: 95eb ec3d 7315 83bf b99b 323f 5c9d e13f
00000100: 9e6f 1c3d a683 06c0 cfc6 6e3d c082 173f
00000110: 1cbc 0640 9df9 cf3f ab89 ffbf 579d 4bbf
00000120: 9aec 41bf d1a1 913f 8f1b 6d3f 5771 97be
00000130: f7d2 d23f d44a 60bf b6df 22bf 0d52 a93d
00000140: a24d 1dbf 2c96 18bf 3529 993f 7662 35be
00000150: 5372 0cbf c339 4a3f f3cc 23bf 23d7 07c0
00000160: db38 ccbe 0b72 2dbf e7bc 1d40 2fea d13e
00000170: fcfe 98bf c28e db3f bd53 e23d 3c64 8f3f
00000180: bf95 063f 850f 31bf 71d0 a9bf a395 77bf
00000190: dd28 3d3e 1855 a73e a808 173f 5c53 a0be
000001a0: eb22 14be a033 01c0 ac57 b7be 63d7 083e
000001b0: 614c 453f a503 22bf 6bf6 9bbf e429 f7be
000001c0: b161 833f e241 8f3f e296 283f 16a1 aebd
000001d0: 9667 c43f 922d 6c3e 03a2 aa3f 8de8 4ebe
000001e0: b5f7 91bf 63d3 b4bf ceca 10be 8861 a4bd
000001f0: fdc7 12be 2af0 99be 5834 44bc df58 4d3f
00000200: 1287 713f 5090 ad3e 4568 8a3f f0d0 2abf
00000210: 87f9 883d 7825 4fbe de60 a63f 221f 443f
00000220: b226 573e 097c d93f 9cb7 f93c ebb7 cc3f
00000230: 3d8f 393f 1c40 9b3d dad3 99be f94b d5bf
00000240: 88da 06bf b801 653c 9c66 ac3c 7cf5 a23e
00000250: 76d9 9a3e ee21 15bf 1406 833f eb65 2f3e
00000260: 701b c2bf 7409 933f 56de 0940 b287 2d3f
00000270: 68fd 18bf 44cd b53f 6e80 453f ad8e c6be
00000280: 0744 813d 33b0 833f 949e 7ebf 8eb3 8abf
00000290: 7468 34c0 5829 07c0 4b29 cb3e e880 573d
000002a0: 84b8 a5be 5e4e 9a3f 6cc5 7d3f 5cde e73e
000002b0: 69f0 af3f 6aa4 0d3f d2e1 12c0 5f83 9a3f
000002c0: 0540 71be 4d05 14bf d5d2 c5bf 21a4 89bf
000002d0: 16f1 8ebf 2c19 833e 9431 773f 14f6 813f
000002e0: 42fe 7abe 6c85 973e da83 993f 11fc 11bc
000002f0: 56ff b03f bfc8 af3e c6a4 11bf 45bb acbf
00000300: 2fc6 33bd 7882 273f 0ee2 4dbf c8cd 24bf
00000310: 6b21 edbd 9185 9a3f feee d4bd cb1e 543f
00000320: e16c 6340 de30 cb3e b88d 043f 989d 133f
00000330: 74d2 48bf 222e 72be d7c9 873f 720e 743e
00000340: 04c2 6abf 4b3e 1b3f 7bae 85bf 5e06 a1be
00000350: 74a7 d7be 653f 043f 71ac 953f ada3 443f
00000360: 17c2 f63f 4fe0 aebd 32f0 0e3f 6a44 313f
00000370: 671c f3be 523c 86be 0b33 51be addc a33f
00000380: 54f1 03be 4eb3 25c0 615d 90be fdcf 853f
00000390: 492c 1440 9f6c 76bf 1e63 87bf 8c2f 023d
000003a0: 767a 9dbf 5ba2 b93f 42bc f3be 93d3 c63f
000003b0: 29b7 403f accd 13c0 1ebe a0bf ca77 b5bf
000003c0: 3a57 1940 6772 953f 9ac4 34bc e89a 63bf
000003d0: 4399 103e 6810 b73f 131e 2fbf 8202 893e
000003e0: 9697 97bf d71a 3b40 6122 82bf f064 1dbf
000003f0: 1dd3 abbf 86bf 7ebf a85b b5bf be16 f2bd

cls_token f4 [1, 1, 18]
0.4451962 0.20966229 -0.038500305 0.16415831 -0.06732132 0.62552094 0.85618526 0.17817758
1.6479775 0.18503495 -0.40269387 -0.2080319 0.87140167 -0.7909349 -0.1604181 1.943829
-0.0742728 -2.5011868
00000000: c2f0 e33e b6b1 563e 7fb2 1dbd 1e19 283e
00000010: c3df 89bd 2422 203f f52e 5b3f 2f74 363e
00000020: edf0 d23f cd79 3d3e e42d cebe 5006 55be
00000030: 2e14 5f3f b67a 4abf a444 24be 64cf f83f
00000040: 561c 98bd 7213 20c0

weight f4 [18, 16]
-0.3746027 -0.2345904 -0.026050368 0.051369958 0.12773086 0.244511 0.16958693 0.21859665
0.03051642 0.2552539 0.083525315 0.18258122 -0.023979144 -0.09541521 -0.14003783 -0.1579933
-0.2674505 0.4185323 0.37596232 0.4919087 -0.5465851 0.04540444 0.014773324 0.33549935
-0.3843298 -0.033162996 -0.056978237 -0.043399803 -0.20851177 0.07921669 -0.007901531 -0.17425428
0.016309021 -0.17354251 -0.16574846 -0.24085687 0.0015909888 0.21513358 0.20290884 -0.10060486
-0.045948874 0.20531036 0.119336456 0.051761262 0.006360811 -0.030090326 -0.04887456 0.050993554
0.7269236 0.19638465 -0.02258491 0.09643603 0.11320924 0.029478187 -0.20017414 0.22047673
0.08492647 -0.09094715 -0.22667013 0.32633704 -0.29142523 -0.35274613 -0.45669132 0.15536252
-0.044275872 -0.07734137 -0.17391779 -0.058197312 0.12378054 -0.112070665 -0.097435616 0.16184431
0.40593588 0.06471542 -0.16362551 0.19646983 0.21127912 0.01673675 0.0012512469 -0.07404053
0.057885144 -0.25932187 -0.37367997 0.091311514 -0.06125542 -0.16032895 0.02948343 0.05362772
-0.18605235 -0.23132923 -0.1069405 0.14179656 -0.20243226 -0.029466674 -0.06698309 0.19567294
-0.20104028 -0.057028998 -0.14365628 -0.4922816 -0.07400045 0.15989493 0.19892962 -0.29663268
0.12512521 0.30878463 0.19402209 -0.06392459 0.13421838 0.30404583 -0.060458586 -0.40831393
0.002471055 -0.025150437 -0.11681585 -0.0085525885 -0.0065313666 0.007347398 0.17868985 0.38779444
0.08609149 0.12337786 0.2558207 0.42441592 -0.09273388 0.14413832 0.32559142 0.40917584
0.4111073 0.20940335 0.26256183 0.04645134 0.36217916 0.15596406 0.25176036 -0.004604894
0.41675684 -0.050524242 -0.21183029 -0.12686752 -0.33618003 -0.46688956 -0.42269388 -0.41355792
-0.2570791 0.034028452 0.016137077 0.08962432 -0.0068154195 0.023111437 0.21621287 0.11195948
0.08633939 0.042417847 -0.033704657 0.095200986 0.16306666 0.30226618 0.26329815 0.22483593
0.026829332 0.32102644 0.31661752 0.31752056 -0.1681849 0.25010967 0.30435523 0.17492983
-0.23718277 0.34509742 0.065782554 -0.06924394 -0.12738444 0.21451412 -0.1001567 -0.08976687
-0.19035004 0.02044203 0.09495282 0.084192246 -0.26278704 -0.1526107 -0.09766387 0.15328597
-0.14173697 -0.23224781 -0.1958464 0.09627726 0.185619 0.0809174 -0.20525704 0.004496922
0.18398261 0.11028562 0.07817736 -0.051436707 -0.21628638 -0.022449642 -0.30386066 -0.18408668
-0.102632366 -0.2626804 -0.22441618 -0.22611783 0.49253184 0.30643538 0.1831342 0.23185153
-0.023763796 -0.38682193 -0.3325064 -0.20609632 -0.1232856 -0.19423711 -0.010697829 -0.049084816
-0.18850893 -0.03246077 0.071574986 -0.17124248 -0.40731627 -0.120543696 -0.07756615 0.28692466
-0.04192008 -0.15782417 -0.055315208 -0.1646618 0.24558087 -0.17996119 0.17365831 -0.15869775
0.1063159 -0.10956056 -0.021285791 -0.076870464 -0.025528144 -0.2281969 0.08078584 0.29269266
0.07192601 0.11470263 0.12352296 -0.13143806 -0.23760413 -0.08777818 -0.116417244 0.024484832
-0.08659996 -0.15366267 -0.19403052 -0.25339103 -0.12203142 0.06606379 -0.13650507 -0.12452561
00000000: edcb bfbe 7738 70be 9567 d5bc 4e69 523d
00000010: e1cb 023e 1761 7a3e 32a8 2d3e cdd7 5f3e
00000020: 92fd f93c a4b0 823e 520f ab3d 92f6 3a3e
00000030: e96f c4bc 0d69 c3bd 1466 0fbe ffc8 21be
00000040: 46ef 88be de49 d63e 227e c03e 75db fb3e
00000050: 00ed 0bbf 02fa 393d d00b 723c 92c6 ab3e
00000060: e0c6 c4be ecd5 07bd 0362 69bd fec3 31bd
00000070: 1c84 55be 5c3c a23d 6c75 01bc b76f 32be
00000080: 7f9a 853c 21b5 31be f7b9 29be 2fa3 76be
00000090: ba88 d03a fa4b 5c3e 56c7 4f3e ec09 cebd
000000a0: e334 3cbd e13c 523e ac66 f43d 9e03 543d
000000b0: 5a6e d03b fd7f f6bc b130 48bd 9ede 503d
000000c0: aa17 3a3f 0f19 493e fd03 b9bc 4180 c53d
000000d0: 3fda e73d 3d7c f13c 73fa 4cbe a7c4 613e
000000e0: eeed ad3d 8042 babd 371c 68be a615 a73e
000000f0: b035 95be 249b b4be 72d3 e9be 5a17 1f3e
00000100: 9e5a 35bd 2765 9ebd 8117 32be 4e60 6ebd
00000110: a780 fd3d 4e85 e5bd 538c c7bd 84ba 253e
00000120: d4d6 cf3e 8589 843d 728d 27be 632f 493e
00000130: 8e59 583e 821b 893c e100 a43a 90a2 97bd
00000140: f918 6d3d d6c5 84be fb52 bfbe 8801 bb3d
00000150: f7e6 7abd 462d 24be 3c87 f13c bda8 5b3d
00000160: 8284 3ebe 92e1 6cbe 9f03 dbbd 1e33 113e
00000170: 674a 4fbe 1864 f1bc 6e2e 89bd 7d5e 483e
00000180: 81dd 4dbe 3d97 69bd a21a 13be 550c fcbe
00000190: 8c8d 97bd 7fbb 233e 35b4 4b3e 3de0 97be
000001a0: d320 003e 0519 9e3e baad 463e e5ea 82bd
000001b0: 8b70 093e e5ab 9b3e 6ca3 77bd 860e d1be
000001c0: 6cf1 213b 4a08 cebc 263d efbd 2820 0cbc
000001d0: 1305 d6bb 71c2 f03b 79fa 363e fe8c c63e
000001e0: bc50 b03d 88ad fc3d eefa 823e 0b4d d93e
000001f0: 43eb bdbd ff98 133e ebb3 a63e 7f7f d13e
00000200: a87c d23e d56d 563e 816e 863e c343 3e3d
00000210: 8c6f b93e 0bb5 1f3e bce6 803e a7e4 96bb
00000220: 2761 d53e 82f2 4ebd 0aea 58be 8fe9 01be
00000230: ca1f acbe 260c efbe 556b d8be ddbd d3be
00000240: df9f 83be 6b61 0b3d e731 843c f58c b73d
00000250: e253 dfbb 3254 bd3c e866 5d3e 034b e53d
00000260: b5d2 b03d 56be 2d3d e50d 0abd bcf8 c23d
00000270: f2fa 263e a2c2 9a3e 04cf 863e 643b 663e
00000280: 30c9 db3c 945d a43e b11b a23e 0e92 a23e
00000290: aa38 2cbe 600e 803e 73d4 9b3e ce20 333e
000002a0: 0ae0 72be 9cb0 b03e 01b9 863d c4cf 8dbd
000002b0: 1171 02be 97a9 5b3e f51e cdbd b1d7 b7bd
000002c0: 1feb 42be 0b76 a73c a076 c23d fc6c ac3d
000002d0: 068c 86be fb45 1cbe ff03 c8bd fff6 1c3e
000002e0: 7f23 11be 5fd2 6dbe f58b 48be 032d c53d
000002f0: e812 3e3e 06b8 a53d e72e 52be ea5a 933b
00000300: f065 3c3e 6ddd e13d 741b a03d 4caf 52bd
00000310: 2d7a 5dbe 50e8 b7bc a093 9bbe 3881 3cbe
00000320: eb30 d2bd 0c7e 86be 5bcd 65be 6f8b 67be
00000330: 222d fc3e 19e5 9c3e 8887 3b3e 7d6a 6d3e
00000340: 4bac c2bc 860d c6be 473e aabe ea0a 53be
00000350: 297d fcbd 18e6 46be f245 2fbc 290d 49bd
00000360: 7c08 41be 96f5 04bd e895 923d 305a 2fbe
00000370: c28b d0be 9ddf f6bd 00db 9ebd cae7 923e
00000380: 64b4 2bbd a99c 21be 3392 62bd 1a9d 28be
00000390: 8d79 7b3e bf47 38be 7cd3 313e aa81 22be
000003a0: 27bc d93d 4961 e0bd 8a5f aebc 436e 9dbd
000003b0: 6620 d1bc 73ac 69be 0c73 a53d d0db 953e
000003c0: f24d 933d 36e9 ea3d 9bf9 fc3d b397 06be
000003d0: 7f4e 73be 0cc5 b3bd 2a6c eebd 6a94 c83c
000003e0: 525b b1bd bf59 1dbe f0af 46be 78bc 81be
000003f0: 9ceb f9bd 744c 873d fcc7 0bbe 4807 ffbd

bias f4 [18]
-0.08048232 0.1040537 0.14435846 0.20403154 -0.1105659 -0.17208812 -0.21265918 -0.115733795
-0.2597135 -0.03458428 0.36764842 0.15205856 -0.054398473 0.03690982 -0.015107294 -0.061437476
0.12901057 -0.2625156
00000000: ead3 a4bd 1b1a d53d b4d2 133e a5ed 503e
00000010: 6070 e2bd de37 30be 54c3 59be d705 edbd
00000020: 2bf9 84be 3fa8 0dbd 6a3c bc3e 3db5 1b3e
00000030: efd0 5ebd c02e 173d 9584 77bc dda5 7bbd
00000040: 591b 043e 7268 86be

weight f4 [18]
0.7264615 0.73630816 0.8294262 0.65209055 0.83042383 0.7567742 0.7577946 0.54069865
0.66338086 0.6846276 0.6827618 0.74092776 0.7111669 0.49055916 0.7555707 0.74217004
0.7837369 0.62963045
00000000: 62f9 393f b17e 3c3f 4755 543f 68ef 263f
00000010: a896 543f f4bb 413f d4fe 413f 3a6b 0a3f
00000020: 54d3 293f c143 2f3f 7ac9 2e3f 71ad 3d3f
00000030: 090f 363f 922a fb3e 156d 413f dbfe 3d3f
00000040: fba2 483f 762f 213f

bias f4 [18]
0.024288708 -0.1265299 0.045847263 -0.052321978 -0.007802097 -0.056714367 0.0062027955 0.13935384
0.06963106 0.01653313 -0.075674996 -0.07733146 0.01787137 -0.06814293 0.047970757 0.0346355
0.009825409 0.076924734
00000000: 1df9 c63c 0e91 01be 57ca 3b3d 924f 56bd
00000010: bca8 ffbb 534d 68bd d240 cb3b c6b2 0e3e
00000020: bb9a 8e3d 7d70 873c 7efb 9abd f55f 9ebd
00000030: fb66 923c 858e 8bbd fc7c 443d f4dd 0d3d
00000040: c1fa 203c b78a 9d3d

weight f4 [1152, 18]
0.47390115 -0.07345392 -0.13280785 0.21419017 -0.13145226 0.29893175 0.29240844 -0.21547106
0.22245044 0.38288683 0.2274507 -0.23270956 -0.13499264 -0.1995 0.13617909 0.10644855
-0.29380596 0.2107201 0.2714694 0.37121615 -0.32086366 0.052559827 -0.2862982 0.11643159
0.4957581 0.08142305 0.28511396 0.13481468 0.054366767 -0.14257263 0.41703445 -0.023062559
0.1574808 0.069889605 -0.3229839 -0.46935606 -0.03655857 -0.3966079 0.2663615 0.15708849
0.26916152 -0.06229777 -0.049987905 0.20518573 -0.09904853 0.27114475 -0.39024827 -0.3783161
0.42575726 0.090111524 0.19637923 0.31499687 0.006518854 0.106033996 0.15371864 -0.33019283
-0.008050092 0.04020315 0.28906316 -0.18050008 -0.2279935 -0.11301011 0.09597947 0.041966446
-0.4370279 -0.24873868 0.22309838 -0.16544637 -0.011686587 -0.1991053 0.04267952 0.2727353
-0.14298211 0.30355775 -0.31779152 -0.37086594 0.2268887 0.17291993 0.39790815 0.10306728
-0.13495907 -0.00032335712 0.11299597 0.085912384 0.18325172 -0.043612197 0.043236468 -0.05766772
-0.28552908 -0.24214011 -0.18469563 -0.06289949 0.14915413 0.055295516 -0.011414647 0.2855677
-0.063132934 0.34193465 0.12905917 -0.2768177 -0.08705079 -0.1421363 -0.13682376 -0.14970966
-0.104120634 0.12957774 0.44632253 -0.34673008 -0.03754904 -0.18990463 0.32541424 0.045371827
0.26877102 -0.008654127 -0.35625333 0.3363871 -0.09451661 -0.191183 -0.06942029 -0.091605544
-0.018828554 0.29208648 -0.05304969 0.21122453 0.30029032 -0.18107672 -0.16023609 -0.10273938
0.1670104 0.21226767 -0.35113895 0.07602886 -0.19762287 0.15704063 -0.07446967 0.042549472
0.12590396 0.03650975 -0.12730764 0.10654002 -0.336213 0.15702802 -0.019884404 -0.024116127
0.21531981 0.019775597 -0.25338125 0.1806892 -0.17018838 0.2380282 0.41787177 0.38979444
0.38336354 -0.22058482 -0.15341766 -0.178315 0.20789576 -0.51652235 -0.13044427 -0.18845144
-0.103844576 0.021436581 0.16430998 0.25250477 -0.44219616 -0.068697244 0.19817774 -0.023566017
0.18855089 -0.18122166 -0.23093294 0.017688788 0.1709451 0.14582004 -0.030001596 0.18640514
0.21537651 0.12335938 -0.05105739 -0.19396582 0.28526932 0.19824988 0.03437086 0.17878242
-0.20493454 -0.11573998 -0.21607949 -0.070298135 0.21808983 -0.14187028 0.03057007 -0.12599671
0.38824087 -0.0023746195 -0.43440074 -0.10991157 -0.0031702039 0.06263284 -0.077174425 0.49118885
-0.42817086 -0.01019775 -0.3439624 -0.018175561 0.051124748 -0.3886492 -0.09192425 0.349612
0.5415679 -0.20116608 -0.43912777 -0.05943716 0.23631194 -0.03691961 -0.21766518 -0.065498605
0.27256918 0.12085672 -0.37495488 -0.24663088 0.11393109 0.057160698 -0.13555893 -0.17248125
-0.08677778 -0.042175345 -0.13746761 -0.25775617 0.35318646 0.40624788 0.16664226 -0.04906964
-0.33277315 -0.33243978 0.051205173 -0.05537972 0.13664173 -0.39749968 0.18204279 -0.10644087
-0.45193136 -0.29620066 0.033852726 0.0853149 -0.05392072 -0.22414495 0.3411256 0.1915432
0.056886774 -0.023362955 -0.042647645 0.06919228 -0.024379635 0.33629173 -0.2893923 0.04895786
00000000: 2ca3 f23e 026f 96bd c8fe 07be ab54 5b3e
00000010: 6c9b 06be 950d 993e 8fb6 953e 72a4 5cbe
00000020: 0cca 633e be09 c43e d6e8 683e 6a4b 6ebe
00000030: 833b 0abe ba49 4cbe 8872 0b3e b301 da3d
00000040: bc6d 96be 03c7 573e 0afe 8a3e 0b10 be3e
00000050: 3e48 a4be f948 573d ad95 92be af73 ee3d
00000060: 01d4 fd3e 21c1 a63d 75fa 913e dc0c 0a3e
00000070: b0af 5e3d 8ffe 11be 8a85 d53e b1ed bcbc
00000080: a642 213e 4822 8f3d 255e a5be 704f f0be
00000090: 70be 15bd 3110 cbbe 8960 883e cedb 203e
000000a0: 8acf 893e f22b 7fbd 1ec0 4cbd 351c 523e
000000b0: f5d9 cabd 7cd3 8a3e 9fce c7be a6b2 c1be
000000c0: dbfc d93e 648c b83d a317 493e 4547 a13e
000000d0: 1c9c d53b 5a28 d93d 6b68 1d3e 090f a9be
000000e0: 88e4 03bc 0fac 243d 1600 943e 03d5 38be
000000f0: 2177 69be d871 e7bd e290 c43d 02e5 2b3d
00000100: 1fc2 dfbe 5ab5 7ebe e773 643e c66a 29be
00000110: 1979 3fbc 42e2 4bbe b8d0 2e3d f6a3 8b3e
00000120: e769 12be ec6b 9b3e 92b5 a2be 24e2 bdbe
00000130: 8355 683e ec11 313e 9eba cb3e f014 d33d
00000140: b632 0abe 4288 a9b9 6e6a e73d d5f2 af3d
00000150: 57a6 3b3e b4a2 32bd b918 313d fd34 6cbd
00000160: de30 92be 94f3 77be da20 3dbe 73d1 80bd
00000170: dcbb 183e 8d7d 623d 8004 3bbc ee35 923e
00000180: d74b 81bd 0f12 af3e 1628 043e 0dbb 8dbe
00000190: af47 b2bd 2e8c 11be 871b 0cbe 7d4d 19be
000001a0: 333d d5bd 07b0 043e 6384 e43e 9b86 b1be
000001b0: 06cd 19bd 5c76 42be b29c a63e cfd7 393d
000001c0: 5b9c 893e 0aca 0dbc d666 b6be ee3a ac3e
000001d0: ed91 c1bd 7ac5 43be 3a2c 8ebd b09b bbbd
000001e0: 573e 9abc 5c8c 953e a24a 59bd 3e4b 583e
000001f0: a7bf 993e 2d6c 39be ee14 24be 0669 d2bd
00000200: c604 2b3e b25c 593e 7cc8 b3be 05b5 9b3d
00000210: a65d 4abe 42cf 203e 8e83 98bd 5b48 2e3d
00000220: f8ec 003e 3f8b 153d ef5c 02be a731 da3d
00000230: 1c24 acbe f4cb 203e 9ee4 a2bc 2f8f c5bc
00000240: cc7c 5c3e 6f00 a23c 30bb 81be 9706 393e
00000250: dd45 2ebe aabd 733e 4af3 d53e 2393 c73e
00000260: 3a48 c43e fde0 61be 8519 1dbe 3598 36be
00000270: a0e2 543e cf3a 04bf 2f93 05be 6af9 40be
00000280: 77ac d4bd c59b af3c e040 283e 4e48 813e
00000290: 8967 e2be 24b1 8cbd 1bef 4a3e 850d c1bc
000002a0: 7c13 413e 2c92 39be af79 6cbe 14e8 903c
000002b0: 3b0c 2f3e d951 153e e8c5 f5bc fde0 3e3e
000002c0: a98b 5c3e d8a3 fc3d 8e21 51bd fa9e 46be
000002d0: d20e 923e 0402 4b3e 75c8 0c3d bd12 373e
000002e0: 5cda 51be 1509 edbd f143 5dbe 78f8 8fbd
000002f0: f152 5f3e 7146 11be 156e fa3c 4805 01be
00000300: 82c7 c63e 819f 1bbb c669 debe 5119 e1bd
00000310: 32c3 4fbb a545 803d a00d 9ebd 1b7d fb3e
00000320: 3639 dbbe 7714 27bc d71b b0be eae4 94bc
00000330: 2f68 513d 07fd c6be c842 bcbd 5800 b33e
00000340: 32a4 0a3f 7bfe 4dbe 5bd5 e0be 6174 73bd
00000350: c2fb 713e 0439 17bd 9fe3 5ebe 2224 86bd
00000360: 308e 8b3e ba83 f73d 16fa bfbe ce8c 7cbe
00000370: b454 e93d 5621 6a3d f6cf 0abe ed9e 30be
00000380: 8cb8 b1bd 0ec0 2cbd 4fc4 0cbe 9ef8 83be
00000390: dbd4 b43e b9ff cf3e 45a4 2a3e 3ffd 48bd
000003a0: 3e61 aabe 8c35 aabe 84bc 513d d8d5 62bd
000003b0: cfeb 0b3e 1485 cbbe 6d69 3a3e acfd d9bd
000003c0: 8c63 e7be 9da7 97be 28a9 0a3d 94b9 ae3d
000003d0: f9db 5cbd 4186 65be 04a8 ae3e e723 443e
000003e0: 1b02 693d ab63 bfbc 4caf 2ebd afb4 8d3d
000003f0: cdb7 c7bc 6e2e ac3e 3a2b 94be 0988 483d

weight f4 [18, 384]
-0.021127107 0.06708015 -0.13694215 -0.074473076 -0.28717697 0.054653585 -0.004674768 -0.36461392
-0.088808574 0.16484572 -0.1943583 -0.023596628 0.12234881 -0.23674898 0.16382068 0.0595455
0.14781494 -0.03876979 0.073535696 -0.35304022 0.16563715 0.05723262 -0.093021594 -0.0031120733
0.03171012 0.13943838 0.13175406 0.106205285 -0.32047758 0.12089356 0.036003515 0.04777687
-0.17394844 0.12099612 0.028137427 -0.046498414 -0.06928426 0.22160266 -0.015491831 0.19865015
0.12054762 -0.034797434 0.03930327 -0.062120505 -0.014972291 0.114050165 0.053835142 0.03648121
0.0060384804 -0.025365146 -0.04477508 -0.12479833 0.07367588 -0.11007259 -0.043286253 -0.11660017
-0.13425271 0.033685748 -0.07423538 -0.03612487 -0.15605032 0.11572578 -0.21334004 0.11688714
0.043322213 -0.040834717 0.12102342 -0.23454507 -0.064501405 0.04256071 0.0053803157 -0.02137446
0.1168285 0.004656009 -0.1829438 -0.054968067 -0.18288864 -0.08905292 0.16983052 0.05793106
-0.014702648 -0.07214991 0.071225174 -0.037885066 -0.10515002 0.09465224 0.018169925 0.017066583
0.051732503 -0.038987562 -0.11247945 0.19055465 0.117250964 -0.0015854492 0.053125985 -0.061645336
-0.023371741 -0.20549648 0.088220835 -0.14807795 -0.028966034 0.00641867 -0.055768263 0.13564521
0.020557508 0.056853138 -0.0751228 -0.011701091 0.032128647 -0.07019901 0.12344142 -0.025700536
-0.002817406 0.014582929 0.0064573535 0.20598724 0.17991431 -0.06655997 0.01686492 -0.06972955
-0.00696786 0.021903988 -0.09856119 0.022889368 -0.060623847 0.11457894 0.022011256 0.10192025
0.050697893 0.0057425583 0.25183615 0.0997696 0.19751607 0.20291658 0.10545231 0.43399215
-0.25483936 -0.13095406 0.07200998 -0.050186403 0.038768895 -0.081292994 0.021511482 0.02046749
0.05353419 0.15209635 -0.108974025 -0.09629733 0.0378341 -0.08175607 -0.06064614 -0.017172696
0.023988148 -0.14135769 -0.16055977 -0.08063044 -0.038229086 0.12571503 -0.35936108 -0.01695578
0.18193406 -0.017553529 -0.06061031 0.13712017 0.08331748 -0.076620944 -0.32440484 -0.069216184
0.07452151 -0.08251586 -0.14391929 -0.28949755 0.006208808 -0.06300939 0.13205664 0.22758868
-0.10250116 0.03964268 -0.06287499 0.17206874 0.097090565 0.09367987 0.008713261 -0.13772638
-0.09004529 0.0028667143 0.056646854 0.12532426 0.093363516 -0.05452047 0.05025671 -0.023420505
-0.15325224 -0.07194884 0.059882153 0.08369817 0.03328154 -0.13023582 -0.13586447 0.07541111
0.010219518 0.026548322 0.12886475 0.12524551 0.05146406 -0.09562641 -0.100016326 0.100601494
0.04390338 0.13737269 -0.17610188 0.09370114 -0.034407858 -0.06942825 -0.12112284 0.040648654
-0.07888475 0.1919674 -0.07386225 0.13994385 0.100800484 0.027060201 0.028934104 -0.036319725
0.08431534 -0.089612074 0.07903123 -0.014799565 -0.09782147 0.18075043 0.11656656 0.06245189
0.025207605 -0.099394985 -0.05608259 -0.0025534625 0.08570082 0.14791766 0.017675256 0.2768533
-0.005988728 -0.06297147 -0.05166834 0.09672443 -0.08160914 0.24232577 -0.06552531 0.095558375
0.010485513 -0.12233025 -0.06539144 0.041816 -0.0798291 -0.057679623 -0.08931383 0.07723603
00000000: c112 adbc 5161 893d 903a 0cbe 5785 98bd
00000010: dc08 93be 70dc 5f3d cc2e 99bb adae babe
00000020: 45e1 b5bd 51cd 283e dd05 47be b74d c1bc
00000030: 0392 fa3d 536e 72be 9cc0 273e fbe5 733d
00000040: cd5c 173e 12cd 1ebd e299 963d b0c1 b4be
00000050: c99c 293e c06c 6a3d 1b82 bebd edf3 4bbb
00000060: 79e2 013d efc8 0e3e 89ea 063e 2882 d93d
00000070: a315 a4be 0b97 f73d 6c78 133d aeb1 433d
00000080: 8a1f 32be d0cc f73d 7680 e63c 1f75 3ebd
00000090: e8e4 8dbd cfeb 623e 73d1 7dbc f26a 4b3e
000000a0: ace1 f63d c187 0ebd 77fc 203d 1272 7ebd
000000b0: 574e 75bc 2293 e93d 3d82 5c3d 526d 153d
000000c0: 72de c53b 91ca cfbc 1366 37bd 4496 ffbd
000000d0: 61e3 963d bd6d e1bd ed4c 31bd 12cc eebd
000000e0: 8b79 09be 11fa 093d b808 98bd acf7 13bd
000000f0: a8cb 1fbe a301 ed3d d075 5abe 8662 ef3d
00000100: a272 313d 4e42 27bd 20db f73d 952c 70be
00000110: 5019 84bd 2454 2e3d 5c4d b03b 7e19 afbc
00000120: c843 ef3d 6f91 983b 9f55 3bbe 3226 61bd
00000130: 2947 3bbe 6161 b6bd 0de8 2d3e 1f49 6d3d
00000140: 60e3 70bc 55c3 93bd 81de 913d 5f2d 1bbd
00000150: e558 d7bd 09d9 c13d 18d9 943c 38cf 8b3c
00000160: 76e5 533d 6cb1 1fbd a05b e6bd c220 433e
00000170: 4621 f03d d9ce cfba a29a 593d d27f 7cbd
00000180: 1876 bfbc ab6d 52be 20ad b43d bfa1 17be
00000190: 2d4a edbc b553 d23b 436d 64bd 94e6 0a3e
000001a0: 3868 a83c d6de 683d fcd9 99bd efb5 3fbc
000001b0: 5499 033d 80c4 8fbd dbce fc3d ee89 d2bc
000001c0: 3ba4 38bb 3ded 6e3c 3598 d33b 52ee 523e
000001d0: 753b 383e 9850 88bd 4d28 8a3c 5ece 8ebd
000001e0: a552 e4bb fe6f b33c 73da c9bd 7c82 bb3c
000001f0: b650 78bd 5da8 ea3d f350 b43c 90bb d03d
00000200: 98a8 4f3d 122c bc3b abf0 803e 0154 cc3d
00000210: a741 4a3e 5dc9 4f3e 61f7 d73d 3834 de3e
00000220: 4e7a 82be d218 06be f879 933d 4290 4dbd
00000230: 22cc 1e3d f17c a6bd d938 b03c 70ab a73c
00000240: ab46 5b3d 25bf 1b3e c62d dfbd 8937 c5bd
00000250: eef7 1a3d ba6f a7bd 1668 78bd c1ad 8cbc
00000260: cb82 c43c 12c0 10be c869 24be 9221 a5bd
00000270: 1a96 1cbd 71bb 003e 2dfe b7be d9e6 8abc
00000280: ec4c 3a3e 6bcc 8fbc 8442 78bd 3b69 0c3e
00000290: 5ba2 aa3d 71eb 9cbd 6418 a6be 37c1 8dbd
000002a0: bc9e 983d 13fe a8bd 945f 13be 0639 94be
000002b0: 4273 cb3b 110b 81bd db39 073e 020d 693e
000002c0: 21ec d1bd 5d60 223d 9ac4 80bd ca32 303e
000002d0: 6bd7 c63d 3bdb bf3d 11c2 0e3c 2508 0dbe
000002e0: aa69 b8bd 7cdf 3b3b 8806 683d 0155 003e
000002f0: 5f35 bf3d db50 5fbd fbd9 4d3d 5cdc bfbc
00000300: 28ee 1cbe ea59 93bd fd46 753d f269 ab3d
00000310: 3952 083d 8a5c 05be 0e20 0bbe 2471 9a3d
00000320: c46f 273c de7b d93c 1ff5 033e 5c40 003e
00000330: facb 523d c7d7 c3bd 5cd5 ccbd 2808 ce3d
00000340: 08d4 333d 6dab 0c3e 0d54 34be 62e6 bf3d
00000350: 41ef 0cbd 6630 8ebd 400f f8bd 347f 263d
00000360: 548e a1bd 1a93 443e 1745 97bd 714d 0f3e
00000370: 7c70 ce3d 5bad dd3c 3707 ed3c fec3 14bd
00000380: 85ad ac3d 8986 b7bd 20db a13d e079 72bc
00000390: 9f56 c8bd a416 393e 73ba ee3d 8ecd 7f3d
000003a0: 2e80 ce3c 998f cbbd dcb6 65bd fe57 27bb
000003b0: e983 af3d ba77 173e b3cb 903c b7bf 8d3e
000003c0: 173d c4bb 30f7 80bd 2ea2 53bd 7517 c63d
000003d0: b122 a7bd 3f24 783e 2232 86bd 1cb4 c33d
000003e0: 6ecb 2b3c 4888 fabd f3eb 85bd 4147 2b3d
000003f0: 707d a3bd 7841 6cbd 2bea b6bd ec2d 9e3d

bias f4 [18]
-0.023503853 -0.00328677 0.0508059 0.00869298 -0.027603408 0.17176662 -0.03518442 -0.10521184
0.06503069 -0.0659895 -0.1366291 0.099929884 0.1041631 0.112118326 -0.13903148 0.18301603
-0.014806997 -0.015435402
00000000: 278b c0bc da66 57bb d919 503d 006d 0e3c
00000010: 8b20 e2bc 97e3 2f3e 8a1d 10bd 4e79 d7bd
00000020: cf2e 853d 8125 87bd 80e8 0bbe 0aa8 cc3d
00000030: 7753 d53d 4b9e e53d 455e 0ebe 8e68 3b3e
00000040: 0c99 72bc c5e4 7cbc

weight f4 [18]
0.866841 1.4141065 0.89214593 1.0218242 0.92864096 0.9934244 1.0416182 1.100842
1.0759157 1.1011093 0.96157974 1.040279 0.78807104 0.84231305 0.9414467 0.69625956
0.9159986 1.1266011
00000000: 4be9 5d3f 7101 b53f ad63 643f 23cb 823f
00000010: 6abb 6d3f 1051 7e3f bf53 853f 64e8 8c3f
00000020: 9bb7 893f 26f1 8c3f 172a 763f dd27 853f
00000030: 06bf 493f d4a1 573f a702 713f 113e 323f
00000040: e27e 6a3f 7734 903f

bias f4 [18]
-0.3608856 -0.03524534 -0.08012907 -0.15917172 0.10376557 -0.057314567 -0.18378557 0.13352692
-0.13134262 -0.20802762 -0.1836353 -0.032418862 -0.061328202 0.14266154 -0.17163083 0.060721453
-0.358165 -0.08434003
00000000: ffc5 b8be 6b5d 10bd b61a a4bd e9fd 22be
00000010: 0b83 d43d aec2 6abd 4932 3cbe 48bb 083e
00000020: ae7e 06be 3105 55be e40a 3cbe a4c9 04bd
00000030: 4833 7bbd de15 123e febf 2fbe 0fb7 783d
00000040: 6761 b7be 77ba acbd

weight f4 [24, 18]
0.10347499 -0.3259031 0.06708041 0.02015924 -0.071967795 0.04883322 0.1711185 -0.11580958
0.14086069 -0.47487378 -0.1806149 0.31954128 -0.22173722 -0.1027773 0.21867134 0.22192143
0.17916578 -0.17550124 0.14812104 -0.4559833 -0.103156105 0.41561314 0.34553742 0.16287398
-0.33498815 -0.33171377 0.061890747 -0.14620449 -0.14450838 -0.2164152 -0.048765313 -0.13920723
0.37316546 -0.26501995 0.28486207 0.5021096 0.31811693 0.252316 0.14723648 0.061256006
-0.2419556 -0.12068932 -0.02184743 -0.22050132 0.4256561 -0.25355828 0.42305765 -0.0316656
-0.014191809 -0.26421452 0.081504926 -0.116224214 0.46940863 -0.04511746 0.22199586 -0.23644905
-0.12440234 -0.2765345 -0.08410214 -0.36113524 0.6644754 -0.31224847 0.37225816 0.1415109
-0.12840901 -0.5070446 0.30162054 -0.21372478 -0.1502056 -0.056177583 0.1664784 0.4958233
-0.109550744 -0.16309278 0.32241023 0.17192455 0.28465232 -0.08510173 0.087018594 0.04049698
-0.16231585 0.25992453 0.04481907 -0.27328148 0.21140097 -0.24569803 0.17737138 -0.24930407
-0.2532992 0.22967455 0.34497067 0.050878435 0.15300944 -0.15161742 -0.2638283 -0.09357042
-0.29295123 0.0014986638 0.31232566 0.09637566 -0.11987309 -0.051030867 0.30513704 -0.14034201
0.23929311 0.018669814 -0.14716585 -0.039411813 0.17425439 0.35881168 0.33703014 -0.35640162
-0.09917591 0.2859959 0.12895022 0.085839 -0.25672504 0.47560304 0.21850167 0.17413978
-0.2198564 0.21086045 -0.3086248 -0.061911218 0.26931342 -0.12976137 0.14164507 -0.73686993
0.118701264 0.0802895 0.027918374 -0.3968713 0.06954674 0.2456602 -0.065027654 -0.066734046
0.16936223 0.024635954 0.2994441 -0.1355978 0.29601952 0.04077484 0.2344518 0.13533807
-0.21619193 -0.40687302 0.22756486 0.22464876 -0.047085375 -0.20815633 0.16700593 -0.64543176
0.19694941 -0.34962335 0.3155978 -0.15785964 0.20627728 -0.0021189936 -0.15636894 0.12587436
0.124051124 -0.00047902775 0.38074505 0.06471393 0.41224992 -0.15327187 0.20231646 0.30620152
0.38023785 0.07828299 -0.4026292 0.29922128 -0.48791665 0.20804286 0.08515925 -0.17585951
0.011163814 0.09062914 0.24215837 -0.075484015 0.2109227 -0.096911535 0.1919666 -0.002905611
-0.4687277 -0.003861354 -0.20664163 -0.2459609 0.13810626 0.2564625 -0.08218769 -0.20269799
0.055754215 -0.1290589 0.06509912 0.1896956 0.13319032 0.14942996 0.6330206 -0.15978485
-0.28895062 0.2575441 -0.08645709 0.20343125 0.22766729 -0.38590375 0.32258976 -0.022225486
0.066744864 0.039071713 0.1406639 0.113976575 0.23454674 0.04891339 -0.20288178 -0.22566687
-0.262798 0.46046212 -0.2344178 0.15576786 0.049438745 0.2818619 -0.31771424 -0.49237135
0.10216704 -0.39017537 0.2125048 0.40344432 -0.09347204 0.23813498 -0.099056095 -0.19834672
0.3005116 0.19767295 0.2490335 0.075005405 0.041577965 -0.3339175 -0.13685516 -0.11631831
-0.013610777 -0.26311892 0.32003805 0.018207226 0.1451008 -0.16980605 -0.07402502 -0.16518955
-0.014909385 -0.3392609 0.40654063 -0.23828827 0.25924712 0.19419575 0.15593071 0.13629231
00000000: b2ea d33d c5dc a6be 7461 893d fe24 a53c
00000010: da63 93bd 5805 483d b039 2f3e 932d edbd
00000020: c93d 103e a822 f3be 1df3 38be ea9a a33e
00000030: 150f 63be e87c d2bd 61eb 5f3e 5f3f 633e
00000040: 3c77 373e 99b6 33be 0bad 173e a576 e9be
00000050: 8243 d3bd 3fcb d43e 48ea b03e 70c8 263e
00000060: 9183 abbe 63d6 a9be 2781 7d3d a1b6 15be
00000070: 01fa 13be f29b 5dbe 23be 47bd 578c 0ebe
00000080: 8b0f bf3e b2b0 87be 71d9 913e 418a 003f
00000090: 39e0 a23e 902f 813e 29c5 163e 94e7 7a3d
000000a0: 35c3 77be f62b f7bd 62f9 b2bc 19cb 61be
000000b0: 99ef d93e 64d2 81be 039b d83e cab3 01bd
000000c0: c384 68bc 2047 87be 0eec a63d f606 eebd
000000d0: 5456 f03e 16cd 38bd e252 633e b31f 72be
000000e0: a7c6 febd ee95 8dbe be3d acbd b8e6 b8be
000000f0: 0f1b 2a3f 08df 9fbe 9f98 be3e 3ce8 103e
00000100: a77d 03be adcd 01bf 026e 9a3e abda 5abe
00000110: 7fcf 19be 771a 66bd 5079 2a3e 8ddc fd3e
00000120: 245c e0bd cb01 27be f412 a53e fd0c 303e
00000130: f3bd 913e d149 aebd ce36 b23d 29e0 253d
00000140: 2036 26be d414 853e 3394 373d 8deb 8bbe
00000150: 7f79 583e 4498 7bbe d8a0 353e 9149 7fbe
00000160: 6fb0 81be ce2f 6b3e ff9f b03e e865 503d
00000170: 82ae 1c3e 9941 1bbe 8114 87be d9a1 bfbd
00000180: b4fd 95be d06e c43a 26e9 9f3e 9a60 c53d
00000190: 0680 f5bd be05 51bd ec3a 9c3e d1b5 0fbe
000001a0: 4109 753e 70f1 983c a5b2 16be 486e 21bd
000001b0: be6f 323e 2ab6 b73e 378f ac3e 467a b6be
000001c0: bd1c cbbd 0e6e 923e 870b 043e 5ccc af3d
000001d0: 7771 83be 3e82 f33e e7be 5f3e b351 323e
000001e0: 0922 61be cdeb 573e 1204 9ebe 9e96 7dbd
000001f0: 73e3 893e 2ae0 04be 680b 113e 82a3 3cbf
00000200: a619 f33d d26e a43d 13b5 e43c b732 cbbe
00000210: 856e 8e3d 598e 7b3e 382d 85bd dcab 88bd
00000220: 4b6d 2d3e 57d1 c93c bd50 993e 26da 0abe
00000230: df8f 973e 8503 273d 2214 703e 1096 0a3e
00000240: 6b61 5dbe a951 d0be c306 693e 530a 663e
00000250: 98dc 40bd ef26 55be 9a03 2b3e 043b 25bf
00000260: 1bad 493e d501 b3be 0996 a13e f5a5 21be
00000270: 5a3a 533e d0de 0abb 2e1f 20be 35e5 003e
00000280: 840e fe3d 0426 fbb9 04f1 c23e bd88 843d
00000290: 6c12 d33e 4df3 1cbe 0c2c 4f3e 72c6 9c3e
000002a0: 89ae c23e d552 a03d 6a25 cebe 8833 993e
000002b0: 36d0 f9be 3009 553e f967 ae3d 8414 34be
000002c0: 6ee8 363c c59b b93d 5df8 773e 5d97 9abd
000002d0: 1ffc 573e 8e79 c6bd e492 443e 106c 3ebb
000002e0: 14fd efbe c50e 7dbb dd99 53be 2ddd 7bbe
000002f0: ba6b 0d3e 0e4f 833e 0552 a8bd 1090 4fbe
00000300: 885e 643d 0428 04be b052 853d 903f 423e
00000310: 0b63 083e 2b04 193e a30d 223f a49e 23be
00000320: 56f1 93be d2dc 833e 6a10 b1bd 4850 503e
00000330: 9d21 693e 2d95 c5be 7c2a a53e 3912 b6bc
00000340: 88b1 883d a909 203d 330a 103e 8d6c e93d
00000350: 052d 703e 6859 483d 3ec0 4fbe 3715 67be
00000360: 768d 86be b1c1 eb3e 380b 70be 9c81 1f3e
00000370: 4880 4a3d 3450 903e 71ab a2be 1918 fcbe
00000380: f43c d13d 11c5 c7be dc9a 593e 4190 ce3e
00000390: 456e bfbd a8d9 733e ecdd cabd 671b 4bbe
000003a0: a8dc 993e c76a 4a3e a302 7f3e 6f9c 993d
000003b0: a84d 2a3d 3cf7 aabe c223 0cbe 4b38 eebd
000003c0: bdff 5ebc 86b7 86be 07dc a33e 5227 953c
000003d0: 4e95 143e a3e1 2dbe 6e9a 97bd 7327 29be
000003e0: 7e46 74bc 9bb3 adbe 1826 d03e d701 74be
000003f0: 0abc 843e 40db 463e 4dac 1f3e 3690 0b3e

bias f4 [24]
-0.4589371 -0.006341894 -0.3778483 -0.3010099 -0.2638629 -0.31028497 -0.052214593 -0.49931532
-0.0698544 -0.1762011 -0.35214362 -0.23996118 -0.36239713 -0.5302808 -0.2801633 -0.35490856
-0.4881697 -0.31574374 -0.52555937 -0.21080826 -0.4249372 -0.29608974 -0.18366423 -0.306965
00000000: cef9 eabe aacf cfbb 5575 c1be f81d 9abe
00000010: 0a19 87be acdd 9ebe f8de 55bd 42a6 ffbe
00000020: d30f 8fbd 106e 34be 2b4c b4be 62b8 75be
00000030: 1e8c b9be 7cc0 07bf 9071 8fbe 93b6 b5be
00000040: 61f1 f9be 2aa9 a1be 0f8b 06bf 1fde 57be
00000050: 5e91 d9be 1399 97be 7a12 3cbe 842a 9dbe

weight f4 [18, 24]
0.048305683 0.35800442 0.19182307 0.29941234 -0.09522808 0.28238925 0.19364189 -0.17025663
0.0496614 0.3461784 -0.08973512 0.13998234 0.21407303 0.12991498 -0.017404823 0.21883997
0.12829745 0.101622365 -0.060765255 0.0011240105 0.2165125 -0.07782345 0.15637723 0.049517788
-0.06359738 0.20675382 -0.550606 0.6786216 -0.0989655 -0.26676708 0.03133735 0.46117732
0.254067 0.11383177 -0.14568622 -0.28890058 -0.022161108 -0.31885335 0.5929188 -0.07084879
-0.09201033 -0.23282497 0.3034925 0.1506303 0.09963595 -0.3087603 -0.34746066 0.28255743
-0.37562832 -0.18472221 -0.030025564 -0.25342038 0.10586791 0.10945434 0.05121347 0.21164545
0.134381 0.33537263 0.108277366 -0.33982784 -0.409722 0.00876154 0.117038764 0.012130307
0.02912538 0.036333732 -0.23461397 -0.35724208 -0.50551736 -0.274153 0.10099192 -0.08225928
0.027669018 0.10002833 -0.45351288 -0.53835845 0.3303331 0.13048899 -0.102250114 0.519894
-0.22184302 -0.25640136 0.1858495 0.1991159 0.64813536 -0.6155927 -0.37561134 0.44358593
0.46068063 0.115347736 -0.074333824 -0.21478559 0.09910374 -0.15362015 -0.35602066 0.119052716
0.075094715 0.29099992 -0.15424877 0.08268973 0.084769405 -0.21537139 -0.025675979 -0.27981374
-0.13040993 -0.033861045 -0.2777599 0.0012048873 0.026432566 -0.008517108 0.035968855 0.14351153
-0.37378684 -0.2740902 0.07925278 -0.0036023865 -0.04074179 0.3710379 -0.0034399193 0.20066419
-0.044793658 0.085831374 -0.0084431125 -0.0049654827 -0.31378162 0.10040703 -0.022965986 -0.2595526
0.09158972 0.2721915 -0.12088047 0.07380792 0.059079614 0.22362307 0.0924178 0.16891387
0.09814611 0.46588543 -0.23233566 0.20656969 0.0049445955 0.24337173 0.1337718 0.003800841
0.07179377 0.0401724 0.3394339 0.016949188 0.035977755 -0.048617978 -0.09749836 0.17796849
0.41924492 0.1401056 -0.14216615 0.55121917 0.0052287215 0.14271085 0.22162181 -0.37524632
0.021653458 0.09792756 0.2918872 0.34170592 0.19260158 -0.11023315 -0.12508826 0.0622005
-0.3272996 -0.14815517 -0.067114145 0.08595212 -0.4735206 0.15648314 -0.13742192 0.022835296
-0.47647494 -0.33319497 0.20708936 0.15656996 -0.13313968 -0.12125551 -0.022490509 -0.11454923
0.33470333 0.1576015 0.219422 0.083015464 0.14501755 -0.14515859 0.018425958 -0.4523463
0.25311136 -0.19533038 -0.05217411 0.11696664 -0.090222366 0.42871964 0.06767663 0.27947038
0.2784932 -0.056654952 0.2150321 0.04375379 0.070742086 -0.02793535 0.0690526 0.1350808
0.11248005 0.16104163 0.18256323 0.043537322 0.25730595 0.1684047 0.073868975 -0.265399
-0.051192358 0.2657529 0.113237984 0.20785247 -0.018855227 0.086216405 0.26941815 -0.2630561
0.05952183 -0.0076690665 0.158409 0.28706294 -0.20352311 -0.15142983 0.4072128 -0.14809713
0.13340011 -0.06518753 0.4910153 -0.023502529 0.064703405 -0.14492635 -0.012835055 0.18855514
-0.19763094 -0.45839727 -0.10318764 -0.14296566 0.1493096 -0.052116055 -0.12256474 0.15717083
0.019154564 0.048828743 -0.25973433 0.17955601 0.44216046 -0.15842286 -0.14011304 0.2350045
00000000: 2edc 453d 5b4c b73e 446d 443e 934c 993e
00000010: f106 c3bd 5395 903e 0f4a 463e c157 2ebe
00000020: c169 4b3d 4c3e b13e 0cc7 b7bd 8857 0f3e
00000030: f635 5b3e 6f08 053e 8f94 8ebc 9617 603e
00000040: 6860 033e 631f d03d fde4 78bd 8953 933a
00000050: 74b5 5d3e e761 9fbd 5a21 203e 2ad3 4a3d
00000060: 583f 82bd 46b7 533e 84f4 0cbf 25ba 2d3f
00000070: 6dae cabd b295 88be 985b 003d 6f1f ec3e
00000080: 1215 823e a220 e93d c52e 15be c7ea 93be
00000090: 368b b5bc bf40 a3be 87c9 173f 2c19 91bd
000000a0: e96f bcbd ab69 6ebe 5e63 9b3e d43e 1a3e
000000b0: ef0d cc3d d415 9ebe 5de6 b1be 5eab 903e
000000c0: 5b52 c0be d227 3dbe 2cf8 f5bc 51c0 81be
000000d0: 46d1 d83d 9929 e03d 37c5 513d 96b9 583e
000000e0: 2c9b 093e f6b5 ab3e 86c0 dd3d eafd adbe
000000f0: 15c7 d1be 908c 0f3c 05b2 ef3d 32be 463c
00000100: 5998 ee3c aed2 143d a53e 70be 6fe8 b6be
00000110: 9669 01bf c85d 8cbe dad4 ce3d 8e77 a8bd
00000120: 23aa e23c a7db cc3d d732 e8be dcd1 09bf
00000130: 6c21 a93e e89e 053e 8268 d1bd c617 053f
00000140: d12a 63be 0a47 83be 554f 3e3e 0ae5 4b3e
00000150: 33ec 253f 7c97 1dbf 2150 c0be b21d e33e
00000160: 55de eb3e 6f3b ec3d 553c 98bd c1f0 5bbe
00000170: e7f6 ca3d 9a4e 1dbe 5748 b6be e9d1 f33d
00000180: 42cb 993d f1fd 943e 64f3 1dbe 3c59 a93d
00000190: 959b ad3d 518a 5cbe 6e56 d2bc bf43 8fbe
000001a0: 2e8a 05be e1b1 0abd 8c36 8ebe 4fed 9d3a
000001b0: 1c89 d83c 578b 0bbc 1454 133d b0f4 123e
000001c0: fd60 bfbe 8d55 8cbe 484f a23d 0416 6cbb
000001d0: dde0 26bd aef8 bd3e 4570 61bb ea7a 4d3e
000001e0: 8e79 37bd 5cc8 af3d fb54 0abc 7db5 a2bb
000001f0: fca7 a0be 33a2 cd3d 2a23 bcbc 14e4 84be
00000200: 6493 bb3d af5c 8b3e 2e90 f7bd 9b28 973d
00000210: 77fd 713d 72fd 643e 8b45 bd3d c2f7 2c3e
00000220: d400 c93d 8988 ee3e 66e9 6dbe 0187 533e
00000230: 4606 a23b 7036 793e 7afb 083e 8817 793b
00000240: 9d08 933d d18b 243d 48ca ad3e 06d9 8a3c
00000250: 695d 133d a523 47bd 38ad c7bd 5f3d 363e
00000260: 45a7 d63e d877 0f3e 0194 11be b31c 0d3f
00000270: b255 ab3b cb22 123e d4f0 623e 4920 c0be
00000280: 9862 b13c 3f8e c83d 3d72 953e 14f4 ae3e
00000290: 5939 453e ebc1 e1bd 2317 00be f4c5 7e3d
000002a0: d093 a7be fdb5 17be 2473 89bd aa07 b03d
000002b0: 4b71 f2be 1e3d 203e 55b8 0cbe 1611 bb3c
000002c0: 86f4 f3be 8898 aabe 3c0f 543e e053 203e
000002d0: c555 08be cf54 f8bd 043e b8bc c998 eabd
000002e0: 3c5e ab3e 4a62 213e 29b0 603e 0304 aa3d
000002f0: 7b7f 143e 74a4 14be 09f2 963c ef99 e7be
00000300: d097 813e b004 48be 85b4 55bd 358c ef3d
00000310: 81c6 b8bd 2481 db3e 0c9a 8a3d be16 8f3e
00000320: a996 8e3e 060f 68bd 6031 5c3e 2d37 333d
00000330: 3ae1 903d add8 e4bc 736b 8d3d 9f52 0a3e
00000340: f15b e63d 19e8 243e dbf1 3a3e 3154 323d
00000350: 9bbd 833e 4872 2c3e 9e48 973d 61e2 87be
00000360: 14af 51bd c410 883e 51e9 e73d 47d7 543e
00000370: 4776 9abc 3a92 b03d 2df1 893e 4aaf 86be
00000380: 2acd 733d cb4c fbbb f835 223e eaf9 923e
00000390: 5d68 50be 6c10 1bbe 327e d03e c6a6 17be
000003a0: 0a9a 083e 0a81 85bd 5b66 fb3e 6088 c0bc
000003b0: 3883 843d 9367 14be 1f4a 52bc 9914 413e
000003c0: c45f 4abe 0cb3 eabe 0b54 d3bd 9765 12be
000003d0: 9ee4 183e a577 55bd 3903 fbbd 64f1 203e
000003e0: 08ea 9c3c a600 483d e6fb 84be 88dd 373e
000003f0: db62 e23e 9a39 22be cb79 0fbe 05a5 703e

bias f4 [18]
0.16442494 -0.21792121 0.12346969 -0.09669566 0.11351138 0.056175105 0.015863845 0.039873425
-0.0419148 0.03992723 -0.18358561 0.17032443 0.052852605 0.22011107 0.04892345 0.17436801
0.04102078 -0.027326752
00000000: 035f 283e bd26 5fbe addd fc3d 6008 c6bd
00000010: a878 e83d de17 663d e5f4 813c 5152 233d
00000020: daae 2bbd bc8a 233d defd 3bbe 8769 2e3e
00000030: f97b 583d cc64 613e f563 483d 878d 323e
00000040: 6805 283d 5adc dfbc

weight f4 [18]
0.84935975 0.87120116 0.5658378 0.8563584 0.8000377 0.7602632 0.651244 0.7368359
0.8188987 0.8437239 0.7874154 0.60517037 0.8348853 0.68940496 0.76620257 0.8531304
0.73319954 0.70831954
00000000: a46f 593f 0a07 5f3f bfda 103f 4e3a 5b3f
00000010: 45cf 4c3f 9ca0 423f edb7 263f 47a1 3c3f
00000020: 58a3 513f 4afe 573f 0e94 493f 72ec 1a3f
00000030: 0bbb 553f d87c 303f da25 443f c166 5a3f
00000040: f7b2 3b3f 6e54 353f

bias f4 [18]
-0.12464151 0.003994068 0.040562257 0.07034723 0.03304622 0.09315291 0.08200702 0.10230401
-0.054305136 -0.058094706 -0.11117616 -0.028808184 0.028422903 0.008562632 0.20722048 0.13638525
0.015280184 0.0027061338
00000000: 0c44 ffbd ace0 823b 9c24 263d 3512 903d
00000010: 795b 073d f4c6 be3d 4cf3 a73d c484 d13d
00000020: 106f 5ebd b7f4 6dbd 54b0 e3bd 24ff ebbc
00000030: 26d7 e83c 484a 0c3c 9b31 543e 93a8 0b3e
00000040: bd59 7a3c 6459 313b

weight f4 [1152, 18]
-0.10581597 0.1897825 0.07257889 0.053402048 -0.42642653 -0.12704004 0.17830926 -0.29010454
-0.031903595 0.21803202 -0.102907546 0.03156587 0.023818787 0.14828287 0.28042912 0.1107845
0.10874637 0.02991177 -0.0033000098 0.18288063 0.12608665 0.22221139 -0.041214783 0.25445366
0.41684502 0.27713382 0.25915706 -0.269583 -0.50783694 -0.3563633 0.18031956 -0.049867738
-0.35289595 0.55371344 -0.03109234 -0.13135064 -0.0599624 0.10117275 0.083119884 -0.120943226
0.09259469 -0.105280034 -0.1386056 -0.23988128 -0.1243654 0.050790936 0.13010724 -0.048107788
-0.031255573 0.27744102 0.046488456 -0.23016717 0.23163782 0.046407696 0.25147542 -0.4728932
0.43223384 0.14564106 0.14746845 0.13289692 -0.40075734 -0.2573433 0.10063511 0.1448298
0.22904742 0.24395807 0.16460052 -0.050229315 -0.19947474 -0.08767547 0.02308076 0.15119994
0.21101959 0.2658464 -0.22658487 -0.016374974 -0.58431077 0.5651802 0.40560707 0.32315493
0.19062744 -0.22171105 0.06291356 -0.44672668 0.10882124 -0.55734384 -0.06875127 0.23830666
-0.381513 -0.3362842 -0.05186365 0.1611983 0.19370613 0.018169098 -0.33043718 0.086074196
0.36684072 0.10888713 0.2723341 0.22737199 -0.30159605 -0.57888365 0.06203266 -0.19584467
-0.22889614 0.32653946 0.22733873 -0.15656148 -0.18333942 -0.19428055 -0.4699027 -0.2733134
0.25768387 0.0646626 -0.0034452917 -0.13629265 -0.15834773 -0.009042729 0.071452715 0.412954
0.26823238 0.2613372 0.17276812 0.12074025 0.36178082 0.13417627 0.17574407 -0.014143677
-0.25518662 0.06555904 0.025341691 0.16558984 -0.12561439 -0.22973111 -0.05389177 0.31724223
0.24291445 -0.084654 -0.45656925 -0.03189976 0.018429121 -0.07364655 0.07308631 0.20742436
0.31087127 -0.33281222 -0.41849336 0.3230984 0.45537895 -0.24129634 -0.48096204 0.14205495
0.4611377 0.10043923 -0.106276274 0.10297084 0.002438861 0.19517335 -0.2703405 -0.3984709
0.23620503 -0.08681382 0.22965825 0.55342615 0.09549964 0.06353525 -0.3919028 0.061202887
0.030369414 0.320083 -0.023001421 -0.14117259 -0.22386038 -0.3029345 -0.38685074 -0.16623484
-0.060369827 0.02410338 0.011279515 -0.3107762 0.025871668 -0.09046517 0.23538446 0.11264701
-0.06472692 0.04804048 -0.13542819 0.13199568 -0.029684477 -0.15289003 0.041272324 0.15314539
0.09082423 -0.14297242 0.13088712 -0.5786511 0.50517243 -0.065176934 -0.016634075 0.10572868
-0.10822792 0.21898393 0.11316488 0.4327124 -0.3953874 0.3197081 0.26956597 -0.15899062
-0.11274336 -0.13864568 -0.6130931 -0.3872643 -0.051218823 0.19211334 -0.6116609 -0.009854594
0.041094698 -0.14194034 -0.7398324 -0.16351552 0.036561813 0.2136445 0.17423221 0.38248593
-0.22103436 0.08597714 0.036575574 0.3332539 -0.26392967 0.02455918 0.20059152 -0.16715322
0.41907167 -0.38139907 -0.066192426 -0.112768285 0.15266722 -0.06926325 -0.18252182 0.21916167
0.11013808 0.19518793 -0.32934362 -0.0395218 -0.15016535 -0.0868667 0.4147718 -0.20659558
0.104323305 0.46843642 0.41624272 -0.21654637 0.08647145 0.074448474 -0.25186762 0.16401303
00000000: 0bb6 d8bd 5856 423e 3ea4 943d 1bbc 5a3d
00000010: 9454 dabe c916 02be b496 363e 9588 94be
00000020: 58ad 02bd c943 5f3e 31c1 d2bd 374b 013d
00000030: 9e1f c33c 77d7 173e 6894 8f3e fce2 e23d
00000040: 6bb6 de3d 8709 f53c fa44 58bb 0f45 3b3e
00000050: dc1c 013e 628b 633e d5d0 28bd c047 823e
00000060: b66c d53e 7ce4 8d3e 3cb0 843e c806 8abe
00000070: 9a01 02bf 4075 b6be b1a5 383e 1d42 4cbd
00000080: c7ae b4be 2ac0 0d3f 5db5 febc c880 06be
00000090: 229b 75bd a933 cf3d c23a aa3d 15b1 f7bd
000000a0: 49a2 bd3d 0f9d d7bd a0ee 0dbe 70a3 75be
000000b0: 49b3 febd 280a 503d d53a 053e ac0c 45bd
000000c0: d805 00bd c00c 8e3e ae6a 3e3d f1b0 6bbe
000000d0: 7732 6d3e ff15 3e3d 63c1 803e 0f1f f2be
000000e0: c14d dd3e ee22 153e f801 173e 2116 083e
000000f0: 1130 cdbe 80c2 83be c819 ce3d 434e 143e
00000100: 688b 6a3e 25d0 793e 0a8d 283e 41bd 4dbd
00000110: 1b43 4cbe 328f b3bd dd13 bd3c 28d4 1a3e
00000120: 8515 583e 051d 883e dd05 68be cf24 86bc
00000130: 6495 15bf a6af 103f bbab cf3e 9074 a53e
00000140: d733 433e 3908 63be d3d8 803d 5cb9 e4be
00000150: acdd de3d 16ae 0ebf 77cd 8cbd a906 743e
00000160: ac55 c3be 712d acbe fb6e 54bd 2b11 253e
00000170: e65a 463e 5cd7 943c 102f a9be ab47 b03d
00000180: 8cd2 bb3e 3700 df3d 606f 8b3e 34d4 683e
00000190: cc6a 9abe b831 14bf f515 7e3d 818b 48be
000001a0: c063 6abe 2e30 a73e 7ccb 683e a751 20be
000001b0: 54bd 3bbe 7bf1 46be 1697 f0be bcef 8bbe
000001c0: 24ef 833e d36d 843d 67ca 61bb 4d90 0bbe
000001d0: e825 22be f427 14bc cd55 923d b56e d33e
000001e0: c155 893e fdcd 853e 20ea 303e aa46 f73d
000001f0: 563b b93e 8165 093e 41f6 333e e2ba 67bc
00000200: d2a7 82be d143 863d 6199 cf3c 6290 293e
00000210: 0fa1 00be a23e 6bbe 9ebd 5cbd 936d a23e
00000220: 91be 783e 145f adbd 72c3 e9be 53a9 02bd
00000230: abf8 963c 01d4 96bd 46ae 953d 0d67 543e
00000240: 852a 9f3e 5d66 aabe c344 d6be 276d a53e
00000250: 6e27 e93e 6316 77be a840 f6be da76 113e
00000260: 3e1a ec3e 15b3 cd3d 60a7 d9bd 60e2 d23d
00000270: 4cd5 1f3b 86db 473e 126a 8abe 6104 ccbe
00000280: bbdf 713e 72cb b1bd 882b 6b3e 56ad 0d3f
00000290: 5195 c33d c51e 823d 7ca7 c8be e1af 7a3d
000002a0: 47c9 f83c ebe1 a33e 7a6d bcbc 8c8f 10be
000002b0: a83b 65be 3b1a 9bbe 4d11 c6be 7739 2abe
000002c0: 5a46 77bd 7474 c53c b7cd 383c 0f1e 9fbe
000002d0: d2f0 d33c ce45 b9bd a008 713e 7ab3 e63d
000002e0: 8c8f 84bd 18c6 443d b0ad 0abe e029 073e
000002f0: dc2c f3bc 348f 1cbe 2b0d 293d 25d2 1c3e
00000300: 0e02 ba3d 5d67 12be 4607 063e 7a22 14bf
00000310: fb52 013f 7c7b 85bd 2f44 88bc 4788 d83d
00000320: 9aa6 ddbd 533d 603e fdc2 e73d 7b8c dd3e
00000330: 3870 cabe c8b0 a33e 8d04 8a3e 70ce 22be
00000340: fee5 e6bd 22f9 0dbe abf3 1cbf 8247 c6be
00000350: d4ca 51bd 5cb9 443e cf95 1cbf 2a75 21bc
00000360: ea52 283d cf58 11be a865 3dbf 9d70 27be
00000370: d7c1 153d a0c5 5a3e ee69 323e 32d5 c33e
00000380: d556 62be c814 b03d 45d0 153d 41a0 aa3e
00000390: ca21 87be 5530 c93c dd67 4d3e 372a 2bbe
000003a0: 9090 d63e bd46 c3be e58f 87bd 0ff3 e6bd
000003b0: cc54 1c3e e4d9 8dbd 00e7 3abe eb6b 603e
000003c0: 1390 e13d 58df 473e ba9f a8be 9ce1 21bd
000003d0: f2c4 19be 2be7 b1bd f85c d43e cb8d 53be
000003e0: 75a7 d53d e6d6 ef3e c41d d53e 55be 5dbe
000003f0: f217 b13d 7178 983d cbf4 80be 08f3 273e
