Case_Study_1/trained_transformer/verification2/vit_24_1_6_12.pt (torch, 171111 bytes, 19 tensors)

pos_embedding f4 [1, 50, 24]
00000000: 210e 4c3f 1fdc 24be 0e3c 4d3f 10b1 d23f
00000010: e098 e43f 0f89 a8bf ba8f e53e 8e20 dfbc
00000020: 8c10 97bc d671 da3f 1909 d23f 9647 9b3e
00000030: bff0 babe d5d1 e7bf eb1b 573f 72c4 ed3f
00000040: c88a 8abf 4de2 ba3f 9eb8 6a3d 0a03 19be
00000050: 6ea8 96be 869a 3c3e 9c6a 95be 5046 10be
00000060: 5774 973e 010a 4a3f a1b7 29bf dbcf 75bf
00000070: b32e 353d 4951 5fbf cc6f e03d eb3d 043f
00000080: f7cc 263d 4cf0 023f 7fa6 1040 3223 de3f
00000090: 44ba dd3f 24e9 903f 725a 3e3f 98c4 cdbf
000000a0: f81f bd3f 8b2d 273f d232 e4be 6935 8bbe
000000b0: 46a3 c2bf b81c 063f af04 e3bd 7964 68bf
000000c0: dacc 053f 2184 023f 9a22 9f3f 8543 3cbf
000000d0: 1d03 4b3e 2b23 0abf b8ee 61bf c816 17bf
000000e0: 7acb f03e cc6f 5d3f 0021 b13e c712 22c0
000000f0: ca59 933e d55f 0540 b116 d53f 37c0 b1be
00000100: c973 423d 537f 30be c5a6 ef3c d815 1bbf
00000110: fb6e 0040 6c4b 8bbf c6ac b8bf 3db5 babf
00000120: c9fb 2e3f c737 ecbe 3b12 8bbf 6f57 8a3e
00000130: 8271 d03f 3bbb 4f3f ec90 b3bf 6f8c 1540
00000140: f602 223f 9deb 9d3e cc85 cabf e661 7d3f
00000150: 72e9 173f 66da 683f 9597 903d b5f8 45bf
00000160: 21d9 1ebf c839 533d 59b2 56bf 2ba9 ac3e
00000170: abb8 03be 6340 b83d 5184 f4bf bf75 713e
00000180: d1be a5bf 3059 9abf ec25 ef3e 015f 9f3e
00000190: edfc 203f d6c3 61be fa9d 913e d175 523f
000001a0: abab 0fbf a243 debe 3f70 a6bf cf5b 92be
000001b0: 6850 bc3f d4c7 06be 0dad a43f e080 99bf
000001c0: 8929 8fbe 2d40 5abf 9461 73bf 0ccb b73f
000001d0: 4e8f 223f 64c7 febe 4552 233e fd20 08bf
000001e0: 0d5c 243f 1945 ab3d 6ca3 bd3e e16c 423e
000001f0: 2220 80bf e5c8 7f3e 8f8e cabe 862b ce3f
00000200: 717c b53e 8727 9b3e 07bc f73f 904d b03e
00000210: b7da 84bf 963f fbbe 3427 e4be da2d d2bf
00000220: ac1e 363d 638f 163e 932d 8bbe 96d2 82bf
00000230: cd83 973f 52c5 10bf 6015 f53e 1425 d73e
00000240: a36d c93e 5bd6 cdbe cc19 73be 354f b4bc
00000250: 907b f73f 973b 92bf 324d 1c3e 13d7 d83e
00000260: 1a2d 33bf 5716 febe ecfb b4bf ae78 cf3e
00000270: 10cd 0040 55f4 223e 68b5 98bf 3a12 b2bf
00000280: af6f c73f 49bd 66bf b374 23bf 7bd4 4d3e
00000290: 7d9d d8bf b60f 4d3e 51c5 b93f 253d 9bbe
000002a0: d657 993d 9c37 8e3f e4f1 e13d 34fe c33d
000002b0: a234 8fbf 1646 763f 9e10 e13f 618e d23f
000002c0: f376 5abf 6a0c 5f3f 5f92 9c3f 26b0 67be
000002d0: b02f 2c3f fa16 253f 0c28 873f 3e50 97bf
000002e0: 1f4b 563f dab2 4fbe 4f49 cabf e4da a53f
000002f0: dc72 d8bf 6070 543f a0e3 093e ed43 42bc
00000300: 96d3 d33f a8c6 1abd c7e5 c1bf e1be 803d
00000310: 1eb1 e23c 6054 893c 52b5 0abe 56ae 6cbd
00000320: ab54 663f 1fdc 4e3f 7c3c b8be 75eb aabf
00000330: 90e6 0a3f bf8a 1c3f 5f1d 933f 555a bdbf
00000340: 1f61 903f 391a dc3f 8aae 20bf 7071 c93d
00000350: 86c9 a3bf 90f9 66bd bf30 0f3f 8925 b4be
00000360: d1e4 663f ac99 08bf 9c24 483f 8541 a53e
00000370: 9d0f 4c3f 09a2 92bf d362 e9be 7642 b23f
00000380: 9365 05bf b84d 093f 32fd 6cbf 1e4d 7a3f
00000390: 38ba 5b3f 8a54 c63e 001d a4be 744e 00c0
000003a0: 500a 2ebe b7b5 fd3e ad8b 2dbf dc6f 193f
000003b0: 0407 983e 62ec c0be c697 33bf 9dff cabf
000003c0: e7b9 923f c149 15be 8573 b53e 3fdb 663e
000003d0: 41f5 843f c67a 843f 04f4 37bf 4010 26bf
000003e0: b55f 60bf 8123 06be 8367 323e 2253 143f
000003f0: 5263 753f 707e 413e 6777 263f 876b bdbf
0.7970906 -0.16099595 0.8016976 1.6460285 1.7859154 -1.3166827 0.44836217 -0.027237203
-0.018440507 1.706599 1.6409026 0.30328053 -0.365118 -1.8110911 0.84026974 1.8575575
-1.0823603 1.4600312 0.05730497 -0.14942566 -0.29425377 0.18418321 -0.291829 -0.14089322
0.29580948 0.78921515 -0.6629582 -0.9602029 0.04423399 -0.87233406 0.109588236 0.5165698
0.040722813 0.51147914 2.260162 1.7354491 1.7322469 1.1321149 0.7435676 -1.6075621
1.4775381 0.6530387 -0.44570023 -0.27189186 -1.5206077 0.5238757 -0.11084878 -0.9077831
0.52265704 0.5098286 1.2432435 -0.73540527 0.19825406 -0.5395991 -0.8825488 -0.59019136
0.4703024 0.86498713 0.3459549 -2.532396 0.2877944 2.0839741 1.664755 -0.3471696
0.047473703 -0.1723607 0.029254327 -0.60580206 2.0067737 -1.0882392 -1.4427726 -1.458656
0.68352944 -0.46136305 -1.0864938 0.27019832 1.628464 0.81145066 -1.4028602 2.3366964
0.6328577 0.3084382 -1.5822082 0.98977506 0.59340584 0.9095825 0.07060162 -0.7733262
-0.6205006 0.051568776 -0.83865887 0.33722815 -0.12863414 0.08996656 -1.910288 0.23580073
-1.2948858 -1.2058468 0.4670862 0.3112717 0.62885934 -0.22047362 0.2844084 0.82211024
-0.5612132 -0.43410975 -1.3003005 -0.2858567 1.4712038 -0.13162166 1.2865311 -1.1992455
-0.27961376 -0.85254174 -0.9507077 1.435884 0.63499916 -0.49761498 0.15949352 -0.53175336
0.6420296 0.08362789 0.37038743 0.18986847 -1.0009806 0.24978979 -0.3956189 1.6107032
0.35446504 0.30303594 1.9354256 0.34434175 -1.0379246 -0.4907195 -0.4456116 -1.6420243
0.044462845 0.14703135 -0.27183208 -1.0220516 1.1837097 -0.56551087 0.4786787 0.42020476
0.3934146 -0.40202603 -0.2374031 -0.022010425 1.9334583 -1.1424435 0.15263823 0.4235159
-0.69990695 -0.4962642 -1.413938 0.4052176 2.012516 0.15913518 -1.1930361 -1.3911812
1.5580958 -0.90132576 -0.63849944 0.20100586 -1.6923062 0.20025524 1.4513341 -0.30320087
0.074874565 1.1110721 0.11032465 0.0956997 -1.1187937 0.9620069 1.7583196 1.64497
-0.8533775 0.8712832 1.2232169 -0.22625789 0.67260265 0.64488184 1.0559096 -1.1821363
0.83708376 -0.2028307 -1.5803622 1.2957425 -1.6910052 0.8298397 0.13465738 -0.011857015
1.6548946 -0.03778711 -1.5148247 0.06286407 0.027672347 0.016763866 -0.1354573 -0.057783447
0.89972943 0.8080463 -0.35983646 -1.3353106 0.5425806 0.6114921 1.1493338 -1.4793192
1.1279639 1.7195503 -0.62766325 0.098360896 -1.2795875 -0.056390345 0.55933756 -0.35184887
0.90192896 -0.53359485 0.7818086 0.3227655 0.79711324 -1.1455699 -0.4558321 1.3926532
-0.52108115 0.53634214 -0.92573845 0.9777392 0.8583102 0.38736373 -0.32053375 -2.0047884
-0.16996121 0.495527 -0.67791253 0.5993631 0.29692852 -0.37680346 -0.7015346 -1.5859257
1.1462983 -0.14578916 0.35439697 0.22544573 1.0387346 1.0349967 -0.71856713 -0.64868546
-0.8764604 -0.13099481 0.17422299 0.5793935 0.95854676 0.18895888 0.65025944 -1.479844

cls_token f4 [1, 1, 24]
00000000: d9ad 603d 15a4 46be 840c e2be 6413 a8bf
00000010: 5c94 73bf 9c7e 733d a2eb c6be 741c 9dbf
00000020: 779e 0c3e 1500 b43f f9e0 cfbf c84f e13e
00000030: 7196 8f3e 326a d5bf 6a16 f53e 10b9 6e3f
00000040: 6fd1 37bf 8c3f abbf 1095 8c3e 1e29 753d
00000050: ab57 9b3f edf4 a03f 29df 97bd 21f0 71be
0.054853294 -0.1939853 -0.44150174 -1.3130918 -0.95148253 0.059446916 -0.3885165 -1.2274308
0.13732325 1.4062525 -1.6240531 0.4400618 0.28044465 -1.6673033 0.47868663 0.9325113
-0.71803945 -1.3378768 0.27457476 0.059853666 1.2136129 1.2574745 -0.07415611 -0.23626758

weight f4 [24, 16]
00000000: 606e 9fbd 0de9 d5bc ccb3 903d 22b7 993e
00000010: c033 1cbe 2b9b 52be b6e3 143d e94a 23bd
00000020: 3ea5 2fbe e3c4 0b3e 0e21 0b3e 4853 f7bd
00000030: 6cc5 ccbd d836 04bc 683b f1bd 90ee 503c
00000040: c807 703e bbd3 c33c beb6 173d 2fad 383e
00000050: 6132 01be 745b fe3d ef99 e9be f95f 113e
00000060: 1ca0 64be 8d2b 113e dd3e 2abe a36c 303e
00000070: 4b4b 893d 12fc 8e3c 8462 45bd 5537 f13c
00000080: a201 9c3b b96e a9bd 4941 77bd 448a d6bc
00000090: d753 36be 14a1 f73d 32d8 02bd fa4d 003e
000000a0: 3af8 19be a296 0b3e 5641 183c fa48 883d
000000b0: 0491 793e e1c1 283e 9491 0a3e 4e1f 07be
000000c0: 8606 3dbd a7aa d3be 6947 e7be 3cea 333e
000000d0: 720b 04be 82ed e7be c9e7 e9bd fccb 673e
000000e0: fc47 95be b874 cdbd 213b bbbd 7d19 d13d
000000f0: abe3 72be 8250 eebd 2848 4c3e 6318 833e
00000100: a409 a7bd 03a4 23bc aac2 53bd 4278 753d
00000110: 0609 bf3d 81df 06be 2557 a3bd f00f 393e
00000120: 4eef 003e c834 8cbe 5683 f23d 40ce e03c
00000130: dfac 4b3d cb4d 27bd 7220 69bc e1d8 dd3e
00000140: 756a 923b 4a1f 753d da52 6bbc e78f 8f3b
00000150: 7a24 ecbd 60da 8a3e 029f cfbd fe74 b3bd
00000160: 1f4e 8ebc 8397 703d 3671 473d 8566 a7bd
00000170: aa67 2f3e 6fc7 2dbe 0b8a ccbd 5fac 663c
00000180: c10d 02be a56d aebc 22a5 843d 511e aebd
00000190: d1aa 59bd 0aae e4bd 65f9 663e 0c50 9cbe
000001a0: 763e 25be ca97 b5bc ae1e b23d f98d 53be
000001b0: a1c0 c4bd 4b0b 643d fd52 553e 1599 fbbd
000001c0: 59b9 1bbe 9940 5fbe 43c1 08be 6cfc 203e
000001d0: 8929 9cbd 4358 acbd ad6e bfbd 1a94 bf3c
000001e0: 906b 0f3e 4634 32bc 76ec 8bbd 9d09 8a3d
000001f0: a53f 7d3b da04 44be fd61 e6bd 1745 c93d
00000200: 3660 b4bd 765c 3bbd e7bc 44bd 9814 b4b9
00000210: 4c49 39bd a1fd 003e 1ea9 453e 6b91 16be
00000220: 9031 17be d823 883e 7aae d03d 41c1 49be
00000230: 5184 6c3d 7074 653e 81bf 1f3e 8358 19be
00000240: f2df fabc 24e2 5b3e 7c50 7d3e 9cf5 09be
00000250: 9fb6 073e 5697 a43d eb3b d43c bce1 f1be
00000260: 7214 123d e3ce 8cbd 444b 5cbe 14ef c6bd
00000270: ece9 65be 6f46 cb3d 1299 1b3e 4843 513b
00000280: 7b79 81be f3a9 a6be 82a5 183e 2942 ba3e
00000290: cb79 d5be a08f a0bd 463f ac3e 023b 123e
000002a0: 2592 a1be 7464 c23d c0a9 693e 00fc 51be
000002b0: fbc2 b9be 95af a93e 242f 0a3e cd8d cc3a
000002c0: 5e46 aa3e 3178 80bd a036 5fbe a1e3 473e
000002d0: 12b0 ae3e 8fbb 9abe 7aee febe cfc0 183e
000002e0: fe0b dc3e 48d8 8cbe bff5 8ebe 4e5b 523e
000002f0: 27e4 dcbc 6bae e6be d738 9ebe 687a 323e
00000300: 7e87 1d3e e589 bd3c 958d 66bb 5ac1 323e
00000310: af52 17be 82ae de3d 133a ffbe d7d6 14be
00000320: ac3b b73d d581 313d a42e 74be 2a54 e63c
00000330: 6ff3 393e 4a21 2fbe 472d 12bd 9e24 76be
00000340: 7298 2e3e 071b 4fbc 14ae a63e 7105 62bc
00000350: e4b8 cd3a 36dc e13d 4817 763e be89 bebe
00000360: 89cd 033e c45d 633e a956 a7bd 190d 91be
00000370: eee6 b63e 3197 2dbd dc0b 77bd 44b7 2bbe
00000380: 6f4e 003f 5db1 9abe 8f2a 093d fcd1 eebc
00000390: 887d 0fbc 03f4 7bbe de23 253b a5dd cb3d
000003a0: 0237 92bd d5a7 293d 71a3 073e 0471 17be
000003b0: aa30 4c3e 7ace 2f3d a4f1 913d 1cfb 3e3e
000003c0: 13f1 883d f12e 663e a0c6 2abd 855b 8ebe
000003d0: 14b4 96bd d90a 673e 6816 08bf c90e a7be
000003e0: a80a f63d cde6 8b3e 1d4e 8abe 12a6 3dbe
000003f0: 9d06 993e 8025 f73c 9926 05bf 8c62 3f3c
-0.07784724 -0.026112104 0.070655435 0.30022532 -0.15254116 -0.20567004 0.036349975 -0.03986636
-0.17152879 0.13649325 0.13586828 -0.120764315 -0.09998593 -0.008069716 -0.11778909 0.01275219
0.23440468 0.023904672 0.03703951 0.18034814 -0.12616874 0.12419787 -0.45625255 0.14196767
-0.22326702 0.1417677 -0.16625543 0.17228942 0.06703814 0.01745418 -0.048189655 0.02944533
0.004760937 -0.08273072 -0.060364995 -0.026188977 -0.1780542 0.1209127 -0.03194446 0.12529746
-0.15036097 0.1363168 0.009292921 0.06654544 0.24371725 0.16480209 0.13532096 -0.13195536
-0.0461488 -0.41341135 -0.4517167 0.17569822 -0.12894991 -0.45298392 -0.11421163 0.22636408
-0.29156482 -0.10032028 -0.09142137 0.1020994 -0.23719661 -0.116364494 0.199494 0.25604543
-0.08156136 -0.009987834 -0.051699318 0.05992914 0.09327893 -0.13171197 -0.07975606 0.18072486
0.12591287 -0.2738402 0.118414566 0.027442098 0.04972541 -0.040845674 -0.014228927 0.43329528
0.004468257 0.059844293 -0.014363015 0.004381168 -0.11530395 0.27119732 -0.1013775 -0.08762549
-0.017371235 0.058738243 0.04869195 -0.08173851 0.17129388 -0.16970609 -0.09987267 0.014079182
-0.12700559 -0.021292517 0.06476809 -0.08501876 -0.05314142 -0.11166008 0.22556074 -0.3052982
-0.16137108 -0.022167105 0.08697258 -0.20659627 -0.096070535 0.055674832 0.20832439 -0.122850575
-0.15207423 -0.21801986 -0.13354973 0.15721291 -0.0762511 -0.08415272 -0.093472816 0.02338605
0.14005876 -0.010876721 -0.06832211 0.06740115 0.0038642671 -0.19142476 -0.112491585 0.09827631
-0.08807413 -0.045742474 -0.048031714 -0.0003434762 -0.045235917 0.12596752 0.19302794 -0.1470391
-0.14765 0.26589847 0.10189529 -0.19702627 0.057743374 0.22407699 0.15600397 -0.14975171
-0.030624364 0.21472985 0.24737734 -0.13472599 0.13253258 0.080366775 0.025907477 -0.47242534
0.03566403 -0.06875398 -0.21513087 -0.09713569 -0.22452515 0.099255435 0.1519511 0.0031930972
-0.25287995 -0.32551536 0.14906886 0.363786 -0.41694483 -0.07839894 0.33642024 0.14280322
-0.31556812 0.09491816 0.2281866 -0.20506287 -0.3628157 0.3314177 0.13494545 0.0015606225
0.3325681 -0.06272925 -0.21798182 0.19520427 0.34118706 -0.3022122 -0.49791318 0.149173
0.429779 -0.2750876 -0.27921864 0.20542642 -0.02696426 -0.45054945 -0.3090274 0.17429507
0.15383717 0.023137042 -0.0035179604 0.1745657 -0.14777635 0.108731285 -0.49848995 -0.1453508
0.089469284 0.043336708 -0.23845917 0.028116304 0.18159269 -0.17102543 -0.03568771 -0.24037406
0.17050341 -0.012640721 0.32554686 -0.013795243 0.001569536 0.1102833 0.24032319 -0.37214464
0.12871374 0.22203737 -0.08170826 -0.28330305 0.3572306 -0.042380515 -0.060314044 -0.16769129
0.5011968 -0.30213442 0.033487853 -0.029152863 -0.008757956 -0.24604802 0.002519838 0.09954385
-0.07139398 0.041419823 0.13245942 -0.14789206 0.19940439 0.04292152 0.071261674 0.18650478
0.06686606 0.22478844 -0.04169333 -0.278042 -0.07358566 0.22562732 -0.5315919 -0.32628468
0.12013751 0.27324525 -0.2701272 -0.18520382 0.29887858 0.030169249 -0.5201202 0.01168121

bias f4 [24]
00000000: eb39 fcbd 8d38 cb3d 6489 af3e 1f17 723e
00000010: 5072 013e 366e 383d d30b b33d 8b10 07be
00000020: c292 213c 7d7a a5be 0673 3d3d f26c 993e
00000030: cb4f fbbd 351b b1bd 50ac 023e afb6 143e
00000040: cf3b db3d 8c54 08bc 44ba fe3d 385d 08be
00000050: 92e2 203e f52d 91bd 890b c9be cce4 853d
-0.123157345 0.099228956 0.34284508 0.23641632 0.12641263 0.04502698 0.0874249 -0.13189904
0.00986165 -0.32320014 0.046252273 0.2996593 -0.12271079 -0.086477675 0.12761045 0.14522813
0.10704767 -0.008320939 0.12437871 -0.1331681 0.1571143 -0.07088844 -0.39266613 0.0653778

weight f4 [24]
00000000: 8d3f 713f 69e0 463f 3bd6 7c3f 191c 383f
00000010: 2cb8 473f c04c 453f 0e4f 833f 68b8 513f
00000020: 0023 5d3f 7cd4 2f3f 2cc5 323f 5915 223f
00000030: 1caf 563f 619c f63e 6c60 2b3f a7bd 2e3f
00000040: 94e0 1d3f 9b6e 7e3f 104a 773f e30a 523f
00000050: 39d5 573f 6c07 123f 0830 4a3f 0d1d 493f
0.94237596 0.7768617 0.9876439 0.71917874 0.780154 0.77070236 1.02585 0.81922007
0.8638153 0.686836 0.6983211 0.63313824 0.83860946 0.48166183 0.66944003 0.68258137
0.61670804 0.9938752 0.96597385 0.8204786 0.84309727 0.57042575 0.7897954 0.7855995

bias f4 [24]
00000000: af5d cb3c e990 ff3d fa74 e2bd de25 62bd
00000010: d13c 8cbe 7c13 94bd d4d0 b73d 11d1 973e
00000020: 08d2 073d c2f6 d8bc 1e64 b73d 25d8 88be
00000030: d4ee 263e e5ae 873e 858c 1fbe 6692 22be
00000040: 9d6a 013e 8f6c 123d 9e29 e2be d592 093e
00000050: 79bc b1be 57c4 cabd a201 a23e a971 ef3c
0.024824945 0.12478811 -0.11057468 -0.055211894 -0.2739015 -0.07230279 0.08975378 0.29651693
0.033159286 -0.02648485 0.08954643 -0.26727405 0.16302043 0.2650062 -0.15580948 -0.15876159
0.12638326 0.03574806 -0.44172376 0.13434918 -0.34714106 -0.0990073 0.3164187 0.029229002

weight f4 [1152, 24]
00000000: 1900 623e 8983 2c3e 9157 b7be 9039 e23d
00000010: ab01 6c3c beb8 2cbe f0ce 19bb a18e 68bd
00000020: 7fa3 2bbe 7dc1 76bd 05ec 9d3e 0b31 f4bd
00000030: e86b 7c3c 17dc 0c3e a46b 493e 7a73 cdbd
00000040: 9668 e53c 9fc8 723e e35f 67be efb6 36be
00000050: 2183 97bc 365f 32be 2112 c43d 676e acbd
00000060: 68ab d7bc d23e 36bc 6ab4 2c3e 8daa 29be
00000070: 72c7 b5bd f6c6 6f3d 27d9 b2bd 63e9 3ebe
00000080: b90d b5bd 317a e3bd be2c a5be 8b54 f9bd
00000090: 0f42 28be 1b83 b2bc 0767 b0bc 4c0e b13d
000000a0: 57ba 49bd 8be8 eebd ed8e 20be ccf7 6bbe
000000b0: bd64 0fbe 0587 b0bc dc03 efbd 32db e53d
000000c0: eb48 23bd f628 d23d 28db 953d 1be8 2dbe
000000d0: 3366 ab3d c529 f6bd 3654 c1bd 77ae ffbd
000000e0: 7aac 1dbc 5e36 40be d1bc 99bd 0cdc e13d
000000f0: 88c4 2ebe 476f 09bd 2dd4 66be 7d7e 093e
00000100: 09e8 38be c389 3dbe 7fbb 33be b496 f53d
00000110: 668f 323d 459b 10be 4e15 fcbd 55e1 3f3e
00000120: 9cf2 60bd 3e35 01be a3ce 81bc b1a6 4c3e
00000130: 1d02 363d dc83 393e a735 5abc 34cb dc3d
00000140: 494a c43d fd76 ca3d 9202 d4bd 8cad bbbd
00000150: 8952 28bc 6399 14be aca5 46be 93a0 253e
00000160: 8ca5 0a3e 6e06 963b 3bee ca3c be9c 21be
00000170: c3e9 883b 554d 0dbd 7719 5fbd e3cc 4b3e
00000180: 0151 3f3e 588d 153d 2824 50be 74aa 6cbb
00000190: 429d 83bd fe2c 843b b566 5ebe 23f9 9bbd
000001a0: e224 d0bd 921c 0abe c269 bdbe 5379 ff3d
000001b0: 65fe 123c e653 ed3c 8676 ed3d 9f31 113e
000001c0: a773 c23d 3683 b0bd a5fb c0bd 3289 0dbe
000001d0: 2718 033e c94a d3bd da1c 1cbe bc04 cfbd
000001e0: d43d 363e 15ea 0dbe 03f1 f7bd 6b57 adbd
000001f0: df1b 843d 4203 c5bd d279 233e e7be 2a3d
00000200: 0409 363e 941d e8bd 729c 57bc f7f5 bdbc
00000210: 0cfb 8fbd e265 eabd 2466 233e 67e3 15be
00000220: 0842 15bd 6c08 763e 304a 383e 2448 15be
00000230: a365 c43d daa7 b7bc 5162 32be 1623 e13d
00000240: 5d29 d2bd 23cb 77bd a4ea 3e3d 866e 02be
00000250: fb79 04be d0d7 033e 5a14 9f3d 1837 423d
00000260: f3ad 0b3e 281e c73c 8863 8a3e 735a 87bd
00000270: 91e1 80bd b6ce 523d eea5 b83d 55fa 093e
00000280: 2ef8 143d 6edd 883e c657 0bbe 2753 413e
00000290: 4b6e e7bd 48f0 40bd 4270 00be 884c 28bd
000002a0: 1499 e9bc fa3c 333e 0151 00be c24d 263e
000002b0: 0abd 53be a9ff e7bd 11c6 373e 224a e7bd
000002c0: 54d9 4f3e 6a76 37be 5d38 4abe 7aaa 1e3a
000002d0: e229 c33d 099d b7bd 9be9 053e f23c c13c
000002e0: 3106 c3bd a94a ce3c 380e 373e 768b 533d
000002f0: 62a3 f7bc e418 fe3d b05f 8b3c 0eaa dd3d
00000300: d6ef df3d b3a7 ba3d 2963 36bd b85d 233d
00000310: 7127 f73d 5a41 97bb 870c 90bd 647e d0bd
00000320: 68ac 0fbd 4079 483d 04e4 a63e da17 9ebc
00000330: 44f3 4d3e 0325 fabd c8d1 e1bc 1761 043d
00000340: a05c 22be 3ced 06bd 61e7 6e3e c95e b23d
00000350: 80ec 21be 0260 733b fb89 143d cd46 713e
00000360: 51cb 31be b8a8 0f3e a233 0e3e cf41 1cbd
00000370: 5832 bc3d e2a5 803d 05e3 59bc dd9f c03d
00000380: 66ba 61be 2f8e 353e a1c8 da3b 0700 90bd
00000390: c2b7 55bc 124a 87bb df63 86bd dae8 07bd
000003a0: c500 043d d20b bb3d 2751 6dbe f3cd d53d
000003b0: 0ae1 4d3e b3f5 51bd 12c8 97bd e67b dbbd
000003c0: c535 b33d dd5f 513e 71cd 123d 8025 50be
000003d0: 25a8 0bbe 6d6e 5cbd 51d0 08bb ac63 fb3c
000003e0: de9b 193e ca83 88be 1e9e 36be 32fa ce3d
000003f0: 351b 4b3e 3967 673e a180 8abe 799f 38be
0.2207035 0.16847052 -0.35808995 0.110461354 0.014404695 -0.16867349 -0.0023469292 -0.056776647
-0.16761588 -0.06024312 0.3084413 -0.11923417 0.015406586 0.13755833 0.19669968 -0.10031791
0.028003972 0.23709343 -0.22595172 -0.17843221 -0.018495144 -0.17419133 0.0957377 -0.08419495
-0.02632685 -0.011123376 0.16865698 -0.16568966 -0.08875932 0.058539353 -0.08732825 -0.18643717
-0.08840508 -0.111072905 -0.32260698 -0.121743284 -0.1643145 -0.021791032 -0.021533502 0.08645305
-0.049249973 -0.11665448 -0.15679522 -0.23043746 -0.14003272 -0.021548757 -0.11670658 0.11223449
-0.039864462 0.10261719 0.07317191 -0.16983072 0.08369102 -0.12019686 -0.0943989 -0.124844484
-0.009623641 -0.1877074 -0.07506717 0.11028299 -0.17067158 -0.033553388 -0.22541876 0.13427158
-0.18057264 -0.18509583 -0.17551993 0.11991635 0.043593787 -0.1412173 -0.12308751 0.18738301
-0.05491887 -0.12617967 -0.015845602 0.19985463 0.04443561 0.18116707 -0.013318456 0.107809454
0.09584481 0.098859765 -0.10352053 -0.09163961 -0.010273584 -0.14511637 -0.19399136 0.16174535
0.13539714 0.004578403 0.0247718 -0.15782449 0.004178257 -0.034497578 -0.054467645 0.19902377
0.18683244 0.03651175 -0.20326293 -0.003611234 -0.06426479 0.004033684 -0.21718867 -0.076158784
-0.10163285 -0.13487461 -0.3699475 0.12474313 0.008971785 0.02897067 0.11594872 0.14179085
0.09494715 -0.086187765 -0.094229974 -0.13821867 0.12802182 -0.103169985 -0.15245381 -0.10108325
0.17797023 -0.13858826 -0.12106516 -0.08463939 0.064506285 -0.09619762 0.1596444 0.041685965
0.17776877 -0.113337666 -0.013159858 -0.023188574 -0.07030305 -0.11445214 0.15956932 -0.14637528
-0.036439925 0.2402665 0.1799705 -0.145783 0.09589698 -0.022418905 -0.17420317 0.1099302
-0.10261796 -0.06049646 0.04661049 -0.12737474 -0.12937157 0.12875295 0.07767554 0.047415823
0.13640575 0.024306372 0.2702906 -0.06609049 -0.062930234 0.051466666 0.090160236 0.134744
0.036369495 0.26731437 -0.13607702 0.18879376 -0.113003336 -0.04710415 -0.12542823 -0.04108861
-0.028515376 0.1750373 -0.125309 0.162406 -0.20677581 -0.1132806 0.1794665 -0.112934366
0.20297748 -0.17916265 -0.19748063 0.00060526247 0.09529473 -0.08965499 0.13077395 0.023588631
-0.09522665 0.025182085 0.17876518 0.051646672 -0.030229274 0.12407091 0.0170134 0.10823451
0.10934417 0.09114017 -0.04452816 0.0398843 0.1206807 -0.004615945 -0.070336394 -0.10180357
-0.03507653 0.048943758 0.32595837 -0.019298483 0.2011233 -0.12214091 -0.027565852 0.032319155
-0.15855646 -0.032941088 0.23330452 0.08709485 -0.15812874 0.0037136083 0.0362644 0.23562165
-0.17362715 0.14029205 0.13886884 -0.038148697 0.0918929 0.0628164 -0.013298755 0.094054915
-0.22043762 0.1773002 0.006676749 -0.07031255 -0.0130443 -0.004128703 -0.06562018 -0.03318105
0.032227296 0.09133114 -0.23175488 0.10439672 0.20105377 -0.051259708 -0.07411207 -0.10716991
0.0875049 0.20446725 0.035840455 -0.20326805 -0.13638361 -0.053816248 -0.002087612 0.030687176
0.15000865 -0.26663047 -0.17833754 0.10106315 0.19834597 0.2259797 -0.2705126 -0.18029584

weight f4 [24, 384]
00000000: b6f3 9d3d 616d 133e bb3c 013e c87e e7bd
00000010: 90c4 903e bdd8 96be dcd0 803e 996c ebbe
00000020: 7aa3 583c cbb9 9ebe 3af1 653d 99f7 903e
00000030: 66e0 63be e79f 0f3e b530 c93d 71dd 123e
00000040: 8835 b7bd 9933 233f df4f b6bd 931c 513e
00000050: f0e7 3f3e c148 cb3e f5a6 b03d c873 c7be
00000060: 1e15 5fbe 76f8 6a3d 7a0a abbd 3b04 be3d
00000070: 4995 9dbe 29c4 ad3e 3f58 d0bd 18e6 38be
00000080: da60 a4be dd0b 2fbe 01cb c7be 1d94 b33e
00000090: 0c6a 0bbe 6c66 453e 28a9 963e d96c d33e
000000a0: 06b4 d0be 2376 643d e697 95be cf02 f13d
000000b0: 050e 733c abc3 0bbe 6efa 34be cea2 4a3e
000000c0: 1108 703e 19b3 863e 29aa 093d 3708 04be
000000d0: 1dcb a2be 9e89 473e 2320 e13e 0de5 8cbe
000000e0: 0ca6 07be baf9 5b3e 7f48 0dbf 94ce 483e
000000f0: bb93 17be d296 5abe 7eb6 10bf d289 693e
00000100: 4a2b dbbb 5ace c03b bc57 1a3c 8ae1 f23b
00000110: 3328 d03c d34e 763d 54a7 10be 01f2 953d
00000120: d865 013e 4c09 b43c 61c9 9fbd 8402 d039
00000130: 7586 dd3a f80c 2f3d efbb 30be 1eaf 893e
00000140: 2882 bbbd 368b f1bd e7d1 f8bc 705f 073d
00000150: d3a3 93bd 0745 4b3d 6b03 bcbc c599 a63d
00000160: d7eb 283e 7a6d 343e 1e78 ad3b 3ff5 603e
00000170: 613b 893d a9e6 c6bd bedb 1bbe 89ca aa3d
00000180: 020a b33c 8028 f9bc 9718 da3d 6712 7dbd
00000190: d4ee 59bd 2c54 1fbd 67b9 a9ba 0dde 9abd
000001a0: 9ce8 87bc 263f 6fbc 82eb 03be e01d 2c3d
000001b0: 20ec f4bc 401c 13be 767b 9bbd 5f1a 5dbc
000001c0: f525 563e 2174 4fbe 4cd6 80bd 2218 0c3d
000001d0: 66d6 afbd b191 8c3d f3d2 52bd 3900 cc3d
000001e0: c75d 52bd 97dd 39bd 3612 393c 8960 6d3d
000001f0: d5a5 43bd 79b0 3c3c c715 753d 37cd 8cbd
00000200: f20e 3d3e 17d9 5a3e 3504 e7bc ef98 8b3e
00000210: 6618 1c3e 4917 b73c df6f 9dbd c3f7 013e
00000220: 0dda f33d f129 44be 107e 293e 6ea5 59bb
00000230: feeb 14be 5809 273e 4706 e83d c287 0d3e
00000240: 28af 22be 1236 6bbe 7126 453d 55e4 633d
00000250: 7e0d 73bd 8a47 edbd e669 1ebd 2aa5 c63d
00000260: 7551 aa3c 88ba 723d f123 593e 64cf 09be
00000270: e486 5e3e 2cdc 313c 2b7e 473d d450 8abe
00000280: c761 61be ab51 1a3c 1bc7 1bbe 9fff 32bd
00000290: a675 013e d894 90be 4c40 babd afa2 bebd
000002a0: 637a 093d 5c95 783d c4c0 4e3e f914 153e
000002b0: 2151 003e 19d7 1ebe a93b 56bc 3a8d 7c3e
000002c0: a976 39be 2b65 d63c e30f e2be 1f31 a53d
000002d0: 67f7 083e 3718 7e3c cc70 aabd bceb f63b
000002e0: 3701 d4bd 2d78 fcbd ccf3 71bd 90f1 99bd
000002f0: a33b 503d c8a1 9abd fab9 a9be 6ae1 dd3e
00000300: 4be1 1fbe 6197 8e3d 1db8 a6be 8996 323d
00000310: 28b5 9f3e 5478 553d 2255 343e 698a 09be
00000320: a6b6 e43c 00a8 b6bc 8449 4fbd 06de 97bc
00000330: 5b68 1bbe 03a9 a83d 6959 353e 5ca5 c7bc
00000340: e391 113e b4d1 5abd dfef 0dbe 6181 a43e
00000350: 5a00 1cbe 0d26 273e a2b2 983d 8e8c 9d3d
00000360: 60e4 933d d9b3 e9bd bf78 da3d 006b a4bd
00000370: bbb8 c33d cd99 d13e d411 08be e1d9 21ba
00000380: b133 4fbe c08f 48be 9981 b43d 7542 b9bb
00000390: ff08 7a3c 895b cdbd adea 223e f244 e93d
000003a0: 87e9 b43d a0dc 243a b579 823d b864 753d
000003b0: 7c09 94bd 0d35 913d 7659 81bd 98b7 303d
000003c0: 8d58 6c3e 29f0 29be 04be d03b aaa3 243e
000003d0: 7778 113e fca7 6d3e 33b2 26be 102c fbbc
000003e0: f607 8abd bd36 0d3c a6e7 453c 4936 19bd
000003f0: 5a09 263d 8c5c 973d b770 5dbd 4d02 1ebd
0.077125 0.14397193 0.12620823 -0.113034785 0.28274965 -0.29462233 0.25159347 -0.4598129
0.01322257 -0.31001124 0.056138255 0.28313902 -0.2225357 0.14025842 0.09823743 0.14342286
-0.08945757 0.63750607 -0.08901953 0.20421056 0.18740821 0.39703944 0.086255945 -0.38955522
-0.217854 0.057365857 -0.083516076 0.09278151 -0.30777958 0.3393872 -0.101730816 -0.18056524
-0.32105142 -0.17094369 -0.39022067 0.3507394 -0.13614672 0.19277352 0.2942593 0.41293982
-0.40762347 0.055776726 -0.29217452 0.11768114 0.0148348855 -0.1364886 -0.17673656 0.19788668
0.23440577 0.26308516 0.033609543 -0.12893759 -0.31795588 0.1948609 0.4396983 -0.27518502
-0.13246936 0.21481982 -0.55188745 0.19610053 -0.14802448 -0.21346596 -0.5652846 0.2280648
-0.00668851 0.005883974 0.009420332 0.0074121403 0.025409793 0.060133766 -0.1412633 0.07321549
0.12636507 0.02197709 -0.07802082 0.00039674726 0.0016901033 0.042736977 -0.17259191 0.26891416
-0.09155685 -0.117941305 -0.030373527 0.03305 -0.07208981 0.049626376 -0.022950849 0.08134798
0.16496216 0.17619887 0.00529386 0.21968554 0.06700779 -0.09711964 -0.15220544 0.08339412
0.021855358 -0.03041482 0.106492214 -0.061785128 -0.05320628 -0.038898632 -0.0012948931 -0.07561884
-0.016590409 -0.014602458 -0.12882808 0.04202068 -0.02989775 -0.14366245 -0.07591908 -0.013495057
0.20912917 -0.20259143 -0.06290874 0.034202702 -0.08585815 0.06863726 -0.051470708 0.0996098
-0.051358964 -0.04537734 0.011295846 0.05795339 -0.04776557 0.011516684 0.05983522 -0.06875079
0.18462732 0.21371876 -0.028200248 0.27265117 0.15243682 0.02234997 -0.07687353 0.1269217
0.11906824 -0.19156624 0.16551995 -0.0033210176 -0.14543149 0.16312158 0.11329322 0.13821319
-0.1588713 -0.22969845 0.048132364 0.055637676 -0.05933904 -0.115859106 -0.03867521 0.09699471
0.020790795 0.05925992 0.21205117 -0.1345802 0.21731144 0.010855716 0.048704308 -0.27014792
-0.22009955 0.009418885 -0.15212671 -0.04370081 0.12642536 -0.2823856 -0.09094295 -0.09308373
0.033563983 0.060689315 0.20190722 0.14558782 0.12530948 -0.1551174 -0.0130757475 0.24663249
-0.18111672 0.026171288 -0.44152746 0.0806601 0.13375627 0.015508703 -0.083222955 0.007535426
-0.10351794 -0.12327609 -0.059070393 -0.075167775 0.050838124 -0.075503886 -0.331497 0.4333604
-0.15613286 0.06962467 -0.32562342 0.043600593 0.311929 0.052116707 0.176106 -0.13431706
0.027919125 -0.022296906 -0.05060722 -0.018538486 -0.15176527 0.082353614 0.17709889 -0.024370842
0.14215808 -0.053422645 -0.13861035 0.32129958 -0.15234509 0.16323109 0.074559465 0.07692824
0.072212934 -0.11411256 0.10667562 -0.08028221 0.09556719 0.40937653 -0.13288051 -0.0006174129
-0.20234562 -0.19586086 0.08813781 -0.0056536742 0.015260934 -0.100272246 0.15909834 0.113901034
0.08833604 0.0006288979 0.0637087 0.059910506 -0.072283715 0.07090197 -0.063158914 0.04314384
0.23080654 -0.1659552 0.006370308 0.16078058 0.1420611 0.23208612 -0.16278915 -0.03066066
-0.067398 0.008619008 0.012079155 -0.037405286 0.040536262 0.07390699 -0.05406257 -0.038576413

bias f4 [24]
00000000: 0c39 5f3d facd 8ebe a83f 123e a2e5 053d
00000010: 26ca 573c 4863 91bc c860 193c c363 af3d
00000020: 5915 093e f086 0f3d 1f0b a63d 4ef5 4fbd
00000030: d5e2 bc3b bb9e 96bc d896 fc3c 426c b6bd
00000040: f122 2c3c 9b2a 4cbe f3bc 9fbd 6a3c ee3c
00000050: 7787 03bd 5efc f23c fd9e 9e3b 02f1 7c3d
0.054497764 -0.27891523 0.14282095 0.032689698 0.013170755 -0.017747536 0.009361453 0.0856395
0.1338705 0.035040796 0.0810759 -0.05077105 0.005764345 -0.018386235 0.030833647 -0.08907367
0.010506378 -0.19938128 -0.07799711 0.029081542 -0.03211161 0.029661354 0.00484073 0.06175328

weight f4 [24]
00000000: fe7b b83f cee7 ae3f df90 8c3f 8dce a23f
00000010: cf7f bf3f bfe6 b73f 07e3 753f f5c2 9f3f
00000020: aaa5 893f 6156 813f 9866 bc3f 119f a23f
00000030: ff6f b53f 9986 bb3f 3148 b63f e0df 913f
00000040: 7898 8b3f 424e a83f 1b80 ae3f 1237 ce3f
00000050: ea83 853f a753 993f e408 7e3f fbff cd3f
1.441284 1.3664491 1.0981711 1.2719284 1.4960879 1.4367293 0.9604954 1.2481371
1.0753682 1.0104486 1.4718809 1.2704793 1.4174803 1.4650451 1.4240781 1.1396446
1.0905905 1.3148882 1.3632845 1.6110556 1.0430882 1.1978654 0.99232316 1.6093744

bias f4 [24]
00000000: 8416 563e 9d21 3dbe d1aa c73d a3c2 e9bd
00000010: 0e22 01bd 5eb6 8e3e 5cdb 69bd af00 273d
00000020: 222a b23d 008a a5be f243 5c3e 98fb 89bd
00000030: 2f02 f0be 16f9 283e deea b03d 8ea5 e9bd
00000040: 9b07 66be 4a9c 913e 3198 7b3e ce1a 04bb
00000050: ade3 323e f829 33be ccaf 833d 4c8b e93c
0.20907027 -0.18469854 0.097493775 -0.11414077 -0.031526618 0.2787351 -0.057093963 0.040772136
0.086994424 -0.32331848 0.21510294 -0.06737441 -0.46876666 0.16501269 0.08638547 -0.1140853
-0.22463839 0.28439552 0.24569775 -0.0020157578 0.17469664 -0.17496479 0.06430015 0.028508805

weight f4 [12, 24]
00000000: 4697 f9be af25 e23c 2fd0 f7bd d082 11be
00000010: 7b7a 73be a6e2 fe3d a090 76be e60d 6fbe
00000020: 6aef ea3c a324 463e 7631 0e3f 029b 3dbe
00000030: 9d96 073f 7853 c3be 3a36 7cbe c3c5 713e
00000040: 12f7 853e ce3e 90be b872 6dbe ac4c 103e
00000050: 5f62 4bbd 8e60 d63e 5390 04bd ea5e 073f
00000060: 9910 9cbe bd42 8f3e 0d2e c2be 9b31 d1be
00000070: e4b2 2d3e d288 d4bd 1310 bebd fdae 9b3b
00000080: 9830 ddbe a0ee 4f3e 66b3 233e 0c85 7cbe
00000090: 33bb 0c3f dc8c 383f 526b 72bd 3cf6 9dbd
000000a0: 6451 363f 3883 c43e df22 c8bd f7e7 dc3e
000000b0: 745b 92be e46d 1cbf e3c9 3a3e 4bb9 1abf
000000c0: eb84 e4bd 443b ab3e 5499 bc3d f2a5 933e
000000d0: 566c b83e fdeb 37bb 6654 e0be 1836 8c3e
000000e0: 66b9 f1bc 70df a03a 737c 92be b966 0bbf
000000f0: fda0 e33e 29a5 543e 59d9 74be dcf4 ae3d
00000100: 2809 1d3e b754 12bf d835 14bf 96c0 5cbc
00000110: 375e 003e 0702 d9bd 4dcc 8d3e 17b2 3a3e
00000120: 0bc8 193d 4d33 efbd 6a92 e23d 1171 483c
00000130: 2388 d13d 6dc3 8b3e 6880 f83c 21b7 843e
00000140: 013c 973e c455 a6bd 6720 d43d 734e c7be
00000150: c412 1cbf 3f6c 153f 35bf 083f 96a6 41be
00000160: 1890 96be 7dc8 90bd b5cf d53e 6e66 8f3d
00000170: 96c8 5c3d be63 10bf ba27 133d 4490 79be
00000180: b4e1 c83d 73f3 f7be 8bd3 ba3e d085 cd3c
00000190: c580 37bf ef92 f93e e5d4 de3e 682c cbbe
000001a0: 86c7 9c3e 4cd5 acbe a7ed 0b3e 87f1 423c
000001b0: 70c8 c13e 5681 783e 7a61 2b3d 8c86 02be
000001c0: 13b9 1cbe ef3d 68be dce1 0a3f 1e59 edbe
000001d0: e323 26be bf0d 85be dfda 913d 33e5 b9bd
000001e0: 564d cabe 188c b63d 9d71 febe d6f7 b2be
000001f0: a64e acb8 6d00 143f 3d5e 473d a8a5 803e
00000200: 043f 573c 7b4b c43d 5b3d dd3e 1762 ba3c
00000210: cfe3 8bbe 9c66 3b3e 7cd5 243d e525 f4be
00000220: d776 f13d 20fb 213f bbb8 7dbd c2fb 273f
00000230: e90a 94be 762e 313e c51f b43e eeb7 0dbf
00000240: 6a73 a7be 860a 783e b9e9 5ebe a35d bebe
00000250: 7fcd 5c3e 189f 06bf 8e03 9f3e 7b49 a73e
00000260: afab f9be edff 603e c6df 35be aebb c73e
00000270: 04ec 863e 5445 e1bc a17d c03e 4848 a2bd
00000280: 7c68 373e 2df5 38be 8bb9 073e bbb4 08bf
00000290: dd3c ee3e 8976 cd3d f994 c2bd bd1e 543e
000002a0: 21b2 0cbe c5a8 fa3e a49f 0a3e 3fc4 86bc
000002b0: df36 c7be 79af 28be c345 3ebe 88d7 77bd
000002c0: 4fed 3dbe f434 72be 5960 e7be b81b 033e
000002d0: b74c c73d a939 8d3e bdde 03bf 3a5a 63bf
000002e0: ee01 013f a9cd 90bd dc41 763c 1abd e73e
000002f0: ced0 a53e 3b4a 1d3e fd87 23be c5a5 9a3e
00000300: e780 a5be 28af 333f fd70 693b c728 fb3e
00000310: d098 983e 21f4 b6be c89d 8bbc 2f76 103f
00000320: f348 3b3e 5511 a0bd d635 c1be f83f 763e
00000330: 1497 9cbe 71b8 a3bd 26fd e3be d235 89bd
00000340: ba22 dc3d a443 a83e 1f09 a8be c532 08bf
00000350: 92e4 8bbd 8320 1e3c 2542 1dbf 32d2 41be
00000360: 5992 07be 47be bc3e 4523 51be 70ba cf3e
00000370: f2e8 bdbe 945c 083f f19e 603e b6d6 1abf
00000380: 07d0 9c3c 0184 9dbe c4c2 9ebd c211 17be
00000390: f62f fb3d 2064 d83e 9ba5 f7be 880e 403e
000003a0: 72e8 38be a9f7 10be 720c a4be 593f f13e
000003b0: e17d 03bf 1670 163e ff6c 943e 697d 333f
000003c0: 2642 0abf b49e 8d3d 98a8 9e3e 2059 bd3e
000003d0: e9d2 2cbd 04e7 083f 3d60 2e3c 96e2 64bd
000003e0: 4432 a9be cded 4f3e 78e8 d6be b65d b73e
000003f0: 5374 163e 6dfa 2abd f92e 19bf eb8a 093e
-0.48748225 0.02760586 -0.12100255 -0.14210057 -0.23777191 0.124455735 -0.24078608 -0.23345146
0.028678615 0.19349913 0.5554422 -0.18516162 0.5296419 -0.3814962 -0.24630061 0.23610596
0.26165062 -0.28172916 -0.23188293 0.14091748 -0.04965436 0.4187054 -0.0323642 0.528792
-0.30481413 0.27980605 -0.3792576 -0.40858158 0.16962773 -0.10377659 -0.0928041 0.004751085
-0.43201137 0.20305872 0.15986404 -0.24660128 0.54973143 0.72089934 -0.05918438 -0.07712981
0.7121794 0.38381362 -0.09772276 0.43145725 -0.28585398 -0.6110518 0.18241076 -0.60438985
-0.111581646 0.33443654 0.092089325 0.28837544 0.36020154 -0.0028064244 -0.4381439 0.2738502
-0.02950735 0.0012273621 -0.28610572 -0.5445362 0.44458762 0.20766129 -0.23911037 0.08542797
0.15335524 -0.57160515 -0.5789466 -0.01347365 0.1253594 -0.1059609 0.27694932 0.18231998
0.03754429 -0.11679707 0.110630825 0.012233988 0.10231044 0.27297536 0.030334666 0.25920966
0.29537967 -0.08121827 0.10357743 -0.3892704 -0.60966134 0.58368295 0.5341676 -0.18911204
-0.2940681 -0.0706949 0.4176003 0.07001959 0.05390223 -0.56402194 0.035926558 -0.24371439
0.098086745 -0.48427925 0.3648952 0.02508822 -0.7168086 0.48744914 0.435218 -0.39682317
0.30620974 -0.33756483 0.13664876 0.011898405 0.37848234 0.24268088 0.041841008 -0.12746638
-0.15304975 -0.22679876 0.54250884 -0.46357054 -0.16224627 -0.2598705 0.071218245 -0.090769194
-0.39512128 0.089134395 -0.49696055 -0.3495471 -8.2162485e-05 0.5781315 0.048673857 0.25126386
0.013137583 0.09584709 0.43210873 0.022751851 -0.27322242 0.18300861 0.040242657 -0.4768516
0.11790245 0.6327381 -0.06194375 0.65618527 -0.28914574 0.1730288 0.35180488 -0.5535878
-0.3270524 0.24222764 -0.21768846 -0.37180814 0.21562766 -0.5258651 0.310574 0.3267325
-0.48763797 0.21972628 -0.17761144 0.39010376 0.2635194 -0.027498879 0.37595847 -0.07923943
0.17910951 -0.18062277 0.13254373 -0.5340077 0.4653081 0.100323744 -0.095010705 0.2071485
-0.13739826 0.48956886 0.1353746 -0.016451 -0.3890905 -0.16473188 -0.185813 -0.06050828
-0.18547557 -0.23653013 -0.45190695 0.12803543 0.09731429 0.27583054 -0.51511747 -0.8880955
0.5039357 -0.070704766 0.015030351 0.4526146 0.32385868 0.15360348 -0.15969844 0.30204597
-0.32324907 0.7018914 0.0035620325 0.49054548 0.29804087 -0.3573313 -0.01704301 0.56430334
0.18289547 -0.07815806 -0.37736386 0.2404784 -0.30584013 -0.07994164 -0.44529074 -0.066997185
0.10748811 0.32864106 -0.3281946 -0.5320247 -0.06830706 0.009651306 -0.61429054 -0.1892784
-0.13239421 0.3686392 -0.2042361 0.40571928 -0.37091786 0.53266263 0.21935631 -0.6048387
0.019142164 -0.30764773 -0.07751992 -0.14752868 0.12265007 0.4226389 -0.48368534 0.18755543
-0.18057421 -0.14156975 -0.32040745 0.47118643 -0.5136395 0.14691195 0.28989407 0.70113236
-0.54007185 0.06915036 0.30988002 0.3698206 -0.042193327 0.534775 0.010643062 -0.05588015
-0.33046162 0.20305558 -0.41974235 0.35813683 0.14692812 -0.04174273 -0.598373 0.13431899

bias f4 [12]
00000000: 0aeb c2bd e51f 6fbd 908a f5bd 7a29 fabd
00000010: f701 cabd a5d7 2bbe afeb b2be 480a 95be
00000020: 01a5 50be 378d e93c ecec f2bd 5745 78be
-0.095174864 -0.058380026 -0.11989319 -0.12214942 -0.09863656 -0.1678148 -0.34945437 -0.29109406
-0.20375444 0.02850972 -0.118615955 -0.24245201

weight f4 [24, 12]
00000000: e629 383e ef5d d4be 4d71 8c3e 0f9f 80bd
00000010: 6dc8 b73e 3444 07bf 3385 b43e 9e9c 113e
00000020: f49f c7be c8a2 51be f848 e4bc 60e5 993b
00000030: 60da 0fbf 52d7 0e3f a84a 3fbe 5563 62be
00000040: 441b ca3e f6ce d3be 1a7f 48bf a52d 4b3e
00000050: b9f9 0bbf 3f69 14bf 6c72 cf3e 690e 043f
00000060: bf19 1c3e ed96 de3d fa85 35bf eebb ac3e
00000070: b67b 353e d712 25bd 6588 bebe 1a4c 58be
00000080: e7f3 e13e 51c9 55be 8d52 a4be 72ce 50bb
00000090: b394 eebe f529 223f 7603 dd3e e598 d2be
000000a0: e72c 56be 2ef2 033e c972 cbbb 5432 1dbf
000000b0: 6996 e33d be72 45bd 3431 14bf 833e 223e
000000c0: d08b 463e 4361 c9bd 1f2d e1be 1228 c23e
000000d0: 1693 a73e c492 1abd d87c a6be 1c14 f13c
000000e0: 9ae3 36be e9e9 943e 09a9 073a a4f3 8c3e
000000f0: a22b f03e d501 2f3e a94f d83d 0273 023f
00000100: d230 32be af23 42bd dac3 be3e 53d2 f5bd
00000110: 5447 92be d286 e93e 05da a8be a00e 043f
00000120: 2059 efbd a7a8 5b3f ac98 b23e af42 0ebf
00000130: 8585 24bf 4a8e 173e 9a5d 6a3e 25bf 14bf
00000140: 42c7 1dbe 430d 983e 3b06 ffbd 3cae b33d
00000150: b367 813e ecc3 173d 29a0 50bf 0b1a 10bd
00000160: 19d9 3a3e afa9 b33d 4507 6ebe e4f3 fabd
00000170: 98ee 703e b7f6 a9bd a9e6 acbc 6059 f2bc
00000180: e7e6 40be 1f74 cebe 0577 953e 721d 2cbe
00000190: eb5f bfbc 45bb e2bd 928f e53d 95bd b0bc
000001a0: 0810 62be e169 05bd 355c 133e ea4e c6be
000001b0: d2b3 a8bb 386f bc3e 5ff0 dd3d dca5 febd
000001c0: f033 623e 8124 5abe 91eb ae3d 0410 44be
000001d0: 246d 3a3e 6089 1bbe f541 723d b0a4 62be
000001e0: 9652 c83e 7ea0 7abe 4d88 d13d 4b46 c43c
000001f0: 6866 a33d 3a2a f23e 543b 9f3e f794 3ebe
00000200: aaf0 593e 93c7 613d b852 e8be 4994 8abe
00000210: 8152 bbbe 58ce d93e 461b 3e3e 7972 0fba
00000220: 89cc 03bf d905 2f3f 808f c33e c1d3 cd3e
00000230: 96a1 643b d4ec 393f ae45 b33c 2a9e be3d
00000240: 1d37 efbd fbee 33be 5bad 6bbe ab07 85be
00000250: cf35 22bf d672 ad3c cac0 693e 0d74 5b3e
00000260: e6c2 38bf a255 683d acde 9e3e 677e eb3e
00000270: e386 023f c122 f43e e5cb 05be 508c b03e
00000280: bfc2 f9be 51dd 583d b3a1 223e 5bd0 afbe
00000290: 1757 31be 0b6d 6b3d 11cc efbe be29 ab3e
000002a0: aabb ae3e 6eec afbd 9a4f 66be 5dd1 c6be
000002b0: f0b9 d2be 99d1 193f cda0 e9be 79b6 95bc
000002c0: 464b 323f 3e5b 103f 6a4f 62be 4295 18bf
000002d0: 9f4e cfbe 75ba 163f 5cb7 19be ae68 1dbf
000002e0: a23a cebe 290a 413e bbfd 4bbe 2dd6 573e
000002f0: c95d fdbe 641d 9ebe 8641 0a3f cf7f abbe
00000300: 177b 2e3e db3c 52bf 4242 9abe b556 353f
00000310: 438d ff3d 6d06 6e3f 1e23 c93e 3e84 21be
00000320: cc3b f33e b70d 0a3f 0c53 443e a767 38bf
00000330: 2b7f 9c3e b092 4dbe 1234 4f3e 5adc d13e
00000340: 2810 193f 65ca 283e c753 073f 4d2c e73e
00000350: a8ed 80be d4a3 863d 6576 9abe f3aa e63d
00000360: d940 3c3e 793a 5a3e d48c c6be 4f38 f33d
00000370: 1810 5d3d ba0f c13e e5b9 39be 865e a73e
00000380: 1357 303f a877 c63e e645 a03e c0ae 8cbe
00000390: 2a3c 243c cf2a 5dbe 0435 b83d 09d6 b0be
000003a0: e655 6f3d e6ae 8ebe 2956 92be bd49 07bf
000003b0: 6449 363e eed1 3cbf a8c0 03be e9f6 f8be
000003c0: 4873 d1be cc60 a4be e541 5abb 6138 19be
000003d0: 42ef 703f ce7f 5abe d4f6 823d 7bf2 f93e
000003e0: 9b19 ca3d efd2 c2be a07d aa3e 2809 efbe
000003f0: ed7b 2a3c 5fa9 8dbe f7a0 513e 95f1 3abe
0.17984733 -0.41477916 0.27430192 -0.06280338 0.358951 -0.52838445 0.35257873 0.14219901
-0.38989222 -0.20472252 -0.027866825 0.004696533 -0.5619259 0.557973 -0.18680823 -0.22108205
0.39473927 -0.41368836 -0.7831894 0.19841631 -0.5467792 -0.5797309 0.40516984 0.5158449
0.15244196 0.108686306 -0.70907557 0.3373713 0.17722973 -0.04030117 -0.37213436 -0.2112278
0.44131395 -0.20877577 -0.3209423 -0.0031861332 -0.46597824 0.6334527 0.43166703 -0.41132274
-0.20915566 0.12885353 -0.006208752 -0.6140492 0.11112673 -0.04820513 -0.5788758 0.15844159
0.19389272 -0.09833004 -0.43979737 0.37921196 0.32729405 -0.037737623 -0.32517123 0.029428534
-0.1786026 0.2908471 0.00051750295 0.27529633 0.4690829 0.17090543 0.10562069 0.5095674
-0.17401436 -0.04739731 0.37258798 -0.12003007 -0.28570044 0.45610672 -0.32978836 0.51584816
-0.11686921 0.8580422 0.34882104 -0.555705 -0.64266235 0.14800373 0.22887269 -0.58104163
-0.15408042 0.29697618 -0.1245236 0.08773467 0.2527443 0.03705208 -0.81494385 -0.035181087
0.18246879 0.08772599 -0.2324496 -0.1225355 0.23528516 -0.0829901 -0.021106081 -0.029583633
-0.18838082 -0.40322968 0.29192367 -0.16808107 -0.023361167 -0.11070875 0.112090245 -0.021574775
-0.22076428 -0.032571677 0.14390643 -0.38732082 -0.0051483894 0.36803603 0.10836863 -0.12433979
0.22090125 -0.21302988 0.085410245 -0.19146734 0.18205696 -0.15189123 0.059144933 -0.22133136
0.39125508 -0.24475285 0.102310754 0.0239593 0.07978517 0.4729784 0.3109995 -0.18611513
0.21283212 0.05512197 -0.4537561 -0.27066258 -0.36586383 0.4254024 0.18565091 -0.0005472075
-0.5148397 0.683683 0.3819542 0.40200618 0.0034886352 0.72626996 0.021883812 0.09307511
-0.11680434 -0.17571633 -0.23015349 -0.25982413 -0.63363355 0.021172922 0.2282745 0.21430989
-0.7217239 0.05672229 0.3102926 0.45994875 0.5098707 0.47682765 -0.13066061 0.3448205
-0.48781392 0.05294544 0.15881996 -0.3433865 -0.17318378 0.05747704 -0.46835378 0.33430284
0.3412755 -0.08590017 -0.22491303 -0.38831607 -0.41157484 0.60085446 -0.45630494 -0.018275486
0.6964611 0.56389225 -0.22100607 -0.5960275 -0.4048967 0.5887826 -0.15011352 -0.61487854
-0.40279108 0.18851532 -0.19921009 0.21077795 -0.49485615 -0.30881798 0.5400623 -0.33495948
0.17039143 -0.8212411 -0.30128676 0.7083543 0.124781154 0.92978555 0.39284605 -0.15773103
0.4750656 0.5392718 0.19172305 -0.7203316 0.3056577 -0.20075488 0.20234707 0.40988427
0.5979028 0.16483457 0.5286221 0.45150986 -0.25181317 0.065742165 -0.30168453 0.11263075
0.18384112 0.21311368 -0.38779318 0.118759744 0.053970426 0.3770731 -0.1813732 0.32689303
0.68882865 0.38763165 0.31303328 -0.27477074 0.01002411 -0.21598361 0.08994487 -0.34538296
0.05843153 -0.27867812 -0.2858136 -0.5284689 0.17801434 -0.7375783 -0.12866461 -0.48625877
-0.40908265 -0.321051 -0.0033303436 -0.14962913 0.9411508 -0.21337816 0.06394735 0.4881781
0.09868165 -0.38051555 0.3329897 -0.46686673 0.010405523 -0.27668282 0.2047156 -0.18256219

bias f4 [24]
00000000: a9a5 9ebe 5d4e 053e 013b d0bd ad44 6abd
00000010: be42 69be 7e53 86be a252 8d3e f706 363e
00000020: 550d a03d 8105 053f 38ef 893e b443 483d
00000030: 70e8 ec3e e24d 71bd e931 343e aeaa 21be
00000040: 3c94 13be 8a7f cf3c cc3e c1bc 7e90 003e
00000050: e539 ab3c 6df4 dc3e f0a6 aa3d 2ff1 283d
-0.30985764 0.13018174 -0.10167504 -0.0571944 -0.22779366 -0.26235574 0.27602106 0.17776094
0.07815043 0.51961523 0.26940322 0.04889269 0.46271086 -0.058912165 0.17597164 -0.15787765
-0.14412016 0.02532937 -0.023589514 0.1255512 0.02090163 0.43155232 0.08332622 0.041245636

weight f4 [24]
00000000: a42f ff3f f84b d83f 878a fe3f 2448 cd3f
00000010: ea16 b73f 46dd a03f ec37 e53f 5594 fb3f
00000020: b0af da3f 3d87 953f b8cb f83f 7861 e33f
00000030: 4000 db3f 10be b43f 87c8 cd3f d36b b73f
00000040: 368e e93f 6a14 f43f 1364 cf3f 850f ae3f
00000050: e720 d33f 26bf a53f b290 e03f 91ee b23f
1.9936414 1.6898184 1.9886025 1.603764 1.4303868 1.2567527 1.7907691 1.9654642
1.7084866 1.1681896 1.943717 1.776412 1.7109451 1.4120502 1.6076821 1.432978
1.8246524 1.906873 1.6202415 1.3598486 1.6494416 1.2948959 1.7544158 1.3979055

bias f4 [24]
00000000: 8fbb 1dbe 1f74 babd c4c1 9bbd b0ea 9e3d
00000010: aa0f 0fbe 1c49 db3d e23e 10bd 280e ed3c
00000020: 1ed2 373e c3cf 7fbe 5708 993e d261 ccbc
00000030: a60c 3fbe 3b9a 4d3e f2da 3c3e 5c2b 81be
00000040: 3484 43bd 1c83 213e f65e 2abd f93d b63d
00000050: 6513 32be ab5d f6bd b0ed d4bd d9b0 a0bd
-0.15403579 -0.091041796 -0.07605317 0.07759607 -0.13970819 0.10707304 -0.03521622 0.028937414
0.17951247 -0.24981599 0.29889175 -0.024948988 -0.18657169 0.20078366 0.18442896 -0.25228393
-0.0477335 0.1577267 -0.041594468 0.08898539 -0.17390211 -0.120295845 -0.10396898 -0.07846231

weight f4 [10, 24]
00000000: f5f5 293f dbe6 f53e e885 a53d b28f 07bf
00000010: e086 2a3f cdf6 033e 5e41 c53e 8e05 8a3f
00000020: d13e babe c64b dc3c 6859 10bf 660f 23bf
00000030: 28cc 153e 1e20 e03e c4f5 1dbf 2e72 01bf
00000040: 13ff 02bf d7a9 6a3d 3090 713d ad9c 35be
00000050: ebf0 49be f533 f0be a910 69be 51b1 ccbe
00000060: 5e66 f3be 9cf2 a03e fc04 483f 6048 1a3e
00000070: cc30 7ebc c207 e53d 935a c0be 2a8d fbbe
00000080: 2f32 4dbf ffa0 bfbc 2f47 933e 4c2d 0d3e
00000090: 9c23 42be 294a bd3e 694f abbe 7d51 8dbe
000000a0: d08d c6be 3422 003f 82ff e93e ec79 94bd
000000b0: fa4b 0b3e f452 07bf cdb7 423f c40b 973c
000000c0: a0ea dfbe 2817 9d3e 5979 d13d 6394 d13e
000000d0: 1c8d e7be 3809 09be 33c0 313f 3f64 cabe
000000e0: 2531 79be 6b10 243e d66d 8a3e 0cf1 90bc
000000f0: f700 f23d 11fc f13e 3159 cb3e 821a 93bd
00000100: 35ff 88be cf64 79be 2bce c1bc d6e1 613e
00000110: 00eb 1bbf 5732 32bc a228 f6bd 28ca 423e
00000120: 49b7 bc3e a1cc f6be ef26 9dbe 439d 873e
00000130: b141 5ebd a83b 873e 33bd 1f3e 6d1e 3cbe
00000140: b7a7 773d 9b43 12be eb97 7abd 824d f63e
00000150: 24f0 143f e895 7b3e 365f 05bf a866 663e
00000160: 8c50 c63e 7a8e 79bc 4c62 fdbe b15f 59bd
00000170: 7c2f b4be ff81 9e3e a916 443f facc 403e
00000180: 240e 3ebf 03b5 ea3c 9c60 083f e665 883e
00000190: 693f 47be b6f5 a9be c423 98be d530 573f
000001a0: d6a9 9d3e e7fe a1be cea0 003f 968b d63e
000001b0: 579e 77be 3be4 b2be df71 903e c57a ea3e
000001c0: 7efd 0fbf f960 62be 8733 16be d66c 6e3e
000001d0: 4958 8b3e 4f8d acbe c9e8 e6be a5e8 9d3d
000001e0: 8206 d33e 86c1 043f ff3b e3be 90cb 30bf
000001f0: 1dc6 1d3e 293a 00be 2902 30bf 0554 2abc
00000200: f299 19be ba59 ecbd df27 2cbf 1746 993e
00000210: 05d7 ce3e fd11 3cbe 7ce5 ccbc 3fe7 a73e
00000220: b490 a33e 2d70 dfbd 516f ba3e 3c5f 87be
00000230: 0020 9f3e b8c3 81bd 8fb1 02bc ba77 033f
00000240: d5c6 dabe 7e12 9e3e f268 353f 3d68 a4bd
00000250: 7768 f1bd 8569 29be 556b ea3e 7b8c 383f
00000260: 8aca 34bf 3e5a b83e 0449 21bf 4abb c2be
00000270: 4fbd babd 1089 3bbd 437f 02bf 2826 be3e
00000280: 51f8 183f d6a4 0abf 7793 1c3f 8a3b 713e
00000290: dcef 0e3f 30da 323e 88e0 c7be b910 ddbb
000002a0: 1af2 b5be 40d7 32bf 6466 e0be b0f0 073e
000002b0: b467 193e 9e15 e23e f878 173d e5d4 683e
000002c0: 169e 00bd d0ac 97be c5b6 e13e b6a6 e53e
000002d0: 7a7a 21bf 9e74 803e 93ba d63e 123f bdbe
000002e0: 0164 513e 161f 2e3f 5f76 a33e bd1f 0dbf
000002f0: b390 ccbe f14b b53d a7bd 7abe 733e 98be
00000300: 9219 bd3e 840f 44be 2ac8 893e ec04 3fbe
00000310: 4fc0 36be 83a0 cebe 99ad aabe 2d9e b9be
00000320: 071e 4a3e 7883 e73e f4d3 c63e fa6e 0cbf
00000330: 52ed b33e 9e59 12be 99c5 da3d edee 84be
00000340: 6008 d63e 5864 55be 82a2 47be de58 b83e
00000350: 30e1 76bd 0e95 6a3e 8a37 6dbe ea15 18be
00000360: 2b7c 853e f2f0 cc3d 14af 15bf fb0e de3e
00000370: 7311 4abe 14a5 df3b e06f fdbd 1d64 7a3d
00000380: fc25 173f 0e31 10bc 2e01 9d3e 109c 7c3e
00000390: c8a5 f6be 570f 05be 3306 5cbe 9c40 2e3e
000003a0: efd4 e7be d7fe 383f bc5f cebe e1d3 923e
000003b0: 1af4 173f 35b3 053e 09ce 6bbe 739e f9bb
0.66390926 0.4802769 0.08082181 -0.52953637 0.6661205 0.12887116 0.38526434 1.0782945
-0.3637605 0.0268916 -0.56386423 -0.6369537 0.1462866 0.43774503 -0.61703134 -0.5056485
-0.5117046 0.05729088 0.0589754 -0.17735548 -0.19720809 -0.4691464 -0.22760262 -0.39979032
-0.47539037 0.31435096 0.78132606 0.15066671 -0.015514564 0.1118312 -0.37569103 -0.49131137
-0.801547 -0.023392199 0.28765246 0.1378681 -0.18958896 0.36970642 -0.33459023 -0.27601233
-0.3878007 0.5005219 0.4570275 -0.07249817 0.13603202 -0.5286095 0.7606171 0.018438227
-0.43733692 0.3068173 0.10228223 0.40933523 -0.45224845 -0.13382423 0.694339 -0.39529607
-0.24335153 0.16021888 0.27036923 -0.017693065 0.1181659 0.47262624 0.39716485 -0.0718279
-0.26757208 -0.24354862 -0.023657879 0.22058806 -0.60905457 -0.01087626 -0.12019469 0.19022429
0.36858585 -0.48202994 -0.30693766 0.2648717 -0.054261867 0.26412702 0.15599518 -0.18370982
0.06046268 -0.14283602 -0.061180037 0.4810601 0.58178926 0.24568903 -0.52098405 0.22500098
0.38733327 -0.015231723 -0.49489057 -0.053069774 -0.35192478 0.30958554 0.76597077 0.18828192
-0.74240327 0.028650766 0.53272414 0.26640242 -0.19457783 -0.33195275 -0.29714787 0.84058887
0.30793637 -0.31639788 0.5024537 0.4190337 -0.24181496 -0.3493975 0.28211877 0.4579679
-0.56246173 -0.22107305 -0.14668094 0.23283705 0.27215794 -0.3370156 -0.45099476 0.07710389
0.41215903 0.51857793 -0.4438171 -0.6906061 0.15407605 -0.12522186 -0.68753296 -0.010396008
-0.15000132 -0.115405515 -0.6724834 0.29936287 0.40398422 -0.18366237 -0.02501177 0.32793614
0.31946337 -0.10910068 0.36413053 -0.26439846 0.31079102 -0.063361585 -0.007976904 0.51354563
-0.42729822 0.30873483 0.7086326 -0.080276944 -0.11787503 -0.16544159 0.45785013 0.72089356
-0.7062155 0.3600635 -0.6300204 -0.38033515 -0.09118139 -0.04578501 -0.50975436 0.37138486
0.597539 -0.5415777 0.61162513 0.23557869 0.55834746 0.17466044 -0.3903849 -0.0067463783
-0.3553627 -0.69859695 -0.43828118 0.13275409 0.14980966 0.44157118 0.0369806 0.22737463
-0.031400762 -0.29624033 0.44084755 0.44853753 -0.6307751 0.25088972 0.4193922 -0.3696218
0.20448305 0.68016183 0.31926247 -0.55126554 -0.39954147 0.08852375 -0.24486409 -0.29735145
0.3693357 -0.19146544 0.26910526 -0.18654221 -0.17846797 -0.40356836 -0.3333557 -0.3625349
0.19738017 0.4521749 0.38833582 -0.54856837 0.35142 -0.14291999 0.1068222 -0.25963536
0.41803265 -0.2083906 -0.19495586 0.360053 -0.06027335 0.22908422 -0.23165718 -0.1485211
0.26071295 0.10006894 -0.58470273 0.43370804 -0.19733219 0.006825099 -0.12374854 0.06113063
0.59042335 -0.008800758 0.30664963 0.24668908 -0.48173356 -0.12994133 -0.2148674 0.17016834
-0.45279643 0.72263855 -0.40307415 0.28677276 0.59356844 0.13056643 -0.23027815 -0.0076177656

bias f4 [10]
00000000: 0abf 22be 4f92 11be a7a6 773e 84ce c2bd
00000010: b4af c9bd e23a 793d 8eac 5dbe 4b2f 463d
00000020: d616 60bc f80b 93bd
-0.15893188 -0.14215969 0.24184667 -0.09512046 -0.09847966 0.06084717 -0.21647856 0.048384946
-0.0136773195 -0.07180017
