Case_Study_1/trained_transformer/verification2/vit_18_2_6_24.pt (torch, 255304 bytes, 30 tensors)

pos_embedding f4 [1, 50, 18]
0	0xbf87feb7	-1.0624608
1	0x3f3b9858	0.73279333
2	0x402be3a5	2.6857693
3	0xbef827e0	-0.48467922
4	0x3f84e3f9	1.0382072
5	0x3f8264c8	1.0187006
6	0x3f96ba66	1.1775634
7	0x3ed9c81a	0.42535478
8	0xbe4a40c3	-0.19751267
9	0x3f09ef7a	0.5388104
10	0x401ef0d7	2.4834497
11	0xbf562996	-0.83657205
12	0xbfcb96dc	-1.5905414
13	0xbe56a1c0	-0.2096014
14	0x3f8b1a99	1.0867492
15	0xbe9a7d46	-0.301737
16	0xbe4e2587	-0.20131503
17	0xbf89038d	-1.0704209
18	0xbeaca1f1	-0.337173
19	0xbef64167	-0.48096773
20	0x3e4ec9a2	0.20194104
21	0x3fc95e9b	1.5731996
22	0xbf623655	-0.88364154
23	0xbf940c85	-1.1566321
24	0xbefa353c	-0.4886874
25	0xbed5b12c	-0.41736734
26	0xbf93696b	-1.1516546
27	0x3fe06394	1.7530389
28	0xc001843c	-2.023696
29	0x3f40db22	0.7533437
30	0xbf9d9acf	-1.2312869
31	0x3ec76a98	0.38948512
32	0x3fb343bc	1.4005046
33	0x3ee6a09f	0.4504442
34	0x3f32f47b	0.699043
35	0x3f8d3183	1.1030735
36	0x3f9bd54e	1.217447
37	0x3fcb62e3	1.5889553
38	0xbe962a47	-0.2932913
39	0x3fc0131f	1.5005835
40	0xbe417caa	-0.18895212
41	0x3eddf413	0.43350276
42	0xbf391b4c	-0.72307277
43	0xbf115752	-0.56773865
44	0x3fce624a	1.6123745
45	0x3f370832	0.7149688
46	0xbf85719f	-1.04253
47	0xbfb8637e	-1.4405363
48	0x3f6cccb4	0.9249985
49	0x3e2225ce	0.15834734
50	0xbf3b3970	-0.7313452
51	0xbf58f73b	-0.84752244
52	0xbf853ee2	-1.0409815
53	0x3fe2ec4a	1.772836
54	0x40290dad	2.6414597
55	0xbedda6c7	-0.43291304
56	0xbfaf38c9	-1.3689204
57	0xbe1b04a2	-0.15138486
58	0x3e64bfda	0.2233881
59	0xbeeb7184	-0.45985043
60	0xbe8c87ab	-0.27447256
61	0xbf911b8a	-1.1336529
62	0x3f5b78a6	0.8573097
63	0xbfa20f25	-1.2660872
64	0x3fb8dd28	1.4442492
65	0xbf06dad1	-0.5267764
66	0xbf0d169b	-0.5511262
67	0xbfaae034	-1.3349671
68	0xbf95292f	-1.1653193
69	0xbe83b53e	-0.25724214
70	0x3f8fccbf	1.1234359
71	0xbec4def2	-0.38451344
72	0x3f843ecd	1.0331665
73	0x3f032b09	0.5123754
74	0x3fe654c9	1.7994624
75	0xbf2bae03	-0.67062396
76	0x3eee55bd	0.46549788
77	0xbfab8864	-1.3400998
78	0x3f19d6a9	0.6009317
79	0xc01d981a	-2.4624085
80	0x4035f2c3	2.842942
81	0xbf2cdb67	-0.6752228
82	0xbf1822c3	-0.5942804
83	0xbf26f471	-0.6521674
84	0x3f492c7a	0.7858349
85	0x3da2d39d	0.07950518
86	0xbe052c11	-0.13005091
87	0xbd66f426	-0.05638518
88	0xbf80a85e	-1.0051382
89	0xbf352985	-0.7076648
90	0x3f67bc02	0.9052125
91	0xbe0515fd	-0.12996669
92	0xbfbf67f4	-1.4953599
93	0x3eb588e4	0.35456002
94	0x3f5b537c	0.8567426
95	0x3ff1970b	1.887422
96	0x3f06c0d9	0.5263801
97	0x3f2d8ee0	0.67796135
98	0x3f461004	0.7736819
99	0xbf98a94a	-1.1926663
100	0x3f633286	0.8874897
101	0xbf7e8c6a	-0.99433005
102	0x3ef9a2a1	0.48756889
103	0x3ed162e6	0.40895766
104	0xbfb35c54	-1.4012551
105	0xbf9f7b70	-1.2459545
106	0x3fdcf3ac	1.7261863
107	0x3ff1f24a	1.8902066
108	0xbf7184d7	-0.9434332
109	0xbf4c15cd	-0.79720765
110	0xbe871da6	-0.26389807
111	0x3f7d78c1	0.9901238
112	0xbf5048d1	-0.8136111
113	0xc000a3d7	-2.01
114	0xbed0fd4e	-0.40818256
115	0xbf9720e0	-1.1806908
116	0x3e46fe98	0.19433057
117	0x3f006bcd	0.5016449
118	0xbfb0e65b	-1.3820299
119	0x3fbcc9f2	1.4749129
120	0x3ebf64c0	0.37381554
121	0xbd291d39	-0.041287635
122	0x403620f1	2.8457606
123	0x3f373824	0.7157004
124	0x3ff106ee	1.883024
125	0xbe85011c	-0.2597741
126	0x3f91d6b4	1.1393647
127	0xbfced21b	-1.6157869
128	0xbfb90a41	-1.4456254
129	0x3f289824	0.6585715
130	0xbd3dad2a	-0.04630772
131	0xbe85d3e4	-0.26138222
132	0xbf0799f9	-0.5296932
133	0xbf15a16d	-0.5844944
134	0x4038cf2c	2.8876448
135	0xbf33d6c3	-0.70249575
136	0x3eeb718a	0.4598506
137	0xbd9456fc	-0.072431535
138	0x3fb08181	1.3789521
139	0xbf7032f6	-0.9382776
140	0x3f6d155f	0.92610735
141	0x3f5aad71	0.854209
142	0xbfa7bcba	-1.310447
143	0x3ce3b732	0.027797315
144	0x3ecd8574	0.4014088
145	0x3f639b71	0.8890906
146	0x3ec6563d	0.3873767
147	0x3ec104ce	0.37698978
148	0xbf883b17	-1.0643033
149	0x3f392fd7	0.7233862
150	0xbffd0636	-1.976752
151	0x3dfa5407	0.12223058
152	0x3ea1c430	0.31594992
153	0x3fa3eb4f	1.2806185
154	0xbe778233	-0.24170761
155	0x3d910f66	0.07083015
156	0x3e29ba79	0.1657504
157	0xbe83dcfc	-0.25754535
158	0x4029f753	2.6557205
159	0x3ea6f4c9	0.3260863
160	0xbfba8be0	-1.4573936
161	0xbed0445c	-0.40677154
162	0x3d79f521	0.06102479
163	0x3f99c617	1.2013577
164	0x3f17b728	0.5926385
165	0x3e93f523	0.28897962
166	0xbe92236d	-0.28542653
167	0x3f301137	0.6877627
168	0xbf767bc1	-0.96282583
169	0xbe43db40	-0.19126606
170	0x3fb76c79	1.4329978
171	0x3f334e09	0.7004095
172	0xbf6d635a	-0.92729723
173	0x3fae5162	1.3618586
174	0x3fb28044	1.3945394
175	0x3f302852	0.68811524
176	0x3f2a409e	0.6650485
177	0x40148a81	2.3209536
178	0xbe8d449c	-0.27591407
179	0x3f2d408c	0.67676616
180	0xbeed2d48	-0.4632361
181	0xbf9caf6a	-1.2241032
182	0x4021cd9c	2.5281744
183	0xbec2db4e	-0.3805794
184	0xbf210340	-0.62895584
185	0x3e4b0ce4	0.19829136
186	0xc00fa6ac	-2.2445478
187	0xbfc5156f	-1.5397166
188	0xbea516be	-0.32243913
189	0xbf4a4c21	-0.79022413
190	0xbd81550f	-0.06315052
191	0x3f9098d3	1.1296638
192	0x3f960422	1.1720011
193	0xbe94b3b9	-0.29043368
194	0xbf623da4	-0.88375306
195	0x3fcc40af	1.595724
196	0xbf427c45	-0.7597087
197	0x3d20ca4a	0.039255418
198	0xbe14b76a	-0.14523092
199	0x3db3a3fc	0.08771512
200	0x3e59369d	0.2121224
201	0x3f92ba62	1.146313
202	0x3e402c83	0.1876698
203	0xbed43abb	-0.41451058
204	0xc025334c	-2.581256
205	0x3eb25964	0.34833825
206	0xbfa029eb	-1.2512792
207	0xbf2e910b	-0.6819007
208	0x3f0a55f1	0.54037386
209	0xbe91cd7f	-0.28477094
210	0x4000592d	2.0054429
211	0xbe8ace05	-0.27110305
212	0x3f51959b	0.81868905
213	0xbfc1305a	-1.5092881
214	0x3ed6c794	0.4194914
215	0xbda30195	-0.07959286
216	0xbfc1243b	-1.5089182
217	0x3ca830b7	0.020531042
218	0x3e9335d8	0.28752017
219	0x3f116beb	0.56805295
220	0x3e48bcdf	0.19603299
221	0xbe82084e	-0.2539696
222	0xbf2454dd	-0.6419199
223	0x3f4af3b6	0.79278123
224	0xbfddbf8f	-1.7324084
225	0x3f986374	1.1905351
226	0x3f9f9db7	1.2470006
227	0xbfc5a90f	-1.5442218
228	0x38d79548	0.00010279805
229	0x3e208d14	0.15678817
230	0x3f81a791	1.0129262
231	0xbe17f596	-0.14839777
232	0xbfebc980	-1.8420868
233	0x3fe47083	1.7846836
234	0x3f8d75f0	1.1051617
235	0xbee8bf22	-0.45458323
236	0x3f0cf18f	0.5505609
237	0xbfc2454d	-1.5177399
238	0xbfd569df	-1.6672934
239	0x3f87fe1a	1.0624421
240	0xbf4d41f5	-0.8017877
241	0x3f7e073d	0.99229795
242	0xbe048267	-0.1294037
243	0xbf40a61c	-0.7525346
244	0x3e8dd503	0.27701578
245	0xbf271d54	-0.65279126
246	0xbea8dfa4	-0.32983124
247	0x3eb97998	0.3622558
248	0x3f54ceb5	0.8312791
249	0xbf695a94	-0.91153836
250	0xbf949194	-1.1606927
251	0xbf347b14	-0.705003
252	0xbe00c719	-0.1257595
253	0xbff00a27	-1.8753098
254	0xbdc00b54	-0.09377161
255	0xbeac3c42	-0.33639723

cls_token f4 [1, 1, 18]
0	0xbfcab9a9	-1.5837909
1	0x3e1f6436	0.15565571
2	0x3caa5d90	0.020796567
3	0x3e97b7ff	0.29632565
4	0xbd95ddd3	-0.073177
5	0xbedcb648	-0.4310782
6	0x3f1f33ea	0.6218859
7	0xbea59858	-0.32342792
8	0x3fcbf175	1.5933062
9	0x3f886da9	1.0658466
10	0xbf069b51	-0.52580744
11	0x3f06fa4a	0.5272566
12	0xbfc23a69	-1.5174075
13	0xbf8cf76b	-1.1013006
14	0x3f773e6d	0.9657963
15	0x40170d05	2.3601696
16	0xbef03f2c	-0.46923196
17	0xbdc53fe8	-0.0963133

weight f4 [18, 16]
0	0x3d66740d	0.05626302
1	0xbd516a96	-0.05112704
2	0x3d0b29ff	0.033975597
3	0xbe93654a	-0.28788215
4	0x3e7d61e6	0.24744377
5	0x3d2cc436	0.04217931
6	0xbe6bb39c	-0.23017734
7	0xbe2300a7	-0.15918218
8	0x3e42aa4c	0.19010276
9	0xbe018596	-0.12648615
10	0xbe4e95c4	-0.20174319
11	0x3d23c216	0.039980017
12	0x3e16aa20	0.14713335
13	0xbe15705a	-0.1459364
14	0xbe0f0398	-0.13966215
15	0x3d5116bd	0.051047076
16	0x3f202c89	0.62567955
17	0xbe5646f4	-0.20925504
18	0xbeace60f	-0.3376927
19	0xbe96f316	-0.29482335
20	0x3eb6d994	0.35712874
21	0xbea2a1cf	-0.31764075
22	0xbec92c72	-0.39291722
23	0x3dad148c	0.08451185
24	0x3e910406	0.28323382
25	0xbe882ea2	-0.26598078
26	0xbe640728	-0.22268355
27	0x3e876492	0.26443917
28	0x3d9fcd9e	0.0780289
29	0xbed6baad	-0.41939297
30	0xbe934bcb	-0.28768763
31	0xbd4b40ac	-0.049622223
32	0x3d1c6115	0.038178522
33	0xbe704ed8	-0.23467577
34	0xbef17a02	-0.47163397
35	0x3e947e5d	0.29002658
36	0xbdc9134a	-0.09818132
37	0xbcbfc1db	-0.023407867
38	0xbe540de9	-0.20708431
39	0x3ed2d7e3	0.41180333
40	0xbe324e08	-0.17412579
41	0x3cdc37ca	0.026882071
42	0x3e4e418b	0.2014219
43	0x3dd8d3b9	0.10587258
44	0xbe3083fb	-0.17237847
45	0x3e422012	0.18957546
46	0xbdad1f2e	-0.08453213
47	0xbde91791	-0.11381448
48	0x3ea3006e	0.31836265
49	0x3e3856c4	0.18001848
50	0x3d58ea1f	0.05295765
51	0x3dac4066	0.084107205
52	0x3d894ac4	0.067037135
53	0x3db8aa49	0.09016854
54	0xbe073da2	-0.13207105
55	0x3d37a533	0.04483528
56	0x3d7306b1	0.059332553
57	0x3c4721d7	0.012154064
58	0xbe3650f8	-0.17804325
59	0x3e3d52b5	0.18488581
60	0xbde34f3d	-0.11099098
61	0xbdcc069e	-0.099622
62	0xbd994d61	-0.07485462
63	0x3ea17033	0.31530914
64	0x3d0d9fd4	0.034576252
65	0xbe2e9e0c	-0.17052478
66	0x3ca59439	0.02021228
67	0x3e9688de	0.29401296
68	0xbdf5e3bd	-0.12006328
69	0xbeb5503f	-0.35412785
70	0xbc5a454d	-0.013322187
71	0x3d81a2df	0.06329893
72	0xbe672f41	-0.2257662
73	0xbde703aa	-0.11279996
74	0x3e20d08c	0.15704554
75	0x3bab40b4	0.005226219
76	0xbe98c2d8	-0.29836154
77	0xbdd1d07a	-0.10244842
78	0x3b8ecf76	0.0043582274
79	0xbdabfdec	-0.08398041
80	0x3e1251ff	0.14289092
81	0xbd839a62	-0.064259306
82	0xbe1f9834	-0.15585405
83	0x3e59689c	0.21231312
84	0x3e01439b	0.12623446
85	0xbd45a129	-0.048249397
86	0xbda5d730	-0.080976844
87	0x3e475f6e	0.19469997
88	0x3d92b861	0.07164074
89	0xbd26aac1	-0.040690187
90	0xbda28774	-0.07935992
91	0x3e150ee7	0.14556466
92	0x3e7345f3	0.23757152
93	0xbd87ad91	-0.06624902
94	0xbdd20cbc	-0.10256335
95	0x3e5374a1	0.20649959
96	0xbe1bbcf3	-0.15208797
97	0xbddfbfc4	-0.10925248
98	0x3d0b0f34	0.033950046
99	0xbd1e8fb1	-0.038711254
100	0xbe2df586	-0.16988191
101	0x3caf15f8	0.02137278
102	0xbc84928d	-0.016183162
103	0xbdd75169	-0.10513575
104	0xbe25ecc1	-0.16203596
105	0x3dd23540	0.10264063
106	0xbd6d6964	-0.057961836
107	0xbddfd48f	-0.10929214
108	0x3de95ecf	0.113950364
109	0x3beed935	0.0072890767
110	0xbc65b84e	-0.014020992
111	0xbe905562	-0.28190142
112	0xbe078925	-0.1323591
113	0xbe60e0cf	-0.21960758
114	0x3e3edd1b	0.18639033
115	0x3daec78f	0.085341565
116	0xbe82074a	-0.25396186
117	0xbe0f24ba	-0.13978854
118	0x3e8fcdc3	0.2808667
119	0x3ddc86f2	0.10767926
120	0xbeed0b7c	-0.46297824
121	0x3d044f34	0.032302096
122	0x3ebad65e	0.36491674
123	0xb9f30859	-0.0004635479
124	0xbf12ef3c	-0.5739629
125	0x3e23ab00	0.159832
126	0x3e4cd392	0.20002583
127	0x3e8bbef8	0.27294135
128	0xbe1bd66a	-0.15218511
129	0x3de19cc5	0.110162295
130	0x3ef29bac	0.47384393
131	0x3dd86f61	0.10568119
132	0x3cd6ea1c	0.026234679
133	0x3dc6a8d2	0.09700169
134	0x3edd2fdc	0.43200576
135	0x3da0fa10	0.07860196
136	0xbd8f31d1	-0.069919236
137	0x3ebe87cb	0.37212977
138	0x3edb0656	0.4277827
139	0xbd013718	-0.031546682
140	0x3e3744bf	0.17897318
141	0x3eca9fc7	0.39575025
142	0x3edb0da7	0.42783853
143	0xbdc8a852	-0.097977296
144	0x3e312c6d	0.17302103
145	0xbd310a8c	-0.04322295
146	0x3cf25236	0.029580217
147	0x3d4d72fe	0.050158493
148	0x3e59c4f6	0.21266541
149	0xbda11c9e	-0.078667864
150	0xbd6c8a3c	-0.057749018
151	0xbdc8cc5f	-0.09804606
152	0x3df74335	0.120733656
153	0xbdca8249	-0.09888131
154	0xbd69925c	-0.057024345
155	0x3db31bd9	0.08745546
156	0xbc849d36	-0.016188245
157	0xbe3b3ea8	-0.1828562
158	0xbdd6d14b	-0.10489138
159	0x3d9451de	0.072421774
160	0x3e49ee16	0.19719729
161	0x3ecf5279	0.4049261
162	0x3e18eac6	0.14933309
163	0xbe08ef5b	-0.13372557
164	0x3e4c377e	0.19943044
165	0x3ec50acc	0.384848
166	0xbe77f3e6	-0.24214134
167	0xbe3da859	-0.18521251
168	0x3e8bdaad	0.27315274
169	0x3e99f141	0.30066875
170	0xbe57f4ad	-0.2108943
171	0xbe351d27	-0.17686902
172	0x3e4e8dc7	0.20171271
173	0x3de644f8	0.112436235
174	0xbd66e6f2	-0.05637259
175	0xbeb63dd8	-0.35594058
176	0xbe095d22	-0.13414434
177	0xbc50ad5b	-0.012736644
178	0x3e625a9f	0.22104882
179	0xbe70ee4f	-0.23528408
180	0x3b5e9241	0.0033961686
181	0x3e951263	0.2911559
182	0xbd334674	-0.04376836
183	0xbe873ea2	-0.26414973
184	0x3d896d49	0.067102976
185	0xbd2dd8f3	-0.042443227
186	0xbd943caf	-0.07238137
187	0xbe3a76d9	-0.182094
188	0x3e868fa7	0.26281473
189	0x3dcda9dd	0.100421645
190	0xbcd86dcb	-0.02641954
191	0xbdac4654	-0.084118515
192	0xbda4500f	-0.080230825
193	0xbe4fd9c1	-0.2029791
194	0x3dded960	0.10881305
195	0xbe1beb70	-0.15226531
196	0xbd8f5c4a	-0.070000246
197	0x3cfbc6ad	0.030734384
198	0xbd508f76	-0.050918065
199	0xbd909dc8	-0.070613444
200	0x3d3b0e58	0.045667976
201	0xbd8f6fb4	-0.070037276
202	0x3c4025b5	0.01172774
203	0x3cb029c8	0.021504298
204	0xbe2658dc	-0.16244835
205	0xbd81317b	-0.06308266
206	0xbc94f505	-0.01818324
207	0xbd8329db	-0.06404468
208	0xbe303279	-0.17206754
209	0x3e47feff	0.19530867
210	0x3e7b04f6	0.24513611
211	0x3efd5f63	0.49486837
212	0xbdc68cea	-0.09694846
213	0x3e860e6b	0.26182875
214	0x3e39fedd	0.18163629
215	0x3d8f41aa	0.06994946
216	0xbde3cf44	-0.11123517
217	0x3e29ff8d	0.16601391
218	0x3dfbcc04	0.12294772
219	0x3b975f39	0.0046195057
220	0xbdebae82	-0.11507894
221	0xbe70fedb	-0.2353472
222	0xbe9315ca	-0.2872756
223	0xbecbfff1	-0.39843705
224	0xbb9eee99	-0.0048502204
225	0xbdb2a6d9	-0.0872323
226	0x3ea408e8	0.32038045
227	0x3de374a3	0.11106231
228	0xbdefe104	-0.1171284
229	0x3e918892	0.28424507
230	0x3e7e1d7f	0.2481594
231	0xbeb6cbc8	-0.35702348
232	0xbd2d9245	-0.04237582
233	0x3efbccae	0.49179596
234	0x3e201b68	0.15635455
235	0xbe9a2241	-0.3010426
236	0x3e4b706a	0.19867101
237	0x3e4cb1e6	0.19989738
238	0xbb7f19aa	-0.003892521
239	0xbeda3c25	-0.42624012
240	0xbe975d73	-0.29563484
241	0xbe422af2	-0.18961695
242	0xbe0133c0	-0.12617397
243	0xbd7027d7	-0.058631744
244	0xbe473f9a	-0.19457856
245	0x3e96f183	0.29481134
246	0x3e14779d	0.14498754
247	0xbd94816a	-0.07251246
248	0xbdb78691	-0.089612134
249	0x3e791267	0.24323426
250	0xbe247dd2	-0.16063622
251	0xbd9dba7f	-0.07701587
252	0x3e32719c	0.17426151
253	0xbcbaacd3	-0.022787487
254	0xbdae6f8a	-0.08517368
255	0x3e069b2c	0.13145131

bias f4 [18]
0	0xbe782a9c	-0.24235004
1	0xbdad041b	-0.08448049
2	0xbe740b1e	-0.23832366
3	0x3e02ea1f	0.12784623
4	0xbdd7d14b	-0.10537966
5	0x3e057b71	0.1303537
6	0x3c90474d	0.017612124
7	0x3dac2d23	0.08407047
8	0x3da788de	0.08180402
9	0x3d5d286e	0.053993635
10	0x3e044025	0.12915094
11	0x3dd17852	0.102280274
12	0xbe2c1c63	-0.16807704
13	0xbcee0ac1	-0.029057862
14	0x3e452e0f	0.19255851
15	0x3c1d0a2a	0.009584943
16	0x3e923ea3	0.28563413
17	0x3dc24472	0.09485711

weight f4 [18]
0	0x3f3c291e	0.7350024
1	0x3f2ad449	0.6673017
2	0x3f21291d	0.6295336
3	0x3f59611b	0.84913796
4	0x3f36a188	0.7134023
5	0x3f5af50c	0.8553016
6	0x3f5b759f	0.8572635
7	0x3f2bb010	0.67065525
8	0x3f14d92f	0.58143896
9	0x3f5d95cb	0.8655669
10	0x3f2a0a60	0.6642208
11	0x3f4fdab1	0.8119307
12	0x3f49a9af	0.7877454
13	0x3f4af086	0.7927326
14	0x3f282862	0.6568662
15	0x3f2d4266	0.6767944
16	0x3f451a56	0.7699331
17	0x3f47117e	0.77761066

bias f4 [18]
0	0x3d6490e8	0.055802256
1	0xbbb9a935	-0.005665923
2	0xbd240c8c	-0.040051028
3	0xbdc2667a	-0.09492202
4	0x3d461d3a	0.048367716
5	0x3d5efae9	0.054438505
6	0x3d424653	0.047430348
7	0xbd14abc4	-0.03629662
8	0x3c649f5e	0.013954012
9	0xbd7ef5a5	-0.062245984
10	0xbdc1b5c3	-0.094584964
11	0xbc4b1e24	-0.012397323
12	0x3d92ee91	0.07174409
13	0x3dcfd61f	0.10148262
14	0xbd205364	-0.039142027
15	0xbdb3f9f8	-0.08787912
16	0x3d9ada35	0.07561151
17	0xbd2122d7	-0.039339866

weight f4 [1152, 18]
0	0x3d3fa600	0.04678917
1	0x3d7cc775	0.061713655
2	0xbe1b1b06	-0.15147027
3	0x3dba7e10	0.09106076
4	0x3e15b0ce	0.14618227
5	0xbb6c124d	-0.003602165
6	0x3cf6a896	0.030109685
7	0xbaddbe15	-0.0016917611
8	0x3dea8325	0.11450795
9	0x3dd43a2a	0.103626564
10	0x3e1c4417	0.15260349
11	0xbe2a6a88	-0.16642201
12	0x3e783a5b	0.24241011
13	0xbea38ae0	-0.3194189
14	0x3e492441	0.19642736
15	0xbe375b2b	-0.17905872
16	0xbe32b7c3	-0.17452912
17	0x3e1f0906	0.15530786
18	0x3ee29398	0.4425323
19	0x3e9f6d43	0.31138048
20	0xbdc5193f	-0.09623956
21	0x3e475099	0.1946434
22	0x3ea932c1	0.33046535
23	0xbe80cf98	-0.2515838
24	0x3eaae89c	0.33380592
25	0xbd372905	-0.044716854
26	0xbeb1db65	-0.34737697
27	0xbe59deef	-0.21276449
28	0x3d2b81fb	0.041872006
29	0x3e6605d1	0.22463156
30	0xbc0155ee	-0.007894022
31	0xbdaa8bd8	-0.08327454
32	0xbe9b5e9c	-0.3034562
33	0xbd7bac27	-0.061443474
34	0xbecbf731	-0.3983703
35	0xbe0e7422	-0.13911489
36	0xbe9e3367	-0.30898592
37	0xbde687e4	-0.11256388
38	0x3e279606	0.16365823
39	0xbd7c94c8	-0.061665326
40	0x3d9c8db1	0.07644213
41	0x3ce613f0	0.028085679
42	0x3e541386	0.20710573
43	0xbd905119	-0.07046718
44	0xbbce2ae3	-0.0062917336
45	0xbebaccf6	-0.36484498
46	0x3dfa3c01	0.12218476
47	0x3e9452eb	0.2896951
48	0xbdf0d2a3	-0.11758926
49	0x3d8769f3	0.06612005
50	0xbdba91cb	-0.09109839
51	0xbdafdc9d	-0.085870005
52	0x3eb9d3ce	0.36294407
53	0x3e74bb09	0.23899473
54	0x3e7d10b1	0.24713399
55	0xbeba3b43	-0.36373338
56	0xbdc63dae	-0.09679733
57	0x3e8f9724	0.28045
58	0xbcfad850	-0.030620724
59	0x3e9e5103	0.30921182
60	0x3e25ad0b	0.16179292
61	0x3dd466c9	0.10371167
62	0xbd5c6d0c	-0.053814933
63	0xbd86643f	-0.06562089
64	0xbe13a15e	-0.14417025
65	0xbbdc2052	-0.00671772
66	0xbee28cee	-0.44248146
67	0x3e38ee1c	0.18059582
68	0xbc28769e	-0.010282187
69	0x3e5e7944	0.21725947
70	0xbda86fce	-0.0822445
71	0xbe233e52	-0.15941742
72	0xbe333c23	-0.17503409
73	0xbd9af561	-0.075663336
74	0x3e45f246	0.19330701
75	0x3de887a1	0.11353994
76	0xbec1ac6f	-0.3782687
77	0x3c114690	0.008866921
78	0xbf0af135	-0.542743
79	0x3beb9ae8	0.007190097
80	0xbe17403a	-0.14770594
81	0xbe0cb6e5	-0.13741644
82	0xbe94e568	-0.29081273
83	0x3de45e71	0.11150826
84	0xbe5972ac	-0.2123515
85	0x3df36e7c	0.118863076
86	0x3e794ad9	0.24344958
87	0xbe4aa5ab	-0.1978976
88	0x3e9a432d	0.30129376
89	0xbe04e1de	-0.12976786
90	0x3d847e31	0.064693816
91	0x3e35fcf4	0.17772275
92	0x3e0cb273	0.13739948
93	0x3da1885f	0.07887339
94	0x3ea08387	0.31350347
95	0xbdb8d13f	-0.090242855
96	0x3d91bf51	0.07116569
97	0x3e952c1d	0.29135218
98	0xbea9c598	-0.33158565
99	0x3b5f74d6	0.003409674
100	0xbe2d1c11	-0.16905238
101	0x3dac8b38	0.08424991
102	0xbec1b1ed	-0.3783106
103	0xbdc1e25b	-0.09467002
104	0x3e9b8798	0.30376887
105	0xbdf2f52a	-0.118631676
106	0xbdb156eb	-0.086591564
107	0xbd4913ed	-0.04909127
108	0x3e1e895c	0.15482086
109	0x3e7c82a2	0.24659207
110	0xbe520e47	-0.20513259
111	0xbd04217d	-0.0322585
112	0xbd8f6680	-0.07001972
113	0xbde53a19	-0.11192722
114	0x3d25c903	0.040474903
115	0x3e2abb5d	0.16673036
116	0xbd40ec82	-0.04710055
117	0x3e7c9bc2	0.24668792
118	0x3df6175d	0.12016175
119	0x3d539594	0.05165632
120	0x3eac4796	0.33648366
121	0xbda9746b	-0.08274158
122	0x3ea750a4	0.3267871
123	0x3db2f401	0.08737946
124	0xbe435f00	-0.19079208
125	0xbe747e40	-0.23876286
126	0x3ed141c4	0.40870488
127	0x3e0ec8a3	0.13943724
128	0xbec74643	-0.38920793
129	0x3e2ca1e7	0.16858636
130	0x3e4bf1d4	0.19916469
131	0x3ee6f5ed	0.451095
132	0x3e557376	0.20844826
133	0xbe299854	-0.16562015
134	0x3e44e641	0.1922846
135	0xbeaa8192	-0.3330198
136	0x3e83a390	0.25710726
137	0x3e8a70a6	0.2703907
138	0xbe3830a3	-0.17987303
139	0xbd33870d	-0.043829966
140	0xbe868686	-0.26274508
141	0x3eb72f10	0.35778093
142	0xbf0efd31	-0.5585509
143	0xbe24b46a	-0.16084448
144	0xbce80519	-0.028322743
145	0x3f3335a1	0.70003706
146	0xbe2b6522	-0.16737798
147	0xbf0da797	-0.55333847
148	0x3e5c3009	0.21502699
149	0x3e758c3e	0.2397928
150	0xbce2006d	-0.027588094
151	0x3f0cd487	0.5501179
152	0xbcc2e2ae	-0.02378973
153	0xbc45835b	-0.012055243
154	0x3e71ebce	0.23625109
155	0xbe6a7046	-0.22894391
156	0xbf015ae2	-0.505293
157	0x3d8cba8a	0.06871517
158	0xbca5d8a9	-0.020244913
159	0x3e5954b3	0.21223716
160	0xbdd3ab55	-0.10335413
161	0xbf1aa1b9	-0.6040302
162	0x3e1994dc	0.14998192
163	0x3ece4070	0.40283537
164	0xbe84077a	-0.25786954
165	0x3e882f0e	0.265984
166	0xbebf54d5	-0.3736941
167	0xbba0fee8	-0.0049131997
168	0x3b1df570	0.002410259
169	0x3e2a10a0	0.16607904
170	0x3da8d970	0.08244598
171	0xbe83dbe3	-0.25753698
172	0x3e4705e5	0.19435842
173	0x3ebcd818	0.36883616
174	0xbdd69445	-0.10477499
175	0xbd40f1f1	-0.047105733
176	0xbd87ce7a	-0.06631179
177	0xbe2cc9e0	-0.16873884
178	0x3dfcaed9	0.12338037
179	0xbe2765e7	-0.16347466
180	0x3eddbcdc	0.4330815
181	0x3f07f1f1	0.5310355
182	0x3dbc8ee3	0.09206941
183	0xbecabdee	-0.3959803
184	0xbe3349a8	-0.17508566
185	0xbea2ccbf	-0.31796834
186	0xbe1c8c78	-0.1528796
187	0xbdf9cd70	-0.12197387
188	0xbe515e5b	-0.2044615
189	0xbdb7ce20	-0.08974862
190	0xbea3394c	-0.31879652
191	0x3e3dc8c8	0.18533623
192	0x3ee6baff	0.45064542
193	0x3e434bf4	0.19071943
194	0xbf0fcf89	-0.5617605
195	0xbe32d518	-0.17464101
196	0x3f1b420d	0.6064766
197	0xbe899f7b	-0.26879486
198	0xbe0801d4	-0.13281947
199	0x3ee5eeee	0.4490885
200	0x3e811aa0	0.25215626
201	0x3e8b2684	0.27177823
202	0xbd3533c9	-0.04423884
203	0xbe8dcc52	-0.27694947
204	0xbdb0dda9	-0.08636028
205	0xbd307651	-0.043081585
206	0xbd204ce4	-0.03913583
207	0xbe006f66	-0.12542495
208	0xbd5b4155	-0.053529102
209	0x3dbf2416	0.09333055
210	0x3d87fcb2	0.06639995
211	0xbcf14dee	-0.029456105
212	0xbd912413	-0.07086959
213	0xbe7c7a09	-0.24655928
214	0xbdf01df5	-0.11724464
215	0xbe369797	-0.17831264
216	0x3eab4bd1	0.3345628
217	0x3e3b84ae	0.18312332
218	0xbe8883bf	-0.26663014
219	0x3e8088db	0.25104412
220	0x3d098d17	0.03358182
221	0x3e2676be	0.16256234
222	0xbba6199c	-0.005068971
223	0x3e328e38	0.17437065
224	0xbd970cbd	-0.073754765
225	0xbe2da0d2	-0.1695588
226	0x3e7a62c6	0.24451742
227	0x3ed42c07	0.4143984
228	0xbe9a562e	-0.30143875
229	0xbcfb0810	-0.030643493
230	0xbec295e9	-0.38004997
231	0x3e3d416e	0.1848199
232	0x3db61816	0.08891313
233	0xbe632a06	-0.22184
234	0x3ca300ba	0.019897807
235	0xbe7e48b3	-0.2483242
236	0xbe07a012	-0.13244656
237	0xbde3b101	-0.11117745
238	0xbe1c1dc2	-0.15245727
239	0x3d01c208	0.031679183
240	0x3d739efc	0.05947779
241	0xbe30fa11	-0.17282893
242	0x3e9317bf	0.28729054
243	0x3e5736db	0.2101702
244	0xbd8a1f81	-0.0674429
245	0x3d825e67	0.06365662
246	0x3e6c7ba9	0.23094048
247	0xbdad0dd9	-0.08449907
248	0xbebc9201	-0.36830142
249	0x3c817f75	0.015807847
250	0x3e29edaf	0.16594575
251	0xbda09f84	-0.07842925
252	0x3e4307fe	0.19046018
253	0xbe92122c	-0.2852949
254	0x3ef42c1c	0.47689903
255	0x3cb42d51	0.021994265

weight f4 [18, 384]
0	0xbcf80c28	-0.030279234
1	0xbe74fda4	-0.23924881
2	0x3dddcf3e	0.10830544
3	0x3daf248e	0.08551894
4	0x3dc38ba3	0.09548118
5	0x3e090f2a	0.13384691
6	0x3d92bbbe	0.07164715
7	0xbd67e2da	-0.056612827
8	0xbd72f1ef	-0.059312757
9	0x3dc66d79	0.09688849
10	0x3dab3775	0.08360187
11	0xbe165d3e	-0.14684007
12	0xbd7595d7	-0.05995735
13	0xbe3a2e12	-0.18181637
14	0x3e356805	0.17715462
15	0xbc3b1c0a	-0.011420259
16	0xbc8bc159	-0.017059969
17	0x3c8c64b6	0.017137866
18	0x3d2bc42e	0.04193514
19	0xbcbd267c	-0.02308964
20	0xbd1cad44	-0.038251176
21	0x3bb5fc0c	0.005553728
22	0xbaf12798	-0.0018398641
23	0x3def9fe4	0.117004186
24	0x3d556fd3	0.052108597
25	0x3dcf0543	0.101084255
26	0xbe2922c0	-0.16517162
27	0xbda074c7	-0.078347735
28	0xbe3457c0	-0.17611599
29	0x3b64d31b	0.0034915868
30	0x3e3ba4b9	0.18324555
31	0x3db750cc	0.08950958
32	0xbdc00d01	-0.0937748
33	0x3d13abaf	0.036052402
34	0xbcdedb4f	-0.027204184
35	0x3e488264	0.1958099
36	0x3dbb5e65	0.09148864
37	0xbe366550	-0.17812085
38	0xbe4bcaea	-0.19901624
39	0x3ddc96bd	0.107709385
40	0xbbf57498	-0.0074907057
41	0x3d60be6a	0.054869093
42	0xbcf54086	-0.029937994
43	0xbcb34327	-0.021882607
44	0xbdc2fd42	-0.09520961
45	0xbd890a9b	-0.06691476
46	0x3d4b5db5	0.049649913
47	0x3de8b8a1	0.1136334
48	0x3e592309	0.21204771
49	0xbd6434fd	-0.055714596
50	0xbe1bc77e	-0.15212819
51	0xbe5ec928	-0.21756423
52	0x3cdd4d6a	0.027014453
53	0x3e1441b3	0.14478187
54	0xbd6f427a	-0.058413006
55	0xbda4a58a	-0.080393866
56	0x3e0b8c78	0.13627803
57	0xbad569ae	-0.0016282105
58	0x3dc3108a	0.09524639
59	0xbd6a5f99	-0.057220075
60	0xbdc2a280	-0.09503651
61	0x3e642950	0.22281384
62	0x3c53aef7	0.012920133
63	0x3ca22dfb	0.019797316
64	0x3e732924	0.23746163
65	0xbda6b86a	-0.08140643
66	0xbdd66973	-0.104693316
67	0xbda8e814	-0.082473904
68	0xbd3d7fe6	-0.04626455
69	0x3d71fb06	0.059077285
70	0xbe3b539b	-0.18293612
71	0x3d09b7e9	0.033622656
72	0xbdbbb03d	-0.09164474
73	0xbd8d242a	-0.06891663
74	0xbd3f6407	-0.046726253
75	0xbd69b55e	-0.05705773
76	0x3cbaa035	0.02278147
77	0xbd484cb8	-0.04890129
78	0x3e0777d2	0.13229302
79	0x3eaca493	0.3371931
80	0xbc83105d	-0.015999014
81	0xbdff15e7	-0.124553494
82	0x3e2bc7f8	0.16775501
83	0x3d3dcda7	0.046338703
84	0x3db8a8f3	0.090165995
85	0xbd6dd4aa	-0.05806414
86	0x3cfdde61	0.030989828
87	0x3e4815c2	0.1953955
88	0x3ddee442	0.108833805
89	0xbdbacc67	-0.09121018
90	0xbd21aced	-0.039471556
91	0x3dbef6e4	0.093244344
92	0x3dd9a496	0.106270954
93	0xbdb5f9ee	-0.08885561
94	0x3ec4e55a	0.3845623
95	0xbc43d4fc	-0.011952635
96	0xbbbf1fb6	-0.0058326377
97	0x3d6d7754	0.05797513
98	0x3e439862	0.19101098
99	0xbe8d4173	-0.27588996
100	0xbd4a69f6	-0.04941746
101	0xbe440e23	-0.19146018
102	0x3b065546	0.0020497604
103	0x3a4b9669	0.00077662483
104	0xbd9193c8	-0.07108265
105	0x3c784de9	0.015155294
106	0xbc81e2a1	-0.015855135
107	0x3e8ae19a	0.27125245
108	0x3c39c7aa	0.0113391075
109	0x3e028552	0.1274617
110	0xbe3b6887	-0.18301593
111	0xbc46f4d4	-0.0121433325
112	0x3beee714	0.0072907303
113	0xbe08e32b	-0.13367908
114	0xbe8f14e1	-0.27945617
115	0xbe8ff050	-0.2811303
116	0xbd17ae9b	-0.03703175
117	0x3b85bd7b	0.0040814257
118	0x3d55ac1e	0.052166097
119	0x3e31b10c	0.17352694
120	0x3d46d758	0.04854521
121	0x3ba6510a	0.0050755786
122	0x3be73850	0.0070562735
123	0xbe830330	-0.2558837
124	0xbb66e5e3	-0.0035232238
125	0x3b35c531	0.0027735943
126	0x3d905df2	0.07049169
127	0xbdeebc69	-0.1165703
128	0x3d86f4e7	0.0658968
129	0x3b771694	0.0037702667
130	0x3d9ff7ab	0.07810911
131	0xbe326f6d	-0.17425318
132	0xbd382291	-0.04495484
133	0xbd82c02e	-0.063843116
134	0xbd420dbe	-0.047376387
135	0xbd6590a5	-0.056046147
136	0xbc0ff6df	-0.008786886
137	0x3e8274b1	0.25479653
138	0xbea54784	-0.32281125
139	0x3dc57803	0.09642031
140	0xbcc3452c	-0.023836695
141	0xbe1f7550	-0.15572095
142	0xbe5fe52f	-0.2186477
143	0xbdd3d743	-0.10343792
144	0xbd2cc25e	-0.04217755
145	0xbe272226	-0.1632162
146	0xbcc7e488	-0.024400964
147	0xbc8e1305	-0.017343054
148	0xbda36014	-0.0797731
149	0x3e0e7c32	0.13914564
150	0x3d6c7348	0.05772713
151	0x3e458326	0.1928831
152	0xbe387f6d	-0.18017359
153	0xbd404e47	-0.04694965
154	0xbc7a0e4b	-0.015262197
155	0xbbbe80c6	-0.005813691
156	0x3ac47eec	0.0014991439
157	0x3a35b07a	0.0006930899
158	0x3d22057a	0.039556004
159	0x3e05b60b	0.13057725
160	0x3e13d3da	0.14436284
161	0x3d524c9b	0.051342588
162	0x3e2708f8	0.16312015
163	0x3e4838bf	0.19552897
164	0xbe29b51b	-0.16572993
165	0x3c0ed79e	0.008718399
166	0x3cf9a75a	0.030475307
167	0xbd1ba938	-0.038003176
168	0x3e30f9c3	0.17282777
169	0x3d164dd6	0.036695324
170	0x3cebbd89	0.0287769
171	0x3e4e8736	0.20168766
172	0xbc2cfb63	-0.010557982
173	0x3cc57435	0.024103263
174	0x3d69fb3b	0.057124358
175	0x3e1499b6	0.14511761
176	0xbd949777	-0.07255452
177	0xbd912b17	-0.07088297
178	0x3e05e27e	0.13074681
179	0xbd3ec7e9	-0.046577368
180	0xbbea0d65	-0.00714271
181	0xbca995b5	-0.020701269
182	0x3cd59559	0.026072191
183	0x3dbbb1cd	0.09164772
184	0x3e08108f	0.13287567
185	0xbdb5b74c	-0.08872852
186	0xbd1baaab	-0.03800456
187	0x3eab7d71	0.33494142
188	0xbd33f5cc	-0.043935582
189	0x3d5242ff	0.051333424
190	0xbdcc3ae6	-0.099721715
191	0xbcb08e9e	-0.02155238
192	0xbe859030	-0.2608657
193	0xbe16e198	-0.14734495
194	0xbca42ae6	-0.020039987
195	0xbcd6c3ee	-0.026216473
196	0xbce457da	-0.027873922
197	0x3e87c688	0.26518655
198	0xbc948af5	-0.018132666
199	0x3e728431	0.2368324
200	0xbe598042	-0.21240333
201	0x3d639f7a	0.05557201
202	0xbd800495	-0.06250874
203	0x3d27a8a9	0.04093233
204	0xbe44ed99	-0.19231261
205	0xbd9c1577	-0.076212816
206	0xbd96f97b	-0.073718034
207	0x3d4e3a48	0.05034855
208	0xbdf34505	-0.11878399
209	0xbe00909a	-0.12555161
210	0xbd88e632	-0.06684531
211	0xbe1b4729	-0.15163864
212	0x3d015e33	0.031583976
213	0xbdff5a74	-0.124684244
214	0xbe18d2fb	-0.14924233
215	0x3d37a546	0.04483535
216	0xbd76bdbc	-0.06023954
217	0xbcaccf91	-0.02109507
218	0x3d89b3d8	0.067237556
219	0xbd316bce	-0.0433157
220	0x3e15ad72	0.14616945
221	0xbe4a133c	-0.197339
222	0x3e23ec5e	0.16008136
223	0x3a1d7adc	0.0006007382
224	0xb9d4579c	-0.00040501065
225	0x3dda91d7	0.10672348
226	0xbcf4523a	-0.029824365
227	0x3db7f741	0.08982707
228	0xbd289fde	-0.041168086
229	0xbe01f3f8	-0.12690723
230	0x3d76361f	0.060110208
231	0xbdcfc59f	-0.10145115
232	0xbdab277a	-0.08357139
233	0xbdc9dcf9	-0.098566
234	0xbd5e97f7	-0.054344144
235	0xbe2d5bdd	-0.16929574
236	0xbd84b809	-0.064804144
237	0xbea16089	-0.31518963
238	0x3c0a4bb8	0.008440904
239	0xbddce9d6	-0.10786788
240	0x3cc1eb1d	0.023671681
241	0x3dcfbf05	0.10143856
242	0x3e841e3d	0.2580432
243	0x3c4fdb74	0.012686599
244	0x3c972182	0.018448595
245	0x3c540601	0.012940885
246	0x3e6b30d7	0.2296785
247	0x3d7d92c9	0.061907563
248	0xbd929648	-0.0715757
249	0xbd926c09	-0.07149512
250	0x3d9fff18	0.07812327
251	0x3d7c118a	0.061540164
252	0xbdb14592	-0.086558476
253	0x3cd14105	0.025543699
254	0xbc48f4c5	-0.012265389
255	0xbdc8e67b	-0.09809586

bias f4 [18]
0	0x3dba0143	0.09082272
1	0x3e833e7d	0.25633612
2	0x3e38ee7b	0.18059723
3	0xbdc5254e	-0.09626256
4	0x3e8c5661	0.27409652
5	0xbd328f3a	-0.043593623
6	0xbdf08eb2	-0.11745967
7	0x3d78b2b2	0.060717292
8	0xbdd63bb1	-0.10460604
9	0x3bb1f117	0.0054303515
10	0xbdf45839	-0.1193089
11	0xbd819d4a	-0.06328829
12	0x3dc68303	0.09692957
13	0xbcbb2549	-0.022844927
14	0xbe4609c0	-0.19339657
15	0xbd0177b7	-0.03160831
16	0x3c50619d	0.012718585
17	0xbd6d079a	-0.057868578

weight f4 [18]
0	0x3f81d8be	1.014427
1	0x3f7d9e83	0.99069995
2	0x3f5758fc	0.84120154
3	0x3f8ad37c	1.084579
4	0x3f84c175	1.0371538
5	0x3f4addb2	0.7924453
6	0x3f2e40a2	0.6806737
7	0x3efb9d41	0.49143413
8	0x3f20cd02	0.6281282
9	0x3f0ff51f	0.562334
10	0x3f87fa38	1.0623236
11	0x3f5d1504	0.8636019
12	0x3f8376b9	1.0270606
13	0x3fa9c84e	1.3264253
14	0x3f5d9296	0.865518
15	0x3f633033	0.8874542
16	0x3f9197b9	1.1374427
17	0x3f869025	1.051274

bias f4 [18]
0	0xbe11836e	-0.14210293
1	0x3ebd3762	0.36956316
2	0xbe1bfd1c	-0.15233272
3	0xbd02aa4e	-0.031900696
4	0xbad0ceb2	-0.0015930741
5	0xbd601268	-0.054705054
6	0x3e55c6d6	0.20876631
7	0x3b88f386	0.004179421
8	0x3eef706a	0.46765453
9	0x3affade8	0.0019506784
10	0x3dcf10cb	0.10110625
11	0xbda12b6b	-0.078696094
12	0x3d618d8a	0.055066623
13	0x3dbb7dd0	0.09154856
14	0xbd02a41e	-0.031894796
15	0x3d20c32c	0.03924863
16	0x3e8f28d4	0.27960837
17	0xbd260226	-0.040529393

weight f4 [24, 18]
0	0xbe0099d2	-0.12558678
1	0x3e698cf8	0.22807682
2	0x3e690988	0.22757542
3	0xbe0a92bb	-0.13532536
4	0x3e5c3df7	0.21508013
5	0xbd3e3b85	-0.04644348
6	0x3e01eb5d	0.1268744
7	0x3d6c47b1	0.057685558
8	0xbe86bcb4	-0.26315844
9	0xbd4e5b71	-0.050380174
10	0xbf1f437f	-0.62212366
11	0xbee06c2a	-0.43832523
12	0x3ec95688	0.3932383
13	0x3d7227d0	0.05912
14	0xbe6b4c6c	-0.22978371
15	0x3b95e08b	0.0045738867
16	0x3e5dd621	0.21663715
17	0x3e3ca5ea	0.18422666
18	0xbebf3206	-0.37342852
19	0xbea8df53	-0.32982883
20	0xbe9d2522	-0.30692393
21	0xbe4d4b8b	-0.20048349
22	0xbcf2cbba	-0.02963816
23	0xbdff09e5	-0.12453059
24	0x3e72bf43	0.23705773
25	0x39ff4258	0.0004868682
26	0xbe5bcff2	-0.21466044
27	0x3e300af6	0.17191681
28	0x3e4add42	0.19810966
29	0x3d510aa2	0.05103553
30	0xbdf19091	-0.11795152
31	0xbdc3ec77	-0.095665865
32	0xbe66cada	-0.22538319
33	0xbe875fef	-0.2644038
34	0xbe448987	-0.19193088
35	0xbebc35be	-0.36759752
36	0xbe807d58	-0.2509563
37	0x3e1bf3a8	0.15229666
38	0xbdd13e24	-0.102169305
39	0xbe22cfe6	-0.1589962
40	0x3dfc7a79	0.12328047
41	0xbe899d82	-0.2687798
42	0x3bfef2e6	0.0077804206
43	0x3e8f0a0c	0.27937353
44	0xbd99db04	-0.07512477
45	0xbeadc06a	-0.33935863
46	0x3e54b765	0.20773084
47	0x3e47466d	0.19460459
48	0xbe850bfa	-0.259857
49	0xbe791438	-0.24324119
50	0x3ed76482	0.4206887
51	0xbe25cd00	-0.16191483
52	0xbd095003	-0.03352357
53	0x3e5b941c	0.21443218
54	0xbe23da6c	-0.1600129
55	0x3eb3405a	0.35010034
56	0xbe11fe06	-0.14257059
57	0x3cfd4d74	0.030920722
58	0xbe980fc2	-0.29699522
59	0xbe3a3432	-0.18183973
60	0xbe2ca074	-0.16858083
61	0x3e35cf42	0.17754844
62	0xbe89fa49	-0.26948765
63	0x3e0bf369	0.13667072
64	0xbd840984	-0.064471275
65	0x3d60525b	0.05476604
66	0xbb8d9ba0	-0.0043215305
67	0x3ee58226	0.44825858
68	0x3eac2599	0.33622435
69	0x3d4f19ed	0.050561834
70	0xbf082725	-0.5318473
71	0xbe32e8ab	-0.17471568
72	0xbe1f3a6e	-0.15549633
73	0xbda1a4af	-0.07892739
74	0x3e028ddb	0.12749426
75	0x3db86d40	0.09005213
76	0xbe95884f	-0.29205558
77	0x3e56f4dc	0.20991844
78	0x3da2a5e6	0.07941799
79	0xbe832ca2	-0.2561999
80	0x3ca4bf10	0.020110637
81	0xbe0a1a6f	-0.13486646
82	0xbea94277	-0.3305852
83	0x3e6d7a82	0.23191264
84	0x3dd0ea18	0.102009
85	0xbb83c101	-0.0040208106
86	0x3e9d8dca	0.3077224
87	0x3dbd9490	0.09256852
88	0xbe089fcf	-0.13342212
89	0xbdfc4cd5	-0.12319342
90	0xbd350966	-0.044198416
91	0xbe7200a5	-0.23633058
92	0xbed5d7e6	-0.4176628
93	0xbe5e54c9	-0.2171203
94	0xbe3c1b34	-0.18369752
95	0x3eb8f967	0.3612778
96	0x3e24a889	0.16079916
97	0xbd55dda6	-0.052213334
98	0xbe228992	-0.15872791
99	0x3e11d718	0.14242208
100	0xbe577e74	-0.21044332
101	0x3ea53eea	0.32274562
102	0x3d95f06e	0.07321249
103	0xbf3c0c0c	-0.7345588
104	0xbd4fb5a8	-0.05071035
105	0x3db73f79	0.08947653
106	0xbe4f1655	-0.20223363
107	0x3f24f8fb	0.64442414
108	0x3d4e0212	0.050294943
109	0xbede8c9c	-0.4346665
110	0xbe417e4f	-0.18895839
111	0x3ee0c171	0.43897584
112	0x3dd737ac	0.105086654
113	0xbeb46368	-0.3523209
114	0xbd8d1728	-0.06889182
115	0x3d89525b	0.06705161
116	0xbda6ee55	-0.08150927
117	0xbdc29ec5	-0.09502939
118	0xbdf48117	-0.119386844
119	0xbe935617	-0.2877662
120	0x3ed5ef48	0.4178412
121	0x3f3258fe	0.6966704
122	0xbe732280	-0.2374363
123	0xbecae723	-0.39629468
124	0xbe79a8dd	-0.24380822
125	0xbd6dcc9e	-0.058056466
126	0xbda99624	-0.0828059
127	0xbebe7cee	-0.3720469
128	0xbdc02e36	-0.09383814
129	0xbc58fb44	-0.0132435
130	0x3e897fdb	0.26855358
131	0xbe322757	-0.1739782
132	0xbe7cd0ce	-0.24689028
133	0xbd6805fa	-0.056646325
134	0xbd9ac876	-0.07557766
135	0x3c2eeb87	0.010676271
136	0xbe89c7dc	-0.26910293
137	0x3de8bb41	0.11363841
138	0xbdc79afb	-0.09746357
139	0x3c3b0648	0.011415072
140	0x3de8690d	0.11348162
141	0xbe5c18fc	-0.21493906
142	0xbe127777	-0.14303385
143	0x3e384e7e	0.17998692
144	0xbe9c4bbf	-0.3052654
145	0xbed4ea6f	-0.4158511
146	0x3e3a9bb8	0.18223464
147	0x3e4f33e3	0.20234637
148	0x3f063578	0.52425337
149	0xbea33dc8	-0.31883073
150	0x3e5c02b0	0.214854
151	0x3da7d5cb	0.08195075
152	0xbef1bb13	-0.4721304
153	0x3d5c765c	0.053823814
154	0x3e8e16fc	0.2775191
155	0xbc8434fc	-0.016138546
156	0xbe2185cd	-0.15773697
157	0x3eea498d	0.4575924
158	0xbda6b3ad	-0.08139739
159	0xbd22c776	-0.039741002
160	0x3d868fe7	0.06570416
161	0x3d98e8a5	0.074662484
162	0xbda6fab5	-0.08153287
163	0xbcf4940d	-0.029855752
164	0x3e15c177	0.14624582
165	0xbece4631	-0.40287927
166	0xbd006248	-0.03134373
167	0x3dd7f646	0.1054502
168	0xbdd71a1f	-0.10503029
169	0xbdae7b76	-0.08519642
170	0x3ddaa1c1	0.10675383
171	0xbd8d6483	-0.06903937
172	0x3defb255	0.11703936
173	0x3c78d8d8	0.015188418
174	0xbefd6c80	-0.4949684
175	0x3e39a05e	0.18127581
176	0x3e167875	0.14694388
177	0x3e8aa353	0.27077731
178	0xbeb4133b	-0.35170922
179	0x3e85350a	0.26017028
180	0x3d0e3558	0.03471884
181	0x3dc4950a	0.095987394
182	0xbe92e341	-0.28689006
183	0x3d16d05d	0.036819804
184	0x3da9e072	0.08294763
185	0xbeaee7a8	-0.34161115
186	0xbc897d93	-0.016783511
187	0x3e826c18	0.25473094
188	0x3dd6c8cf	0.1048752
189	0x3e29dd7f	0.165884
190	0x3e4e9a78	0.20176113
191	0xbe856de4	-0.26060402
192	0xbd4f5198	-0.050614923
193	0x3d8cfe9f	0.068845026
194	0xbea1d6af	-0.31609103
195	0x3e5e0299	0.21680678
196	0x3f12cf3a	0.5734745
197	0xbeb09254	-0.3448664
198	0xbe41c40d	-0.18922444
199	0xbce15f54	-0.027511276
200	0x3e1ca4f2	0.15297297
201	0x3d027795	0.031852324
202	0xbe2ce197	-0.1688293
203	0x3d43f18d	0.047837783
204	0xbe414656	-0.18874487
205	0xbd9edfdc	-0.077575415
206	0x3bcc4b8d	0.0062345923
207	0xbe1f8c59	-0.15580882
208	0xbe461ca2	-0.1934686
209	0x3c5cec40	0.013484061
210	0xbe502afa	-0.20328894
211	0xbe9a50a0	-0.30139637
212	0x3c0ad282	0.008473041
213	0x3ea12e31	0.31480554
214	0xbe3705e3	-0.1787334
215	0xbdaf0911	-0.08546651
216	0x3e6aa146	0.22913083
217	0x3d99de94	0.075131565
218	0x3e7931e3	0.24335437
219	0xbe308f79	-0.1724223
220	0x3e7293b1	0.23689152
221	0xbd3cb09d	-0.04606687
222	0xbe3eb544	-0.18623835
223	0xbe828cbe	-0.25498003
224	0xbea8818d	-0.3291134
225	0x3d284d88	0.041089565
226	0xbe4ab37e	-0.19795033
227	0x3d00f56d	0.031484056
228	0x3eaae642	0.33378798
229	0x3e49c9ae	0.19705841
230	0xbcb98454	-0.022646107
231	0xbd15277f	-0.03641462
232	0xbd8061c2	-0.06268646
233	0xbd6df373	-0.0580935
234	0xbe3244da	-0.17409077
235	0xbe26750f	-0.16255592
236	0x3eaec38a	0.3413356
237	0xbd11bbea	-0.0355796
238	0xbe39540c	-0.18098468
239	0x3dd00782	0.10157682
240	0x3ea84649	0.32866123
241	0x3e9d199a	0.30683595
242	0xbe850671	-0.25981477
243	0x3d1c9450	0.03822738
244	0xbbece789	-0.0072297496
245	0x3e8dd04c	0.2769798
246	0xbe28fe93	-0.16503362
247	0x3f1e0a70	0.61734676
248	0x3d2dc1c7	0.04242113
249	0x3dd1686f	0.10224997
250	0xbd271a70	-0.040796697
251	0xbe5ac12f	-0.21362756
252	0x3ea60c69	0.32431343
253	0x3e0ce93c	0.13760847
254	0xbbbc94af	-0.005755029
255	0x3e11cc5a	0.1423811

bias f4 [24]
0	0xbec0efbd	-0.37682906
1	0xbdf4862b	-0.11939653
2	0xbee43a7e	-0.44575876
3	0xbd86666e	-0.06562506
4	0xbd9db5a5	-0.077006616
5	0xbebcbe80	-0.3686409
6	0xbe4c75e2	-0.19966844
7	0xbc996969	-0.018727021
8	0xbd1e5b76	-0.038661443
9	0xbe7e5009	-0.24835218
10	0xbe9b24ef	-0.30301616
11	0xbddfd8ce	-0.10930024
12	0xbe09b9f4	-0.13449842
13	0xbd9a88e4	-0.07545641
14	0xbeb9168d	-0.36150017
15	0x3d1114cc	0.035420224
16	0xbe26dfaa	-0.16296259
17	0xbe8b7d90	-0.27244234
18	0xbec99196	-0.39368886
19	0xbec298eb	-0.38007292
20	0xbe9c8713	-0.30571803
21	0xbee68706	-0.4502489
22	0xbe8d4753	-0.2759348
23	0xbf001500	-0.50032043

weight f4 [18, 24]
0	0xbe5ce4ca	-0.21571651
1	0xbe56be32	-0.20970991
2	0x3e509618	0.20369756
3	0x3e1050ff	0.14093398
4	0xbdae9c30	-0.08525884
5	0x3be623c8	0.0070233084
6	0xbd979324	-0.07401112
7	0x3d483658	0.04887995
8	0x3cf25b06	0.029584419
9	0x3e35cd96	0.17754206
10	0xbd8add20	-0.067804575
11	0xbdb4ac1a	-0.08821888
12	0xbe617bc1	-0.22019865
13	0xbde0e204	-0.10980609
14	0xbd937f5c	-0.07202026
15	0x3d411c04	0.04714586
16	0x3e292907	0.16519557
17	0x3de692c7	0.11258464
18	0x3e41858b	0.18898599
19	0x3eef08d9	0.46686438
20	0x3ec18572	0.37797123
21	0x3db6a75d	0.08918641
22	0x3db01233	0.08597221
23	0xbd319d77	-0.04336306
24	0xbd5a1ef6	-0.053252183
25	0xbe80bd1a	-0.25144273
26	0xbb025468	-0.0019886736
27	0xbe3ebaef	-0.18625997
28	0xbd5e87e0	-0.0543288
29	0x3ee1e497	0.44119713
30	0x3e4a128f	0.19733642
31	0x3e7872a8	0.24262488
32	0x3ef40699	0.47661284
33	0xbd2fb321	-0.04289544
34	0x3ed7d3a9	0.4215367
35	0x3e586322	0.21131566
36	0x3e7d2500	0.24721146
37	0xbcb6d945	-0.022320399
38	0xbeac1bc6	-0.3361494
39	0x3a5c2422	0.0008397718
40	0xbe144d13	-0.14482526
41	0x3e11a5ed	0.14223452
42	0xbee22b1b	-0.44173512
43	0x3ea9f98f	0.3319821
44	0x3e8734a3	0.26407346
45	0x3e90fca4	0.2831775
46	0xbd4c55d9	-0.04988656
47	0x3d14bdb5	0.03631373
48	0x3e548f0b	0.20757692
49	0xbe8dfd57	-0.27732345
50	0x3ee93d5c	0.45554626
51	0xbc88c941	-0.016697528
52	0x3cca0b5b	0.024663618
53	0x3eea717e	0.45789713
54	0xbd0e58c8	-0.034752637
55	0x3e05ee34	0.13079149
56	0x3e281704	0.1641503
57	0x3e3cacda	0.18425313
58	0x3e044280	0.12915993
59	0x3e9508b7	0.2910821
60	0x3e3d9628	0.18514311
61	0x3e8e5bb9	0.27804354
62	0x3e848d7b	0.2588919
63	0x3cd568c1	0.026050927
64	0xbe65a6bf	-0.2242689
65	0x3defe50b	0.11713608
66	0x3eb760e7	0.35816118
67	0x3ec68a9b	0.38777623
68	0x3e5bcb9e	0.21464393
69	0x3e3aee08	0.18254864
70	0x3e015af2	0.12632349
71	0xbec50d51	-0.38486722
72	0x3da6219b	0.081118785
73	0xbd1dfc7f	-0.038570877
74	0x3e5a9de1	0.21349289
75	0xbe35a3f0	-0.17738318
76	0xbe193f7a	-0.1496562
77	0x3e9c0e8e	0.30479854
78	0x3ea6d48b	0.32584032
79	0xbe3d1d3e	-0.18468186
80	0x3e44f804	0.19235235
81	0x3d98b2d9	0.074559875
82	0xbe33f9cc	-0.17575759
83	0x3d89e498	0.06733054
84	0x3d9958fc	0.074876755
85	0x3e1c3cd0	0.15257573
86	0x3eb80bc6	0.35946482
87	0xbeb48847	-0.3526022
88	0xbd995acc	-0.07488021
89	0x3dbb2037	0.09137004
90	0xbed7a403	-0.4211732
91	0xbc82901b	-0.015937855
92	0xbe2f0272	-0.17090777
93	0x3e62dc8d	0.22154446
94	0xbc70408a	-0.014663825
95	0x3e207752	0.15670517
96	0x3eb476f3	0.35247
97	0x3e14f783	0.14547543
98	0x3e509a7c	0.20371431
99	0x3dc1a5fd	0.09455488
100	0x3d5c567b	0.05379341
101	0xbe1b01df	-0.15137433
102	0xbe67584c	-0.22592276
103	0xbdb4f70a	-0.088361815
104	0xbe95b6b3	-0.2924095
105	0x3d1ee3fa	0.038791634
106	0xbe59b564	-0.21260601
107	0xbe26ef0c	-0.16302127
108	0x3ec9e601	0.39433292
109	0xbd9aebdd	-0.075645186
110	0x3e83fa25	0.25776783
111	0x3c29dfb1	0.010368274
112	0x3eac22c3	0.3362027
113	0x3e091a54	0.1338895
114	0x3ec0c05a	0.37646753
115	0x3d2c61e4	0.042085543
116	0xbea4a484	-0.32156765
117	0x3d8c5c32	0.06853522
118	0x3e3f0c76	0.18657097
119	0x3d8bd8df	0.06828474
120	0xbe310e62	-0.17290643
121	0xbcec834c	-0.028871201
122	0x3eea40e0	0.4575262
123	0x3e9bab9b	0.30404362
124	0x3e26ba74	0.16282064
125	0x3d853b79	0.06505484
126	0x3cb2cd58	0.021826431
127	0xbd902ac4	-0.07039407
128	0xbd546413	-0.05185325
129	0x3d9356a3	0.07194259
130	0x3e182063	0.14856105
131	0x3d0ba4e8	0.034092814
132	0x3dca3fd9	0.09875459
133	0xbea52f92	-0.32262856
134	0x3dd74040	0.105103016
135	0x3bdedcab	0.006801208
136	0xbe12299d	-0.14273687
137	0xbe17d062	-0.14825585
138	0x3e0984a2	0.13429502
139	0xbe6f2363	-0.23353343
140	0xbd1aefeb	-0.03782646
141	0xbecc9321	-0.39956
142	0xbd60b8b0	-0.05486363
143	0xbdca25d6	-0.09870498
144	0x3df29fc4	0.11846879
145	0xbdd91865	-0.10600356
146	0xbd0ff9b7	-0.035150256
147	0x3dfe80aa	0.124268845
148	0x3e5fff44	0.2187472
149	0xbe6dcc89	-0.23222555
150	0x3e6b46ac	0.22976178
151	0xbdfca7bb	-0.123366795
152	0xbdcd3656	-0.100201294
153	0xbbab9802	-0.0052366266
154	0x3e215f45	0.15758999
155	0xbe832c83	-0.25619897
156	0x3ded1cd2	0.11577763
157	0xbdeeb698	-0.11655921
158	0x3b0566f0	0.0020355545
159	0xbc4fd0ce	-0.01268406
160	0xbdaa9880	-0.08329868
161	0xbdf6f447	-0.12058311
162	0x3d937418	0.071998775
163	0xbe5fcfb3	-0.21856575
164	0xbeaee97e	-0.34162515
165	0xbe6ef5da	-0.23335972
166	0xbdd4f7a9	-0.103988
167	0x3e290b9c	0.16508335
168	0xbd9f6c70	-0.07784355
169	0xbd9a331d	-0.0752928
170	0x3eac9d3a	0.33713704
171	0xbe753963	-0.23947673
172	0x3eafea24	0.34358323
173	0xbe8f6080	-0.2800331
174	0xbe9d1912	-0.3068319
175	0x3e55519d	0.20831914
176	0x3e63dd8d	0.22252484
177	0x3e50c76c	0.20388573
178	0xbe8aaa3e	-0.2708301
179	0x3e79ab36	0.24381718
180	0x3d040334	0.032229617
181	0xbde1603c	-0.110046834
182	0x3dbafd01	0.09130288
183	0xbdfb4708	-0.122694075
184	0xbd346239	-0.044038985
185	0xbe3508ba	-0.1767911
186	0x3eb64ebd	0.35606948
187	0xbe2588ac	-0.16165417
188	0x3e461b03	0.19346242
189	0xbe1b3b28	-0.15159285
190	0x3ee80e74	0.45323527
191	0xbe39f55e	-0.18160006
192	0x3d2d1146	0.0422528
193	0x3d8a9265	0.06766204
194	0x3e1ddc72	0.15416124
195	0x3e4079e2	0.18796495
196	0xbe01f0d6	-0.12689528
197	0xbe84ec01	-0.25961307
198	0xbf0f617a	-0.5600811
199	0xbcd53e2b	-0.02603062
200	0xbed9160f	-0.42399642
201	0xbd86025b	-0.06543418
202	0x3d33b914	0.043877676
203	0x3e0c50dc	0.1370272
204	0x3e377700	0.17916489
205	0x3dd89880	0.10575962
206	0xbd113206	-0.035448097
207	0xbed61936	-0.4181611
208	0xbdf05fe2	-0.11737038
209	0x3dc77eba	0.09740968
210	0xbed46c53	-0.41488895
211	0xbe3210c2	-0.17389205
212	0x3e7707a5	0.2412401
213	0xbea18474	-0.31546366
214	0x3d39f18f	0.045396384
215	0x3e8ce60d	0.27519265
216	0xbe2ac5bf	-0.16676997
217	0x3c272c66	0.0102034565
218	0x3e447de3	0.19188647
219	0xbe38ab96	-0.18034205
220	0x3da706d3	0.081555985
221	0xbdd86599	-0.10566253
222	0x3cd90db2	0.026495788
223	0xbe0d24e8	-0.1378361
224	0xbd22c061	-0.039734248
225	0xbd9e7ae4	-0.07738283
226	0x3df1e995	0.1181213
227	0xbdaa2486	-0.083077475
228	0xbe0e29c8	-0.13883126
229	0x3dcd9cc5	0.10039667
230	0x3d4284bb	0.047489863
231	0xbd7420e1	-0.05960167
232	0x3bb3d796	0.0054883463
233	0x3da525d0	0.08063853
234	0x3d5b1011	0.05348212
235	0xbe4b6c71	-0.19865586
236	0xbd0bbc8d	-0.034115363
237	0x3d961cd9	0.07329721
238	0x3eca611c	0.39527214
239	0x3ed772c2	0.4207974
240	0x3dc6e0ab	0.09710821
241	0x3e99f954	0.30073035
242	0xbe3f6873	-0.18692188
243	0xbee29035	-0.44250646
244	0xbd69e592	-0.0571037
245	0xbef5aaf9	-0.47982004
246	0x3e41175e	0.1885657
247	0xbea15ca5	-0.31515995
248	0x3e9d75f0	0.30754042
249	0xbe811f9d	-0.25219432
250	0xbe5eccaa	-0.2175776
251	0xbb80df58	-0.0039328746
252	0x3e420a3e	0.1894922
253	0xbe0ce1c5	-0.13757999
254	0x3f07db2a	0.5306879
255	0x3c2724f8	0.010201685

bias f4 [18]
0	0x3d50fd1e	0.05102264
1	0x3d564679	0.0523133
2	0x3da4bba7	0.08043604
3	0x3d9cb2d8	0.07651299
4	0x3daee37b	0.08539482
5	0xbdd5dacf	-0.10442125
6	0x3d7b19ec	0.061304018
7	0xbd073940	-0.033013582
8	0xbb623c3f	-0.0034520773
9	0x3e6eab38	0.23307502
10	0xbe0ad703	-0.13558583
11	0x3c07a265	0.008278464
12	0x3e682e42	0.22673896
13	0xbe63833a	-0.22218028
14	0xbb5619cb	-0.0032669182
15	0xbd09e25e	-0.033663146
16	0xbd21c52b	-0.039494675
17	0x3dcca4cb	0.09992369

weight f4 [18]
0	0x3f740beb	0.95330685
1	0x3f3b84f4	0.73249745
2	0x3f285bc4	0.65765023
3	0x3f523734	0.82115483
4	0x3f5d195c	0.8636682
5	0x3f5efe79	0.87107044
6	0x3f7605f3	0.9610283
7	0x3f2f3441	0.6843911
8	0x3f3f33c6	0.74688375
9	0x3f6e6e05	0.93136626
10	0x3f46e6a0	0.77695656
11	0x3f534bf5	0.82537776
12	0x3f6a867b	0.9161145
13	0x3f566984	0.83754754
14	0x3f21c4a2	0.6319066
15	0x3f52b252	0.82303345
16	0x3f2a779b	0.66588753
17	0x3f54f347	0.8318371

bias f4 [18]
0	0xbd2b6a6a	-0.04184953
1	0xbcdd175f	-0.026988683
2	0xbdf704d4	-0.12061468
3	0xbd98cb42	-0.07460643
4	0x3e18bdf7	0.14916216
5	0xbda26dd8	-0.07931107
6	0x3d6f84bf	0.058476206
7	0xbdb38398	-0.08765334
8	0x3daf203d	0.08551071
9	0x3ddd5d31	0.108087905
10	0x3d13277d	0.03592633
11	0x3ce7434f	0.028230337
12	0xbe060a69	-0.13089909
13	0x3e368aea	0.17826429
14	0xbd8b153d	-0.0679116
15	0x3e4c612c	0.19958943
16	0x3d1f482c	0.038887188
17	0xbe023e37	-0.12719046
