Case_Study_1/trained_transformer/verification_16/vit_6_1_6_12.pt (torch, 14672 bytes, 19 tensors)

pos_embedding f4 [1, 5, 6]
-2.1421494 -0.34791628 -1.3881279 -0.77771693 -0.091526404 1.2969569 0.25036928 -0.20691161
-0.49355337 0.30826458 -0.8020384 0.7023337 -0.94665974 -0.32037053 0.41748175 0.5788484
0.7897515 -0.84934694 1.4409614 1.0888783 2.1225922 1.0954419 0.8473777 1.0913242
-0.30358213 -0.6111976 -0.42002472 0.24848878 -0.09574782 0.33984074
00000000: fa18 09c0 1522 b2be 2dae b1bf 7518 47bf
00000010: 3272 bbbd af02 a63f 6730 803e a3e0 53be
00000020: 07b3 fcbe dbd4 9d3e 6352 4dbf 24cc 333f
00000030: 4b58 72bf 9b07 a4be 2bc0 d53e 692f 143f
00000040: 282d 4a3f cd6e 59bf 6c71 b83f 5d60 8b3f
00000050: 8dd8 0740 7137 8c3f bfed 583f 83b0 8b3f
00000060: 1e6f 9bbe 7277 1cbf 7b0d d7be d873 7e3e
00000070: 6f17 c4bd 9bff ad3e

cls_token f4 [1, 1, 6]
-0.21224974 0.8601293 0.4644492 -0.111415826 -0.60906696 -0.058564138
00000000: ff57 59be 6f31 5c3f 49cc ed3e fb2d e4bd
00000010: d0eb 1bbf f3e0 6fbd

weight f4 [6, 4]
0.3693977 1.5739708 0.47782 0.6674087 -0.02487894 -0.61982274 -1.7841984 0.61455715
0.27175048 -1.4281183 0.4716739 -0.16417906 -0.49699563 0.4297884 -1.0251353 -1.3548434
1.1932478 -0.16562119 -0.7850309 0.90284485 -0.64298177 -1.0808473 0.35996464 0.85042626
00000000: b221 bd3e e077 c93f d3a4 f43e 4cdb 2a3f
00000010: ebce cbbc b4ac 1ebf 9d60 e4bf 9e53 1d3f
00000020: e122 8b3e 95cc b6bf 3e7f f13e 8e1e 28be
00000030: 3676 febe 3a0d dc3e a237 83bf 826b adbf
00000040: 58bc 983f 9a98 29be c9f7 48bf d720 673f
00000050: 749a 24bf 3459 8abf 494d b83e 89b5 593f

bias f4 [6]
-0.29639953 -0.06424198 -0.2290996 -0.3540754 0.09776009 -0.6646902
00000000: aec1 97be 4d91 83bd 1699 6abe 5f49 b5be
00000010: 7136 c83d 2329 2abf

weight f4 [6]
1.4495144 1.1576877 1.5291677 1.6837306 1.1314713 1.4646643
00000000: b089 b93f 1c2f 943f c4bb c33f 7c84 d73f
00000010: 0dd4 903f 1f7a bb3f

bias f4 [6]
-0.10100232 0.060674936 -0.019827757 0.17115536 -0.121809125 0.0871778
00000000: 4eda cebd 4886 783d d26d a2bc 5a43 2f3e
00000010: 1077 f9bd 468a b23d

weight f4 [18, 6]
-0.37323827 0.3009504 -0.10274604 -0.26002717 0.06288112 0.44772685 0.09431023 -0.58617455
0.7716521 0.2550669 0.19237456 -0.7903562 -0.6210739 0.46934256 -0.40738994 -0.66620225
-0.33888072 0.10154429 -0.44126886 -0.14174116 -0.42392895 -0.33346185 0.2987819 0.17016554
-0.49037817 0.21163324 -0.86309886 -0.71522695 -0.52466416 0.25046322 -0.21123047 -0.22000644
-0.018521821 -0.17863728 -0.04008897 -0.24839103 -0.42476636 -0.28978586 -0.46145147 0.061366253
0.65973794 -0.25418162 -0.63427037 0.07971236 -0.41177598 0.73834467 0.009330778 0.26406226
0.020493777 -1.1231065 0.2652241 0.5857716 -0.12858288 -0.31068286 0.53634155 -0.367559
-0.07854117 -0.1622247 0.19966365 0.49976027 0.9168553 -0.62716573 0.15875992 -0.28429043
0.037623435 -0.32239693 0.38621894 -0.29894736 0.11775927 0.34118432 -0.21131831 -0.03524171
0.85168487 0.35336077 -0.3756487 -0.32814094 0.06653228 -0.91496754 -0.6491083 0.29480505
0.38693464 -0.32790166 0.29858682 0.2485699 0.34079704 -0.088089764 -0.9122286 0.5296497
-0.23239602 -0.2991154 0.18106937 -0.458564 -0.36407462 0.8884183 0.8100349 -0.40037614
0.286112 -0.5010589 -0.041705023 -0.4295272 -0.09300139 0.4679138 -0.51964533 -0.07634905
0.35846412 1.0474615 -0.089538544 -0.520916
00000000: 1619 bfbe 2c16 9a3e 846c d2bd 4822 85be
00000010: d1c7 803d 743c e53e b925 c13d 890f 16bf
00000020: fe8a 453f 2198 823e d6fd 443e c954 4abf
00000030: b3fe 1ebf ab4d f03e 6a95 d0be 3b8c 2abf
00000040: c681 adbe 74f6 cf3d feed e1be 9824 11be
00000050: 370d d9be 83bb aabe f1f9 983e e03f 2e3e
00000060: d912 fbbe 62b6 583e 0cf4 5cbf 1d19 37bf
00000070: 6450 06bf b73c 803e cd4c 58be 5e49 61be
00000080: 13bb 97bc b1ec 36be 5534 24bd 385a 7ebe
00000090: fa7a d9be d05e 94be 5e43 ecbe 2e5b 7b3d
000000a0: 96e4 283f 1824 82be 8b5f 22bf 3c40 a33d
000000b0: 4dd4 d2be 2804 3d3f 1fe0 183c 2b33 873e
000000c0: 91e2 a73c f4c1 8fbf 74cb 873e 21f5 153f
000000d0: 3bab 03be d311 9fbe ae4d 093f b130 bcbe
000000e0: 31da a0bd 3b1e 26be a174 4c3e 94e0 ff3e
000000f0: 07b7 6a3f ef8d 20bf f691 223e 848e 91be
00000100: 081b 1a3d 3611 a5be 7dbe c53e a10f 99be
00000110: c62b f13d b6af ae3e d463 58be 9c59 10bd
00000120: 0508 5a3f b4eb b43e 0755 c0be 1702 a8be
00000130: 1342 883d 503b 6abf f62b 26bf b0f0 963e
00000140: 4c1c c63e bae2 a7be 5fe0 983e 1c89 7e3e
00000150: f37c ae3e 6868 b4bd d087 69bf 1f97 073f
00000160: 39f9 6dbe a725 99be 406a 393e e7c8 eabe
00000170: fd67 babe 626f 633f 725e 4f3f 1afe ccbe
00000180: 467d 923e 6545 00bf e3d2 2abd fdea dbbe
00000190: 8377 bebd 6692 ef3e 7a07 05bf e45c 9cbd
000001a0: 9c88 b73e 3813 863f fc5f b7bd c05a 05bf

weight f4 [6, 6]
-0.1251309 -1.2474976 0.35759693 0.48844963 -0.8880925 0.26477477 0.9181378 0.38798288
0.96649265 -0.9457355 -0.2025021 0.16058163 0.15113445 0.19117264 -0.058237642 0.803308
0.3120029 -0.09919435 -0.94553393 0.6478937 0.3639113 -0.18106207 -0.09403366 -1.4314857
-0.33542243 0.46679512 -0.48434794 -0.63425803 -0.54557043 0.5817041 0.45347136 0.30164072
-0.7842257 -0.1638314 -0.8555757 0.24883369
00000000: 5122 00be 00ae 9fbf f216 b73e 1216 fa3e
00000010: 085a 63bf 8f90 873e 140b 6b3f b1a5 c63e
00000020: 106c 773f b91b 72bf b65c 4fbe 836f 243e
00000030: fdc2 1a3e c3c2 433e 988a 6ebd 98a5 4d3f
00000040: d8be 9f3e 6826 cbbd 830e 72bf 5ddc 253f
00000050: 9552 ba3e 5668 39be b894 c0bd ec3a b7bf
00000060: 7dbc abbe c5ff ee3e 74fc f7be bc5e 22bf
00000070: 81aa 0bbf 8fea 143f 662d e83e a770 9a3e
00000080: 04c3 48bf 6bc3 27be 0207 5bbf 42ce 7e3e

bias f4 [6]
0.47012907 0.10704369 0.21607113 0.14730114 0.12949592 -0.6506585
00000000: c2b4 f03e b939 db3d c041 5d3e 1cd6 163e
00000010: 949a 043e 8e91 26bf

weight f4 [6]
1.1257488 1.1896465 1.4453875 1.0360299 1.578594 0.99700105
00000000: 8918 903f 5646 983f 7502 b93f a19c 843f
00000010: 5e0f ca3f 763b 7f3f

bias f4 [6]
0.14276935 0.17039248 -0.061415654 0.36633596 0.15455315 -0.30302516
00000000: 2132 123e 5e7b 2e3e fb8e 7bbd 6390 bb3e
00000010: 2e43 1e3e 1d26 9bbe

weight f4 [12, 6]
-0.5947026 -0.6727425 0.020619504 -0.1767825 0.1939573 -0.0004051677 0.12611337 -0.18470989
-0.61293447 0.23214573 -0.37361628 0.30555296 -0.13096964 -0.29947758 -0.0720309 -0.19789732
-0.12490013 -0.3886506 0.04501391 0.0019334501 1.1129721 -0.10679997 0.2429963 -0.160283
0.58941925 -0.37579674 0.6663959 0.36131337 0.12168138 -0.42501032 -0.11341521 -0.43308815
1.0035846 -0.6714794 0.33305544 0.33158293 0.42003015 0.12717302 -0.41766983 -0.07731959
0.40625754 -0.8019064 -0.009170862 0.3731384 -0.24059644 -0.8058937 0.8744745 -0.4387313
-0.29995966 0.4884711 0.18237957 -0.38236928 -0.44166425 0.12966123 -0.64164823 -0.33535337
0.41908643 -0.37368757 -0.6047327 0.2690401 -0.086304426 -0.08433456 -0.016127676 -0.146528
-0.09935424 -0.23942961 -0.42243654 0.44219834 0.2856979 -0.14972273 -0.24081215 0.09666419
00000000: 6e3e 18bf da38 2cbf 3cea a83c 7906 35be
00000010: be9c 463e b06c d4b9 dd23 013e 9724 3dbe
00000020: 46e9 1cbf 9cb7 6d3e a24a bfbe 7071 9c3e
00000030: e81c 06be 2055 99be f084 93bd 98a5 4abe
00000040: a4cb ffbd 36fd c6be 8160 383d d26b fd3a
00000050: df75 8e3f f1b9 dabd 06d4 783e 3a21 24be
00000060: 2ee4 163f 6e68 c0be ec98 2a3f 11fe b83e
00000070: 1634 f93d f49a d9be 3c46 e8bd bbbd ddbe
00000080: 7675 803f 13e6 2bbf 3e86 aa3e 3dc5 a93e
00000090: 310e d73e a539 023e d2d8 d5be bc59 9ebd
000000a0: fd00 d03e bd49 4dbf 6241 16bc ff0b bf3e
000000b0: ea5e 76be 0d4f 4ebf 90dd 5f3f 64a1 e0be
000000c0: 5094 99be e218 fa3e b6c1 3a3e e8c5 c3be
000000d0: d121 e2be eac5 043e 0f43 24bf 70b3 abbe
000000e0: 7f92 d63e fa53 bfbe c3cf 1abf a0bf 893e
000000f0: 60c0 b0bd 99b7 acbd 301e 84bc 700b 16be
00000100: 3c7a cbbd 092d 75be 9a49 d8be d267 e23e
00000110: ff46 923e ea50 19be 7697 76be e0f7 c53d

bias f4 [12]
0.29178548 0.1592164 -0.35378784 0.5960524 0.19843204 -0.19089483 0.34022728 0.21543708
0.17030248 -0.035419546 -0.32840818 -0.34372798
00000000: e864 953e a009 233e ae23 b5be e496 183f
00000010: c531 4b3e ef79 43be 4532 ae3e 8a9b 5c3e
00000020: c663 2e3e 1614 11bd 1e25 a8be 1dfd afbe

weight f4 [6, 12]
0.58554316 0.30037576 -0.18267044 -0.6631186 -0.035699062 -0.34747913 -0.64116347 0.111211196
0.54966074 0.26131213 -0.08077878 -0.1594795 -0.19396985 -0.5055297 -0.03554383 0.4402792
0.032280236 -0.22717406 -0.06534808 0.77608734 -0.37980488 -0.629948 -0.14366594 -0.20210947
0.43065068 -0.02636169 -0.19385344 -0.48865104 0.81124026 0.34105536 -0.0075359573 -0.1323346
-0.26007858 0.20153274 0.21666789 -0.374615 -0.12468109 0.516462 -0.10797253 -0.08733731
-0.4881685 0.19953164 0.20210853 0.20161495 0.030153349 -0.031511605 -0.30618876 0.21453264
0.37352765 0.2121804 -0.16807655 0.0843317 -0.13075657 0.25152272 -0.1354323 -0.80327225
0.09063706 -0.5413661 0.06045942 -0.33481658 -0.3179908 -0.100093454 0.004053682 0.7900276
-0.6156556 -0.76312435 0.8935839 0.29814333 -0.071242236 -0.1972817 0.20253852 0.4497738
00000000: 28e6 153f daca 993e f60d 3bbe 24c2 29bf
00000010: 2e39 12bd c9e8 b1be 4a23 24bf b2c2 e33d
00000020: 91b6 0c3f b4ca 853e 586f a5bd 984e 23be
00000030: 08a0 46be 656a 01bf 6896 11bd 466c e13e
00000040: 4838 043d 51a0 68be 37d5 85bd a9ad 463f
00000050: c975 c2be 4644 21bf 2a1d 13be c9f5 4ebe
00000060: 3f7e dc3e 79f4 d7bc 8481 46be 7830 fabe
00000070: 71ad 4f3f cf9e ae3e 31f0 f6bb b982 07be
00000080: 0529 85be 995e 4e3e 30de 5d3e 8acd bfbe
00000090: cd58 ffbd db36 043f b420 ddbd e7dd b2bd
000000a0: 39f1 f9be 0652 4c3e 8af5 4e3e 2674 4e3e
000000b0: 2804 f73c 5012 01bd c6c4 9cbe 72ae 5b3e
000000c0: 043f bf3e d245 593e 421c 2cbe 19b6 ac3d
000000d0: 0de5 05be 96c7 803e c4ae 0abe 40a3 4dbf
000000e0: ec9f b93d f896 0abf 4ca4 773d 146d abbe
000000f0: b1cf a2be ccfd ccbd c0d4 843b 403f 4a3f
00000100: 9b9b 1dbf 1e5c 43bf eac1 643f 3ea6 983e
00000110: 73e7 91bd 3704 4abe 4266 4f3e c048 e63e

bias f4 [6]
0.29317892 -0.20829937 -0.2747427 0.04516221 0.112174615 -0.32519358
00000000: 8c1b 963e 6e4c 55be 13ab 8cbe 02fc 383d
00000010: cebb e53d c67f a6be

weight f4 [6]
2.3112803 1.8354031 2.4561303 2.6314812 3.055594 2.3048604
00000000: 04ec 1340 7dee ea3f 3d31 1d40 306a 2840
00000010: da8e 4340 d582 1340

bias f4 [6]
-0.7283347 1.1431041 1.055799 0.25867298 0.49050447 0.3991371
00000000: 2574 3abf 3c51 923f 6c24 873f c970 843e
00000010: 6723 fb3e b35b cc3e

weight f4 [10, 6]
0.38510036 0.60917336 0.28603998 0.76181144 -1.2797842 -0.5391577 0.48201996 -0.6011249
0.3309488 -0.43594953 0.9107093 -1.004104 -0.22747794 1.059527 1.327666 -0.791325
-0.6686581 0.33688036 -0.9832276 -0.45579007 0.66216683 -0.1323974 -0.6090896 0.54970425
0.22488639 0.5268711 -1.2364382 -0.8032188 0.8412154 0.36530226 -0.26656574 -0.23237236
-0.27272603 1.0122181 -0.49387607 0.26338425 1.713305 0.22407039 -0.27112147 -1.0892581
-0.717984 -1.0542669 -0.64400184 0.86099076 0.43893036 0.02111126 0.90853137 0.7703916
0.29509825 -0.73139393 0.22365193 0.87464887 -0.58530146 -0.31320047 -0.57171595 -0.8600985
-0.9794648 -0.49537522 0.6360654 0.74377304
00000000: e02b c53e c9f2 1b3f d573 923e 1306 433f
00000010: f8cf a3bf 3d06 0abf 52cb f63e 52e3 19bf
00000020: 1f72 a93e c734 dfbe 3f24 693f 7b86 80bf
00000030: faef 68be 959e 873f f6f0 a93f 4694 4abf
00000040: 2d2d 2bbf 957b ac3e ceb4 7bbf 515d e9be
00000050: c483 293f 2f93 07be 4ced 1bbf 6bb9 0c3f
00000060: 9e48 663e 06e1 063f 9b43 9ebf bf9f 4dbf
00000070: e459 573f e608 bb3e 4e7b 88be 05f3 6dbe
00000080: bfa2 8bbe 5d90 813f 53dd fcbe 4dda 863e
00000090: 944d db3f b572 653e 6fd0 8abe cf6c 8bbf
000000a0: cdcd 37bf 38f2 86bf 4edd 24bf e469 5c3f
000000b0: 7bbb e03e 85f1 ac3c 8395 683f 6238 453f
000000c0: 1e17 973e a23c 3bbf 0305 653e fde8 5f3f
000000d0: 51d6 15bf d05b a0be fa5b 12bf 6a2f 5cbf
000000e0: 35be 7abf d2a1 fdbe 2fd5 223f e967 3e3f

bias f4 [10]
0.06773613 0.12656935 0.60567266 -0.23626523 -0.022718908 -0.094773024 -0.86421764 1.0241181
-0.079199135 -0.26012287
00000000: 3db9 8a3d 659b 013e 5d0d 1b3f 83ef 71be
00000010: 011d babc 5c18 c2bd 5e3d 5dbf 4d16 833f
00000020: 2833 a2bd d32e 85be
