Examples/verification/training/models/verification_8x8/vit_12_2_6_12.pt (torch, 28872 bytes, 30 tensors)

pos_embedding f4 [1, 17, 12]
0	0xbdc3e2d9	-0.09564752
1	0x3f48e8d1	0.7848025
2	0x3eca3e30	0.3950057
3	0xbf7a606f	-0.97803396
4	0x3f1edc59	0.62054974
5	0x3ef96fe0	0.48718166
6	0xbf82f673	-1.023146
7	0xbd92c88b	-0.07167157
8	0x3f3f92d9	0.74833447
9	0xbf716e8f	-0.94309324
10	0xbd93a37b	-0.07208916
11	0x3e6f5191	0.23370959
12	0x3f471ec9	0.7778135
13	0x3eb05d7f	0.34446332
14	0x3f3f335b	0.7468774
15	0x3f37d06c	0.718024
16	0x3fc6fc63	1.5545772
17	0xbf607d42	-0.8769113
18	0xbf65f010	-0.8981943
19	0x3f914ad0	1.1350956
20	0xbeb17e24	-0.3466655
21	0xbf231a61	-0.63712126
22	0x3fcea856	1.6145122
23	0x3f2d0c29	0.6759668
24	0x3fce126a	1.609937
25	0x3ebfdd34	0.37473452
26	0xbfaf3020	-1.3686562
27	0xbed909af	-0.423902
28	0x3f2d17c0	0.67614365
29	0x3fe039d7	1.7517651
30	0x3cf92b1a	0.03041606
31	0xbf7c52ac	-0.9856365
32	0xbfdc39f3	-1.7205185
33	0xbee5a776	-0.44854325
34	0x3e8f53d6	0.2799365
35	0x3fd59584	1.6686254
36	0x3f20242e	0.62555206
37	0x3fa2657f	1.2687224
38	0xbfc73424	-1.5562787
39	0xbd29e5a5	-0.04147877
40	0xbff58b06	-1.9183052
41	0xbfc98923	-1.5744976
42	0x3ee5ca76	0.44881028
43	0xbf04632a	-0.5171381
44	0xbef27137	-0.47352
45	0xbf1dc336	-0.61625993
46	0xbe5c99ea	-0.21543089
47	0x3e80dc26	0.2516796
48	0x3e8e491a	0.27790147
49	0xbf7e927c	-0.9944227
50	0x3d2a40c9	0.04156569
51	0xbfa38209	-1.2774059
52	0xc0007881	-2.007355
53	0x3ef6d9cc	0.4821304
54	0x3ea75a60	0.32686138
55	0xbe9a017b	-0.30079255
56	0xbf036344	-0.5132334
57	0x3fa919db	1.3211015
58	0x3f5e4e1f	0.86837953
59	0x3fd8f688	1.6950235
60	0xbf4545a4	-0.7705939
61	0x3f70aa0b	0.94009465
62	0xbef0e0bd	-0.47046462
63	0xbf9bfd1a	-1.2186615
64	0x3f013747	0.5047497
65	0xbf85c2a6	-1.0450027
66	0x3e9e5926	0.3092739
67	0xbe42e566	-0.19032821
68	0xbfa7989d	-1.3093449
69	0xbf91c16a	-1.138715
70	0x3eda87ee	0.4268183
71	0xbfa2d0d4	-1.2719979
72	0xbed245ca	-0.4106887
73	0xbe86b3bc	-0.26309
74	0x3eaf201b	0.34204182
75	0xbfadff69	-1.359357
76	0x3fd45027	1.658696
77	0x3df4a7a3	0.11946037
78	0x3f819c3e	1.0125806
79	0xbe798669	-0.2436768
80	0x3e928b85	0.2862207
81	0xbe8d54e4	-0.2760383
82	0xbfa124c3	-1.2589344
83	0xbf95f5e7	-1.1715668
84	0xbe03e85d	-0.12881608
85	0x3bf11354	0.0073570404
86	0xbf2c6e81	-0.67356116
87	0xbeec588d	-0.4616131
88	0xbf660e41	-0.898655
89	0x3e7ca3f0	0.24671912
90	0xbfb3eeb6	-1.4057224
91	0x4000416a	2.0039926
92	0x3dc8a3c6	0.09796862
93	0x3fabff10	1.3437214
94	0xbee45291	-0.44594243
95	0xbf42cb94	-0.76091886
96	0xbf95732f	-1.1675776
97	0xbefa0955	-0.48835245
98	0x3f9bd886	1.2175453
99	0xbe40fead	-0.18847151
100	0x3f85b9e0	1.044735
101	0xbeaf1cd4	-0.34201682
102	0x3fbe5e5f	1.487255
103	0x3e6b103a	0.22955409
104	0x3fd03180	1.6265106
105	0x3fbe102e	1.4848688
106	0xbf93ba21	-1.1541177
107	0xbfa5ebca	-1.2962582
108	0x3ec26ff0	0.37976027
109	0xbf8e8f37	-1.1137456
110	0x3e894b11	0.26815084
111	0x403ccca3	2.94999
112	0xbfb663a7	-1.4249161
113	0x3fb24f5a	1.3930466
114	0xbf5eb2fc	-0.8699186
115	0xbfb4aee7	-1.4115876
116	0x3d98b195	0.07455746
117	0x3e04c21c	0.12964672
118	0x3e7cc552	0.24684647
119	0x3f01c574	0.50691915
120	0xbf00f4cb	-0.50373524
121	0xbf1aaaea	-0.60417044
122	0x3ebfe1c9	0.37476948
123	0xbf94bd45	-1.162026
124	0xc0649786	-3.5717483
125	0x400c1e1d	2.189338
126	0x3e5f22aa	0.21790567
127	0xbd20a477	-0.039219346
128	0x3fa1f470	1.2652721
129	0xbeff45a5	-0.49857822
130	0xbebb843b	-0.3662432
131	0x3f13ecc2	0.5778314
132	0x3e8a912a	0.27063876
133	0x3f59f8e1	0.85145384
134	0x3fafef93	1.3744987
135	0xbd7b6d7b	-0.061383706
136	0xbd49a08f	-0.049225386
137	0x3fe77768	1.8083315
138	0x3c98cb0a	0.018651504
139	0x3f2c882c	0.6739528
140	0x3ff2b285	1.896073
141	0x3f0bd414	0.5462048
142	0x3ede9144	0.43470204
143	0xbda17a96	-0.078847095
144	0x3e0bc848	0.1365062
145	0x3fc868b6	1.5656955
146	0xbf3df399	-0.74199826
147	0xbfa9e486	-1.3272865
148	0xbf7a4ad0	-0.97770405
149	0x3e742efc	0.23846048
150	0xc0232798	-2.5492916
151	0xbf114cbb	-0.56757706
152	0x3f07eb80	0.5309372
153	0xbf436541	-0.76326376
154	0x3fae960e	1.3639543
155	0x3fba9c24	1.45789
156	0xbd409412	-0.04701621
157	0x3f9d86d8	1.2306776
158	0xbef0a9ca	-0.4700454
159	0x3ec8a38a	0.3918727
160	0x3fca98da	1.5827897
161	0xbe91b7db	-0.28460583
162	0x3e960e44	0.2930776
163	0x3f2f7b15	0.68547183
164	0xbf73ae4b	-0.95187825
165	0xbf9cd264	-1.2251706
166	0x3e429a19	0.19004096
167	0xbefdb6d3	-0.49553546
168	0x3e2ea585	0.17055328
169	0xbf787417	-0.9705214
170	0xbf25b662	-0.6473142
171	0x3e1f9ad6	0.15586409
172	0xbf649c8d	-0.8930138
173	0xbfa692b6	-1.3013523
174	0x3da17868	0.07884294
175	0xbf00965c	-0.5022943
176	0x3fa8ee33	1.3197693
177	0x402b2057	2.6738489
178	0xbf300318	-0.6875472
179	0xbe96d49a	-0.29459077
180	0xbf488305	-0.7832492
181	0x3f38c70b	0.72178715
182	0xbf785242	-0.97000515
183	0xbf64fc2b	-0.8944728
184	0xbfae8ad3	-1.3636116
185	0x3f2f4350	0.68462086
186	0xbe33098b	-0.17484109
187	0x3f745c8f	0.95453733
188	0x3f38b53c	0.7215154
189	0xbec1e234	-0.37867892
190	0x3cdbc978	0.026829466
191	0x401ca9f4	2.447873
192	0x3eb1b970	0.3471179
193	0x3f359841	0.70935446
194	0x3ff82545	1.9386374
195	0x3f475b45	0.7787364
196	0xbe738fb0	-0.23785281
197	0x3fb45079	1.4087058
198	0x3ecd3f09	0.40087155
199	0xbfa69975	-1.3015581
200	0x3f4c7de2	0.7987958
201	0xbf52dac9	-0.8236509
202	0xbe93b4de	-0.28848928
203	0xbf37ac39	-0.71747166

cls_token f4 [1, 1, 12]
0	0xbf624d84	-0.8839953
1	0x3dd0750f	0.10178577
2	0x3e8c2acc	0.273764
3	0x3f334e2e	0.7004117
4	0x3f8a6ff6	1.0815418
5	0xbfc2a085	-1.5205237
6	0xbf8a8f1b	-1.0824922
7	0x3f39c0cc	0.7255981
8	0xbe41423e	-0.18872926
9	0xbfdc6236	-1.7217472
10	0xbca6d607	-0.020365728
11	0xbea90216	-0.33009404

weight f4 [12, 4]
0	0x3ebe3c4b	0.37155375
1	0x3f70b2b8	0.94022703
2	0x3f87676d	1.0578438
3	0xbee8a9cc	-0.45442045
4	0xbf483def	-0.78219503
5	0x3ebf8096	0.3740279
6	0xbcf1620c	-0.029465698
7	0xbf92ecb2	-1.1478484
8	0xbce48d1a	-0.027899314
9	0x3f8956ef	1.0729655
10	0x3f1483c6	0.5801357
11	0x3f5ac182	0.8545152
12	0xbeb3aa78	-0.35090995
13	0xbf9b63f3	-1.2139877
14	0xbee5bd80	-0.4487114
15	0xbee47e1d	-0.44627467
16	0xbf6d2ec6	-0.92649496
17	0x3e49403d	0.19653411
18	0xbd12594d	-0.035729695
19	0x3f1d8abe	0.6153983
20	0x3f485a74	0.7826302
21	0x3e3bafa8	0.18328726
22	0xbf69bfa7	-0.91308063
23	0xbf4d8bd2	-0.80291474
24	0x3f646112	0.8921062
25	0xbfbe232c	-1.4854484
26	0x3f7f113e	0.99635684
27	0xbf4d86c2	-0.8028375
28	0x3f6a9e89	0.91648155
29	0x3eb2d920	0.34931278
30	0x3fa992ce	1.3247926
31	0xbfa22a98	-1.2669249
32	0xbf3b1688	-0.73081255
33	0xbf25cf31	-0.64769274
34	0xbf973624	-1.1813397
35	0xba21947c	-0.00061637885
36	0xbf6bd669	-0.9212404
37	0xbf4d83d6	-0.8027929
38	0x3e0e5ab6	0.13901791
39	0x3eced647	0.40397856
40	0x3f9b691e	1.2141454
41	0x3ea49793	0.32146892
42	0xbf5b5b74	-0.8568642
43	0x3e8019fa	0.2501982
44	0xbe7f4380	-0.24928093
45	0xbe244c6d	-0.16044779
46	0x3fb51b68	1.4148989
47	0x3f6b5723	0.91929835

bias f4 [12]
0	0xbec12a7b	-0.37727723
1	0xbe2a242c	-0.16615361
2	0xbd8f94fc	-0.070108384
3	0xbe7ce592	-0.24696949
4	0x3e7ebc1d	0.24876447
5	0x3e5c7e07	0.2153245
6	0x3e6d93db	0.23200934
7	0xbe54dba9	-0.20786919
8	0xbd7d2768	-0.06180516
9	0xbe0eea25	-0.13956507
10	0xbdbcbda0	-0.092158556
11	0x3ea14f59	0.3150585

weight f4 [12]
0	0x3f9737a3	1.1813854
1	0x3f9f162c	1.2428641
2	0x3fab464c	1.3380828
3	0x3f874fcf	1.0571231
4	0x3f80a582	1.0050509
5	0x3f8b2997	1.0872067
6	0x3fb08af1	1.3792402
7	0x3f967dc0	1.1757126
8	0x3fa3a9f8	1.2786245
9	0x3f93c7de	1.154537
10	0x3f97d288	1.1861124
11	0x3f82d517	1.022128

bias f4 [12]
0	0x3da68e61	0.08132625
1	0x3cbf31bc	0.023339145
2	0xbc25a31c	-0.010109689
3	0x3dc6cd7f	0.09707164
4	0xbd3052a8	-0.043047577
5	0xbeaa4847	-0.33258268
6	0xbc7b3c85	-0.015334253
7	0x3ca203f7	0.019777281
8	0x3b3f3bb6	0.0029179878
9	0x3c940321	0.018067898
10	0x3d89af23	0.06722858
11	0xbe072a7d	-0.13199802

weight f4 [36, 12]
0	0xbeaac175	-0.3335072
1	0xbf25061a	-0.64462435
2	0xbebe7489	-0.37198284
3	0x3d964b47	0.07338577
4	0xbea0f141	-0.31434062
5	0x3f666d4f	0.9001054
6	0x3ec703ca	0.38870078
7	0x3e84a958	0.2591045
8	0xbea057cc	-0.31316984
9	0x3f17a339	0.59233433
10	0xbee1b64c	-0.44084394
11	0xbdcea7d5	-0.10090605
12	0x3e876287	0.26442358
13	0xbe1e385c	-0.15451187
14	0xbe7f3060	-0.24920797
15	0x3d93f890	0.07225144
16	0xbbe48f93	-0.006975123
17	0x3e4db9ce	0.2009041
18	0x3f33d91a	0.70253146
19	0xbe2e0974	-0.16995794
20	0xbec66a66	-0.3875305
21	0x3f01d9cc	0.50722957
22	0x3ebe7ba7	0.37203714
23	0xbcd7a167	-0.02632208
24	0xbdf02381	-0.11725522
25	0xbe5196e5	-0.20467718
26	0x3eac82e1	0.33693603
27	0xbf166815	-0.58752567
28	0x3eb4989d	0.35272685
29	0x3c7a56cb	0.015279482
30	0xbf20276e	-0.62560165
31	0x3dac844f	0.08423673
32	0x3f3a0c56	0.72675073
33	0xbe0dbea3	-0.13842253
34	0x3e7d9a68	0.24765933
35	0x3e380675	0.17971213
36	0xbea10685	-0.31450287
37	0xbec12bf9	-0.3772886
38	0xbe1875c4	-0.14888674
39	0x3e1a21cb	0.15051953
40	0xbeaa119d	-0.33216563
41	0xbe1527ca	-0.1456596
42	0x3dd95ca1	0.10613371
43	0x3e503e29	0.20336212
44	0x3eabd45d	0.33560458
45	0x3e8cdcfe	0.27512354
46	0xbf29d139	-0.66334873
47	0x3df1b7bc	0.11802623
48	0x3e4607b3	0.19338875
49	0x3e9135f2	0.2836147
50	0x3d9ab8c3	0.07554772
51	0x3da5f837	0.08103984
52	0xbe569182	-0.20953944
53	0xbdc8a154	-0.09796396
54	0xbd326a4c	-0.043558404
55	0xbe140678	-0.14455593
56	0x3ec06d92	0.37583596
57	0xbe5efc64	-0.21775967
58	0x3f37aae9	0.71745163
59	0xbe974cb2	-0.295507
60	0xbdbc9feb	-0.092101894
61	0xbd2f6698	-0.04282245
62	0xbd83cf6b	-0.06436046
63	0x3f0413c3	0.51592654
64	0x3e9a261f	0.3010721
65	0x3c70cf04	0.014697794
66	0xbe79cfa2	-0.24395612
67	0x3cfc6106	0.030807983
68	0xbe2df0fc	-0.1698646
69	0xbf144231	-0.579135
70	0x3ed19190	0.40931368
71	0xbe58b558	-0.21162927
72	0xbe171e11	-0.14757563
73	0xbe8325f1	-0.25614884
74	0x3d803509	0.06260116
75	0x3e9b5eba	0.30345708
76	0x3e2057a7	0.15658437
77	0x3e095406	0.13410959
78	0xbd8cac5d	-0.06868813
79	0xbc9e61fa	-0.019333828
80	0x3ec168d1	0.3777528
81	0xbeb1937f	-0.34682843
82	0x3f29f667	0.66391605
83	0x3d5f0958	0.05445227
84	0xbe8fb925	-0.28070942
85	0x3e18645a	0.14882031
86	0xbec027b6	-0.37530297
87	0xbdabd882	-0.08390905
88	0x3e158fee	0.14605686
89	0x3e574438	0.21022117
90	0xbe3650df	-0.17804287
91	0xbedfffe8	-0.43749928
92	0xbe945898	-0.28973842
93	0x3eb42212	0.35182244
94	0x3dbdfe07	0.092769675
95	0x3ebb041f	0.36526582
96	0xbe54539a	-0.20735016
97	0xbe22c845	-0.1589671
98	0xbe34f8ac	-0.17672986
99	0xbdcce410	-0.10004437
100	0x3cea028d	0.02856567
101	0x3d030ff7	0.031997647
102	0x3e4c38e1	0.19943573
103	0xbe70bc58	-0.23509347
104	0x3d7d6725	0.061865944
105	0x3eda473a	0.42632467
106	0xbe25bc2a	-0.1618506
107	0x3c94afd5	0.01815025
108	0x3f457a47	0.77139705
109	0x3d59af5f	0.053145763
110	0x3dca4a32	0.09877433
111	0xbd2ed36a	-0.04268209
112	0xbd9d90af	-0.07693612
113	0x3d977713	0.073957585
114	0x3cf5c745	0.030002246
115	0x3ecf53c8	0.40493608
116	0xbe2f03a1	-0.17091228
117	0xbe72ac92	-0.23698643
118	0xbe8ab7c3	-0.27093324
119	0x3ae24f78	0.0017266115
120	0x3b035389	0.0020038805
121	0xbe619c07	-0.22032176
122	0xbe6ba9a9	-0.23013939
123	0x3ea045a5	0.31303135
124	0xbc8e3a94	-0.017361917
125	0xbe869a84	-0.2628976
126	0xbe9adf84	-0.30248654
127	0x3f775344	0.9661143
128	0x3e6aedba	0.22942248
129	0xbe91c6b1	-0.28471902
130	0x3ece2df7	0.40269443
131	0x3db43b6b	0.088003956
132	0xbeb97148	-0.3621924
133	0xbdf8dde2	-0.12151696
134	0xbeedfdca	-0.46482688
135	0xbe8b0a56	-0.27156323
136	0xbf456aa9	-0.77115875
137	0x3e984cb3	0.29746017
138	0x3eec1e6e	0.46116966
139	0xbe98449a	-0.2973984
140	0x3e21a9ae	0.15787384
141	0x3e83800c	0.2568363
142	0xbf1eaabe	-0.6197928
143	0x3f0e88e6	0.5567764
144	0x3e62ca67	0.22147523
145	0x3f0be261	0.546423
146	0xbe61812a	-0.22021928
147	0x3f2677ec	0.65026736
148	0xbf5eb6ae	-0.869975
149	0x3d23c262	0.0399803
150	0xbe8bf6a4	-0.2733661
151	0x3e576a18	0.21036565
152	0x3e5e1a52	0.21689728
153	0xbdd0a7a0	-0.10188222
154	0xbdb2a3e5	-0.08722667
155	0x3ca03b65	0.019559572
156	0x3ea39f9f	0.3195772
157	0x3e392d44	0.18083674
158	0xbe8ad209	-0.2711337
159	0x3e5812dd	0.21100946
160	0xbef5aad0	-0.47981882
161	0xbea486de	-0.32134145
162	0x3ebb5769	0.36590126
163	0x3eae2149	0.3400977
164	0x3e37f1eb	0.17963378
165	0x3eb1eb7a	0.34749967
166	0xbe9f9fa6	-0.3117649
167	0x3e270b1e	0.16312835
168	0x3e66348e	0.22480986
169	0x3d4cdf1c	0.05001746
170	0x3ea2d836	0.3180558
171	0xbe987364	-0.29775536
172	0x3f4b03c4	0.7930262
173	0x3f041cd2	0.51606476
174	0xbe359087	-0.17730914
175	0x3dca3180	0.098727226
176	0x3d5b6bf4	0.05356975
177	0x3e1a9054	0.1509412
178	0xbe86cd7a	-0.2632864
179	0xbf08c7ee	-0.5343007
180	0x3dcb31e9	0.09921629
181	0xbe748595	-0.23879083
182	0xbee3a041	-0.44458202
183	0x3eef0b7a	0.46688443
184	0x3cd267ac	0.0256842
185	0xbeab259b	-0.33427128
186	0xbea4b6b4	-0.3217064
187	0x3e95153b	0.2911776
188	0xbe982645	-0.29716697
189	0x3ec09624	0.37614548
190	0x3e5815e0	0.21102095
191	0x3d292b3b	0.041300993
192	0x3e533467	0.20625459
193	0x3e7a1306	0.2442132
194	0x3d06c1e8	0.032899767
195	0x3dab7c66	0.083733365
196	0xbe98a31b	-0.2981194
197	0x3f86abe7	1.052121
198	0x3c16b2b0	0.009197876
199	0x3c47ead2	0.012201982
200	0x3eab1074	0.3341099
201	0xbe363508	-0.17793667
202	0x3e704f17	0.2346767
203	0x3f09fcd5	0.53901416
204	0x3ec9710b	0.39344057
205	0x3e4822ab	0.19544475
206	0x3db15e67	0.08660584
207	0xbf0609b3	-0.5235855
208	0x3eab66ca	0.3347686
209	0x3e3a036a	0.18165365
210	0xbd863a9c	-0.065541476
211	0xbf04a57b	-0.51815003
212	0xbeb0ca2e	-0.3452925
213	0xbedc0e5f	-0.42979714
214	0x3c8afd38	0.016966447
215	0x3ecb42be	0.39699358
216	0xbd5326f6	-0.051550828
217	0x3e936161	0.28785232
218	0xbd3dd508	-0.04634574
219	0xbd9412b8	-0.07230133
220	0x3ea4babc	0.32173717
221	0x3eddc8a8	0.4331715
222	0xbd845ca7	-0.064629845
223	0xbf09ad6f	-0.53780264
224	0x3d8d3cee	0.06896387
225	0xbe0cd160	-0.13751745
226	0x3d8e81d8	0.069583595
227	0x3bef31cb	0.007299637
228	0x3e9c5852	0.30536133
229	0x3e4d290d	0.20035191
230	0x3ea2796a	0.31733257
231	0xbe7081ee	-0.23487064
232	0x3d8c2805	0.068435706
233	0xbf21a2cb	-0.6313903
234	0xbd28ae42	-0.04118181
235	0xbcfae8fa	-0.03062867
236	0xbdcb7019	-0.0993349
237	0x3df54d90	0.119776845
238	0xbec88a6a	-0.39168102
239	0x3e5225cb	0.2052223
240	0x3e0911f7	0.1338576
241	0xbe93c337	-0.28859875
242	0x3e91d51e	0.28482908
243	0xbe72283f	-0.23648165
244	0x3e736763	0.23769908
245	0x3eac522f	0.3365645
246	0xbe663ebc	-0.22484869
247	0x3eb92d26	0.36167258
248	0xbe8b897f	-0.2725334
249	0xbe54496d	-0.20731135
250	0x3eb04728	0.34429288
251	0x3c5eff48	0.0136106685
252	0xbe54d9ab	-0.20786159
253	0x3dc1540b	0.09439858
254	0xbe260aad	-0.1621501
255	0x3d92bbc6	0.07164721

weight f4 [12, 12]
0	0xbf11195e	-0.5667933
1	0x3df19f65	0.1179798
2	0x3e43fa5d	0.19138475
3	0xbd1da3c9	-0.038486276
4	0xbe913d0c	-0.28366888
5	0xbef4b573	-0.47794685
6	0x3ef9c6e5	0.48784557
7	0x3eeb57dd	0.45965472
8	0xbd013c0c	-0.031551406
9	0x3e14f06d	0.1454484
10	0xbeee766a	-0.46574718
11	0x3d21290f	0.039345797
12	0x3e70d83a	0.23519984
13	0x3ee5d095	0.44885698
14	0xbe9652fe	-0.29360193
15	0x3ebf45c6	0.3735792
16	0x3e80f931	0.25190118
17	0x3ee429ea	0.44563228
18	0xbe83a4a9	-0.25711563
19	0xbe12d199	-0.14337768
20	0x3dd0d1ae	0.10196243
21	0xbe9210d1	-0.28528455
22	0xbeca83e1	-0.3955374
23	0xbdcf6472	-0.1012658
24	0x3e767234	0.24067003
25	0x3e8485ab	0.2588323
26	0xbd598547	-0.05310562
27	0x3e72e40f	0.2371981
28	0x3e35537d	0.1770763
29	0xbd0dc6d5	-0.03461345
30	0xbe879486	-0.26480502
31	0xbe7736d7	-0.24142013
32	0x3e5a73c4	0.21333224
33	0x3e547613	0.20748167
34	0x3da344f1	0.07972134
35	0xbe6d23e2	-0.2315822
36	0x3d7827d2	0.06058485
37	0xbecbc474	-0.3979832
38	0x3c4c4023	0.012466463
39	0x3dbc090a	0.091814116
40	0x3d9288bf	0.071549885
41	0xbf03e3ec	-0.51519656
42	0x3b8879b0	0.004164897
43	0xbdfed11d	-0.12442229
44	0xbf64622f	-0.89212316
45	0x3f2c6a4f	0.67349714
46	0xbd1eb58e	-0.038747363
47	0xbebd419d	-0.3696412
48	0xbe5a6d1e	-0.21330687
49	0x3e701d81	0.23448755
50	0x3dbdb9b7	0.09263938
51	0xbf43e526	-0.7652153
52	0x3e95f7bf	0.29290578
53	0xbeab6318	-0.3347404
54	0x3edaa23a	0.42701894
55	0x3d4eef0e	0.05052095
56	0xbebe7f96	-0.37206715
57	0x3df0dd46	0.117609546
58	0x3f104ddf	0.5636882
59	0x3e133a2d	0.14377661
60	0xbe43ee91	-0.19133975
61	0xbe66a5ce	-0.22524187
62	0xbe894465	-0.26809993
63	0x3bed443e	0.007240801
64	0x3cae8d22	0.021307532
65	0x3e5d594c	0.21616095
66	0x3e896225	0.2683269
67	0xbe07880f	-0.13235496
68	0x3e796330	0.24354243
69	0x3cf8a4a1	0.030351939
70	0x3e9c3518	0.30509257
71	0xbef86108	-0.4851153
72	0x3d9b4e8f	0.07583343
73	0x3e8aab06	0.27083606
74	0x3e6f0598	0.23341978
75	0x3e81f3d0	0.25381327
76	0x3deea888	0.116532385
77	0x3e89b14e	0.26893085
78	0xbd99c827	-0.07508879
79	0xbd3e282a	-0.046425022
80	0x3d612efe	0.054976456
81	0xbeb3a969	-0.35090187
82	0x3e843433	0.25821075
83	0xbf086400	-0.5327759
84	0x3e8a72e7	0.2704079
85	0xbe44fe75	-0.19237693
86	0xbef0b66b	-0.47014174
87	0x3dc53bf8	0.09630579
88	0x3e04d466	0.12971649
89	0xbbaf4b53	-0.0053495555
90	0x3e6168b7	0.22012602
91	0xbc151694	-0.009099621
92	0x3ee9b386	0.45644778
93	0x3e7fc081	0.24975778
94	0x3e535765	0.20638807
95	0x3daa6976	0.08320896
96	0xbe6b6b6d	-0.22990198
97	0xbd949880	-0.072556496
98	0x3dfbb9f6	0.122913286
99	0xbe19886e	-0.1499345
100	0x3d91d72e	0.071211204
101	0x3f2970e9	0.6618791
102	0xbe999e74	-0.30003703
103	0xbe163db5	-0.14671977
104	0xbe2304b6	-0.15919766
105	0xbd6300d7	-0.055420723
106	0x3ce6f355	0.028192202
107	0x3eec56c5	0.4615995
108	0x3e1cf39c	0.15327305
109	0x3e289407	0.16462718
110	0x3ea6f5ea	0.32609493
111	0x3efec66e	0.49760765
112	0xbd0b3466	-0.033985518
113	0xbe0405ec	-0.12892884
114	0x3e9bb4f9	0.3041151
115	0x3dbbf88b	0.09178265
116	0xbe338591	-0.1753142
117	0xbefbe599	-0.49198607
118	0x3f095da5	0.53658515
119	0xbe47952d	-0.194905
120	0xbdb7db4f	-0.08977377
121	0xbdc88496	-0.09790914
122	0x3e828be4	0.25497353
123	0x3e8de5d2	0.277144
124	0xbe1e7528	-0.15474379
125	0xbcedec2e	-0.029043283
126	0xbda6c7b6	-0.081435606
127	0xbdfde518	-0.12397212
128	0xbeb02088	-0.3439982
129	0x3e9f52b8	0.31117797
130	0x3e18f8fd	0.14938731
131	0xbe91c884	-0.28473294
132	0x3e7beacd	0.24601288
133	0xbe4977d8	-0.19674623
134	0x3e1956cc	0.14974517
135	0xbe77479c	-0.2414841
136	0xbca6c4c0	-0.02035749
137	0xbe974a01	-0.29548648
138	0xbe75bc7d	-0.23997684
139	0x3dc85210	0.09781277
140	0x3f4ceeac	0.80051684
141	0x3dda2d09	0.10653121
142	0xbc658a0e	-0.014009966
143	0xbe81059d	-0.25199595

bias f4 [12]
0	0xbd9af847	-0.075668864
1	0xbdd7fc1e	-0.105461344
2	0xbe584155	-0.21118672
3	0xbe5624d9	-0.20912494
4	0xbdece0a9	-0.11566288
5	0xbd5ec5cf	-0.054387864
6	0x3e179f99	0.14806975
7	0xbc5ce9f8	-0.013483517
8	0xbc61089c	-0.013734963
9	0x3d58ca38	0.052927226
10	0xbd7f7738	-0.062369555
11	0xbe9b4b4c	-0.30330884

weight f4 [12]
0	0x3f77c12c	0.9677913
1	0x3f736f15	0.9509137
2	0x3f849e55	1.0360819
3	0x3f400b82	0.7501756
4	0x3f45c359	0.772512
5	0x3f59e3e0	0.85113335
6	0x3f807603	1.0036014
7	0x3f7df713	0.9920513
8	0x3f81acd6	1.013087
9	0x3f03fd2d	0.5155819
10	0x3f9b0646	1.211129
11	0x3f991929	1.1960803

bias f4 [12]
0	0x3d99d12e	0.07510601
1	0xbcbdcfb1	-0.023170324
2	0xbd06a707	-0.032874133
3	0x3e83f482	0.25772482
4	0xbe0448ac	-0.12918347
5	0xbdafb198	-0.08578795
6	0x3dcee403	0.101020835
7	0xbec7bda0	-0.3901186
8	0x3d8c3474	0.06845942
9	0x3e2abf97	0.16674648
10	0xb97bb2c0	-0.00024003815
11	0xbe1bc0ba	-0.15210238

weight f4 [12, 12]
0	0x3c9b59d2	0.018963728
1	0x3e9b6609	0.30351284
2	0xbedfd911	-0.43720296
3	0xbe9cd7d0	-0.30633402
4	0xbeb86006	-0.3601076
5	0x3e614ce0	0.22001982
6	0x3e1b042a	0.15138307
7	0x3decdecb	0.11565932
8	0x3e470d04	0.19438559
9	0xbe39f304	-0.1815911
10	0xbec3770b	-0.3817676
11	0xbefd2588	-0.49442697
12	0xbe092385	-0.13392456
13	0x3f0e7617	0.5564894
14	0x3dfcbd8d	0.123408414
15	0xbe0adeaf	-0.1356151
16	0xbb5e9924	-0.003396579
17	0x3e38b05d	0.18036027
18	0x3de9e36b	0.1142033
19	0x3e9673bb	0.2938517
20	0xbe91cd95	-0.2847716
21	0x3d0a441f	0.03375637
22	0xbbee584b	-0.007273709
23	0x3dd66461	0.104683645
24	0xbebb9add	-0.3664159
25	0xbe31f8ab	-0.17380016
26	0xbe30c839	-0.17263879
27	0x3ea1b501	0.31583408
28	0x3e9f8a15	0.31160036
29	0xbeda0e5b	-0.42589077
30	0xbdec8ecc	-0.11550674
31	0x3e96ee51	0.29478696
32	0xbf29662e	-0.6617154
33	0xbded225c	-0.11578819
34	0xbf163b05	-0.58683807
35	0x3ecee6f2	0.40410572
36	0x3e4462c6	0.19178304
37	0x3ddc96ef	0.10770976
38	0xbd4e14ef	-0.050312933
39	0xbe23ff33	-0.1601532
40	0x3c47c7ff	0.012193679
41	0x3dd0d863	0.101975225
42	0xbe45e93e	-0.19327256
43	0x3e902e5f	0.28160378
44	0xbb48db3d	-0.0030648254
45	0x397de7c7	0.00024214304
46	0x3e99688d	0.29962578
47	0xbe03685d	-0.1283278
48	0xbe44d2ec	-0.19221085
49	0x3e5ac416	0.21363863
50	0xbec4a322	-0.3840571
51	0xbde1d792	-0.11027445
52	0xbd2e1860	-0.042503715
53	0x3e549757	0.20760857
54	0xbeb0b17f	-0.3451042
55	0x3e89498d	0.26813927
56	0xbe182d6c	-0.14861077
57	0x3da2f582	0.07956983
58	0x3e0b3dab	0.13597743
59	0xbe904aac	-0.2818197
60	0x3edaf241	0.4276295
61	0x3e4c320f	0.19940971
62	0x3da9516b	0.08267482
63	0xbed7b084	-0.42126858
64	0xbe3f42da	-0.18677846
65	0x3e92130f	0.28530166
66	0x3dca4841	0.098770626
67	0x3e7546a7	0.23952733
68	0xbdf85eaa	-0.12127431
69	0x3e4c598f	0.19956039
70	0xbde41a1d	-0.11137793
71	0xbdd46d23	-0.10372379
72	0xbe92264b	-0.2854484
73	0xbe50bce4	-0.20384556
74	0x3e50ff9e	0.2041001
75	0xbde7cbd0	-0.11318171
76	0x3e74220b	0.23841111
77	0x3e42b6ec	0.19015092
78	0x3e909494	0.28238356
79	0xbd10d9ed	-0.03536408
80	0xbe9df4be	-0.30850786
81	0x3e52f705	0.20602043
82	0x3da26c21	0.0793078
83	0x3e4dfb2d	0.20115347
84	0xbdf697dd	-0.12040684
85	0xbe7d4c2f	-0.24736093
86	0xbec22b00	-0.3792343
87	0xbdf132ca	-0.11777265
88	0xbe05a778	-0.13052166
89	0x3eba5bcd	0.36398163
90	0x3ec682d5	0.38771692
91	0x3f002e04	0.50070214
92	0xbf0538a0	-0.5203953
93	0x3dfd4c85	0.123681106
94	0x3d325671	0.04353947
95	0xbe8d6ec0	-0.27623558
96	0x3e8ed483	0.2789651
97	0x3e623cdb	0.22093527
98	0x3f396ca3	0.7243139
99	0xbc247133	-0.010036754
100	0xbe259103	-0.16168599
101	0x3e818445	0.25296226
102	0x3ed62b62	0.41829973
103	0x3e15c17f	0.14624594
104	0xbe6108fb	-0.21976082
105	0x3e1b2fad	0.15154906
106	0xbebc51d0	-0.36781168
107	0x3e0c2b3c	0.13688368
108	0x3e268d0a	0.1626474
109	0x3e56a52b	0.20961444
110	0x3da294db	0.07938548
111	0x3e9a1001	0.30090335
112	0x3e5d0d59	0.21587123
113	0xbe37557a	-0.179037
114	0x3e98820c	0.29786718
115	0xbe0ff67a	-0.14058867
116	0xbe041e67	-0.12902223
117	0x3c5c6dfb	0.013453956
118	0xbd4289a7	-0.047494557
119	0xbe9ae012	-0.30249077
120	0xbf08a803	-0.53381366
121	0x3bd102ea	0.006378521
122	0x3c5d0a64	0.013491247
123	0x3e10de50	0.14147305
124	0x3d9b5c4b	0.07585963
125	0xbe2588f6	-0.16165528
126	0x3e8b457e	0.27201456
127	0xbdd6c0e2	-0.10486008
128	0xbe895f0e	-0.26830333
129	0x3e3c6db3	0.18401222
130	0xbf4cec35	-0.80047923
131	0x3ee18dfd	0.4405364
132	0x3de9d6df	0.114179365
133	0xbe876e72	-0.2645145
134	0x3e87926f	0.26478907
135	0x3cce26c5	0.025164971
136	0x3e6960bb	0.22790806
137	0x3ea89228	0.32924008
138	0xbe0ffde6	-0.14061698
139	0x3ea6782f	0.32513568
140	0xbc2eb895	-0.010664125
141	0x3db83a49	0.08995492
142	0xbd0a6341	-0.033786062
143	0xbd25ac78	-0.040447682

bias f4 [12]
0	0xbe728969	-0.2368523
1	0x3daebbbf	0.085319035
2	0xbebe7218	-0.37196422
3	0x3e01b67f	0.12667273
4	0x3e16ebbf	0.14738367
5	0xbeab5b5f	-0.33468148
6	0xbe2e7e3b	-0.1704034
7	0x3b0e1513	0.0021680042
8	0x3e4cd35f	0.20002507
9	0xbc4cda2a	-0.012503186
10	0x3e6412d8	0.22272813
11	0xbea8b576	-0.32950944

weight f4 [12, 12]
0	0x3d8150fe	0.06314276
1	0x3e2e6c84	0.17033583
2	0xbe454a80	-0.192667
3	0xbcdf3c15	-0.027250329
4	0xbdda2f49	-0.1065355
5	0x3d28990b	0.04116158
6	0x3ca172a1	0.01970798
7	0x3de4c338	0.111700475
8	0x3e91494b	0.2837623
9	0xbd2415de	-0.040059917
10	0x3e5080a3	0.20361571
11	0x3f0710e2	0.52760136
12	0x3e1548f0	0.14578605
13	0x3e24073d	0.16018386
14	0x3ee75ee2	0.45189577
15	0xbe06f971	-0.13181092
16	0xbea06445	-0.313265
17	0x3ecaacd6	0.39584988
18	0xbe483bd4	-0.19554073
19	0xbe4f686f	-0.20254682
20	0x3eea1a7f	0.4572334
21	0x3c8def94	0.017326154
22	0xbde3ce4c	-0.111233324
23	0x3da0831f	0.07837509
24	0xbc5f08ec	-0.013612967
25	0x3e53bb80	0.20676994
26	0x3f136eb2	0.5759078
27	0xbe1008a0	-0.1406579
28	0xbe6d0f2a	-0.23150316
29	0x3e2e81bf	0.17041682
30	0x3ce52c75	0.0279753
31	0xbe3cb344	-0.1842776
32	0x3e47c888	0.1951009
33	0xbe7a7545	-0.24458797
34	0x3cd4c971	0.025974961
35	0xbd844322	-0.06458117
36	0xbe336b25	-0.17521341
37	0xbd24c6c2	-0.040228613
38	0x3dc40582	0.09571363
39	0x3e631245	0.22174938
40	0x3e83bcdb	0.25730023
41	0x3e7049cf	0.23465656
42	0xbe319a47	-0.17344008
43	0x3ea550ec	0.322883
44	0xbe271e98	-0.16320264
45	0x3e9f95b8	0.31168914
46	0x3e031856	0.12802252
47	0xbe0dcf0e	-0.13848516
48	0xbe91b81f	-0.28460786
49	0xbe0be780	-0.13662529
50	0xbe461a05	-0.19345863
51	0xbe95b0c8	-0.29236436
52	0xbe08bc85	-0.13353164
53	0x3e152371	0.14564301
54	0x3eae386d	0.34027424
55	0x3e5f2615	0.21791871
56	0x3d220758	0.039557785
57	0xbe60dddf	-0.21959637
58	0xbec3258b	-0.3811458
59	0x3d922bfa	0.07137294
60	0xbe723b5b	-0.23655455
61	0x3e76190b	0.2403299
62	0xbedd7023	-0.43249616
63	0x3e4c6dd4	0.19963771
64	0x3e086cd0	0.13322759
65	0xbe6ab3f9	-0.22920217
66	0x3e40860a	0.18801132
67	0xbef86e6a	-0.4852174
68	0xbeb31380	-0.34975815
69	0xbdd56b25	-0.10420827
70	0x3d845ff3	0.06463613
71	0x3c887621	0.01665789
72	0x3e7b2494	0.24525672
73	0x3e8b7943	0.27240953
74	0x3ec8a37f	0.39187238
75	0xbcabe47e	-0.020982977
76	0x3e9f0a91	0.3106275
77	0xbd9de0d4	-0.07708898
78	0xbdf8c35e	-0.12146638
79	0x3b04b3b1	0.0020248706
80	0xbebc7d81	-0.36814502
81	0x3e9bd97c	0.30439365
82	0x3e548f48	0.20757782
83	0xbdcda012	-0.100402966
84	0x3ef3ef3a	0.47643453
85	0xbe2584e8	-0.16163981
86	0xbe9a8987	-0.3018305
87	0x3d6598b8	0.056053847
88	0x3c184fb6	0.009296348
89	0xbd9326be	-0.07185124
90	0x3e0a8b56	0.13529715
91	0x3ea3c475	0.31985822
92	0xbe2faf35	-0.1715668
93	0xbe003878	-0.12521541
94	0xbe6fd6a0	-0.23421717
95	0x3e54d902	0.20785907
96	0xbe2d08b8	-0.16897857
97	0xbda5166b	-0.080609165
98	0x3ea77888	0.32709146
99	0xbdb96a69	-0.09053499
100	0xbddc02c3	-0.10742714
101	0xbea26f6f	-0.31725642
102	0xbe2531e4	-0.16132313
103	0x3dedc839	0.11610455
104	0xbd04b54d	-0.032399464
105	0x3ddfa827	0.109207444
106	0x3df516f1	0.11967266
107	0x3c45e3d0	0.0120782405
108	0xbec73475	-0.3890721
109	0x3ec8c36c	0.39211595
110	0xbe0484a3	-0.12941222
111	0x3ed5ac77	0.41733143
112	0xbe68ef25	-0.22747476
113	0x3e824cce	0.25449222
114	0xbec8f157	-0.39246628
115	0xbe167e9c	-0.14696735
116	0xbe8dcca5	-0.27695194
117	0xbe717506	-0.23579797
118	0x3e899e44	0.2687856
119	0x3e7afb76	0.24509987
120	0xbe711fd6	-0.235473
121	0x3ca852a4	0.020547219
122	0x3ecd76a7	0.40129587
123	0xbe0ed9cb	-0.13950269
124	0x3d7f4d5e	0.062329642
125	0xbe41ca73	-0.18924884
126	0x3e00ecb2	0.12590292
127	0x3e4d1d4d	0.20030709
128	0xbdfe28b1	-0.12410105
129	0x3e44221f	0.19153641
130	0xbf07e658	-0.5308585
131	0x3cf8a79a	0.030353356
132	0xbeaa0f5c	-0.33214843
133	0xbcae8dad	-0.02130779
134	0x3e543a33	0.20725326
135	0xbdf70af5	-0.12062637
136	0x3e5b6b97	0.21427761
137	0xbe64fe2f	-0.22362588
138	0xbe53494b	-0.20633428
139	0xbdd817d6	-0.10551421
140	0xbe3181e4	-0.17334706
141	0x3df51a91	0.11967958
142	0xbde9596a	-0.113940075
143	0xbca876c3	-0.020564443

bias f4 [12]
0	0x3a018725	0.00049410976
1	0x3e43c7f0	0.19119239
2	0xbdd7424c	-0.10510692
3	0xbe8745b0	-0.26420355
4	0x3e4b3e41	0.19847967
5	0xbd574066	-0.05255165
6	0xbe127cbb	-0.14305393
7	0xbb163119	-0.0022917448
8	0xbd234462	-0.039860137
9	0x3e54dd93	0.20787649
10	0xbdaee850	-0.08540404
11	0xbe13f601	-0.14449312

weight f4 [12]
0	0x3f9648cb	1.1740965
1	0x3fa6222e	1.2979181
2	0x3f9488b7	1.1604222
3	0x3f86e42f	1.0538386
4	0x3fa4427a	1.2832787
5	0x3f9d9890	1.2312183
6	0x3f97ef36	1.1869876
7	0x3fa87191	1.3159658
8	0x3f972b43	1.1810077
9	0x3f75fd98	0.9609008
10	0x3fcd8816	1.6057155
11	0x3fa33394	1.2750115

bias f4 [12]
0	0xbdaed0db	-0.0853593
1	0x3db33d23	0.08751895
2	0xbd9ef88e	-0.07762252
3	0x3de95996	0.1139404
4	0x3b61978d	0.0034422607
5	0xbd2be7e1	-0.041969184
6	0x3db47960	0.08812213
7	0x3b71a835	0.003687394
8	0xbe5cf650	-0.21578336
9	0xbcf8e4f0	-0.030382603
10	0x3e0e41ee	0.13892338
11	0x3e02021d	0.12696119

weight f4 [36, 12]
0	0x3e5c9813	0.21542387
1	0x3e18d9fb	0.14926903
2	0x3e9ed95b	0.31025204
3	0x3ec78d64	0.3897506
4	0x3e56d4b4	0.20979577
5	0xbe4ae39b	-0.19813387
6	0xbe62b8c9	-0.22140802
7	0xbeb2f90d	-0.34955636
8	0x3e096395	0.13416894
9	0xbe9a6d04	-0.30161297
10	0x3edcdcca	0.431372
11	0xbe741e75	-0.23839743
12	0x3ea2a9d2	0.31770188
13	0xbed5f656	-0.41789502
14	0x3dfd51da	0.123691276
15	0x3d30acab	0.04313342
16	0xbedb97e1	-0.42889312
17	0xbe7ea3f5	-0.24867232
18	0x3d574607	0.052557018
19	0xbea5b458	-0.32364154
20	0xbe3f6b46	-0.18693265
21	0x3ed8261f	0.42216584
22	0x3edbe890	0.4295087
23	0xbeaa60b1	-0.33276895
24	0x3e2e6d82	0.17033961
25	0x3bb7f37e	0.0056137433
26	0x3e2414d1	0.16023566
27	0x3ec1f718	0.3788383
28	0x3e6684dc	0.2251162
29	0x3e77adbb	0.24187367
30	0x3d240eac	0.040053055
31	0x3e63a6be	0.22231576
32	0xbeb12eb0	-0.34605932
33	0xbf0a6664	-0.54062486
34	0x3e199bd8	0.15000856
35	0xbd41ac10	-0.047283232
36	0xbe399360	-0.18122625
37	0xbd4375a6	-0.04771962
38	0x3efd90a1	0.49524406
39	0xbeeb8552	-0.46000153
40	0x3e46dc5c	0.19419998
41	0xbef3695c	-0.4754132
42	0xbe5836a7	-0.21114598
43	0x3e0ff5d8	0.14058626
44	0xbef83daa	-0.48484546
45	0xbd15564e	-0.03645926
46	0xbeb24cbf	-0.34824178
47	0x3ef0434a	0.46926337
48	0x3e12d0a9	0.1433741
49	0xbe5885fb	-0.2114486
50	0xbc248a75	-0.010042776
51	0xbf055b20	-0.5209217
52	0xbd34fd44	-0.044186845
53	0x3ec786ff	0.3897018
54	0x3f14850a	0.580155
55	0xbea35a8e	-0.31905025
56	0xbd31c15d	-0.043397296
57	0x3ceae2cf	0.028672604
58	0xbeb5e327	-0.35524866
59	0x3ea8d185	0.3297235
60	0x3dc976e6	0.09837131
61	0x3eb59876	0.3546788
62	0x3ef4f3eb	0.47842345
63	0xbf35182b	-0.7074
64	0x3d8da9d1	0.069171555
65	0xbeb1afad	-0.34704342
66	0x3e3ec2b3	0.1862896
67	0xbf006adb	-0.5016305
68	0x3e901c8a	0.28146774
69	0xbdcdec0a	-0.100547865
70	0x3d9c2dc8	0.076259196
71	0x3eac3345	0.33632866
72	0xbd822a84	-0.063557655
73	0x3ef5b7f2	0.47991902
74	0x3e3c9dc7	0.18419562
75	0x3e9b3103	0.3031083
76	0x3eaaa79f	0.3333101
77	0x3e8533b0	0.26015997
78	0xbe713a17	-0.23557316
79	0x3e5f9834	0.21835405
80	0xbeef7839	-0.4677141
81	0xbe9ca0a6	-0.30591315
82	0x3edd97ea	0.43279964
83	0xbf336b0c	-0.70085216
84	0x3efa111d	0.4884118
85	0x3d1dda76	0.03853842
86	0xbe99bc36	-0.30026406
87	0x3e2bd993	0.16782217
88	0xbed87fb3	-0.42284927
89	0xbdc4a439	-0.096016355
90	0x3b2bb742	0.002620176
91	0x3d957388	0.072974265
92	0xbee82417	-0.45340034
93	0x3b29dd3c	0.002591922
94	0xbd88d8ff	-0.06682014
95	0x3dd4e3a4	0.103949815
96	0xbebde981	-0.37092212
97	0x3dc29b08	0.09502226
98	0x3b930974	0.004487211
99	0xbe88389a	-0.26605684
100	0x3efc9f60	0.49340343
101	0xbe7d45ce	-0.2473366
102	0x3e2a14f2	0.16609553
103	0x3ed5fa1f	0.4179239
104	0x3e4cdcd7	0.20006119
105	0x3da01f8d	0.07818518
106	0xbda43eeb	-0.08019813
107	0xbe8ab3a9	-0.27090195
108	0xbec6b535	-0.38810125
109	0x3de2d59a	0.110758975
110	0x3ebf0d99	0.37315062
111	0x3ec34ac3	0.38142976
112	0xbdd1987f	-0.102341644
113	0xbe25026e	-0.16114208
114	0xbe9d2439	-0.30691698
115	0x3dae6b0e	0.08516513
116	0xbf38e4ca	-0.72224104
117	0xbed2731d	-0.4110345
118	0x3d8cf195	0.068820156
119	0x3e6fb39c	0.2340836
120	0xbe9bd10a	-0.30432922
121	0x3e8cb98d	0.27485314
122	0x3c453c8c	0.012038361
123	0xbc8dfb42	-0.017331723
124	0x3f053791	0.5203791
125	0xbe0bd4d4	-0.13655406
126	0xbd73dc90	-0.059536517
127	0xbd3ae8a0	-0.045632005
128	0xbe0a8742	-0.1352816
129	0x3da96758	0.082716644
130	0x3e1bf48a	0.15230003
131	0x3df78eef	0.12087809
132	0x3f1f708d	0.62281114
133	0x3ced2ec9	0.028952973
134	0x3ddb211a	0.10699673
135	0x3f006011	0.50146586
136	0x3eee97cc	0.46600187
137	0xbe8bede5	-0.27329937
138	0x3e0e8b30	0.13920283
139	0xbecf4a78	-0.40486503
140	0xbe831f15	-0.2560965
141	0x3dde5cd3	0.108575486
142	0x3d521836	0.05129262
143	0xbe6afcc7	-0.2294799
144	0x3e853723	0.26018628
145	0xbd5ca81b	-0.053871255
146	0xbe65610c	-0.22400302
147	0xbeb26f9b	-0.34850773
148	0xbec6bd4b	-0.38816294
149	0x3f097316	0.5369123
150	0xbd8125f0	-0.06306064
151	0x3e9c503e	0.3052997
152	0x3ed8c80e	0.4234013
153	0x3e851393	0.25991496
154	0xbed08e4b	-0.4073356
155	0x3e012d31	0.12614895
156	0x3da1ac05	0.07894138
157	0xbdfe2c9d	-0.12410853
158	0xbdd3f979	-0.103503175
159	0x3e4b23ba	0.19837847
160	0x3f0a4cec	0.54023623
161	0xbf06bf00	-0.5263519
162	0x3ece793b	0.40326867
163	0xbebcbdc5	-0.36863533
164	0xbd4b2326	-0.049594067
165	0x3ed45264	0.4146911
166	0xbd954760	-0.07289004
167	0xbefc161b	-0.49235615
168	0xbf041758	-0.5159812
169	0x3e8120f4	0.25220454
170	0xbe1362f9	-0.14393224
171	0x3d854c05	0.0650864
172	0x3e694ceb	0.22783248
173	0xbc6f4cc7	-0.0146057075
174	0xbe898d59	-0.26865652
175	0x3e30794d	0.17233773
176	0x3f2c475f	0.67296404
177	0xbdf602df	-0.12012266
178	0xbe7ce6d3	-0.24697427
179	0xbdbedd2e	-0.093195304
180	0xbf4ae5db	-0.7925698
181	0xbe5193d6	-0.20466551
182	0xbe2fdaae	-0.17173263
183	0x3e9002f4	0.28127253
184	0xbe8e1c6e	-0.27756065
185	0x3f07444f	0.52838606
186	0x3ee4363f	0.44572636
187	0x3e05fe9a	0.13085404
188	0x3ec72cda	0.38901407
189	0x3d8513a7	0.06497889
190	0xbe312bd5	-0.17301877
191	0x3e41e247	0.18933974
192	0xbe073725	-0.1320463
193	0xbe338ab3	-0.17533378
194	0x3ee2a335	0.44265142
195	0x3e536633	0.20644455
196	0xbeac7d0d	-0.33689156
197	0xbd33c58e	-0.043889575
198	0xbea81ce3	-0.3283454
199	0xbf05703b	-0.52124375
200	0xbe06aeca	-0.13152614
201	0xbe50f517	-0.20405994
202	0x3ec0dd64	0.37668908
203	0x3cd90c7d	0.026495213
204	0x3e95c02a	0.29248172
205	0x3eaa30b5	0.33240286
206	0x3dfaf5fb	0.12253948
207	0xbdf2ed7f	-0.11861705
208	0xbe68ea49	-0.22745623
209	0xbdf278ec	-0.1183947
210	0xbe2a25eb	-0.16616027
211	0x3bba5348	0.0056861974
212	0xbf1c534b	-0.61064595
213	0x3f029162	0.51003087
214	0xbdbdd8db	-0.092698775
215	0xbf35f35d	-0.7107447
216	0xbe539223	-0.20661215
217	0xbe698f7b	-0.2280864
218	0xbe05784d	-0.13034172
219	0x3e8dea35	0.27717748
220	0x3e751362	0.23933175
221	0x3efce8e7	0.4939644
222	0x3b551b86	0.0032517626
223	0x3d69c795	0.057075102
224	0x3c12f38c	0.008969199
225	0x3e997a53	0.29976138
226	0xbec5313f	-0.38514134
227	0xbefdc1c3	-0.4956189
228	0x3ed4e8cf	0.4158387
229	0x3ec9dabd	0.39424697
230	0x3e9d4d08	0.30722833
231	0xbea9788e	-0.33099788
232	0x3e901626	0.28141898
233	0xbf09c3e9	-0.5381456
234	0x3e76915b	0.24078886
235	0xbe7d7ffd	-0.24755855
236	0xbd96e707	-0.07368284
237	0x3e4310f0	0.1904943
238	0x3d80fdba	0.062983945
239	0x3dc2dad1	0.09514392
240	0x3e70f04f	0.2352917
241	0xbf30c8e7	-0.6905655
242	0x3ea3368f	0.31877562
243	0xbf39151c	-0.72297835
244	0x3c9d86c1	0.019229295
245	0x3dd225fd	0.10261152
246	0x3ed57982	0.41694266
247	0xbdc460f1	-0.095888026
248	0xbe2dd50d	-0.16975804
249	0xbeb02416	-0.3440253
250	0xbe1135f4	-0.14180738
251	0xbe8a8a48	-0.27058625
252	0xbda8e29c	-0.08246347
253	0xbea2fb91	-0.31832555
254	0x3f077bf9	0.5292354
255	0xbf2512a5	-0.64481574

weight f4 [12, 12]
0	0xbe993209	-0.29920986
1	0xbcec2a04	-0.028828628
2	0xbbf6f282	-0.0075362334
3	0xbe760ce4	-0.24028355
4	0x3e80604b	0.25073466
5	0x3eca09d0	0.3946061
6	0x3f05eef9	0.5231777
7	0xbed6477f	-0.41851422
8	0xbb291b71	-0.002580371
9	0xbe9b381c	-0.30316246
10	0xbeb54bb3	-0.35409316
11	0xbbdcd16a	-0.0067388313
12	0xbecc744a	-0.39932472
13	0x3e5b6f4c	0.21429175
14	0xbdf23493	-0.11826434
15	0x3e762a67	0.24039613
16	0xbe6e7457	-0.23286568
17	0xbf02b3ac	-0.5105541
18	0x3ddeb37b	0.10874077
19	0xbe6fd003	-0.23419194
20	0x3f5404dd	0.8281992
21	0x3e51a6a6	0.20473728
22	0x3ea1e285	0.31618133
23	0x3edb1e75	0.42796674
24	0xbeda2aa5	-0.4261066
25	0x3d11f3b2	0.035632797
26	0xbf02aaa1	-0.5104161
27	0x3e00542d	0.1253211
28	0xbf6222df	-0.8833446
29	0x3dac2b04	0.08406642
30	0xbea56118	-0.3230064
31	0xbef8e6c1	-0.4861355
32	0xbeab9ac5	-0.33516517
33	0xbd14cec3	-0.036329996
34	0x3e995793	0.29949626
35	0xbf2e7307	-0.6814427
36	0x3ebf717a	0.37391263
37	0x3ed3f016	0.4139411
38	0xbeb24f68	-0.34826207
39	0xbe807bd5	-0.25094476
40	0xbd05300c	-0.032516524
41	0xbeb6856b	-0.35648665
42	0x3ea0a501	0.31375888
43	0x3cc9474f	0.024570135
44	0x3ebc8792	0.36822182
45	0xbe88ec75	-0.26742902
46	0x3d114cb2	0.035473533
47	0xbe124ded	-0.14287539
48	0xbe74df3c	-0.23913282
49	0xbc5c9338	-0.013462834
50	0x3e1e7767	0.15475236
51	0x3f0938bd	0.536022
52	0xbe9e6f29	-0.30944183
53	0x3eaa64a9	0.33279923
54	0x3d39e4cf	0.045384225
55	0xbd6777f4	-0.05651088
56	0x3ee1a83e	0.4407367
57	0x3cd8d4ca	0.026468653
58	0x3ee50a07	0.44734213
59	0x3d9c873a	0.0764298
60	0xbe68b3c4	-0.22724825
61	0x3f54e731	0.8316527
62	0x3e92ce78	0.28673148
63	0xbf02ef01	-0.5114594
64	0xbeee7db0	-0.46580267
65	0x3dad915a	0.08474989
66	0xbdaf68b9	-0.08564896
67	0x3ee964d0	0.45584726
68	0xbe33cc1d	-0.17558332
69	0xbeb5c52e	-0.35502
70	0x3da99234	0.08279839
71	0x3d613f62	0.054992087
72	0xbd0c87a9	-0.034309063
73	0xbed20edd	-0.41026965
74	0x3db58989	0.088641234
75	0x3d9979aa	0.07493909
76	0xbeb0fe28	-0.34568906
77	0xbedc44b4	-0.43021166
78	0x3e9aedfb	0.3025969
79	0xbd9b3999	-0.07579345
80	0xbf33f2ed	-0.7029255
81	0xbe5ee5db	-0.2176737
82	0x3e730aa8	0.23734534
83	0xbe2a91c8	-0.16657174
84	0x3e79bc63	0.2438827
85	0x3c190927	0.009340561
86	0xbe950ce0	-0.29111385
87	0xbe842bfc	-0.25814807
88	0xbe07ab31	-0.13248898
89	0x3eb650e3	0.35608587
90	0x3f120b1a	0.5704819
91	0xbe480708	-0.19533932
92	0xbbe8ed56	-0.007108371
93	0x3e23d6f9	0.15999974
94	0x3efdc861	0.4956694
95	0x3e7319c3	0.23740296
96	0xbd90b627	-0.07065993
97	0xbd8beffa	-0.06832881
98	0xbd9d0acd	-0.07668076
99	0xbe65a63e	-0.22426698
100	0xbbeb2dd1	-0.0071770926
101	0x3e763103	0.24042134
102	0xbe2be7b9	-0.16787614
103	0x3e63a9d1	0.22232749
104	0xbc254aa7	-0.010088599
105	0x3ed391d4	0.41322196
106	0x3e17e968	0.14835131
107	0x3d4bb2b7	0.049730983
108	0x3f044f7e	0.51683795
109	0xbe84a8e1	-0.25910094
110	0xbe1a39cc	-0.1506111
111	0xbd45523c	-0.048174128
112	0xbb821690	-0.003969975
113	0x3d1dc4be	0.038517706
114	0xbe73899f	-0.23782967
115	0x3f5a76a5	0.8533729
116	0x3e8b4afc	0.27205646
117	0xbe8029f1	-0.25032
118	0xbec4e359	-0.38454702
119	0x3d98c75a	0.07459898
120	0xbd9bfe47	-0.07616859
121	0xbd735386	-0.059405826
122	0x3c7570c2	0.014980497
123	0xbdb500ef	-0.08838069
124	0x3e2114e0	0.1573062
125	0xbec86412	-0.39138848
126	0xbdc3d9bf	-0.09563016
127	0x3eb3d1d6	0.3512103
128	0xbef35b66	-0.4753067
129	0x3ed30506	0.4121477
130	0xbf05610a	-0.52101195
131	0x3f2bb7c5	0.67077285
132	0x3e1e8d32	0.15483549
133	0xbf06662a	-0.5249964
134	0xbde15c0a	-0.11003883
135	0xbe7b1e60	-0.24523306
136	0xbdd85463	-0.105629705
137	0xbe26d30d	-0.16291447
138	0x3f04ad27	0.5182671
139	0x3e42199c	0.18955082
140	0xbea37c52	-0.31930786
141	0xbe923e3c	-0.28563106
142	0xbee446b8	-0.44585204
143	0xbeb474f0	-0.35245466

bias f4 [12]
0	0xbe3bd20f	-0.1834185
1	0xbe8bd4db	-0.27310833
2	0x3ccc2113	0.024918115
3	0xbe4032f6	-0.1876944
4	0xbe22a15d	-0.15881868
5	0xbd50b43d	-0.05095314
6	0x3db936af	0.09043633
7	0xbe35b08f	-0.17743133
8	0xbdb34f72	-0.08755387
9	0x3ec9718e	0.39344448
10	0x3e98e8db	0.29865155
11	0x3e857fa1	0.26073936

weight f4 [12]
0	0x3f855e78	1.0419455
1	0x3f811995	1.0085932
2	0x3f8368e9	1.0266391
3	0x3f996627	1.19843
4	0x3f8a2a2a	1.0794117
5	0x3fa524ae	1.2901819
6	0x3f8d4b7f	1.1038665
7	0x3f89e82c	1.0773978
8	0x3fc1f441	1.5152665
9	0x3f955f01	1.1669618
10	0x3f832ad8	1.024745
11	0x3f741095	0.953378

bias f4 [12]
0	0x3e905e0f	0.2819676
1	0xbd875c16	-0.06609361
2	0x3bdb5263	0.006693171
3	0xbe48e6d9	-0.19619311
4	0xbe2aa8d7	-0.1666597
5	0x3da4a6af	0.08039605
6	0x3d098781	0.033576492
7	0x3e1612d1	0.14655615
8	0xbd951101	-0.07278634
9	0x3ea3c676	0.3198735
10	0x3e2e3681	0.17012979
11	0xbee29942	-0.4425755

weight f4 [12, 12]
0	0x3debd46a	0.11515124
1	0xbee123e1	-0.43972686
2	0xbdb2bad0	-0.08727038
3	0x3ed9ef2b	0.42565283
4	0x3d5fcc2c	0.054638073
5	0x3e293da0	0.16527414
6	0x3e9e2611	0.30888417
7	0xbda7daf0	-0.08196056
8	0xbd0a0414	-0.033695295
9	0x3ed36300	0.41286469
10	0x3e3106f8	0.17287815
11	0xbf5a208a	-0.852059
12	0xbeca457c	-0.39506137
13	0x3dd1e1ea	0.10248168
14	0x3d0dcba8	0.03461805
15	0xbe5c5eaf	-0.21520494
16	0xbea2b8e2	-0.3178168
17	0xbe2398d9	-0.15976276
18	0x3eb576d2	0.35442215
19	0xbe4b12f1	-0.19831444
20	0xbee359ab	-0.4440435
21	0x3f0be280	0.54642487
22	0xbdcd0a75	-0.1001176
23	0xbd578530	-0.052617252
24	0x3d31d056	0.043411575
25	0x3eaee5ec	0.3415979
26	0xbea25353	-0.31704196
27	0xbf175885	-0.59119445
28	0xbf0d6eaf	-0.55247015
29	0x3eff531f	0.49868104
30	0xbde1a463	-0.110176824
31	0xbe76221a	-0.24036446
32	0x3ea5776c	0.32317674
33	0x3e861b3e	0.2619266
34	0xbebea84e	-0.3723778
35	0xbdd844ae	-0.105599746
36	0xbe031c1b	-0.1280369
37	0x3d13a3ec	0.036045
38	0xbdcebd14	-0.100946575
39	0x3e6c25fd	0.23061366
40	0xbeda645f	-0.42654702
41	0xbe599eda	-0.21252003
42	0xbe5fc6c3	-0.21853165
43	0x3ecd2093	0.40063915
44	0x3f0ed42f	0.55792516
45	0xbed0cbb7	-0.40780422
46	0x3ea37849	0.31927708
47	0x3d76d48f	0.060261305
48	0x3e2a1f9d	0.16613622
49	0xbf074185	-0.5283435
50	0x3d6bf7cc	0.057609364
51	0x3eca1b8d	0.39474145
52	0x3ece1bd1	0.40255597
53	0xbe0ec091	-0.13940646
54	0xbdd5b8dd	-0.104356505
55	0x3e3748cf	0.17898868
56	0x3e97fa5e	0.29683203
57	0xbd9a6bbf	-0.07540082
58	0xbeded7de	-0.4352407
59	0x3cae3273	0.02126429
60	0x3e66161c	0.22469372
61	0x3ec7972c	0.38982522
62	0xbec03303	-0.3753892
63	0x3de4db0e	0.11174594
64	0xbddc1c9a	-0.10747643
65	0xbdb3f59f	-0.08787083
66	0xbb02a59d	-0.001993514
67	0xbde3590f	-0.11100971
68	0x3f2ed961	0.68300444
69	0x3e217ad0	0.15769506
70	0xbd89123b	-0.0669293
71	0xbeaa737b	-0.3329123
72	0xbdea1c96	-0.114312336
73	0xbd3f9c30	-0.04677981
74	0x3dd9b91c	0.1063101
75	0xbdb478a2	-0.088120714
76	0xbcc38687	-0.023867859
77	0xbe7f3bfc	-0.24925226
78	0x3f551059	0.8322807
79	0x3eca22e6	0.3947975
80	0x3e091189	0.13385595
81	0xbe9cbee2	-0.30614382
82	0xbf3a74b9	-0.72834355
83	0x3e21ebe1	0.15812637
84	0xbf0d2826	-0.55139387
85	0x3e21222b	0.1573569
86	0xbe8a50d1	-0.27014783
87	0xbde9d2d8	-0.114171684
88	0x3dd873c4	0.105689555
89	0x3f291615	0.6604932
90	0x3e09f77f	0.13473319
91	0x3e51f6e7	0.20504342
92	0x3e84aa60	0.25911236
93	0xbe139910	-0.14413857
94	0x3c103856	0.008802494
95	0x3d940ad7	0.0722863
96	0xbeb44953	-0.35212192
97	0x3e06ce91	0.13164736
98	0x3d884e63	0.06655576
99	0x3e9e4fcb	0.30920252
100	0x3e8670b6	0.26257867
101	0xbeba8cc4	-0.3643552
102	0x3cc1fdb7	0.023680551
103	0xbd7c44dd	-0.06158911
104	0xbd07fe47	-0.033201482
105	0x3e66e1aa	0.22547022
106	0xbd3d0625	-0.046148438
107	0x3ee13663	0.43986806
108	0xbeaf7c37	-0.34274456
109	0xbe42cfd3	-0.19024591
110	0x3ee6c25a	0.45070153
111	0x3e7b30bf	0.24530314
112	0x3d0a94b4	0.03383322
113	0x3e83c336	0.25734872
114	0xbe0c8029	-0.13720764
115	0xbe9b8fc4	-0.30383122
116	0x3ca2dd73	0.019880986
117	0xbe7188d4	-0.23587352
118	0x3d2f859c	0.04285203
119	0xbd0954c4	-0.033528104
120	0x3f03ff79	0.51561695
121	0x3e82208d	0.2541546
122	0x3f0d8a86	0.55289495
123	0x3d5ca559	0.053868625
124	0x3ee4bb87	0.44674322
125	0xbe68fe6c	-0.22753304
126	0xbe7a2994	-0.24429923
127	0x3d3e32ff	0.046435352
128	0xbf41abf7	-0.7565302
129	0xbea354dc	-0.3190068
130	0x3da45a14	0.080249935
131	0x3e7bcb3b	0.24589245
132	0x3d8effa3	0.069823526
133	0x3e05d8ae	0.13070938
134	0xbe1df3a6	-0.15424976
135	0x3f15e4ef	0.5855245
136	0xbe503520	-0.20332766
137	0x3e7820c0	0.24231243
138	0x3e23d658	0.15999734
139	0xbedd3ac0	-0.43208885
140	0xbe9aacfc	-0.30210102
141	0xbe98531b	-0.29750904
142	0x3e00d6a4	0.12581879
143	0x3e7fecfa	0.24992743

bias f4 [12]
0	0x3e4765b2	0.19472387
1	0x3dd9fcbe	0.1064391
2	0x3dae0a01	0.08498002
3	0xbe77a742	-0.24184898
4	0xbe16da6e	-0.14731762
5	0xbdcf5ebf	-0.10125493
6	0xbe9cc524	-0.30619156
7	0xbe61145d	-0.21980424
8	0x3e23315d	0.159368
9	0x3df88a59	0.12135763
10	0x3e8bff4e	0.2734322
11	0xbee27fc9	-0.44238117

weight f4 [12, 12]
0	0xbe2d69d3	-0.169349
1	0xbd93b9d8	-0.07213181
2	0xbf1e1647	-0.6175274
3	0x3e834f9b	0.25646672
4	0x3dae78d5	0.08519141
5	0xbe517ff6	-0.2045897
6	0x3dbf0a2c	0.09328112
7	0x3dbf44ae	0.093392715
8	0x3d454153	0.048158
9	0x3d6775fd	0.056509007
10	0xbd902eaf	-0.07040154
11	0xbd4588b4	-0.048226073
12	0xbd1d5e43	-0.038419973
13	0x3f0025b0	0.50057507
14	0xbe792606	-0.24330911
15	0x3e3b83f4	0.18312055
16	0x3d945ddf	0.07244467
17	0x3c848592	0.016176973
18	0xbe939faa	-0.28832752
19	0x3f01349f	0.5047092
20	0xbe31ec72	-0.17375353
21	0x3ca3f5ac	0.020014606
22	0x3e12e160	0.14343786
23	0x3ee9994f	0.45624778
24	0xbd375811	-0.04476172
25	0xbed8b99c	-0.4232911
26	0xbf158644	-0.58408
27	0xbd89e416	-0.06732957
28	0xbec96ab7	-0.3933923
29	0x3ead07fd	0.33795157
30	0x3f05fa53	0.5233509
31	0xbdd33d35	-0.10314409
32	0xbe1fbc5f	-0.15599202
33	0xbe1d30be	-0.15350625
34	0xbda9f7bf	-0.08299207
35	0x3e9b2786	0.3030359
36	0xbe4281bc	-0.18994802
37	0xbe7f79f4	-0.24948865
38	0x3f17be68	0.5927491
39	0x3c1fcac7	0.009752936
40	0xbe94e114	-0.2907797
41	0x3ed82fcb	0.42223963
42	0xbcc162e9	-0.023606734
43	0x3e1fd8f6	0.15610108
44	0x3eb99e86	0.36253756
45	0x3dba65e8	0.09101468
46	0xbe003814	-0.12521392
47	0x3dff6982	0.12471296
48	0x3e0631f6	0.13104996
49	0x3e36e228	0.1785971
50	0x3ef1b45e	0.47207922
51	0xbf50c39e	-0.8154849
52	0x3e1b8c4c	0.15190238
53	0x3d85e76a	0.06538279
54	0xbef85c8a	-0.48508102
55	0xbef49aaa	-0.4777425
56	0xbeebf78c	-0.460873
57	0xbef8c3b7	-0.4858682
58	0xbea664ae	-0.32498688
59	0x3e30e954	0.17276508
60	0x3ef73e93	0.48289928
61	0xbd27bfcc	-0.040954396
62	0xbe9c3789	-0.3051112
63	0x3e36d314	0.17853957
64	0xbeadf388	-0.33974862
65	0xbe02390c	-0.12717074
66	0x3e427eea	0.18993726
67	0xbe9d5ca8	-0.30734754
68	0xbe4b6499	-0.19862594
69	0x3e767219	0.24066962
70	0x3eb1d0ce	0.34729618
71	0xbe8e0080	-0.27734756
72	0x3f697a3d	0.91202146
73	0x3e6613b7	0.22468458
74	0xbe1070a3	-0.14105467
75	0x3f292944	0.6607859
76	0x3e2b4927	0.16727124
77	0x3da3e199	0.08002014
78	0xbed6ba41	-0.41938975
79	0x3d80a0b4	0.06280652
80	0xbe8fc8d3	-0.28082904
81	0x3e4a02cf	0.19727634
82	0xbccfbed8	-0.025359556
83	0x3d368252	0.044557877
84	0x3e20e8c2	0.1571379
85	0x3f05e073	0.5229561
86	0xbebcaf70	-0.36852598
87	0xbe8955e7	-0.2682335
88	0xbf1c9fd7	-0.61181396
89	0x3e7aedf7	0.24504839
90	0x3e624dec	0.22100037
91	0x3ef8a1f8	0.48561072
92	0x3e5a0ad0	0.21293187
93	0x3d5de976	0.054177724
94	0x3cd6dd93	0.026228702
95	0xbf379262	-0.7170774
96	0x3f093a93	0.53605
97	0xbe533a84	-0.2062779
98	0xbe63cacd	-0.22245331
99	0xbe42bcf4	-0.19017392
100	0x3f23b9ba	0.6395527
101	0xbee3adad	-0.44468442
102	0x3e3282d4	0.1743272
103	0xbd0a0e9b	-0.033705335
104	0xbdf8ebba	-0.12154336
105	0x3e0ac807	0.13552867
106	0x3ef49935	0.47773138
107	0xbe2746fc	-0.16335672
108	0xbd959a72	-0.07304849
109	0xbea2044e	-0.3164391
110	0x3e2c30b9	0.16815461
111	0x3e971bfe	0.29513544
112	0x3e5645e6	0.20925102
113	0xbdde056a	-0.108408764
114	0x3e4dcf97	0.2009872
115	0x3e2dbe16	0.16967043
116	0x3e2ccedc	0.16875786
117	0x3f041b5b	0.5160424
118	0x3f0d9707	0.55308574
119	0x3c8d1163	0.017220205
120	0xbed89c84	-0.42306912
121	0x3d14be59	0.036314342
122	0x3da5de23	0.0809901
123	0x3e903a1b	0.2816933
124	0x3dc37a3a	0.09544797
125	0x3ea4a0a9	0.32153824
126	0x3f2456da	0.64195025
127	0x3ca4928a	0.020089407
128	0xbe335a87	-0.17515002
129	0x3c1af047	0.009456701
130	0xbe38861b	-0.18019907
131	0x3dc0ca31	0.09413565
132	0xbe24206f	-0.16027997
133	0x3eca7b15	0.3954703
134	0xbea9fc3e	-0.33200258
135	0xbbc11782	-0.005892695
136	0x3d0ec5e5	0.034856696
137	0xbdd67074	-0.104706675
138	0x3e819384	0.25307858
139	0x3e193c11	0.1496432
140	0xbdc881aa	-0.097903565
141	0x3de81a1f	0.11333107
142	0xbebf8877	-0.37408802
143	0x3e73083e	0.23733613

bias f4 [12]
0	0x3ead410f	0.33838698
1	0x3ccb4711	0.02481416
2	0xbe252e15	-0.1613086
3	0xbd18342a	-0.037159123
4	0xbdab8a87	-0.08376031
5	0x3e1bb645	0.15206249
6	0xbef26d48	-0.47349
7	0x3e02d168	0.12775195
8	0xbc87e861	-0.0165903
9	0xbdf098d7	-0.11747902
10	0xbe440de5	-0.19145925
11	0xbcb6dad0	-0.022321135

weight f4 [12]
0	0x4000193a	2.0015397
1	0x3ff803f8	1.9376211
2	0x3fccf566	1.601239
3	0x402019d5	2.5015767
4	0x3ff5b135	1.9194704
5	0x401adfcc	2.4199095
6	0x3fc9f753	1.5778602
7	0x40016ac5	2.0221417
8	0x3ffdee3d	1.983833
9	0x4004df57	2.0761316
10	0x400bc786	2.184053
11	0x400ace0f	2.1688268

bias f4 [12]
0	0x3da97869	0.082749195
1	0xbe4d5048	-0.20050156
2	0xbe40cd41	-0.18828298
3	0x3c828a3d	0.015935058
4	0x3f158343	0.58403414
5	0x3e026457	0.12733589
6	0xbd8210e2	-0.063508764
7	0x3e3fb0df	0.18719815
8	0xbda95fbc	-0.08270213
9	0xbe941dca	-0.28928977
10	0xbe82de68	-0.25560308
11	0x3e3ec8d4	0.18631297
