Examples/verification/training/models/verification_8x8/vit_24_4_6_12.pt (torch, 85770 bytes, 52 tensors)

pos_embedding f4 [1, 17, 24]
0	0x3fbb5dd1	1.4638005
1	0xbf1bae5e	-0.6081294
2	0xbf597d91	-0.84957224
3	0x3f70165c	0.9378412
4	0xbfbc5a5a	-1.4715073
5	0xbf254cf6	-0.6457056
6	0xbfa8bb93	-1.3182243
7	0x3e3b5d68	0.1829735
8	0x3d90f6c8	0.0707832
9	0xc04ac873	-3.1684844
10	0x3ba1ddd0	0.004939772
11	0xbf1c85f9	-0.61141926
12	0xbf00c42c	-0.50299335
13	0x3f2b1a81	0.66837317
14	0xbea33bd4	-0.31881583
15	0x3f831348	1.0240259
16	0x3f371e5b	0.71530694
17	0xbfe25699	-1.7682678
18	0xbf4547b0	-0.7706251
19	0xbcbcec4a	-0.02306189
20	0x3f33941a	0.7014786
21	0xbf6951fa	-0.9114071
22	0x40064d34	2.098462
23	0xbf56a1ea	-0.8384081
24	0xbfde1647	-1.7350549
25	0x3f519594	0.81868863
26	0x3d6cc00c	0.057800338
27	0xbb87bbde	-0.0041422686
28	0x3ea8a88e	0.32941097
29	0x3f7b26eb	0.9810626
30	0xbec8a888	-0.3919108
31	0xbf313a95	-0.69230014
32	0x3eb65816	0.3561408
33	0x3ec8d73d	0.39226714
34	0xbfd71465	-1.6803099
35	0xbc221686	-0.009893065
36	0x3c0ccc47	0.008593625
37	0xbf23b341	-0.63945395
38	0x3f54ead4	0.8317082
39	0xbf6ac560	-0.9170742
40	0x3f4fea66	0.8121704
41	0x401d8f01	2.4618533
42	0x3db64eb5	0.08901731
43	0xbe893d6c	-0.26804674
44	0xbfc0bd0a	-1.505769
45	0x3ec8f7d8	0.3925159
46	0xbe0cf4b9	-0.1376523
47	0x3f47bdf4	0.7802422
48	0xbfaaab6c	-1.3333564
49	0xbe999997	-0.29999992
50	0x3dd43ca8	0.10363132
51	0x3eb6c725	0.3569881
52	0xbd966279	-0.07343001
53	0xbea35b1f	-0.31905457
54	0x3f6ec9c0	0.93276596
55	0xbeb07493	-0.3446394
56	0xbdcfb6a9	-0.101422615
57	0xbef472d0	-0.47743845
58	0xc029a79e	-2.6508555
59	0xbef29977	-0.4738271
60	0x3aec4dce	0.0018028559
61	0x3f95fa8c	1.1717086
62	0x3ee1440b	0.43997225
63	0xbf8b4a27	-1.0882004
64	0xbf10a092	-0.5649501
65	0x40063e90	2.0975685
66	0x3f860c95	1.047259
67	0x3f8e1b18	1.1102018
68	0x3f1e4567	0.6182465
69	0xbe882dcf	-0.2659745
70	0x3917dcd8	0.00014482753
71	0x3d2867e8	0.041114718
72	0x3f2e6991	0.6812983
73	0xbe6ef2a3	-0.23334746
74	0x3f0a990d	0.54139787
75	0x3f3868dd	0.7203501
76	0xbff120cf	-1.8838137
77	0xbf5e98fe	-0.869522
78	0xbf15a2ff	-0.5845184
79	0x3ff7e230	1.9365902
80	0xbf06a31f	-0.52592653
81	0xbfbd522c	-1.4790702
82	0xbf36cd43	-0.71406955
83	0xbdf92df8	-0.12166971
84	0xbdefad4a	-0.11702974
85	0xbf662672	-0.8990241
86	0x3efe6ce3	0.4969245
87	0x3dcf6f11	0.10128606
88	0x3ecf7df8	0.40525794
89	0x3f206ba6	0.6266426
90	0xbf34d87a	-0.7064282
91	0x3dd0d71e	0.1019728
92	0x3e400fcc	0.18756026
93	0x3ececc8a	0.40390426
94	0xbeedc4bf	-0.46439168
95	0x3e420e34	0.1895073
96	0x4000230d	2.0021393
97	0xbf93faeb	-1.1560949
98	0x3ec0a97a	0.376293
99	0xbeff1a1d	-0.4982461
100	0x3ebb13fe	0.3653869
101	0xbfa5d9e5	-1.2957121
102	0xbf7a438e	-0.9775933
103	0xbf11dba8	-0.56975794
104	0xbfd77b6f	-1.6834544
105	0x40103507	2.2532365
106	0x3f865025	1.0493208
107	0xbf93ae02	-1.1537478
108	0xbf2ccebc	-0.6750295
109	0xbe3c0afb	-0.18363564
110	0x3e9a3e6f	0.30125758
111	0x3eb926ad	0.3616232
112	0x3e7eb5af	0.24873994
113	0xbfd22a1b	-1.64191
114	0x3d438012	0.04772956
115	0x4003c042	2.0586095
116	0xbd56ec06	-0.052471183
117	0xbec26107	-0.3796465
118	0xbf8ec1ac	-1.1152854
119	0xbfa0a86e	-1.2551401
120	0xbf668b61	-0.90056425
121	0xbf2951f8	-0.661407
122	0x3d996111	0.07489217
123	0xbcb82335	-0.022477726
124	0xbfe0bc16	-1.7557399
125	0xbfc30803	-1.523682
126	0xbf1f9e73	-0.6235115
127	0xbf20de3a	-0.6283909
128	0xbecb84bb	-0.39749703
129	0x3fda744f	1.7066745
130	0x3ebff211	0.3748937
131	0x3ef66fee	0.4813227
132	0xbfc43e77	-1.5331563
133	0x3ea666b9	0.32500246
134	0x3f816afd	1.0110775
135	0xbd4f3fa3	-0.050597798
136	0x4001fe1d	2.0311348
137	0xbe8ea24b	-0.27858195
138	0xbf8f5ff3	-1.1201156
139	0x3fc0e8fa	1.5071099
140	0x3f8e79f0	1.1130962
141	0xbf1e565b	-0.6185052
142	0xbf8c35d7	-1.0953931
143	0xbd88be09	-0.06676871
144	0x3efd024b	0.49415812
145	0x3e27d315	0.16389115
146	0x3ef2a0f2	0.47388417
147	0x3f827137	1.01908
148	0x3f3fefff	0.7497558
149	0x3fad85d5	1.3556467
150	0xbef52dad	-0.4788641
151	0x3f6b67ea	0.91955435
152	0x3ed9b329	0.425195
153	0xbfb50b29	-1.4144031
154	0x3f975917	1.1824063
155	0x3ef05a70	0.46943998
156	0xbf96d400	-1.1783447
157	0x3ecfca47	0.40584013
158	0xbebcdd0b	-0.36887392
159	0x3e14b60e	0.14522573
160	0x3fbd3a38	1.4783392
161	0x3e6720cd	0.22571106
162	0xbe0f3323	-0.13984351
163	0xbf27f888	-0.65613604
164	0xbf129f03	-0.5727388
165	0x3d87b841	0.066269405
166	0x3ec7dcaf	0.39035556
167	0xbd31b2c3	-0.04338337
168	0x3efb85d2	0.49125534
169	0x3ebcb765	0.3685867
170	0x3f752d6b	0.9577243
171	0x3faa2fe1	1.3295861
172	0xbe3f95a2	-0.18709424
173	0x3fd0a3f0	1.630003
174	0x3f76572a	0.9622675
175	0xbdd97989	-0.10618884
176	0xbf9ba4e4	-1.2159696
177	0x3da4a087	0.08038431
178	0xbed97c17	-0.42477486
179	0x3f245dca	0.6420561
180	0x3f9cafc6	1.2241142
181	0x3f28a95c	0.6588342
182	0xbfb69c46	-1.4266441
183	0x3f44e77c	0.7691572
184	0xbedba464	-0.42898858
185	0x3e981ca2	0.29709345
186	0xbf8b79b0	-1.0896511
187	0x3fe581c9	1.7930232
188	0xbeeb858e	-0.46000332
189	0x3e83f374	0.25771677
190	0xbde1c198	-0.11023253
191	0xbfaef450	-1.3668308
192	0xbf665f23	-0.8998892
193	0xbe0cf54f	-0.13765453
194	0x3d9057c4	0.0704799
195	0xbe1e26be	-0.15444466
196	0x3d870f33	0.06594696
197	0x3febd1c0	1.8423386
198	0xbf0d1579	-0.5511089
199	0xbe37d4bc	-0.17952245
200	0x3fa2576f	1.2682933
201	0xbf0a2119	-0.53956753
202	0xbec6f595	-0.3885924
203	0xbf57de60	-0.8432369
204	0x3dba63d1	0.0910107
205	0x3ebbbe5a	0.36668664
206	0xbf2e4c1c	-0.68084884
207	0xbe93976e	-0.2882647
208	0xc02b1f37	-2.6737802
209	0xbf724321	-0.9463368
210	0xbd8bae66	-0.06820373
211	0x3ee72819	0.4514778
212	0xbf0fb960	-0.56142235
213	0x3ef66b15	0.48128572
214	0xbf0ad6fe	-0.542343
215	0xbfc7e6be	-1.5617292
216	0x3f5f6c6f	0.8727483
217	0xbee0b796	-0.43890065
218	0xbf0f9dbc	-0.5610006
219	0xbee4e112	-0.44702965
220	0x3fea53df	1.8306845
221	0x3d4ba166	0.04971447
222	0x3f9f662d	1.2453057
223	0x3f5f63e4	0.87261796
224	0x401bfc6b	2.4372814
225	0xbf10275e	-0.5631007
226	0xbf337864	-0.70105577
227	0x3fb36395	1.4014765
228	0xbc299042	-0.010349335
229	0xbece7683	-0.40324792
230	0x3f9a5f9b	1.2060426
231	0xbeacadd1	-0.3372636
232	0xbe8e45cc	-0.27787626
233	0xbe9fa8cd	-0.31183472
234	0x3f4a68f2	0.79066384
235	0x3d5d2057	0.05398592
236	0x3f015ecf	0.5053529
237	0xc01e197f	-2.4703062
238	0x3eafb608	0.34318566
239	0xbe5a1133	-0.21295623
240	0x3f2cc3fe	0.6748656
241	0xbde32ea1	-0.11092878
242	0x3f99e539	1.2023078
243	0x3f52f345	0.8240245
244	0x3ed624ad	0.41824856
245	0x3ec36af5	0.3816754
246	0x3eb85f7a	0.36010343
247	0x3f54fd6b	0.83199185
248	0xbf8be252	-1.0928442
249	0x3f8f4561	1.1193048
250	0xbfbd57e0	-1.4792442
251	0x400cf2e4	2.2023249
252	0xbf07293a	-0.5279728
253	0xbf1032e9	-0.5632768
254	0x3ddb9430	0.10721624
255	0x3f6c2cfe	0.9225615

cls_token f4 [1, 1, 24]
0	0xbe2c9bf5	-0.16856368
1	0x3fa7bad6	1.3103893
2	0x3f48b52e	0.7840146
3	0xbf4c59f0	-0.79824734
4	0xbec12b24	-0.37728226
5	0x3ebabc0e	0.364716
6	0x3ed00bf2	0.40634114
7	0xbfb37f3e	-1.4023206
8	0xbfbb7ee9	-1.4648105
9	0xbe104135	-0.14087375
10	0x3f2c2b95	0.67254
11	0x3da952fb	0.082677804
12	0x3ec9f092	0.39441353
13	0xbf48705e	-0.7829646
14	0x3f5253ef	0.8215932
15	0x3f88afee	1.067869
16	0x3f209732	0.62730706
17	0x3fba4db1	1.455496
18	0xbf09af2c	-0.53782916
19	0xc009b852	-2.151875
20	0x3f3993c8	0.7249112
21	0x3f31fff3	0.6953117
22	0xbe5d849d	-0.21632619
23	0x3fddcd72	1.7328322

weight f4 [24, 4]
0	0x3c852cf5	0.016256789
1	0x3ff968c4	1.9485097
2	0xbda856af	-0.082196586
3	0xbef13a57	-0.47114822
4	0xbeab4503	-0.3345109
5	0x3fe31775	1.7741534
6	0xbf4e567e	-0.80600727
7	0x3ee78dc2	0.4522534
8	0xbf29811a	-0.6621262
9	0xbf107f1c	-0.56443954
10	0x3f03d338	0.5149417
11	0xbfcca1ee	-1.5986917
12	0xbf7e9bf3	-0.9945671
13	0xbeed219e	-0.4631471
14	0x3fb4697f	1.4094695
15	0x3f747642	0.9549295
16	0xbf89c48f	-1.076311
17	0xbf25362b	-0.6453578
18	0x3f6cf504	0.92561364
19	0x3f882ec4	1.0639272
20	0x3e11b866	0.14230499
21	0xbfad68e8	-1.354764
22	0xbf1eda52	-0.6205188
23	0xbe1a9c3e	-0.15098664
24	0x3f89bf09	1.0761424
25	0x3f9fe9cd	1.2493225
26	0x3f2ee449	0.68317086
27	0x3dd439ef	0.103626125
28	0xbe90144e	-0.2814049
29	0xbf4d2ec2	-0.8014947
30	0xbf90e390	-1.1319447
31	0x3fbc8e30	1.4730892
32	0x3fa096e6	1.254605
33	0x3e3d1c8e	0.18467924
34	0x3dfeadc9	0.12435491
35	0xbfac2531	-1.344885
36	0xbfa1e06f	-1.2646617
37	0x3f06ad81	0.52608496
38	0xbf82daf2	-1.0223067
39	0x3e725970	0.2366693
40	0x3f13e7ca	0.5777556
41	0xbf70b013	-0.9401867
42	0x3eb456e9	0.35222557
43	0x3f955ca2	1.1668894
44	0x3f2a20fb	0.66456574
45	0xbf9662ca	-1.1748898
46	0xbfb9ddf0	-1.4520855
47	0xbf213c0d	-0.62982255
48	0xbf546ff6	-0.8298334
49	0xbf15803b	-0.5839879
50	0xbe20e4eb	-0.15712325
51	0x3ea8018f	0.3281369
52	0xbee02742	-0.4377995
53	0x3f10e4be	0.5659903
54	0xbf9cf701	-1.226288
55	0xbf4d56d7	-0.8021063
56	0xbfa92a39	-1.321601
57	0xbddc1e2c	-0.10747942
58	0xbf8e29cd	-1.1106507
59	0xbf92cef7	-1.1469411
60	0xbeac25c6	-0.3362257
61	0xbfa499d4	-1.2859445
62	0x3f2b28ea	0.66859305
63	0xbf659e27	-0.89694446
64	0x3efe869d	0.49712077
65	0x3f993757	1.1970013
66	0x3f5984ba	0.8496815
67	0x3ed2d083	0.41174707
68	0xbf8d3df4	-1.1034532
69	0xbea72de5	-0.32652202
70	0x3fcabac9	1.5838252
71	0x3dae78f6	0.08519165
72	0x3fcd023d	1.6016308
73	0xbf06f42f	-0.52716345
74	0x3f79931a	0.97490084
75	0xbe9be8c8	-0.30451035
76	0x3f1f0e4b	0.62131184
77	0xbfa6feab	-1.3046468
78	0xbdbabb17	-0.09117716
79	0xbf361e2c	-0.7113979
80	0x3e4fd2d0	0.20295262
81	0xbf3d98e9	-0.7406145
82	0x3eb03250	0.34413385
83	0x3fc3e414	1.5303979
84	0x3fbeec8c	1.4915938
85	0x3d3b7c94	0.045773104
86	0xbf030f84	-0.5119555
87	0xbeee1a16	-0.46504277
88	0x3f96aa46	1.1770713
89	0xbd4f196e	-0.05056136
90	0xbe3d64b1	-0.18495442
91	0xbfadb96c	-1.3572211
92	0x3f941910	1.1570148
93	0x3eea96a3	0.45818052
94	0xbe47e4cc	-0.19520873
95	0x3f860bd5	1.0472361

bias f4 [24]
0	0x3e8a3612	0.26994377
1	0xbe623a39	-0.22092523
2	0x3c7d9061	0.015476317
3	0xbec85784	-0.3912927
4	0x3dca02b2	0.09863795
5	0xbec34b2a	-0.38143283
6	0x3ca817a0	0.020519078
7	0x3e1fa0a5	0.15588625
8	0x3e76a4f6	0.24086365
9	0x3e0f7f42	0.14013389
10	0x3e323cc2	0.1740599
11	0x3df28637	0.11842006
12	0x3ed27daa	0.411115
13	0x3ef59393	0.47964153
14	0x3eef7ba3	0.46774015
15	0xbe42fb2f	-0.19041131
16	0x3c8b1e25	0.016982147
17	0xbe995826	-0.29950064
18	0x3e3a55d1	0.18196799
19	0x3e900bc5	0.2813398
20	0x3ded3855	0.1158301
21	0x3dfa7bcc	0.12230644
22	0xbe9ab80b	-0.3021854
23	0xbe1482a1	-0.14502956

weight f4 [24]
0	0x3f33f70f	0.70298856
1	0x3f8bcf5f	1.092266
2	0x3f6a6358	0.91557837
3	0x3f87c18f	1.0605944
4	0x3f844fd5	1.0336863
5	0x3f539fa3	0.8266546
6	0x3f82f391	1.023058
7	0x3f609ae7	0.8773636
8	0x3f47c606	0.78036535
9	0x3f29ace5	0.6627944
10	0x3f4713bb	0.7776448
11	0x3f8b69f4	1.0891709
12	0x3f2f807b	0.6855542
13	0x3f681601	0.90658575
14	0x3f1b297f	0.60610193
15	0x3f582618	0.84433126
16	0x3f41a2da	0.75639117
17	0x3f701359	0.9377952
18	0x3f8adcfc	1.0848689
19	0x3f242c73	0.64130324
20	0x3f425ad5	0.7591985
21	0x3f802a5c	1.0012927
22	0x3f1ec383	0.6201708
23	0x3f2e085c	0.67981505

bias f4 [24]
0	0xbe506f4f	-0.20354961
1	0xbcecc1b2	-0.028900955
2	0xbcf2d795	-0.029643813
3	0x3b8ced08	0.0043007173
4	0xbd3e6aec	-0.046488687
5	0x3e67b379	0.22627057
6	0xbe19b0c2	-0.15008834
7	0xbd8f52a0	-0.06998181
8	0xbd43d88a	-0.04781393
9	0x3e9f54a2	0.31119257
10	0xbd9b6f4a	-0.07589586
11	0xbd33c128	-0.04388538
12	0xbbf66f0f	-0.0075205634
13	0x3cd3f127	0.025871826
14	0xbd4ab83f	-0.049492117
15	0x3e41da50	0.18930936
16	0xbe6973a1	-0.22798015
17	0x3e126ca2	0.14299253
18	0xbe1328be	-0.1437101
19	0x3bdbf746	0.006712827
20	0xbe05b736	-0.1305817
21	0x3a371d1c	0.00069852336
22	0x3e78cfee	0.24298069
23	0x3dbbe4e4	0.09174517

weight f4 [72, 24]
0	0xbe018dee	-0.12651798
1	0x3ea608d9	0.32428625
2	0xbe785244	-0.24250132
3	0xbe513697	-0.2043098
4	0xbd4d584d	-0.05013304
5	0xbf10494e	-0.56361854
6	0x3d96522d	0.073398925
7	0xbe9ba16f	-0.30396602
8	0x3cd8e3f2	0.02647588
9	0x3e1d435d	0.15357728
10	0xbddc3a61	-0.107533224
11	0x3d8ade73	0.0678071
12	0xbed16b0b	-0.4090198
13	0x3db410b4	0.08792248
14	0x3ec5bc64	0.38620293
15	0x3e74d6b6	0.2391003
16	0x3e9f8c7e	0.31161875
17	0x3dcf18be	0.10112141
18	0x3e881ecb	0.26585993
19	0xbedc81b7	-0.43067715
20	0x3e049772	0.12948397
21	0xbe65eb10	-0.2245295
22	0x3e8d512f	0.27601
23	0x3e02fc27	0.12791501
24	0xbe126d56	-0.14299521
25	0x3e9c0d40	0.3047886
26	0xbe7a13d2	-0.24421623
27	0x3efd22d2	0.49440628
28	0x3cd21fd5	0.025649944
29	0x3d4df1ec	0.050279543
30	0x3e9e8606	0.30961627
31	0x3dc93923	0.09825351
32	0x3bd2a711	0.0064286073
33	0xbdc18632	-0.09449424
34	0x3e4080ee	0.18799183
35	0x3c094707	0.008378751
36	0xbe8267eb	-0.25469908
37	0xbe3bc932	-0.18338469
38	0x3d0add1b	0.03390227
39	0x3e74df68	0.23913348
40	0x3d944efa	0.07241626
41	0xbde4288f	-0.111405484
42	0x3e3e2bba	0.18571368
43	0xbeb8e4a6	-0.36111945
44	0x3eb0aea6	0.34508246
45	0xbd782a57	-0.060587253
46	0xbb9b9b4f	-0.004748739
47	0xbc2c1769	-0.010503628
48	0x3e10c65c	0.14138168
49	0xbf0d6164	-0.5522673
50	0x3d47a309	0.048739467
51	0x3e34bf18	0.17651021
52	0xbe5d0976	-0.2158564
53	0x3dc4a304	0.09601405
54	0x3eedec1e	0.46469206
55	0xbeaee10e	-0.34156078
56	0xbe1efe4c	-0.15526694
57	0xbdd7e0e3	-0.105409406
58	0xbdfeda0b	-0.12443932
59	0xbc4ab361	-0.012371869
60	0x3c9a8371	0.018861504
61	0xbd64299d	-0.055703748
62	0xbe754a75	-0.23954184
63	0x3eb03ac1	0.34419826
64	0x3eb8387a	0.35980588
65	0xbd291216	-0.041277014
66	0xbdf1db08	-0.11809355
67	0xbdef918a	-0.11697681
68	0x3e911bcd	0.28341523
69	0x3e337810	0.17526269
70	0x3db7439e	0.08948444
71	0x3e963955	0.29340616
72	0x3da58040	0.08081102
73	0xbe8448dd	-0.2583684
74	0x3e884b81	0.26620105
75	0x3e986d36	0.2977082
76	0xbcd805bf	-0.026369927
77	0x3e63d8f2	0.22250727
78	0x3dfde251	0.12396682
79	0xbe0a6156	-0.13513693
80	0xbeb3461d	-0.3501443
81	0xbe33879c	-0.175322
82	0xbdbaf374	-0.09128466
83	0xbe0777be	-0.13229272
84	0xbd49bfdd	-0.04925524
85	0xbe19cf39	-0.15020455
86	0xbe05a9b5	-0.1305302
87	0x3de8a8c7	0.11360317
88	0xbd81a39a	-0.06330033
89	0xbdecd48e	-0.11563979
90	0xbea4f745	-0.32219902
91	0x3d704a85	0.058664817
92	0x3f16dcc4	0.5893061
93	0xbdd735d2	-0.10508312
94	0x3e973ab5	0.29536977
95	0xbc2ff4c7	-0.010739512
96	0xbf2a7dbb	-0.665981
97	0xbebdc5bb	-0.3706492
98	0xbeee7dc4	-0.46580327
99	0xbdf3f124	-0.11911228
100	0x3ec05181	0.37562183
101	0x3e54c5f6	0.20778641
102	0xbd6ee89b	-0.0583273
103	0x3e99875e	0.2998609
104	0xbe3425ab	-0.17592494
105	0x3c805f53	0.015670454
106	0x3e3657a8	0.17806876
107	0x3e66b1ab	0.22528712
108	0x3e889e74	0.2668339
109	0xbd9481bf	-0.072513096
110	0xbe51ef74	-0.205015
111	0xbe99418a	-0.29932815
112	0xbdf472c1	-0.1193595
113	0x3d96b78f	0.0735923
114	0x3e657f8f	0.22411941
115	0x3e912b04	0.2835313
116	0x3d664b62	0.056224234
117	0xbda5020c	-0.08057031
118	0xbdb9d106	-0.09073071
119	0x3d99d7a9	0.07511837
120	0x3cf7105b	0.030159166
121	0xbda5d017	-0.080963306
122	0x3f0717fe	0.52770984
123	0xbe0946c9	-0.13405909
124	0xbdb8084a	-0.08985956
125	0x3e1e8111	0.15478922
126	0xbd81c017	-0.06335466
127	0xbee7ff0a	-0.45311767
128	0x3bbe8d62	0.005815194
129	0x3de15112	0.11001791
130	0x3d3343f2	0.04376597
131	0xbe8ba83f	-0.272768
132	0xbcadd276	-0.02121852
133	0xbe02cf29	-0.12774338
134	0x3e588185	0.21143158
135	0x3e2365d1	0.15956809
136	0x3e60e784	0.21963316
137	0x3db7b170	0.089693904
138	0x3db0acfb	0.086267434
139	0xbd9d49a6	-0.07680063
140	0x3e5d372a	0.21603075
141	0xbe82a397	-0.25515434
142	0x3c603152	0.013683634
143	0x3d70df7e	0.05880689
144	0x3e615fac	0.22009152
145	0x3d0f4b78	0.034984082
146	0x3ea5e36b	0.3240007
147	0x3ee18633	0.44047698
148	0x3eb24a2e	0.3482222
149	0xbe442795	-0.19155724
150	0x3c95a147	0.01826538
151	0xbe562c69	-0.20915379
152	0x3e537bfb	0.20652764
153	0x3e65b6d3	0.22433023
154	0x3e293498	0.16523969
155	0xbedab571	-0.42716554
156	0xbd1261b2	-0.0357377
157	0xbefb65fb	-0.49101242
158	0x3d93bdfa	0.072139695
159	0x3dad2525	0.084543504
160	0x3d8388dc	0.06422588
161	0x3ea7a5a1	0.32743552
162	0xbd7ed465	-0.062214274
163	0xbe35f8e4	-0.17770725
164	0xbe6c9387	-0.23103152
165	0xbe9c0701	-0.30474094
166	0xbe8400c7	-0.25781843
167	0xbe8cf77a	-0.2753256
168	0xbe10befe	-0.14135358
169	0xbef46ac3	-0.47737703
170	0x3eaacda5	0.3336002
171	0x3c5ff7f3	0.013669956
172	0x3e4d2f11	0.20037486
173	0xbec48362	-0.38381487
174	0x3df2bb06	0.11852078
175	0xbe5964ec	-0.21229905
176	0x3e86c290	0.26320314
177	0x3e4c9510	0.19978738
178	0xbd5eab65	-0.054362673
179	0x39f87082	0.0004738607
180	0x3e1a4f30	0.1506927
181	0xbd84953b	-0.06473776
182	0x3e60acbf	0.21940897
183	0xbe84e2f2	-0.25954396
184	0xbeb4a98a	-0.35285598
185	0x3f0715c7	0.52767605
186	0x3e26c24c	0.16285056
187	0x3ec21250	0.37904596
188	0xbde0d523	-0.109781526
189	0xbef98254	-0.48732245
190	0xbe94bb6e	-0.29049248
191	0xbdd32fc2	-0.103118435
192	0x3cd6ea30	0.026234716
193	0xbe247997	-0.16062008
194	0x3e54fe10	0.20800042
195	0xbe572ff4	-0.21014386
196	0x3d572589	0.05252603
197	0x3e9747a9	0.2954686
198	0xbd870774	-0.065932184
199	0x3ddd59cd	0.10808144
200	0xbd22ba91	-0.039728705
201	0xbea2434f	-0.31691977
202	0x3d46e947	0.048562314
203	0x3deefa8d	0.116688825
204	0x3d0ac31f	0.03387749
205	0xbd6ccbac	-0.057811424
206	0xbee24661	-0.4419432
207	0x3d81bc14	0.06334701
208	0x3e4683ba	0.19386187
209	0xbebbfea2	-0.36717707
210	0x3de54185	0.111941375
211	0x3e9687f6	0.29400605
212	0x3d237386	0.039905094
213	0xbe354d9a	-0.17705384
214	0xbd41092d	-0.04712789
215	0xbdff031d	-0.12451766
216	0xbe36bf46	-0.17846403
217	0xbe94b27c	-0.29042423
218	0xbe081f50	-0.13293195
219	0x3e8844ce	0.26614994
220	0x3d6b0a99	0.057383154
221	0x3d10df2b	0.03536908
222	0xbda5ce66	-0.08096008
223	0xbdf012d1	-0.11722339
224	0x3d3cb8d9	0.046074722
225	0x3d4e3a0a	0.05034832
226	0x3e9ce2df	0.3064184
227	0xbe5a04aa	-0.21290842
228	0xbeb5738b	-0.35439715
229	0xbefee009	-0.497803
230	0xbb45ba14	-0.0030170726
231	0x3de7357f	0.112895004
232	0x3eaec138	0.3413179
233	0xbe2b702f	-0.16742013
234	0x3e88afdb	0.26696667
235	0xbcbf33c4	-0.023340113
236	0x3dd4f664	0.10398558
237	0xbd95d653	-0.0731627
238	0xbe1b4045	-0.15161236
239	0xbd804179	-0.06262488
240	0x3e9d1fd0	0.30688334
241	0x3e671136	0.22565159
242	0x3e5fcfc6	0.21856603
243	0xbde5e469	-0.112252064
244	0x3c982685	0.018573055
245	0xbdf5b50f	-0.11997425
246	0xbe819ea9	-0.2531636
247	0xbd5dd982	-0.05416251
248	0xbddf3a3a	-0.10899778
249	0x3e2e3a10	0.17014337
250	0xbda466cd	-0.0802742
251	0xbe5afc99	-0.21385421
252	0x3e6deede	0.23235652
253	0x3e981021	0.29699805
254	0x3e95b108	0.29236627
255	0xbd3154d3	-0.043293785

weight f4 [24, 24]
0	0xbc98540a	-0.01859476
1	0x3d842cf0	0.06453884
2	0x3e1a9d95	0.15099175
3	0x3e4d5189	0.20050634
4	0xbea3bec7	-0.3198149
5	0xbdeb3412	-0.11484541
6	0x3e1d0a68	0.15336001
7	0x3df430c6	0.11923365
8	0xbc98a0dc	-0.018631391
9	0xbe7188ec	-0.23587388
10	0xbe63c4cf	-0.22243045
11	0x3e514b0f	0.20438789
12	0x3eae1df4	0.34007227
13	0x3dd78f1f	0.10525345
14	0xbd214e68	-0.039381415
15	0x3e5f8a83	0.21830182
16	0xbe4ebf9d	-0.20190282
17	0xbd30ef17	-0.043196764
18	0xbe1966a7	-0.14980565
19	0xbc1adf9c	-0.009452727
20	0x3d868d24	0.06569889
21	0x3da322e0	0.07965636
22	0xbe652470	-0.22377181
23	0xbd6acc91	-0.057323996
24	0xbcb7cfa7	-0.022437884
25	0xbd2a8ddc	-0.041639194
26	0x3d23db0f	0.040003832
27	0x3c1bd8b4	0.009512115
28	0x3cfe790d	0.03106358
29	0x3e2ea6d7	0.17055832
30	0xbe8bdf12	-0.27318627
31	0x3dca9b75	0.09892932
32	0x3e1d5661	0.15364982
33	0xbdc1dabe	-0.0946555
34	0x3e08d6f3	0.13363247
35	0x3ca80550	0.020510346
36	0x3e79bdd2	0.24388817
37	0xbd1e6771	-0.03867287
38	0x3d9ded29	0.0771125
39	0x3de5e5d0	0.11225474
40	0x3cbd3313	0.023095643
41	0xbdba27df	-0.09089636
42	0xbe936051	-0.2878442
43	0x3d3f6cd8	0.04673466
44	0x3cbaf77b	0.022823086
45	0x3d64d621	0.05586827
46	0x3db51c68	0.08843309
47	0x3d7ff88f	0.062492903
48	0x3e1e7920	0.15475893
49	0x3dfc036a	0.12305339
50	0xbe60755f	-0.21919774
51	0x3d23f393	0.040027212
52	0xbd654649	-0.055975232
53	0x3dd32349	0.103094645
54	0x3df3a2e1	0.11896301
55	0xbd4a86df	-0.04944503
56	0xbe377695	-0.17916329
57	0xbdaeba07	-0.08531576
58	0x3db90d1a	0.09035702
59	0xbdc864ba	-0.09784837
60	0xbe618dbb	-0.22026722
61	0xbe6b78b9	-0.22995271
62	0x3dae6d9b	0.08516999
63	0xbe8fb9bb	-0.2807139
64	0x3c691b13	0.014227646
65	0x3d29a41b	0.04141627
66	0x3e5eb8eb	0.21750228
67	0x3de3d6c6	0.11124949
68	0xbe195006	-0.14971933
69	0xbe0aaec3	-0.13543229
70	0xbe98cb9e	-0.29842848
71	0x3e496088	0.1966573
72	0xbe40f579	-0.1884364
73	0xbe0a716c	-0.1351983
74	0xbcfccc96	-0.030859273
75	0x3e1a1f48	0.15050995
76	0xbe680033	-0.22656326
77	0xbe0418bb	-0.12900059
78	0x3f0b09ee	0.54312027
79	0x3df83579	0.12119574
80	0xbd86189c	-0.065476626
81	0xbdc05e75	-0.09393016
82	0x3e01c9e4	0.12674671
83	0xbd395e4a	-0.045255937
84	0xbdec1218	-0.115268886
85	0xbe9bf6ec	-0.30461824
86	0xbde31254	-0.1108748
87	0x3dd8db3b	0.1058869
88	0x3dfcf39d	0.12351153
89	0xbd703307	-0.058642413
90	0xbde63e18	-0.11242312
91	0x3e7edf84	0.24889952
92	0x3e4c766d	0.19967051
93	0xbe7a9a55	-0.24472935
94	0xbdd5b711	-0.10435308
95	0x3e29ca35	0.16581042
96	0x3dd4c132	0.103884116
97	0xbd25b20c	-0.040453
98	0xbe8415c7	-0.25797865
99	0x3df9d0cf	0.1219803
100	0xbe97f43b	-0.2967852
101	0x3e4688cb	0.1938812
102	0x3daa309e	0.08310054
103	0x3e76da53	0.24106722
104	0x3e443a22	0.19162801
105	0x3e002b89	0.12516607
106	0x3db65fea	0.08905013
107	0x3e4f8089	0.20263876
108	0xbddf000c	-0.10888681
109	0x3d825d44	0.06365445
110	0x3ea7763e	0.327074
111	0xbec5c115	-0.38623872
112	0x3e49b099	0.19696273
113	0xbe016473	-0.12635975
114	0xbb467abd	-0.003028556
115	0x3d3a8a9c	0.045542344
116	0x3e77768e	0.24166319
117	0x3e8e100f	0.27746627
118	0xbdc19a78	-0.09453291
119	0xbe6e8f86	-0.23296937
120	0x3e0d68ef	0.1380956
121	0xbd466784	-0.048438564
122	0xbe40160f	-0.18758415
123	0xbe253a73	-0.16135578
124	0xbe782c79	-0.24235715
125	0x3e434108	0.19067776
126	0x3f14dc50	0.5814867
127	0xbe78d4be	-0.24299905
128	0xbe5bb6cc	-0.2145645
129	0x3e43e3e3	0.191299
130	0x3ddb16a3	0.10697677
131	0x3e0e07ef	0.13870214
132	0x3d0d5411	0.034504
133	0xbd72fc88	-0.059322864
134	0x3cb3605a	0.02189653
135	0x3d2ef428	0.042713314
136	0xbe020ba8	-0.12699759
137	0x3e161c5a	0.14659253
138	0x3f0fda99	0.5619293
139	0x3e963993	0.293408
140	0x3dea7896	0.11448781
141	0x3edf8728	0.43657804
142	0x3df55cc9	0.11980588
143	0xbc690e31	-0.014224575
144	0xbe939f96	-0.28832692
145	0xbdad7a58	-0.08470601
146	0x3dc75c88	0.09734446
147	0xbdd0a180	-0.10187054
148	0x3db0b48d	0.08628187
149	0x3e662c72	0.22477892
150	0xbe1df5ed	-0.15425844
151	0x3e7837a1	0.2423997
152	0xbeae5938	-0.34052444
153	0x3dacf451	0.08445037
154	0xbda30886	-0.0796061
155	0xbe58df31	-0.21178891
156	0x3ccbfa73	0.024899697
157	0x3d8a40c4	0.06750634
158	0x3e2df9da	0.16989842
159	0xbe785182	-0.24249843
160	0x3e508435	0.20362933
161	0xbd1e7458	-0.038685173
162	0xbc73c66f	-0.014878853
163	0x3cb95d19	0.0226274
164	0x3dd9ce07	0.10635
165	0x3e216772	0.15762118
166	0x3d9faefc	0.077970475
167	0xbe5a4df9	-0.21318807
168	0x3e687350	0.22700238
169	0x3e62636a	0.22108236
170	0xbeb5a1e0	-0.35475063
171	0xbd396a92	-0.04526765
172	0xbd5e72db	-0.054308753
173	0xbe093443	-0.13398843
174	0xbd42073e	-0.047370188
175	0xbefe5cec	-0.4968027
176	0x3e8c2942	0.27375227
177	0xbe93c6a9	-0.28862503
178	0xbc9e9e3d	-0.019362563
179	0xbd5f91cb	-0.0545824
180	0x3d6dabe2	0.05802525
181	0x3e230b86	0.15922365
182	0xbe78f476	-0.24312004
183	0x3eaeab25	0.34114948
184	0xbe140a5e	-0.1445708
185	0x3d98e1b6	0.07464926
186	0xbd9c565c	-0.07633659
187	0xbdbbd794	-0.09171978
188	0x3d80d890	0.06291306
189	0xbe910ca6	-0.28329962
190	0xbde6bc3f	-0.11266374
191	0x3e134d98	0.14385068
192	0xbe4dc224	-0.2009359
193	0xbd9f9c25	-0.07793454
194	0x3e079478	0.1324023
195	0x3d076004	0.033050552
196	0xbe274427	-0.16334592
197	0x3dc7bfe9	0.09753401
198	0x3d0b39fc	0.033990845
199	0xbd02cf61	-0.031936053
200	0x3ee7162a	0.45134097
201	0x3c3b5dac	0.011435907
202	0x3ea32fb1	0.31872323
203	0x3db2b9bf	0.087268345
204	0x3ccf785a	0.025325943
205	0x3ee39c02	0.44454962
206	0x3e900ace	0.28133243
207	0xbe76df81	-0.24108697
208	0x3e7b988a	0.24569908
209	0x3dcb3e6a	0.09924014
210	0x3ee5e0d9	0.44898108
211	0x3e87c816	0.2651984
212	0xbe99771f	-0.29973695
213	0xbe47f2c0	-0.19526196
214	0xbd675cee	-0.05648511
215	0xbd611e22	-0.054960378
216	0xbe3bbcb4	-0.18333703
217	0xbd9e4754	-0.077284485
218	0x3eb681a1	0.35645774
219	0xbe4e0c45	-0.20121868
220	0xbd1b460a	-0.03790859
221	0xbb9c730c	-0.004774457
222	0x3dcb49c7	0.09926181
223	0xbeb7dbbb	-0.3590983
224	0x3ec5ddf0	0.38645887
225	0xbdb60692	-0.08887972
226	0x3e4699b1	0.19394566
227	0xbc221063	-0.009891602
228	0x3cf1b6e0	0.029506147
229	0xbdc2c9cd	-0.09511147
230	0xbc9d73de	-0.019220289
231	0xbced331c	-0.028955035
232	0xbed07871	-0.4071689
233	0x3eb1320a	0.3460849
234	0x3d355cb8	0.044277877
235	0x3e315249	0.17316546
236	0x3e3d1538	0.18465126
237	0x3de07be8	0.10961133
238	0xbe30cd6e	-0.17265865
239	0xbc7e8b81	-0.01553619
240	0xbe43ec75	-0.1913317
241	0xbd1a665d	-0.037695277
242	0x3ec3c806	0.38238543
243	0xbe418839	-0.18899621
244	0xbd9111b0	-0.07083452
245	0xbeb49150	-0.35267115
246	0xbf09497e	-0.53627765
247	0xbe333d67	-0.17503892
248	0x3e21d6b9	0.15804566
249	0x3da7c964	0.08192709
250	0x3de2eef2	0.110807315
251	0xbc783f2c	-0.01515178
252	0x3e5fa54d	0.21840401
253	0x3e59fa48	0.21286881
254	0xbccdfe69	-0.025145726
255	0xbe25ad71	-0.16179444

bias f4 [24]
0	0x3c7c4df8	0.015399449
1	0x3d4aba74	0.04949422
2	0x3d33c350	0.043887436
3	0xbe309323	-0.17243628
4	0x3e4a0d1a	0.1973156
5	0x3dd7f65b	0.105450355
6	0xbda291ea	-0.07937987
7	0xbe5c9997	-0.21542965
8	0xbc0875cd	-0.008328867
9	0x3e444ebf	0.19170664
10	0x3d6a4976	0.057198964
11	0x3ce40843	0.02783597
12	0xbe259b71	-0.16172577
13	0x3e2cb5af	0.16866182
14	0x3d06eafd	0.032938946
15	0xbcd0ec8f	-0.025503425
16	0xbda51919	-0.080614276
17	0x3e6278dc	0.22116417
18	0xbb75b454	-0.0037491517
19	0xbe49bd6c	-0.19701165
20	0xbe7a1f5d	-0.24426027
21	0xbe18f3b2	-0.14936712
22	0xbd9302cf	-0.0717827
23	0xbcf01b8b	-0.029310009

weight f4 [24]
0	0x3f4b5945	0.7943309
1	0x3f9a6724	1.2062726
2	0x3f6950e3	0.9113905
3	0x3f835216	1.0259426
4	0x3f75d09b	0.9602143
5	0x3f821558	1.0162764
6	0x3f6aa523	0.9165823
7	0x3f5e1766	0.86754453
8	0x3f63adb2	0.88936913
9	0x3f50acbd	0.8151358
10	0x3f1e4983	0.6183092
11	0x3f886267	1.065503
12	0x3f579665	0.8421386
13	0x3f7cf4c3	0.98810977
14	0x3f6b1db0	0.91842175
15	0x3f68cf7b	0.9094159
16	0x3f1be77d	0.609001
17	0x3f2c9906	0.67420995
18	0x3f8c77fa	1.0974114
19	0x3f4a353f	0.789875
20	0x3f881a44	1.0633016
21	0x3f56bb0e	0.8387917
22	0x3f487888	0.78308916
23	0x3f276304	0.6538546

bias f4 [24]
0	0xbe6a1e1a	-0.22863045
1	0xbccea14f	-0.025223402
2	0x3d0d64cb	0.03451995
3	0x3e0f403c	0.13989347
4	0xbcdd4cc4	-0.027014144
5	0x3d891e2f	0.0669521
6	0xbd29824c	-0.041384026
7	0xbe9cfa9b	-0.30659947
8	0xbe21c239	-0.15796746
9	0xbd3ea85b	-0.046547275
10	0xbca45144	-0.020058282
11	0xbe0b07ea	-0.13577238
12	0x3e2d13a2	0.1690202
13	0x3e051659	0.12996806
14	0xbb41c854	-0.0029568868
15	0x3e202040	0.15637302
16	0xbd9cb022	-0.07650782
17	0x3e19e79d	0.1502976
18	0x3e299ad9	0.16562976
19	0xbb52457a	-0.0032084868
20	0x3bff4c10	0.00779105
21	0xbe348a43	-0.17630868
22	0x3e8baef4	0.27281916
23	0x3dd2f032	0.1029972

weight f4 [12, 24]
0	0xbd63e2c2	-0.055636175
1	0x3de558d7	0.111985855
2	0xbee505c6	-0.44730967
3	0xbe0cdaeb	-0.13755386
4	0xbb5c819c	-0.003364659
5	0xbe09ec05	-0.1346894
6	0xbceee0ad	-0.029159868
7	0x3ebd5db7	0.3698556
8	0xbdbbe6e8	-0.09174901
9	0x3e441a97	0.19150768
10	0x3db2891f	0.0871756
11	0x3eb61892	0.3556562
12	0x3e4a2e54	0.19744235
13	0xbd87cad2	-0.06630482
14	0xbe4ba91d	-0.1988873
15	0xbea8d71f	-0.32976624
16	0xbe6f7e93	-0.23388128
17	0xbda3f3cf	-0.08005487
18	0xbda3a099	-0.07989616
19	0x3e0dd916	0.13852343
20	0xbd91513a	-0.07095571
21	0x3d1fef18	0.039046377
22	0xbe0a0c3f	-0.13481234
23	0x3e1cdf29	0.15319504
24	0xbd99860f	-0.07496273
25	0xbdf84a55	-0.12123553
26	0x3e39aab1	0.1813152
27	0xbf1a52fe	-0.60282886
28	0xbedd200e	-0.43188518
29	0x3ce13322	0.027490202
30	0xbe001051	-0.12506224
31	0xbe8773f0	-0.2645564
32	0x3ec0108c	0.37512624
33	0xbe39cf6e	-0.18145534
34	0xbe0a4d74	-0.13506109
35	0x3e6009c4	0.21878725
36	0xbe8138f0	-0.25238752
37	0x3c80e50a	0.015734214
38	0x3e8e37da	0.27776986
39	0xbe7426b7	-0.23842894
40	0x3c361748	0.011113949
41	0xbe3e706f	-0.18597578
42	0x3d5f0742	0.05445028
43	0x3d87bda0	0.06627965
44	0xbed543e7	-0.41653368
45	0x3e128601	0.14308931
46	0x3e06ace7	0.13151895
47	0x3dc094ab	0.09403356
48	0xbde6b279	-0.1126451
49	0x3e4f3568	0.20235217
50	0x3d2b18b3	0.041771602
51	0x3d241de0	0.040067554
52	0xbca80a00	-0.02051258
53	0x3dba4557	0.09095257
54	0xbf08e161	-0.534689
55	0x3e53cb7f	0.20683096
56	0x3e9167f3	0.2839962
57	0x3e1cca53	0.15311556
58	0x3da73857	0.08165043
59	0x3eb346a6	0.35014838
60	0xbc6ef5ec	-0.0145849995
61	0x3e595241	0.21222784
62	0x3e963b5a	0.29342157
63	0xbceb0baa	-0.028692085
64	0xbe2e80be	-0.17041299
65	0x3e1fa582	0.1559048
66	0xbe4dcf74	-0.20098668
67	0x3ce3d30e	0.0278106
68	0xbd042eec	-0.03227131
69	0xbe18e237	-0.14930044
70	0x3e8ed6ae	0.27898163
71	0xbe20e3e5	-0.15711935
72	0x3c14aeb9	0.00907486
73	0x3e3d96d9	0.18514575
74	0x3d275fd0	0.04086286
75	0x3e8b7d6b	0.27244124
76	0x3ba0fa59	0.0049126563
77	0xbe3e9d02	-0.18614581
78	0x3c7db3e1	0.015484781
79	0xbd843e47	-0.06457191
80	0x3d6013d8	0.054706424
81	0x3e869af7	0.26290104
82	0xbe5ec94a	-0.21756473
83	0xbd8a5b5a	-0.06755705
84	0x3dd42e6c	0.10360417
85	0xbc49a3a3	-0.01230708
86	0x3d968266	0.0734909
87	0xbdd89e9d	-0.10577128
88	0x3df59b3e	0.11992501
89	0xbc034284	-0.008011464
90	0xbe3bb5bb	-0.18331043
91	0xbe0dc1f4	-0.13843518
92	0xbea3dfaf	-0.32006595
93	0xbe82ff2c	-0.25585306
94	0x3e314c9a	0.17314377
95	0xbafa2cac	-0.00190868
96	0xbf0ae7c7	-0.54259914
97	0xbf3d4ea9	-0.7394815
98	0x3b967a32	0.0045922035
99	0x3d7fa2f2	0.062411256
100	0xbd152cec	-0.036419794
101	0x3ec83e59	0.39110067
102	0xbe44580f	-0.19174217
103	0x3e58d489	0.21174826
104	0xbcf4ad52	-0.029867802
105	0x3c071da3	0.008246812
106	0x3d858b7f	0.065207474
107	0x3ee0008e	0.43750423
108	0x3e1f17fd	0.15536495
109	0xbd678118	-0.056519598
110	0xbe2ef58d	-0.17085858
111	0x3eecc2c1	0.46242335
112	0xbe8535e0	-0.26017666
113	0xbe5828ab	-0.21109264
114	0x3d26799a	0.040643312
115	0x3ea71509	0.32633236
116	0xbc2adb75	-0.010428299
117	0x3e6f4a0b	0.23368089
118	0x3cbfc24f	0.023408083
119	0xbd8156f6	-0.063154146
120	0xbde72ed7	-0.11288231
121	0x3e477fd9	0.19482364
122	0xbd9ab6d0	-0.075544
123	0x3b0854dc	0.0020802533
124	0xbcc7c285	-0.024384746
125	0x3db9dd81	0.09075452
126	0x3e2cf38d	0.16889782
127	0x3e7566d4	0.23965007
128	0xbdebf8a5	-0.115220346
129	0xbcc8008d	-0.024414325
130	0x3d8e1a96	0.069386646
131	0x3e39455a	0.18092862
132	0xbd7c4fa7	-0.0615994
133	0x3cb227d3	0.021747505
134	0x3e7012a1	0.23444606
135	0xbe42226a	-0.1895844
136	0x3d2eefe0	0.04270923
137	0x3cabede2	0.020987455
138	0xbe219544	-0.15779597
139	0xbe2d9114	-0.16949874
140	0xbddc2dac	-0.10750899
141	0xbe6dd7d2	-0.2322686
142	0x3cab9d42	0.02094901
143	0xbdbff56e	-0.09372984
144	0x3e7f08c3	0.24905686
145	0x3e71f553	0.2362874
146	0x3e442251	0.19153716
147	0xbea088d6	-0.31354398
148	0x3bab31a3	0.005224423
149	0x3e73bb49	0.23801912
150	0xbddad79d	-0.10685656
151	0x3d7fe808	0.06247714
152	0x3df4ba71	0.119496234
153	0x3e1ebef2	0.15502527
154	0xbd85937c	-0.06522271
155	0xbd104004	-0.0352173
156	0xbda4ee5e	-0.080532774
157	0xbe56f31c	-0.20991176
158	0x3d18c5c8	0.037297994
159	0xbe2ab1d1	-0.16669394
160	0xbdf48da8	-0.11941081
161	0xbe52371a	-0.20528832
162	0xbe6fe0e4	-0.23425633
163	0x3d47c11f	0.04876816
164	0x3e140657	0.14455543
165	0x3e11d50b	0.14241426
166	0xbe043438	-0.12910545
167	0x3e055f18	0.13024557
168	0x3ce2f633	0.027705288
169	0xbec291be	-0.38001817
170	0xbe391eb6	-0.18078122
171	0xbd813dec	-0.06310639
172	0x3e8b4606	0.2720186
173	0xbec5e0ae	-0.3864798
174	0x3e50b48d	0.20381375
175	0x3e6639a2	0.22482923
176	0x3dffe035	0.12493936
177	0xbc4517f7	-0.012029639
178	0xbcaf4264	-0.021393962
179	0xbe0280e2	-0.12744477
180	0xbe23e61d	-0.1600575
181	0xbec734c3	-0.38907441
182	0xbe33aceb	-0.17546432
183	0x3d857889	0.06517131
184	0x3d814b22	0.063131586
185	0x3db8d03c	0.090240926
186	0x3e33b9ee	0.17551395
187	0xbd133d13	-0.035946917
188	0x3e754033	0.23950271
189	0xbdd34e12	-0.10317625
190	0xbdec9ee4	-0.115537435
191	0xbdf11130	-0.117708564
192	0x3e84be78	0.25926566
193	0x3e643349	0.22285189
194	0x3e9ab0d0	0.30213022
195	0xbd872733	-0.065992735
196	0x3d195b2e	0.03744047
197	0xbe0b452d	-0.13600607
198	0xbce6ae19	-0.028159188
199	0x3d84332d	0.064550735
200	0xbd45cb6a	-0.048289694
201	0x3de433c6	0.111426875
202	0xbde33ae5	-0.110952176
203	0xbe2ea09d	-0.17053457
204	0xbe2caea6	-0.16863498
205	0x3e1063da	0.1410059
206	0xbe660b3f	-0.22465228
207	0xbd3fecbf	-0.046856638
208	0x3ddf3540	0.108988285
209	0x3dd6a65e	0.10480951
210	0xbe4ae53e	-0.19814011
211	0x3e689506	0.22713098
212	0xbeb43641	-0.35197642
213	0x3e420276	0.18946251
214	0x3e25e29d	0.16199727
215	0xbcbd292e	-0.023090925
216	0x3dbaff78	0.09130758
217	0x3e17cc7d	0.148241
218	0xbdefa557	-0.11701458
219	0x3d096187	0.033540275
220	0xbc1def52	-0.009639578
221	0x3df0bd84	0.11754897
222	0xbe4fa46e	-0.20277569
223	0x3e3872a1	0.18012477
224	0x3de3dcbf	0.11126088
225	0x3e9b0e67	0.30284426
226	0x3db2e038	0.087341726
227	0x3de0a297	0.109685116
228	0x3eaa9eff	0.3332443
229	0x3d657c71	0.05602688
230	0x3e7b5714	0.24544936
231	0x3e295a23	0.1653829
232	0xbe55dae7	-0.20884286
233	0xbdb399fe	-0.08769606
234	0xbf08eb48	-0.5348401
235	0x3d945889	0.07243449
236	0x3e37acc8	0.17937005
237	0x3e0ca7fc	0.13735956
238	0xbe281d6a	-0.1641747
239	0x3e21641f	0.1576085
240	0xbe977f92	-0.29589516
241	0x3e5266ff	0.20547102
242	0xbc721877	-0.014776341
243	0xbeb85ae5	-0.36006847
244	0xbcfe7fe7	-0.031066848
245	0x3e31226e	0.1729829
246	0x3e23b9a4	0.15988785
247	0xbdf43f06	-0.11926083
248	0x3e58df4e	0.21178934
249	0x3e3ea056	0.18615851
250	0xbe294dd7	-0.165336
251	0x3c54934b	0.0129745705
252	0xbcf439db	-0.029812744
253	0xbe4d28ab	-0.20035045
254	0x3d60ccf0	0.054882944
255	0xbdf65d82	-0.12029554

bias f4 [12]
0	0xbd068ab2	-0.032847114
1	0x3d73ac88	0.05949071
2	0xbe7e3522	-0.24824956
3	0xbe854f66	-0.2603714
4	0xbe807809	-0.2509158
5	0xbeae4735	-0.34038702
6	0xbeb54243	-0.35402116
7	0xbc40f240	-0.011776507
8	0xbe3cea53	-0.18448763
9	0xbd8817a7	-0.06645136
10	0xbeac2821	-0.33624366
11	0xbe83673e	-0.25664705

weight f4 [24, 12]
0	0xbdff5b85	-0.12468628
1	0x3e0f4f58	0.13995111
2	0xbdb669e0	-0.08906913
3	0xbdce0b7d	-0.10060785
4	0xbe1f4512	-0.15553692
5	0xbe0db8a0	-0.1383996
6	0x3d561758	0.052268356
7	0xbe694c3b	-0.22782986
8	0x3ea198d2	0.31561905
9	0xbdac497c	-0.084124535
10	0xbe66e4e2	-0.2254825
11	0x3d74e6e8	0.05979052
12	0x3d7f2d4a	0.06229905
13	0xbe355b4c	-0.17710608
14	0x3e1aabad	0.15104552
15	0x3e1ff8e5	0.1562229
16	0xbd94f6c4	-0.07273629
17	0x3e0b4147	0.1359912
18	0xbcc766f5	-0.024341086
19	0xbe83d2b7	-0.257467
20	0x3df1bdc7	0.11803775
21	0xbe10c84a	-0.14138904
22	0x3e1ee0ef	0.15515493
23	0x3e04c213	0.12964658
24	0xbe677177	-0.22601877
25	0x3e8aef12	0.2713552
26	0x3e5690d5	0.20953687
27	0xbcf7cdf9	-0.030249583
28	0xbd25124b	-0.04030065
29	0xbe2c13f0	-0.1680448
30	0x3ea6c9df	0.3257589
31	0xbe9e55df	-0.3092489
32	0xbd3d5550	-0.04622394
33	0x3dffc068	0.124878705
34	0xbe9a08e7	-0.30084917
35	0xbeb55134	-0.35413516
36	0xbeb3edbb	-0.3514231
37	0xbea196c7	-0.31560346
38	0x3dae7ddc	0.085200995
39	0x3e2be9c1	0.16788389
40	0x3ec8903c	0.39172542
41	0xbe4d03c4	-0.20020968
42	0x3d9b7ae0	0.07591796
43	0x3e57b51e	0.21065184
44	0xbe8a4cd8	-0.27011752
45	0x3dfc1ab6	0.12309782
46	0x3d41f696	0.047354303
47	0x3ea19114	0.31555998
48	0x3caff9aa	0.021481354
49	0xbe75c3cb	-0.2400047
50	0xbed8773f	-0.42278478
51	0x388af3d8	6.625772e-05
52	0xbe52791d	-0.20554014
53	0xbdcba931	-0.0994438
54	0x3e1cfb94	0.15330344
55	0xbe85f317	-0.26162025
56	0xbde3779a	-0.111067966
57	0x3e8188c0	0.25299644
58	0x3d3dfad9	0.046381805
59	0xbc65eb7b	-0.014033194
60	0x3e18b6b9	0.14913453
61	0x3dc2253e	0.0947976
62	0x3d1b0343	0.037844907
63	0xbe7ac952	-0.2449086
64	0xbe4287ff	-0.18997191
65	0xbdc9c291	-0.09851564
66	0xbd86266e	-0.06550299
67	0x3e4fef8e	0.20306227
68	0x3e6d1b79	0.23155011
69	0x3e97c482	0.2964211
70	0x3e8e77a7	0.27825662
71	0x3e050c2b	0.12992923
72	0xbe1f3040	-0.1554575
73	0x3d59b34d	0.05314951
74	0xbd0d5580	-0.034505367
75	0xbda9c81d	-0.08290122
76	0xbf178d92	-0.59200394
77	0xbe48d5f8	-0.19612873
78	0x3e2682a4	0.16260773
79	0xbea99bfe	-0.33126825
80	0x3ea5d201	0.32386783
81	0x3b3d8306	0.0028917207
82	0x3c154149	0.0091098035
83	0x3dee4e65	0.11636046
84	0x3e1e77b7	0.15475355
85	0x3bbf280b	0.005833631
86	0x3e536bc3	0.20646577
87	0xbd0d5080	-0.0345006
88	0x3e45928d	0.19294186
89	0xbd0e44b5	-0.034733493
90	0xbe1e6564	-0.15468365
91	0xbed21c9b	-0.4103745
92	0xbe1b7c82	-0.15184215
93	0x3e18ef29	0.14934982
94	0x3dc11737	0.09428256
95	0x3e6798b4	0.22616845
96	0xbe8ec759	-0.27886465
97	0x3e80a14e	0.25123066
98	0xbd62c898	-0.055367082
99	0x3d824087	0.06359964
100	0xbe7e07a0	-0.24807596
101	0xbd0b324f	-0.033983525
102	0xbe490ada	-0.19633046
103	0xbe0fef37	-0.14056097
104	0xbd63de22	-0.055631764
105	0x3db66fa5	0.08908013
106	0xbe049320	-0.12946749
107	0xbdbb61c7	-0.09149509
108	0x3e83d359	0.25747183
109	0x3e9d8f0c	0.307732
110	0x3e987556	0.2977702
111	0x3d86f3eb	0.065894924
112	0xbc9b62c2	-0.01896799
113	0x3e93b6e6	0.28850478
114	0x3e8aa961	0.2708235
115	0x3dc294d5	0.09501044
116	0xbe47ab63	-0.19498973
117	0x3e9ca691	0.3059583
118	0x3ad3a97a	0.001614853
119	0x3e338cd9	0.17534198
120	0x3d8f6e2f	0.07003438
121	0xbf19a6bc	-0.6002004
122	0xbeade4f0	-0.33963728
123	0xbe3832b2	-0.17988089
124	0xbe313c2a	-0.17308107
125	0x3e076dc1	0.13225462
126	0xbe8c4fb9	-0.27404574
127	0xbdb3ae75	-0.087735094
128	0x3dbebf2a	0.093138054
129	0xbe0f6eb4	-0.14007074
130	0xbeeb7cd0	-0.45993662
131	0xbea80f5c	-0.32824218
132	0xbe0de5c3	-0.13857178
133	0x3e00418e	0.12525007
134	0x3dc617b0	0.09672487
135	0xbeb7c34f	-0.35891196
136	0x3dd81001	0.105499275
137	0xbe8eaf4e	-0.27868122
138	0x3dda8a11	0.10670865
139	0xbd1fcef4	-0.039015725
140	0xbc054111	-0.008133189
141	0x3e6dbb68	0.23216021
142	0xbdc4b225	-0.09604291
143	0x3e81209f	0.252202
144	0xbe5813d7	-0.21101318
145	0xbe636bce	-0.22209093
146	0xbcd016e8	-0.025401548
147	0x3caeac3a	0.021322358
148	0xbe59ac1d	-0.21257062
149	0x3e8453c4	0.25845158
150	0x3e8f69c1	0.2801037
151	0x3e86b84f	0.2631249
152	0x3e3b8de2	0.18315843
153	0xbe78e1ef	-0.24304937
154	0x3e73331d	0.23749967
155	0x3a9bca35	0.0011885824
156	0xbd355c0a	-0.04427723
157	0xbde826b7	-0.11335509
158	0x3dc7d91a	0.09758206
159	0xbeafc319	-0.34328535
160	0xbe90e78e	-0.28301662
161	0xbdef4501	-0.11683083
162	0xbdcab1d5	-0.098972
163	0xbe247b25	-0.16062601
164	0xbd6e0ace	-0.058115773
165	0x3e4ef32e	0.20209953
166	0xbd2b8deb	-0.04188339
167	0x3ed2a0c9	0.41138294
168	0xbe49a26b	-0.19690864
169	0xbe16feb3	-0.14745598
170	0xbcce6c61	-0.025198163
171	0x3dc4f05d	0.09616158
172	0x3a872908	0.0010311911
173	0xbda8b4ff	-0.08237647
174	0x3d7534f9	0.05986497
175	0xbd81446c	-0.063118786
176	0x3de510e8	0.11184865
177	0x3c9341c4	0.017975695
178	0x3ce66871	0.028125973
179	0x3bed5ba8	0.0072435923
180	0xbe1c5511	-0.15266825
181	0xbe6d9180	-0.23200035
182	0x3eda09d5	0.42585626
183	0xbe4d6b1c	-0.2006039
184	0x3e70eac3	0.23527054
185	0x3e9800a8	0.29688
186	0x3e594993	0.21219473
187	0x3e87f230	0.26551962
188	0x3c96e362	0.018418971
189	0xbde2a09f	-0.11065792
190	0xbd9b7ba8	-0.07591945
191	0xbe9be99c	-0.30451667
192	0x3c1527bc	0.009103712
193	0xbd1de3b1	-0.03854722
194	0xbedaa8c8	-0.42706895
195	0xbe3de1a8	-0.18543112
196	0x3d172c52	0.0369075
197	0x3d52194c	0.051293656
198	0xbebd16e0	-0.36931515
199	0x3e5ad00e	0.21368429
200	0x3d37a67e	0.044836514
201	0xbda1de7a	-0.07903762
202	0xbe4d010d	-0.20019932
203	0x3c4ece11	0.012622372
204	0xbd6bcd1e	-0.057568662
205	0x3ebc53bf	0.36782643
206	0xbc3173e1	-0.01083085
207	0x3d84f3b2	0.06491794
208	0x3e84db91	0.25948766
209	0xbcfccfd1	-0.030860813
210	0xbe014aba	-0.12626162
211	0xbe5a2fa4	-0.21307236
212	0x3e13547f	0.14387701
213	0x3e6b8ea3	0.2300363
214	0xbde2b667	-0.11069947
215	0xbd6c69e1	-0.05771816
216	0xbc47bf6c	-0.012191635
217	0xbe39807e	-0.18115422
218	0xbcf04cd1	-0.029333504
219	0xbdf55796	-0.11979596
220	0x3e732242	0.23743537
221	0x3cd065a4	0.025439091
222	0xbe6bd2bf	-0.23029612
223	0x3df9603c	0.121765584
224	0xbe20f700	-0.15719223
225	0xbe32bae1	-0.17454101
226	0x3e2221c1	0.15833189
227	0xbe339a03	-0.1753922
228	0xbd851915	-0.06498925
229	0xbd3990cf	-0.045304116
230	0xbd9a7ff9	-0.0754394
231	0xbde8cd7a	-0.113673165
232	0x3e4a6734	0.19765931
233	0xbbb7d6af	-0.005610309
234	0xbddecfb4	-0.1087946
235	0xbe566d6f	-0.20940183
236	0x3e5d00d0	0.21582341
237	0xbe9d6178	-0.30738425
238	0x3d062234	0.032747462
239	0xbe2d9637	-0.16951834
240	0x3ca5dac4	0.020245917
241	0xbd3b5d8f	-0.04574352
242	0x3d849b09	0.06474883
243	0xbe96491f	-0.29352662
244	0x3d8f2f37	0.069914274
245	0xbe7079d6	-0.23483977
246	0x3e5438ee	0.20724842
247	0x3dcba64e	0.099438295
248	0xbe0a76e3	-0.13521914
249	0x3d967738	0.07346958
250	0x3e75b7c9	0.2399589
251	0x3ee66107	0.449959
252	0x3dcd091e	0.100115046
253	0x3e35718f	0.177191
254	0xbda6dd8d	-0.08147726
255	0x3eddd179	0.43323877

bias f4 [24]
0	0xbec029d1	-0.37531903
1	0x3cb520a4	0.02211029
2	0xbe76c5e7	-0.24098931
3	0x3e218065	0.15771635
4	0xbd0dd6a5	-0.03462853
5	0x3c4338cf	0.0119154
6	0x3db2d414	0.08731857
7	0x3e395366	0.1809822
8	0xbd244702	-0.04010678
9	0xbac7b8dc	-0.0015237588
10	0x3e4af52f	0.19820093
11	0xbdd49041	-0.10379077
12	0x3cfaa74c	0.030597351
13	0x3c0b281a	0.008493448
14	0xbdd8a24d	-0.105778314
15	0xbe077565	-0.13228376
16	0xbe9d1745	-0.30681816
17	0xbe6d34ff	-0.23164748
18	0xbe8d217d	-0.27564612
19	0x3e98f35b	0.29873165
20	0xbdbd40eb	-0.09240898
21	0xbe8bc201	-0.2729645
22	0xbe5785e3	-0.21047167
23	0xbca374aa	-0.01995309

weight f4 [24]
0	0x3f8c58a3	1.096455
1	0x3f5e6978	0.8687968
2	0x3f663e99	0.89939266
3	0x3f629ab3	0.885173
4	0x3f6be1e2	0.92141545
5	0x3f4b17e5	0.79333335
6	0x3f56724f	0.8376817
7	0x3f882b2d	1.0638176
8	0x3f425aab	0.759196
9	0x3f506e29	0.8141809
10	0x3f26b730	0.6512327
11	0x3f70856d	0.9395359
12	0x3f7235aa	0.94613135
13	0x3f825360	1.0181694
14	0x3f624e3c	0.88400626
15	0x3f61c22c	0.8818691
16	0x3f48c532	0.78425896
17	0x3f5c4775	0.86046535
18	0x3f89739a	1.0738404
19	0x3f374e94	0.71604276
20	0x3f80ba16	1.0056789
21	0x3f713a64	0.9422972
22	0x3f2c1af6	0.6722864
23	0x3f3d46f1	0.73936373

bias f4 [24]
0	0xbe407b2a	-0.18796983
1	0xbdbb7b2a	-0.09154351
2	0x3d905c3d	0.07048843
3	0xbdf8147e	-0.121132836
4	0x3c34981a	0.011022592
5	0x3da848b8	0.08216995
6	0xbd8405fd	-0.06446455
7	0x3d5c1986	0.05373528
8	0xbd11671c	-0.035498723
9	0x3ddbb100	0.107271194
10	0xbda1a026	-0.07891874
11	0x3d3839c4	0.044976965
12	0x3d79f87f	0.061028
13	0xbe384775	-0.17996009
14	0xbda2aa12	-0.079425946
15	0x3da8c66a	0.082409695
16	0xbe18c4de	-0.14918849
17	0xbd45c94a	-0.048287667
18	0x3e0382f0	0.12842917
19	0x3d8b2b6b	0.06795391
20	0xbdd16069	-0.10223467
21	0x3db1105e	0.086457
22	0x3e49833a	0.19678965
23	0xbd16c1a8	-0.03680578

weight f4 [72, 24]
0	0xbc3b3509	-0.011426219
1	0x3dea15fc	0.114299744
2	0x3ed621a5	0.41822544
3	0x3d7f67b5	0.062354762
4	0x3cf39e48	0.02973856
5	0xbd03955d	-0.032124866
6	0x3d970732	0.07374419
7	0xbcf35050	-0.029701382
8	0xbe4de603	-0.20107274
9	0x3e47bd9e	0.19505927
10	0xbda93c1b	-0.08263417
11	0xbd54953d	-0.051900137
12	0x3bedeb97	0.0072607505
13	0x3cbeef93	0.023307597
14	0xbe18d043	-0.14923196
15	0xbe92a90f	-0.28644606
16	0xbce8fbcb	-0.028440377
17	0xbe43f08a	-0.19134727
18	0xbd11be37	-0.035581794
19	0x3e67fbe9	0.2265469
20	0x3e5732ce	0.21015474
21	0x3e399d0d	0.18126316
22	0xbdbf545f	-0.093422644
23	0xbee28357	-0.4424083
24	0x3d542e26	0.051801823
25	0x3e8931b3	0.2679573
26	0x3e96ff3e	0.2949161
27	0xbeaf11c4	-0.34193242
28	0x3e35ce8b	0.17754571
29	0xbd84e95a	-0.06489821
30	0x3db6afda	0.0892026
31	0xbeec5b92	-0.46163613
32	0x3dc44106	0.09582715
33	0x3c9cc34a	0.01913609
34	0xbd3443f6	-0.044010125
35	0xbccda80b	-0.025104543
36	0xbf2d47fc	-0.67687964
37	0xbe70efbe	-0.23528954
38	0x3e7440e7	0.23852883
39	0x3ee4e3ba	0.44704992
40	0x3e0f12e6	0.13972053
41	0x3d0d7f78	0.03454539
42	0x3f161edb	0.5864083
43	0xbe4fef1a	-0.20306054
44	0xbe4dac0c	-0.20085162
45	0x3e8a7558	0.2704265
46	0x3c800ccb	0.0156311
47	0xbda6e889	-0.08149821
48	0xbea56b7c	-0.32308567
49	0x3e803264	0.25038445
50	0xbe8a7320	-0.27040958
51	0xbe5ad6b5	-0.21370967
52	0xbe169adb	-0.1470751
53	0xbe8842fc	-0.26613605
54	0x3e075d26	0.13219127
55	0x3f0ed4e0	0.5579357
56	0x3c2896a1	0.010289819
57	0x3eb305b2	0.34965283
58	0xbd6fca51	-0.058542553
59	0x3e06a043	0.13147072
60	0xbe03d981	-0.1287594
61	0x3e08cd56	0.1335958
62	0x3e316ee4	0.17327458
63	0xbec165ac	-0.37772882
64	0xbdc170bd	-0.09445331
65	0xbd5bca75	-0.053659875
66	0x3d4ea70d	0.05045228
67	0x3dc9383e	0.098251805
68	0x3e701c18	0.23448217
69	0x3cd78ddb	0.02631276
70	0xbeeb2fea	-0.45934993
71	0x3d5151f7	0.05110356
72	0x3ec9c737	0.394098
73	0xbebbd16e	-0.3668322
74	0x3e6b0458	0.22950876
75	0xbdec6c18	-0.11544055
76	0x3df1c2c3	0.11804726
77	0xbd891859	-0.06694097
78	0x3dde35aa	0.10850079
79	0xbed8babd	-0.4232997
80	0x3e721204	0.23639685
81	0xbf0d16d3	-0.5511295
82	0x3eb88816	0.36041325
83	0xbe99088e	-0.2988934
84	0xbe7345f8	-0.2375716
85	0x3e84905c	0.25891387
86	0x3d1e9497	0.038715925
87	0x3eb257f4	0.34832728
88	0x3dba493b	0.09095999
89	0x3e033458	0.12812936
90	0x3d5b9b20	0.053614736
91	0xbe564cc2	-0.20927718
92	0xbe9240a3	-0.2856494
93	0xbe0a8548	-0.13527405
94	0x3ef06341	0.46950725
95	0x3c3cad46	0.011515921
96	0xbe976453	-0.2956873
97	0x3e39c39a	0.18141022
98	0xbe1c22a5	-0.15247591
99	0x3ea279a4	0.3173343
100	0x3e7d0389	0.2470838
101	0x3cbc1422	0.022958819
102	0xbf1c5b26	-0.6107658
103	0x3ef9665d	0.4871091
104	0xbbf6a523	-0.00752701
105	0xbe898a3e	-0.26863283
106	0x3e3ea3c9	0.18617167
107	0xbed66423	-0.41873273
108	0x3e1e35af	0.15450166
109	0x3d6cc7ad	0.057807613
110	0xbe6940fa	-0.22778693
111	0xbcc2cc74	-0.023779131
112	0xbdcb75b9	-0.09934563
113	0x3e0b1975	0.1358393
114	0xbca3831c	-0.019959979
115	0xbe541b00	-0.20713425
116	0xbda4a1ef	-0.08038699
117	0x3c011b89	0.0078801
118	0xbd4e2f28	-0.05033794
119	0x3ead1b39	0.33809832
120	0xbf3336c1	-0.7000542
121	0xbe942c45	-0.28940025
122	0x3efd15f3	0.49430808
123	0x3eb618ca	0.35565788
124	0x3e452863	0.19253688
125	0x3f2fe204	0.6870425
126	0x3e4a911a	0.19781914
127	0xbd4fd306	-0.050738357
128	0xbe26e0d0	-0.16296697
129	0xbe001c5b	-0.12510817
130	0xbc3a295f	-0.011362403
131	0x3e0c135b	0.13679259
132	0x3dfe0085	0.12402443
133	0xbd9aeabd	-0.07564304
134	0xbe8b2f9b	-0.27184758
135	0x3e8ad797	0.27117607
136	0xbe672c96	-0.22575602
137	0xbe3c3601	-0.18379976
138	0xbe028019	-0.12744178
139	0x3ebbb9dd	0.3666524
140	0x3ebd0b9e	0.36922926
141	0x3cdc5fff	0.026901243
142	0xbcac4ea2	-0.021033589
143	0xbe076bf2	-0.13224772
144	0xbe069c9d	-0.1314568
145	0xbecd72f1	-0.40126756
146	0x3e9b9900	0.30390167
147	0xbecd463d	-0.4009265
148	0xbe8b2b83	-0.27181634
149	0x3e181a71	0.14853837
150	0x3ebc591c	0.36786735
151	0x3e6c9f6c	0.2310769
152	0x3d843f3c	0.064573735
153	0x3d5b85ef	0.053594526
154	0xbe2bccf7	-0.16777407
155	0xbe3c10f7	-0.18365847
156	0x3d8e6af9	0.06953997
157	0xbd800aa2	-0.06252028
158	0xbe7e1a9e	-0.24814841
159	0xbf1c5c36	-0.610782
160	0x3d755b1f	0.059901353
161	0x3daf98cf	0.08574068
162	0xbdb7ab0c	-0.089681715
163	0x3e74b335	0.23896487
164	0x3e3beea9	0.1835276
165	0x3d0a10d4	0.033707455
166	0x3e159530	0.14607692
167	0x3dd6805e	0.10473703
168	0x3ee8c538	0.45462966
169	0x3f02eec1	0.5114556
170	0x3e2348d0	0.15945745
171	0x3db1fb13	0.08690467
172	0x3e285de3	0.16442065
173	0x3eb175af	0.34660098
174	0xbe19a5f3	-0.15004711
175	0x3e151bd2	0.14561394
176	0xbe2f9c88	-0.17149556
177	0xbce1723a	-0.027520288
178	0xbd9872c4	-0.07443765
179	0x3c9944f1	0.018709632
180	0x3efb5e2a	0.4909528
181	0x3e1ff0c6	0.15619192
182	0x3e0bedfa	0.13665
183	0x3ea32b48	0.31868958
184	0x3e062c4b	0.13102834
185	0xbdfe7d83	-0.12426283
186	0xbf04ac7d	-0.51825696
187	0xbcaf6008	-0.021408096
188	0xbdd50bec	-0.104026645
189	0xbecbe570	-0.39823484
190	0xbdacb64b	-0.08433207
191	0x3cb6d00a	0.022315998
192	0xbe1fda63	-0.15610652
193	0x3db87891	0.09007371
194	0xbdf91391	-0.12161935
195	0x3d34515c	0.044022903
196	0x3d9828ed	0.07429681
197	0x3e8712dd	0.2638158
198	0x3c69bc4f	0.014266088
199	0x3db1e4db	0.08686229
200	0xbe9df6b9	-0.30852297
201	0x3e88c5dc	0.26713455
202	0xbe404b44	-0.18778712
203	0x3dcc5f0d	0.09979067
204	0xbdd36bc5	-0.1032329
205	0x3d998a32	0.07497062
206	0xbca160e7	-0.019699527
207	0xbd963439	-0.073341794
208	0x3da4fdd8	0.08056229
209	0x3d1bfdf4	0.038083985
210	0x3a0d1ff7	0.0005383486
211	0x3e6254b8	0.2210263
212	0x3e4386fc	0.19094461
213	0x3e30be80	0.1726017
214	0x3dec8be7	0.11550122
215	0xbeabfbfa	-0.3359068
216	0x3ed9b46b	0.4252046
217	0x3d01f4b2	0.0317275
218	0xbe864c62	-0.2623015
219	0xbcbac613	-0.022799527
220	0xbe57e1c4	-0.21082217
221	0x3d4ef09e	0.05052244
222	0xbe499ae5	-0.19687994
223	0x3ef6ef3a	0.4822939
224	0xbde1027f	-0.10986804
225	0x3d565052	0.052322693
226	0x3e564522	0.2092481
227	0xbe4996eb	-0.19686477
228	0xbdff5b7e	-0.124686226
229	0x3e64efdf	0.22357129
230	0xbdf4f75b	-0.11961242
231	0xbeca71fe	-0.39540094
232	0x3ea5f47a	0.32413083
233	0xbe43a6f7	-0.19106661
234	0xbea82f40	-0.3284855
235	0x3daf5a4c	0.08562145
236	0x3db09c7b	0.08623596
237	0xbd98f1ef	-0.0746802
238	0xbd267bfc	-0.040645584
239	0x3e05a8fc	0.13052744
240	0x3ec3008f	0.38086364
241	0xbd9762c1	-0.07391883
242	0x3f10f1c4	0.56618905
243	0xbe8d9afe	-0.27657312
244	0xbe894212	-0.2680822
245	0x3ea11e9d	0.3146867
246	0xbf1d4594	-0.6143429
247	0xbe4e6a89	-0.20157827
248	0xbd05a2bb	-0.032625895
249	0xbe8a39c5	-0.269972
250	0x3c24ea38	0.010065608
251	0xbe92b20d	-0.28651467
252	0x3df09ed3	0.11749043
253	0xbce66269	-0.028123097
254	0x3f0557e2	0.52087224
255	0x3f136532	0.57576287
