Examples/verification/training/models/verification_8x8/vit_6_1_6_12.pt (torch, 14992 bytes, 19 tensors)

pos_embedding f4 [1, 17, 6]
000000 66 63 0d c0 39 d0 91 be 0c ac a5 bf 89 01 47 bf
       -2.2091918 -0.28479174 -1.294313 -0.7773672
000010 0b f8 5f be 85 f7 c2 3f b7 ff 54 be 85 9e 54 bc
       -0.21871965 1.5231787 -0.20800672 -0.012977247
000020 8c f3 22 bf 8a 8d 6f 3d a0 f6 f7 bf 43 76 5c 3f
       -0.63652873 0.05848459 -1.9372139 0.86117953
000030 50 1f d4 bf de d0 9c bd f8 0d 9d bf c9 75 07 3f
       -1.6572056 -0.07657026 -1.2269888 0.529141
000040 aa 20 a6 bf d5 89 c4 3d f0 ed 82 bf 2a d9 84 3e
       -1.2978718 0.09596602 -1.0228863 0.25946933
000050 15 38 8f be fa 84 38 3e 24 dd 22 bf 57 57 8f 3f
       -0.27972475 0.18019477 -0.63618684 1.1198529
000060 82 36 df bf c5 8d 57 bf 52 12 85 bf 1e bd 71 bf
       -1.743851 -0.842007 -1.0396216 -0.94429195
000070 16 3b 36 3e c2 20 58 3f b5 80 b9 3e 2e 28 eb 3f
       0.17795977 0.84424984 0.36231008 1.8371637
000080 26 44 84 3f ec a8 92 bf a5 94 4b 3f 5f 23 b1 3f
       1.0333297 -1.1457801 0.7952369 1.3838919
000090 90 c2 c3 3f 73 a5 72 3f 82 08 a6 bd f2 31 35 3f
       1.5293751 0.94783705 -0.081070915 0.70779335
0000a0 ad 2d 9a bf ea 41 0a bf c7 62 aa 3e ba a6 08 3e
       -1.2045189 -0.54006827 0.33278486 0.13344851
0000b0 88 37 1c 3f 27 c0 2b bf 1a 0c 6a 3e 60 f9 a6 3d
       0.61022234 -0.67090076 0.22856179 0.08153033
0000c0 9b 1e 2c 3f 13 8d 80 3f 71 df 63 3d 10 83 02 bf
       0.672342 1.0043052 0.055633012 -0.50981236
0000d0 74 54 8e bf c6 d0 56 bf 02 34 c4 3e ec 4d 9c 3f
       -1.1119523 -0.83912313 0.3832093 1.221128
0000e0 b2 7d e3 bf ee 06 41 3f f8 c1 fd 3d 47 76 2f 3e
       -1.7772734 0.754012 0.12390512 0.17134963
0000f0 1c a0 65 be 5e a3 13 be 76 41 1b c0 70 25 13 be
       -0.22424358 -0.14417788 -2.4258704 -0.1436975
000100 39 3c de bd ea d1 d9 3f 15 21 41 c0 6f 61 46 3f
       -0.1085133 1.7017186 -3.0176442 0.7749242
000110 b5 b2 21 be 6e 2a 2f 3e 3e 58 46 3f 3d 90 21 3f
       -0.15790828 0.1710603 0.77478397 0.63110715
000120 12 02 d1 bd 40 cb de 3e 4d f1 ea 3e b7 93 19 3f
       -0.10205473 0.43514442 0.45887223 0.5999102
000130 95 60 31 3e 28 12 9e 3c 8d 29 f4 3e 06 c6 8b 3f
       0.17322 0.019295767 0.4768795 1.0919807
000140 a3 26 ba bf 94 2b d0 3e 7b a0 6f bf ef fe b8 be
       -1.4543041 0.40658247 -0.9360425 -0.36132
000150 8c f2 68 bc dd 96 3e 3e 8a eb 06 3e b8 18 87 3f
       -0.014217984 0.18612237 0.13175789 1.0554419
000160 45 06 03 3f 9b 47 20 3f 1a df f3 3d 64 e4 f9 bb
       0.5118144 0.6260926 0.119077876 -0.0076261032
000170 86 0b b9 bd 99 0b de 3e 37 d7 a2 3e 1d d7 87 3e
       -0.09035401 0.43368223 0.3180482 0.26531306
000180 f5 c7 44 be 0c 62 16 3f 70 3c d0 bc 76 13 3e bf
       -0.19216903 0.5874336 -0.025419444 -0.74248445
000190 cc d7 32 bf 41 1c 15 bf
       -0.6986053 -0.5824624

cls_token f4 [1, 1, 6]
000000 96 1d 14 3d c6 b0 22 be 6a a2 9e bf a7 bd e5 be
       0.036161028 -0.15887746 -1.2393315 -0.44871256
000010 06 3f 0d 3f 61 d3 e5 3e
       0.5517429 0.44887832

weight f4 [6, 4]
000000 cc bb 51 3f 0a 9e 9b 3e 15 f7 50 bf 17 7d fc 3e
       0.8192718 0.30394012 -0.8162702 0.49314186
000010 07 ed f1 be e6 36 1a bf 1a 47 21 be cf ec 42 be
       -0.4725115 -0.6024002 -0.1574978 -0.19035648
000020 f0 83 19 3f 3a 30 33 bf 02 49 ec 3e c5 a8 4f 3f
       0.59966946 -0.6999546 0.4614945 0.81116897
000030 fe e4 1a 3f 84 09 36 3f d3 df 00 3f 2a f6 50 be
       0.60505664 0.7110827 0.5034153 -0.20406404
000040 26 98 44 3f 64 48 3b 3f 19 1a 62 bf 16 cc 6e bf
       0.7679466 0.73157334 -0.8832107 -0.9328016
000050 34 e2 63 bf 8a 7f 6b 3c b7 06 6e 3e d0 1f 2e 3f
       -0.89017034 0.014373669 0.23244749 0.6801729

bias f4 [6]
000000 a0 68 4a be 9a 4e c0 be 48 53 fb 3d 26 d8 34 bf
       -0.19766474 -0.37559968 0.12271744 -0.70642316
000010 52 af cc 38 4e 48 01 bf
       9.760134e-05 -0.50500953

weight f4 [6]
000000 6c eb ad 3f 03 66 ce 3f 69 4c 94 3f 80 f9 93 3f
       1.358747 1.6124882 1.1585819 1.1560516
000010 24 1f 9c 3f 83 06 a0 3f
       1.2197003 1.2501987

bias f4 [6]
000000 c1 05 13 3c af cc f7 bc 3e c6 57 bd 42 7d 07 3d
       0.00897354 -0.030248968 -0.052679293 0.03307844
000010 e0 22 84 3c 0a ba 4c 3d
       0.016129911 0.04998211

weight f4 [18, 6]
000000 95 91 f3 bd 7a f5 0a 3f 8f a7 d6 be fd 58 52 bf
       -0.11893002 0.5428082 -0.41924712 -0.82167035
000010 af b5 28 3f 26 a3 d6 3e 8f 71 14 bf ae 2e 39 3f
       0.6590223 0.41921347 -0.57985777 0.7233685
000020 a3 7c 97 be cc 8e 14 bf d7 e7 39 3e c2 d5 b9 3e
       -0.29587278 -0.5803039 0.18154846 0.36295897
000030 45 e6 fa bd d9 d4 53 3e 09 34 14 bf 62 43 f0 be
       -0.12250952 0.20686664 -0.578919 -0.4692641
000040 21 70 2e 3d 1c 5c fc 3e 1e 0e ec 3e d2 b8 0f bf
       0.042587403 0.49289024 0.4610452 -0.5614139
000050 ca 22 75 3e 5d d9 b1 3e f9 84 9a bd d9 d4 92 be
       0.23939052 0.34736148 -0.07544894 -0.28678015
000060 49 a8 e4 3e 0c 39 13 3d 17 f6 bc 3e 9d 8e 05 3e
       0.4465964 0.035943076 0.36906502 0.13042684
000070 3a 4c a1 be 5c ed 3b be bc 1c 96 3d 9f 2c ae be
       -0.3150347 -0.18352264 0.073296994 -0.34018418
000080 0f ff be 3e bc 5e 00 3f 44 80 2a be a9 21 58 be
       0.3730397 0.50144553 -0.16650492 -0.2110659
000090 e8 af ce 3c 91 d5 85 be c1 b1 01 3f fd 78 0a 3f
       0.025230363 -0.261395 0.50661856 0.54090863
0000a0 1c bd 14 bf f5 ff 11 be a8 6b 83 3f 76 b6 49 bd
       -0.5810106 -0.14257796 1.0267229 -0.049246274
0000b0 88 c9 8d 3d 6c a7 18 bf 74 11 c6 3d cf c1 9d be
       0.06923205 -0.59630466 0.09671298 -0.30811927
0000c0 86 0e 61 bf 25 96 c6 3e 79 11 25 3e de 8b b5 3e
       -0.87912786 0.38786426 0.16119947 0.35458273
0000d0 7e 72 50 3e fb d3 8b be 11 cd 41 be b6 94 27 3f
       0.20356175 -0.27310166 -0.18925883 0.6546129
0000e0 f3 03 08 3e 80 82 a3 be 00 ca 8e 3e c5 95 7f be
       0.13282757 -0.319355 0.2788849 -0.24959476
0000f0 fd 75 17 bf 70 49 ee 3e 0c 0f 18 bf 03 c4 b5 3e
       -0.5916441 0.46540403 -0.5939796 0.35501108
000100 a0 92 0d 3f 2b b6 3e 3e f9 11 a2 3e 93 85 34 3e
       0.55301857 0.18624179 0.31654337 0.1762908
000110 78 60 ad bd a8 70 ea be c5 b3 5b bf 6d ea 17 3f
       -0.084656656 -0.45789075 -0.8582118 0.5934208
000120 cd 21 5a 3f 63 93 08 3e 07 23 7b 3e f5 22 5e 3d
       0.85207826 0.13337474 0.2452508 0.054232556
000130 6d eb 99 be 16 a5 fa be fa b8 dc bd 8d 45 65 bf
       -0.30062428 -0.48954076 -0.10777469 -0.8955925
000140 4d c5 61 3e 21 cc 23 be 55 12 48 3e bb cd d8 be
       0.2204792 -0.15995838 0.19538243 -0.4234446
000150 1c 2d 33 bd 42 32 ab be 2a 9b 04 bf f7 d9 96 3f
       -0.04374419 -0.3343678 -0.5179926 1.1785268
000160 37 56 de bd cf c8 c5 3f 4a 15 a4 be 1f 44 77 be
       -0.10856288 1.5451907 -0.32047492 -0.2414708
000170 ee 96 33 3f 7f e6 fa 3d 6a 09 8f be 51 9f 6b bf
       0.70152175 0.12250995 -0.2793687 -0.9203997
000180 e6 cf 07 3e dc f7 05 bf ba 28 44 3f 76 6a 21 3e
       0.132629 -0.5233133 0.76624644 0.15763268
000190 44 18 e2 3e 57 02 30 bf ea 9b 84 3f 24 fa 52 bf
       0.44159138 -0.6875357 1.0360081 -0.82412934
0001a0 e0 58 e8 be a3 79 9b 3e e7 ae 83 3e cf 80 7e be
       -0.45380306 0.3036624 0.25719377 -0.24853824

weight f4 [6, 6]
000000 5b 7f 9e 3e a4 dd 80 3f 65 1d cf bb d7 b4 71 bf
       0.3095654 1.0067639 -0.006320643 -0.94416565
000010 61 69 1c 3e c8 f8 be 3d a5 d0 1f 3f 0a 5c 4f be
       0.15274574 0.09324795 0.6242774 -0.20249954
000020 8a 87 f1 bd 40 a7 62 3f 0a 06 8a 3e d5 c0 16 bf
       -0.1179343 0.88536453 0.26957732 -0.5888799
000030 0c 81 b6 be 91 0e 28 bf 03 fd 44 bf d0 02 78 bf
       -0.3564533 -0.65647227 -0.76948565 -0.9687929
000040 38 b4 3c 3e 0b bf c5 be 66 3a 1d bf 90 e5 21 3e
       0.18428123 -0.38622317 -0.61417234 0.15810227
000050 cd 85 be bd f0 45 fb 3e 91 1f 8a 3d 87 3c 8f 3f
       -0.09302864 0.49076796 0.06744302 1.1190346
000060 15 d6 56 bf e6 c7 1b be 33 ec 4b 3f 91 0f 9d bd
       -0.83920413 -0.15212974 0.79657286 -0.07668985
000070 ea 99 f4 3e db 17 30 bf f1 fb c8 3e 52 4b 01 bf
       0.47773677 -0.687864 0.39254716 -0.50505555
000080 ba ef 49 3f 0a 54 0f bf d0 3f 6c bf 36 10 20 be
       0.7888142 -0.5598761 -0.9228487 -0.15631184

bias f4 [6]
000000 9a 28 6a be 8c 94 8e 3e 17 f4 c4 bd 00 3b 42 3e
       -0.22867051 0.27847707 -0.09616869 0.18967819
000010 c1 c3 38 be 17 ae 28 be
       -0.18043424 -0.1647266

weight f4 [6]
000000 51 1b 86 3f 8d f2 7f 3f bb 08 81 3f 9d dd e0 3f
       1.0477086 0.9997948 1.0080789 1.7567631
000010 16 f2 86 3f 32 23 6f 3f
       1.0542629 0.9341308

bias f4 [6]
000000 00 f2 61 3d 58 7e 19 bd 88 1e c9 3b 1b 3f e2 3d
       0.05516243 -0.037474006 0.006137673 0.11047193
000010 e9 1a 87 3b 16 43 20 be
       0.004123081 -0.15650591

weight f4 [12, 6]
000000 82 29 f7 3e 51 7e 85 3d 50 4c 8d be 6b 9b b2 3d
       0.48273855 0.065182336 -0.27597284 0.0872105
000010 fd 82 13 3f 5b 9d 01 3d 0a d4 18 3f a1 ab f9 3e
       0.5762175 0.031644206 0.59698546 0.48763755
000020 ac 46 8c be de a3 1d 3f 44 1f b6 be f3 41 15 be
       -0.27397668 0.61578166 -0.3557073 -0.14575939
000030 20 5a 79 3f 13 a8 b3 3d e7 f1 88 be de db cc be
       0.97403145 0.08772292 -0.26747057 -0.40011495
000040 28 1a f4 3d 4f d2 16 bf 7d 6d a6 be 2f 05 ab 3e
       0.119190514 -0.58914655 -0.32505408 0.33402392
000050 05 32 06 3e 6f d4 f5 3e 6b 93 80 be 26 25 05 bf
       0.13105018 0.48013636 -0.2511247 -0.5200981
000060 1d 83 42 3f 33 c3 64 be ca 60 35 be c8 7e 45 3f
       0.75981313 -0.22340088 -0.17712703 0.7714658
000070 99 ec d4 be 73 88 79 be eb 39 3f 3e b0 20 14 3e
       -0.4158676 -0.24368457 0.18674438 0.14465594
000080 d1 d2 b5 be 76 26 15 bf b2 84 11 bf e5 d0 32 be
       -0.35512403 -0.5826181 -0.568431 -0.174625
000090 a1 cd 8a be 39 a3 4e bc 75 c5 e7 be 1f 92 cf 3e
       -0.27110007 -0.0126121575 -0.45267835 0.4054117
0000a0 0c de 03 3f d3 34 ea 3e 34 bf 6a 3f 10 08 26 b8
       0.5151069 0.45743427 0.91698 -3.9584993e-05
0000b0 f7 09 c5 be 4e d0 a2 bd 5f 87 36 3f 34 2b 80 be
       -0.38484165 -0.07949887 0.7130031 -0.2503296
0000c0 f0 ad d9 bd 6a 93 61 3f 1f 90 9c be 71 89 1e be
       -0.10628879 0.8811556 -0.30578706 -0.15482117
0000d0 fa 0a 0e bf 45 72 a3 bc e8 3c 67 3e eb 70 13 3e
       -0.554855 -0.019951949 0.22581828 0.14398544
0000e0 5a a2 8d 3e 8e af 6d bf 75 9a 36 be d0 35 22 3c
       0.27662927 -0.92846 -0.17832358 0.009900525
0000f0 27 d2 b8 3e 30 d5 74 3c b7 b7 d0 be ef 6b 21 3c
       0.36097834 0.014943406 -0.40765163 0.0098523935
000100 3f 8d 19 bf bf dc 15 3e af 4a 64 3e 3e c0 82 3d
       -0.5998115 0.14634989 0.22294115 0.063843235
000110 b9 5e 03 3f 12 b9 3d be b5 b0 85 3d cf 57 f1 be
       0.5131641 -0.1852763 0.06527845 -0.47137305

bias f4 [12]
000000 f3 1c 90 3d ca c0 a9 3e aa 24 a8 bd f0 c6 c5 3e
       0.070367716 0.331549 -0.08210118 0.3862834
000010 b5 b4 02 be 01 1c 16 be 80 8e 16 3f 74 cf 80 be
       -0.12764247 -0.1465912 0.5881119 -0.25158274
000020 9f ad 08 3d 40 25 07 be 74 d7 cc 3e ce 1b a0 3c
       0.033368703 -0.13197803 0.40008128 0.019544508

weight f4 [6, 12]
000000 8d 48 1a bd 4a 65 d1 be e2 15 2c be d4 f4 59 3d
       -0.037666846 -0.4089759 -0.16805223 0.053212002
000010 98 51 39 3e ac 83 08 bf a0 71 7c 3e 78 4c 90 3e
       0.18097532 -0.53325915 0.2465272 0.2818334
000020 09 11 eb 3e a5 3f 6b 3f c6 de 93 be cc 61 e7 bd
       0.45911434 0.9189399 -0.288809 -0.1129795
000030 34 46 67 be 5b b3 16 be ad 52 33 bd 96 9c 49 be
       -0.22585374 -0.14716856 -0.043780018 -0.19688639
000040 09 d6 9a be 2e 7c d8 3e f6 4d 26 3e e7 da 8a 3e
       -0.3024142 0.42282242 0.16240677 0.27120134
000050 58 77 42 be 9e 59 cb be 24 fd 02 3d 7c d8 e0 39
       -0.18990839 -0.3971681 0.031979695 0.00042885903
000060 f5 7f d9 bd 7a 23 8d 3e cd 01 66 3f 7f c5 9b be
       -0.10620109 0.2756613 0.898465 -0.30424115
000070 2d 9e 85 3b 67 d3 f6 3d 0b be 15 3f 31 67 d1 3e
       0.004077694 0.120520405 0.5849311 0.4089904
000080 65 d4 ca 3e 6b 79 9f be 89 00 95 3d 8c 92 77 3d
       0.3961517 -0.31147322 0.07275493 0.060442492
000090 d2 f4 c0 3e 77 26 38 3f ed 1d 43 bc 4c d8 7f be
       0.37686783 0.7193369 -0.01190899 -0.24984854
0000a0 f3 9c 88 bf 7c bc c7 3d 69 26 f7 ba ac 2d 35 bf
       -1.0672897 0.097527474 -0.0018856052 -0.70772815
0000b0 77 03 94 be 43 9d 1a bd 29 75 82 3e 5c 97 ff 3d
       -0.28908893 -0.037747633 0.2548001 0.124800414
0000c0 69 c5 13 3d 7e 9a 49 3e f6 f4 29 bf 51 b6 96 3d
       0.036076937 0.1968784 -0.66389406 0.07358993
0000d0 a4 26 a5 3d 7d 72 87 3e a7 52 fe 3d 9f 3e aa 3e
       0.08064011 0.26454535 0.124181084 0.332509
0000e0 f6 bc 70 bb 81 19 4f bf d6 44 0c bf 1a de e4 3c
       -0.0036733723 -0.8089829 -0.54792535 0.027937938
0000f0 0a 8f 4b be 99 67 03 bf 90 c9 78 be 40 5a 98 3f
       -0.19878784 -0.5132995 -0.2429564 1.1902542
000100 94 4a bc 3e de a4 a7 be f4 a4 01 bf 6a 8b 89 be
       0.3677565 -0.3274297 -0.50642323 -0.26864177
000110 8e 91 47 be 32 64 ee bd 51 d1 55 be 49 fa ec bd
       -0.19489118 -0.116402045 -0.20880629 -0.115711756

bias f4 [6]
000000 5a 23 03 3d 30 33 45 be 7c d7 42 3f 5b 7c 48 3e
       0.032016136 -0.19257808 0.76110053 0.19578688
000010 f9 0b cf 3d e0 75 89 be
       0.101097055 -0.26847744

weight f4 [6]
000000 4b 8a 0d 40 2f 14 1b 40 f2 09 22 40 cd 7c 08 40
       2.2115657 2.423107 2.531857 2.1326172
000010 f1 94 ed 3f 4c 72 07 40
       1.8561078 2.1163511

bias f4 [6]
000000 75 b6 6d 3e ba b8 10 3f b1 f7 27 3f 0b 9f 09 3f
       0.23214133 0.5653187 0.6561232 0.53758305
000010 36 94 36 3f 9b 4a f7 be
       0.713199 -0.48299107

weight f4 [10, 6]
000000 55 b3 8e 3f ed 99 46 bf fe 92 7a bf c8 76 00 3f
       1.1148478 -0.7757862 -0.9788054 0.50181246
000010 b6 e2 c3 be 69 25 13 bf 26 3e 9f bf 57 22 89 be
       -0.38258904 -0.5747896 -1.2440841 -0.26784012
000020 78 67 ac 3f e4 89 35 bf 44 b2 61 be ff 12 1a bd
       1.3469076 -0.7091353 -0.22040659 -0.037615772
000030 70 60 dc 3e 5e 06 34 bf 4c d0 1b 3f 3c 2b 51 bd
       0.43042326 -0.70322216 0.6086471 -0.051066622
000040 41 6d 89 3f 8b b1 97 bc 2f 3e 36 bf 01 52 0d 3e
       1.0736467 -0.018517276 -0.71188635 0.13800813
000050 00 bd 69 3e c9 eb 23 3f 23 6b 60 3f 0d 2d a3 bd
       0.22826004 0.64031655 0.8766348 -0.07967577
000060 a4 6c e1 3e cd 9e 3e 3f b7 e2 00 bf 63 73 71 bf
       0.440282 0.7446106 -0.5034594 -0.9431669
000070 0a ac 25 bf 39 fd 66 3e 0b 6e 02 3e 82 46 94 3e
       -0.64715636 0.22557534 0.1273729 0.28960043
000080 27 24 5b be 4f 4a 30 3f 64 75 e8 be b7 d4 72 3e
       -0.2140051 0.68863386 -0.45402062 0.23713957
000090 17 98 f2 3c ec 55 bc bf 56 9a 50 bf 9f e4 c0 bd
       0.029613538 -1.4713721 -0.814855 -0.09418606
0000a0 27 f3 25 bf 25 6b aa 3f 6c 96 58 be 62 99 0c 3f
       -0.64824146 1.3313948 -0.21151131 0.54921544
0000b0 25 a8 6e be a0 dd 15 bf ef ed 77 3f 9d 35 85 bf
       -0.2330633 -0.585413 0.9684743 -1.0406986
0000c0 44 a1 f1 3c 5a 5e 62 3e 9e 6c 80 3f fb e1 02 3f
       0.029495843 0.22106305 1.0033147 0.5112607
0000d0 17 b3 d9 be a5 de 20 bf 6b 9f 5d 3e 0a ad 70 3f
       -0.42519447 -0.6283973 0.21642844 0.94014037
0000e0 59 55 3c 3e 0f a9 62 bf ad 47 43 3e a5 fb 55 bf
       0.18391933 -0.8853921 0.19070311 -0.83587104

bias f4 [10]
000000 00 e4 83 bf 6a 07 37 bf 88 f7 a6 3f d7 88 3b be
       -1.0303955 -0.7149569 1.304429 -0.18313919
000010 d9 29 f3 be 8e 6e 8b 3f 63 44 89 bf ed 59 e5 3e
       -0.47492865 1.0893114 -1.0723995 0.4479517
000020 73 5f 18 3e c4 6a 9f bd
       0.14880161 -0.07784036
