Examples/verification/training/models/verification_8x8/vit_12_1_6_12.pt (torch, 18215 bytes, 19 tensors)

pos_embedding f4 [1, 17, 12]
-0.706972 0.36236075 1.0044252 -0.035223074 0.6506795 -1.7645102 0.38878274 -0.43567643
1.3318905 -0.7862764 -0.5733505 0.74231565 0.21820228 0.048334114 1.0428085 -2.156869
1.0750484 2.3699667 -0.35614988 -1.6583061 0.8833762 2.3115318 1.056424 0.5589381
-1.2051522 -0.44449574 0.088737406 1.1455628 -0.85325485 -1.4158976 -1.45593 -0.9081575
0.7278897 0.5651997 -0.082787596 -0.30658793 -0.8952504 -0.22197573 -0.7526985 0.3895326
-0.089813836 -0.48981076 0.77647346 -0.871498 0.49287036 0.1953844 -0.104936525 -0.38413218
-0.16588616 -1.9817227 1.888162 -0.121305846 -0.16708641 0.5333262 0.18120937 -0.9558259
0.5035826 -1.1365981 -0.5854613 -2.126739 0.57196766 0.53416204 -0.5792427 -0.31480896
-0.31421494 -0.033931598 -0.23567258 -0.7641349 -0.16755421 2.0401943 -0.39239296 0.14104147
1.0656538 0.49109685 -0.04561021 1.4792309 -0.2577719 0.095130496 1.4117433 0.9069315
1.0443729 0.5010114 0.7173388 0.02245851 -0.6412611 -0.41014117 -0.476621 0.33854234
0.36471164 1.5389751 1.440029 -2.1547198 -0.3326366 -1.4469745 -0.3613612 0.28641418
-0.78572696 -1.3566757 -0.20908937 0.22853208 -0.90456265 0.30271277 0.37896985 0.1298507
1.094322 1.2286553 -0.83929074 -1.9989253 -0.17428829 -2.3136966 1.5660012 -1.0145959
0.3920145 -0.39264843 -0.45348 -0.58612186 0.4727536 0.02247954 0.3847584 -0.70504475
0.84546924 -0.16240822 0.78236264 -0.4490941 -1.5094419 0.5109266 -0.88115925 0.42350957
0.97292155 -0.51206124 -1.1190077 -0.46099195 0.3857935 0.7779021 1.1602931 0.9691461
0.4351559 0.11975504 0.9775067 1.9434582 0.85271084 0.7492434 0.13555138 0.46470773
0.19060108 0.05531558 -0.8197586 -0.78393567 0.15682308 -0.34458876 -0.07654193 -0.4849114
2.178511 -0.4723606 0.47020826 -0.56182224 -1.1057723 0.9809752 1.9583707 -0.7302669
0.73831975 1.4997797 0.17994152 -0.66068786 2.7891903 0.048987955 -1.3535057 0.9012529
0.3897061 -1.131223 0.24346589 1.3594904 -1.775124 1.8870407 -0.4351201 0.15596642
-1.9993579 -0.36721975 -0.23478764 0.0781473 -0.22185743 -0.9418803 1.3760049 0.91350603
-0.8644571 1.2905664 0.23639074 1.6086613 -0.67262524 0.17190436 0.49529222 0.43542856
-0.264091 0.6102512 0.41673058 0.009845999 -1.1500784 -0.40291741 1.6548792 0.89018756
-1.4045147 1.6703078 -1.4426304 -1.6623422
00000000: 1efc 34bf 5987 b93e 0191 803f 1246 10bd
00000010: ef92 263f 78db e1bf 880e c73e fb10 dfbe
00000020: 637b aa3f 6949 49bf 19c7 12bf 6608 3e3f
00000030: 6b70 5f3e fef9 453d c07a 853f 240a 0ac0
00000040: 309b 893f 89ad 1740 4759 b6be 6043 d4bf
00000050: f124 623f 23f0 1340 e738 873f 9116 0f3f
00000060: 6d42 9abf f294 e3be f5bb b53d cda1 923f
00000070: e96e 5abf 223c b5bf ea5b babf 037d 68bf
00000080: fb56 3a3f edb0 103f 8b8c a9bd 18f9 9cbe
00000090: 212f 65bf 9b4d 63be d9b0 40bf d170 c73e
000000a0: 51f0 b7bd 7ac8 fabe f7c6 463f 7e1a 5fbf
000000b0: 8159 fc3e d912 483e f6e8 d6bd f9ac c4be
000000c0: 10de 29be 17a9 fdbf 4baf f13f 336f f8bd
000000d0: b318 2bbe 1188 083f f38e 393e 02b1 74bf
000000e0: caea 003f 0c7c 91bf cbe0 15bf 7e1c 08c0
000000f0: 796c 123f d8be 083f 4049 14bf a42e a1be
00000100: c8e0 a0be dcfb 0abd 2754 71be 589e 43bf
00000110: 5593 2bbe 8b92 0240 bbe7 c8be 2d6d 103e
00000120: 5867 883f 0c71 fb3e c6d1 3abd 7057 bd3f
00000130: aefa 83be c7d3 c23d 01b4 b43f aa2c 683f
00000140: 03ae 853f 4842 003f 84a3 373f e9fa b73c
00000150: b029 24bf 06fe d1be ab07 f4be 6c55 ad3e
00000160: 7cbb ba3e 23fd c43f df52 b83f eee6 09c0
00000170: 584f aabe 7636 b9bf 5604 b9be e1a4 923e
00000180: 6725 49bf 8da7 adbf 861b 56be 5004 6a3e
00000190: 6b91 67bf 2bfd 9a3e 5608 c23e 95f7 043e
000001a0: be12 8c3f 9444 9d3f c2db 56bf c9dc ffbf
000001b0: a178 32be 9b13 14c0 ba72 c83f 47de 81bf
000001c0: 20b6 c83e 3709 c9be 882e e8be 150c 16bf
000001d0: c30c f23e 0327 b83c 0eff c43e d07d 34bf
000001e0: ac70 583f 574e 26be eb48 483f a9ef e5be
000001f0: 6435 c1bf 16cc 023f a793 61bf 3fd6 d83e
00000200: 6311 793f 7216 03bf a53b 8fbf 2307 ecbe
00000210: ba86 c53e 9824 473f 7c84 943f f519 783f
00000220: c1cc de3e 2142 f53d e13d 7a3f 3dc3 f83f
00000230: 424b 5a3f 6ace 3f3f fbcd 0a3e 2cee ed3e
00000240: ee2c 433e 9792 623d b3db 51bf 02b0 48bf
00000250: 3b96 203e f06d b0be 04c2 9cbd 4f46 f8be
00000260: b96c 0b40 40d9 f1be 23bf f03e 95d3 0fbf
00000270: f289 8dbf 3121 7b3f e4ab fa3f c6f2 3abf
00000280: 8602 3d3f c8f8 bf3f 9742 383e d722 29bf
00000290: 1882 3240 98a7 483d ad3f adbf 83b8 663f
000002a0: 8f87 c73e eacb 90bf 1f4f 793e c803 ae3f
000002b0: 4337 e3bf 8d8a f13f 10c8 debe a9b5 1f3e
000002c0: f6ea ffbf 3a04 bcbe 2c6c 70be b10b a03d
000002d0: 982e 63be 111f 71bf ee20 b03f 88db 693f
000002e0: 0f4d 5dbf 4831 a53f 6a10 723e 9de8 cd3f
000002f0: 2b31 2cbf b207 303e f196 fd3e 7ef0 de3e
00000300: f036 87be 6c39 1c3f b65d d53e 1d51 213c
00000310: c535 93bf 314b cebe 15d3 d33f 55e3 633f
00000320: 23c7 b3bf a5cc d53f 1da8 b8bf a1c7 d4bf

cls_token f4 [1, 1, 12]
-0.44130006 -0.28360626 -0.7907571 0.2566316 -1.7679443 0.80348253 -0.7874178 -0.5287528
-2.441744 -3.0084896 -0.3518723 -0.5423468
00000000: 15f2 e1be d734 91be 0f6f 4abf 3865 833e
00000010: 004c e2bf 08b1 4d3f 3794 49bf 585c 07bf
00000020: 8945 1cc0 188b 40c0 9b28 b4be 3dd7 0abf

weight f4 [12, 4]
-0.093116 0.11130986 0.39476195 1.1922362 0.6475266 0.7036169 0.92932266 -0.19893919
-0.64760846 -0.6717988 -0.33131927 -0.25355005 0.86896837 0.31846905 -0.43513352 -0.8590694
-0.12081215 -0.5237382 0.6407288 0.40655872 0.32838836 -0.82907903 -0.59315616 -0.80659837
-0.2035717 0.7675451 -1.2972621 0.67161745 -0.2866375 0.2008833 0.15567756 1.179988
0.5534475 -0.9549266 -0.110415004 -0.06172715 -0.61130303 0.24664214 0.34447044 0.96898514
-0.695517 -0.02789375 0.7114858 -0.6259595 0.3061774 0.956235 0.47670582 -0.49781874
00000000: 9ab3 bebd 6df6 e33d 3d1e ca3e 329b 983f
00000010: 4ec4 253f 3d20 343f 17e8 6d3f b7b6 4bbe
00000020: abc9 25bf 02fb 2bbf aea2 a9be 50d1 81be
00000030: b674 5e3f 600e a33e d2c9 debe f9eb 5bbf
00000040: 5c6c f7bd b513 06bf cd06 243f 7728 d03e
00000050: 8522 a83e 863e 54bf 15d9 17bf 3b7d 4ebf
00000060: 1a75 50be d67d 443f af0c a6bf 1fef 2b3f
00000070: 27c2 92be 5ab4 4d3e f069 1f3e d909 973f
00000080: bcae 0d3f 1276 74bf 4321 e2bd 9cd5 7cbd
00000090: 5b7e 1cbf c28f 7c3e 6e5e b03e 690f 783f
000000a0: 670d 32bf 6f81 e4bc ef23 363f e23e 20bf
000000b0: 49c3 9c3e d1cb 743f c912 f43e 19e2 febe

bias f4 [12]
0.063933924 -0.028372135 0.06319316 -0.41850036 0.28589675 -0.06161316 -0.5198903 -0.10991052
0.11796721 -0.22102764 0.32967946 0.17728177
00000000: caef 823d ae6c e8bc 6a6b 813d ae45 d6be
00000010: 0f61 923e 155e 7cbd 8817 05bf c418 e1bd
00000020: cb98 f13d 1255 62be bfcb a83e 5a89 353e

weight f4 [12]
1.1712966 1.2726562 1.1609112 1.2088163 1.144578 1.2193164 1.4702811 1.0872407
1.1944134 1.0407332 1.2011282 1.229957
00000000: 0ced 953f 66e6 a23f bd98 943f 7eba 9a3f
00000010: 8881 923f 8f12 9c3f 2c32 bc3f b42a 8b3f
00000020: 8ae2 983f bf36 853f 92be 993f 3b6f 9d3f

bias f4 [12]
-0.0482814 -0.2082749 0.09133119 -0.0194148 0.18937361 0.22445786 0.13899878 -0.107100636
-0.07877537 0.042513985 0.096278064 -0.1443133
00000000: b8c2 45bd 0446 55be d90b bb3d c90b 9fbc
00000010: 28eb 413e 48d8 653e b255 0e3e 9457 dbbd
00000020: fb54 a1bd 2523 2e3d 6f2d c53d dec6 13be

weight f4 [36, 12]
0.34642702 -0.41891405 -0.02539044 -0.13421443 0.42784455 -0.15636155 -0.04752396 -0.01636998
0.048285287 0.31013322 -0.07210065 -0.42915514 -0.20876515 -0.110039376 0.041732598 0.21680218
0.24751563 0.06603772 -0.20459913 -0.23618089 0.2887136 -0.12561944 -0.105004326 -0.2634819
-0.32689086 0.17135201 0.03629604 0.14477086 -0.09306702 -0.14168216 0.06240913 -0.11202179
0.0014657003 0.100198604 0.37107572 -0.12726636 0.040935494 -0.27558598 -0.2762493 -0.08854984
0.4749833 0.12215104 -0.43589044 0.19439287 0.42367107 0.35724264 -0.33442184 -0.22602671
-0.10642776 -0.26759055 0.077866316 -0.2553906 0.31102452 0.13366713 0.088649355 0.21704155
0.3257356 0.21600471 -0.16313975 -0.27256703 -0.16984862 -0.21962693 0.21229556 -0.1258988
0.006601802 -0.24158308 0.071122974 -0.090217255 -0.18946087 0.052763395 -0.30233648 -0.050114248
-0.2666354 0.22900613 -0.19733739 0.08536452 0.07957901 -0.27168626 0.21411856 0.20196605
-0.20058574 -0.015563309 0.110260226 0.27809 0.4066361 -0.44002926 -0.39126107 -0.46325022
0.072778836 0.04199442 -0.26987195 0.35443473 -0.0009795537 -0.04268482 -0.42897087 -0.35330683
0.19072482 0.0893555 -0.0019219401 -0.029990353 -0.27404544 -0.20416437 0.2298429 0.17349601
0.13091777 -0.033480126 -0.13020863 -0.114846766 0.47894257 -0.5164245 -0.18938366 -0.26733232
0.5312391 0.23430511 -0.29546133 0.033693798 0.24271247 0.056112878 -0.27702698 -0.17846628
-0.0731012 0.08471083 0.011836251 -0.06935074 -0.41889098 -0.25201118 -0.006617158 -0.08849077
-0.30938858 -0.36640903 0.2852571 0.34237573 0.22223708 0.25931188 -0.22440912 -0.16448793
-0.19623223 0.23810183 0.1528117 0.22254789 -0.18292958 -0.1415655 0.25639483 -0.24127427
-0.5231071 0.36037588 0.21639991 -0.22446261 0.40690902 0.50781494 -0.5958185 -0.44983804
0.117489636 -0.07357442 -0.080117986 -0.016332805 -0.022182638 -0.14280604 -0.0029386848 -0.046165004
0.11672417 0.075702175 0.08584944 -0.15033023 0.06517171 0.019419942 -0.06094819 0.17469633
0.1224636 -0.15302818 -0.035692725 0.045765877 -0.17955759 -0.25023785 -0.11639544 0.026409548
0.34928998 0.14638114 -0.047157098 0.013079827 -0.3623183 -0.20980462 0.011094989 -0.014688936
0.35695407 0.20420295 0.3430841 -0.10115283 -0.72746307 0.02698828 -0.03326786 0.0891803
-0.1570241 0.05719915 0.5673612 -0.30861488 -0.10488568 -0.14984709 -0.6575097 0.18346073
0.13279103 -0.25765997 0.40817264 0.010771677 0.18920124 -0.15338227 0.13818826 0.53027594
0.23058563 -0.001966747 0.13692777 0.043117914 0.015956072 -0.016119506 -0.18686238 -0.08157585
-0.28755286 0.27312246 -0.16317198 0.5567489 -0.15345532 -0.082018875 0.09409872 -0.07231085
0.61489034 0.22271527 -0.13236985 -0.21367186 0.58974934 -0.1950884 0.48175788 -0.7502043
0.13672708 0.004784309 -0.13115929 0.026849426 -0.42911908 -0.32480422 0.2951363 0.116491124
-0.15478191 -0.15941773 0.001876851 -0.1318468 0.12128952 -0.1370418 -0.14445727 -0.05459444
-0.27327442 -0.107956685 -0.14707837 -0.07774903 0.09579108 0.15495181 -0.21732566 0.11578565
00000000: e25e b13e e77b d6be 9dff cfbc 826f 09be
00000010: 710e db3e 3e1d 20be 7ca8 42bd 561a 86bc
00000020: cbc6 453d c8c9 9e3e 81a9 93bd 39ba dbbe
00000030: 88c6 55be 535c e1bd cdef 2a3d 6401 5e3e
00000040: bd74 7d3e c93e 873d 6f82 51be 67d9 71be
00000050: 45d2 933e 62a2 00be 820c d7bd 19e7 86be
00000060: 3d5e a7be e776 2f3e 28ab 143d d03e 143e
00000070: ec99 bebd 2115 11be b7a0 7f3d ae6b e5bd
00000080: be1c c03a ed34 cd3d a3fd bd3e 1d52 02be
00000090: faab 273d 9b19 8dbe 8c70 8dbe 9e59 b5bd
000000a0: 0331 f33e 532a fa3d 082d dfbe ed0e 473e
000000b0: 6aeb d83e 82e8 b63e 5739 abbe 8c73 67be
000000c0: ccf6 d9bd a101 89be 6078 9f3d 8fc2 82be
000000d0: 9b3e 9f3e 09e0 083e cb8d b53d 2440 5e3e
000000e0: d1c6 a63e 5730 5d3e 1b0e 27be e88d 8bbe
000000f0: ccec 2dbe e2e5 60be 0264 593e 9deb 00be
00000100: ee53 d83b 8e61 77be eca8 913d d3c3 b8bd
00000110: 0802 42be 6e1e 583d d9cb 9abe 9944 4dbd
00000120: 6f84 88be 9580 6a3e d012 4abe 98d3 ae3d
00000130: 52fa a23d 761a 8bbe e541 5b3e 30d0 4e3e
00000140: 5966 4dbe 40fd 7ebc 1dd0 e13d d061 8e3e
00000150: 9b32 d03e 844b e1be 5f53 c8be 222f edbe
00000160: 120d 953d 5702 2c3d a82c 8abe 7878 b53e
00000170: 5e64 80ba 47d6 2ebd 12a2 dbbe a2e4 b4be
00000180: 5e4d 433e 0400 b73d 9ce9 fbba 54ae f5bc
00000190: af4f 8cbe 7710 51be f05b 6b3e f0a8 313e
000001a0: 4f0f 063e 7522 09bd 6955 05be c834 ebbd
000001b0: f637 f53e 6534 04bf caed 41be c8df 88be
000001c0: 49ff 073f aeed 6f3e b546 97be 8202 0a3d
000001d0: 9e89 783e 9ed6 653d 7bd6 8dbe ddbf 36be
000001e0: 15b6 95bd df7c ad3d d6ec 413c c307 8ebd
000001f0: e178 d6be 9c07 81be bfd4 d8bb a63a b5bd
00000200: 2e68 9ebe f799 bbbe 380d 923e df4b af3e
00000210: 1e92 633e 87c4 843e 81cb 65be 866f 28be
00000220: 1af1 48be f7d0 733e ac7a 1c3e 98e3 633e
00000230: e451 3bbe 8cf6 10be 2f46 833e 9a10 77be
00000240: 59ea 05bf 3083 b83e f097 5d3e 87d9 65be
00000250: 6156 d03e 2900 023f 9087 18bf 2c51 e6be
00000260: 689e f03d 2fae 96bd e614 a4bd 60cc 85bc
00000270: 5db8 b5bc bf3b 12be f396 40bb 8417 3dbd
00000280: 150d ef3d be09 9b3d d5d1 af3d 2bf0 19be
00000290: bf78 853d 9216 9f3c cfa4 79bd 98e3 323e
000002a0: 32ce fa3d 6bb3 1cbe 8932 12bd 0075 3b3d
000002b0: f2dd 37be 2d1f 80be bc60 eebd d658 d83c
000002c0: 23d6 b23e f0e4 153e cd27 41bd c54c 563c
000002d0: c981 b9be 06d7 56be c2c7 353c dda9 70bc
000002e0: afc2 b63e 941a 513e b8a8 af3e 3729 cfbd
000002f0: 053b 3abf 8616 dd3c e143 08bd 29a4 b63d
00000300: edca 20be a849 6a3d 953e 113f c502 9ebe
00000310: 4ece d6bd 8471 19be 8e52 28bf 21dd 3b3e
00000320: 5ffa 073e 02ec 83be 01fc d03e b07b 303c
00000330: f8bd 413e 3e10 1dbe 3981 0d3e 2ac0 073f
00000340: a41e 6c3e 8ae4 00bb cb36 0c3e 699c 303d
00000350: 4fb6 823c 0e0d 84bc da58 3fbe 3d11 a7bd
00000360: 213a 93be b5d6 8b3e 8e16 27be 1987 0e3f
00000370: 6423 1dbe 83f9 a7bd d4b6 c03d b617 94bd
00000380: 7469 1d3f 790f 643e f68b 07be cccc 5abe
00000390: d0f9 163f 41c5 47be f8a8 f63e 640d 40bf
000003a0: 2f02 0c3e b1c5 9c3b 9f4e 06be 54f3 db3c
000003b0: 7fb5 dbbe bd4c a6be 1b1c 973e e692 ee3d
000003c0: 267f 1ebe 673e 23be ab00 f63a d902 07be
000003d0: a466 f83d b054 0cbe 9bec 13be 6b9e 5fbd
000003e0: a0ea 8bbe 6518 ddbd b69b 16be e23a 9fbd
000003f0: 1d2e c43d b0ab 1e3e 9e8a 5ebe 0721 ed3d

weight f4 [12, 12]
0.09751616 0.73458093 0.010404947 -0.037344687 -0.281281 -0.74894756 -0.086473465 0.1305419
-0.29633293 0.4122421 -0.35583124 0.22134899 -0.25010568 -0.007633544 0.35581723 -0.3112952
0.5204721 -0.5351741 0.44310325 -0.41679692 0.21570118 0.26814756 0.26566863 0.13346757
-0.10841472 -0.19063413 0.46271157 -0.5907206 -0.04812782 -0.030341456 0.14517175 0.3481972
0.07282501 -0.06744371 -0.40439346 -0.4779327 -0.3324885 -0.27371195 -0.068072006 0.09728347
-0.56128585 -0.26207575 -0.41628292 -0.47269428 0.08414546 -0.36903656 0.27744207 -0.09706793
-0.058423612 0.4063714 -0.5719306 0.036487166 0.052343644 0.5390587 0.16477837 -0.50099665
-0.9574118 -0.26307362 -0.14157303 0.48109668 0.37309623 -0.011835917 0.44171518 -0.54141366
-0.32239318 0.31311768 -0.056014873 -0.3688132 0.12772945 0.6578163 -0.185139 0.41379297
0.4141851 -0.10733107 0.101086564 0.458527 -0.0388102 -0.32047707 -0.3332802 0.4413004
0.71135145 -0.21286082 0.5517211 0.3065231 0.043882303 0.3004097 -0.3554544 -0.26367244
0.5032487 -0.0010229489 -0.1647125 -0.09767686 0.5715657 0.0767841 -0.28935173 -0.4831458
-0.4457153 -0.30164093 0.16271782 0.5000565 0.2859231 0.11516346 -0.083251834 0.17413528
-0.08349578 0.43827593 -0.4385695 0.34310195 0.14435567 0.03563776 -0.69278467 -0.47236982
-0.30901545 0.28009775 0.61084056 0.5065742 0.3155901 0.04911291 0.20315708 0.19217613
-0.0871121 0.42878664 -0.10153017 0.27668497 0.1984831 -0.021983877 -0.30783972 0.042283114
-0.7461446 -0.073082365 0.62631446 -0.040901575 0.5301979 0.07474878 0.5070419 0.11067463
0.00403776 -0.55612165 0.37624624 -0.04466335 -0.61398053 -0.21940477 -0.58256274 -0.33659813
00000000: 8db6 c73d 7f0d 3c3f 8379 2a3c bef6 18bd
00000010: 1004 90be 07bb 3fbf 0019 b1bd c7ac 053e
00000020: f3b8 97be 6611 d33e 832f b6be 4fa9 623e
00000030: da0d 80be cf22 fabb ad2d b63e 1662 9fbe
00000040: a93d 053f 2b01 09bf 6ede e23e 6866 d5be
00000050: c5e0 5c3e a34a 893e b805 883e b9ab 083e
00000060: 8908 debd 9835 43be 88e8 ec3e 7739 17bf
00000070: ad21 45bd a58e f8bc e7a7 143e e746 b23e
00000080: 4725 953d ee1f 8abd a90c cfbe 98b3 f4be
00000090: ef3b aabe f923 8cbe 5669 8bbd 8e3c c73d
000000a0: 6eb0 0fbf cb2e 86be 0923 d5be fc04 f2be
000000b0: 7454 ac3d 5cf2 bcbe e30c 8e3e 8dcb c6bd
000000c0: 994d 6fbd ea0f d03e 0b6a 12bf 9173 153d
000000d0: 4a66 563d c0ff 093f a9bb 283e 5141 00bf
000000e0: f118 75bf 96b1 86be 85f8 10be 4e52 f63e
000000f0: 7806 bf3e 6feb 41bc 7e28 e23e 169a 0abf
00000100: b810 a5be f650 a03e da6f 65bd 15d5 bcbe
00000110: 82cb 023e a666 283f 1495 3dbe acdc d33e
00000120: 1210 d43e 64d0 dbbd 7906 cf3d 0dc4 ea3e
00000130: 72f7 1ebd 9215 a4be b4a3 aabe 20f2 e13e
00000140: 211b 363f 30f8 59be 983d 0d3f 99f0 9c3e
00000150: eebd 333d 4dcf 993e 1efe b5be 1300 87be
00000160: e8d4 003f 7814 86ba 65aa 28be ce0a c8bd
00000170: 2152 123f fb40 9d3d e925 94be e35e f7be
00000180: cc34 e4be ae70 9abe 809f 263e b403 003f
00000190: 8364 923e d2da eb3d f07f aabd 8550 323e
000001a0: d6ff aabd b465 e03e 2e8c e0be 0fab af3e
000001b0: f9d1 133e e6f8 113d 565a 31bf 75da f1be
000001c0: 4637 9ebe f968 8f3e 0c60 1c3f d9ae 013f
000001d0: 0795 a13e 9e2a 493d 6908 503e d2c9 443e
000001e0: d467 b2bd ec89 db3e 0def cfbd a7a9 8d3e
000001f0: 273f 4b3e 8817 b4bc 2b9d 9dbe 0f31 2d3d
00000200: 5503 3fbf 35ac 95bd 2556 203f 6988 27bd
00000210: 0dbb 073f e315 993d 7fcd 013f 61a9 e23d
00000220: 304f 843b fd5d 0ebf 59a3 c03e ebf0 36bd
00000230: d42d 1dbf a5ab 60be d522 15bf 9756 acbe

bias f4 [12]
0.20199835 -0.021712117 0.13526298 -0.5661804 0.21653463 0.15829284 -0.22777611 -0.08262153
0.1850676 0.42083004 0.008170856 -0.32102194
00000000: a8d8 4e3e 9cdd b1bc 6182 0a3e 33f1 10bf
00000010: 41bb 5d3e 8517 223e 243e 69be 7a35 a9bd
00000020: 5c82 3d3e 0977 d73e 0edf 053c fd5c a4be

weight f4 [12]
1.2189586 1.2510148 1.2079146 1.1661986 0.97556275 1.2803469 0.91165286 1.0080105
1.0163444 0.90027076 0.97002774 0.9967513
00000000: d606 9c3f 4121 a03f f29c 9a3f ff45 953f
00000010: 7bbe 793f 68e2 a33f 1562 693f 7d06 813f
00000020: 9317 823f 2578 663f bd53 783f 182b 7f3f

bias f4 [12]
-0.20203085 -0.060661007 -0.16234955 -0.15705538 -0.29725063 -0.3926541 -0.3019646 0.26062217
-0.0131809395 0.32083276 0.051886275 0.14269625
00000000: 2de1 4ebe ad77 78bd f63e 26be 20d3 20be
00000010: 3c31 98be f509 c9be 1b9b 9abe 4570 853e
00000020: def4 57bc 3144 a43e b486 543d f71e 123e

weight f4 [12, 12]
0.31078866 0.15236008 -0.07859271 0.46954417 -0.52277476 0.12744962 0.034108493 -0.3022033
0.5008135 0.16651557 0.18995674 -0.26258937 -0.25552213 0.09973198 0.44700354 -0.36847097
0.09666869 0.2623256 -0.10062976 0.43395233 0.09515707 -0.06186631 -0.25267226 0.014634278
-0.26485234 0.23176408 0.30748862 0.5045969 -0.60717064 -0.34684694 -0.40990436 0.3106205
0.046462376 0.34915042 -0.074665986 -0.2795815 -0.08224705 0.24987036 -0.15966621 0.14561944
-0.38511512 0.01749935 0.29699066 0.5523391 -0.28558648 0.25059918 0.08509208 -0.5166344
0.4250306 -0.008761451 -0.0995912 -0.3374731 -0.35408002 0.58094746 0.022904746 0.04335277
0.41648912 0.03191576 -0.231544 0.033684608 -0.56349933 0.11471382 0.14698228 0.28171417
0.14584465 -0.33430544 0.35404262 -0.4284283 0.19315004 -0.40263253 0.30677253 0.13388643
0.07551234 0.63808733 -0.04800291 0.1072662 0.3108974 0.05034147 -0.78945804 0.032379754
-0.2133881 0.510937 -0.49072877 0.22319551 -0.44597462 0.5231365 -0.35861886 -0.6325762
0.18646133 -0.57911843 0.11811517 0.20767461 -0.110900424 -0.10145891 -0.26479185 0.261894
0.021525946 0.38379675 0.4171446 -0.017374152 -0.08862538 0.37937522 0.21347536 -0.23356245
-0.08673145 0.1852607 -0.23077397 -0.28000423 0.43514672 -0.24231002 -0.16393518 -0.28210184
-0.15806177 0.20286112 -0.0978714 0.27780643 -0.59681594 0.016239382 -0.19844978 0.048247248
0.20748796 -0.13708974 0.58097184 -0.30445707 -0.20919788 -0.26847044 0.1775428 -0.23576926
0.16327001 0.55088764 -0.2942079 -0.15238887 0.39222938 0.49799037 -0.38854176 -0.09414096
0.03552426 -0.2099719 -0.16383424 -0.18617056 0.4506904 -0.009093055 0.16968845 -0.4297745
00000000: b11f 9f3e 4804 1c3e 37f5 a0bd 1868 f03e
00000010: 91d4 05bf 2782 023e 59b5 0b3d 64ba 9abe
00000020: 5035 003f 0f83 2a3e 0584 423e 1d72 86be
00000030: ccd3 82be 4840 cc3d a6dd e43e 3aa8 bcbe
00000040: 3cfa c53d 8b4f 863e fa16 cebd 002f de3e
00000050: b6e1 c23d 8767 7dbd 425e 81be 9cc4 6f3c
00000060: ba9a 87be 9053 6d3e 266f 9d3e 432d 013f
00000070: 896f 1bbf ec95 b1be fcde d1be a609 9f3e
00000080: 554f 3e3d d8c3 b23e 7bea 98bd 4e25 8fbe
00000090: 2471 a8bd 04de 7f3e 8a7f 23be 431d 153e
000000a0: cf2d c5be cc5a 8f3c 290f 983e 1866 0d3f
000000b0: 6438 92be 894e 803e c244 ae3d 2742 04bf
000000c0: 9c9d d93e 308c 0fbc 79f6 cbbd 46c9 acbe
000000d0: fa49 b5be f9b8 143f bca2 bb3c ad92 313d
000000e0: 103e d53e 1aba 023d df19 6dbe dff8 093d
000000f0: 7e41 10bf 14ef ea3d 8682 163e d73c 903e
00000100: 4d58 153e 152a abbe 1345 b53e f45a dbbe
00000110: 20c9 453e da25 cebe 4a11 9d3e 8619 093e
00000120: 37a6 9a3d b159 233f b39e 44bd 62ae db3d
00000130: f22d 9f3e db32 4e3d ec19 4abf a2a0 043d
00000140: 6982 5abe c4cc 023f cd40 fbbe 5d8d 643e
00000150: c956 e4be 46ec 053f e49c b7be 84f0 21bf
00000160: b8ef 3e3e 1b41 14bf 5ee6 f13d a7a8 543e
00000170: c31f e3bd b0c9 cfbd cc92 87be f816 863e
00000180: 2e57 b03c 0281 c43e fa93 d53e 3d54 8ebc
00000190: 3981 b5bd 783d c23e 4999 5a3e ff2a 6fbe
000001a0: 42a0 b1bd fbb4 3d3e 0350 6cbe b75c 8fbe
000001b0: 8dcb de3e 1e20 78be a0de 27be a76f 90be
000001c0: f2da 21be d3ba 4f3e cd70 c8bd a53c 8e3e
000001d0: eec8 18bf 7408 853c 6b36 4bbe e89e 453d
000001e0: b977 543e 4161 0cbe 92ba 143f cce1 9bbe
000001f0: f837 56be f574 89be c8cd 353e 7f6d 71be
00000200: 4130 273e f906 0d3f 6ba2 96be d40b 1cbe
00000210: 4ad2 c83e 98f8 fe3e f2ee c6be facc c0bd
00000220: e381 113d e002 57be 2ac4 27be 7fa3 3ebe
00000230: e4c0 e63e 09fb 14bc cfc2 2d3e 670b dcbe

bias f4 [12]
0.0148353195 -0.30012476 0.3685067 0.2302614 -0.14490038 -0.11887044 0.06336849 -0.04401853
-0.15312016 0.04529941 -0.12533163 -0.10555717
00000000: d70f 733c f4a9 99be e9ac bc3e a5c9 6b3e
00000010: c460 14be 5872 f3bd 57c7 813d c64c 34bd
00000020: 88cb 1cbe e08b 393d ef56 00be 5c2e d8bd

weight f4 [12, 12]
0.000934294 0.1346384 0.11465759 0.11009253 -0.027703749 -0.057385705 -0.37112957 0.71575075
0.500924 -0.4699502 -0.42530432 0.3368715 0.786351 -0.2646478 -0.37980023 -0.3952374
-0.025857877 0.37202096 0.37577507 0.42905775 -0.15713038 0.51097083 -0.48773402 -0.43030038
0.19752227 -0.42299208 0.6961479 0.060044542 -0.16294642 -0.34869963 -0.10886563 0.0192407
-0.36926246 -0.13972251 -0.036404666 0.82436043 -0.36610198 0.12667948 -0.007866514 0.36425245
0.45359996 -0.108979486 0.53023034 0.09234278 -0.15170188 0.17058684 -0.48512986 -0.21172315
-0.009804659 0.12549923 0.25545257 -0.47828752 0.26340333 0.19139953 -0.16230339 -0.2326412
-0.08038823 0.017486693 0.07490516 -0.44267738 -0.32281023 -0.07928469 -0.2924733 0.3420271
-0.16508673 -0.15818305 -0.10539791 -0.20941071 0.27739504 -0.47435135 0.39185834 0.05659074
-0.30741024 -0.49567017 -0.45980284 -0.28367776 -0.29064894 0.11893283 0.2010297 -0.33477324
0.09990283 -0.059002493 0.031186808 -0.08755288 0.30216217 0.27676252 -0.23156135 -0.078839235
-0.045034133 0.61524755 0.07806382 0.10532164 -0.19692984 0.23302367 0.3868715 -0.23965853
0.06715218 0.3073584 -0.6082869 -0.09880113 0.61576617 -0.2712831 -0.60281235 0.21791555
-0.026434189 0.059192337 -0.013996615 0.051659748 -0.020577306 0.025254838 0.7685708 0.023793625
0.03405663 0.56410754 0.49268666 -0.0018446761 0.55052716 0.5047863 -0.5738358 -0.09603905
0.09255558 -0.18566535 0.36618543 -0.06589783 -0.3049919 -0.33068112 0.49867287 0.043929446
0.022434337 -0.29352283 0.086073786 0.017990593 -0.092419274 0.41695496 0.20324975 -0.32326844
0.43739712 -0.061283946 0.17473616 -0.37029728 -0.35212335 0.3410218 -0.21128845 0.27035376
00000000: 69eb 743a a6de 093e 99d1 ea3d 3178 e13d
00000010: f9f2 e2bc 460d 6bbd b204 bebe 713b 373f
00000020: 8e3c 003f 509d f0be 7dc1 d9be 6c7a ac3e
00000030: 4d4e 493f eb7f 87be 2d75 c2be 8e5c cabe
00000040: e6d3 d3bc 8879 be3e 9765 c03e 75ad db3e
00000050: c9e6 20be fcce 023f 46b8 f9be 5550 dcbe
00000060: 4743 4a3e 6b92 d8be c036 323f 44f1 753d
00000070: 6ddb 26be c288 b2be f2f4 debd ac9e 9d3c
00000080: f80f bdbe 6b13 0fbe 0f1d 15bd 4909 533f
00000090: b871 bbbe 44b8 013e 8de2 00bc 4c7f ba3e
000000a0: 413e e83e a330 dfbd 2dbd 073f 361e bd3d
000000b0: bd57 1bbe 51ae 2e3e f162 f8be f4cd 58be
000000c0: b8a3 20bc df82 003e aeca 823e 1ae2 f4be
000000d0: cddc 863e 3dfe 433e dc32 26be 7f39 6ebe
000000e0: 96a2 a4bd 4140 8f3c e067 993d 9ca6 e2be
000000f0: 6247 a5be 0360 a2bd 0fbf 95be 2d1e af3e
00000100: 7f0c 29be bdfa 21be dcda d7bd c36f 56be
00000110: b906 8e3e 2ede f2be a8a1 c83e b1cb 673d
00000120: e064 9dbe 7bc8 fdbe 476b ebbe 363e 91be
00000130: f0cf 94be 0e93 f33d bbda 4d3e 6667 abbe
00000140: db99 cc3d 99ac 71bd 7a7b ff3c ed4e b3bd
00000150: 00b5 9a3e d1b3 8d3e 6b1e 6dbe 7776 a1bd
00000160: b675 38bd dd80 1d3f eddf 9f3d dfb2 d73d
00000170: faa7 49be c29d 6e3e 0514 c63e 0c69 75be
00000180: 1587 893d 155e 9d3e b1b8 1bbf 3f58 cabd
00000190: daa2 1d3f 9ee5 8abe e951 1abf 4125 5f3e
000001a0: 838c d8bc aa73 723d 0f52 65bc 2c99 533d
000001b0: bd91 a8bc 3ce3 ce3c 0ec1 443f d9ea c23c
000001c0: f77e 0b3d 5a69 103f 6d41 fc3e 0fc9 f1ba
000001d0: 59ef 0c3f ad39 013f e7e6 12bf 1fb0 c4bd
000001e0: c88d bd3d 0f1f 3ebe a87c bb3e 71f5 86bd
000001f0: e627 9cbe 094f a9be 0d52 ff3e 5def 333d
00000200: 37c8 b73c a048 96be 7447 b03d 0261 933c
00000210: 5146 bdbd 1f7b d53e b420 503e 7183 a5be
00000220: 84f2 df3e e004 7bbd 09ee 323e 9b97 bdbe
00000230: 8349 b4be 699a ae3e 005c 58be cf6b 8a3e

bias f4 [12]
-0.037292365 0.046780888 0.12558016 -0.26575077 0.35856417 0.11744232 -0.25358224 0.4133908
-0.036709078 0.35585162 0.051197127 0.1777071
00000000: e1bf 18bd 519d 3f3d 1698 003e 7c10 88be
00000010: b995 b73e 9985 f03d 88d5 81be f5a7 d33e
00000020: 425c 16bd 2f32 b63e 14b4 513d daf8 353e

weight f4 [12]
2.4534929 1.6816268 1.7217057 2.2137022 2.2486997 2.2435439 2.1985788 2.3981066
1.6137246 1.1489911 2.2440877 2.0294545
00000000: 0706 1d40 8c3f d73f da60 dc3f 4cad 0d40
00000010: b2ea 0f40 3996 0f40 84b5 0c40 947a 1940
00000020: 878e ce3f 2412 933f 229f 0f40 95e2 0140

bias f4 [12]
0.046993174 -0.3170213 0.536074 -0.29028827 -0.41730005 -0.21494219 -0.018499212 -0.081921786
0.19370829 0.25913012 -0.14877322 -0.11463185
00000000: ea7b 403d 9e50 a2be 253c 093f aaa0 94be
00000010: 5aa8 d5be ce19 5cbe a98b 97bc 9cc6 a7bd
00000020: 775b 463e b4ac 843e 0258 18be 1ac4 eabd

weight f4 [10, 12]
-0.2614472 -0.8442138 -0.5030498 1.5621574 -0.10657011 -0.58935595 0.11497608 0.040427495
-0.55882233 0.26193222 0.029983455 0.9957298 0.0020411254 -0.18205069 0.23800051 0.17032462
-0.35502246 0.3509343 -1.3975027 1.482881 0.17627874 -0.11420274 -0.27904484 -0.18129276
0.49926338 -0.5850468 0.28189164 0.41997534 0.07854308 -0.48317227 -0.6973231 -0.43182153
-0.43043384 0.41459596 0.6711568 -0.51523143 0.7249648 0.48985577 0.075067066 -0.82205135
-0.6373299 -0.7170251 0.18816443 0.18201673 -0.4043578 -0.4595656 0.72720844 0.34278235
0.087939814 -0.5895651 -0.40952775 -0.3380601 0.68734485 0.92084634 -0.3587686 -0.6489416
0.4316082 0.20370828 -0.37075597 -0.046222214 -0.98466283 -0.08771764 0.35219026 -0.6248735
-0.2698215 -0.29396456 0.8007334 0.23977658 -0.065604895 0.07883549 -0.10889514 0.20193714
-1.5388627 -0.04699199 -0.68203384 0.43354115 0.86579865 0.65873563 -0.34398863 0.07657145
-0.53320277 0.2682676 0.96021444 -0.46047458 -0.03881423 0.038080778 1.0219753 -0.39044204
-1.1388192 0.58153194 -0.89926565 -0.74634576 -0.11491862 0.15888111 -0.5439869 0.4623372
0.49103284 -0.3548177 -0.44720748 0.19852155 -0.710323 0.023078075 0.57660604 0.20248955
-0.3194405 0.076809265 -0.07421 -0.9464534 0.33390743 0.6748495 -0.24068475 0.42255494
-0.119739845 0.27112883 0.1892901 -0.5304537 0.65168196 -0.083942235 -0.8723778 0.17902796
00000000: 68dc 85be 651e 58bf dfc7 00bf c6f4 c73f
00000010: 6e41 dabd 08e0 16bf 9478 eb3d 4d97 253d
00000020: fb0e 0fbf fb1b 863e dd9f f53c 26e8 7e3f
00000030: 67c4 053b 7f6b 3abe 68b6 733e 9469 2e3e
00000040: 81c5 b5be a9ad b33e 5ee1 b2bf 0bcf bd3f
00000050: 6a82 343e 20e3 e9bd f7de 8ebe cfa4 39be
00000060: 739f ff3e a1c5 15bf 1a54 903e 0207 d73e
00000070: 32db a03d 5b62 f7be c483 32bf b617 ddbe
00000080: d361 dcbe ec45 d43e efd0 2b3f 35e6 03bf
00000090: 4b97 393f 60ce fa3e c3bc 993d f571 52bf
000000a0: 0d28 23bf f58e 37bf 2dae 403e 9862 3a3e
000000b0: fc07 cfbe 2f4c ebbe 552a 3a3f 2b81 af3e
000000c0: ca19 b43d bded 16bf 9fad d1be 3716 adbe
000000d0: d5f5 2f3f 96bc 6b3f 85b0 b7be 0921 26bf
000000e0: c0fb dc3e e798 503e bad3 bdbe 8153 3dbd
000000f0: dd12 7cbf 4ea5 b3bd 4852 b43e b6f7 1fbf
00000100: 0b26 8abe 8682 96be ddfc 4c3f fe87 753e
00000110: dc5b 86bd 8074 a13d 6a04 dfbd 9cc8 4e3e
00000120: 74f9 c4bf ac7a 40bd c599 2ebf 1bf9 dd3e
00000130: fba4 5d3f e6a2 283f 471f b0be 7ed1 9c3d
00000140: fa7f 08bf 5f5a 893e 9dd0 753f 53c3 ebbe
00000150: acfb 1ebd 97fa 1b3d 16d0 823f 05e8 c7be
00000160: d4c4 91bf 47df 143f 4636 66bf 8410 3fbf
00000170: 745a ebbd bbb1 223e ba42 0bbf 76b7 ec3e
00000180: a868 fb3e aaaa b5be 61f8 e4be 3c49 4b3e
00000190: bad7 35bf 3b0e bd3c 749c 133f 6c59 4f3e
000001a0: b58d a3be 2d4e 9d3d 6afb 97bd c54a 72bf
000001b0: eaf5 aa3e f0c2 2c3f 1076 76be 1f59 d83e
000001c0: 2a3a f5bd 66d1 8a3e 44d5 413e d0cb 07bf
000001d0: a1d4 263f e8e9 abbd 2754 5fbf 1b53 373e

bias f4 [10]
-0.4601938 0.065842375 0.08674566 -0.22836706 -0.1399733 0.095223874 -0.7604551 0.44372198
0.1459267 0.07311371
00000000: 869e ebbe 5ed8 863d b5a7 b13d 0ed9 69be
00000010: 2955 0fbe bc04 c33d 2fad 42bf 872f e33e
00000020: cf6d 153e a4bc 953d
