Case_Study_1/trained_transformer/verification_36/vit_12_1_6_12.pt (torch, 17895 bytes, 19 tensors)

pos_embedding f4 [1, 10, 12]
000000 ec 58 71 3f 68 89 dd be 89 98 af 3d ab 22 ce bd
       0.9427631 -0.43268895 0.08574016 -0.10065206
000010 5e e9 3b bf b9 c8 40 bf cb b2 91 bf 64 b4 05 3e
       -0.73402965 -0.7530628 -1.1382688 0.13057095
000020 8c 28 81 bf 5e 80 16 c0 03 d6 60 3f 34 9e b2 bf
       -1.0090499 -2.351585 0.87826556 -1.395453
000030 87 3a 55 3f 27 6f d2 be 47 b9 72 3f 89 5c be bd
       0.8329243 -0.41100428 0.9481396 -0.092949934
000040 c0 7e 1a 3f a5 be d5 bf 2c f4 59 bf d7 6f 07 3f
       0.60349655 -1.6698805 -0.851382 0.5290503
000050 ca a1 a5 bf a6 b8 6a be d1 53 1e 3f 01 33 43 bd
       -1.2939999 -0.22922 0.61846644 -0.047656063
000060 04 24 3c 3f 1b 0f 1b 3f b5 88 50 bf e3 f5 cc be
       0.73492455 0.60569924 -0.814586 -0.40031347
000070 79 f7 bb 3d 22 5d 4b bf 6c 4f 13 bf 67 6c 72 be
       0.09178061 -0.79438984 -0.57543063 -0.23674165
000080 69 6c 05 bf 96 66 20 bf c6 10 de 3f fa d2 ab be
       -0.52118546 -0.62656534 1.7348869 -0.335594
000090 84 f4 cb be 62 54 9a 3f d8 8a ee be 58 29 ad 3f
       -0.39834988 1.2057002 -0.46590304 1.3528242
0000a0 15 67 ac be 20 9a 9e bf 98 cb 5c 3e 9f b2 8c 3f
       -0.33672395 -1.2390785 0.2156204 1.0992011
0000b0 bf 57 39 3e 64 0a 54 bf 7c d6 ba 3e 1f 35 db bd
       0.18099879 -0.82828355 0.36491764 -0.107034914
0000c0 fd 8b 38 3f 10 04 6c 3e 95 3d 42 be 63 42 eb 3f
       0.72088605 0.23048425 -0.18968804 1.8379635
0000d0 cb 3a 9b bf 30 8a a0 bf 2f 27 1f bf 0e 4c 4c bf
       -1.2127317 -1.2542171 -0.62169164 -0.7980355
0000e0 2c 34 42 3e b0 ce f6 be 0e 57 8d 3c 9c 85 8b 3f
       0.18965214 -0.48204565 0.017253425 1.0900149
0000f0 ee 81 af 3d 20 c5 93 3e 93 9d b7 be 2f a2 e1 3e
       0.08569704 0.28861332 -0.35862407 0.4406905
000100 48 b8 bf 3f fe 4e 75 3c 5f 41 a2 bf fd 44 a4 3e
       1.4978113 0.0149724465 -1.26762 0.32083884
000110 06 d9 fb be d3 22 5a bf fe 75 49 bf b7 9d 12 c0
       -0.49189013 -0.8520939 -0.78695667 -2.2908762
000120 ab 4c 59 bf d8 9a c2 3e a5 9e 1c 3d 88 df dd 3e
       -0.8488261 0.3800876 0.038237233 0.43334603
000130 61 e3 2f bf 6c b3 d7 3f fc c5 2c bf 5a e5 76 be
       -0.6870633 1.685163 -0.674896 -0.24110928
000140 75 69 c0 be e2 d7 0d 3e 1b 32 93 3e 73 66 6a be
       -0.37580457 0.13851884 0.28749165 -0.22890644
000150 a6 32 84 3f 65 74 af 3f 94 ed 48 be 10 34 21 3c
       1.0327957 1.3707396 -0.19621879 0.009839073
000160 a9 c8 94 3e 10 59 7c 3c fa 0b ce 3c b0 66 12 bf
       0.29059342 0.0154020935 0.025152195 -0.5718794
000170 43 54 89 3c f1 99 95 be 23 79 d1 3f be 78 e5 be
       0.016763812 -0.2921901 1.6365093 -0.4481868
000180 9c 9d 4d 3f a1 ec ea 3f 35 ee 80 3f 7b 3c 86 be
       0.8031862 1.8353463 1.0072695 -0.26218018
000190 ef f3 9d 3d d8 b2 1b be 8a 21 3d 3f 67 12 4b 3f
       0.07712542 -0.15204942 0.738793 0.79324955
0001a0 e0 3e dc be 4f 6b 15 bf ff 08 a6 3f b1 b1 aa 3e
       -0.4301672 -0.58366865 1.2971495 0.33338693
0001b0 b5 09 5b 3f 15 e5 b8 3e 3d 19 90 be 1b b4 e8 3e
       0.85561687 0.36112276 -0.28144255 0.4544991
0001c0 f9 0c 5b 3e 1c b0 24 be 3a 73 ce 3d 59 70 89 bf
       0.21391667 -0.16082805 0.100805715 -1.0737411
0001d0 a0 9a 78 3f e8 bd 54 bf 51 83 a6 3f 60 e6 33 be
       0.9711094 -0.83102274 1.3008825 -0.1756835

cls_token f4 [1, 1, 12]
000000 0a af 5d bf 1c 0f 4e 3e 4e 87 1a 3f 4b 8f d7 be
       -0.86595213 0.20122951 0.6036271 -0.4210151
000010 61 a7 00 bc cf a6 d6 3e 7c 61 1f 3e 01 ed a1 3d
       -0.007852406 0.4192414 0.15564531 0.07906533
000020 6b 89 ca be 16 03 0a 3e db 16 ac bf 22 f2 d7 bf
       -0.39557967 0.1347774 -1.3444475 -1.6870768

weight f4 [12, 4]
000000 22 b3 ac 3f 90 f6 a8 3f 38 22 76 3e 88 32 25 bf
       1.3492167 1.3200245 0.24036491 -0.6453023
000010 2e 8d 8f bf 9e 3b 43 3e e3 34 8a be 20 15 f6 3e
       -1.121496 0.19065711 -0.26993474 0.48062992
000020 f9 30 21 bf e0 20 1d bf df 04 c1 bf 47 d1 f9 be
       -0.6296535 -0.6137829 -1.5079612 -0.48792478
000030 5e 43 0f 3f 30 4c 9b 3e fa 4c 24 bf 3e 8d a7 bf
       0.5596217 0.30331564 -0.64179957 -1.3089979
000040 6c 44 fe be 02 8e ee 3e 74 ae 9b 3e 42 9c 24 3e
       -0.49661577 0.46592718 0.30406535 0.16075233
000050 75 be 60 3d e5 98 93 bf ae 85 ae 3f ea 36 9f 3d
       0.054869134 -1.1531035 1.3634546 0.07774146
000060 89 fe 61 bd a3 62 55 bf 52 80 db 3e 01 01 c4 be
       -0.055174384 -0.8335363 0.42871338 -0.38282016
000070 c4 1f 97 bf e8 4b 19 3d 96 7f a6 3f f4 57 a8 3e
       -1.1806569 0.037425905 1.3007686 0.32879603
000080 ad e8 a2 3f 3e 5a f3 be dc 00 46 3f ae c6 03 3f
       1.2727257 -0.47529787 0.7734506 0.51475036
000090 10 c1 17 bc 81 20 2f 3f ee 8e 35 bf 13 c1 a3 3d
       -0.009262338 0.6840897 -0.7092122 0.0799581
0000a0 51 9d dd 3e 97 fb 6a 3f 5a dc a1 be 54 0a 7d 3f
       0.43284085 0.91790146 -0.31613427 0.98843884
0000b0 2f f4 5b bf 49 1e 8d be e5 db 9d 3f 54 ce fe 3d
       -0.8591947 -0.27562168 1.2332731 0.12441698

bias f4 [12]
000000 40 3e 26 be 70 30 15 bf cf 49 be 3e 18 86 9f 3e
       -0.16234684 -0.58277035 0.37165686 0.31156993
000010 ec e4 83 3e 08 36 43 3e 58 50 a3 3e 8f 98 05 3f
       0.2576059 0.1906358 0.31897235 0.5218591
000020 da d7 07 3e 58 5f 99 be 0e fe 55 bf be 1c 5b 3e
       0.13265935 -0.29955554 -0.8359078 0.21397683

weight f4 [12]
000000 5f a8 9f 3f 44 4c 8a 3f 23 c1 c2 3f b8 5f 9e 3f
       1.2473258 1.0804524 1.5215191 1.2372961
000010 8c 09 7b 3f 6c c5 81 3f b0 63 95 3f 3f fe a4 3f
       0.9806144 1.0138373 1.1671047 1.289009
000020 b0 c4 ab 3f 69 30 90 3f a7 77 8d 3f 1f 67 96 3f
       1.3419399 1.1264774 1.105214 1.175022

bias f4 [12]
000000 6e 7d 50 be 72 58 f8 bd ae 01 34 3e 98 e1 a0 3c
       -0.20360348 -0.121262446 0.17578766 0.019638821
000010 3e 4b 19 bd 11 e6 a3 bd bf 85 4b 3d ba ad 01 be
       -0.037425272 -0.08002866 0.049688097 -0.12663928
000020 a0 bf 3d bc 4e 49 d3 3e 67 74 cb bd 66 d1 05 3e
       -0.0115813315 0.41266865 -0.09934311 0.1306816

weight f4 [36, 12]
000000 79 6c 32 3d c7 75 8c 3e 7f 6f 58 3e 6a 34 68 bd
       0.04356048 0.27433607 0.21136282 -0.05669061
000010 67 e4 7b be ac ae cf bd 1b 20 d0 be 3e 4a bf 3e
       -0.24598847 -0.10140738 -0.40649495 0.3736133
000020 1e 92 91 be b4 a0 6f 3c 8d 35 65 bd c2 7e 49 be
       -0.2843179 0.014625717 -0.055959273 -0.1967726
000030 bf 89 6e 3a fd d3 47 3e 2f d6 4e bd 0e fd 88 3e
       0.0009099505 0.19514461 -0.05049723 0.26755565
000040 4f 34 e4 3c ed 0a 5a 3e cc 59 82 be 12 e8 1d be
       0.027856974 0.2129323 -0.25459135 -0.15420559
000050 ce 38 65 be de a4 1d bd 77 a3 5a be 9a 91 8e 3d
       -0.2238495 -0.038487308 -0.2135142 0.06961365
000060 3c bd 8b 3d a3 4f 37 bd cc 45 bf be 59 a8 a8 be
       0.06823203 -0.044753682 -0.37357938 -0.3294094
000070 7e 46 bb 3c 12 4a 0d be da 38 48 3e ba 0b 9a be
       0.022860762 -0.13797787 0.19552937 -0.30087072
000080 38 d9 21 3e 7b c5 6d 3e e2 5d ed bd 42 71 b4 3e
       0.15805519 0.23219864 -0.11590172 0.3524266
000090 15 6d 03 3e 51 3b 35 be a2 5e f4 bd 47 bc 57 bd
       0.1283458 -0.17698409 -0.11932112 -0.05266979
0000a0 77 0c 05 be d9 06 73 bd 5d 93 80 3e 41 78 87 be
       -0.12993036 -0.059332702 0.2511243 -0.26458934
0000b0 f1 4b 1b be c4 a7 40 be ba 28 d9 3d c2 f7 12 3d
       -0.15165688 -0.18813998 0.10603471 0.03588081
0000c0 0c 30 91 be c9 16 5e 3d 5e 81 d7 be c7 eb 02 be
       -0.2835697 0.05422095 -0.42090887 -0.12785254
0000d0 27 47 59 be b5 c2 71 be 52 a9 99 bd 99 91 bf be
       -0.21218549 -0.23609431 -0.075029984 -0.3741577
0000e0 c2 54 95 bd a0 16 98 3e 2b 61 bd bd 28 d8 aa 3e
       -0.07291557 0.29704762 -0.09247049 0.3336804
0000f0 ee b3 fe bd ae 57 65 bd 49 9d 98 3d 9e b8 90 3e
       -0.124366626 -0.05599182 0.07451875 0.28265852
000100 25 7f ac bc bd 92 67 3e 0c f3 88 bc 1a 2a 27 3e
       -0.021056721 0.2261457 -0.016717456 0.16324654
000110 41 5d 20 3e 27 94 f3 3d 86 bd 0e bf 74 f1 b5 bd
       0.15660574 0.11893492 -0.5575794 -0.08883944
000120 a1 e0 cf 3e 8f 7f d8 3e 0e 44 8d 3e e7 59 ca 3e
       0.40601066 0.4228482 0.27590984 0.39521715
000130 cf ff 26 3e 8d 81 ca 3e b5 a6 49 be f8 bb b2 3d
       0.1630852 0.39551964 -0.196925 0.087272584
000140 44 0d d5 be b5 01 02 bf 27 50 a3 be 10 7d eb be
       -0.41611683 -0.50783855 -0.3189709 -0.45993853
000150 d1 8f 05 be 8c ec 6f bd e8 3f 5c be c3 64 80 bc
       -0.13043143 -0.058575198 -0.21508753 -0.015673047
000160 7b dd 05 be d5 7e b9 3d 51 53 38 3e 96 87 5c be
       -0.1307277 0.090573944 0.18000533 -0.21536097
000170 10 42 3c 3e 78 f4 05 3d e4 c6 06 bd 39 62 ad bd
       0.18384576 0.032703847 -0.03290452 -0.08466
000180 69 1d 11 3e e0 5f f5 3d 1a 61 81 3d 4d 71 a6 bd
       0.14171375 0.11981177 0.06317349 -0.08127079
000190 00 e7 c7 3e cd 4c 47 3d c4 96 94 be 29 09 b2 3c
       0.39043427 0.048657227 -0.29021275 0.021732884
0001a0 f2 90 07 be 76 16 44 be 18 1f 9d be 70 76 9c be
       -0.13238886 -0.19149193 -0.30687785 -0.3055911
0001b0 7e 34 17 3e 80 62 c0 be 5f e3 10 3e 20 b5 ae be
       0.14766118 -0.3757515 0.14149235 -0.34122562
0001c0 73 0a 71 be b0 e6 7d be 4b 23 74 bc d0 cc 1d bb
       -0.23539142 -0.24795032 -0.014900993 -0.0024078377
0001d0 5e 92 94 3e e8 a5 9b bd 24 1d 2c bc 69 2a 88 3e
       0.2901792 -0.076000035 -0.010504995 0.26594856
0001e0 46 01 82 be 7c a7 11 be c9 56 a0 bd e2 eb 9b be
       -0.25391597 -0.14224046 -0.07829053 -0.30453402
0001f0 76 97 d5 be 7a 63 b8 bd 87 80 9e 3d 1a ad dc be
       -0.41717118 -0.09003349 0.077393584 -0.43100816
000200 7e 5d 85 3d 55 08 b8 3d 39 d1 ea 3d 4b de 94 3e
       0.06511973 0.08985964 0.11465687 0.29075846
000210 de fd 3e 3e 9b 6e bf 3d 70 b4 1a be 28 56 97 3e
       0.1865153 0.09347268 -0.15107894 0.2955792
000220 c5 4a 8e be ad 93 d8 3c 5d 15 2a 3e c6 1a e3 bd
       -0.2779142 0.026437605 0.16609712 -0.11089091
000230 15 41 5a bc 7d 1a 9a be ea 4f e0 3e 5d e6 81 3d
       -0.013321181 -0.30098334 0.4381097 0.063427664
000240 b8 70 3b bf 9f c1 5c 3e e2 74 ba be b3 6a df be
       -0.7321887 0.21558236 -0.364173 -0.43636093
000250 a2 e8 0d 3e 23 34 9d 3e 5a 61 8a 3c 1a 0e 80 3e
       0.13858274 0.3070384 0.016892124 0.2501076
000260 58 12 65 3e 3e 76 b9 be 46 ae 09 3e dc 81 88 3e
       0.22370279 -0.36223024 0.13445386 0.26661575
000270 96 f1 08 bf 5c 65 02 3e e6 91 10 bd aa f5 aa be
       -0.5349363 0.12733978 -0.03529539 -0.33390552
000280 c7 69 63 3e 67 b5 1b 3e 6f 58 18 be 3c 88 99 3e
       0.2220832 0.15205918 -0.14877485 0.2998675
000290 bf 20 11 bc 8c cf 75 be b2 1c 4c bd 6f 73 d6 bd
       -0.008857905 -0.24004954 -0.049832053 -0.10471236
0002a0 c8 b4 da bd 73 a0 32 be 43 71 f0 bd b6 b1 b2 be
       -0.106790125 -0.17444019 -0.11740353 -0.34901208
0002b0 ce cf cf be 6f 2f 1b 3e 62 2c 65 3e 4f 8f c4 3e
       -0.4058823 0.15154813 0.22380212 0.38390586
0002c0 f6 e5 81 3e 0a 05 f5 be 7e 69 5b 3e 86 08 83 3e
       0.2537076 -0.47855407 0.21426961 0.2559244
0002d0 f4 ae 5a 3d 42 06 36 be bf 0e 35 bc 1a 51 ee be
       0.053389505 -0.17775825 -0.011050879 -0.4654625
0002e0 de 46 55 be 38 1d 88 3e 58 ad 1e 3e 96 12 2f 3e
       -0.20827815 0.26584792 0.15495813 0.17096934
0002f0 ec 91 8c 3e ed 9d 1f bf 32 14 33 be db 76 7c 3e
       0.2745508 -0.6235035 -0.17488173 0.24654715
000300 e5 6e 37 bf 74 1b 20 bf 65 af 52 bd 0c 22 54 3d
       -0.71653587 -0.6254189 -0.0514368 0.051790282
000310 5a 8f 6c 3e a4 04 67 3e d5 b0 0e bf 89 80 fa 3d
       0.2310156 0.22560364 -0.55738574 0.122315474
000320 09 0b 2e 3f 48 bf 8b be fc 97 dd 3c 36 6c 65 be
       0.6798559 -0.27294374 0.02705001 -0.2240456
000330 53 d5 04 3f 4b f0 71 3d 5b 97 55 3e 19 f5 5e be
       0.51888007 0.05906705 0.20858519 -0.21773185
000340 13 65 51 bd ac 3e 3f bf 58 61 29 3f c0 42 dd be
       -0.051121783 -0.74705005 0.6616416 -0.4321499
000350 78 c6 89 be a8 3f ee 3e 24 ae be 3e 69 fa c2 3d
       -0.26909232 0.4653294 0.37242234 0.09520418
000360 b8 1c 9e bd d9 a8 a8 bc b2 4b 6d be b0 a7 22 3d
       -0.077203214 -0.020588325 -0.23173407 0.0397107
000370 81 8b b1 3d 16 a1 88 be 47 20 71 bf 4e 8f 47 3e
       0.086691864 -0.266854 -0.94189876 0.1948826
000380 ac 45 0a 3e 52 c2 7e 3f 86 72 89 be 83 4d 5c bc
       0.1350314 0.9951526 -0.26845187 -0.013446215
000390 e1 fa fe 3d 78 5b 97 be e2 36 a4 3e cb a9 8a be
       0.12450195 -0.29561973 0.32073122 -0.27082667
0003a0 54 da 9a bd 25 fc 40 be ee ef 00 3f 04 6f 90 bc
       -0.07561174 -0.18846186 0.50366104 -0.017631061
0003b0 de c4 20 be d7 b9 54 bf 5c 03 f2 3e af 69 4c 3c
       -0.15700099 -0.8309607 0.47268188 0.012476369
0003c0 09 57 81 3e 88 a1 a0 be d2 5d 25 bd 9a 81 cf 3d
       0.25261715 -0.3137324 -0.040372677 0.101321414
0003d0 75 ab ab 3c ea 42 95 be 74 0c 32 be dd 95 e8 be
       0.02095578 -0.29152614 -0.17387563 -0.45426837
0003e0 71 22 01 3e d0 d4 f6 3e da c5 08 3f 4a b1 26 3e
       0.12610795 0.48209238 0.534269 0.16278568
0003f0 f1 51 e8 be 7b 0f 9c 3e c6 69 a3 3e 13 ab 4a 3e
       -0.45375016 0.3048056 0.31916636 0.19791822

weight f4 [12, 12]
000000 16 32 2f be 94 5b c0 3d b5 5f 18 3f aa e5 4d 3e
       -0.1710895 0.09392467 0.5952104 0.20107141
000010 52 92 93 be 51 0e 21 bf 3c 7c 55 3f c5 0c 87 bd
       -0.2882257 -0.6291247 0.8339269 -0.065942325
000020 91 85 4c 3f 21 de e0 3d 80 cd e3 be 31 7e c2 3d
       0.79891306 0.10979868 -0.44492722 0.09496725
000030 61 3e 62 bf 63 d7 91 3e fb 52 11 3e 40 4b 5e 3e
       -0.8837643 0.2848464 0.14191811 0.21708393
000040 da 48 b9 3b bc 1d 78 be f3 b5 20 3e 6d 58 7a bc
       0.0056544365 -0.24230093 0.15694408 -0.015279871
000050 3c 2d fa bd cb e8 40 be a1 26 4f 3e 06 fb a5 be
       -0.12215659 -0.18838803 0.2022958 -0.32418078
000060 03 52 54 be df 1a a7 be c5 89 70 3e 96 a2 88 be
       -0.2073441 -0.3263769 0.23490055 -0.26686543
000070 90 cd 01 3f 72 63 d1 be b3 9a db 3e 78 93 54 3f
       0.5070429 -0.40896183 0.42891464 0.8303752
000080 48 83 1d bf da bb 01 bf 7a 1e 1a 3f a6 2d d5 3d
       -0.61528444 -0.50677264 0.60202754 0.104090974
000090 7b cd 95 3e e1 14 20 bf 0c 31 c8 bd f2 7e bb be
       0.29258332 -0.6253186 -0.0977498 -0.3662029
0000a0 94 5b da be b4 f3 22 be 52 7a 5d bf 7d de 07 3e
       -0.42647994 -0.15913278 -0.8651477 0.13268466
0000b0 75 82 a8 be 67 0e 22 bf 40 1a 9b bd 1e af 66 3e
       -0.3291203 -0.63303226 -0.07573366 0.2252774
0000c0 53 36 ee 3e 5c 9e dd 3e a8 10 c7 bd 54 bc ce 3e
       0.4652582 0.4328488 -0.09719974 0.40378058
0000d0 1a 1e ae bc d5 a8 ad be 16 29 02 3f 03 35 c7 be
       -0.021254588 -0.3391787 0.5084394 -0.38907632
0000e0 d4 03 90 3e a6 13 46 bf 54 0e a5 3e 8f ba ba 3e
       0.2812792 -0.7737373 0.32237494 0.36470458
0000f0 56 4f e1 3c 8d cc 22 bf c7 99 a8 3e da 88 37 bd
       0.02750365 -0.6359337 0.32929823 -0.044808246
000100 41 b3 86 bd 42 96 f6 3c 1c ff 81 3d 60 12 bb 3d
       -0.06577159 0.030100945 0.063474864 0.09134364
000110 fe 54 bf 3e 56 b9 16 3f e7 a9 0b 3f 2d 75 55 be
       0.3736953 0.5887655 0.54556125 -0.2084548
000120 68 73 27 be cf cd 51 bc ef 63 84 3e 46 10 ed 3d
       -0.16352618 -0.012805416 0.25857493 0.115753695
000130 d7 75 9c be 48 a0 cb 3e 7a 1d 13 3f 4b b4 2f bf
       -0.30558655 0.39770722 0.5746685 -0.6863448
000140 99 6c 66 bf 63 0a 34 be 20 a7 75 39 c7 be 54 be
       -0.90009457 -0.17582087 0.0002342728 -0.20775901
000150 88 8d a3 3e ec ec 1b 3f 11 e4 50 3f 0b ad a1 3e
       0.31943917 0.6090839 0.81598 0.31577334
000160 06 24 60 3f c6 2c 20 be 2d 49 38 bf 68 e3 49 be
       0.8755497 -0.1564208 -0.7198666 -0.19715655
000170 ac cb 00 be 2b ac 1b 3f d2 ac 67 be d0 72 cf 3d
       -0.12577695 0.6080958 -0.2262452 0.101293206
000180 00 22 3c 3e 06 20 10 3f 3e da d2 be 59 38 38 bf
       0.18372345 0.56298864 -0.4118213 -0.7196098
000190 38 f5 7f be 37 9d f0 bd 9a 36 71 be 35 75 f2 bd
       -0.24995887 -0.11748736 -0.23555985 -0.11838762
0001a0 9b 68 45 be 80 bd 8f bc b8 17 ae 3c d3 80 de 3e
       -0.19278185 -0.017546415 0.021251544 0.4345766
0001b0 d5 ea 08 bf 08 35 e2 be f1 7f ab be 2b 45 8c 3e
       -0.53483325 -0.44181085 -0.3349605 0.2739652
0001c0 2f ac 5b 3e 1b ce 9c 3e 3b b2 b1 3c a1 bf 96 3e
       0.21452402 0.30625996 0.021691432 0.29443076
0001d0 ac ef 28 3f b3 2d fa be 65 fd fb be e7 2f 5d 3f
       0.6599071 -0.4886299 -0.49216762 0.8640122
0001e0 ae 66 ab 3d 63 5c a8 3e 0c 15 27 be e3 05 27 be
       0.08369194 0.32882985 -0.16316622 -0.1631084
0001f0 85 75 5b 3e da 75 d5 3e b6 78 24 3e 73 aa aa 3d
       0.21431549 0.41691476 0.16061673 0.08333292
000200 8e 59 9f 3c 1d d3 e5 3d e0 dc 35 3e ae 57 19 bf
       0.019451883 0.11221907 0.17760038 -0.59899414
000210 cf 56 f1 3c be f8 e5 3d 6c 14 0e be b6 7d 8f 3e
       0.029460339 0.112290844 -0.13874978 0.28025597
000220 71 40 c3 be 08 4e 0b 3d 74 ec d3 be 69 c8 58 3e
       -0.38135102 0.034009963 -0.41391337 0.211702
000230 83 c1 ef 3d 25 2a 5f 3e 23 44 55 bf fe e9 20 bf
       0.11706831 0.2179342 -0.83307093 -0.62857044

bias f4 [12]
000000 dd 0e 3d 3e a8 70 a6 be 57 ab b0 bd e1 61 2c 3e
       0.18462701 -0.32507825 -0.086264305 0.16834213
000010 77 b5 33 3e 89 c3 c3 bc 71 d7 08 be f4 41 fb be
       0.17549692 -0.02389695 -0.13363434 -0.49073756
000020 bd 09 38 3e 2c cb e8 bd 93 3d 07 be a9 18 e6 3d
       0.17972465 -0.11366877 -0.13207082 0.11235172

weight f4 [12]
000000 f5 0b 7a 3f dc 17 3e 3f 69 ca 7f 3f 71 74 a2 3f
       0.97674495 0.74255157 0.9991823 1.2691785
000010 1b 17 96 3f e1 77 8a 3f c7 15 a2 3f bc 77 a3 3f
       1.1725801 1.0817834 1.2662896 1.2770915
000020 ad 87 93 3f 5e a3 62 3f 19 52 92 3f a7 39 89 3f
       1.152578 0.8853053 1.1431304 1.0720719

bias f4 [12]
000000 0f fc b9 be bf 38 fa bc 55 e9 84 be d5 1e 6a be
       -0.36325118 -0.030544637 -0.25959268 -0.22863324
000010 8c a3 59 3e 7e 63 2a 3e 9f 35 8b bd cf 0d 13 3e
       0.21253794 0.16639516 -0.06797337 0.14360736
000020 43 0a 03 bc d9 bc 9c 3e c7 32 02 be b6 28 17 3f
       -0.007998052 0.3061283 -0.12714683 0.59046495

weight f4 [12, 12]
000000 1a 35 5b 3c 4a 4d d4 3e 80 b6 0b 3d ee 0c 8f 3e
       0.01337936 0.41465217 0.034109592 0.27939552
000010 cc 7c 8b 3e cd 2e 1f bf 85 25 90 be 5c c8 20 3e
       0.2724365 -0.6218079 -0.28153625 0.15701431
000020 e5 4c b4 bc 93 5e 45 be f8 45 89 3c 21 64 12 3f
       -0.022009322 -0.19274358 0.016756997 0.57184035
000030 8a 5c 7a bd 6d f2 af 3e 7c 1c 03 bf 04 b3 82 be
       -0.06112341 0.34364644 -0.5121534 -0.25527203
000040 92 2a 4c bd 4f d1 3b bd 11 60 d1 bd b7 d4 e4 bd
       -0.049845286 -0.04585391 -0.10223401 -0.11173385
000050 76 17 3e 3f cc 05 86 be 6d e5 b2 3e 4d f4 ee 3e
       0.7425455 -0.26176298 0.34940663 0.46670762
000060 61 33 0f 3f c3 12 48 bd ba 39 da 3e 70 47 af 3e
       0.55937773 -0.048846018 0.42622167 0.3423419
000070 f2 ee 88 be 48 62 1d bd dd 3f b5 3c 23 e7 a5 be
       -0.267448 -0.038423806 0.022125179 -0.32402906
000080 35 84 ec be ae 99 02 be f2 ac 06 3f 0d 9b 9e be
       -0.46194616 -0.12753937 0.52607644 -0.3097767
000090 4d 76 41 bd 9f ca 8d 3e 34 6b 55 be d5 2d b7 be
       -0.04723196 0.2769365 -0.20841676 -0.35777155
0000a0 66 d2 12 3f a9 55 d7 be 9d 8c 42 3f 4a 5f 7b 3e
       0.5735229 -0.4205754 0.7599581 0.24548069
0000b0 96 18 47 3e b5 61 39 3f 61 f5 14 bf d1 61 99 be
       0.19442973 0.72414714 -0.5818692 -0.2995744
0000c0 6f 5d e9 be 3e b3 98 be 7c b1 aa ba 4f 3f 6f bd
       -0.45579097 -0.2982425 -0.0013022865 -0.058409985
0000d0 b7 04 ea 3e 38 8b 37 3e 83 ea 1d 3f 06 d1 e3 3d
       0.45706722 0.17924201 0.6168596 0.111238524
0000e0 ca 29 37 3e f0 f7 96 3e d0 5c 61 3e b6 89 99 be
       0.17887035 0.29486036 0.22008061 -0.29987878
0000f0 82 7c 39 be 16 44 27 3e 89 67 f8 be 48 46 55 3e
       -0.18113902 0.16334566 -0.4851649 0.20827591
000100 9c 32 22 be 72 cb 7f 3e 96 34 e1 be 47 7a bb be
       -0.15839618 0.24979952 -0.43985432 -0.36616728
000110 9d 1c f4 3a 94 fd 81 3d 39 3c 06 3e 90 8c d5 3d
       0.001862425 0.06347194 0.1310891 0.10427201
000120 6d 43 f2 3c d4 78 8d be 2f 05 76 be 27 db fa 3e
       0.029573167 -0.27631247 -0.24025415 0.48995325
000130 a7 6b 28 be 36 2c 75 be c2 46 12 3f 1d 17 99 bd
       -0.16447316 -0.23942646 0.5713922 -0.07475112
000140 55 9c e2 3e 84 e8 d1 be 5e 1d 8d 3e bb 11 44 be
       0.44259897 -0.40997708 0.27561468 -0.19147389
000150 f3 c8 e4 bd c4 a8 b5 bc 1f 99 bc 3e 0a ec c1 3d
       -0.111711405 -0.0221752 0.36835572 0.09468849
000160 e8 c9 08 bf 40 af fe 3c 6f b1 88 bc 08 3c 8e 3d
       -0.53433084 0.031089425 -0.01668617 0.06945044
000170 cd 1e 8b 3e 26 dd 4f be ea 00 91 bd 8e f4 29 bf
       0.27171937 -0.20299205 -0.070802525 -0.66388786
000180 04 f9 2e be 33 5e dc bd f8 8e a9 bd 56 31 38 be
       -0.1708718 -0.107601546 -0.08279222 -0.1798757
000190 ec d2 c1 be 42 c3 73 be 38 45 f9 3e 90 68 df 3e
       -0.37856233 -0.23804954 0.48685622 0.43634462
0001a0 46 a7 27 3e f8 17 e1 be a0 1e d7 3e f0 6c 16 be
       0.16372404 -0.439636 0.42015553 -0.14689994
0001b0 e2 ce 0b 3e a9 19 51 be b9 3a cf 3d b7 df 69 bf
       0.13653138 -0.20419945 0.10118622 -0.91356987
0001c0 f9 b4 a0 3e 97 a3 a5 be a2 b2 9f 3e ff 48 45 be
       0.3138807 -0.32351372 0.31190974 -0.19266127
0001d0 5d 97 2b 3e 0a 8d b6 3d 09 1a 8a 3e 4d fc 19 be
       0.1675696 0.0891362 0.26972988 -0.15037651
0001e0 9b 4e 42 bf 9b 4a d9 be d6 6e c8 3c 58 be bb 3e
       -0.7590119 -0.42439732 0.024466913 0.36668658
0001f0 77 21 34 3e 52 3e e0 3e e7 ca 0a 3c 64 74 18 3f
       0.17590891 0.43797547 0.008471227 0.595526
000200 42 bb b7 be 49 dc 08 3e 59 2c 49 bc cf fe 41 bc
       -0.35885054 0.13365282 -0.01227864 -0.011840536
000210 f1 37 69 be 62 69 4c be 94 f9 1d 3d 4f a9 04 bf
       -0.22775246 -0.19962075 0.038568094 -0.51820844
000220 b8 cb 8c bd 7d 19 9f 3e 89 ac 6e 3c 82 8a 48 3f
       -0.06874794 0.31074134 0.014567503 0.78336346
000230 73 6a 42 3e 47 c8 d8 bc 1b 25 b6 3d 25 b7 68 3b
       0.1898592 -0.026462687 0.08893796 0.0035509553

bias f4 [12]
000000 20 cb e5 3d 84 8d 01 be 25 3b 22 3e 4d ad 2b be
       0.11220384 -0.1265164 0.15842874 -0.16765328
000010 da 85 c1 3d 9f 11 ac bd a5 54 54 be a1 d4 f9 be
       0.09449358 -0.084017985 -0.20735414 -0.48795035
000020 e3 1d 29 3e 9b 89 ea be 9b 5d d5 bd d2 96 f1 bc
       0.16515307 -0.4580811 -0.104182445 -0.029490862

weight f4 [12, 12]
000000 69 3b 98 be 2b 64 e5 3e a1 f0 99 3e 03 a3 cb be
       -0.29732826 0.44802985 0.30066398 -0.39772806
000010 ad 27 93 3e 8d 10 37 3e 30 c8 17 3e 47 87 47 3e
       0.28741208 0.17877407 0.14822459 0.19485198
000020 c3 3d 17 be 1e 56 bf ba 3d 8d d0 be a2 2c f9 bd
       -0.14769654 -0.0014597808 -0.40732756 -0.12166716
000030 90 8e ca bd a7 7b e9 3e d6 3e a7 bd 8e 0f c1 be
       -0.09890473 0.45602152 -0.08166282 -0.3770718
000040 fb 67 bf 3e 7d 3e c6 3c 87 f1 3a bd 81 72 22 bd
       0.37384018 0.024199719 -0.045640495 -0.03965998
000050 8a ea 8b be 6b ba 3f 3f f4 c2 d8 3e ba 47 2c be
       -0.27327377 0.74893826 0.42336237 -0.16824237
000060 fc 48 ee be 2e 39 8e be da e4 1b be e1 20 b9 be
       -0.46540058 -0.27778 -0.15224019 -0.36157897
000070 82 d8 15 3f 60 85 40 be 3e b2 28 3f d0 4b 08 be
       0.5853349 -0.18800879 0.65896976 -0.1331017
000080 70 4e 99 be 8b 39 2a bf f6 11 11 bf 48 00 11 3f
       -0.29942656 -0.66494054 -0.5666803 0.56641054
000090 c9 e7 ba bd de 5e e8 3e 4d ad a5 be aa c0 2f 3d
       -0.09126241 0.45384878 -0.3235878 0.04290835
0000a0 dc 6d f8 be f5 a8 7f bd 7c 3e 65 3d 98 5f 2e bd
       -0.48521316 -0.06241699 0.055967793 -0.042571634
0000b0 f2 eb dc 3e f4 56 19 be a5 c7 42 be 11 ae 30 be
       0.43148762 -0.14974576 -0.19021471 -0.17253901
0000c0 03 04 91 3e 5b 31 02 be da 4c 31 bc fa 97 5d 3e
       0.28323373 -0.1271414 -0.0108215455 0.21640006
0000d0 28 7d b7 3e e2 54 4e bc 80 ed c1 3d 3a 4f d3 be
       0.35837674 -0.01259348 0.09469128 -0.41271383
0000e0 ce ab c2 3d 8f 2c 73 3e 9e cd 0a be 2c 24 dd 3e
       0.095054254 0.23747467 -0.13554999 0.4319166
0000f0 1a f5 fc 3c 8a c5 62 3e 8b c2 18 be 5e 3a 8a 3e
       0.030878592 0.22145668 -0.14917962 0.26997656
000100 77 e4 25 be 69 ec 2b 3e 7e 38 56 be 27 41 0e be
       -0.16200434 0.16789402 -0.20919988 -0.13892041
000110 c4 37 33 3e 60 97 0e bc b0 91 0c be 31 de f8 be
       0.17501742 -0.008703083 -0.1372745 -0.4860702
000120 5a ae c8 3d 95 01 2d be 1c 2d 84 3e 89 4d 9b be
       0.0979888 -0.16895135 0.25815666 -0.30332592
000130 69 63 9c 3d dc 38 4c 3e 18 9a d1 be bf 23 e7 3e
       0.076361485 0.19943565 -0.40937877 0.4514446
000140 f5 fb dc 3e 3a 52 5b be 5a 91 19 be f6 0a d2 3e
       0.43160978 -0.21418086 -0.14996853 0.41023988
000150 0b 5b 9c be 3f 9a 32 be f6 03 67 3d 03 3c 38 3f
       -0.3053821 -0.17441653 0.05640026 0.7196657
000160 3d fb a0 be 79 25 19 3e 23 d8 3a 3e 6c 37 6a 3c
       -0.3144168 0.14955701 0.18246512 0.01429544
000170 e5 04 aa 3c 63 23 2b be d8 a7 64 be be 4a 8c be
       0.020754287 -0.16712718 -0.22329652 -0.27400774
000180 ab 2a cb 3e fe 52 b3 3e ba b5 a6 3e e8 71 12 be
       0.3968099 0.35024256 0.3256052 -0.14301264
000190 fa a6 e0 be 01 5c ab be 3e 21 a4 3e 12 f4 67 bd
       -0.43877393 -0.3346863 0.32056612 -0.056629248
0001a0 67 06 91 3e 88 66 b3 3e d6 30 9a 3e 16 bc 38 3e
       0.28325197 0.35039163 0.30115384 0.18040499
0001b0 3e 9d c3 be 5c 7a 62 3e f0 27 af 3e 07 ac 99 bd
       -0.38205904 0.22116989 0.34210157 -0.07503515
0001c0 6a 23 ee be b1 62 57 be 22 85 e5 bd d2 02 9b 3e
       -0.46511394 -0.21033742 -0.11207034 0.3027559
0001d0 3f 25 07 3e f4 e2 d5 bd 15 69 b6 3e 5c e4 ad 3d
       0.13197802 -0.104436785 0.35627046 0.08490822
0001e0 ec b1 12 3f ed f1 d5 be fd e6 3c be 92 49 cf bc
       0.5730274 -0.41786137 -0.1844749 -0.025303636
0001f0 7d f8 aa be c0 d1 1d be 75 ed d6 be 13 ba 83 3e
       -0.33392707 -0.15412045 -0.4197804 0.257279
000200 a3 a6 c5 be 23 b6 c3 bd b6 37 9b be 2f d0 3b 3e
       -0.38603696 -0.09556224 -0.30315942 0.18341134
000210 39 13 df be d9 cf 03 bf e3 55 2a 3f 3d a3 9e 3f
       -0.43569353 -0.51489025 0.665373 1.2393566
000220 d5 ae e2 3e 6b 3c 3c 3e 44 80 3d bc 24 f5 c5 3e
       0.4427401 0.18382423 -0.011566225 0.3866359
000230 14 74 26 be 50 b4 b3 be 5e a9 33 be e4 23 93 be
       -0.16255218 -0.35098505 -0.17545077 -0.2873832

bias f4 [12]
000000 c4 58 4d bd d5 75 5a be 9b b9 7e bd 5b f9 09 3e
       -0.05013348 -0.21334012 -0.062188726 0.13474028
000010 19 ea 1c be f6 52 13 3e ec 00 a8 bd c5 b9 fd 3d
       -0.15323676 0.14387116 -0.08203301 0.12388948
000020 05 14 0c 3e df ab 34 3e 78 02 66 3e 68 47 21 3e
       0.13679512 0.17643689 0.22461879 0.15749896

weight f4 [12]
000000 9e 5b df 3f 88 fa f7 3f 85 a0 d0 3f dd 2f 08 40
       1.7449834 1.9373331 1.6298987 2.1279213
000010 fd b3 f7 3f 6a bd 0b 40 02 58 29 40 e0 86 03 40
       1.9351803 2.183436 2.6459966 2.055107
000020 b7 48 07 40 bf ea 01 40 42 49 2c 40 b4 95 b5 3f
       2.1138132 2.0299528 2.6919713 1.4186311

bias f4 [12]
000000 df eb 0b bf 30 39 a0 3e b7 a3 0c 3f f2 86 99 3e
       -0.54656786 0.3129363 0.5493731 0.29985768
000010 35 96 ab bd 78 99 a8 3e 99 f6 0b 3e b8 f5 23 3e
       -0.08378259 0.32929587 0.13668288 0.16011703
000020 b3 56 c9 3e 9b 8b 44 3e b4 0a ac 3e c3 e3 b7 be
       0.3932396 0.1919388 0.33601916 -0.35915956

weight f4 [10, 12]
000000 92 b9 ac 3e 68 a4 d5 be 6a 6e 82 be 43 0a 0b bf
       0.3373533 -0.41726995 -0.25474864 -0.54312533
000010 87 12 69 3f a3 f2 63 bf 63 22 4c be cc 2f f4 be
       0.91043895 -0.8904211 -0.19934992 -0.47692716
000020 04 0b dc 3e 1f 67 21 3e f9 1c 7f bf 9e d9 59 3f
       0.42977154 0.15761994 -0.99653584 0.8509768
000030 d3 2e 1e bf 2e 0d 36 3f ac 1d c4 3c 31 fd e4 3e
       -0.617902 0.7111386 0.02393993 0.4472442
000040 f7 6d 53 bf f5 b4 cf 3e 20 9b 0e 3d f6 49 da be
       -0.8258967 0.40567747 0.034815907 -0.42634553
000050 6e 78 0d bf 82 f9 a5 bf 94 d2 69 3f 36 7d f1 3e
       -0.55261886 -1.2966769 0.9133694 0.4716584
000060 a4 34 56 be db c2 65 3e 0f e2 0d 3e 16 d4 93 3f
       -0.20918518 0.22437613 0.13855766 1.1549098
000070 6f ed a7 be b6 b5 23 3f 57 d0 04 bd cf 21 03 3f
       -0.32798335 0.63949144 -0.03242525 0.5122346
000080 8a e1 2d bd bc 9a 1c bf 03 39 40 bf 1f 8a 03 be
       -0.04245142 -0.61173606 -0.7508699 -0.12845658
000090 b2 80 6a bf 62 0c 95 3d 5e f1 52 3f 59 98 db 3e
       -0.91602623 0.072777525 0.8239955 0.4288967
0000a0 ad b6 62 be 92 8e db be 9b bc 6c 3e 0d 63 60 be
       -0.22139998 -0.4288221 0.23118822 -0.21912785
0000b0 da cb 82 3e c8 92 c2 3e b5 63 06 3f d9 00 bd be
       0.2554615 0.3800261 0.5249589 -0.3691471
0000c0 ab 36 17 3f c2 15 96 3e f7 0f 99 3e e7 f1 46 bf
       0.5906779 0.29313475 0.29894993 -0.77712864
0000d0 dc 22 3a bf b1 e0 18 3e 88 dc 27 bf a5 e3 f8 3e
       -0.7270944 0.14929463 -0.6557088 0.4861118
0000e0 c0 fc 4f bf 78 e0 cd 3e 48 bb 59 3c c7 19 80 3d
       -0.8124504 0.4021032 0.01328928 0.06254917
0000f0 a7 55 10 3f fa 09 6f 3f 84 c3 cc 3e d2 2f b0 be
       0.56380695 0.933746 0.39992917 -0.34411484
000100 ba e6 2f 3f 41 81 0a bf 7a 1e 45 3f bf 82 1c bf
       0.68711436 -0.54103476 0.7699963 -0.61137
000110 4f 97 5c 3e 4d 16 3c 3e 5b af 11 bd d7 b1 af be
       0.21542095 0.18367882 -0.035567623 -0.3431537
000120 a4 63 15 3f 71 c5 4b bc 81 93 02 bf 37 78 3d 3f
       0.58355165 -0.01243721 -0.51006323 0.7401156
000130 9b ab 76 3e f6 4c 64 3f 11 bd 47 3f 56 61 83 bf
       0.240889 0.89179933 0.7802287 -1.026408
000140 06 33 9d bf f2 10 ff 3d 3b 83 58 bf ce 2d 95 be
       -1.2281196 0.12454404 -0.8457524 -0.2913651
000150 fc 45 49 be 77 c1 29 be ba c6 ad be c8 fd d7 3c
       -0.19655603 -0.16577707 -0.3394068 0.02636613
000160 33 44 eb 3b 6a e4 84 3e c4 fa 8a bf c2 ef 1e be
       0.007179761 0.25955516 -1.0857778 -0.15521148
000170 e0 82 15 3f 18 fb 47 3f 3c 3c 38 3f 51 af bd be
       0.58402824 0.78117514 0.7196691 -0.37047818
000180 94 87 c6 3d b7 f6 3e bf 48 db 16 bf 31 4b a3 bc
       0.09693828 -0.74595207 -0.58928347 -0.019933315
000190 98 50 04 bf 00 d1 1a be bb 0c 52 3f e5 d4 39 3e
       -0.51685476 -0.1511879 0.82050675 0.18147619
0001a0 9e 85 04 3e 31 25 56 be 5a d0 c8 3e e7 65 8f 3e
       0.12941596 -0.20912625 0.3922146 0.28007433
0001b0 94 35 80 3e 28 62 5c bf d7 b9 4e 3e 74 3b 2a bf
       0.25040877 -0.86087275 0.2018808 -0.6649697
0001c0 05 6a 03 3e 46 51 07 bf 92 2d 52 bf 02 61 10 3f
       0.12833412 -0.5285839 -0.82100785 0.5639802
0001d0 5b e5 1e 3e f1 8c 7a bd a5 84 38 3f 42 42 27 3d
       0.1551718 -0.06116957 0.720774 0.040834673

bias f4 [10]
000000 e6 d8 49 bf b0 70 df be 19 ae 11 3f 13 cb 98 3e
       -0.78846586 -0.4364066 0.56906277 0.29842433
000010 b6 0f 60 bd c3 31 b8 3e eb 4a 3f be b5 2a aa 3e
       -0.054702483 0.35975465 -0.18680923 0.33235708
000020 7e dc 7b 3e 5f 7c b6 be
       0.2459583 -0.35641763
