Case_Study_1/trained_transformer/verification/vit_60_4_6_64.pt (torch, 412810 bytes, 52 tensors)

pos_embedding f4 [1, 50, 60]
00000000: 27ac b7be 0280 1a3f 6489 4abf c1fa 623e
00000010: dac3 e6bf 26d2 b03f b9e6 9d3f de1e a23d
00000020: 5bcd 103f e42a f6bf 4ae4 0440 e652 663e
00000030: 4ed1 81bf 67ee bd3f 3bdc 59bf 4b88 5b3f
00000040: 1da0 a7be 9c40 3c3f 5e27 4d3f 596a 2c40
00000050: e7ab aabf 5083 96be 66df 15bf 336d dcbe
00000060: 259c 42be e22d 69bf 944c 443f 8ff1 31bf
00000070: 0e5d 76be 0562 aa3e 393f f23e 220b 143f
00000080: a891 51be 4524 9cbe 44c4 83bf 4694 0b3f
00000090: 3037 40c0 4de3 9ebf 6ca0 e23f c123 183f
000000a0: 37a3 edbf af50 5b3f d858 293f e658 8bbe
000000b0: 28cf 953f 48f3 3d3f e374 1c3f fc3b d6be
000000c0: 4dfb 1bbf 0531 3abf 6bf1 d83c ffff 0bc0
000000d0: c0ca 3fbf 24fa 2e40 27df 3cbe 8892 5d3f
000000e0: 9629 65bf 8711 b1bf 5361 3d3f 4292 423f
000000f0: 3496 883f 1025 5e3e d5fc 9ebf d234 b63f
00000100: f714 963e aed2 98bf 8e16 a9bf a226 5cbd
00000110: 3af0 fa3e 7b7c 6bbe 73d5 973f 3725 a43f
00000120: d621 96bf 0025 313f 0abe 0abf dac7 1ebf
00000130: ef83 e6be 5ff5 a83e 1fcf a5bf c275 01bf
00000140: f766 8abe 4ed5 e63f cfe3 85bf 2434 ab3f
00000150: 1800 ab3e be88 9ebf e3f5 3b3f e775 f63d
00000160: d55d 9d3f 80d9 83be 764e 29bf b0e9 9a3f
00000170: 3524 993e cd13 bfbf e7df 8cbd ad9c ef3f
00000180: 4585 f43f 0da9 54bf 0cec d63e 983f 71bf
00000190: 8b29 74bf da77 023f 6936 993d 994c f33f
000001a0: a516 d2bd a14b 993f 801d c63f d16a 28c0
000001b0: c823 d9bf 5384 7d3f 6e77 0f3f e85f 22bf
000001c0: 2a13 893e 21ad 9d3f e4db 65bf 7f6c 8fbf
000001d0: e906 97be 6f9b 223e 366e f23f 7bff f63e
000001e0: b536 9e3f e200 ccbe 6eb1 1a40 eaf1 86be
000001f0: f075 3ac0 bc8e efbb ce74 2bbf 780e 73bf
00000200: 4db6 1c3f 9bae 6d3f ad12 9d3e c819 d13d
00000210: a010 8b3d 36af 96be f785 10c0 fdc4 0fbf
00000220: db8f 1bc0 f650 b5bd e0c9 ebbe ac0b 203f
00000230: 7372 11be 1df0 1240 b063 2940 88e5 4c3d
00000240: e7ca 5dbe 9013 b5be cff5 a1be 4830 01bf
00000250: d30f db3e 6ad5 f4bd 6697 17bf b584 a83f
00000260: b44c 4640 a78b 9b3f e9d6 43bf 6464 403e
00000270: 5b4f a6bf 8ea6 673f 1d83 4dbf ae60 b13d
00000280: f6d9 d13e 7e83 6bbe 58b0 ce3d 85ee 863e
00000290: dc4b d8be 327e e23f deba 673f 78fd a0be
000002a0: 8328 d53e 3950 9dbf bb9b 3abf c9ac c7be
000002b0: 30de bb3e 918c d53f 5111 3cbf 54b2 213f
000002c0: 4574 56bf 4f1e 273f 4538 643f 786d c63e
000002d0: 76a0 483e d0e6 af3f f4d2 9f3e e1df 1f3e
000002e0: aacd 32bf de2a 51bf 60c6 403f 8213 ccbf
000002f0: 4e31 e03e cb23 0fbf 2f36 35be 364d 0cbe
00000300: 52e1 b7bf 72e3 2a3f d86c 5b3f f1dd 2ebf
00000310: b35f da3f b737 46bf ef65 09bf 7eab 4d3f
00000320: 9001 20bf c7fe ba3e 521c b73e 7f79 b1bf
00000330: a03f 2a3e c63c d2be 3c6d 9bbc cd3f cfbf
00000340: 4961 35bf 72f2 b9bf a591 863f e154 db3d
00000350: f191 28bf 39b2 7d3d 6b28 a7bf 4459 07be
00000360: 0cfc f63f 7b57 9c3f 00e1 093f d9ff 8fbf
00000370: 0592 0fbe bdd5 82be 7de9 f7bd a6f5 b3be
00000380: d19f 373f fe69 cdbd 1546 29bf 964f ddbf
00000390: 995d efbf e29c 54be 0bcf 9ebf d604 cfbe
000003a0: f8b5 dabf 51a6 84bf 69c6 0cbf 5322 ef3f
000003b0: afa5 863e 1c7d df3f 01b8 8abf ad77 01bd
000003c0: 3464 883d 44da 9fbf e054 cd3e 9bac a0bf
000003d0: 6984 fcbe fd93 923d 2ca3 07bf 92e5 033f
000003e0: e33d 5bbf 57ca cd3f 0aa0 df3f 9bcc 073f
000003f0: bf1a 033f 0950 04bf 9338 3fbe fe5c 9abe
-0.3587353 0.60351574 -0.7911589 0.22165968 -1.8028519 1.3814132 1.2336036 0.07916044
0.5656335 -1.9231839 2.0764337 0.2249256 -1.0142 1.483838 -0.8510167 0.8575484
-0.32739344 0.73536086 0.80138195 2.693991 -1.333371 -0.29397058 -0.58544004 -0.43052062
-0.19004877 -0.91085637 0.7667935 -0.69509214 -0.24058935 0.33277908 0.4731386 0.5782949
-0.2046572 -0.3049642 -1.029427 0.5452312 -3.0033684 -1.2413117 1.7705207 0.59429556
-1.8565434 0.8566999 0.6615119 -0.27216262 1.1703844 0.7419934 0.61115855 -0.4184264
-0.6093033 -0.7273105 0.026482305 -2.1874998 -0.74918747 2.7340174 -0.18444501 0.86551714
-0.8951658 -1.3833474 0.7397663 0.7600442 1.0670838 0.21693826 -1.2420908 1.423487
0.2931287 -1.1939294 -1.3210008 -0.05374778 0.49011403 -0.22996704 1.1862015 1.2823857
-1.1729076 0.6919708 -0.54196227 -0.620237 -0.45022532 0.32999703 -1.2953833 -0.5057031
-0.2703168 1.8033845 -1.0460147 1.3375287 0.3339851 -1.238548 0.7342207 0.12034207
1.229426 -0.25751877 -0.66135347 1.2102566 0.29910436 -1.4927918 -0.068786435 1.8719689
1.9103171 -0.8307045 0.41976964 -0.9423766 -0.9537589 0.5096413 0.07481081 1.9007751
-0.10258225 1.1976205 1.5477753 -2.6315196 -1.6964045 0.99030036 0.5604161 -0.6342759
0.26772434 1.231846 -0.8978865 -1.1204985 -0.2949746 0.15879606 1.8939884 0.4824179
1.2360445 -0.39844424 2.4170794 -0.2635644 -2.9134483 -0.0073107164 -0.66975105 -0.9494395
0.6121567 0.9284455 0.3067831 0.102099955 0.0679028 -0.2943055 -2.2581766 -0.56159955
-2.4306552 -0.08853333 -0.46052456 0.6251781 -0.14203815 2.2959054 2.6467094 0.050023586
-0.21659432 -0.35366488 -0.3163285 -0.50464296 0.4278551 -0.11954768 -0.5921539 1.3165499
3.0984316 1.2151994 -0.764998 0.18788296 -1.2992967 0.9048852 -0.8027819 0.08661018
0.40986603 -0.22999379 0.10092229 0.2635385 -0.42245376 1.7694762 0.9051951 -0.3144338
0.4163247 -1.2290107 -0.72893876 -0.38999012 0.36692953 1.6683522 -0.7346392 0.6316273
-0.83771163 0.6528062 0.8914836 0.38755393 0.19592461 1.3742313 0.31215632 0.15612747
-0.6984507 -0.81706035 0.75302696 -1.5943453 0.43787616 -0.5591399 -0.1769645 -0.13701329
-1.4365637 0.66753304 0.8571296 -0.68307406 1.7060455 -0.77428764 -0.53671163 0.803398
-0.62502384 0.36522505 0.35763794 -1.3865203 0.16625834 -0.4106199 -0.018972985 -1.6191345
-0.7085157 -1.4527113 1.0513197 0.10709549 -0.6584769 0.061937544 -1.305921 -0.13217646
1.9295669 1.2214197 0.5385895 -1.1249954 -0.14020546 -0.25553694 -0.12105081 -0.35148352
0.71728235 -0.10029982 -0.6612256 -1.7289913 -1.8700439 -0.20762971 -1.2406934 -0.40433377
-1.7086782 -1.0363256 -0.5499025 1.868235 0.26298282 1.7460055 -1.0837404 -0.031608272
0.06659737 -1.2488484 0.40103817 -1.2552675 -0.4931977 0.07157133 -0.52983356 0.5152217
-0.85641307 1.6077374 1.7470715 0.5304658 0.51212686 -0.51684624 -0.18673925 -0.30149072

cls_token f4 [1, 1, 60]
00000000: 11e3 c83d 692f dcbf f138 c53f 8099 803e
00000010: 70a2 50bf a5c7 6ebf b941 973b 8b44 02be
00000020: e564 283e c31d 58bf cb12 bebf c5ee 25bf
00000030: 2c7e 9ebf ad38 a33e ae33 91bf 9e64 c9be
00000040: 1480 343f ecd2 183f e9f3 a9bc ae85 66bf
00000050: d3ba 8c3e 9caf b63e f611 92bf 296b 613e
00000060: 3c0a f0be 913b 98bf 1842 8c3e 1cd2 cbbf
00000070: 9048 463e e106 963f f3cd a03d 44ec 953e
00000080: 8f0b 503f 93b5 ccbd 64d3 a5be 6918 883e
00000090: 6be2 04bf 9917 15bf 47db c33e ae7f 80bf
000000a0: 6d61 77bf e206 8cbf 5439 ab3f 4035 a9bf
000000b0: ed58 edbe 1dde 22bd b325 543f 0dcd 30bf
000000c0: 6e41 2abf a670 12bf f2e7 b33e fc39 6d3d
000000d0: 95b8 ed3e 1116 933f 34ea 0e3f c6bd 89be
000000e0: e099 c2bf ce31 ed3d 7852 06bf 66e6 c0be
0.098089345 -1.7201968 1.5408002 0.2511711 -0.8149786 -0.93273383 0.004615989 -0.1272146
0.16444738 -0.8442041 -1.4849485 -0.6481746 -1.2382255 0.31879178 -1.1343896 -0.39334577
0.7050793 0.5969684 -0.020746188 -0.9004773 0.27486286 0.35680854 -1.1411731 0.22013535
-0.46882808 -1.1893178 0.27394176 -1.5923495 0.19363618 1.1720849 0.07851782 0.2928182
0.81267637 -0.0999557 -0.3238784 0.26581123 -0.51907986 -0.5823913 0.38253233 -1.0038965
-0.96633035 -1.09396 1.337687 -1.3219376 -0.46356907 -0.039762605 0.82870024 -0.6906288
-0.6650609 -0.5720314 0.35137898 0.057916626 0.46429887 1.1491109 0.55826116 -0.26902598
-1.5203209 0.11581765 -0.5246959 -0.3767578

weight f4 [60, 16]
00000000: f7a7 cebe 947d a9be e207 cd3d 18e1 e73e
00000010: d4cf 56be 171c 4bbe 9023 1d3d ddf0 c43e
00000020: 1a02 543e be9e 803e 793c 863e 93a3 513e
00000030: 2645 a9be ee71 7e3e f6a1 8e3c 5ff8 9bbe
00000040: dd76 ea3d ccba afbe 289d 4ebe a96a f7be
00000050: 94bb 863e 23a3 463e f46e 6abe 480b 41be
00000060: 7cbd 633e 376e 643c 58d5 663d 2dd5 263c
00000070: 541f b33e 4938 20be 6d3f 693e 7451 49be
00000080: 02b5 c6be bd28 203e 0a9d 033f 9cd3 033d
00000090: c52c 8abe 4f20 a0bb 01f8 ab3d a1a2 96be
000000a0: ee45 a6be b253 133e f5ed 8abd 7e7f 47be
000000b0: 86a9 d83e 3363 153e d4cf 0c3e 3c9f d9bc
000000c0: a363 85be 8100 febe 2987 d2be 8d6d 4fbe
000000d0: 7cca 58bd f97b 37bd 61fa 8bbe 0c69 3e3e
000000e0: 6d24 e83d 6817 e0bd 5526 e03d 52af 2e3e
000000f0: 28cd 813e 1247 cf3e 1394 9e3e 0c97 95bd
00000100: 2170 01be 859a 84be ab57 87be d4bb c3be
00000110: 0586 25be 83fd 9f3e b2d8 8bbc 8375 483e
00000120: 17af 70be c758 e53d bdc8 f3bd e5c5 ad3e
00000130: d5d2 85be fbdf 0ebe 89ec 993d 2e76 ed3d
00000140: 7e31 af3b d634 8fbc b4a5 75be 0a42 573c
00000150: 7930 b03d e70c 783d f380 1b3e ac69 e53d
00000160: e425 c13e 0a03 fd3d 0fc9 ee3d fc54 29be
00000170: 8fe7 08be 3326 74be e9e3 c8be 9d03 adbe
00000180: 1e8a 4f3e 8611 33be 1d2b adbe 948a c7bd
00000190: 8949 913e 757a 0fbe ed89 26be 7b8a f9bc
000001a0: 0020 503e 9815 a03d 44f6 8fbd 2e96 5dbd
000001b0: ee07 6ebe 583e c63e 6186 153e 3916 abbe
000001c0: e546 30be dad7 0a3e 0d28 19bc 3d9b 623e
000001d0: 3ca7 a5be c4d6 293e 73a1 2fbe a485 0bbe
000001e0: bb20 cfbe 7693 97be eff5 a6bb 1820 b63d
000001f0: 8a98 4abe 55b7 41be 5573 15be bd53 393d
00000200: 602c 2c3e e5c2 80be 341e 103e e50d 723d
00000210: d9f2 a7be 177c 89be 13bc 2a3e ab1e a13e
00000220: 5e19 24bf 7c00 fcbd 30ec 44bd a57c d63e
00000230: 8ee9 4a3e d577 cf3e 43e4 533e b8f9 af3d
00000240: e080 6e3d 1277 143d 1757 8dbe 1c21 423e
00000250: 36db 31bc 2f77 90be 9d46 353d f3f7 19bd
00000260: 5047 45be 4504 453e 8efd 61be 3328 ad3d
00000270: b55b 3abe 6460 37be c6aa 16bd 4b9b 063b
00000280: 414e 9d3e acfd 293e 20a0 d73e 6412 2fbd
00000290: f3dd 94be 643f 21bd 6d2b 7a3d e9aa 2d3d
000002a0: bb97 1fbe 7ef4 9a3e 117d 67bc 48cc 34be
000002b0: 5508 bbbe 874b 98bd 7c6f 543e 23c2 47be
000002c0: 8936 8a3e 09ce 2b3e ef25 7bbd 77cc b4bc
000002d0: baf0 aa3e 0f46 38be 27e2 a6be 9451 0e3d
000002e0: 6e83 eb3e 58f5 1bbe e81e ebbe 8739 823e
000002f0: ec65 873e a9ea e1be 566f a8bd bf62 a13e
00000300: e1f3 1e3d 044c 983d e1a7 9abd 88db d43d
00000310: 9c4a a1be ccb7 63be e900 8c3e c61e babe
00000320: 2920 cabd e599 bcbe 57a9 42be 62b4 84be
00000330: 2ad3 c43e a327 603e 7c55 a63e 46fc 9cbc
00000340: cd33 24be fc77 19bd 1f6d 603e c4a4 713d
00000350: fa2a c23d 700d 70be 729a 43be 3f93 17bb
00000360: 2af1 91be 6bc5 b7bc 0c1f 29be fc55 fd3c
00000370: 60d1 a8be 5efc 72bd 37d1 643d b086 7c3d
00000380: be8d 383e 7239 863e b090 7dbe 72b3 12bd
00000390: 7011 debd 9cb9 ad3e 3601 223e 73f3 a73e
000003a0: 785d b7be 7a88 393e 0893 803e 2c3d 843d
000003b0: f61d 26bf 6565 85bd 0332 84be ea26 8f3c
000003c0: 38a3 bc3e d0ca 123e 663b b93e b1d4 b03d
000003d0: eb78 13be 90f8 a23c 16d8 1bbe 5a7c 233c
000003e0: 558c a7be 7fd4 c1be 8eb7 503e 2c5d f1bc
000003f0: 4b2c 1abf 60fc eabd 6a19 2f3e 23ed 003d
-0.40362522 -0.3310362 0.10011269 0.4528892 -0.20977718 -0.19834934 0.038363993 0.38465014
0.20703927 0.2512111 0.26218012 0.20472555 -0.3306057 0.24848148 0.017411213 -0.3046293
0.114484526 -0.34322202 -0.20177138 -0.48323563 0.26314986 0.19398169 -0.22893888 -0.1885196
0.22240251 0.013942293 0.056355804 0.010182661 0.3498484 -0.15646471 0.22778101 -0.19659978
-0.38809973 0.1564054 0.514115 0.03218423 -0.2698728 -0.004886664 0.08396912 -0.2942095
-0.32475227 0.14387396 -0.06783668 -0.19482228 0.42316836 0.14588623 0.13751155 -0.026565187
-0.2605258 -0.4960976 -0.41118744 -0.20256634 -0.05292748 -0.044795964 -0.2733946 0.1859476
0.11335073 -0.109419644 0.10944811 0.17059067 0.25351834 0.4048391 0.30972347 -0.073042005
-0.1264043 -0.2589914 -0.26434073 -0.3822924 -0.16164406 0.31248102 -0.017071102 0.19576077
-0.23504291 0.111985736 -0.11903522 0.33940044 -0.26137415 -0.1395263 0.075158186 0.115948066
0.005346476 -0.017481249 -0.23988992 0.0131383035 0.086029954 0.06055918 0.15185909 0.11201796
0.3772422 0.12354095 0.11659443 -0.16536325 -0.13369583 -0.23842697 -0.39236382 -0.3379182
0.20267531 -0.17487153 -0.33821955 -0.097432286 0.28376415 -0.14011557 -0.16263552 -0.03046154
0.20324707 0.07816619 -0.07029393 -0.0540983 -0.23245212 0.3871944 0.14602043 -0.33415392
-0.17214544 0.13558903 -0.009347928 0.22129531 -0.32354152 0.16585833 -0.17151432 -0.13625199
-0.4045466 -0.2960469 -0.0050952355 0.0889284 -0.19784752 -0.18917592 -0.14594777 0.045245875
0.16813803 -0.25148693 0.14074022 0.059095282 -0.32802466 -0.26852486 0.16673307 0.3146871
-0.6410121 -0.1230478 -0.04807681 0.4189197 0.19815657 0.40521112 0.20692544 0.08592552
0.058228374 0.036246367 -0.27605507 0.18957943 -0.010855487 -0.2821593 0.044256795 -0.03758998
-0.19265485 0.1923991 -0.2206938 0.08454933 -0.18199046 -0.17907864 -0.036783956 0.002053934
0.30723765 0.16600674 0.42114353 -0.042742148 -0.29075584 -0.039367095 0.06107657 0.04239932
-0.15585224 0.30264658 -0.014128939 -0.17656052 -0.36529794 -0.07436281 0.20745653 -0.19507651
0.26994732 0.16777815 -0.061315473 -0.022070153 0.33386785 -0.17995475 -0.32594416 0.034745768
0.4599871 -0.1523031 -0.45922017 0.25434515 0.26444948 -0.44124344 -0.08224361 0.3152065
0.0388068 0.07436374 -0.075515516 0.10393435 -0.31502235 -0.22238082 0.27344444 -0.36351603
-0.09869415 -0.36836162 -0.1900991 -0.2591887 0.38442355 0.2189012 0.32487094 -0.019163262
-0.16035385 -0.03746794 0.21916626 0.058995023 0.094808534 -0.23442626 -0.19101885 -0.0023128537
-0.28504306 -0.022433003 -0.1651575 0.03092479 -0.3297224 -0.059322707 0.055863585 0.061651886
0.1802282 0.26215702 -0.24762225 -0.035815664 -0.1084317 0.3393067 0.15820774 0.32802925
-0.35813498 0.18118468 0.25112176 0.0645698 -0.64889467 -0.0651348 -0.25819406 0.01747461
0.36843276 0.1433518 0.3617813 0.08634318 -0.14401595 0.019893914 -0.15219149 0.009978378
-0.32724252 -0.37857434 0.2038252 -0.029463373 -0.60223836 -0.11473918 0.17099538 0.03147615

bias f4 [60]
00000000: 613a 27be b009 093e 8aa6 ebbd 4d9d da3d
00000010: f4d1 0cbd 1e6c 9bbc c1a7 1b3e 488d 80bd
00000020: b2d4 aebe 7888 223d 74eb fabd fe72 21bd
00000030: a673 20be 38c1 bebe 9192 b2bd 8771 9b3d
00000040: 4b57 0fbe 95c8 bdbd 9725 b83e 422e 8ebd
00000050: 9990 363c 9508 4c3e 648f ad3e 065c 283e
00000060: 5022 173c 613c a0be 9680 1d3e ec03 6c3d
00000070: 09da 1d3e 56fc b5bd c6e4 febd 971e 9dbd
00000080: d3c0 cdbd dc7a b13b e6da 72bc 5ae0 8fbe
00000090: 9199 8fbd 94ab b9bd 18b8 d1bb 3554 8a3e
000000a0: 612e 853e fb05 17be f5a6 0d3f 04c7 983d
000000b0: 0592 59be 214d 4c3e f779 82be c614 a93e
000000c0: 8ab9 2f3e fb00 f0bd ddf4 69bc c852 923d
000000d0: 56d3 b3bd 2a71 3e3e eadb 68be c9ec 653e
000000e0: 4b7d dd3d bb0b 1fbe f674 c7be 561f 22be
-0.16330864 0.13382602 -0.11506374 0.10674534 -0.034379914 -0.018972453 0.15200712 -0.06276947
-0.3414665 0.039680928 -0.1225194 -0.039416306 -0.15669116 -0.3725679 -0.087193616 0.07590013
-0.13998143 -0.092667736 0.3596618 -0.06942417 0.011142873 0.19925149 0.3389846 0.16441354
0.009224489 -0.31296065 0.15381083 0.057620928 0.15415205 -0.0888602 -0.12445979 -0.0767185
-0.10046544 0.0054162573 -0.014822697 -0.28100854 -0.07011712 -0.09065929 -0.0064001195 0.2701737
0.26011947 -0.14748375 0.5533288 0.07459834 -0.21247108 0.19951297 -0.25483677 0.3302366
0.17160621 -0.11718937 -0.014279571 0.071446955 -0.087805435 0.18597856 -0.2274014 0.22453608
0.10814913 -0.15531819 -0.38956422 -0.15832266

weight f4 [60]
00000000: 7fe2 083f 4ef8 3c3f f5df 023f d61f 2a3f
00000010: 8859 e63e a2fa ea3e 8d8e 1c3f afe5 1b3f
00000020: 1fc4 ca3e a059 143f ccc3 383f 5074 113f
00000030: 1577 f73e 070e 213f 0558 0f3f 0eb5 143f
00000040: bf44 393f 811e ce3e 5aaa 073f 6cca db3e
00000050: 61d3 f93e 0c53 df3e 9eee 2a3f 362d 1c3f
00000060: 2040 123f 8b0c 153f 912d 313f 1cb9 113f
00000070: d5eb 113f 937f cf3e 2490 d33e 6167 203f
00000080: 771f 433f b852 ad3e 99ba 3a3f 81f8 2e3f
00000090: e7bb 293f 8fcf 263f 3d2d ec3e 04f5 d73e
000000a0: fab3 043f ab8f a73e 3ed9 a63e 2c3c 253f
000000b0: 6e12 343f ef86 b13e 76c3 0c3f 3120 d83e
000000c0: c079 073f 0866 f03e 3d0c d03e cff9 fa3e
000000d0: eefd 1d3f 759c 063f 2b9b 2f3f dc35 193f
000000e0: 2819 133f 2608 183f e354 8a3e b170 233f
0.53470606 0.7381638 0.5112298 0.6645483 0.44990182 0.45894343 0.61155015 0.60897344
0.39602754 0.57949257 0.7217376 0.56818104 0.4833304 0.6291203 0.5599368 0.5808877
0.72370523 0.40257648 0.5299431 0.42927873 0.48794082 0.43618047 0.6677035 0.61006486
0.57129097 0.58222264 0.69210154 0.5692308 0.57000476 0.4052702 0.41320908 0.62657744
0.76219887 0.33852172 0.72940975 0.68347937 0.6630234 0.6516046 0.46128264 0.4217912
0.5183712 0.32726797 0.32587618 0.6454494 0.7034062 0.3467326 0.5498575 0.4221206
0.5292015 0.46952844 0.40634337 0.49018714 0.6171559 0.52582484 0.6859614 0.5984781
0.5746026 0.59387434 0.27017888 0.6384383

bias f4 [60]
00000000: c98d 313d dc2a f0bc a0db b1bd 8bef 17bd
00000010: 649b 573d 455e fb3b cd54 32be 82bf 8d3d
00000020: 51d9 aa3d 8bfb ff3d cbc1 293d f6b7 6c3c
00000030: 78cf e63d 8ab5 bc3c 8a09 a33c 3ad4 72bd
00000040: 57c7 aebc 411a 89bd ca5a e7bd 95fc e53d
00000050: a095 013a eaf1 1dbd d3bf 00be ced3 073c
00000060: 8fef 603c 348b 563e f8da f8bb a388 4b3d
00000070: b51d d9bd 3503 b53c efc6 b73b 604e 95bd
00000080: 03ae 24bd a330 63bd ab83 8b3d bfeb 573d
00000090: 6620 8e3d ff9f e93c 124a 1ebd e60a d5bd
000000a0: d70c 42bd 7de7 823d 3e3d 63be 0d5d 5f3d
000000b0: dd52 873d 589b c6bd 2827 623d 1803 e0bd
000000c0: ca20 633d 47e9 9b3d 2985 1d3d 948d 823d
000000d0: 9eb4 0d3c 55c2 18be 9bea 9b3d 79e9 8dbc
000000e0: 3219 adbc bb45 b83c f43c ba3d 1f09 99bd
0.043348107 -0.029317312 -0.08684468 -0.03709368 0.052638426 0.00767115 -0.17415161 0.06921293
0.08342231 0.1249915 0.04144458 0.014448157 0.1127004 0.023035783 0.01990201 -0.059284426
-0.021335287 -0.06694461 -0.112966135 0.11229817 0.00049432553 -0.038560785 -0.12573175 0.008290244
0.01372899 0.2095154 -0.0075944625 0.049690854 -0.10601369 0.022096256 0.0056084315 -0.072903395
-0.040205013 -0.055466305 0.06812223 0.05271506 0.06939773 0.028518675 -0.038644858 -0.10402469
-0.047375526 0.06391809 -0.22191331 0.0545321 0.06607602 -0.09697598 0.055213124 -0.1093809
0.055451192 0.076128535 0.03845707 0.0637466 0.0086490195 -0.14917882 0.07613107 -0.017323243
-0.021130178 0.022494188 0.09093657 -0.07472443

weight f4 [180, 60]
00000000: a5d6 683e e18b 4fbe 9f30 863e df82 0bbf
00000010: 6474 c3be 59b5 38be a9da 01be cd28 b03e
00000020: d232 863e 48ee 93bd 35fe 77be 043d 25bd
00000030: 3192 95be 9d50 b43d d982 cebc d79b 923d
00000040: bea3 7fbe 4023 013f d7d3 793c a1a3 2e3e
00000050: 0215 363e 7ace 2b3e 4353 92be 3c06 cebe
00000060: 5fb2 65bc 066d 28bd 5c09 db3d 6826 c9bd
00000070: 028a 933e a4ea 4d3e 369c 323e 884a bf3d
00000080: d55e 7bbe 6b7a ee3c 0cdd a33d 6a4a 33be
00000090: 2f97 d0be 10d8 dfbe 70ff 163e 9c22 0a3e
000000a0: 4bce 50be 3b87 103e deb5 1ebe 0134 403d
000000b0: b240 0fbe c346 5dbe 021a f63d 1670 f6be
000000c0: 4be9 1dbd b0f0 e9bd 6899 d03d b6f3 c2be
000000d0: a30c 06be 90e4 943e 097f fa3e 19ba 9a3b
000000e0: 29aa 453e a02a 1dbe 833e 1b3e 408b 613e
000000f0: ecb6 5fbd 3108 93bd e8f7 20bd bef0 b73e
00000100: 30d3 e63c d581 893e 2ae5 2c3e b592 223e
00000110: 22a0 173e 1990 f7bc 1cbb 5cbd ece0 923e
00000120: 8666 8a3d 7e54 aabc 1d63 b4bd 037d 5ebd
00000130: eb65 843e bbf5 1f3e 3b6c b33d 8ce2 8fbd
00000140: 9cb1 2ebe 7c20 58be 1da3 debc b4a6 9e3e
00000150: 6c56 3ebe 1dac 45bd 2f42 69bd 5e7e d1be
00000160: 96e9 37be cd1c 12be 3980 dbbd e35d 553d
00000170: 4c36 b9bb 4f9a 0dbe 4de7 a5be 62cf f8bd
00000180: cf55 5f3e 1016 333e 8513 803c d543 8c3d
00000190: 73f9 9bbd 5edf 0dbe affd 0a3d 8ef1 4a3d
000001a0: 9be0 0f3e 7ce5 973a 61c0 823d df09 833d
000001b0: c461 04be 265f 043e db6c b13c af0c f83c
000001c0: 1703 0dbe a988 0ebe 02d4 88bd 80a5 083e
000001d0: a323 38be d1a4 193e e904 03be 1133 3c3d
000001e0: 6eab 8bbc 2f48 41be 504c b53e 12f7 47be
000001f0: 212e 53be 4fdb 3f3e 0e28 28be 45ac c83d
00000200: 25f4 113e 7bea 123e 162d 9fbe 8d6f d3bd
00000210: 84c4 493e 0e9f 38bd 1625 bebd 927d 4ebb
00000220: e175 693c ebce 84bd 6b08 913c 5644 623c
00000230: 9b71 88bd 393f ea3e 04bb f4bd ea19 12be
00000240: e4a0 1c3e fa08 b33d 869a 81be 8b4e 183e
00000250: 28c4 04bd 55f9 f53d c771 7e3e d0d6 303e
00000260: 5e2a afbe dc13 c6bd 164e 003e 7c93 01be
00000270: 7587 5dbe 8059 9fbe 19fa 0abc 67af 3a3e
00000280: ec4c 75bd e766 13be bd24 aabd d679 453e
00000290: 1e6d d1bd 921d ebbd fe7c fa3c 9fbf 6cbe
000002a0: 93fa ff3d 23b2 85bd 0a1e 0a3e d03f 1fbe
000002b0: 3d55 b93d 8580 253e 34f7 e13c 4cad 07be
000002c0: eebf 6e3e d0ea fd3c 8fe7 8e3e 9ea1 26be
000002d0: 1657 25bd e825 0abe 44aa edbd d122 dc3c
000002e0: a9e8 ea3d f4d2 3ebe a039 473d 6e15 dabb
000002f0: 0aa4 1dbe c764 373e acf4 c43d 3a07 f3bd
00000300: 843e 583d 7946 1f3d 92ac 27be d6c9 503d
00000310: 3f2b afbd a8e4 f7bd bebb d0bd 3f07 8bbd
00000320: dde0 f13d 7712 383d 1f67 72bd 6dde e1bd
00000330: 3045 1e3b 03de b3bd adc4 743d 9771 3e3e
00000340: 7441 483d 09e0 053e b253 703e 7477 bebd
00000350: 6d1c 15be 4a68 13bd 9a8b 65bd 99a5 003e
00000360: eac0 693d 0893 12be 636d 60bd ce16 86bd
00000370: 415a aa3d be4b d8bd 7769 b43d b6c2 e7bb
00000380: 0b82 1b3e e002 de3c 192f 843b dbea 3f3e
00000390: f192 dc3c 3ee8 353e af9f 06bd 75c4 99bc
000003a0: 8243 0c3e 6285 563d bb1d b53c 7323 1ebe
000003b0: f092 5fbe 2391 e5bd 816a 123d c675 85be
000003c0: 6452 bfbd ccab 0fbe 89fc b13e cbb7 9c3d
000003d0: 7a22 3bbc e232 663e 8411 25be afcf ebbd
000003e0: f41c cabd f169 963d 3c7c e1bd f5f5 5d3e
000003f0: aa2d 1b3e b340 07be 75a2 46be 3352 97bd
0.2273813 -0.20268203 0.2620897 -0.5449657 -0.38174736 -0.18037929 -0.12681068 0.3440613
0.26210648 -0.07223183 -0.24218066 -0.040341392 -0.29213098 0.08804438 -0.025208877 0.0715863
-0.24964806 0.5044441 0.01524826 0.17054607 0.17781451 0.16777983 -0.2857915 -0.4023913
-0.014019578 -0.041119598 0.106951445 -0.098217785 0.2881623 0.2010904 0.17442402 0.093403876
-0.24547894 0.029111108 0.08001146 -0.17508855 -0.40740344 -0.4371953 0.14745879 0.13489765
-0.20391195 0.14114086 -0.15499064 0.046924595 -0.13989523 -0.21609025 0.12016679 -0.4813239
-0.038552564 -0.114228606 0.1018551 -0.38076562 -0.13090758 0.2908063 0.48925045 0.0047218916
0.19303192 -0.15348291 0.15160565 0.22025776 -0.054617807 -0.07179297 -0.03929892 0.3592586
0.028176874 0.26856866 0.16884294 0.15876277 0.1480718 -0.030220078 -0.05388938 0.28687227
0.06757836 -0.020792242 -0.08807967 -0.05431844 0.25859007 0.15621082 0.08760878 -0.07025632
-0.1705994 -0.21106142 -0.027177388 0.3098656 -0.18587655 -0.048259843 -0.056947883 -0.40916723
-0.179602 -0.14268799 -0.10717816 0.05209149 -0.0056522246 -0.13828395 -0.3240303 -0.1214893
0.21810077 0.17488885 0.015634308 0.068488754 -0.07615938 -0.13854739 0.033933338 0.04954677
0.14050524 0.0011588777 0.063843496 0.06398367 -0.1292792 0.12926921 0.021658352 0.030279486
-0.1377071 -0.13919319 -0.06681062 0.13344383 -0.17982344 0.15004279 -0.12794842 0.04594714
-0.017049517 -0.18875192 0.35409784 -0.19527844 -0.20623066 0.18736003 -0.1642153 0.09798483
0.1425329 0.1434726 -0.31089085 -0.10324011 0.19703871 -0.04507356 -0.09284417 -0.0031507951
0.014249296 -0.06484779 0.01770421 0.013810238 -0.066622935 0.4575136 -0.11949733 -0.14267698
0.1529575 0.087419465 -0.25313205 0.14873712 -0.03241363 0.12010447 0.2484809 0.17269444
-0.3421201 -0.096717566 0.12529787 -0.12653917 -0.21633704 -0.3112297 -0.0084824795 0.18230973
-0.05988781 -0.14394723 -0.083077885 0.19284758 -0.102258906 -0.114802495 0.030577179 -0.23119973
0.12498965 -0.065281175 0.13488021 -0.15551686 0.09049461 0.16162308 0.027583696 -0.13249701
0.23315403 0.030995756 0.2791104 -0.1627259 -0.040366255 -0.13491023 -0.11604741 0.02687207
0.11470158 -0.1863516 0.04863894 -0.0066553866 -0.15394607 0.17909537 0.0961698 -0.11866613
0.052793995 0.038885567 -0.16374424 0.050973736 -0.085531704 -0.121041596 -0.10192059 -0.067884915
0.118104674 0.044939484 -0.059180375 -0.110287525 0.0024150126 -0.0878258 0.059757877 0.18598019
0.048890546 0.13073744 0.23469427 -0.093001276 -0.14561625 -0.03598813 -0.056041338 0.1256317
0.057068743 -0.143139 -0.05479182 -0.065473184 0.08317996 -0.10561322 0.08809178 -0.007072772
0.15186326 0.02710098 0.004033935 0.18741934 0.026925536 0.17764375 -0.03286713 -0.018770436
0.13697627 0.052373298 0.022108903 -0.1544321 -0.21833396 -0.11209323 0.0357461 -0.26066417
-0.09341887 -0.14030379 0.34762982 0.07652243 -0.011421794 0.22480348 -0.16119963 -0.11514222
-0.098688036 0.073444255 -0.11010024 0.21675856 0.15154138 -0.13208275 -0.1939791 -0.07388725

weight f4 [60, 60]
00000000: 25db 783e 5085 ad3d a232 d5bd 7581 08be
00000010: acec 803e 4c1a 8dbe b22c 5cbe 95ce 04be
00000020: 8294 f83b 463d fa3d e1e5 28be df31 3ebe
00000030: b9a1 b9be 3f2f 65bd 6cba b53d ca8d b03c
00000040: 3ade f2bd e671 303d 3e63 6a3c 1c2c cdbd
00000050: 1fd8 b73e ff42 953d 1f3b 1f3d 3949 3d3e
00000060: d5ff f63c 21eb 00be 37b5 043e c6f2 a13d
00000070: 7710 0b3d 1e83 ed3b 16b4 aa3e 462d 87be
00000080: d41c 3abd b0ab 973b 0c71 18be 8c1c fbba
00000090: d2ec b03e 00db 6c3e 5236 8dbe 1239 5a3e
000000a0: 7646 44be 9595 96be 8b9a 8ebd 9694 39bd
000000b0: 5690 67be 5d72 58be 5591 4fbe 1805 023e
000000c0: 592c 4c3e 44b0 e33d fb9c 553e 8e7c 25be
000000d0: da15 acbd d8bb 6bbd ec5d 493e c141 babe
000000e0: bd28 883d b5c2 eb3d bd71 e4bb eea3 813e
000000f0: bfa3 193e ee2c a13d 371a b5be 5f63 00be
00000100: 9540 673b f3b2 143e 96e0 c5bc f1fb 78be
00000110: b7e2 a7bd c259 f8bd ba8e 193e 595c 823d
00000120: 5b7e 29be 79ed 34be 630e d7be 7e8f 2b3e
00000130: 9cb2 ae3e 6ce9 813e 2438 993e 1e33 ed3d
00000140: 812b d23d f504 edbc 54c6 debd c1e2 50be
00000150: c343 0e3e f9ec 65be 6cee ccbd 1bfa 06bd
00000160: 8fe0 5d3e f492 403e 8ff3 b3bd 113e ef3c
00000170: 0f0e 6dbd 6fd4 6b3e 8ef4 823e 3c0d 71bd
00000180: 5934 e3bd 001a b93c 1d8e 44bd c865 2bbe
00000190: 8ebc 563d 73e7 80be 717d 72bd fb07 893d
000001a0: 0c3e 4cbe fc27 31be d0a3 0e3d ed21 b13e
000001b0: 8987 48bb aa8b 8d3e f984 b23d e09f cf3e
000001c0: 7f56 c93d 9a0a a2bc 545d ebbd 1f30 05bf
000001d0: 211c 283e df68 b73d ed37 f53d 9374 263e
000001e0: b7ef 60be b211 2d3d 1fc2 813e f79f 26be
000001f0: 7ac8 253e bfbd d13c b9b1 6d3e 4ddf 743e
00000200: 63f3 76bd 1597 473e 54b8 a33c 754c 153d
00000210: 08df 8cbe 7951 92bd d601 433e 9f73 9b3e
00000220: 1781 a2be a50b 9dbe 4b4b 8fbe 44bd 8fbe
00000230: fb03 f23d 98d2 31be 21b2 6b3e 9533 8ebe
00000240: 3c86 5f3d 3060 a03e 51ea 973e 8121 39be
00000250: 08e6 a63d 1801 7abb ba50 08bf 4954 643d
00000260: 666f c93e f71c 03be 850d 963e 761b 6abe
00000270: bc47 373d 1ae0 2cbe 6cc8 cbbd 3a0d 88bd
00000280: 9dd9 df3c e8f9 66be 6114 34be b3a1 31be
00000290: b421 1f3e 4143 b1bd 6f00 15be db99 65be
000002a0: ffbd 9e3d 665c b93e 81ab 45be 6307 7b3d
000002b0: 00f2 19bd 03ed 22bd 7213 4a3c 3935 eabd
000002c0: 6003 b2bd 32f8 053e 0a30 823e a6a5 933c
000002d0: 7025 be3c dda2 89be 9380 b13d 528f 853d
000002e0: ad72 f1bc cb31 8a3e 9113 5ebe 9c0a 1f3e
000002f0: 682b 883e 9763 153e 000e 3e3d 38fa 113e
00000300: a4b2 803e 33c2 913e 5a89 1f3e 3e00 25be
00000310: 2d84 8b3e 8247 bd3d 278d 5d3e 9ae2 273c
00000320: eedd f0bd 493f 8b3e e681 0c3f f584 dabe
00000330: 6b41 c3bd e783 02be 6c63 b6bd d2aa babd
00000340: 0201 54be b4a5 243c 3d78 08be d774 cb3e
00000350: 0563 43bd 28ca b2bd f7f6 3fbc 5cc6 953d
00000360: 9e6c abbe 523a 3dbe e7bb 8a3e 8c64 29be
00000370: 86a3 d3bd ea38 c03d 6104 d23d de9a ee3d
00000380: ffc7 fbbd 1061 123e 402b 01be 3106 ef3c
00000390: 3539 78bd dae2 8dbe b3a2 89bc e321 74be
000003a0: bfb0 2fbe f345 69be b4e8 e5b9 3648 13be
000003b0: 8c21 383c cbf4 bc3d c811 2fbe 8e23 5b3d
000003c0: 700e 093f 91e6 cb3d 3e8a f9bd 9bdd adbe
000003d0: 1607 173e 7da8 55be 362a 69bd 444b 6f3d
000003e0: fdca 683d ab45 d33d 671c 3cbe 0a41 5ebe
000003f0: c5a8 cbbd 80f3 f739 e244 8d3d d1d1 d03c
0.24302347 0.08472693 -0.10410048 -0.13330634 0.25180566 -0.27559125 -0.21501425 -0.1296943
0.007586063 0.12218718 -0.16493942 -0.18573712 -0.36256197 -0.05595326 0.08873448 0.021551985
-0.118587926 0.043077372 0.014305888 -0.10018179 0.35907075 0.07288169 0.03887474 0.18484963
0.030151287 -0.12589695 0.12959753 0.079076335 0.03395125 0.0072482964 0.3334052 -0.26401728
-0.04543765 0.004628621 -0.14886874 -0.0019158288 0.3455568 0.23130417 -0.27580506 0.21310833
-0.19167504 -0.29410997 -0.069630705 -0.04530772 -0.22613654 -0.21137376 -0.20270284 0.12697256
0.19938792 0.111176044 0.20860665 -0.16160795 -0.08402605 -0.05755219 0.19664735 -0.3637829
0.06648395 0.11511747 -0.0069715665 0.2532038 0.1500387 0.07869898 -0.35371563 -0.12537907
0.0035286297 0.14521389 -0.024154942 -0.24314858 -0.08197539 -0.12126495 0.14995852 0.0636527
-0.16552107 -0.17668714 -0.42003164 0.16753957 0.34120643 0.253734 0.29925644 0.115820155
0.10262204 -0.028933028 -0.10877672 -0.20399 0.13893037 -0.22453679 -0.10006413 -0.032953363
0.21667694 0.18806058 -0.087866895 0.0292044 -0.057874735 0.23030256 0.25577205 -0.058850512
-0.11093969 0.022595406 -0.047987092 -0.16738045 0.052425914 -0.25176582 -0.05920166 0.06690975
-0.19945544 -0.17300409 0.034824193 0.34596196 -0.0030598363 0.27645618 0.08716769 0.40551662
0.09830951 -0.019780446 -0.1149241 -0.5202655 0.1641698 0.089555494 0.119735576 0.16255407
-0.21966444 0.042253204 0.25343415 -0.16271959 0.16189757 0.025603173 0.23212327 0.23913307
-0.060290705 0.19491227 0.019985355 0.03644987 -0.2751391 -0.07144446 0.19043669 0.3036165
-0.31739113 -0.30672947 -0.2798713 -0.28074086 0.118171655 -0.17365491 0.2301717 -0.2777373
0.054571375 0.31323385 0.29670957 -0.18079187 0.08149344 -0.0038147625 -0.5324818 0.055744443
0.39342803 -0.12804018 0.2930719 -0.22862038 0.044746146 -0.16882363 -0.09950337 -0.06643148
0.027325446 -0.22556269 -0.17585899 -0.1734684 0.155402 -0.08655406 -0.14550947 -0.22421972
0.07751083 0.36203307 -0.19303705 0.06128634 -0.037584305 -0.039776813 0.012333738 -0.11435933
-0.0869205 0.1308296 0.25427276 0.018023323 0.023211211 -0.26882067 0.08667102 0.06521477
-0.029473627 0.26991114 -0.21687151 0.15531391 0.26595616 0.14588772 0.04640007 0.14255607
0.25136292 0.28468475 0.15579739 -0.16113374 0.2724928 0.09242155 0.21635877 0.010246897
-0.1176108 0.2719672 0.5488571 -0.42679563 -0.09533962 -0.12745629 -0.08905682 -0.09114613
-0.2070351 0.010049272 -0.13327117 0.3973758 -0.047701854 -0.087299645 -0.011716596 0.07313225
-0.33481306 -0.18479279 0.27096483 -0.16542262 -0.10333924 0.093858555 0.102547415 0.11650632
-0.122940056 0.14294839 -0.12614155 0.029177757 -0.060601432 -0.27712137 -0.016801214 -0.23841052
-0.17157267 -0.2278059 -0.0004385166 -0.14383015 0.011238467 0.09226378 -0.17096627 0.053500704
0.53537655 0.099560864 -0.12184571 -0.33958134 0.14748797 -0.20865054 -0.05692502 0.05842139
0.05683421 0.103160225 -0.1837021 -0.21704498 -0.099442996 0.00047292933 0.06897904 0.025490673

bias f4 [60]
00000000: b89d b93c 9c7d 5ebe 1644 f53d 52e3 f63d
00000010: 2e03 abbd 7aa2 97bd 0f7d 4a3e 782f 363e
00000020: 0f17 b5bd d560 d5bd aede 07be 56f4 dc3b
00000030: ca6f dfbd 133f 633c 6ff7 e6bd 7645 dabc
00000040: a23c d53d 76c6 93bd 9509 c83d c075 f6bd
00000050: 71ed c4bd b6ee 653e 7aac 8e3c 45cd 4cbd
00000060: 2a16 19be 1286 52bc e11a 1f3e b33b 51bb
00000070: bc5a 523e 57be 0abe 289d d93d c902 6c3e
00000080: dd2f 503e c27e 033e 7aab 05be e949 3b3e
00000090: 7d04 6abe e59e 05be 5426 49bc eaf4 8e3d
000000a0: 95f8 78bd 6c5d 5abe 4c11 f13e 60e1 a4bd
000000b0: 733c 1ebe c8bd dabd 6757 0fbe 9cca 0dbc
000000c0: 9a72 2d3d 0596 f8bd d17a b7bd b9ed c7bd
000000d0: 105e 043a fd83 413e 6cf0 d53d c25b 2ebc
000000e0: 2567 1fbd 728b 193e 8635 a8be caab cabd
0.022658214 -0.21727604 0.11975877 0.12055077 -0.08350216 -0.07404037 0.19774269 0.17791545
-0.08842289 -0.1041886 -0.1326854 0.0067429943 -0.10909994 0.013870019 -0.11277663 -0.02664445
0.104119554 -0.07215588 0.097674526 -0.12034178 -0.09615601 0.22454342 0.017416228 -0.050000448
-0.14949861 -0.012849348 0.15537597 -0.0031926453 0.20542425 -0.13549171 0.10625678 0.23047937
0.20330758 0.12841323 -0.13053694 0.18289913 -0.22853275 -0.13048895 -0.012277205 0.069803074
-0.06078394 -0.213247 0.4708351 -0.08050799 -0.15452747 -0.10680729 -0.13998185 -0.008654263
0.04234562 -0.12137989 -0.08958972 -0.09762139 0.0005049417 0.18898006 0.104462475 -0.010641994
-0.038916726 0.149946 -0.32853335 -0.098960474

weight f4 [60]
00000000: f03c 653f fa80 0e3f 5fba 773f 62ed 1e3f
00000010: 2f24 0b3f 2d50 233f 46df 653f 8827 f13e
00000020: a028 613f 0027 ba3e aac1 2b3f 47bf 763f
00000030: eedd 4b3f ad28 2e3f 15ef 4b3f f516 2f3f
00000040: e410 4b3f 62f8 0b3f fa82 2c3f 8f03 0c3f
00000050: f117 0a3f bceb 653f cd5c 3c3f 4905 2e3f
00000060: c9e8 573f c628 593f c2ef 1c3f e65f 1e3f
00000070: 9975 273f e791 2a3f 4b30 423f 68c1 433f
00000080: 84d2 5b3f da39 1e3f a93d 093f 4f59 593f
00000090: 5db5 383f 003c 2b3f 5d00 0e3f 8c50 313f
000000a0: 8ca6 623f d5ac 363f a7dd 503f 1cbe 893f
000000b0: 2c1d f33e c838 3b3f 2991 2d3f 9096 1c3f
000000c0: af5e 5d3f ff9a 6a3f 2e87 053f 033d ed3e
000000d0: eeff 3a3f e680 1c3f 694c 363f 369c 153f
000000e0: 1710 2f3f ae3a 4f3f 6f45 7a3e 0a7e 3c3f
0.8954611 0.5566555 0.96768755 0.6208097 0.54352087 0.63794214 0.89793813 0.47100472
0.87952614 0.3635788 0.6709238 0.96385616 0.7963551 0.68030816 0.79661685 0.68394405
0.7932265 0.5467588 0.67387354 0.5469293 0.5394278 0.8981283 0.735791 0.67976815
0.84339577 0.8482784 0.6130334 0.6186508 0.65413815 0.6662888 0.7585494 0.7646699
0.85868096 0.61807024 0.5360971 0.849019 0.7215174 0.6688843 0.55469304 0.6926353
0.8853538 0.7135747 0.81588215 1.0761142 0.47483194 0.73133516 0.6779962 0.6116724
0.864726 0.91642755 0.5215939 0.4633561 0.7304677 0.61134183 0.7121034 0.58441484
0.68383926 0.80948913 0.2444055 0.7362982

bias f4 [60]
00000000: f4a3 28be 9747 a4bd b502 c53d c627 ce3c
00000010: a430 3ebe a57d e8bd bde5 b93e dde8 fabd
00000020: 9c1c 3fbe fc5c dfbe d69b e7bd ebf6 0c3e
00000030: f8c3 8b3c 3dac 2f3e 4eb5 01be 5e6f cf3e
00000040: c8f1 033f ee88 303e 6ed0 313e 4b5e 9fbe
00000050: fa70 17bf 281f 623e 7af7 8c3d d4ed 75be
00000060: 4c30 a4be 5ffb debe bbb3 893d 4d64 c83d
00000070: 0b30 a33e 06b6 003f 607c 7c3e 2f29 103f
00000080: f1de b43e b7ad 213f bba6 b1be 7215 a03c
00000090: 0b9b 92bd 9ed2 4dbe 75a5 19bb c822 183e
000000a0: 946e df3d b809 95be 3b3e ce3e 8b28 05be
000000b0: c8b9 543c 5a79 663e b3b7 963d 4a49 3abd
000000c0: 9359 213d 5043 babe 04b3 1fbe 76f1 bf3e
000000d0: 5581 f1bd 1e41 853e 5879 28bc 4186 303e
000000e0: 50cd 8b3c c5db d9bb 1497 d3be 9732 df3d
-0.16468793 -0.08021467 0.09619657 0.02516545 -0.18573242 -0.1135209 0.3630809 -0.122514464
-0.18663257 -0.4362563 -0.1130902 0.13766067 0.017061219 0.17155547 -0.12666818 0.40514654
0.51540804 0.17239735 0.17364666 -0.31126627 -0.59156764 0.22082198 0.0688314 -0.24016505
-0.32068098 -0.43551156 0.06723734 0.09784756 0.3187259 0.50277746 0.2465682 0.5631284
0.3532634 0.6315569 -0.34697518 0.019541476 -0.07158478 -0.20099875 -0.0023444567 0.14857018
0.10909763 -0.29108977 0.40281853 -0.13003747 0.012983747 0.2250723 0.073592566 -0.04548005
0.039392065 -0.3637948 -0.15595633 0.37488908 -0.11792246 0.26026243 -0.010282837 0.17238714
0.017065674 -0.006648513 -0.413262 0.10898321

weight f4 [64, 60]
00000000: b3b2 0d3e 5964 863d fca7 88b9 e968 5bbe
00000010: 76b0 d83d 0bf9 063d f1a7 cabe 8969 5e3e
00000020: 1c2b b63d 3c34 423e 2cc3 573e 4207 c7bd
00000030: 56a5 12be cc21 1e3e 7ad4 6c3e 9068 e73d
00000040: 3621 11be 5ae3 50be d08a 903e 11c4 ce3d
00000050: d422 3fbc 9cf9 abbe 08c9 83bd 2687 f8bd
00000060: 42d6 913e b642 1e3e 05f8 58bd fd1d 623e
00000070: 0f51 d93c a161 f93d 671e 00be 042d fabe
00000080: 9cde 2e3e 0e14 e63d 1b7e f93c fd3b 90bc
00000090: 5a73 0c3d bb34 283d 5c05 a3be 6340 c1be
000000a0: 0418 c6bd 4295 bf3e cfe8 03be 3663 5f3c
000000b0: 789a 84bd 4820 98be 33d9 85bc 6fca 10bd
000000c0: 8407 76bc 0a34 133e a827 46be e725 533e
000000d0: d7e6 ffbd 3561 8fbd 024e 183d 7251 30be
000000e0: 11e9 2a3d 7264 94bd 8a1a 773e abae 9bbe
000000f0: 87c7 7b3e d23c 1b3e 1e17 2abe fd22 62be
00000100: 36cd 893e 42e1 953d 7aa3 4bbe e70e 5a3e
00000110: dff1 93be 1287 f13d b24f eabd e32f c03d
00000120: 65ea babd 06aa 90bc 27ec 1a3e 21b6 373d
00000130: 6236 8e3d 3be0 8c3e 2584 a0bd 6199 1f3d
00000140: 0e59 d13e 70cf ddbe 5a4d 6cbd 7e4a 50bc
00000150: 9d11 29be bbfc 893e ca5d d23d 0121 843d
00000160: 36d0 52be 2c57 323d 9c65 bdbd 1c42 1ebe
00000170: 858e 663d e1e0 983c 76a2 fa3c 40f9 2abe
00000180: 870d 693e 5add 323e 085c 1a3e d76c 15be
00000190: bd54 67be 5746 c33d 3d6f 6ebe 85de 12be
000001a0: f7a2 633e f5bb ad3d 3d22 163e 7217 56bc
000001b0: 37ad d9bd 57a1 32be 9846 a43e f9f1 4bbe
000001c0: 90e8 b53c 4849 d3bd 0246 e53c 50fc 4e3d
000001d0: 3f74 20be 4ccf 0cbe b4f7 823e 8a5a e43c
000001e0: 1958 593e cd89 7c3e cee5 853c 174c 62be
000001f0: 1714 a33e 20e1 a53c ad59 843d fd94 8c3b
00000200: 6f5f 953d 8186 fd3d eb82 703e 50f8 3dbe
00000210: e6c2 0cbe 3987 5d3e 69ee 683e 7588 8ebe
00000220: b5ff 1dbf 700e c5bb 1971 2bbb 5ea4 053e
00000230: 496c 47bc 4848 babe e2d0 473e 3256 4dbb
00000240: e3e9 14bd 821c 723e 0e07 5f3c ac84 ad3d
00000250: 1578 2bbe fef4 203e c76e f2bc ff19 debe
00000260: 93ed 8bbd 6052 6dbe 3fba 113e 9027 81bd
00000270: 2c3d 9b3b e896 7f3e 4ee5 64bd 6760 57bc
00000280: f0e4 0c3e 385c 583e c38c f93d 720a b2bc
00000290: d4a7 36bd 18a1 213b 937b 703d 05cd 0d3e
000002a0: 89d1 56bd 45be 493e c8c2 edbd 93b9 d3bd
000002b0: 358c fbbc 7349 d7bd 994b 2cbe cb03 7f3d
000002c0: a7d6 2d3e fecf 48be b96a 983d beb2 92bd
000002d0: 6465 e73d 4feb 3b3e f99a 15be dd29 cd3d
000002e0: ed04 1e3d ff38 cd3c 41ff c33d b457 babd
000002f0: 9006 793c db74 953e 9710 19bd bf6a cdbd
00000300: 766e a33d 30bf 14be 6024 c6bd 68e6 3bbd
00000310: 08ba 2fbe 7aca abbd a944 31bd 9a9d 183e
00000320: 1f68 2e3e 326a 12be b7e1 39be 11ce 033e
00000330: 899c 593c 5352 323e 190e acbd 9c26 fd3c
00000340: 089c dbbd 403c a73d 4f7c a5bd 3368 aebe
00000350: 0404 91bd 9c14 e6bd 721f 9f3e 2ed5 1ebd
00000360: 025c 053e 6fce 66bd 695d 743c d4ce 86bd
00000370: d116 ac3d ed86 e33d 4bb4 42be 4e60 9d3d
00000380: fe35 af3d 7de9 3f3e 354c 00bd 4d33 663b
00000390: 1156 993d 2447 823e 3bae 0a3e e4e0 31be
000003a0: 6433 01bc 7ab7 7ebe a7b7 623e 906c 643d
000003b0: 7bc5 9e3c 2e2b 0ebe 94e8 263d 9b6b 41bd
000003c0: 47e0 20be daa4 813d 09f4 a0be b8ce 833e
000003d0: 5c5d 9a3e 0585 893d 51d3 5fbe 8a54 8c3c
000003e0: 3984 f63c c9fb 033e 8f2e 5fbc 8f59 86bb
000003f0: 62bd a7be 674f 42bd c5d9 9a3d 3e2c dbbd
0.138377 0.065621085 -0.000260651 -0.21426739 0.10580532 0.03295235 -0.39581254 0.21719946
0.08894941 0.18965238 0.21070546 -0.09718181 -0.14320883 0.1544258 0.23127928 0.112992406
-0.14172825 -0.20399228 0.28230906 0.100959904 -0.0116660185 -0.33588874 -0.06434828 -0.121351525
0.28483778 0.15455136 -0.052970905 0.22081752 0.02652791 0.12176824 -0.12511598 -0.4886247
0.17077106 0.11234294 0.03045564 -0.01760673 0.034289695 0.041065913 -0.31840026 -0.37744436
-0.09672549 0.37418562 -0.12881778 0.013634494 -0.06474775 -0.2971213 -0.01633892 -0.035349306
-0.01501644 0.1437532 -0.19351065 0.20619927 -0.12495201 -0.07000963 0.03718377 -0.17218569
0.041726176 -0.07245721 0.24131218 -0.304067 0.24587832 0.1515992 -0.16610381 -0.2208366
0.26914376 0.07318355 -0.1988658 0.21294747 -0.2889547 0.11793341 -0.11440982 0.09384134
-0.091267385 -0.017659198 0.15129147 0.044851426 0.069439664 0.27514824 -0.078377046 0.038964633
0.40888256 -0.43322325 -0.057690956 -0.012713073 -0.16510625 0.2695063 0.10271795 0.064516075
-0.20587239 0.043540165 -0.09247896 -0.15454906 0.05628826 0.018661918 0.030595046 -0.16696644
0.22759067 0.17467251 0.1507417 -0.145923 -0.22590919 0.09534901 -0.23284622 -0.14342697
0.22230135 0.084831156 0.14661498 -0.013067113 -0.10628741 -0.17444359 0.3208511 -0.19916524
0.022205621 -0.10316712 0.027987484 0.050533593 -0.15669344 -0.13750952 0.25579607 0.027875204
0.21225013 0.24661942 0.016344931 -0.22099338 0.31851265 0.02024895 0.06462417 0.0042902217
0.07293593 0.1237917 0.23487441 -0.18551755 -0.13746223 0.21633615 0.22747196 -0.27838483
-0.617183 -0.006013684 -0.002615994 0.13050982 -0.012171813 -0.3638327 0.19513276 -0.0031331894
-0.036355864 0.23643687 0.013612522 0.08472571 -0.16745026 0.15718457 -0.029593838 -0.43379208
-0.06832423 -0.23175955 0.14231203 -0.06306374 0.004737517 0.2495991 -0.055882744 -0.013145543
0.13759208 0.21128929 0.12185051 -0.021733496 -0.044593647 0.002466267 0.0587116 0.1384774
-0.052445922 0.19701488 -0.11609417 -0.1033813 -0.030706504 -0.10512056 -0.16825713 0.062259477
0.16976415 -0.19610593 0.07442231 -0.071629986 0.112986356 0.18351482 -0.14609899 0.100177504
0.038578916 0.025051592 0.0957017 -0.09098759 0.0151993185 0.29190716 -0.037369337 -0.10030126
0.07980053 -0.14526057 -0.09674907 -0.04587403 -0.17160809 -0.08388229 -0.04327837 0.1490387
0.17031907 -0.14298323 -0.1815251 0.12871577 0.01328195 0.17414217 -0.084011264 0.0309022
-0.1072312 0.08165789 -0.080803506 -0.34063873 -0.07080844 -0.112344 0.31078678 -0.038777523
0.1302338 -0.056349214 0.014914849 -0.06582418 0.084027894 0.111097194 -0.19014089 0.07684384
0.0855522 0.18741412 -0.031322677 0.0035125792 0.07487119 0.254449 0.13543026 -0.17370945
-0.007885788 -0.24874678 0.2214037 0.055767596 0.019381275 -0.13883659 0.040749148 -0.04722176
-0.15710555 0.06330271 -0.31436184 0.2574365 0.30149353 0.067148246 -0.21857955 0.017130155
0.030092346 0.12889017 -0.01362194 -0.0041000317 -0.32761675 -0.047439005 0.075610675 -0.10701798

bias f4 [64]
00000000: d571 a1be 9b7e 8dbe 8cd2 90be ea24 cebe
00000010: 395f 66be 4b6f 8bbe 86c3 85be 28ff b4be
00000020: de21 72be 411c a7be a10f 94be 6cbc 9fbe
00000030: 9df3 bcbe dd18 62be 5a5d bcbe a65e fabd
00000040: 9e6b 44be 11ee 8dbe e073 71be 9bdb 98be
00000050: e67c a2be c856 88be 70d7 f7be 6f59 6dbe
00000060: 5e3c 13be f12a d3be b612 47be 8038 68be
00000070: cd6f 36be 299b 24be 79b5 91be 8bef 43be
00000080: 94cc a0be ad36 86be 1309 76be 7a77 9bbe
00000090: 9599 febd 89c2 8abe 8210 d6be 1949 9cbe
000000a0: caa8 aebe d503 88be 958d 1abe a6a1 61be
000000b0: 1a5e 69be 292c eebe 8788 8fbe 665e 31be
000000c0: aec7 18be 5ca4 90be 7ea0 c6be 1294 37be
000000d0: 4948 b2be 2c67 fabd 971e 7fbe 418c 82be
000000e0: acc9 8ebe 468b 19be 322e 7bbe 0a59 a3be
000000f0: d42f 7abe 8298 7ebe 0eef 0cbe 3767 adbe
-0.3153216 -0.27635655 -0.28285635 -0.40262538 -0.22497262 -0.27233347 -0.26125735 -0.3535092
-0.23645732 -0.32638744 -0.28918174 -0.31198442 -0.36904612 -0.22079797 -0.36789972 -0.12225084
-0.19181678 -0.27720693 -0.23579359 -0.29855046 -0.31735915 -0.2662871 -0.48406553 -0.23178647
-0.14378497 -0.412437 -0.19440731 -0.22677803 -0.17816086 -0.16074814 -0.28458765 -0.19134347
-0.3140608 -0.2621359 -0.24026899 -0.3036459 -0.12431637 -0.27101544 -0.4180947 -0.3052452
-0.3411315 -0.26565424 -0.15093072 -0.2203432 -0.22789803 -0.46518067 -0.2803385 -0.17321166
-0.14919922 -0.28250396 -0.3879432 -0.17927578 -0.34820774 -0.1222671 -0.24914013 -0.2549763
-0.27888238 -0.14994535 -0.24529341 -0.3190387 -0.24432307 -0.24862865 -0.13763067 -0.3386781

weight f4 [60, 64]
00000000: c930 59bc 4f4a 9a3d 6640 883d 436f 7e3d
00000010: 4c53 7cbe 3eae b8be 5ef1 a2bd 1825 763e
00000020: 6e99 7abe f9f4 e8bd 0b36 d3be 8635 23bd
00000030: f5c7 33bd 2110 9fbe 191d 1ebb 6e77 8ebd
00000040: f023 c3bd 358e 6e3e 84f2 97bd a12c 71be
00000050: 0dca 143e bf58 673d 0195 d5bd e906 003d
00000060: 4c63 c3bb e3b3 d53d 84eb a7bd e323 8ebe
00000070: 216f 123e 92bf 61be 0ae9 a3be 3575 f53d
00000080: e1c7 5ebe 2f5a 5a3e 1cc1 dabe 405a 343e
00000090: bccd d1bd 6e4c 94ba 7dd0 d5bd 6ef9 a7bd
000000a0: a1b9 663d c575 c53e 0c2a 873d 65a3 84be
000000b0: 2dbb 20be 90ea f5bc f449 5d3e 9080 b73d
000000c0: dfb8 94be 25a6 febd be42 40bb 3eeb 5c3e
000000d0: 2009 953e 4b86 7f3d bdc3 843d 21df 01be
000000e0: 88cb 67be 8443 26be 8d2c abbd dd65 83be
000000f0: ba14 85be 0ff4 59bd 0fd2 b7be 5186 70bc
00000100: a0c2 4e3d 9028 283d 8c27 bc3d 9ac3 5c3d
00000110: 14c4 e63d 32d7 e23c f2a7 473e c2a2 34be
00000120: ef88 e13d 22e7 093d 3247 493d 4d19 533d
00000130: 0375 1f3e d550 f23d 81a1 c7bd ab37 48bb
00000140: d3ae 54be 6b60 45be 79df 3d3e e4cc 89be
00000150: 037c 033e 20f5 b13e dafb 6cbb ca85 e63c
00000160: 0c68 6bbc a2e9 29be 4ad0 ba3e f3a3 ffbd
00000170: dfbe 4a3e 1d2d 5c3e 1931 233e c9b3 533e
00000180: bd44 2fbc eb92 153d db70 82bd 0697 0abc
00000190: 6d95 9b3d 7bd6 fd3d dfac 263c 5833 09be
000001a0: 66de 9dbd 6fbe 783c bf78 3c3d 7ca5 33bd
000001b0: 88d0 8c3d bd17 77be 6936 b43e 2050 18be
000001c0: 239e 003e d928 6bbc dc37 16be 47f0 403d
000001d0: b191 05be 0b92 47be 7504 febd f9c4 363e
000001e0: fe07 bebd 9d5b 4a3d 4481 3abe 9d36 c3be
000001f0: 524f 563e 1093 843d c33d b1bc 61a5 75bd
00000200: 8d3c 3bbe 0129 58be db80 78be a8b4 163e
00000210: a66f 6f3c 9d34 2dbe 14b6 7fbc 2755 dc3a
00000220: aa1a 9bbd 1538 8b3d 442d a0be dd1c 95bd
00000230: 5364 353e de0b 8d3d 41c0 233e 156c f2bd
00000240: 838a 6a3d 588d 3f3d 29f8 91be 260b cbbd
00000250: 0db3 85be a9f1 2ebd 02d4 9d3d 4bc4 4abc
00000260: c021 033e beba bcbe 0df2 dbbd 8c1b 023e
00000270: 6a4f b43d 644f 9a3e e931 803d 7f34 0c3d
00000280: 6372 dcbd de41 04bd 077f 3f3e 83ca e5bd
00000290: 2aca 8abd ce05 debe 3dd0 60bc 0080 3a3e
000002a0: b1e3 8c3d e4f3 eabd 5763 873e 2471 d93c
000002b0: 558f 84bd c783 643d 8863 973e b159 143e
000002c0: d769 033d 3b4b 97bd 6548 883e 275b 163e
000002d0: 7a3f d3bd 1276 6f3e a8ff 84be 41cb 623e
000002e0: 014c fe3c 2733 a13e 407e 513c eea7 a83c
000002f0: 72fe ddbe 466d 87be f835 933d e989 773e
00000300: 42cc be3d fffd 1f3e 3b66 a2be 8e04 8bbd
00000310: 1e14 343e bb1d dfbb cf0e 1dbd b9d9 8c3e
00000320: 79f9 15be dc04 bdbc cf20 d9bd 17ba 973d
00000330: e7be 29bc 14e2 983d 1ba5 4f3e fcc1 a03b
00000340: 7498 783d 01ca 843d 9cea 0a3a 58e4 593e
00000350: e709 a93d 8bc4 273d e03e 25bd 2f3e bdbd
00000360: 766a d4bd 902b f0bd 366e 0b3d 7dfd a83c
00000370: 5bf6 ef3c dc04 4b3e 416f c83d 1f8b 17be
00000380: 3d42 b5bd a189 92bd a403 9abe 5cd4 2a3d
00000390: 7c9a e3be b454 f7bd 0c74 c9bc d364 dfbd
000003a0: bd77 933d 64eb 803e 80dd a63d f5fd 4a3e
000003b0: fafe 583c ca44 8cbd 2b34 82be 0717 8e3c
000003c0: 76ca 68bd 9a4c 1f3d 98ec a13d b341 1c3e
000003d0: 5ed5 303e c8c9 e0bd 4f42 443d 5087 6f3d
000003e0: 1eef c8bd 2a94 f2bb 6739 bebd f9e7 2dbe
000003f0: 6c9c 22bd 04e6 66bd ac14 87be 264c 53bd
-0.01325626 0.075337045 0.06652908 0.062117826 -0.2464115 -0.36070436 -0.079561934 0.24037588
-0.24472591 -0.1137485 -0.4125217 -0.039845966 -0.043891866 -0.31066993 -0.002412623 -0.06956373
-0.09528339 0.23296435 -0.07419303 -0.23552181 0.14530201 0.05648112 -0.10428811 0.03125659
-0.005962765 0.10434701 -0.08199218 -0.27761754 0.14300205 -0.22045735 -0.32013732 0.11985246
-0.21755935 0.21323465 -0.42725456 0.17612553 -0.10244319 -0.0011314282 -0.104401566 -0.08201872
0.056329373 0.38566414 0.06599817 -0.2590591 -0.15696402 -0.030019075 0.21610242 0.08960068
-0.29047295 -0.12434033 -0.0029336656 0.21574113 0.29108524 0.06238393 0.064826466 -0.12682773
-0.22636235 -0.16236693 -0.08358107 -0.25663653 -0.25992376 -0.053211268 -0.3590245 -0.014680461
0.050478578 0.04105431 0.091872305 0.053897478 0.11267868 0.027690504 0.1949766 -0.17640212
0.11012446 0.03366769 0.049140163 0.0515378 0.1557198 0.11831824 -0.09747601 -0.0030550759
-0.20769815 -0.19275062 0.1854228 -0.26914132 0.12840275 0.34757328 -0.0036160857 0.028139967
-0.014368068 -0.1659303 0.36487037 -0.12482443 0.19799374 0.21501584 0.15936698 0.20674051
-0.010697541 0.036517065 -0.06369182 -0.008458858 0.0759686 0.123944245 0.010173052 -0.13398492
-0.07708435 0.015182122 0.04601359 -0.04385899 0.06875712 -0.24130149 0.35197762 -0.14874315
0.12560324 -0.014353001 -0.14669746 0.047104146 -0.13043858 -0.19489305 -0.12403194 0.17848577
-0.09278868 0.049403775 -0.18213373 -0.38127604 0.20928696 0.064733624 -0.021635896 -0.05997217
-0.18284817 -0.21109392 -0.24267904 0.14717352 0.014614021 -0.16914602 -0.015607376 0.0016810045
-0.07573445 0.06797806 -0.31284535 -0.07280896 0.17714052 0.06887029 0.15991308 -0.11837021
0.057261 0.046765655 -0.28509644 -0.09914236 -0.26113167 -0.042710934 0.07706453 -0.012375901
0.12805843 -0.36861223 -0.10739527 0.12705821 0.088042095 0.30138695 0.062595196 0.03422975
-0.10764005 -0.03228938 0.18700801 -0.11220267 -0.06776841 -0.43363804 -0.013721523 0.1821289
0.06879366 -0.114723 0.26442978 0.026543207 -0.06472651 0.055789735 0.29568124 0.1448734
0.03208336 -0.07387396 0.26617733 0.1468321 -0.103148416 0.23384884 -0.259763 0.22147848
0.0310421 0.3148434 0.012786448 0.020587888 -0.4335819 -0.26450557 0.07188028 0.24173702
0.09316303 0.15624236 -0.3171862 -0.06787978 0.17585799 -0.006808964 -0.0383442 0.2750986
-0.14645948 -0.023073606 -0.10601961 0.07408541 -0.010360456 0.07464996 0.20277826 0.0049059372
0.060692266 0.06483842 0.0005299242 0.21278512 0.08253842 0.040958922 -0.040343165 -0.09240376
-0.10371868 -0.11727059 0.034040652 0.020628685 0.029292276 0.19826072 0.09786845 -0.14799164
-0.088505246 -0.07155157 -0.30080903 0.041706428 -0.444538 -0.12076703 -0.024591468 -0.109079026
0.07200573 0.2517959 0.081477165 0.1982344 0.013244385 -0.06849058 -0.25430426 0.017344965
-0.056833707 0.038891412 0.07906455 0.15259437 0.17268893 -0.10975987 0.0479148 0.058478653
-0.09811233 -0.0074029164 -0.092882924 -0.16983022 -0.039699957 -0.056371704 -0.2638296 -0.051586293

bias f4 [60]
00000000: ce89 9a3d 01fb 463d 321d 503e 3fba bd3d
00000010: 819c 0b3d b09b dabd 7bfd 043e fc7a 2d3d
00000020: 7872 223e 0111 bdbd e643 c0bd 4775 b0bc
00000030: 3253 23bd 9514 cfbd f503 e53c 21e6 ecbd
00000040: c331 ebbd 936d 5abe be06 753d 60cc 5b3b
00000050: 71f2 f8bc 966a 6c3c 5deb 68bd 403f 563d
00000060: 8fce 19bd 83ec fe3d c6a9 19bc 38b2 ac3d
00000070: e74e 883d 8c6d 79be 43e9 66bd bdd6 72bd
00000080: 6037 84bd b8ec 873c e223 68bc 1fb9 023e
00000090: 2baf 2fbe 9cc3 acbd 07e9 743c 2120 84bd
000000a0: 21bf efbc 9102 633c 55c3 893e 2465 a53d
000000b0: 2e80 ce3d be7f 26bd 6883 ff39 1e68 333c
000000c0: 3789 313e 0f88 01be 4644 80bd cd81 e23c
000000d0: 4d9e bf3d b484 14bd 85da 3f3e feeb 4a3c
000000e0: 967c 7cbe 1a7d 853e afc6 cdbe f5bc febc
0.075458154 0.04857922 0.20323637 0.09264039 0.0340848 -0.10674226 0.1298732 0.042353615
0.15863979 -0.09231759 -0.093879506 -0.021540297 -0.039874263 -0.101113476 0.027955988 -0.11567331
-0.11484101 -0.21330862 0.059820883 0.0033538565 -0.030389043 0.014429709 -0.056865085 0.052306414
-0.037550505 0.12447455 -0.009378856 0.0843243 0.066556744 -0.24358195 -0.0563748 -0.05928682
-0.064558744 0.016592368 -0.014168711 0.1276593 -0.17156665 -0.08435747 0.014948136 -0.064514406
-0.029265942 0.013855592 0.2690684 0.08075932 0.10083042 -0.04064917 0.00048735295 0.010950116
0.173375 -0.12649558 -0.06263022 0.027649784 0.09356365 -0.036259368 0.18735702 0.0123853665
-0.24656901 0.26072007 -0.40190646 -0.031095961
