Case_Study_1/trained_transformer/verification/vit_24_2_6_12.pt (torch, 51912 bytes, 30 tensors)

pos_embedding f4 [1, 50, 24]
00000000: 234a 39be 0552 5c3f 5db3 6cbf 30e5 2f3e
00000010: c0c5 383f ce9e 18bf 2009 2cc0 c32d 973d
00000020: e030 6c3d ad9f c8bf be8f c63d d721 8dbe
00000030: 90ac 88bf f98d 1540 2f96 043f b448 afbe
00000040: d516 11bf 9010 b13f 3160 13bf 8ad0 fe3d
00000050: 117c b3bf 8c5e 75bf 3075 25bf bd9f 57be
00000060: dc8a 7a3f b732 ebbf 762e 24bf 4284 1fbf
00000070: d765 32bd 643a 5dbe 8449 0b40 d737 63bf
00000080: 48a5 97be c63e 093f 6880 cabe cf86 a53f
00000090: 38ca 093f c2b5 52bc 0b58 5fbe 373b 82bf
000000a0: 771e 6b3f 3e00 1a3f 0030 80bf e59d 9abf
000000b0: 75fa 7abf a03c 7abf dd68 963e a862 1dbf
000000c0: d54d 373f e294 09bf 3315 a3bf d00d 03bf
000000d0: d460 b23f e94f 66bf 850e a13f 35f5 70bf
000000e0: c58a 35bd 578b c0bf 98b5 0f40 edd1 a93f
000000f0: 3321 2dbf a40b febf 6c4a a33d 6c47 703f
00000100: 431f f43f d3b8 20bd 60aa c4bf fbb8 34be
00000110: 5f01 453e cf2c 05c0 bad6 2a3f cc2b 9fbf
00000120: 0a1e b33f a50c a03f 82ec be3e f31a 70bf
00000130: 1d1b 2abf 0899 3ebe f081 9f3e 291a 293f
00000140: df16 0cbf 7412 19bf 8317 443d 9c69 863f
00000150: a4ba c3bf 3bfd 81bf cab1 253e 78e5 debf
00000160: a918 dd3f b8b7 cb3e 99e3 8abe 716e cc3e
00000170: fda0 1b3d e255 2840 7d62 b93f 74ad a73d
00000180: e785 8abf 303a 163f f9c7 96bf 3291 aabe
00000190: 2f51 283c c1c5 533f dc05 3f3f 61db 71be
000001a0: 65f9 91bf 3816 373f 8183 c63f b90f c43e
000001b0: bd75 23bf bb5d 9fbe 9b92 e83f 073d 5a3f
000001c0: 1583 84be 6c84 1d3d ea10 0340 4ea2 123f
000001d0: df48 943e f354 78be 06d9 2ebf 2318 e93f
000001e0: 8230 f8be 7b0d 983f 37c6 573f 62a1 b3bf
000001f0: f4ba fb3f 5c96 f03c 42c5 9a3f 2622 ec3f
00000200: f42b 1e3f 4b32 0cbe db71 a6bd 361d fa3d
00000210: 621d 613f c67d 1e3f 1799 f43e 56bb 58be
00000220: 12ad e4be d309 953f 4d5d 00bf d54f 28bf
00000230: 80cb 1c3f f575 49bf 80c6 b43e cbcc 0bbf
00000240: 8d7a afbe 8859 d23e daa5 f7be ca67 7cbf
00000250: 5b7d b13e b01f 06c0 0181 1a40 bdf7 1fbf
00000260: 1739 813f 8c29 4d3e 0a83 6a3f fd8a 6c3f
00000270: 88c5 4cbf 30e5 dcbc 6562 2d3e a964 b1bf
00000280: 7cb1 603f 9497 fbbf 47fa ba3f 43fa 393f
00000290: fd3e bcbf 0be2 5bbe 3808 56be 2b91 3dbf
000002a0: 54a1 46bf 49bb 6b3f 1f3b e73e f3aa 93bf
000002b0: ed2b 0e3f 6adb 103f 4dcd d53e 0292 df3f
000002c0: db4e 643f 4def 1840 696a 873f d502 40bf
000002d0: a880 3bbf 9cdc fd3f 1a3a 7f3f 1b13 35be
000002e0: 51c8 d7bf 165e 00be 3c86 9a3f ec0a 7dbe
000002f0: ea7d adbf b312 0340 658b 03bf 6fe0 0f3f
00000300: ca4d b3bf 2864 f5bf 9a48 16bf 9cb0 ebbd
00000310: 3306 f23f 11a3 2b3f 1b79 9a3f 5c2c b73f
00000320: ca06 e2be 134c b5be bffb 8bbf e029 ad3f
00000330: e48e 69bf 56fc 113f d313 acbf c946 14be
00000340: a0a3 543e b0d1 d93f d809 2fbf f77a c3be
00000350: 8116 f23e 9c8e 06bf 04bf 3d3d bc37 413f
00000360: 51fe a53e fffc 0a3f 0f51 7a3f ab5a 53be
00000370: 6583 0dbf 1cab 883f 1ac9 0840 2122 c63e
00000380: 46c4 88bf 713d b13f bb16 0940 bbb3 db3f
00000390: e0c7 1abf 8d74 913d 5e1d 9e3f 9618 5b3f
000003a0: 88ea ee3e 31ae 81be 1ee3 1a3d dd40 d03e
000003b0: 6c2c 833f 0033 1d3d fe89 ac3f 3edd 353f
000003c0: bfbb 88bf a642 c7be 0d28 05bf ef8b d93d
000003d0: 6894 a3be 86d1 5d3f 174a 99bf d731 77bf
000003e0: 94ac 57bf 2b49 88bf 0a40 a23f 050e a03f
000003f0: 8031 04bf 9233 b4bd 6adf 133f 0e9b a83e
-0.18094687 0.8606265 -0.92461187 0.17177272 0.7217674 -0.59617317 -2.688057 0.07381775
0.0576638 -1.5673729 0.096953854 -0.2756488 -1.0677662 2.3367903 0.5179166 -0.34235156
-0.56675464 1.383318 -0.5756865 0.124421194 -1.4022237 -0.9584739 -0.6463194 -0.21057029
0.9786813 -1.8374852 -0.64133394 -0.62311184 -0.043554153 -0.21604306 2.176362 -0.8875708
-0.29618287 0.5361141 -0.3955109 1.2931765 0.53824186 -0.012860717 -0.2181093 -1.0174321
0.9184336 0.6015662 -1.0014648 -1.2079436 -0.9803842 -0.97748756 0.2937688 -0.6147866
0.7160314 -0.537428 -1.2740844 -0.5119295 1.39358 -0.89965683 1.2582556 -0.94124156
-0.044321794 -1.5042523 2.2454586 1.3267189 -0.67628783 -1.9847302 0.07973179 0.9385898
1.907204 -0.039238762 -1.5364494 -0.1764869 0.19238804 -2.08086 0.66733897 -1.2435241
1.3993542 1.2503859 0.37289816 -0.9379112 -0.6644762 -0.18613064 0.31153822 0.6605554
-0.547224 -0.5979378 0.047873985 1.050098 -1.5291333 -1.0155405 0.16181102 -1.7413778
1.7273151 0.39788604 -0.27126768 0.3992801 0.037995327 2.6302419 1.4483181 0.081873804
-1.0822114 0.5868254 -1.1779777 -0.333139 0.010273262 0.82723624 0.74618316 -0.23618843
-1.1404234 0.7151828 1.5508882 0.38293245 -0.6385153 -0.31126198 1.816974 0.8524937
-0.25881258 0.038456365 2.0479074 0.5727891 0.28961846 -0.24251156 -0.682999 1.8210491
-0.4847451 1.1879114 0.84286827 -1.4033625 1.9666429 0.029368572 1.2091448 1.8447921
0.6178582 -0.1369106 -0.08127185 0.12212603 0.8793546 0.61910665 0.47773048 -0.21165213
-0.44663292 1.1643623 -0.50142366 -0.65746814 0.61248016 -0.78695613 0.35307693 -0.54609364
-0.34273186 0.41083932 -0.48368722 -0.9859587 0.3466595 -2.095684 2.4141238 -0.62487394
1.0095547 0.2003538 0.916062 0.9239958 -0.7998891 -0.026964754 0.16932066 -1.3858844
0.8777082 -1.9655633 1.4607629 0.72647494 -1.4706722 -0.21472947 -0.20901573 -0.74049634
-0.7758992 0.9208265 0.45162293 -1.1536545 0.55535775 0.565848 0.41758195 1.7466433
0.89182824 2.3896058 1.0579349 -0.7500432 -0.7324319 1.983295 0.9969803 -0.1768307
-1.6858007 -0.12535891 1.2072215 -0.24711198 -1.3554051 2.0480163 -0.51384574 0.56201833
-1.4008114 -1.917119 -0.5870453 -0.11508295 1.8908142 0.67045695 1.2068208 1.4310412
-0.44145805 -0.35409603 -1.0936202 1.3528404 -0.9123366 0.5702566 -1.344355 -0.14480127
0.20765543 1.7017117 -0.68374395 -0.38179752 0.47282794 -0.52561355 0.046324745 0.7547567
0.3242059 0.5429229 0.97779936 -0.20640056 -0.5527862 1.0677218 2.1372743 0.38697913
-1.0684898 1.3846875 2.1420124 1.7164224 -0.60461235 0.071023084 1.2352712 0.8558439
0.46663308 -0.2532821 0.037814252 0.40674487 1.0247931 0.038378716 1.3479612 0.71040714
-1.0682296 -0.38918036 -0.5201424 0.10622393 -0.31949162 0.8664783 -1.1975735 -0.96560425
-0.8424771 -1.0647329 1.2675793 1.2504278 -0.5163803 -0.08798899 0.5776278 0.32930797

cls_token f4 [1, 1, 24]
00000000: f10c 353f f930 a8bf e4f6 333f 2ed0 d9bc
00000010: 7e59 193f b9ff 3fbf 3e15 543f b709 05bf
00000020: b73e 823f c611 fdbf 0c60 1f3f c556 81bd
00000030: 03c0 afbe a2f1 b23e 2c1d 3c3f 6f91 6c3f
00000040: b39f c73e a4f5 43be 81a7 1b40 d395 f6bc
00000050: a25d a33f 8630 d4bc c849 cc3e a691 c1be
0.7072287 -1.3139945 0.702986 -0.026588526 0.5990218 -0.74999577 0.82844913 -0.5196795
1.0175389 -1.9771049 0.6225593 -0.06315378 -0.3432618 0.34949976 0.7348201 0.92409414
0.38989028 -0.19136673 2.4320986 -0.030100739 1.276295 -0.025902044 0.3990004 -0.37806433

weight f4 [24, 16]
00000000: 5bc3 76be 24f3 6bbe fadb 0cbe 6bdc 44be
00000010: b3ce ea3e 275c d8be e041 d0bc 8052 333e
00000020: ed70 6abd 0321 52be db2e 593e 3444 bb3e
00000030: afc2 b3bc 7ff3 b43d c990 523e f5fd c43e
00000040: b6c6 203e d50c f7bc 0e2d cebd b76f 5a3e
00000050: 9fb6 8b3e 37c5 8b3e f710 973e 3508 d83e
00000060: 9030 cc3d e4b7 6b3c f3da 84bd 48f7 2e3d
00000070: 429a 66be b0d6 5abe 68d0 05bf 7534 e4be
00000080: 8b5b 033e 14fd 9f3e 4f41 583e 6993 be3e
00000090: 47bf 84be bafa d93a 7df5 173e 5748 483e
000000a0: 53ca 8cbe e95e f23d 13ff 993d bc86 1bbe
000000b0: fb3f e5be ae98 38bd 0647 86bd ab11 edbd
000000c0: 3fc9 b43e ab05 963e 6ee6 33be 97f3 e63e
000000d0: 5edb 333d ddbb c2be b7f5 90be 9c00 01be
000000e0: 0fc9 a0bd 9d33 8ebe c431 b4be aa80 55be
000000f0: 951e 8b3c 5a00 953e 8ac0 8b3e 5d84 42be
00000100: a855 74be d447 acbd 7599 00be 7340 1dbf
00000110: c72d 1dbe e1d1 873e c9a8 c3bc 4399 afbe
00000120: bd7e 7b3e 2ac2 cc3e 9a6d 7e3e cd4c 8ebd
00000130: 9cc3 113f e876 553e deb4 e63c 3aa2 56bd
00000140: b7ac 0d3f 4939 803d 2e13 683e fff6 2e3e
00000150: 92d5 f43e 3315 443e b10f 483e e71c 073c
00000160: 794a 753e 790d cf3d ede4 85be 0074 573d
00000170: db55 abbe cb8b aabe fbaf 0bbf a475 a83e
00000180: 80e3 13bf 78c3 0f3e 5855 943e 0141 153d
00000190: 65f2 01bf 2f20 933e 4cba 753e 85c4 4f3e
000001a0: a1de 91be 8bd0 323e 9545 ad3e cee9 083d
000001b0: 2092 d7be 9f4f f8bd abe1 8c3d e901 b43e
000001c0: ccb8 3f3e 2177 9f3e 613d a03e 16fc 373f
000001d0: 053f 81be 033c 25be 4a02 01be 9749 1a3f
000001e0: 887c b1bd 96f4 9fbe de45 50be cd96 073f
000001f0: e95f 193e f16d 09be 06bd 66be 4558 b73e
00000200: 066e a2be f832 54be 1cf9 073d 268f 1a3e
00000210: 2fcb 1bbe c40f a93d cb37 403e 01f0 983e
00000220: 1ca8 89bc c916 ad3e f6b8 8b3e 19b8 143e
00000230: 9dbe 55be 1957 a03e 7413 823e 0025 333f
00000240: 14a4 adbd 4b04 d63e c409 253f 7b1e d53e
00000250: 387f 013f adaa aa3e 5904 833e d874 7bbe
00000260: beff 2d3f 3c49 09be 965c c2bd 45d4 b8be
00000270: 3279 1c3f 5ac5 41bd 1cf6 2abe 0f75 1cbf
00000280: 6849 70be 41f6 86bd 2655 503e e62e 25be
00000290: 1eed d5be af67 8bbe 301b e83d 2293 67be
000002a0: cb6f 2abf 322d 5bbe d340 8bbd 94b7 39be
000002b0: a6b9 d0be 16f5 c5bd 6fab 233e 2d9e 6e3e
000002c0: 7210 403e 11a4 043e 482d 65be 22e9 4dbf
000002d0: e782 263e ef94 5d3e 6a76 683e 6a10 21bf
000002e0: fd72 1f3e e806 9a3e eb8b aa3e 84e0 07bf
000002f0: d326 3b3f 6a32 1d3f 8baa d03e ee13 4abd
00000300: 8b7d 9a3e aca5 a73e 38e8 32be a859 a4be
00000310: 8787 9dbe 0f28 91be e0c3 91be 3b74 5bbe
00000320: fbab 39be dde6 8fbe a72d 7cbd af72 d1bc
00000330: 2985 cf3d f707 c03d 07c6 4c3d 7a41 993e
00000340: bdca 5cbe 03a1 5abe d6a3 b7be dad6 87bd
00000350: 36b1 8ebe bfc6 c3be fe35 20bf 5232 c63e
00000360: 07fa 55be 8bb4 f4be 35ac ecbd b262 993e
00000370: 5650 413e 909c edbd ed56 b5be ca8b 403e
00000380: 6d82 403f e3b8 e83e 006d be3e 10ac d93d
00000390: 72d0 9b3e d4e4 ed3e d0ce d93d a433 a2be
000003a0: a306 4a3e 7b4b 833b a38c 78bc 8c5a 2cbf
000003b0: 1747 4f3e 6230 9a3e 65d1 ac3d c3e0 f6be
000003c0: 08ef 193e 1bd7 b93e b0c1 243d d81d 81bf
000003d0: 75f2 863e fb9c c9bd ab11 00be d4e8 f4be
000003e0: 3234 333e ce98 82be cbcc a33d f866 abbe
000003f0: d4bf c4be b86e cfbd 6bd5 8bbd 4df3 5eba
-0.2409796 -0.2304197 -0.1375579 -0.19224708 0.45860824 -0.42257807 -0.025422037 0.1751194
-0.0572366 -0.20520405 0.2120928 0.36575472 -0.021943418 0.08835506 0.20563044 0.38475004
0.15700802 -0.030157486 -0.10067187 0.21331678 0.27287766 0.272989 0.2950513 0.4219376
0.099702 0.014387105 -0.06487074 0.042716295 -0.22519782 -0.2137096 -0.5227113 -0.44571272
0.1282789 0.3124777 0.21118663 0.3722184 -0.25927183 0.0016630508 0.1483974 0.19558845
-0.2749811 0.11834509 0.07519355 -0.15188116 -0.44775376 -0.04506748 -0.065565154 -0.115756355
0.3530979 0.293012 -0.1756837 0.4510772 0.043910377 -0.38033953 -0.28312466 -0.12597889
-0.07850849 -0.27773753 -0.35194218 -0.20849863 0.016982356 0.2910183 0.27295333 -0.18995805
-0.238608 -0.08412138 -0.12558539 -0.61426467 -0.15349494 0.26527312 -0.023884194 -0.34296617
0.24560066 0.39991885 0.24846497 -0.06948242 0.569391 0.2084614 0.028162416 -0.052400805
0.55341667 0.06260926 0.22663566 0.17086409 0.4781919 0.19148712 0.19537236 0.008246637
0.2395419 0.101099916 -0.2615122 0.05260086 -0.3346394 -0.3330978 -0.545654 0.32902253
-0.5776901 0.14039409 0.28971362 0.036438946 -0.5076049 0.28735492 0.23996848 0.2028981
-0.28490165 0.17462365 0.3384215 0.0334261 -0.42103672 -0.121245615 0.0687898 0.35157707
0.18722838 0.31145576 0.31296828 0.7186903 -0.25243393 -0.16136174 -0.1259853 0.6026854
-0.086663306 -0.31241292 -0.20339152 0.5296448 0.14977993 -0.13420846 -0.22533044 0.35809532
-0.31724566 -0.20722568 0.033196554 0.1509367 -0.15214227 0.0825496 0.18771283 0.29870608
-0.016803794 0.33806446 0.27289551 0.14523353 -0.20873494 0.3131645 0.25405467 0.6997833
-0.08478561 0.4180015 0.64468026 0.41624817 0.50584745 0.3333334 0.25589254 -0.24556291
0.67968357 -0.13406843 -0.094903156 -0.3609945 0.6112243 -0.04730735 -0.16695446 -0.6111612
-0.23465502 -0.06589938 0.20344982 -0.16131172 -0.4178247 -0.27227542 0.113333106 -0.2261472
-0.6657683 -0.2140396 -0.067994736 -0.18136436 -0.4076664 -0.09665887 0.15983365 0.23302527
0.18756273 0.12953211 -0.22380555 -0.8043386 0.16260873 0.21638845 0.22701421 -0.6291567
0.15571208 0.30083394 0.33309874 -0.5307696 0.73106116 0.6140505 0.40755114 -0.049335413
0.30173907 0.32743585 -0.17471397 -0.32099652 -0.30767462 -0.28350875 -0.28469753 -0.21431057
-0.18132012 -0.28105822 -0.061566975 -0.02556738 0.1013282 0.09376519 0.04999354 0.29932767
-0.21561714 -0.21350484 -0.35867184 -0.066327766 -0.27869576 -0.3823757 -0.62582386 0.38710266
-0.20896159 -0.47793993 -0.115562834 0.2995811 0.18878302 -0.116021276 -0.35417882 0.18803325
0.75199014 0.45453557 0.37192535 0.106285214 0.3043247 0.46463645 0.106351495 -0.31680024
0.19729094 0.0040068007 -0.015170249 -0.67325664 0.20241962 0.30115038 0.08438376 -0.48218355
0.1503259 0.36296925 0.040223777 -1.0087233 0.26356855 -0.09844395 -0.1250674 -0.47833884
0.1750038 -0.25507206 0.079980455 -0.33476996 -0.38427603 -0.1012854 -0.068278156 -0.00085048826

bias f4 [24]
00000000: 9ffb 983d fa63 b5bc 70a4 17bd 8f42 bcbd
00000010: 528d 0e3c 8755 f5bc c265 133e 1018 b5bc
00000020: 9698 943d 7698 02be bfef 373e 056d a0be
00000030: 1294 283d 2a45 ae3c 9cc8 c33d 5aaa ef3d
00000040: 0c64 47bd 2927 5cbd 2fa1 c9bd 81ca b6bd
00000050: 158b ddbd 91a1 b1bd 5d8d 7dbe a598 10be
0.07469868 -0.0221424 -0.037022054 -0.091923825 0.008700686 -0.02994801 0.14394286 -0.0221062
0.07255666 -0.12753472 0.1796255 -0.31333175 0.041156836 0.021273214 0.095597476 0.11702414
-0.048679397 -0.053748284 -0.098451965 -0.08925343 -0.108175434 -0.086733945 -0.24760957 -0.1412073

weight f4 [24]
00000000: 09a6 6e3f a1fb 6a3f 5cfc 943f 6513 803f
00000010: 1585 7f3f c642 5f3f 791e 4a3f f52b 803f
00000020: 0ee0 633f 8c7d 463f 7e73 7a3f 66f8 713f
00000030: 6c87 493f b747 833f 1fb2 6b3f 06e9 893f
00000040: 7769 643f 84b8 4c3f b88d 793f a36f 6f3f
00000050: 6105 843f 10b6 5b3f 96bf 633f 3702 873f
0.932221 0.91790205 1.1639514 1.0005919 0.9981244 0.87211263 0.7895275 1.0013415
0.89013755 0.7753532 0.9783248 0.9451965 0.7872226 1.0256261 0.92068666 1.0774238
0.89223427 0.7996905 0.9748187 0.9352972 1.0314142 0.8582468 0.8896421 1.0547551

bias f4 [24]
00000000: 8254 3fbd b0e2 07bd 8ffa 7c3d 3f89 1c3d
00000010: 069b f43a 3454 663d d5c2 3a3d 205d 79bd
00000020: caeb 1dbe 37d2 333c ec79 193d 0241 533d
00000030: d356 fc3d c42d 143c 565e 98be ec98 66bc
00000040: 0776 e9bc 7646 98be fadd 0dbb 7c8a 00bd
00000050: f732 0fba 43cf 643e ffae 563e e843 b3bc
-0.046711452 -0.03317517 0.06176239 0.038216826 0.0018661923 0.056232646 0.045595963 -0.060879827
-0.15421978 0.010975412 0.03746979 0.05157567 0.12321248 0.0090441145 -0.29759473 -0.014074545
-0.028498663 -0.29741257 -0.00216472 -0.03138207 -0.00054626114 0.22344689 0.20965193 -0.021882966

weight f4 [72, 24]
00000000: 695f 893e 3151 99be d89f d8be 0095 993e
00000010: bfc2 523c 4aa7 ecbe c5f1 98be 4695 3f3e
00000020: 905d 873d 82f2 fbbe e646 6c3e 1934 94be
00000030: 45e9 b6be 57f3 eb3e 3215 b23e acf0 18be
00000040: cd5b da3d 4748 1abe a6ed 633d 39e3 3fbe
00000050: 6b6b 3e3e 546c 053e 7501 7ebd b84b c7bd
00000060: 4dee a13d 646d a2bd 4c26 dabe 7766 ce3d
00000070: 718a ac3d 99d4 123e 964e 1cbe 13bb e63e
00000080: 5730 4cbe 696a 783e 2a29 86be 7f2c 7d3e
00000090: 73ec c03e da65 a13d 7984 253e 3a21 4ebd
000000a0: 7425 6c3d c05e b3be 7060 29bd a87b e4be
000000b0: c359 043e c3a4 1ebd 39e0 f23d 6011 a4be
000000c0: 1fa8 413d 35ef d93e 4c87 04bd f85c 8dbe
000000d0: 5a93 f3ba 3ded 1c3d ca43 3d3d 258b c83e
000000e0: 683e d73e 3dd8 d23d fc47 9c3d 5427 a6bd
000000f0: a150 9abd 9cb5 283e 3471 3ebf ed5a 953c
00000100: 1cea d63e e7fc 1ebd 6e39 94bd 462c d73e
00000110: e552 4a3e c650 96bd f834 6ebe 627c 853e
00000120: ef87 0a3f 6cb7 263e 2740 6bbd 4fb8 3ebe
00000130: 9879 933e e995 96be 21b2 083d 35b6 3fbd
00000140: 6fcc 4abc 8687 7e3d 1d83 713e b772 853e
00000150: ec4f 07be e5f0 58be 6161 eebd fd89 dfbe
00000160: 4ee1 393d 1c05 c7be 9a97 ad3e 70ea 43be
00000170: 6d63 b9bd a647 d73e 6798 de3d 199a a8be
00000180: ba40 90bc 1c87 dc3e 76fa 0b3e 9bda 76bc
00000190: 8fe9 24bc 5af5 28bd 4bab 4d3e 12f3 fa3c
000001a0: 86ad d93e 22fc b6bc db01 aabe 9c27 8a3d
000001b0: a7e5 1dbe 4c5f ff3d 8f00 ad3e 6756 9b3e
000001c0: bdc7 09bf 8265 d13d dce3 9c3d 2ae6 b1be
000001d0: 3d0d 93be 9b5c 77be 1fed 88bd 9f60 dd3d
000001e0: 87aa adbe 7b5a ce3e 15b6 8dbe ec36 09be
000001f0: a396 25be 7171 ea3e 0eac 19be 3ab4 48be
00000200: 78d0 2dbe 5e82 b93d 0f2d debd 6b61 4e3e
00000210: 51cc 7abe ed77 af3d a4b0 78be 5b70 5c3d
00000220: f1a0 a43e 8bd8 a1be 6210 773c ad7d ba3d
00000230: 90f1 ebbd 2e2b 043d cee5 e53e d3d2 a73e
00000240: cdd1 183d 1a19 303e b9e2 50be 17b8 08be
00000250: 1805 0f3e 079a 583e 5abd 983e 7c9f 85be
00000260: ad67 ae3e 282b d4be 23eb b53e ee22 81bd
00000270: 5e92 17be b5b0 6f3e 1706 52be 35a2 a93e
00000280: 8ec1 31bf 0e06 12be 96dc 86bd 1b34 82be
00000290: ebed bcbc d49c 1dbf c6c1 703d 6618 1b3e
000002a0: 00b4 ac3d 6cd6 65be 823d c9bd 8559 c63e
000002b0: 8b1f 45be 70ee 48be 6cdb 903c fc7d 40bd
000002c0: e834 06bf 1631 7dbd 38c6 8f3e 7fca 81be
000002d0: 6cb2 f43e 94d5 223e 07d1 a6bd fb13 013f
000002e0: 7acf 5cbe 612c ff3d f6d2 0c3f b6d6 83be
000002f0: 5b35 7c3e bffd 87be c981 123d c606 b2be
00000300: e7cf d33c 3ae2 183e 1fe8 83be db48 b93e
00000310: 1fa9 b93e 2ba1 02be b9c7 433b cf5f fe3d
00000320: ade8 a43d b39a 67be 4b1a e13d 4e2a 5ebe
00000330: 5903 76be db93 833e 7793 6fbb 1a37 553d
00000340: 0f07 b53e 7e8b 8f3d 85bd 073e 953e 08bf
00000350: bae0 673e b2ed 93bd c7a5 4cbd 467d aa3e
00000360: 1ba9 8b3e 401b 3dbe 34d0 443d 99d5 85bd
00000370: 580d 8b3e 4a96 e1be 0f96 9dbe db33 01bf
00000380: d1da 113e 95fc 293e b66f 8e3e 26a7 b33e
00000390: 59e0 153e 171f 963d fab0 0d3e c190 843c
000003a0: df3d 25bd 9c4e 4abe e7b4 b63e 0d14 3d3c
000003b0: 954d 573e 0a2d cb3d dc05 40be 9425 b73e
000003c0: 7b31 b83e a4dc ec3e c175 4bbd 81be a53d
000003d0: 768f f0be d036 06be ae48 603e 25dd 24be
000003e0: ef9f 9dbe e94a 8fbe c175 d53e d187 263e
000003f0: c912 1a3e 983b 013d 28e6 45be 1ec2 d6bc
0.26830605 -0.29944757 -0.4230945 0.2999649 0.012863814 -0.4622138 -0.29871956 0.18709287
0.066096425 -0.49208456 0.2307392 -0.28945997 -0.35724846 0.4608409 0.34781796 -0.14935559
0.10662041 -0.15066634 0.05564656 -0.18739022 0.18595664 0.13029605 -0.06201311 -0.09731239
0.079067804 -0.07931021 -0.42607343 0.10078137 0.08424843 0.14338912 -0.15264353 0.450646
-0.19940315 0.24259342 -0.2620328 0.24724005 0.37680396 0.07880755 0.16163816 -0.050324656
0.057652906 -0.35033226 -0.041351736 -0.44625592 0.12924866 -0.038731348 0.11859173 -0.32044506
0.047279473 0.42565313 -0.03235559 -0.27609992 -0.0018583343 0.038312186 0.046207227 0.3916866
0.420398 0.102951504 0.076309174 -0.0811297 -0.0753491 0.16475528 -0.74391484 0.018231833
0.41975486 -0.038815405 -0.07237516 0.42025965 0.19758184 -0.07339625 -0.23262393 0.2607146
0.5411367 0.16280907 -0.057434227 -0.18624996 0.28803706 -0.29411247 0.033373002 -0.046804626
-0.012377842 0.062140964 0.23585172 0.26064083 -0.13214082 -0.21185644 -0.11639667 -0.43659964
0.045380883 -0.38871086 0.33904725 -0.191324 -0.09052167 0.4204685 0.10868912 -0.32930067
-0.017608989 0.4307183 0.13669762 -0.015066768 -0.01006545 -0.04124961 0.20084874 0.030633483
0.425152 -0.022337023 -0.3320454 0.06745836 -0.15419637 0.12469348 0.3378949 0.30339357
-0.538204 0.10224439 0.07660648 -0.34745914 -0.28721038 -0.2415642 -0.06685852 0.10809445
-0.33919165 0.40303406 -0.2767798 -0.13399857 -0.16170745 0.45789674 -0.1500704 -0.19600001
-0.16974056 0.09058069 -0.10848438 0.2015435 -0.24492003 0.08567796 -0.24286133 0.053818088
0.3215404 -0.31610522 0.01507959 0.09106002 -0.11520684 0.03226774 0.4490189 0.32778034
0.037309457 0.17197075 -0.20398988 -0.13351475 0.13966787 0.21152507 0.29831964 -0.2609824
0.34063473 -0.41439176 0.35530958 -0.063054904 -0.14801928 0.23407252 -0.20510136 0.33131567
-0.69435966 -0.14260122 -0.06585042 -0.25430378 -0.023062667 -0.61567426 0.058778547 0.15146026
0.0843277 -0.22445077 -0.09826185 0.38740173 -0.19250314 -0.19622207 0.017682754 -0.046995148
-0.5242448 -0.06181439 0.28080916 -0.25349805 0.47792375 0.15901786 -0.081453376 0.5042111
-0.21563521 0.124596365 0.550094 -0.2574975 0.24629728 -0.2656078 0.035768304 -0.34770793
0.025855972 0.14930049 -0.25763032 0.36188397 0.36261842 -0.12756793 0.0029873683 0.12420618
0.08052192 -0.22617607 0.10991343 -0.21695825 -0.24024715 0.25698742 -0.0036556402 0.052054502
0.35356948 0.07009028 0.1325589 -0.5322049 0.2264432 -0.07223071 -0.049962785 0.332987
0.27277455 -0.18467426 0.04805012 -0.06534881 0.27158618 -0.44059974 -0.30778548 -0.5046975
0.14243628 0.16600259 0.27819604 0.35088462 0.14636363 0.07330149 0.13837042 0.016182305
-0.040342208 -0.1975655 0.35684893 0.011540425 0.21025689 0.099207 -0.18752235 0.35770857
0.3597525 0.46262085 -0.049672846 0.08092976 -0.46984452 -0.13106847 0.21902725 -0.16099985
-0.30786082 -0.2798684 0.41691402 0.16262747 0.15046228 0.031550974 -0.19326079 -0.02621561

weight f4 [24, 24]
00000000: 0328 23bb 12e5 023f 5c47 b5bd 7d3f 383e
00000010: 5a92 99be 4e96 2e3e 5b60 073f 6e7e 063e
00000020: bcfd 5dbe 0170 c0be 78f6 f23b 742d 743e
00000030: b555 5cbe a519 d5be 6b17 ae3e c739 d5be
00000040: 859f 343e e193 203e b63b 3e3e 1143 e83e
00000050: dcaf 3d3b 9c30 a23e 8e24 35be 8b37 c73e
00000060: 8b5f 813d 7fd2 66be 15e0 d6bd 3e5e b2bd
00000070: 2d4b 213e a9fa 243e 13ba 2bbe 7fdf 8c3e
00000080: 3f05 083f aa16 153e a0b8 58bd b208 e1bd
00000090: e423 773e fdfc b6be 0c39 dabe 9de8 113f
000000a0: 46e7 103e 2661 c9bd ce7e 9c3e 6b5b 39be
000000b0: f760 9abd 511c abbe 44dc 4bbd 64f4 403a
000000c0: c98c eb3d f637 273e 153c 05bd 1c99 673e
000000d0: 34f0 b33e 5db9 4fbe ce64 99be a943 79bd
000000e0: fb77 b1be 0585 3a3d 9f65 83bd faef 423e
000000f0: bd23 553e ef13 153f 8606 f7bd 6f63 97bd
00000100: a218 3cbe 9152 8fbe b48d 273d d079 afbb
00000110: 6eb8 16bf bb6a 86be c90c 36bd 55af e43e
00000120: 2417 0fbf a229 cfbd 99d1 653e 156c ba3d
00000130: cd6c 1c3e 7701 77bc a9b2 d3bd cbe2 133e
00000140: a469 433e a4bd 6abe 05a8 5dbd c4a5 623e
00000150: 3cde 08be 5bc6 cbbe 8ef3 9b3d 29d2 16bf
00000160: 9b21 84be 5d2e 9fbd e382 d0bd 3d1b bebe
00000170: df0a 463e cc44 a2bc 6e67 8bbc 7b7e c7bb
00000180: 3a47 87ba 328c cabd c8b0 b43e 422c 87be
00000190: 3584 043f b0b9 e2be d636 d83d e2b5 1fbe
000001a0: 4b12 613e 5d45 22be d762 aebe d3a1 883d
000001b0: e8e1 60be 7a4c 29bd 6b93 ef3d a3c4 af3d
000001c0: c228 a13e b465 f8bd 4951 ab3e f45b 8c3e
000001d0: 633c 803e f1d6 2b3e 14dd 883d 9a0f 0a3d
000001e0: fe02 3e3e 3652 353e 6ea2 fcbc 011c 9d3e
000001f0: a6e2 e0bd 8f5d 523e d6b6 3b3e 0f8d c13d
00000200: f1cf ebbd aeb8 273d b394 cc3e 791e 22bd
00000210: 74ca 0e3f c234 703e 2064 2e3e b29a 343e
00000220: abb8 e8bd e620 09be 5110 5abd fb51 65be
00000230: a8bf 553d ac2c 293e 823e ac3e d88d 033e
00000240: 9533 e0be 118e 3fbe 338e 473d c315 2d3e
00000250: c5ec 16be 877b 43be 2c70 b13e 1739 eabd
00000260: 3080 f1bd 7588 90be 4614 a9be f890 5cbe
00000270: 3e7c a3be bc78 f7be 3635 073e c746 40bc
00000280: 67c4 8a3d c3d1 9fbe e2da b93d ec0f b1bd
00000290: 4dc8 9cbe 718f bfbe e852 83be b588 143d
000002a0: 4c5b 27be 9239 bd3e cfd1 303e ead4 8abe
000002b0: 1c9d 8d3e 3a1b 04be e1b9 02be 90ed 2e3e
000002c0: 8ce5 89be 4a8e 4c3e ef5c 6abe 8f94 03be
000002d0: 7ad1 0dbe bacf f73d 27dc 523e 624b 753c
000002e0: 795f 72bb 3227 643e cd5f bcbe d318 5e3e
000002f0: 3963 9c3e 478c d1be 31ad 93bb 7ad2 00be
00000300: 5c39 b8bd 0dc9 71bd a7cc d93e ffef 8e3e
00000310: 4e7f 00bf 9f7e 2e3f a8d8 bdbd 7a4e 67be
00000320: bcfb 283e ae29 8a3e 2122 983e 4499 d53e
00000330: fc04 03be 3f2b 713e a62d 363e 5aee 02be
00000340: 2cc9 18be 233d 44be a03d 823e c5e1 8d3e
00000350: 7369 0ebe 00e0 cebe e64d 863e 1252 063e
00000360: cb38 8abc 302e 053f 3550 223f 7966 8cbd
00000370: dcce 03be 1214 ac3e 55e7 a73e f3bb a53e
00000380: 040a bbbb 3fd5 0fbf fd6d 38bd 162e acbd
00000390: efe3 ccbd 11e3 6f3e e399 59be 1db9 bd3e
000003a0: 97a4 353e af2d 043f 8e05 2bbd d3b1 5b3e
000003b0: d9dd 79be 990e 103e ca64 8bbe c47c c0be
000003c0: 9ac6 2e3d 57d8 8ebe 853b 3d3b 8c72 903d
000003d0: 9e8b b0be b798 08bd 8ec9 033e 2ca3 bb3d
000003e0: e618 d83d 045f 25be 36b9 e03d e8cd d7bd
000003f0: 8a66 123f 5cc5 d9be 5138 d03e 308c b53e
-0.0024895675 0.51130784 -0.08851501 0.17992969 -0.2999447 0.17049524 0.528814 0.13134167
-0.21678823 -0.37585452 0.0074146353 0.23845464 -0.2151707 -0.41621128 0.34002241 -0.41645643
0.17638977 0.15681411 0.18577465 0.45363668 0.0028943932 0.3167771 -0.17689726 0.38909563
0.063170515 -0.22541235 -0.10491959 -0.087093815 0.15751334 0.16111244 -0.167702 0.27514264
0.53133005 0.14559427 -0.052910447 -0.109879866 0.24134785 -0.3573989 -0.42621648 0.56995565
0.14150724 -0.09832983 0.30565494 -0.1810128 -0.07538026 -0.3342004 -0.04977061 0.0007360636
0.11501462 0.16329941 -0.032528 0.22617 0.35144198 -0.20285554 -0.2995972 -0.06085554
-0.3466185 0.045537014 -0.06415867 0.19036856 0.20814414 0.5823354 -0.12061791 -0.07392012
-0.18368772 -0.2799268 0.040906623 -0.0053550974 -0.5887517 -0.26253304 -0.044445787 0.44665018
-0.55894685 -0.10115363 0.22443236 0.09102646 0.15275879 -0.015076033 -0.10336811 0.14441983
0.19083267 -0.22923905 -0.054115314 0.22133547 -0.13366026 -0.3979977 0.07614814 -0.5891443
-0.2580689 -0.07772515 -0.10181215 -0.37130156 0.19340084 -0.019808196 -0.017017093 -0.0060880757
-0.001032091 -0.098900214 0.35291123 -0.26400954 0.5176423 -0.44282293 0.10557334 -0.15596727
0.21979634 -0.15846772 -0.34059784 0.066714905 -0.21961176 -0.0413327 0.116980396 0.08582427
0.31476408 -0.12128773 0.33460453 0.27413905 0.2504607 0.16781212 0.06682792 0.033706285
0.18555829 0.17707142 -0.030839171 0.30685428 -0.1098073 0.20543502 0.18331465 0.09450733
-0.11514271 0.04094761 0.39957199 -0.039579842 0.5577767 0.23457626 0.17030382 0.17637137
-0.113633476 -0.13391456 -0.053238217 -0.22394554 0.05218473 0.16520947 0.3364144 0.12847078
-0.43789354 -0.18706538 0.048719596 0.16902833 -0.14738758 -0.1909009 0.34655893 -0.1143667
-0.11792028 -0.28229108 -0.3302328 -0.21539676 -0.31930727 -0.483343 0.13203892 -0.011735625
0.06775742 -0.31214723 0.09074952 -0.08645615 -0.30621567 -0.37414125 -0.2564919 0.036263186
-0.1634342 0.36957985 0.17267536 -0.27115566 0.27658927 -0.12901011 -0.1276622 0.1708281
-0.26932943 0.19976154 -0.22887014 -0.1284964 -0.1384944 0.121001676 0.20591794 0.014971586
-0.0036983176 0.22280577 -0.3679184 0.21689157 0.3054445 -0.40927336 -0.00450673 -0.1258029
-0.089953154 -0.059029628 0.4253895 0.27917477 -0.5019425 0.6816196 -0.092698395 -0.2258853
0.16502279 0.26984924 0.29713538 0.41718495 -0.1279487 0.23551653 0.17790851 -0.12786236
-0.14920491 -0.19163947 0.2543764 0.2771131 -0.13907413 -0.40405273 0.26231307 0.13117245
-0.016872784 0.520236 0.63403636 -0.068554826 -0.1287188 0.33609062 0.3279368 0.32369956
-0.005707981 -0.5618476 -0.045026768 -0.08407228 -0.100044124 0.23426463 -0.2125011 0.37055293
0.17738567 0.5163221 -0.041753344 0.21454553 -0.24401034 0.14068069 -0.27225333 -0.3759519
0.04266987 -0.2789943 0.0028874588 0.07053098 -0.3448152 -0.033348765 0.12869856 0.09161982
0.10551624 -0.16149527 0.10972826 -0.105373204 0.5718771 -0.42533386 0.40667966 0.35458517

bias f4 [24]
00000000: 0139 3cbe 0a67 3b3e b862 6f3e 4011 413e
00000010: bda1 91be df47 1dbe 927d 943e 3051 973e
00000020: 2d99 44bd 8761 903e 8f5f 10bd c6ed 4fbd
00000030: fea9 1dbe 0c17 3abe ced2 00be 2b79 f1bc
00000040: 8192 e13c 74eb 29be 4ff7 a53d 04c9 5bbe
00000050: ade3 053d c46e 94ba 4e6f 3a3e 8159 63be
-0.1838112 0.18301025 0.23377502 0.18854237 -0.2844371 -0.15359448 0.29002053 0.2955413
-0.047997642 0.28199407 -0.03524738 -0.050763868 -0.15396878 -0.18172854 -0.12580416 -0.029476723
0.027535679 -0.16593724 0.08103811 -0.214634 0.03268783 -0.0011324515 0.18206522 -0.22202112

weight f4 [24]
00000000: 123f 943f 9180 5e3f 6e0c 753f cd1e 8e3f
00000010: 72e6 3a3f faab 863f 293a 7c3f b30e 7c3f
00000020: facf 593f d4ba 703f a92c 793f 1129 ae3f
00000030: 66de 3c3f a77a 443f 5c53 6f3f 2d27 703f
00000040: 9b8d 4a3f 22c5 7b3f 7e8e 553f 4cc8 8a3f
00000050: 8b32 713f 190c 343f d3ed 403f db8d 443f
1.1581748 0.86914927 0.9572209 1.110315 0.7300788 1.0521233 0.98526245 0.9845993
0.8508297 0.9403508 0.9733377 1.3606282 0.73776853 0.7674965 0.9348657 0.9380978
0.7912232 0.98347676 0.8342055 1.0842376 0.9421775 0.7033096 0.7536289 0.76778954

bias f4 [24]
00000000: 1376 8bbd 8b11 673e e604 f6bd 7228 bf3d
00000010: d8cd 4d3b 4208 3ebd 953e 743b 0b64 bb3e
00000020: 0bea a3be 48f1 2f3e 7a0c b7bd ec6e 76be
00000030: 57e7 b43d 08ba 7cbe c508 c7bd 75e2 b63c
00000040: 9cae f6bc 77b7 70be bc3c 44be 2818 91bd
00000050: a074 5bbe 89ab 1b3e 5e5c 0e3d 8a24 44bd
-0.0680963 0.22565286 -0.12012653 0.09333886 0.003140321 -0.046394594 0.0037268747 0.36599764
-0.32014498 0.17181885 -0.089379266 -0.24065751 0.08833187 -0.2468034 -0.097184695 0.02232478
-0.030112557 -0.23507486 -0.19163793 -0.070846856 -0.21431208 0.15202154 0.034756057 -0.04788641

weight f4 [12, 24]
00000000: e9fe 51be 5270 c93c d86c 753c 6ce0 273e
00000010: 324a 563e 63e0 7ebe a51c 8bbe 8e23 e43d
00000020: f3cb 6abe 0e3b 6f3e 15db ae3d cef1 ae3d
00000030: defe d6bd 8cd8 a43e 1988 9fbd f7d2 01be
00000040: adb1 bc3d 2a6b e9bb 1231 c23d 9524 3dbe
00000050: 2598 27be 0ac3 9abd bd88 933e 8938 afbc
00000060: 2fc7 883e bd2c 7f3c 4b5d 453d b88e 46bc
00000070: 0fa6 a03d f254 ca3c cfec 333f d926 62be
00000080: 7552 603e 768e ecbe 016f 9c3c cde4 e8bd
00000090: 3b8d e53d 8c40 58be 603d e5bd 334a 8ebe
000000a0: aaed 10be 6575 f73e f41b 51be b446 96be
000000b0: 14f4 fd3e 9b44 05be 8529 583d 1dea 773d
000000c0: ae78 06bf 1f17 853d 8058 f53e f1cb 8dbd
000000d0: 1452 56be d749 933c 96c6 383e 1584 6ebe
000000e0: 9976 0c3c 4219 9a3d a1a5 103d b837 d33e
000000f0: a1f3 0ebe 1b80 2c3e e04a e63c 113e da3d
00000100: 3afd 95be a118 d9bc 6f82 05be 9579 293e
00000110: 7467 02bd 17b1 c23d 736d 55be 3bde 3fbd
00000120: 7111 d03e 95da acbe 218f 39be fad4 b1be
00000130: 0d7a 9b3d bfaa 10be 3ae1 e6bd e209 1dbe
00000140: 5eb8 8b3e 491f 96bc bd22 9bbe 80e7 3b3f
00000150: fbaf 9c3e 8239 843e 4558 bdbe c8b5 52bd
00000160: 2c1e babe d8de 0abe 90b8 013e 7b01 383e
00000170: e52f a23e c6f2 b23e b363 a43d c03c f73c
00000180: d72a 483e 0234 dfbe f2da 54be 06d6 b83e
00000190: 18ec 45bc 82a4 663d d14b 32be c537 30be
000001a0: 55b7 343e e7f1 52bd df9e de3e 5468 083d
000001b0: 8aef 2abe 3f68 2abb 9827 8f3e dc28 033e
000001c0: 1efb 68be 391e 27be d7e2 943d 68ad d73d
000001d0: f834 823d 5234 1c3e 82af 833e 2bad a03e
000001e0: 32b8 18be a3c3 313d 7761 663d c8fb 3ebe
000001f0: 0c45 5b3e 040b 1d3f 76ba 99be 897a d8bd
00000200: cbe9 eebd 415a 3a3e 0977 0ebe 2310 fb3e
00000210: 4c5b b33d 56e6 53be e69e 5f3e 6f7b ee3e
00000220: 440f 91be f3f1 4bbe 1c25 5d3e 9872 46be
00000230: 85d0 9dbe b840 853d 8f11 943e 8fd5 92be
00000240: be04 103e 2fde 0f3e bdd7 66be 4e8f cabe
00000250: 9755 8d3e 8f0c 763e 8126 a7be f2fd c8bd
00000260: 63d7 e9bc 2cb9 9e3e c1b8 efbd 22d1 013f
00000270: 8fe0 9d3e 2a7f 9c3b 6e7e 9f3e 15d8 ee3d
00000280: 4b8a 6d3e 5002 93be d7ad fcbd dbf8 8c3e
00000290: 6c20 c4be 1366 0dbe 9950 30bd be5a df3d
000002a0: 8c13 c0be 9073 02be 0e22 a23c 9508 193d
000002b0: 998b 59be 4269 c23d 7886 ea3d 9e9e b83d
000002c0: 4c21 153e 9dd6 9d3e 1c64 383e 9c2e 01be
000002d0: 505c 843e d4f5 203c 54b8 633e 79b9 8dbd
000002e0: 02e7 0c3e 956e 243e d7af 9c3e af1e f2be
000002f0: 742d 02be bd28 9cbe f08d 4dbe 3a34 e2bc
00000300: 0de6 e83d dd6f 05be 89fd 863e ab9c 53be
00000310: 5d5e 143e 7134 af3d 913c 163e 6118 82bc
00000320: 3cdd ab3e 0651 64be 7822 b7be 742c 863d
00000330: 0780 f9bd 55c7 593e 6433 91be fc81 7bbe
00000340: 6326 33bd 527e 02be e902 c0be 45e2 eb3e
00000350: a999 5d3e b1bb 8d3d b349 133e 89f8 203e
00000360: cf00 273d 6998 e33e 22d3 60be 2f92 29bf
00000370: d1f5 bc3d 5729 743e 2d35 263e 4a27 d5be
00000380: fbfd f43d 992b 4dbe 56ae ca3d 3374 91bd
00000390: d8e5 35be 052e 9cbb b9fc 903e 0354 513e
000003a0: 8c04 71be dca3 983e c176 05bd 2b3d 073e
000003b0: f2ab a3bd 2dae 56be e0f6 e5bb 5ca1 013e
000003c0: 9eb4 7e3e 8c39 7ebe d0bc 83bd bf00 f1bd
000003d0: 27ee a23d 0429 0e3d 9344 01bd 78bf 09bf
000003e0: 8934 afbd f844 393e 9039 5d3e 10bd db3e
000003f0: c524 583d 0fa3 983d f2e2 5dbe 2648 1b3e
-0.20507397 0.024589691 0.014979564 0.16394204 0.20926741 -0.24890284 -0.27170292 0.11139594
-0.22929363 0.23362371 0.0853788 0.08542214 -0.10497831 0.32196462 -0.077896304 -0.12678133
0.092135765 -0.0071233707 0.09482016 -0.18470986 -0.16366632 -0.07556732 0.2881526 -0.021389263
0.26714465 0.015574631 0.048184674 -0.012118988 0.07844173 0.024698708 0.70283216 -0.22085132
0.21906455 -0.4620244 0.0190959 -0.11371765 0.11208578 -0.21118373 -0.11193347 -0.27790985
-0.14153162 0.48331752 -0.2042082 -0.29350817 0.4960028 -0.13014452 0.05277397 0.060526002
-0.5252789 0.064985506 0.47919083 -0.06923664 -0.20929748 0.017979546 0.18044505 -0.23292573
0.008573198 0.07524349 0.035314206 0.41253448 -0.13960125 0.16845743 0.028111875 0.106563695
-0.2929476 -0.026501002 -0.13038038 0.16550286 -0.03183694 0.095064335 -0.20842533 -0.046842795
0.40638307 -0.33760515 -0.18121006 -0.347328 0.07591639 -0.14127634 -0.11273427 -0.15335801
0.27289099 -0.018325465 -0.3029994 0.73400116 0.30603012 0.25825125 -0.36981407 -0.05144289
-0.36351144 -0.1356157 0.12668061 0.17969315 0.31677166 0.34950846 0.080268286 0.030180335
0.19547592 -0.43594366 -0.20786646 0.36100787 -0.012080215 0.05630923 -0.17411734 -0.17208774
0.1764806 -0.051500227 0.43480584 0.03330262 -0.1669294 -0.0026002077 0.27959895 0.12808555
-0.22752044 -0.16320123 0.07269829 0.105311215 0.06357759 0.15254334 0.2571984 0.31382117
-0.14914015 0.043399464 0.056245293 -0.18650734 0.21413058 0.61344934 -0.3002507 -0.10570247
-0.11665686 0.18198492 -0.13912596 0.4903575 0.08757648 -0.20693335 0.21837959 0.46578547
-0.2833196 -0.19916515 0.21596187 -0.19379652 -0.3082315 0.06506485 0.28919646 -0.28678557
0.14064309 0.140496 -0.22543235 -0.39562458 0.27604362 0.24028228 -0.32646564 -0.09814061
-0.028545087 0.3100065 -0.11705161 0.50709736 0.30835387 0.0047759013 0.31151146 0.11662308
0.23197286 -0.28712702 -0.12337845 0.27533612 -0.38305986 -0.1380847 -0.043045614 0.109059796
-0.37514913 -0.12739396 0.01979163 0.0373617 -0.21244659 0.094927326 0.11451429 0.09014629
0.14563483 0.308278 0.18006939 -0.12615436 0.2585168 0.009824235 0.22238284 -0.06920142
0.13759997 0.16057809 0.30602905 -0.47289035 -0.12712651 -0.3049983 -0.20073676 -0.027612794
0.11372004 -0.13030954 0.26365307 -0.20665233 0.14489122 0.08554924 0.14671542 -0.015880765
0.33567226 -0.22296533 -0.35768485 0.065514475 -0.121826224 0.21267445 -0.2835952 -0.24561304
-0.04373778 -0.127435 -0.3750222 0.46071067 0.21640648 0.06920565 0.14383583 0.15719809
0.040772256 0.44452217 -0.21955541 -0.66238683 0.09226573 0.23843895 0.16231222 -0.41631538
0.119625054 -0.20036162 0.09896533 -0.07102241 -0.1776346 -0.004766228 0.28317812 0.20442204
-0.23536891 0.29812515 -0.032583956 0.13206927 -0.0799178 -0.2096488 -0.007017955 0.1265921
0.24873587 -0.2482664 -0.064324975 -0.117677204 0.0795558 0.034707084 -0.031559538 -0.53807783
-0.08554942 0.18092716 0.2160399 0.4291768 0.05276944 0.07452976 -0.21668604 0.15164241

bias f4 [12]
00000000: aa30 acbc 4234 f1be 89b4 1ebe 4cd6 883a
00000010: c3cd 95be c687 38bd 76c4 f3be 75aa c5bd
00000020: 453c 94be b235 59be 04b8 4abe d68c 25bc
-0.021019299 -0.47110182 -0.15498556 0.0010439842 -0.29258546 -0.04505136 -0.47610825 -0.09651653
-0.28952232 -0.2121189 -0.19796759 -0.010104379

weight f4 [24, 12]
00000000: 2a82 4dbe 3308 113d 6711 86be 2e53 293d
00000010: b3fb 573e a0c0 2bbe 352a 993d c292 0cbe
00000020: db46 433e 9800 3b3e 45f1 9c3d ee84 8d3e
00000030: 1130 c23e e105 653e 268c ddbe f2cb 073f
00000040: c3e9 63be 8588 10be ab55 09be c5fb 75bd
00000050: ef2c 39be e2d4 a53e c6e9 e03d 87ff 77bd
00000060: 871f 91bc f65b 293e bb3e 1cbe d1b3 6fbd
00000070: d1a6 c8bd d53b 65bd b3a3 263e 0063 0e3e
00000080: 90db c3be ad81 85bd a67f 3bbe 2258 4d3e
00000090: 5be3 07be bf89 10be 2b33 203e 0380 253d
000000a0: c0bc 6d3e 8f5e 7bbd 7b32 0d3e e6ae bc3e
000000b0: 3085 eb3e a087 2a3e 3949 bfbb 4a66 4ebc
000000c0: 5e02 0fbe 87a9 de3c e9e1 87be 5d5f 913b
000000d0: 07d4 c0be bb03 9d3e 41b3 bfbe 65f6 473e
000000e0: 63a9 c43e a2f3 f4bd f4ea 8dbe 5ace 763d
000000f0: a2d7 283e 7ee1 cb3e 32eb b93e 5089 143c
00000100: 5505 efbd 5e65 bc3e f64d de3e a092 893e
00000110: fc83 a7be 8413 fe3e dcf2 1d3e a410 083c
00000120: 3676 883e ed40 9cbe 8a44 babd 1856 eabe
00000130: e53d 1dbd a498 8b3e 40a1 a43e 8f43 78bd
00000140: d5b6 31bd d86c 393e fb8d 103e de0d c23e
00000150: fbb4 10be d17c d9be 0182 cc3d 46ee b03e
00000160: 7b2e 3c3e 85c4 fdbe e324 a2be e1c6 2dbc
00000170: 80c4 51be 4cbf 663e d442 03bf 5bcd 443e
00000180: 4707 163d 46bd 4bbe 07c7 a2bb ac4b e8be
00000190: 4e56 5a3e bfcf 943e 3ac3 03bf 3b2e 1e3e
000001a0: 1e46 3ebe 47b1 00be a6f0 5ebe 307e bfbd
000001b0: 240f a93e b5ce 703d 725b 41be 0131 c8be
000001c0: de49 893e 757b 4e3e 889b 773c 3aa2 793e
000001d0: 07ad d03d d0e8 ecbd 40c5 0f3e b0b0 853d
000001e0: b9a4 50bd 1f1e 0bbc 1a18 1bbe 0fce 143e
000001f0: 059d 2f3e 0485 893e 10c1 b43e 85a4 6f3d
00000200: b8cc a83e 9232 9fbe e793 58bd e8fb 923d
00000210: 261b 913e 7bb0 a93e a1aa 213e b536 2fbe
00000220: 00f9 06bf 1ec6 6c3e e421 03bf ddf4 39bd
00000230: 7d5c 02bf a308 963e d373 22be 7741 263e
00000240: 3c2e cabd 1c50 513e 9bad 553e 1916 68be
00000250: 6c02 e9bc 10ed 653d 9729 873e 8791 363e
00000260: 78e7 2a3e 5397 cfbd 9b4d 66be 563e c6be
00000270: 6792 433c 7725 603e b46a e1bd 09b7 d33e
00000280: 4e95 633e e333 4ebe a840 8ebc 05b4 e13e
00000290: 4b42 3bbc 3aac 623e 6414 9d3e 7bf9 833e
000002a0: b1e2 2ebe df2b d2be 6908 7a3e e412 1d3e
000002b0: 82a1 413e b613 0cbd 6ca5 2bbe 69ac 5bbe
000002c0: a1bb b5bd dd85 21be af78 32bc 9b36 7d3e
000002d0: b4b5 fa3d 9bb6 9abc 9c70 933e 2e39 86be
000002e0: 74d3 fdbd a1ac 03bd 82b0 713d 1359 9c3d
000002f0: 3058 8a3e df7a 0bbe 9df0 aa3a 0e01 edbd
00000300: 6360 a0be d494 373f 2dc7 c03d 610e 82be
00000310: f47a debe f5b3 983e 39e0 a73a bc1c 02bf
00000320: ed1f 1ebe fa3b 023e 5a22 9d3d fa78 3dbe
00000330: 408d 503d 4e96 cdbe 3b65 93bd 75da b93e
00000340: 0d65 2abe 573f a5be 7d00 b3bc e8f2 b63d
00000350: 0159 f1be 4cbe 943e e974 c03e afbe 83be
00000360: 583c b5bd f6cb 81be cdd2 d53e fc8b c7be
00000370: 922f 8ebe b177 623d dc26 263e e72c dfbe
00000380: 5d8c 8b3e 8042 bd3e c3d1 2e3e 7fed a43c
00000390: 6be6 a03e f8bc cabb f81b 2dbe 26e0 fa3e
000003a0: 360e e9bd ba71 f1be 06d2 44be 6f1a f4bd
000003b0: 315b 08bf d451 9cbd 60be 6a3e 14b2 9cbe
000003c0: 795d 86be 1ee6 8abd ab23 3cbe 69af bb3d
000003d0: 40e6 e8be c78e 7ebe 0c6e b5bd 7ab6 6c3d
000003e0: 4217 1abe e0f8 aa3b 22c5 93be cc99 edbe
000003f0: 0ecb 823d fa0c e53d 98d3 17bd c2f5 97bd
-0.20069185 0.03540821 -0.26185152 0.041339092 0.2109211 -0.167727 0.074787535 -0.13727859
0.19069998 0.18261945 0.07663206 0.2764048 0.37927297 0.22365524 -0.43270987 0.5304557
-0.22257142 -0.14114578 -0.13411586 -0.06005456 -0.18083547 0.3238898 0.10982089 -0.060546424
-0.017715229 0.16538987 -0.15258305 -0.058521096 -0.09797443 -0.055965263 0.16273384 0.13904953
-0.3825345 -0.06518874 -0.18310413 0.20053151 -0.13270323 -0.14115046 0.15644519 0.040405285
0.23216534 -0.061369475 0.13788788 0.36852187 0.46000051 0.166533 -0.0058375862 -0.01259763
-0.13965747 0.027180446 -0.26539543 0.004436417 -0.37661764 0.3066691 -0.37441447 0.19527586
0.38410482 -0.11960532 -0.27718318 0.060255386 0.16488507 0.39820474 0.36312252 0.009065941
-0.11670939 0.36796087 0.43418854 0.26869678 -0.32717884 0.49624264 0.15424675 0.008304749
0.26652688 -0.30518284 -0.09095104 -0.4576881 -0.038389105 0.27264893 0.32154274 -0.060611304
-0.043387253 0.18107927 0.14116661 0.37901205 -0.14131539 -0.4247804 0.09985734 0.34556788
0.18377106 -0.49563995 -0.31668767 -0.010606498 -0.20485115 0.22533911 -0.51273847 0.19218962
0.036628034 -0.19896421 -0.0049675736 -0.45370233 0.21321985 0.29064748 -0.5146977 0.15447323
-0.18581435 -0.12567626 -0.21771488 -0.0935024 0.33019364 0.05879088 -0.1888254 -0.39099887
0.2681417 0.20164283 0.015112765 0.24378291 0.10189252 -0.11567843 0.14040089 0.06527841
-0.05093834 -0.008491068 -0.15145913 0.1453173 0.17149742 0.26859295 0.35303545 0.058506507
0.32968688 -0.3109327 -0.052875426 0.071769536 0.28341025 0.33142456 0.15787746 -0.17110713
-0.52723694 0.2312245 -0.5122359 -0.045399535 -0.50922376 0.29303464 -0.15864496 0.1623591
-0.098721 0.20440716 0.20867006 -0.2266468 -0.028443538 0.056134284 0.26398918 0.17828952
0.16689861 -0.10136285 -0.22490542 -0.38719434 0.0119367605 0.21889292 -0.1100668 0.41350582
0.22224924 -0.2013698 -0.017364815 0.44082657 -0.01142938 0.22136012 0.3067962 0.25776276
-0.17078663 -0.41049096 0.2441727 0.15339237 0.18909267 -0.034198485 -0.16762322 -0.21452488
-0.08873678 -0.15773721 -0.010893031 0.24727862 0.12241688 -0.018885901 0.28796852 -0.262155
-0.12393847 -0.032147054 0.05900622 0.07634177 0.27020407 -0.1362109 0.0013041679 -0.11572467
-0.31323537 0.7171147 0.0941299 -0.25401595 -0.4345318 0.29824796 0.0012807912 -0.50825095
-0.15441866 0.12718192 0.07672568 -0.1850318 0.050915956 -0.40153736 -0.071970426 0.36299482
-0.1664011 -0.32274887 -0.021850819 0.089330494 -0.47138217 0.29051435 0.37589195 -0.25731418
-0.088494 -0.25350922 0.4176239 -0.38973987 -0.27770668 0.055289928 0.16225761 -0.43588945
0.27255526 0.36964798 0.17072205 0.020132778 0.31425795 -0.0061870776 -0.169052 0.48999137
-0.11379664 -0.4715708 -0.19220743 -0.11919104 -0.5326415 -0.07632795 0.22924185 -0.30604613
-0.2624319 -0.067821726 -0.18372981 0.09164316 -0.45488167 -0.24859153 -0.088588804 0.05779121
-0.15047935 0.0052176565 -0.28861338 -0.464064 0.06386386 0.11184116 -0.037067026 -0.074199215

bias f4 [24]
00000000: e131 70be b17c 8abe 4a69 403e ef47 51be
00000010: 5b5e 96be 836d acbd d904 33be bb9b e13d
00000020: de26 93bd 9b8d 5e3e ae7f 1d3e 940f 2b3e
00000030: 940c cd3d dfab ba3d 9cd8 e6bd d0bc 8ebd
00000040: 13a8 41be 17e8 14be 4697 e83d 3f2d f33d
00000050: a813 023d 4d63 cb3e 0161 04bd b1d4 733e
-0.23456527 -0.27048257 0.18790165 -0.20437597 -0.29368863 -0.08419325 -0.17482318 0.11016031
-0.07185148 0.21733706 0.15380737 0.16705161 0.10012165 0.09114813 -0.11271784 -0.06969607
-0.18911771 -0.1454166 0.11356978 0.118738644 0.031757027 0.39724198 -0.032319073 0.23811604

weight f4 [24]
00000000: 2194 7b3f c34f 8a3f 9291 5b3f 988f 8c3f
00000010: 4b45 823f 6f0c 763f af15 8b3f c5a2 9f3f
00000020: e0ba 813f 206c 643f 5077 843f eefa 573f
00000030: add8 7b3f 9dcd 5b3f 9a5b 693f 53eb 6e3f
00000040: 5b92 5b3f 30c2 9c3f 3e61 7b3f c249 4b3f
00000050: f764 933f cc2d 7a3f e9f9 573f 7d45 993f
0.982729 1.0805591 0.85769 1.0981321 1.0177397 0.9611272 1.0865992 1.2471548
1.0135155 0.89227486 1.0348911 0.84367263 0.98377496 0.85860616 0.911554 0.93327826
0.85770196 1.2246761 0.98195255 0.7940942 1.1515187 0.9772613 0.8436571 1.1974331

bias f4 [24]
00000000: 8432 003e ee65 7e3b c72e 3cbd f882 303d
00000010: f407 c13e c835 f5bd b302 433e 640b 20be
00000020: 1eeb 23be d212 ccbd 8032 3a3e 2db6 86bd
00000030: fc05 a63d fb43 0ebc ec03 8b3c 3e55 a83d
00000040: 2b83 863c 1795 1fbe ac86 26be d391 9fbd
00000050: 6652 d5bd 49b8 ddbc 1970 3d3e d738 2a3e
0.1251927 0.003881808 -0.045943048 0.04309365 0.3770138 -0.119731486 0.19043998 -0.15629345
-0.16007659 -0.09964527 0.18183327 -0.06577716 0.0810661 -0.0086832 0.016969644 0.08219384
0.016419968 -0.15584217 -0.1626231 -0.07791486 -0.10416107 -0.027065413 0.18499793 0.16623245

weight f4 [72, 24]
00000000: f902 8f3c c564 a7be 1a8a 53be f461 37be
00000010: 295b 6fbe 4a78 643d 4e4e ed3d d98d ae3e
00000020: ad27 81be 677a 943d dd37 673e 05d0 d63d
00000030: a89b a9bd 3b7a 98be 778c b3be 7662 303e
00000040: 2351 7b3e 2095 abbe b04f 873d 62aa e13e
00000050: da6c ab3e 056c 04bd e2d7 2fbf 1a39 6ebc
00000060: d9a1 773e 4180 f8bd 34c1 3bbe 34c7 86bd
00000070: b1a4 683e 0368 19be 1b7c 04bb 5676 2e3e
00000080: 2d46 00be 21b2 acbe 6f57 7a3e 9c92 2fbe
00000090: 9c83 afbd 1620 bebc 2645 9f3d 8988 363e
000000a0: 1509 153d c36f 4d3e cf8e ba3e 1444 a7be
000000b0: 9b8d 38be e006 fcbb 3d7b 57bd d096 aa3e
000000c0: 21aa 773d eca4 1ebe 24a7 023e 4e16 af3e
000000d0: fd64 5a3e 7f9b 81be 247f c0bd 73ff b3bc
000000e0: fbeb d43d b52f 833d 37fc b0bc be5b 6a3e
000000f0: f923 d1bd 21af f53d 29bc 62be 0a7d 313e
00000100: 6e13 0a3e 8b19 07bd 4a63 143e 21ee 3d3e
00000110: a97f 853d 416d 2fbe 2d7c 04be a090 6b3e
00000120: 07a7 013e 729b 493e 4567 af3d 76ac 133e
00000130: cabb 843e 9fc3 90bd e158 e83b cddc 2cbd
00000140: 260d 923e de54 da3e e26d c6be 7001 d83b
00000150: 1ad9 2f3d f08e c0be c406 a8bd fa69 0cbe
00000160: 8e64 f8bd 3b01 373d f27a 22be 31d1 b03c
00000170: 8511 90be 3cce 023e ce88 7c3e 97c0 ca3e
00000180: d0e3 e73e c91f 6fbd 84e8 5bbd f75d d33e
00000190: af23 c4bd 027a 6abe 94e6 243e 1bd1 15bf
000001a0: ca69 b33e b37d 90be f9ba 793e 3832 943e
000001b0: 41e8 063e e8e7 463e 6515 b03e 58b8 bebd
000001c0: bd41 42bd 0f48 d1bc ec2a 373e 2d52 eb3d
000001d0: 3b57 643e 8979 22bf 7130 4a3e 8e62 99be
000001e0: dd14 a33e 84f6 c63b 5401 80be fa97 3b3e
000001f0: 1542 08be 7fda 20bd 43e6 de3e e745 183e
00000200: b6c1 90be ba23 713e 5367 e23e 5a95 69be
00000210: 44a7 043e 5b56 99be 54db 80be 122d 9cbe
00000220: 69c8 ddbc 8ffb d63d b406 d93e 5d4d 373c
00000230: 6d58 6cbe dce6 aa3e 00f3 c1be 9e6e 273e
00000240: 6d99 a43e faee eebd 3bb0 e8bd 8497 513f
00000250: 1b88 813e bd2f 81be c1e9 debd e51b 2ebd
00000260: 2d0c 423e aa9a 7abe 2f51 82be bb87 7ebe
00000270: 65ae 72be 465e 7b3e dbf9 abbd cded 2fbe
00000280: 4e2e 113e 33a1 88be b0a0 a33d 733c 923e
00000290: 841d debe f7a4 53be 1377 963e 26d7 523e
000002a0: 7b17 03be cfb6 b53e 2050 9bbd 0e40 fd3c
000002b0: ef86 32be 280f c63e b62b fe3c 7efe 0abd
000002c0: 86c7 263e ec68 ca3d ebda f7be 3c24 d73e
000002d0: 860a d53d 9af1 18be 627c 8a3b cf67 5fbe
000002e0: dcdc cfbe 16b4 4bbe 0882 29bd c685 923e
000002f0: d626 13bc 65d9 a4be 26a0 e03e 76ad c2bd
00000300: 3457 ddbe 5a3d 333f edea 7d3e c109 55be
00000310: ab0f 11bd 1b52 cf3d 00f3 293e def4 273b
00000320: 07e3 a03e fc5e 3f3d 0bfc 93be ea2b 3abd
00000330: e490 8f3d a113 8dbe 15b5 c13e 56c5 cb3e
00000340: b154 b1be 980f aebc 53fb c0bc 814b 193e
00000350: 5347 1f3e ab99 b03e c04d 81bd 8f3e 40be
00000360: 2752 2ebe 0695 8e3e 2e54 c33e b937 a8be
00000370: 57c0 8e3e 3875 49be 08c2 24bf 00c6 3c3d
00000380: 829f 2b3e 4b04 d9be 14b9 07bd 6603 5abe
00000390: a621 95be 90d9 663e 8ebd f13e c843 c03e
000003a0: 23ef 653e 7c34 d53c 43af 473e 8d8b 0dbe
000003b0: 3e12 85be 17ab 8fbe b28b ef3e ea8f a4be
000003c0: cb3a 99bd 863a 89bd b0cf ebbe 96d4 00be
000003d0: 42dd 393d 6bdd 963d 9ac0 d03d f2d1 3bbe
000003e0: 79e8 78bd a02e 49bc e9c2 903d dc29 11be
000003f0: c47d b53e bc3e f4bd aca8 4d3e 64f0 883c
0.017457472 -0.3269407 -0.2065815 -0.1790846 -0.23374619 0.05577878 0.11587201 0.34092596
-0.25225583 0.07249909 0.22579904 0.10488895 -0.08281642 -0.29780754 -0.35068104 0.1722506
0.2454267 -0.3351221 0.06606996 0.44075304 0.33481485 -0.032329578 -0.68688786 -0.014539981
0.24182834 -0.121338375 -0.1833542 -0.06580964 0.22719075 -0.14981084 -0.0020215574 0.17037329
-0.1252677 -0.33729652 0.24447416 -0.17145771 -0.08570024 -0.02320866 0.07776861 0.17825522
0.036385614 0.20062165 0.3643708 -0.32669127 -0.18022768 -0.0076912493 -0.052607764 0.33318186
0.060464982 -0.154926 0.12759072 0.34196705 0.21327586 -0.25313947 -0.0939925 -0.021972394
0.10396572 0.06405584 -0.02160464 0.2288656 -0.10211939 0.11996294 -0.2214209 0.17332855
0.13483974 -0.032983344 0.14491001 0.1854787 0.0651849 -0.17131521 -0.12937994 0.23004389
0.12661372 0.19688204 0.08564619 0.14421257 0.25924522 -0.07068562 0.0070906733 -0.04220276
0.28525656 0.42642874 -0.3875571 0.0065919682 0.042931654 -0.37609053 -0.082044154 -0.13712302
-0.12128554 0.044678908 -0.15867212 0.021584125 -0.28138366 0.12773985 0.24661562 0.3960006
0.45290995 -0.058379922 -0.05368854 0.41282627 -0.095771186 -0.22898105 0.16103584 -0.58522195
0.35041648 -0.282209 0.2438773 0.28944564 0.13174535 0.19424403 0.34391323 -0.093125045
-0.047425974 -0.025547056 0.17887467 0.11490283 0.22298901 -0.634667 0.19745041 -0.29958004
0.31851855 0.0060718674 -0.25001013 0.18319693 -0.13306458 -0.039270874 0.4353505 0.14870416
-0.2827279 0.23548785 0.44219455 -0.2281088 0.12954432 -0.29948696 -0.25167334 -0.30503136
-0.027073102 0.104972 0.42387927 0.011187878 -0.23080607 0.33379257 -0.37880707 0.16350791
0.32148305 -0.11666675 -0.11361738 0.8187182 0.25299153 -0.25231734 -0.10884429 -0.04250707
0.18949957 -0.24473062 -0.25452563 -0.24856465 -0.23699339 0.24547681 -0.083972655 -0.17180558
0.1417782 -0.26685485 0.07989633 0.28561744 -0.43381894 -0.20668398 0.2938772 0.20589885
-0.12801926 0.35491034 -0.07583642 0.030914333 -0.17434286 0.38683438 0.031026702 -0.03393411
0.1628705 0.098832935 -0.4840921 0.42019832 0.10402398 -0.14935914 0.0042262534 -0.21816944
-0.4059819 -0.19892916 -0.041383773 0.28617686 -0.008981427 -0.3219711 0.43872184 -0.09505741
-0.43230593 0.7001549 0.24796648 -0.20804502 -0.035415333 0.10123082 0.16596603 0.002562813
0.31423208 0.046721444 -0.2890323 -0.045452036 0.070100576 -0.27554038 0.37833467 0.39798993
-0.34634927 -0.02124767 -0.02355734 0.14970209 0.15554552 0.3449224 -0.06313658 -0.18773864
-0.17023526 0.2784807 0.38150162 -0.32855013 0.2788112 -0.19673622 -0.6435857 0.046087265
0.16760066 -0.42386088 -0.03313549 -0.21290359 -0.29127234 0.22543931 0.4721493 0.37551713
0.22454505 0.026026003 0.19500451 -0.13822766 -0.2599048 -0.2806022 0.46786267 -0.32141048
-0.07481917 -0.067006156 -0.4605689 -0.12581095 0.045377024 0.07366451 0.10192986 -0.18341807
-0.06076858 -0.012279183 0.07068426 -0.14176124 0.35447514 -0.11926028 0.20083874 0.01671619
