Case_Study_1/trained_transformer/verification/vit_12_2_6_32.pt (torch, 35144 bytes, 30 tensors)

pos_embedding f4 [1, 50, 12]
00000000: 56cc 423f e60f a0be 4d8f c43f 2935 21be
00000010: 9767 5f3f 8389 03bf c9d7 a83f 4040 9f3f
00000020: d3fc c53f b786 2cbf 325d 85bf 38d7 a23e
00000030: e73a 1bbd 06e5 42bf 552e 4c3f b434 2abf
00000040: 8c39 763f 1cca b1be 2b61 c13e fa17 83bf
00000050: 85d7 aa3f fee6 4d3f d11b 843e fb83 4fbf
00000060: 80a7 2a3f e878 82be e8f3 b5be 57c5 9b3e
00000070: 5e8a d93f 3b1e 5cbf ede2 0e3f 060d 7fbf
00000080: c72f 2cbf 642a 053e c0fa 09be c121 6f3e
00000090: fce5 e2bf 8da9 0c40 5b11 57bf ecef cfbd
000000a0: 827d e2be cab2 e13e 4a46 0740 2515 a9bf
000000b0: 19ec 193f 93b4 73bf 03d2 fabf ae79 2dbf
000000c0: a7e5 b9bf f777 843f f13f 3bbf c7d5 75bf
000000d0: 744d 81bf 77f1 edbb 7032 733f 2edb c63e
000000e0: 8dd7 823f 21dc 6fbe 2dce a9be 6a7f c4bf
000000f0: 40e9 3fbf cc4b 16bf 7141 8ebe d194 5dbf
00000100: 4ec0 f13e 98ab 493f 3cc8 27bf 27dd dabc
00000110: 2bd1 c23f f6ee 933e 52b1 8fbe 2f91 41bf
00000120: 68c6 babf bece e9be 9ada cdbd 44c1 cebe
00000130: eb6a 323f a392 8c3f dccc aabe c9a5 243f
00000140: eeef b73f 9b97 01c0 34b4 9a3f cbed 9cbf
00000150: a786 913f 7556 bfbf 2b90 9e3e 1a84 0040
00000160: 0eb2 fbbe 4cdf 50bf 789e 7f3f d92e d63f
00000170: d018 11be 4be2 03c0 04c0 c9bd 99ee a7bf
00000180: 324c 8b3e a69c 5d3e eb5d febd 4ae9 363f
00000190: 01df 8ebf ebed 7d3f 183c 84bf f6b8 9cbf
000001a0: a195 cabf c103 a4bf e501 e53d 0592 d03f
000001b0: 64cd 973d 2d31 6bbf ad5e 5a3f 932b 84bf
000001c0: 4804 fc3e 33c9 2ebf c7ee 0abe c4c9 3640
000001d0: 3bd6 ccbd 2217 f6be 1299 473f 49fd 363f
000001e0: 88ec 4c3e cbd8 aabf 2c56 11bf 6d16 433e
000001f0: ac65 15bf 1460 c6bf 5b7b 19bf f482 2b3e
00000200: 2918 dabf cc3d 7cbf ceeb 433f b507 3b3f
00000210: d527 d13d 8843 c1be 1a5e 03bf 8079 9a3f
00000220: 1ee7 8dbf 537e 5bbf e0fc 46bf 3e77 ff3e
00000230: 97ac 17be cf9d d7bf b622 2b3f 9e46 993f
00000240: b6c0 f53f 2ff9 a6bf d3c9 b33e 275c f33f
00000250: 537a bebf ff21 1e3f c25d d33e 45ad cbbd
00000260: 220d 493e 3ea1 5dbf 7c55 133f 40e2 f63e
00000270: bf3a 973d 0e99 6dbf a2f6 fc3e c146 ae3f
00000280: 6e03 fbbf 4124 493f 4e53 c53e 24cc bcbe
00000290: 0342 c73f 942e ac3e f911 993f 8a4c 2ac0
000002a0: c7cb 833f 6a44 81bf 09f9 163f 3077 adbf
000002b0: 311f 5e3f 2aa1 ba3f 9b8a c4bf 262e 67bf
000002c0: 564e 0dbb 5700 693f ee29 fd3f 37e1 09bf
000002d0: 7557 97be ea1b 94bd 03c3 393e 274e 81bf
000002e0: a697 b6bf 2f7d adbf 0fb7 08c0 1673 44bf
000002f0: 982a 64be 28e3 843f 2f86 803f 173c 2e3f
00000300: f15e e53f ad8a 283f 7bde c53f 627c 1240
00000310: 5226 71bf aa47 933f 2f1f f6be d70a c33e
00000320: 81dc d4bf 6b9f 523f 2bf4 bbbf 7c4a abbe
00000330: 7750 19bf 9f4d 533f e5e8 2440 4bf3 813f
00000340: ae92 d53f 6cc6 2c3e 0050 c0bf 0a43 8dbf
00000350: 27b3 543f c94e d1bf 92cd 0a3e afab fabf
00000360: 3935 cb3d 5edc 2bc0 c827 683d 1af5 2d3f
00000370: af74 023f e16e fd3c 461a b3bf ffc0 e73e
00000380: a40a c8be d51a a5bf d351 c2bf 7a7a 0c3f
00000390: f925 1040 c2c7 ab3e 2fe5 1b3e b89b b2bf
000003a0: 9510 193f 68ac 8dbd b071 b33f 479f b53e
000003b0: f6da f73e d749 04be cb6d 04c0 44b2 6bbe
000003c0: a94f c73f fbe1 e9be 30f4 36be 2a2d 953f
000003d0: b0f2 07bf 95fa 14bf 9ef7 913e 4759 a13f
000003e0: 0435 10bf 930d 823d f982 f1bf 8dd4 b93e
000003f0: 2547 8c3f b42d dabe 5301 293d df10 173f
0.7609304 -0.3126213 1.5356232 -0.15742935 0.8726744 -0.513817 1.3190852 1.2441483
1.5467781 -0.6739306 -1.0419066 0.31804824 -0.03789797 -0.7613071 0.797582 -0.6648667
0.9618156 -0.3472451 0.37769446 -1.0241692 1.3347021 0.8043059 0.25802472 -0.8106076
0.66661835 -0.2548287 -0.35537648 0.30423996 1.6995351 -0.8598363 0.5581501 -0.9962925
-0.672604 0.13004452 -0.1347456 0.2335272 -1.7726436 2.1978486 -0.8401086 -0.10153183
-0.4423638 0.44081718 2.113665 -1.3209578 0.6012588 -0.9519741 -1.959534 -0.67763793
-1.4523209 1.034911 -0.7314444 -0.96029323 -1.0101762 -0.007261451 0.94998837 0.38839096
1.0222031 -0.23423816 -0.33165112 -1.5351384 -0.74965286 -0.58709407 -0.27784303 -0.865552
0.4721703 0.78777456 -0.6553991 -0.026716782 1.5220083 0.2889325 -0.28064972 -0.7561216
-1.4591799 -0.45665544 -0.100514606 -0.40381825 0.69694394 1.098225 -0.3335942 0.6431547
1.4370096 -2.0248783 1.2086244 -1.2260069 1.1369218 -1.494826 0.30969366 2.0080628
-0.49159282 -0.81590724 0.9985118 1.6733047 -0.14169621 -2.0606868 -0.09851077 -1.3119689
0.2720657 0.21641788 -0.12420257 0.7144972 -1.1161805 0.9919116 -1.0330839 -1.2243946
-1.5826913 -1.2813646 0.11182002 1.6294562 0.07412222 -0.9187191 0.85300714 -1.0325798
0.49222016 -0.68275756 -0.13567649 2.8560648 -0.10001799 -0.48064524 0.7796794 0.7148023
0.20012105 -1.334741 -0.5677211 0.19051524 -0.58358264 -1.5498071 -0.5995385 0.16749173
-1.7038623 -0.98531795 0.76531684 0.73058635 0.102126755 -0.37746835 -0.5131546 1.2068329
-1.1086156 -0.8573963 -0.77729607 0.49895662 -0.14811932 -1.6845034 0.6684984 1.1974676
1.9199436 -1.3044795 0.35114917 1.9012498 -1.488108 0.61770624 0.4128247 -0.09945158
0.19633916 -0.8657416 0.57552314 0.4821949 0.07384252 -0.9281167 0.49406916 1.3615342
-1.9610422 0.78570944 0.3854012 -0.36874497 1.556702 0.33629286 1.195861 -2.6609216
1.0296563 -1.0099003 0.5897375 -1.3551998 0.86766344 1.4580433 -1.5354799 -0.9030479
-0.0021561584 0.91016144 1.9778421 -0.53859276 -0.29558912 -0.07231887 0.18140797 -1.0101975
-1.426503 -1.3553828 -2.136173 -0.7673811 -0.22281873 1.0381823 1.004095 0.6806044
1.7919599 0.658366 1.5458521 2.2888417 -0.941991 1.1506245 -0.48070666 0.38094208
-1.6629792 0.822745 -1.4683889 -0.33455265 -0.59888405 0.82540315 2.5767148 1.0152372
1.6685388 0.16872567 -1.5024414 -1.1036084 0.83085865 -1.6352168 0.13554981 -1.9583644
0.09922261 -2.6853251 0.056678563 0.6795212 0.50959295 0.03093666 -1.3992393 0.45264432
-0.39070618 -1.2898813 -1.5181221 0.54874384 2.2523177 0.3355084 0.15224145 -1.3953772
0.5979093 -0.069176495 1.401907 0.3547308 0.4840924 -0.12918793 -2.0692012 -0.23017222
1.5571185 -0.45680222 -0.17866588 1.1654408 -0.53104687 -0.5819486 0.2850923 1.260537
-0.56330895 0.06350245 -1.8868095 0.36294976 1.0959212 -0.42612994 0.04126103 0.5901012

cls_token f4 [1, 1, 12]
00000000: c77c 12be 0faa 0dbf 9bc7 78bf 8cc9 55bd
00000010: 8b57 c53f 36d8 ac3f af8d 0c3e 6254 51bf
00000020: c67f d33f 4532 f23b ed14 21be 222e 983f
-0.14305411 -0.55337614 -0.97179574 -0.052194163 1.5417341 1.3503482 0.13725923 -0.8176938
1.6523368 0.0073912465 -0.15730639 1.1889079

weight f4 [12, 16]
00000000: c094 c4bc dc5f 1dbc e07b 76bd f212 e3bd
00000010: a43a 713d 179c 74bc ebe1 23bd 62da c8be
00000020: d70b 8dbd d43c f3bd 4011 84bd d4f3 9fbe
00000030: d6f3 80bd 741b 81be 8e1e bbbd c145 4fbe
00000040: 2513 ebbd f637 6bbe 758c 2dbd d969 66be
00000050: 50c6 273e 3464 b0bb 184a 4a3e 952e 7ebe
00000060: 9bfb 0f3e 620f e93d b2f5 6ebe ed2a 00be
00000070: 8ed2 c2be 1c6c 82be 4dd5 543d 14d0 77bd
00000080: 6462 b1bc f2a3 c2be 5143 e5be 37b7 adbe
00000090: f414 51bd 6442 68be f86c 84be 8afb dabe
000000a0: 60fc 0abd 799c 4fbe e9bc e0bc 0566 55be
000000b0: 4e2d 203d 64dc 81bd a1e2 9bbd aa98 42be
000000c0: dbd5 823e be0d 9d3c 7b2d 803d c82d 9b3e
000000d0: 864a 163d c57a 623d c3c5 9dbd 2695 5d3e
000000e0: b8e7 4bbe d895 c43b 2b8b 95be ca3f 6c3e
000000f0: 05e7 8fbd 74ea 453d 6508 193e 8ab5 fe3e
00000100: 046e ef3e a4e0 cd3e 20c0 e53e 74f9 343f
00000110: 3574 a73d 5849 20bd 041f f73d f36d a03d
00000120: 11a8 a3bd 5c51 54be fe55 0ebe 1677 8dbe
00000130: 53d3 57be dfca 99be 310b b1be 1e32 41bf
00000140: 5aee 8dbc 9a9a 1c3e e89c 763e 6671 ffbc
00000150: bdd2 c3be e1d2 56bd 6fd5 cd3d 0e0e f6bc
00000160: 9085 52be 4f67 fabc f125 893d 47ea 0a3e
00000170: 5dfa 26be 2376 b13e 5ec5 3b3e 6195 a03e
00000180: ab78 cf3e 2b42 4b3e d694 363e c403 3e3e
00000190: 4ffb 5abc 9ad0 c03d 0558 da3d e23f 273e
000001a0: c197 4cbe 5b0d f13d 08d1 21bd 8313 1cbe
000001b0: c639 16bf 3fa3 aebe f9e0 7cbe cf56 39be
000001c0: f452 00bf 8b2d 30be 3e0e f7bd 4354 813e
000001d0: 9ac5 b4bd 9619 453d db26 2b3e e8fc 9ebd
000001e0: 2fa1 f8bc be2c d33c 84a3 31bd 89ec d13d
000001f0: 4c80 36be a6e2 1ebe 2f52 0c3e 9e4a 213c
00000200: ceda c6bc 0a76 4fbd 8f7e 16be 3085 90be
00000210: de7d c93e c055 9e3e 89db aa3e 4c1a b93a
00000220: ce47 893e f039 603e 97e5 303e 5e35 b13d
00000230: 9f1b 9d3d e80a e43c 692e ea3c 8866 1ebe
00000240: c5c3 753e 4c21 87be 51ac 70be 3d91 71be
00000250: 35d2 1c3f 4874 a03e c28f 8c3c 9964 07be
00000260: a958 0a3f c54d 5f3e d2c1 b33e 0c6b 8a3e
00000270: 0203 783e a3e9 2b3e 395f 543e 2f9a e33e
00000280: d428 20be a0c5 8dbe 168b 8bbe bd0a 53be
00000290: 7f48 d2bd b31c ad3e 9a0f 9e3e 059d 4b3e
000002a0: a93a 4e3e db62 4e3e 5b01 003e 4553 933e
000002b0: cfb3 863e 3023 5cbd 4ff0 02be d26f d6be
000002c0: d107 0ebf 1d54 1cbe 677a 513e ff88 f1bd
000002d0: d62c f63d f9b4 bfbe 068c 1ebe dd13 04bf
000002e0: d467 a63e 6d23 08be d933 41be 135c a9be
000002f0: 02c9 ae3e 71bb d53e a814 c23e 1983 a93d
-0.02399671 -0.009605374 -0.06017673 -0.11087598 0.058893815 -0.014929793 -0.040010374 -0.39229113
-0.06887024 -0.118768364 -0.06448603 -0.31240714 -0.06296508 -0.25216258 -0.09136687 -0.20241453
-0.11478261 -0.22970566 -0.04237028 -0.22501315 0.16384244 -0.005383039 0.19754827 -0.24822457
0.14060824 0.11379887 -0.23335913 -0.12516375 -0.38051265 -0.25473106 0.051961232 -0.060501173
-0.021653362 -0.38015705 -0.4477792 -0.33928844 -0.051045373 -0.22681576 -0.25864387 -0.42770034
-0.03393209 -0.20274533 -0.02743383 -0.20839699 0.039105706 -0.06340864 -0.076115854 -0.19003549
0.25553784 0.019171592 0.06258675 0.30308366 0.036692165 0.055292863 -0.07703736 0.21638927
-0.19912612 0.005999308 -0.2920774 0.23071209 -0.07026485 0.048319295 0.14944609 0.49747878
0.46763623 0.4021045 0.44873142 0.70693135 0.081764616 -0.039132446 0.12066463 0.07833471
-0.079910405 -0.20734161 -0.13899991 -0.27629918 -0.21076708 -0.3003759 -0.3457885 -0.754671
-0.017325569 0.15293351 0.24083292 -0.031182002 -0.38246718 -0.052447204 0.10050475 -0.030035999
-0.20558763 -0.03056684 0.0669669 0.13565932 -0.16306444 0.34660444 0.18337008 0.31363967
0.4052175 0.1984946 0.17830214 0.18556124 -0.013365581 0.094147876 0.1066132 0.16332963
-0.19979765 0.117701255 -0.03950599 -0.15241818 -0.58681905 -0.34108922 -0.24695195 -0.18099521
-0.50126576 -0.17204873 -0.12063263 0.252596 -0.08826752 0.048120104 0.16714041 -0.07763082
-0.030350296 0.02577817 -0.04336883 0.102501936 -0.17822379 -0.15516147 0.13703226 0.00984445
-0.024274256 -0.05064968 -0.14696716 -0.28226614 0.39353842 0.30924797 0.33370617 0.0014122217
0.26812595 0.21897101 0.17275082 0.08652757 0.07671284 0.027837232 0.028586583 -0.154688
0.24000461 -0.2639259 -0.23503233 -0.2359056 0.6125825 0.31338716 0.017158393 -0.13221969
0.54041535 0.2180701 0.3510881 0.27034795 0.24219897 0.16788344 0.2073945 0.4445357
-0.15640575 -0.27689838 -0.27254552 -0.20609565 -0.10267734 0.33810958 0.30871278 0.19884117
0.20139565 0.20154898 0.12500517 0.28774467 0.26309058 -0.053744495 -0.12786983 -0.41882187
-0.55480677 -0.15266462 0.20456849 -0.11793708 0.120202705 -0.3744276 -0.15483102 -0.5159281
0.3250109 -0.13294764 -0.18867435 -0.3307806 0.34137732 0.4174457 0.37906384 0.08276958

bias f4 [12]
00000000: da97 9d3d 1a74 32be 5687 ba3d df05 a3bd
00000010: c6eb c23c 25c9 dcbe d947 6f3e 4804 9abe
00000020: 3753 b0bd 7cd8 723e 49aa b73e 25c7 8b3d
0.07694979 -0.17427102 0.091078445 -0.07960104 0.023794066 -0.4312221 0.23367251 -0.3008139
-0.08609622 0.23715395 0.35872105 0.06825093

weight f4 [12]
00000000: aa89 ab3f ceab 903f 9a47 a93f 7a7d a73f
00000010: dbc6 a33f 190c 723f 2eaf 993f 0eae 833f
00000020: 6389 8c3f fe91 a73f ab91 8f3f 03d1 973f
1.3401387 1.1302431 1.3224976 1.3085167 1.2795061 0.9454971 1.2006586 1.0287492
1.0979427 1.3091428 1.1216329 1.186066

bias f4 [12]
00000000: e27c c0bc 7632 1b3e c397 a93d b9de 78bd
00000010: d7e2 6cbd 2b10 86bc b659 933c c8a3 a13d
00000020: 19b5 c8bd 4464 44be 24bf 0d3d f472 82bd
-0.023497049 0.15155968 0.082808994 -0.06075928 -0.05783352 -0.016365131 0.017987113 0.07892567
-0.09800167 -0.19178873 0.034606114 -0.06369582

weight f4 [36, 12]
00000000: 2537 873d 717f b13e 3464 8a3e 415f 1f3f
00000010: 1bf1 dfbe 751d a9be c380 1ebf 9f51 12bf
00000020: 8e05 bfbe f270 d1be be25 583e 18d8 9c3e
00000030: 0e57 1fbe 3b60 f53d 2b73 9e3e 6fc6 1abf
00000040: f294 a53e 2619 b33e 555a 82be 2393 52bd
00000050: 8ac1 0ebd 42e0 85be 7d58 923e c15a b13e
00000060: 7378 403f 272d 55be 6f8b 763e da56 5ebe
00000070: 483a 2f3f fc96 0a3f ac0f aa3e 4a27 2cbe
00000080: 2706 813e fe60 edbe e562 c2bc 1aa6 6e3e
00000090: f760 6d3e 4140 2fbe e4a2 cabe 5cc2 333e
000000a0: 7778 373e 63a7 00be e212 d6bd 02ad d2be
000000b0: 7c64 363e b867 b33d 62f4 03bd 8306 153f
000000c0: b426 7a3e 0a42 e13e 2527 c33e ef39 f0be
000000d0: 132d 193e e7a0 1a3d d8c4 b83c 5b8b 4fbe
000000e0: d7d9 ee3e f047 06bf de21 b43d 7406 c13e
000000f0: 099f 1dbe d952 d4be 3051 953d 664b 49be
00000100: 3d63 053f ca4b b7be 11e8 c73e c966 803d
00000110: 5b6e 10be d133 e6bc 6f82 52bd 5a39 01bf
00000120: 57df f4be 0f80 83bd 5300 893e a64f 9fbd
00000130: 16cc 223f 2c67 bb3c 4b44 163f b6d3 9dbd
00000140: 8b77 2a3e 084b 60bd 5b6c 7d3e cda8 10bf
00000150: 4146 c53e 35ef b3bc 46aa 8b3d 0ef0 e43e
00000160: f69d 03bf 50e3 bebd d828 ea3d e2c0 aa3d
00000170: d968 103e 57ac 853d b1d4 c03e cb8b c7be
00000180: 78ee 803e 0b60 3fbe eb28 53be 2aab bd3e
00000190: 41c2 e0be 1918 f43b 7e1a 213c dcb0 86be
000001a0: 3254 87be 7451 0f3f 7c69 6b3e 8f47 963c
000001b0: a4fd 20bf 3ed9 203f b8b4 21bf 2747 bf3e
000001c0: aefb 0cbf af02 2c3e 00c7 a2be b188 39be
000001d0: d021 7c3e 8478 d13d 9b17 f73e bb6e 2ebe
000001e0: 05ce 863e 2626 edbe 57af 29bd dc49 223f
000001f0: 428f 6f3e ae4c 723d 7e61 bdbe 4958 913e
00000200: be29 2cbe 1ac4 b5be f674 a8bd d56e cdbd
00000210: 2191 663d d93a 063e 2afb 3c3d 5030 82be
00000220: 28b7 a1bd 315f 3d3e ae13 44bf b7df 9dbd
00000230: 2220 01bd e174 0e3f 8e6d b13e 880d 8cbe
00000240: 93f0 8abe c9a7 383d bdac e83e 227c b0bc
00000250: a7cd 353f ed09 54be 3142 ecbe 8197 0f3f
00000260: 9173 0e3d 107a 8d3d d945 81be 8664 acbe
00000270: 6a60 df3e 76a7 51bd 0e05 0dbf 2468 6b3d
00000280: 6997 a9bd 7c5d 553e 0f96 1a3f dca3 013e
00000290: b53b aebc 46f9 663e 6d4c f7be 2cc0 28be
000002a0: 1165 eebd 35e1 37be dfbd 35bf e0d3 69bd
000002b0: 7f6c 893d 4a62 93bc 0a3e 65bd 51f5 93bc
000002c0: 2424 2abe 4fcc 293f f4e4 603e f491 efba
000002d0: 317e 9e3d f3b4 363d 35a4 0fbe 7d89 e93e
000002e0: ce1a ca3e 8f6f 443f 2826 893d 7fd7 4dbe
000002f0: 527e b1be 87b2 87bd 1e40 f3bd 9192 35bd
00000300: 25bd b2bd 4be8 5ebe 857f a53d 9610 75be
00000310: c371 0b3d 51ae 66bd d2ef c3be 0695 113f
00000320: 3d24 a1be ae09 c73d 2425 3bbf e57c 2dbf
00000330: 1664 4c3f 6cac 9bbe 3ebb ecbe f9c1 3f3d
00000340: 471e 85bd 28f8 a6bd 1a00 9d3e 3007 c2be
00000350: 8018 8cbd 21a7 533e a367 013e d27e 003b
00000360: 9839 2c3e 0777 06bf 9852 a43d f075 943e
00000370: eb58 5cbe fb6e c5be 7145 d43e bd68 cc3e
00000380: 9f17 9abd 8dec d6bd 889b 53bf d4e2 1a3e
00000390: e775 bcbe 675b 563a 1aec ebbd 185a 0c3f
000003a0: 0823 4e3e 2f0d a83e ddb1 0ebf bf78 963e
000003b0: 14ff 61bd 79a2 ee3d c30f ec3d 4847 5b3e
000003c0: 90ac 2a3f 2a14 a23e b741 753e 80da 0e3d
000003d0: e077 893e 3dc8 f1be 58b2 b9bd a9a7 ab3e
000003e0: b47d b0bd 592a 5ebe ba50 8bbe 2469 003f
000003f0: 7a57 3b3f fcf8 923e 6818 6ebe 62f7 acbe
0.06602315 0.34667543 0.27029574 0.6225472 -0.43738636 -0.33030286 -0.61915225 -0.57155794
-0.37308925 -0.40906483 0.21108148 0.30633616 -0.15560552 0.11981245 0.3094724 -0.60459036
0.323402 0.34980124 -0.25459543 -0.05140985 -0.034852542 -0.26147658 0.28583136 0.34639552
0.7518379 -0.20818006 0.24076627 -0.21712819 0.68448305 0.54136634 0.33215082 -0.16811863
0.25200006 -0.46363062 -0.023728797 0.2330555 0.2318152 -0.17114355 -0.395774 0.17554611
0.17917047 -0.12563853 -0.1045282 -0.4114762 0.17811769 0.08760017 -0.032215483 0.5821306
0.24428827 0.43995696 0.38115802 -0.469192 0.149586 0.037751105 0.0225548 -0.20268004
0.46650574 -0.5245352 0.08795522 0.37700236 -0.15392698 -0.41469458 0.07290876 -0.19657668
0.5210455 -0.3580001 0.3904424 0.06269605 -0.14104597 -0.02810088 -0.051393922 -0.50478137
-0.47826645 -0.064209096 0.2675806 -0.077788636 0.6359266 0.022876345 0.58697957 -0.07706396
0.16647165 -0.054759055 0.24748366 -0.5650757 0.38530162 -0.021964649 0.068195865 0.44714397
-0.51412904 -0.093207 0.114335716 0.08337571 0.14102496 0.06527012 0.3766227 -0.3897384
0.25181937 -0.18688981 -0.20621078 0.3704465 -0.43898204 0.0074491617 0.009832976 -0.26306808
-0.26431423 0.5598366 0.22989458 0.018344669 -0.62887025 0.62831485 -0.6316638 0.37358972
-0.5507153 0.16797899 -0.3179245 -0.1811855 0.24622273 0.10228065 0.48260197 -0.17034428
0.26329055 -0.46318167 -0.041426983 0.6339395 0.23394492 0.05915516 -0.36988443 0.2838767
-0.16812798 -0.35501176 -0.082254335 -0.10030905 0.05629075 0.13108386 0.046137966 -0.25427485
-0.078962624 0.18493344 -0.7659253 -0.07708686 -0.031524785 0.55647093 0.34653896 -0.27354074
-0.2713667 0.045081887 0.4544429 -0.021543566 0.71016926 -0.20706911 -0.4614425 0.5609055
0.03477818 0.06908047 -0.25248602 -0.33670443 0.43628246 -0.051185094 -0.5508584 0.057472363
-0.08280832 0.20836443 0.6038522 0.12660164 -0.021268705 0.22556028 -0.48300496 -0.16479558
-0.11640371 -0.17957003 -0.70992845 -0.057086825 0.06710147 -0.017991204 -0.05596737 -0.018061312
-0.16615349 0.66327375 0.21962339 -0.001827775 0.07738913 0.04460616 -0.14027484 0.45612708
0.39473575 0.76732725 0.06696731 -0.20101736 -0.34666687 -0.06625848 -0.11877464 -0.04432923
-0.08727483 -0.217683 0.08080963 -0.23932108 0.03404404 -0.056318585 -0.38268906 0.56868017
-0.3147296 0.09718643 -0.7310355 -0.677687 0.7984022 -0.30404985 -0.46236604 0.046815846
-0.064999156 -0.08152801 0.3066414 -0.3789611 -0.068406105 0.20669223 0.1263719 0.001960684
0.16818845 -0.5252537 0.08023566 0.2899623 -0.21518295 -0.38561234 0.4145923 0.3992366
-0.075240366 -0.10494337 -0.82659197 0.1512559 -0.36808702 0.0008177072 -0.11519642 0.5482497
0.20130551 0.32822558 -0.5574015 0.29388997 -0.055174902 0.11652083 0.11526444 0.2141391
0.6666956 0.3165601 0.2395085 0.034876347 0.2684927 -0.47223082 -0.090672195 0.33526352
-0.08617726 -0.21695842 -0.27210027 0.5016043 0.73180354 0.28705585 -0.23251498 -0.33782488

weight f4 [12, 12]
00000000: 3525 db3e 58b3 bbbe 4aca fbbe a450 5cbe
00000010: 3747 d33e 9b80 a63e 1da7 a2be 48e6 81be
00000020: 0038 9abe c123 3e3e cfe6 153d 2656 fabe
00000030: 845c 6fbd 90e5 693e 85b1 50be 38ab c3be
00000040: b28d db3d 0f84 883c 9433 c13d d0a2 0e3d
00000050: 89ba acbd 12a3 273e 2a15 2bbf 2359 2c3e
00000060: 6031 72be 4819 58be 61d6 923e 8af3 d9be
00000070: efb1 5d3d ad68 19be fc1f 4bbd 8317 f53d
00000080: 5bf3 433e fb22 a43d df1e 29bc 60ab 393e
00000090: 20d3 d2ba 8724 163e 64fc e53e 2efd c73d
000000a0: 5e13 dabe d257 213f 1c22 36be 4016 05bf
000000b0: e42d 56bc d680 e43d c793 b9be 42d3 043e
000000c0: 67b9 67be 7eeb 113e 1da2 6b3e d3f6 ec3c
000000d0: 8fa1 8e3e 68c1 0a3f aecb eb3c 0b69 e1be
000000e0: 6d42 debd e708 b23a 1a77 1b3e 5e2b 193f
000000f0: ec08 aebd 6449 d7bd 1df4 99be 1813 51be
00000100: df9d 803e 1c17 be3e 4f53 a33e d265 a0bc
00000110: 0eac 193c dfbd 663d 0a05 f53e ce3a 6dbe
00000120: 4cce 073f 7017 443e d3eb 89bb 70a3 03bf
00000130: 7102 08bf cad7 55be 5b24 fe3e e027 f7bd
00000140: 6388 61be a94d cbbe 5b52 d13e 8063 aa3e
00000150: 5257 8dbe 331c 5abd 70fc 2bbd af31 a93d
00000160: 4d5f 20be 0293 0abe 1db6 12bf 51df 913e
00000170: 47f0 96be cb1a 29bd 54a2 d5be 590b 413e
00000180: d913 c6be c0b7 36bd 7f2b 1fbd 5dff 3a3f
00000190: d09d 8fbe 90b9 64be aa96 19bd ac31 963d
000001a0: 7f30 ec3e 98aa 02bf 3967 7a3e d24d e2bd
000001b0: 38b1 423e 14a1 f33c 275f a4be 16d4 5a3d
000001c0: 0f82 1a3e fc33 3abe 734c ff3e ec77 d53e
000001d0: 61a4 8abc 451b 303f 34fb b23e 4626 bb3e
000001e0: 44c8 c7be 37eb babe 89cc 46bf 6060 973e
000001f0: a8b0 dabe 2617 4bbe 9844 41be 3d44 bc3e
00000200: 5911 2ebd 1e27 953d f664 fabe d0cd b53e
00000210: 2836 d93d a09b 533d f216 ff3e b57b 0fbe
00000220: 57e9 1b3f d573 08bf 1ab9 cd3e 620a b13d
00000230: b23c 2ebf 3661 bd3d cee5 92be 1270 16bf
0.42801824 -0.36660266 -0.49177772 -0.21515137 0.4126527 0.32519993 -0.31768122 -0.25371003
-0.3012085 0.18568327 0.03659707 -0.4889385 -0.05843784 0.22841477 -0.20380218 -0.38216567
0.107203856 0.016664533 0.09433666 0.03482324 -0.08434016 0.163708 -0.6682917 0.16830878
-0.23651648 -0.21103394 0.28679183 -0.42568618 0.05412477 -0.14981337 -0.04959105 0.11967375
0.19135801 0.080144845 -0.010322302 0.1813178 -0.0016084649 0.14662372 0.4491912 0.09765087
-0.425929 0.6302463 -0.17786449 -0.51987076 -0.013072465 0.11157386 -0.36245558 0.12971213
-0.22629319 0.1424999 0.2301106 0.028926289 0.27857634 0.54201365 0.028783645 -0.44025454
-0.108525135 0.0013582975 0.15182152 0.598318 -0.084977955 -0.10512045 -0.30069056 -0.2041744
0.25120446 0.37127006 0.31899497 -0.019579802 0.0093794 0.05633342 0.47855407 -0.23166963
0.5304916 0.19149566 -0.0042090206 -0.5142126 -0.53128725 -0.20883098 0.49637112 -0.120681524
-0.22024684 -0.39707687 0.40883145 0.33279037 -0.27605683 -0.05324955 -0.04198879 0.082614295
-0.15661354 -0.13532642 -0.5730913 0.2849069 -0.29480192 -0.041285317 -0.4172541 0.18851985
-0.38687018 -0.04460883 -0.03885984 0.73045903 -0.2805009 -0.22336411 -0.0374972 0.07333693
0.4613075 -0.51041555 0.24453439 -0.11049999 0.19012916 0.029739894 -0.32103845 0.053424917
0.15088676 -0.18183893 0.49863014 0.41693056 -0.016924085 0.6879161 0.34957278 0.36552638
-0.39019978 -0.3650758 -0.77655846 0.29565716 -0.42712903 -0.19833049 -0.18873823 0.36770812
-0.042497013 0.07282852 -0.48905152 0.35508585 0.106060326 0.051662087 0.49822193 -0.14012034
0.60902923 -0.53301746 0.40180284 0.086445585 -0.68061364 0.09247057 -0.28690952 -0.58764756

bias f4 [12]
00000000: 8a01 b23d 785a 8b3e b715 833e 8a75 00bd
00000010: 0d22 8d3e f8ef 303e ad8d b63e c2b7 4e3e
00000020: d255 1c3d 187e 953e e631 de3d 3ee5 973d
0.086917 0.2721746 0.25602505 -0.031362094 0.2756504 0.17279041 0.35654965 0.20187286
0.038167782 0.29197764 0.10849361 0.07416771

weight f4 [12]
00000000: ecbd 8e3f 5bd8 583f 5155 853f 6e73 463f
00000010: 4440 343f ceea 883f 7a64 6a3f 60d6 a63f
00000020: 6e9d 493f b371 6d3f ae20 653f 9548 5a3f
1.115171 0.8470513 1.0416662 0.7751988 0.7041056 1.0696657 0.91559565 1.3034172
0.78755844 0.92751616 0.8950299 0.85267

bias f4 [12]
00000000: ac51 85be 2122 0cbe a9b9 11be c5d7 da3d
00000010: f81a a1bc 780e abbd 517e a33d 35d8 a1bd
00000020: f0e7 b7bd f625 10be 6186 8cbe f5fe 00be
-0.26038873 -0.13684894 -0.1423098 0.10685686 -0.01966618 -0.08352369 0.07983077 -0.07902566
-0.089797854 -0.14076981 -0.27446273 -0.12597258

weight f4 [32, 12]
00000000: 816f 54bd 8986 833e fb9e 8e3e 48e0 62bd
00000010: 8525 eabe c761 93bd fd4b babc a30a f2bc
00000020: 4808 fdbd 4185 b9be 190a 7a3e 42e1 a83d
00000030: 1406 5abe 229f df3e c2bd a0be 88c1 85bd
00000040: 1fab 7e3e 93c2 6b3e 73d6 673e 15da 92be
00000050: 2690 6ebe 4479 973e 6d67 e83d 32c8 b6be
00000060: 1e8f ea3d 509a 173e 970a 263d ee3f 673e
00000070: 4247 52be 6823 cbbe 6a9f 84be 905f c7be
00000080: 5df9 423e b855 b73e 026a 9c3c 546f 983d
00000090: 0043 013d 1958 4cbe 3083 6a3e 6f1a 92be
000000a0: 373d 253f d259 593d b5f2 ac3e a927 a7be
000000b0: 45b3 b4be 9f50 643e 5566 e73e c058 bbbe
000000c0: ebc1 bd3e a236 c6be 7db6 a9bd 4327 913e
000000d0: 71ef 533e 3031 02bf 3967 ae3c cbfc c13b
000000e0: e746 3e3d 3f2f 4a3e a130 07be 6ad5 4f3d
000000f0: 6940 4a3c b440 383e 1ea6 33bf c864 dc3e
00000100: a1e0 85be 9f4b 0f3f 7a95 c53e 9924 8c3c
00000110: 5e8f 043d 5752 82be ce35 743e 8c3d bdbe
00000120: 874b 53be dc6c 703d 50a0 663d 6951 b83d
00000130: d353 d4bd 2c26 403e 4f8a 00bd 4fef 9bbe
00000140: 4c84 5cbe 3905 103e 2075 f1be 9200 15be
00000150: a8e5 4bbe 9043 443d 926c 88bd 624f b53e
00000160: 6472 91be f1a9 8d3e 8eae 043f 4ae7 b43e
00000170: d2f4 8b3d 7345 053e db85 4b3e bc2d 3cbe
00000180: 09e6 b0bd b966 e43e 5fc5 95be 3453 6fbe
00000190: 8147 333e 2e90 babd 9e8a 8bbd f486 15bf
000001a0: ecf1 0cbd b8d9 763e 92af 2b3e a609 04bf
000001b0: a63a 2cbe 7166 e93d 7618 5d3d 09a4 9b3e
000001c0: d068 1ebe 12d4 da3d 6e26 3ebe ed39 a53d
000001d0: 7e15 4f3e 3252 c2bd 0247 72be a5f7 e63c
000001e0: 4fa0 4e3e 9e7f f93c a418 4d3f 0e42 3bbe
000001f0: ef05 773e 0dac 6c3e 089d d2bc 7613 c93e
00000200: be62 35bf 81c7 5bbe d66c 5a3e 17c4 5cbe
00000210: ae72 d53e a8ce a23d c0e7 933e 1614 c6bd
00000220: df58 b13e 9c54 323d ecdb 41be f52b b13d
00000230: 3e96 94bb fee5 e7be 9bd7 893d 73fc 133f
00000240: 6d91 15be a4f0 2a3e 69ca 7f3e a4b9 19be
00000250: b66d d5bd f0f3 953e e1f3 0b3e 32d6 73be
00000260: ce43 efbe 435c 813e cc0b b2be a518 2dbe
00000270: 9687 613e b220 243e 60d5 033e abae 313e
00000280: c313 123e de4d ba3d 3e19 f63e 37e5 2d3f
00000290: 525e 9bbe 0bba 17be e7f1 1f3c 901f 92be
000002a0: 87f5 0e3f 04b0 763d a326 4b3d 796c bfbd
000002b0: a40f 8ebd a120 c7bb 8dab 91bd 5227 293e
000002c0: c004 fe3d 3bc8 ad3e 5316 723e d1e5 c2be
000002d0: 3839 e3bc 9158 993e 8967 aa3e e037 07be
000002e0: 2df0 e7bd 167a 78be e113 b43e 69c5 5ebe
000002f0: 218e 6a3e 1e61 363c eae0 913b 09e0 033d
00000300: 6723 a83d 817f a93d 8922 06bf 0c21 6d3e
00000310: 0ed7 6fbe ba58 f63d 4761 a63d 5796 153f
00000320: f03b 813d 96c4 643e cc5c 2bbe ca9d 513e
00000330: 61f0 f63c ddcc 1e3e 36a8 d73d a008 53be
00000340: de31 22be 2244 4d3e d5b6 0f3e c01d 6cbd
00000350: 85f8 a5bd a5c9 6c3e 4910 843e f059 b0be
00000360: e73e 42bd 67f0 cdba 9613 d43e e740 08be
00000370: 84cf 8ebd 5a21 5c3e bb18 393e 3d95 103f
00000380: 6791 3ebf b009 e53d 69c3 0bbe c310 ecbd
00000390: 8aea 82bd 1c4d 2a3e f15f acbe 46ce 24bd
000003a0: dc7d 5b3e 53bd 923e ad48 cebe 4262 65be
000003b0: 6f06 2d3e 224b 2a3e 0d6c d4bb 714b 9cbe
000003c0: e017 373d 0c42 4d3e 2b74 323e 7b0a 5e3e
000003d0: f32a 103e cbd8 13be b668 883e fc7d fa3e
000003e0: 13d2 32be 07e2 883e 84cf f0be 55bf 63bd
000003f0: 292d d03e 71b0 fc3e c50d bb3e 9317 debd
-0.05186415 0.2568858 0.27855667 -0.055389673 -0.4573175 -0.07196384 -0.022741312 -0.029546088
-0.12355095 -0.36234477 0.24417914 0.082460895 -0.21291381 0.43676096 -0.31394774 -0.06531054
0.24869965 0.23023443 0.226404 -0.28682008 -0.23297176 0.29584706 0.11347852 -0.35699612
0.11453079 0.1480496 0.040537443 0.22582981 -0.20534995 -0.3967545 -0.25902873 -0.38940096
0.19040437 0.35807586 0.019093517 0.07443109 0.031558037 -0.19955482 0.22901607 -0.28535792
0.6454653 0.053064175 0.3377892 -0.32647446 -0.35293022 0.2229638 0.4519526 -0.36591148
0.3706201 -0.38713557 -0.0828676 0.28350267 0.20696808 -0.50856304 0.021289455 0.005920028
0.046454336 0.19744585 -0.13202144 0.050740637 0.012344458 0.17993432 -0.7017535 0.4304564
-0.2614794 0.55974764 0.38590604 0.017107295 0.032363288 -0.25453445 0.2384865 -0.3696102
-0.2063428 0.058697566 0.05630523 0.08999903 -0.10367551 0.18764561 -0.0313819 -0.30456015
-0.21534842 0.14064492 -0.47159672 -0.14550999 -0.19911826 0.047915995 -0.06661333 0.35412127
-0.28407586 0.27668718 0.5182885 0.3533271 0.06833805 0.13014774 0.1987528 -0.18376821
-0.08637626 0.4460962 -0.29252145 -0.23371583 0.17507745 -0.09109531 -0.068135485 -0.5840905
-0.034410402 0.2410649 0.16766194 -0.5157722 -0.16819248 0.11396492 0.053978406 0.30398586
-0.1546967 0.106849805 -0.18569347 0.08067689 0.20223042 -0.09488334 -0.236599 0.028194258
0.2017834 0.03045636 0.80115724 -0.18286917 0.24123357 0.23112507 -0.025709644 0.3927266
-0.70853794 -0.21462823 0.2133058 -0.21559177 0.41689056 0.07949573 0.2888775 -0.096718
0.34638116 0.04353772 -0.1893155 0.08650962 -0.004534512 -0.45292658 0.067305766 0.5780708
-0.14606257 0.1669336 0.24979557 -0.15012223 -0.10421316 0.29287672 0.13667251 -0.23812178
-0.46731418 0.25265703 -0.34774625 -0.16903932 0.22024378 0.16028097 0.12874365 0.17351787
0.14265351 0.09096883 0.48066133 0.6792788 -0.30345398 -0.14817064 0.009762264 -0.28539705
0.55843395 0.060226455 0.049597394 -0.093468614 -0.06936577 -0.0060768877 -0.07112799 0.16518906
0.1240325 0.33941826 0.23641329 -0.3806596 -0.027737245 0.29950383 0.33282116 -0.13204908
-0.11325107 -0.24265322 0.35171416 -0.21754993 0.2290578 0.011131553 0.0044518607 0.03219608
0.082098775 0.082762726 -0.52396446 0.23157138 -0.2342188 0.12028642 0.08124023 0.58432525
0.0631026 0.22340617 -0.16734618 0.20470348 0.030143918 0.15507837 0.105301306 -0.20608759
-0.15839335 0.20045522 0.14034589 -0.05764556 -0.08104042 0.23123796 0.25793675 -0.34443617
-0.04742327 -0.0015711904 0.41421193 -0.13306008 -0.06973174 0.21497098 0.1807584 0.5647772
-0.74440616 0.11183488 -0.13648762 -0.115266345 -0.06392391 0.16630977 -0.33666947 -0.04023578
0.2143473 0.28660068 -0.40289822 -0.22400764 0.16896985 0.16630223 -0.006482607 -0.30526307
0.044700503 0.20044726 0.17427127 0.21683685 0.14078884 -0.14438169 0.26642388 0.48924243
-0.1746295 0.26734945 -0.47033322 -0.05560239 0.40659454 0.49353364 0.36533943 -0.1084434

bias f4 [32]
00000000: e4ad 783d e467 82be 0503 92be a670 bcbe
00000010: 1663 e5be 2e06 9bbd 8122 5bbe 2ef7 c5be
00000020: badd 2abe c3e9 75be c959 d8be 23fd e0be
00000030: f629 4c3d 3a83 143e 0662 dc3a b8ce bebe
00000040: 2b64 7c3d 1889 b6bc 555f a3be 5d1d 8ebd
00000050: 3692 9abd ad97 b6bd 4aaf b8be 959f 83be
00000060: 2866 17be 83ae dabe 1936 96be 2255 b03d
00000070: 2ab1 e1be ba5f 03be 948c b4be 7e67 753a
0.06071271 -0.25469887 -0.2851793 -0.36804694 -0.4480216 -0.07569538 -0.21399881 -0.38665146
-0.16686144 -0.24014954 -0.42256 -0.43943128 0.049844705 0.14503184 0.0016813881 -0.3726709
0.061618965 -0.022282168 -0.3190867 -0.06939194 -0.07547419 -0.089156486 -0.36071235 -0.2570769
-0.14785063 -0.42711267 -0.29338148 0.08609988 -0.44080478 -0.12829486 -0.35263503 0.000936143

weight f4 [12, 32]
00000000: 9fe5 3d3e ca96 76bd c065 523e 2a2c a43e
00000010: 5143 ea3c 35dc cabe 0493 813b 223a 58be
00000020: bf9a 673d 02d5 61be 7c2b 403f c336 043e
00000030: d699 d2bc 877a 39be 90ee 7dbe 6165 54be
00000040: 2555 cabd 1004 24bd 83a8 ef3e c91b fc3d
00000050: 7121 083e 9d20 47bb ca6b 5ebe 4eed 3b3e
00000060: d202 683e 5e54 17be a2ae 473e 89ae 38be
00000070: f217 9e3e 0c8f 85be 9d86 2cbe 5ede 923d
00000080: 3035 433d 47db 4e3e 243f 47bd b735 29be
00000090: 4f9a e8bd 80f9 653e 4ef5 97be d303 5f3d
000000a0: 7ae2 7d3e d99b 1b3d 9900 05be c281 2e3f
000000b0: 0fdc 00bf 5689 f93e 3dbc 96bd e3f4 3a3e
000000c0: 965e da3d 8856 983d d030 92be 47ed 093e
000000d0: 134f 273e aad0 a53e 77d9 00bf 838d 713d
000000e0: 0c27 8e3e 0fc8 183e d421 e1bc 8b8c 213e
000000f0: 7f10 a93e 6589 8f3d 55ca 6d3e 3795 973d
00000100: 41ca f73d 90d5 9bbd 6143 a73c 9d7b 6bbe
00000110: 1ef0 323c 3f94 bfbd cc2a 9bbd be4d 32bd
00000120: 86a4 14be c599 00be ec10 44bd 910c c5bd
00000130: 4a13 673e f5e0 0f3e 2ceb 443e 76d8 0e3e
00000140: a526 69be 4983 5b3e 1b2d d1be ffab 91bd
00000150: e9f2 3ebe a335 d5bd 8e80 9ebd 3325 543e
00000160: f23e c23b dc6f c6bd a08a 153f 619b a63e
00000170: e8e8 fe3e 932d 8f3e d6b0 8bbc 7a8e 67be
00000180: 4ce3 c9bd 9a60 9abc 68a4 55be 276a 373e
00000190: 0f2b 16bd 312b d4bc 4bce 3d3e 00a9 32be
000001a0: 5a4c 22be 153a f0bd 8174 0f3e b1f0 cbbe
000001b0: fdbf 9abe b30e 31be 21c6 78be d6c5 92bd
000001c0: 8249 753d 9d4c ecbd a37f 19bd aaa0 973c
000001d0: 6350 23be 730d c7bc 1cc1 a53e 0100 25be
000001e0: 4fe5 d83e afae 813c a8fe 203e cc9d d6bd
000001f0: feba 40bf d3ef efbe 9a95 973e 3bb5 03be
00000200: fe5e 1cbe 8ac6 b2bd 2078 b13e e0d1 b43e
00000210: 8578 16be 02e4 3dbf a021 0e3e 1672 53be
00000220: dab7 323d a988 323e d23e 3bbe 6a7f abbe
00000230: 0a0f af3e 133e a8bd 17e7 d13d 0e82 313e
00000240: 0c19 983e cb04 f8bd c3bc 1e3e 87ab 0dbe
00000250: 9dc8 4e3e 9dbb 523e f542 f0bd 8ab3 dfbd
00000260: b8d2 d13a d6ee 09be 672a 07bf 6cdc b3bc
00000270: 558f 783e fb4e cd3e b616 983d a3a5 543d
00000280: 9662 583e e457 7c3e 8216 a7be a886 01bf
00000290: 4a6a a4bd 4f7e 483e 9554 8b3c b78a 23be
000002a0: 5842 a53e e16d aabd eb33 02bf 4adc aabe
000002b0: d3aa fdbc a922 8e3d 5b96 22be b64d d23e
000002c0: f615 283e a119 393e 9b13 86be 2a5a ba3e
000002d0: bc0a df3d 3717 6d3e 4c11 b23e 5f8a a73d
000002e0: c660 e43c bd8a aa3e 024e a53e 09bf ee3d
000002f0: cac3 b9be c037 8f3d e239 36be c827 5ebd
00000300: cc22 aa3d 560b 943e dc60 fe3d 75c1 693e
00000310: d14d debd f9ce fd3b 29f1 4bbe 511f 543d
00000320: 8e89 b63e 6821 a73c 8851 893b e257 0fbe
00000330: 58ac 1dbe 7b7a c0bd 04e0 5d3e a046 683d
00000340: 8e46 743b c225 30bc b2f0 0b3e 3c10 8dbe
00000350: 5bc1 46be 4578 0dbd e563 42be 392b 273e
00000360: d458 1e3e 04b3 aabc 58b0 14be e35b 61bd
00000370: 1b8b d5be 0817 ac3e 3398 36be 96d6 093c
00000380: fe42 afbe fa8d 76bd 652b acbd 7bff 4fbd
00000390: 95b4 2c3f 22e3 1b3e ac69 e53d 6f9e 943e
000003a0: a36b 153e 70c3 e13d 8d39 9a3e 96cc 663d
000003b0: e20f 9b3d 53fb 923d 8692 54be c54a 0dbe
000003c0: 07ab ab3e 9bd4 74be c458 2a3f f274 923d
000003d0: 3579 ba3e 1eb3 71be 1450 043e 4fe0 17be
000003e0: 7b90 e2be ca9c edbe 91cd 92be 585e c0bb
000003f0: b23e 4e3e 705a 823e 6ac8 2c3e 8cee 5a3e
0.18544625 -0.060202397 0.20546627 0.32064945 0.028596552 -0.3962113 0.003954293 -0.21115926
0.05654406 -0.22053912 0.7506635 0.12911515 -0.02570812 -0.18113147 -0.24798036 -0.20741798
-0.09879521 -0.040042937 0.46808252 0.12309987 0.13294007 -0.003038443 -0.21720806 0.18352243
0.22657326 -0.14778277 0.19500211 -0.1803533 0.30877644 -0.260857 -0.16848226 0.071713194
0.047658145 0.20200835 -0.0486442 -0.16524397 -0.11357557 0.22458458 -0.2967934 0.054447006
0.24793425 0.037990425 -0.12988509 0.68166745 -0.5033578 0.48737592 -0.07360122 0.1825748
0.10662572 0.074383795 -0.28552866 0.1346942 0.16338758 0.3238576 -0.50331825 0.058972847
0.27764165 0.14920066 -0.02748195 0.15776269 0.33020398 0.07008628 0.23221715 0.07401507
0.12099124 -0.07609093 0.020417871 -0.22996373 0.010921506 -0.093544476 -0.07576522 -0.043531172
-0.14515886 -0.12558658 -0.0478677 -0.096215375 0.22565952 0.14050658 0.19230336 0.13949761
-0.22768648 0.214368 -0.40854725 -0.07112884 -0.1864735 -0.10410621 -0.077393636 0.20717315
0.005927914 -0.09689304 0.5841465 0.3254042 0.49787068 0.27964458 -0.017052095 -0.22612944
-0.098578066 -0.018844891 -0.20863497 0.17911588 -0.036662158 -0.025899502 0.18535726 -0.17447281
-0.15849438 -0.11729828 0.14009286 -0.3983207 -0.302246 -0.17290764 -0.2429433 -0.071666405
0.059884556 -0.1153805 -0.03747524 0.018509228 -0.15948634 -0.024298405 0.32373893 -0.16113283
0.4236245 0.015830366 0.15722144 -0.10479316 -0.7528533 -0.4686266 0.29606324 -0.12862103
-0.15270612 -0.087292746 0.3466196 0.35316372 -0.14694412 -0.7417604 0.13880014 -0.20648989
0.043632366 0.17434944 -0.18285683 -0.33495647 0.3419116 -0.08214965 0.10249155 0.17334768
0.2970661 -0.12110289 0.15501694 -0.13834964 0.20193715 0.20579381 -0.11731521 -0.10922916
0.0016008234 -0.13470015 -0.52799076 -0.021955691 0.24273427 0.4009932 0.07426207 0.051915776
0.21131358 0.24642903 -0.3263436 -0.50596094 -0.080280855 0.19579433 0.017008105 -0.15970884
0.3227718 -0.08321739 -0.5086047 -0.33371192 -0.030965244 0.06940205 -0.15877669 0.41074914
0.16414627 0.18076183 -0.26186833 0.36396915 0.10890719 0.23153387 0.3477882 0.08180689
0.027878176 0.33308974 0.32286078 0.11657531 -0.36282188 0.06993055 -0.17795518 -0.054237157
0.08307418 0.289149 0.12420818 0.22827704 -0.10854686 0.0077456203 -0.19916214 0.05178768
0.3565182 0.020401672 0.0041906275 -0.13998368 -0.15397775 -0.09398361 0.21667486 0.05670798
0.00372735 -0.01075119 0.13666037 -0.27551448 -0.19409697 -0.034538526 -0.18983419 0.16325082
0.15463573 -0.020837314 -0.14520395 -0.05501927 -0.41707692 0.3361132 -0.17831497 0.008412978
-0.34230798 -0.060193993 -0.08406714 -0.050780755 0.67463046 0.15223363 0.11201796 0.29027125
0.14591841 0.11023605 0.30122033 0.056347452 0.07571389 0.071768425 -0.2075902 -0.13798054
0.3352892 -0.23909228 0.66541696 0.07151212 0.364206 -0.23603484 0.12921172 -0.1483166
-0.44250855 -0.46408683 -0.2867246 -0.0058706217 0.20141104 0.25459623 0.16873327 0.21380061

bias f4 [12]
00000000: cb67 d53d c78e 493e 86e3 c63d 0037 6cbe
00000010: 6bc1 5abe 58eb 823d f34e 6e3c 50de 373d
00000020: c9f2 92bd 7b01 6a3e ce67 b1bd 262b fbbb
0.104201876 0.19683371 0.097113654 -0.23067856 -0.21362846 0.063925445 0.01454519 0.044889748
-0.07175214 0.22852127 -0.08662377 -0.007665056

weight f4 [12]
00000000: 6a86 8b3f 7db4 943f 9f1e 9c3f b134 953f
00000010: 4f54 913f 18cc 753f e892 983f be40 963f
00000020: d1fa 8c3f 7c69 a73f cc7a 923f 16e7 8c3f
1.0900395 1.1617581 1.2196845 1.1656705 1.1353854 0.9601455 1.1919832 1.1738508
1.1014043 1.3079066 1.1443725 1.1008022

bias f4 [12]
00000000: dabb 2f3d 9018 5a3d 7b64 c03c 0e9d cbbd
00000010: b594 7f3e 205e c43d 176d d33c 388e 35bd
00000020: c21a 713b 58f3 b5bd fc6c 50be b949 dbbd
0.04290376 0.05324608 0.023485413 -0.09942065 0.24959071 0.095882654 0.025808854 -0.044325083
0.003678963 -0.08884305 -0.20354074 -0.10707421

weight f4 [36, 12]
00000000: 2b8c 973e 00bf 013e b34c 793e a979 47be
00000010: 62e2 3ebe f121 20be d52b cabd 95b5 0b3f
00000020: 408f 99be 9faf 473e 1956 de3d 1f01 a7be
00000030: c5a2 cb3e 2e1f 24be 1e90 86be d3a5 80be
00000040: a1d1 613e 8903 803d a230 813e 8aed 073f
00000050: 683a 4a3e 6896 afbe 8309 26be 411e 13be
00000060: 0de1 043e 21d9 70bc 719c 163e d405 c83e
00000070: 9241 cabe 9bec 923d 11c7 54be e428 83bd
00000080: fc00 ecbe faca 81be aac0 863e ada8 423e
00000090: ae21 b53d ec07 94bd 4317 5a3d e67e 1dbe
000000a0: 1e8a 2bbd ba4e ca3e 5710 0ebf 89ff 82be
000000b0: 2362 cdbe 3ad3 533e f06a e83e be12 ce3c
000000c0: fe22 66bd e2de c6be 2dcc 20bf 376e 093f
000000d0: 152b 16bf 2f3a 0cbf 913e aebc dd7f e2bc
000000e0: 4e89 a23c f82d eebc abb0 0a3d 4dbb b13e
000000f0: 3efa 83be 78a6 31bd 314b 19bd 9583 2d3f
00000100: 3d17 44be 7316 3f3c b3b1 e0be 0990 92bd
00000110: e452 71be a9fb 0fbd 2d71 463d c9d5 d8be
00000120: 39ea 0bbe 166e 46be 09b3 5b3e e4c4 0abe
00000130: b6e5 8ebe b3fe 88be 4bcf a1be 7a59 363f
00000140: 149c d6bc 0401 883e 1a5e debb 054e 24be
00000150: bfa0 18be c24e 96be 6c4e 3ebe d248 4dbe
00000160: f1e2 9a3e 5e79 c53e c110 00be cba9 2e3e
00000170: 0bbe 3a3e 98bc eebe 9e33 93be bf36 3f3d
00000180: 6fc7 1e3e 1cd9 d6bd 8e4b f1bd e6c4 c6be
00000190: c1f1 1d3e a6da f43e cb95 a13e 3ccc da3e
000001a0: 1b3f 733c 79e5 70be b535 44bd b6fd 01be
000001b0: 6cc0 1d3e 29ab 8d3d 9c14 7fbe 61cd 763e
000001c0: b909 d3bd 6422 753e 0110 d43d 70e9 653e
000001d0: b813 f5be c7d3 aa3e bc8b 663e 489f 86bd
000001e0: eff0 043f 8548 803d 7e73 afbe 2871 033d
000001f0: 7240 783e 3425 97bd ffda ab3e 0d67 e93e
00000200: 077d 1b3c 0fb9 3abf e5c7 76be cadd 703e
00000210: d5f9 91be 292b 023f 3a71 29be 132c 593c
00000220: 29b8 aebe 1d4e 81bc 4468 4f3e 2174 1abf
00000230: 219d ffbe 5d93 b93e 354a 7ebe cab1 603e
00000240: 40d3 e0bd 5125 083f 8363 2fbd 55c0 27bd
00000250: da04 833e e716 15bd b72c c53e 70b3 d03d
00000260: baf7 69be 0d9a 303d c9aa 04be 051f a2bd
00000270: cbbb 903e ad5e 17bf 8d25 9f3d ccbf 9abc
00000280: 9249 81be 14d8 1ebe 4d80 fbbd 9bc3 09bd
00000290: 7ea3 bb3d 01ff 993e 2dff adbe 92d5 ee3e
000002a0: 7cf3 3dbd 9395 b9be 08ce 82be d878 b2be
000002b0: 1c1c 323e 2413 ad3d 9bec 8a3e 02ed e43e
000002c0: 7570 7fbe 0c9a 153f 4107 7c3d 8b8d b8be
000002d0: f82a 5bbe f54d e4be 3b57 35be e729 d8be
000002e0: 69b0 953e 16d5 cebd 4a34 ba3d 75d1 5f3e
000002f0: 1770 c73d 153d 443e 6f01 ec3e 2cd2 8fbe
00000300: c4aa d13d 2896 5b3e 5fd8 61bb fa4a f1be
00000310: 57e8 0abe 4cfe 9a3e 02d3 9fbe 7701 27be
00000320: bc55 cc3e 3a92 96be 3333 57bf 2659 cbbe
00000330: 9fd5 6b3e ce8f 3e3e c909 063f e5f3 9ebd
00000340: 43b9 6a3d bd99 613f 8197 d7be aac4 94be
00000350: 9cc9 953e 8cf6 5abe cc7f 8fbe c75b 45bd
00000360: 94f2 0a3f b969 27be 510a d23e 6d1a 9dbe
00000370: 402e ab3e 113c 50be d4c6 ad3d e328 4f3e
00000380: a2ae d1bd cd9f 123e 5fbc 8ebe abca 20be
00000390: 7ec0 95bc 1b82 ad3d 6b03 28bf 6829 003f
000003a0: b496 25be 4718 46be dffd 3c3c 44e2 53be
000003b0: 8cae a03e 9138 503d 23ad a93e 0646 9cbd
000003c0: 575e febd 522d 883e f0cc 1b3f 48a4 c23c
000003d0: 5887 c2be 741b 6dbe 0bda 8fbe 0466 69be
000003e0: e527 27bd 23a0 a6be 7557 233f 0b11 41ba
000003f0: ed8e 443e 4caf 5cbe 2eb2 61bf 4cd2 2cbe
0.29599127 0.12670517 0.24345665 -0.19480003 -0.18641046 -0.15637948 -0.098716415 0.5457395
-0.29992104 0.19500588 0.108562656 -0.32618043 0.3977262 -0.16027519 -0.26281828 -0.25126514
0.22052623 0.06250674 0.25232416 0.5309683 0.19748843 -0.34294438 -0.16214566 -0.1436701
0.12976475 -0.014700205 0.14708115 0.39066947 -0.3950315 0.07174035 -0.20779063 -0.06404284
-0.460945 -0.2535017 0.26318866 0.19009657 0.088443145 -0.072280735 0.05324484 -0.15380439
-0.041879766 0.3951319 -0.5549368 -0.25585583 -0.40113935 0.20686045 0.45394087 0.025155421
-0.056185715 -0.3884192 -0.6281155 0.536838 -0.5865949 -0.5477628 -0.021270068 -0.02764886
0.019840863 -0.029074654 0.03385989 0.34713212 -0.25776857 -0.043371648 -0.037425224 0.67778903
-0.1914949 0.011663067 -0.43885574 -0.07156379 -0.23566777 -0.03515211 0.048447777 -0.42350605
-0.13663568 -0.19377932 0.21455015 -0.1355167 -0.2790963 -0.2675682 -0.31603464 0.7123028
-0.02619747 0.26563275 -0.00678612 -0.16045387 -0.1490507 -0.29356962 -0.18584603 -0.2004731
0.30251268 0.38569158 -0.12506391 0.17056958 0.18236558 -0.4662826 -0.28750318 0.04668307
0.15505765 -0.10490629 -0.11781989 -0.38822097 0.15424253 0.47823066 0.31559595 0.42733943
0.0148465885 -0.23525037 -0.04790278 -0.1269444 0.15405434 0.06917412 -0.24910206 0.24101783
-0.10304589 0.239389 0.10354615 0.2245233 -0.47866607 0.33364698 0.22514242 -0.06573349
0.51930135 0.06263832 -0.342678 0.032090336 0.24243334 -0.07380143 0.33565518 0.45586434
0.009490258 -0.72938627 -0.24099691 0.23522106 -0.2851092 0.5084711 -0.16547099 0.013255137
-0.34124878 -0.015784318 0.20254618 -0.6033345 -0.49924567 0.36245242 -0.24832995 0.21942821
-0.10977793 0.5318194 -0.04281951 -0.040954906 0.2558964 -0.036398795 0.38510677 0.10190475
-0.22848406 0.043115664 -0.12955774 -0.07916073 0.28268275 -0.5912884 0.07770834 -0.018890284
-0.25251442 -0.15512115 -0.12280331 -0.03363381 0.09162043 0.30077365 -0.33983746 0.46647316
-0.046374783 -0.3624693 -0.25547814 -0.3485782 0.17393535 0.084509164 0.2713364 0.44712073
-0.24945243 0.5843818 0.061530355 -0.3604549 -0.2140311 -0.44590726 -0.17709057 -0.4221947
0.29236153 -0.10099237 0.090920046 0.21857245 0.09738176 0.19163926 0.46094844 -0.28090036
0.10237649 0.21443999 -0.0034461243 -0.47127515 -0.13565193 0.30272138 -0.31215674 -0.16309153
0.3990916 -0.29408437 -0.840625 -0.39716452 0.23030709 0.18609545 0.5235868 -0.07761363
0.057305586 0.8812521 -0.42107776 -0.29056293 0.29255378 -0.21383113 -0.2802719 -0.04818323
0.54276395 -0.16348924 0.41023496 -0.30684224 0.33433723 -0.20335414 0.08485189 0.20230441
-0.10238387 0.14318772 -0.2787809 -0.15702312 -0.018280264 0.08472081 -0.65630215 0.5006318
-0.1617077 -0.19345199 0.011535137 -0.20691782 0.3138317 0.050835196 0.33139905 -0.076305434
-0.12420338 0.26597077 0.60859585 0.023759976 -0.37993884 -0.23155004 -0.2809604 -0.22792822
-0.04080953 -0.3254405 0.63805324 -0.00073649053 0.19195147 -0.21551245 -0.88162506 -0.16877097

weight f4 [12, 12]
00000000: 7267 4dbf 8071 50be eef1 fabc 6137 a9be
00000010: 7334 163e d866 88be c8cb f03a 9cc1 f9be
00000020: afbf 923e f2d8 e33d 25e7 ca3e a3f1 273c
00000030: b7ca fdbe 1c41 fcbe f53f 1c3d 0a62 c63e
00000040: bfc0 89bb 9ce9 adbe b677 26bf 3cc2 b03e
00000050: cfc8 73be 983b 003f de17 33bf 9371 da3e
00000060: 4700 bd3e 271f 9dbe 7e61 a6be 971d b7bd
00000070: eb7d 3e3e d855 df3e 1376 21bf 65aa cdbe
00000080: bc62 aebd bb4e b13e 1401 31be da48 8dbd
00000090: f11f 00bf 29cd df3e b39d 913e 854e 46be
000000a0: 7fb4 873e 7456 d2be 8b92 febe 86a7 2b3e
000000b0: 206a be3d 13f8 2f3e e78b cf3e 1908 c4bc
000000c0: c75f 16bf 5706 213d cefe 9fbe 60d6 113f
000000d0: 9a9a 35be f86e ed3e 8f0a ef3c 61bf bcbe
000000e0: b84c 0ebe 39fa 4f3e 3bbf 2fbe f29d 1fbf
000000f0: caaa c9bd c734 383f 6a40 913e 98af 4dbb
00000100: 3eff ffbe 5cec 023f 9c4c 76be 7512 1b3e
00000110: ebee 053f fc83 f7be bb2c 1ebe b459 6dbe
00000120: d552 a0bb d641 0ebf 8d97 683e 4220 9a3e
00000130: 318f 85be ae54 f3bb 6f2a e03e 20fa cb3d
00000140: 7229 f6bd b4a4 f23a fcba ec3d 7e90 ad3e
00000150: 886b 5f3f dd4a 1fbb 44d1 6abe 82ec 663e
00000160: 67f2 cc3c 5374 9fbe 4bba 543d e927 b43c
00000170: 4342 1a3f 38c5 76be de76 493e 7964 cd3d
00000180: cf05 0c3d 0c57 97bd 0687 42bd ceed 773d
00000190: ee01 a0be f053 a83e 0d77 123f 853d 873e
000001a0: 1b08 ffbe 2821 b93e d352 81be 4892 d33e
000001b0: 561b d8bd c218 5b3e 1b62 0cbf a205 e53c
000001c0: d8f3 76be b3bd 3a3d f849 babe 53fb 9c3e
000001d0: 7f5c 13be d765 d9be 8782 02be 3957 493e
000001e0: b1fc 4fbd 2ee9 53be c80a d63e ec34 a93e
000001f0: 3336 023f 1886 983e a3a2 75be 06f6 c4be
00000200: 4475 07bf 5c16 2fbf 6f81 3fbd 88f6 7fbe
00000210: f13b 2d3f cb45 9e3d f544 4c3e a79e 75be
00000220: fd0e 83be f01e 00bd 8134 47be eaca 4dbe
00000230: 378a 69be 6a5e ff3d d39d 303e 9238 63be
-0.8023597 -0.20355797 -0.03063294 -0.33050063 0.14668445 -0.26640964 0.0018371278 -0.48780525
0.28661868 0.111253634 0.39629474 0.010250482 -0.49568722 -0.49268425 0.03814693 0.38746673
-0.0042038853 -0.33967292 -0.65026414 0.3452319 -0.23807071 0.5009093 -0.69958293 0.42664775
0.36914274 -0.3068783 -0.32496256 -0.08941191 0.18602721 0.4362018 -0.6307079 -0.40169063
-0.08514926 0.3463038 -0.17285568 -0.06898661 -0.5004874 0.43711212 0.28440627 -0.1936589
0.26504895 -0.41081583 -0.49721178 0.16763124 0.092975855 0.17184477 0.40536425 -0.023929643
-0.58739895 0.039312687 -0.31249088 0.56967735 -0.17734757 0.46373725 0.02917984 -0.3686476
-0.13896453 0.20310296 -0.17162792 -0.6235038 -0.098470286 0.7195553 0.28369457 -0.003138518
-0.49999422 0.51141906 -0.24052662 0.1514376 0.52317685 -0.48342884 -0.15446751 -0.2317875
-0.004892687 -0.5556921 0.22714062 0.30102736 -0.2608581 -0.007425866 0.43782374 0.09959817
-0.12019624 0.001851222 0.11559102 0.338993 0.87273455 -0.0024306097 -0.22931391 0.22551158
0.02501793 -0.31143436 0.051935475 0.021991687 0.6025736 -0.2409867 0.1967425 0.10028929
0.034185227 -0.0738965 -0.04749205 0.060529523 -0.31251472 0.3287654 0.5721291 0.26414123
-0.4981087 0.3615811 -0.25258502 0.4132254 -0.10552089 0.21396163 -0.548372 0.027956787
-0.24116457 0.045591068 -0.3638456 0.30660495 -0.14390753 -0.4246051 -0.12745105 0.19662179
-0.050778095 -0.2069442 0.418051 0.3304819 0.5086395 0.29789805 -0.23987822 -0.3846895
-0.5291331 -0.6839349 -0.046754297 -0.24996388 0.6766959 0.07728156 0.1994818 -0.23986302
-0.25597373 -0.031279504 -0.19453622 -0.20096937 -0.22806631 0.1246918 0.17247705 -0.22189549

bias f4 [12]
00000000: cadb 5bbe 4166 4f3e 3b3e d83d 13ab a03e
00000010: 6c9e bbbe b7d0 3dbe b6cf 73be 2e9f 69be
00000020: c222 c9bd 3371 9bbd 7736 6c3e 4a3f 123e
-0.21470562 0.2025385 0.105587445 0.3138052 -0.36644304 -0.1853665 -0.23809704 -0.22814628
-0.09821083 -0.075899504 0.23067652 0.14281955

weight f4 [12]
00000000: 75d9 913f 491d a23f af4a 9f3f bd98 913f
00000010: bc20 863f 4930 8d3f 2dbd a93f 01cb 973f
00000020: dae2 803f 2a76 983f e0e2 5b3f 1c2c 943f
1.1394488 1.2665187 1.2444667 1.1374737 1.047874 1.103036 1.3260857 1.1858827
1.006923 1.1911061 0.8589306 1.1575961

bias f4 [12]
00000000: 1945 97bd 8c4a ad3c 3a50 acbd 9dfa 963e
00000010: b989 e6bd 24e4 84bd 5a7b 42bd 929a 11bc
00000020: e8d5 f3bd b63d 2b3e 6b18 e73d 432b 01be
-0.07386226 0.02115371 -0.084137395 0.29488078 -0.11256737 -0.06488827 -0.04748092 -0.00888695
-0.11906034 0.1672276 0.11283954 -0.1261416
