Case_Study_1/trained_transformer/verification/vit_24_1_6_24.pt (torch, 35175 bytes, 19 tensors)

pos_embedding f4 [1, 50, 24]
1.543056 0.64541507 -0.026290188 -2.1506875 0.42192417 0.5191268 0.87180245 0.7626519
0.4403716 -0.7990419 -0.5320354 0.0865231 -0.4581217 0.9353629 0.21891813 -0.8215151
0.093455575 0.88623327 -0.26564986 -0.18247582 -0.92170787 -0.6102055 0.88540435 -0.2074379
-0.33207136 1.3018893 -0.23375514 -0.39459085 -0.727058 0.17763524 0.40882745 0.16818486
-0.14716998 0.725078 0.306598 1.243422 0.22531155 -1.6419032 -0.6363744 0.46398976
1.8297603 0.16370797 0.283233 0.34710142 -0.16909182 -1.249059 0.7821611 0.801095
-0.6550366 0.9157381 0.29562828 0.59125286 -0.31715766 -0.60757875 0.541502 -1.7509863
-2.2262585 -1.3016654 0.2918189 -0.6088001 1.4006556 -1.0351403 1.6489197 0.123629585
1.2792894 -0.53621596 1.5812923 2.1531107 1.7245568 -1.1299524 1.0407617 -2.0319116
0.7553046 -0.23574072 -0.32716852 0.5281488 -0.69279754 1.0808065 -0.48746258 -1.1716528
1.0235561 0.024688737 -2.2371557 0.67466855 0.4922239 1.637939 -0.43653902 0.056110825
0.14890407 -0.121549115 -0.8477205 -0.52704865 -0.33223602 -0.19961557 0.0044552586 -1.2189914
-1.017414 -0.8080472 -0.8228128 -1.340376 0.25310382 -0.18449411 1.190106 -0.37097424
0.5947548 1.2631657 -0.56285286 -0.21798767 -0.738533 -0.12240314 1.7290726 2.04
-1.7434556 -0.9447699 0.40063787 2.8779356 -0.7813853 0.8721078 -0.8062287 1.608443
-0.35263523 0.09064793 0.30368328 -1.0099328 0.086015314 0.256383 1.3903375 1.2609497
-0.15249126 -0.12853742 -1.0864158 -1.5810758 -2.483693 0.6668598 0.30675867 -0.06595984
1.0444928 -1.1814739 0.35414723 0.87565595 0.33094925 -1.1722034 0.6581302 0.7064991
-0.9792697 -0.7527275 -0.80866647 2.2623081 0.19877437 0.29864424 -0.092895746 1.4118375
0.3715411 0.8148865 -0.815572 -1.1376044 0.4950332 -0.88219535 0.8823751 3.32137
-1.2864794 -1.0359485 0.27014917 0.7905699 -0.7521372 -0.88181037 1.5127603 2.4372602
-0.22754577 -0.45726565 1.1121968 -1.1925468 -0.62351274 -0.5419438 0.31145105 -0.21983235
-1.2854145 0.82765967 0.35870406 0.8523019 0.12211872 -0.14308964 0.063102245 1.1957089
0.4678282 -0.549743 -0.81302625 0.6052587 -0.21334614 -0.69384956 1.6326476 -0.8323902
-0.18208118 0.59481096 1.4849706 -1.3550259 0.9858657 0.56085044 0.17917453 0.5388592
1.278112 1.4200059 -1.8643061 1.3004894 0.22341034 -0.86324775 0.87192047 0.47843292
0.32095024 -0.8941254 1.8377546 -1.1868643 -1.5472876 -0.64828044 1.4694324 0.056986935
-1.6612165 1.7287089 0.39048758 1.7102191 0.13242303 0.6857337 -0.952487 2.0917141
1.0619823 -1.4735863 -0.21424481 1.110354 0.9611112 0.43036047 -0.67454785 0.29625347
0.24614422 -1.3825376 -1.4781216 -0.22882561 -0.8906965 -2.2741497 -0.53832203 -0.6746893
-0.2378293 0.64981824 -0.9770107 0.01119157 -0.45446527 -0.29952657 0.12067781 0.76358
0.6998158 0.6814325 0.6513256 0.5628139 0.41501075 -1.2468065 -0.20888545 0.18771575
00000000: dc82 c53f ec39 253f 855e d7bc dda4 09c0
00000010: 7206 d83e 7ee5 043f 722e 5f3f 283d 433f
00000020: 6378 e13e 038e 4cbf 7933 08bf 0633 b13d
00000030: ed8e eabe f173 6f3f 132c 603e d04e 52bf
00000040: a365 bf3d 2fe0 623f 4203 88be f1da 3abe
00000050: 0cf5 6bbf 6d36 1cbf dca9 623f 9a6a 54be
00000060: 4205 aabe 4fa4 a63f 825d 6fbe d007 cabe
00000070: 7920 3abf 03e6 353e d551 d13e a738 2c3e
00000080: bab3 16be b69e 393f 6afa 9c3e 7428 9f3f
00000090: 12b8 663e e229 d2bf 6fe9 22bf 1190 ed3e
000000a0: 9635 ea3f 10a3 273e ea03 913e 47b7 b13e
000000b0: 6826 2dbe 2ae1 9fbf b63b 483f 9014 4d3f
000000c0: 7bb0 27bf d06d 6a3f 975c 973e 595c 173f
000000d0: 7d62 a2be 488a 1bbf e09f 0a3f 5220 e0bf
000000e0: 057b 0ec0 f99c a6bf 4969 953e 53da 1bbf
000000f0: af48 b33f 7a7f 84bf cd0f d33f 8231 fd3d
00000100: c1bf a33f 7345 09bf c967 ca3f 91cc 0940
00000110: 47be dc3f 48a2 90bf ae37 853f d70a 02c0
00000120: a45b 413f 0466 71be a282 a7be c234 073f
00000130: 2e5b 31bf de57 8a3f b294 f9be b8f8 95bf
00000140: e303 833f 0940 ca3c 8f2d 0fc0 14b7 2c3f
00000150: c504 fc3e fca7 d13f 0b82 dfbe 77d4 653d
00000160: 4f7a 183e beee f8bd 3604 59bf a9ec 06bf
00000170: d71a aabe 0668 4cbe 6bfd 913b e907 9cbf
00000180: 9f3a 82bf 2edc 4ebf dca3 52bf 7191 abbf
00000190: d396 813e 06ec 3cbe 6555 983f 56f0 bdbe
000001a0: da41 183f 6aaf a13f 2017 10bf 2938 5fbe
000001b0: 8010 3dbf 7fae fabd 4052 dd3f 5c8f 0240
000001c0: 8e29 dfbf 71dc 71bf 6820 cd3e 1930 3840
000001d0: de08 48bf 7542 5f3f 0165 4ebf 76e1 cd3f
000001e0: 9b8c b4be 9fa5 b93d 607c 9b3e 7a45 81bf
000001f0: cc28 b03d a244 833e 94f6 b13f cd66 a13f
00000200: ab26 1cbe 509f 03be ac0f 8bbf b160 cabf
00000210: d3f4 1ec0 53b7 2a3f 790f 9d3e f415 87bd
00000220: f1b1 853f 893a 97bf c952 b53e fd2a 603f
00000230: 2e72 a93e c30a 96bf 397b 283f 20dd 343f
00000240: 6bb1 7abf c0b2 40bf c404 4fbf a8c9 1040
00000250: 828b 4b3e e6e7 983e 2040 bebd 17b7 b43f
00000260: a33a be3e 679c 503f 54c9 50bf 059d 91bf
00000270: fe74 fd3e 8ed7 61bf 56e3 613f 5391 5440
00000280: 5bab a4bf f699 84bf fe50 8a3e ca62 4a3f
00000290: 108c 40bf 53be 61bf 21a2 c13f 12fc 1b40
000002a0: c201 69be b91e eabe 775c 8e3f 60a5 98bf
000002b0: 889e 1fbf d4bc 0abf 8376 9f3e bb1b 61be
000002c0: 7688 a4bf 81e1 533f 0fa8 b73e 7530 5a3f
000002d0: 6119 fa3d 1786 12be c03b 813d fd0c 993f
000002e0: 2e87 ef3e f5bb 0cbf 7d22 50bf 3cf2 1a3f
000002f0: 6977 5abe 20a0 31bf 99fa d03f 8617 55bf
00000300: 7d73 3abe 8845 183f 8413 be3f 7d71 adbf
00000310: b261 7c3f e593 0f3f 8779 373e adf2 093f
00000320: 2d99 a33f c1c2 b53f 95a1 eebf 7076 a63f
00000330: aec5 643e cefd 5cbf 2e36 5f3f 29f5 f43e
00000340: 9753 a43e 67e5 64bf 8b3b eb3f 2beb 97bf
00000350: 850d c6bf b5f5 25bf 5c16 bc3f 226b 693d
00000360: bea2 d4bf 5546 dd3f fded c73e 76e8 da3f
00000370: e799 073e 3e8c 2f3f 30d6 73bf a5de 0540
00000380: 09ef 873f 7a9e bcbf fe62 5bbe 1420 8e3f
00000390: 620b 763f 3558 dc3e 2baf 2cbf 89ae 973e
000003a0: 3b0d 7c3e fef6 b0bf 1733 bdbf 4351 6abe
000003b0: b004 64bf ab8b 11c0 79cf 09bf 70b8 2cbf
000003c0: 8689 73be 7d5a 263f 601d 7abf d95c 373c
000003d0: acaf e8be 8c5b 99be ed25 f73d fb79 433f
000003e0: 2127 333f 5c72 2e3f 46bd 263f 9214 103f
000003f0: 4a7c d43e 5b97 9fbf 11e6 55be 8f38 403e

cls_token f4 [1, 1, 24]
-0.081590384 -0.05604977 0.13873748 -0.9904564 0.30971172 -0.20975971 0.051909097 -0.17662825
0.0989631 1.5010594 0.8568186 0.38403288 1.1771079 0.31078824 0.36610898 0.42829767
0.5799938 1.4090804 0.8785823 0.5116518 1.4390979 1.1822898 -0.69228524 0.2430664
00000000: dc18 a7bd 7294 65bd 3311 0e3e 8d8e 7dbf
00000010: 8992 9e3e 40cb 56be a29e 543d 09de 34be
00000020: 2aad ca3d b722 c03f 7758 5b3f f59f c43e
00000030: 79ab 963f a31f 9f3e a372 bb3e d549 db3e
00000040: 797a 143f bf5c b43f c5ea 603f 9dfb 023f
00000050: 5c34 b83f 4655 973f 9b39 31bf 66e6 783e

weight f4 [24, 16]
-0.81858 -0.05090313 -0.12973106 0.2166875 -0.13085462 0.044796243 -0.041988123 0.051514935
0.081659965 -0.36984366 -0.20243983 -0.4116058 0.15805812 -0.22403678 0.10485192 -0.42800888
-0.18348448 0.07213392 -0.098405704 -0.19553691 -0.37118864 -0.16628586 -0.013556476 0.2273876
-0.1387924 -0.106081136 -0.030510914 0.05342046 0.03878512 0.034062635 -0.017923554 -0.3153063
-0.05341963 -0.003215898 -0.3292229 -0.071110144 -0.24335915 -0.25007853 -0.028245386 -0.17722952
-0.20854463 -0.35052085 -0.1914694 -0.23245268 0.12123937 -0.03022239 0.2645042 0.24604283
0.318342 0.44153553 0.6108124 0.42746094 0.07960501 -0.100605555 0.004085761 -0.004368329
0.11127147 -0.30869222 -0.52902806 -0.31724232 -0.20330659 -0.29745632 0.115152195 -0.146372
-0.06613048 0.19322297 0.37663808 -0.022021618 0.21830344 -0.069261245 -0.051898308 -0.16197631
-0.06822904 -0.04181367 0.17180513 -0.05934502 0.25375974 0.3245721 0.09225869 0.10564015
0.12578395 0.002246511 0.022986865 0.1880876 -0.23797329 -0.05205156 0.051330958 0.13301677
-0.23195107 -0.2061596 -0.15570104 0.15783808 -0.4795587 -0.1404896 -0.039335083 -0.13384074
0.48367754 0.4029714 0.08326706 0.349287 0.10893577 0.2003092 -0.082688615 0.39722192
-0.23422976 -0.16110863 0.0050576483 0.16146773 0.032738265 -0.10735775 0.109494254 0.17603032
0.2974974 0.23430037 0.43694448 -0.004259545 0.12930223 -0.07399764 -0.095853984 -0.104001015
0.12756802 -0.20085838 -0.19065905 -0.18820451 0.21077077 0.19777952 0.37891868 0.21938416
0.16426596 -0.029104168 0.23732418 0.1502187 -0.121489294 0.017821515 -0.11782528 0.12527399
-0.356221 -0.00029259955 0.13409026 -0.09592514 0.124252796 0.01960784 -0.020830223 0.14224082
0.420881 0.008310981 0.2390417 0.32052872 -0.039846107 0.13563143 0.081088655 0.16231203
0.1189785 0.118428 0.21006736 0.16979305 -0.20875975 -0.2810038 -0.27253115 -0.4627069
-0.11961151 -0.17095841 0.04932852 -0.5341199 -0.05947026 0.0019115949 -0.027656097 -0.37231684
-0.3348582 -0.42331296 -0.1941472 -0.360986 -0.60151774 -0.017759461 0.2698127 0.60442674
-0.07934723 0.31685397 0.3474193 0.51724964 0.07215833 0.23489645 0.28618398 0.68974435
0.05109334 0.36429998 0.23641022 0.451466 -0.103136875 0.09254583 0.063654006 -0.0027179653
-0.45667735 -0.42808682 -0.42394057 -0.6282585 -0.06300595 0.16842434 -0.09642991 -0.50554526
-0.080690645 -0.0515522 0.14348039 -0.068228014 0.1345287 0.15869944 0.29258025 0.45771414
-0.32357138 -0.12869695 -0.17944829 -0.1427003 0.58013713 0.35283124 0.62421286 0.17909425
0.5178511 0.21463273 0.15106665 -0.05717039 -0.31231764 -0.048151333 -0.11261872 0.038429074
-0.0051703444 -0.22377075 -0.27882564 -0.06103149 -0.17728977 -0.120812275 0.11970779 0.03419798
0.26752687 0.21594006 0.319109 0.32669455 0.25398245 0.26433954 0.43331608 0.6196461
-0.60545826 -0.28722653 -0.08670342 0.26133862 -0.054334916 0.07897745 -0.117306605 0.045015454
-0.28468838 -0.06453922 -0.024070127 0.05338321 0.2874512 -0.110458955 -0.065698825 -0.16786437
00000000: 758e 51bf cd7f 50bd 38d8 04be 54e3 5d3e
00000010: c1fe 05be 447c 373d bdfb 2bbd 5301 533d
00000020: 573d a73d 265c bdbe 634c 4fbe ffbd d2be
00000030: fdd9 213e e669 65be 9abc d63d fb23 dbbe
00000040: 5be3 3bbe f3ba 933d ee88 c9bd d43a 48be
00000050: 700c bebe d746 2abe fb1b 5ebc 4cd8 683e
00000060: 981f 0ebe 1141 d9bd 06f2 f9bc 6acf 5a3d
00000070: 25dd 1e3d 4385 0b3d 6bd4 92bc d46f a1be
00000080: 8bce 5abd d1c1 52bb e78f a8be 32a2 91bd
00000090: 2433 79be 4b0a 80be de62 e7bc a87b 35be
000000a0: b98c 55be 7877 b3be 8e10 44be 1308 6ebe
000000b0: 594c f83d f294 f7bc 186d 873e a7f2 7b3e
000000c0: b9fd a23e f210 e23e 345e 1c3f 29dc da3e
000000d0: f407 a33d 490a cebd d9e1 853b 3324 8fbb
000000e0: 4ce2 e33d e80c 9ebe 626e 07bf 966d a2be
000000f0: 9a2f 50be 324c 98be ead4 eb3d 8be2 15be
00000100: 6b6f 87bd 3edc 453e b5d6 c03e ae66 b4bc
00000110: f08a 5f3e d7d8 8dbd 5293 54bd 1edd 25be
00000120: abbb 8bbd d044 2bbd afed 2f3e c413 73bd
00000130: ccec 813e 502e a63e 20f2 bc3d dd59 d83d
00000140: 82cd 003e 333a 133b f34e bc3c 099a 403e
00000150: 45af 73be 0434 55bd 6940 523d 8c35 083e
00000160: 9584 6dbe 811b 53be 1870 1fbe 4ea0 213e
00000170: b888 f5be 81dc 0fbe d31d 21bd 8c0d 09be
00000180: 95a4 f73e 4452 ce3e ec87 aa3d bfd5 b23e
00000190: b819 df3d db1d 4d3e a658 a9bd ac60 cb3e
000001a0: edd9 6fbe a9f9 24be a1ba a53b cc57 253e
000001b0: 8f18 063d 61de dbbd 863e e03d 4b41 343e
000001c0: 9451 983e 70ec 6f3e 30b7 df3e a793 8bbb
000001d0: ce67 043e 138c 97bd 184f c4bd 7cfe d4bd
000001e0: 31a1 023e d2ad 4dbe 203c 43be afb8 40be
000001f0: 4bd4 573e b786 4a3e a101 c23e 3ea6 603e
00000200: 5635 283e dd6b eebc 1c05 733e eed2 193e
00000210: 61cf f8bd 6dfe 913c 614e f1bd d347 003e
00000220: 9962 b6be 0c68 99b9 f54e 093e 6674 c4bd
00000230: 4078 fe3d 9fa0 a03c 25a4 aabc 94a7 113e
00000240: b77d d73e c82a 083c 59c7 743e 571c a43e
00000250: ac35 23bd f7e2 0a3e cf11 a63d 2035 263e
00000260: 00ab f33d 618a f23d e61b 573e 3bde 2d3e
00000270: 1ec5 55be bbdf 8fbe 3489 8bbe ebe7 ecbe
00000280: e1f6 f4bd b90f 2fbe b40c 4a3d 15bc 08bf
00000290: 1697 73bd 7b8e fa3a 0a8f e2bc 50a0 bebe
000002a0: 8972 abbe 7abc d8be 86ce 46be 28d3 b8be
000002b0: 11fd 19bf 4a7c 91bc e424 8a3e b6bb 1a3f
000002c0: cd80 a2bd af3a a23e f1e0 b13e 796a 043f
000002d0: bfc7 933d b288 703e b586 923e 1693 303f
000002e0: 4047 513d 8785 ba3e 8515 723e 8d26 e73e
000002f0: 6d39 d3bd ab88 bd3d 085d 823d e41f 32bb
00000300: 9dd1 e9be 322e dbbe bd0e d9be 8dd5 20bf
00000310: 4309 81bd 6e77 2c3e 0b7d c5bd 6a6b 01bf
00000320: 2341 a5bd 6628 53bd 86ec 123e 21bb 8bbd
00000330: e4c1 093e 1b82 223e 14cd 953e 8259 ea3e
00000340: 26ab a5be 22c9 03be 4bc1 37be 0720 12be
00000350: de83 143f 4ca6 b43e 6acc 1f3f 7c64 373e
00000360: e491 043f afc8 5b3e 37b1 1a3e 802b 6abd
00000370: 19e8 9fbe 553a 45bd a5a4 e6bd ce67 1d3d
00000380: fe6b a9bb 2924 65be 3cc2 8ebe 28fc 79bd
00000390: 738b 35be 6d6c f7bd 5c29 f53d 2e13 0c3d
000003a0: 48f9 883e 641f 5d3e 4162 a33e 8244 a73e
000003b0: fd09 823e 8357 873e 9bdb dd3e 20a1 1e3f
000003c0: 50ff 1abf 5b0f 93be 9091 b1bd 2dce 853e
000003d0: 4a8e 5ebd eebe a13d 723e f0bd 2062 383d
000003e0: adc2 91be 232d 84bd b72e c5bc 5aa8 5a3d
000003f0: ce2c 933e 4e38 e2bd 1b8d 86bd a3e4 2bbe

bias f4 [24]
0.0012405567 -0.0020883023 0.12060325 -0.32454184 -0.0045067454 0.0036774168 -0.2942267 0.060969476
0.23332952 -0.21090162 0.2768467 -0.13327464 0.28459716 -0.032402676 -0.22563936 0.16284859
0.09702102 -0.044289783 -0.031795856 0.2349769 0.08611881 -0.23850174 -0.06545606 -0.01753496
00000000: 2d9a a23a e6db 08bb d6fe f63d 592a a6be
00000010: 52ad 93bb d100 713b e2a4 96be 21bb 793d
00000020: efed 6e3e 98f6 57be dabe 8d3e 2679 08be
00000030: b8b6 913e abb8 04bd 010e 67be c8c1 263e
00000040: f5b2 c63d 3469 35bd 5f3c 02bd c99d 703e
00000050: 0f5f b03d cd39 74be d40d 86bd 7aa5 8fbc

weight f4 [24]
1.0266594 0.99432 1.1935054 0.8547871 0.86602837 1.0500317 1.0211383 1.0851356
1.2291288 1.1465198 1.0189241 1.1807145 0.98176223 0.9439329 1.1711085 1.032276
0.86021763 0.92001307 1.1264284 1.0719513 1.1752944 0.94788605 1.0441575 0.89476043
00000000: 9369 833f c18b 7e3f c9c4 983f 54d3 5a3f
00000010: 09b4 5d3f 7067 863f a9b4 823f b9e5 8a3f
00000020: 1854 9d3f 29c1 923f 1b6c 823f a721 973f
00000030: c554 7b3f 96a5 713f e2e6 953f 9f21 843f
00000040: 3937 5c3f fa85 6b3f ce2e 903f b335 893f
00000050: 0c70 963f a9a8 723f f4a6 853f 050f 653f

bias f4 [24]
0.025273578 0.064194135 0.16607034 0.203769 -0.1774889 0.15380849 -0.19284546 -0.14058092
-0.104744166 -0.15402973 0.13083619 -0.079845436 -0.0049086497 -0.11505903 -0.15509379 0.25001526
-0.18892202 -0.13001043 -0.07751658 0.11094531 -0.0065563046 -0.10520168 0.21983813 0.21348536
00000000: 890a cf3c 3778 833d 580e 2a3e d2a8 503e
00000010: a6bf 35be f97f 1d3e 4879 45be 72f4 0fbe
00000020: 1c84 d6bd f8b9 1dbe ecf9 053e 0186 a3bd
00000030: bdd8 a0bb 12a4 ebbd e8d0 1ebe 0002 803e
00000040: c674 41be 7421 05be 03c1 9ebd 4b37 e33d
00000050: 45d6 d6bb fa73 d7bd 3f1d 613e e89b 5a3e

weight f4 [72, 24]
-0.06565742 0.08317593 0.016651617 0.097761825 -0.092114195 -0.10693185 0.077440694 -0.2013951
-0.046662785 0.13661094 0.16591409 -0.047335755 0.058377888 0.19561918 -0.1281968 -0.17299728
-0.2095789 0.025177281 0.13319607 -0.047516335 0.13113531 0.07125301 -0.13208175 0.04092997
0.08729416 0.24518113 0.037391875 -0.2757351 0.25627223 -0.13799661 -0.042496994 0.1763082
0.0821281 0.148983 0.18125804 0.05830968 0.2231463 -0.024630973 0.23650046 -0.10142791
0.12302598 0.25044408 0.12649266 -0.13310029 -0.07451539 -0.025191955 -0.050204843 0.10070855
-0.07990206 -0.013307204 -0.24797076 0.074378766 -0.10815609 -0.0061133048 0.14856492 0.48033455
0.07166028 0.24809615 -0.26546958 -0.019998973 0.09491607 0.020690314 0.30141446 -0.23734829
0.19517641 0.27860788 -0.0013719448 -0.16041504 0.20364729 0.16039667 -0.10659418 -0.23077433
-0.060501665 -0.10907886 0.051970143 0.21135812 -0.2686316 0.04785904 -0.22065464 0.19551279
-0.0051503014 -0.05500453 0.011452291 0.21412177 -0.3038142 -0.1114269 0.058178686 0.1339048
0.24419688 -0.04251544 0.054047026 0.15547119 -0.018808203 0.17658928 -0.05476238 0.20351742
0.21691696 0.042528592 -0.009676815 0.033115245 -0.15312018 -0.19222145 -0.05813419 -0.047640327
-0.007200909 0.17487149 0.094093844 -0.21730435 -0.03063091 0.005425926 0.020850118 -0.118319556
0.012837705 -0.12054432 -0.03520215 -0.14867155 0.08876583 0.06911453 0.043680776 0.05209581
-0.10713938 -0.01718159 0.024975227 0.26195896 0.111609645 0.12090799 -0.017686207 -0.16426316
-0.22380066 -0.17755504 0.021536168 -0.096787855 0.08098989 -0.09536498 0.3130347 0.10401257
-0.055216882 0.0317413 -0.09360855 0.18757005 -0.16365501 -0.10153832 0.23933722 0.14532991
0.16275367 0.037863985 0.1662754 0.11534597 -0.14761376 0.020905176 -0.03007166 -0.12477176
-0.11139289 0.11192067 0.09298847 -0.057353646 -0.1118842 0.1786209 0.3981404 0.12376459
-0.266323 0.13407123 -0.1482757 -0.11487613 0.08772012 0.1432625 0.115660034 0.027516674
-0.067626685 -0.053252775 0.19330387 0.09136884 -0.21526475 0.005467889 -0.15691964 0.06763395
0.26613086 -0.2184393 -0.014839755 0.25377747 0.08001306 -0.24329557 -0.46170396 0.1879839
-0.06289349 -0.20065537 -0.07281003 -0.06948828 0.037645917 -0.1150222 -0.111527786 0.1603852
0.26356018 0.23577514 -0.20250712 -0.16053012 0.09543207 -0.17328115 0.2625758 0.26366824
0.20928964 0.30649415 0.12995143 -0.10249143 0.35603175 0.28746805 0.6930523 -0.032728385
0.077761695 0.048282515 0.17012475 -0.18607596 0.029414078 0.17728145 -0.24489377 -0.2779136
0.07529205 -0.059754524 -0.08686819 -0.1220351 0.008521096 0.13204968 0.07854082 0.0026779845
0.063053295 0.20661198 0.038200542 -0.065253496 0.2031541 -0.005383454 -0.5095762 0.11040681
0.050428934 0.010794246 0.16424748 0.12571502 0.0077400184 0.095889196 0.0059795096 -0.053473294
0.068202876 -0.028211603 0.12018824 0.10091058 -0.21194352 -0.002428337 -0.10508998 -0.051877916
-0.27649453 -0.15786088 -0.2848567 0.034971572 0.076021545 0.031039545 -0.061751846 -0.044930466
00000000: 6677 86bd 2458 aa3d f968 883c 5a37 c83d
00000010: 5ea6 bcbd 16ff dabd 3a99 9e3d 843a 4ebe
00000020: 7a21 3fbd bde3 0b3e 62e5 293e 23e3 41bd
00000030: a71d 6f3d 6550 483e 0646 03be 3326 31be
00000040: da9b 56be 9640 ce3c 8d64 083e 7da0 42bd
00000050: 5648 063e 19ed 913d 7040 07be 2fa6 273d
00000060: 48c7 b23d c310 7b3e 3928 193d 272d 8dbe
00000070: 1d36 833e fc4e 0dbe 5411 2ebd 238a 343e
00000080: c732 a83d 008f 183e b59b 393e 22d6 6e3d
00000090: 7780 643e e5c6 c9bc 2d2d 723e 70b9 cfbd
000000a0: 0cf5 fb3d 353a 803e 4b87 013e 714b 08be
000000b0: 869b 98bd 5c5f cebc 98a3 4dbd 4940 ce3d
000000c0: b1a3 a3bd 7506 5abc 0cec 7dbe e553 983d
000000d0: f180 ddbd 1e52 c8bb 6721 183e 69ee f53e
000000e0: a0c2 923d eb0c 7e3e a1eb 87be e3d4 a3bc
000000f0: 5b63 c23d bc7e a93c ff52 9a3e 6e0b 73be
00000100: 53dc 473e b1a5 8e3e d4d2 b3ba d743 24be
00000110: ea88 503e 063f 243e 0d4e dabd 1b50 6cbe
00000120: 98d0 77bd bd64 dfbd a5de 543d 436e 583e
00000130: 158a 89be d707 443d 4af3 61be 8134 483e
00000140: dcc3 a8bb 6e4c 61bd 64a2 3b3c bd42 5b3e
00000150: 898d 9bbe c933 e4bd c64c 6e3d 571e 093e
00000160: bf0e 7a3e ac24 2ebd 6a60 5d3d d733 1f3e
00000170: a913 9abc d2d3 343e 844e 60bd df66 503e
00000180: 7b1f 5e3e 7632 2e3d 818b 1ebc daa3 073d
00000190: 89cb 1cbe b3d5 44be 1e1e 6ebd 8122 43bd
000001a0: 9af5 ebbb 8311 333e 46b4 c03d 0885 5ebe
000001b0: aded fabc f7cb b13b decd aa3c 8651 f2bd
000001c0: 3d55 523c f1df f6bd 2130 10bd 5b3d 18be
000001d0: dcca b53d eb8b 8d3d 9dea 323d 6b62 553d
000001e0: e46b dbbd 68c0 8cbc d998 cc3c 7c1f 863e
000001f0: 9993 e43d 9c9e f73d aae2 90bc 9a34 28be
00000200: 002c 65be fdd0 35be 9e6c b03c b638 c6bd
00000210: 07de a53d b74e c3bd 1646 a03e 8b04 d53d
00000220: 192b 62bd 2a03 023d d7b5 bfbd 5d12 403e
00000230: 2e95 27be 53f3 cfbd d114 753e 5dd1 143e
00000240: e6a8 263e 4417 1b3d 1944 2a3e 823a ec3d
00000250: 1028 17be 5541 ab3c d858 f6bc 5688 ffbd
00000260: f521 e4bd aa36 e53d bd70 be3d a8eb 6abd
00000270: 8b23 e5bd 66e8 363e 0fd9 cb3e 4a78 fd3d
00000280: 7d5b 88be f849 093e 96d5 17be 2d44 ebbd
00000290: 9ba6 b33d 68b3 123e 2bdf ec3d a66a e13c
000002a0: dc7f 8abd 951f 5abd 73f1 453e 961f bb3d
000002b0: 5d6e 5cbe fa2b b33b 8baf 20be ab83 8a3d
000002c0: 4e42 883e 8dae 5fbe 7222 73bc 1fef 813e
000002d0: e3dd a33d 7922 79be 7664 ecbe da7e 403e
000002e0: 4dce 80bd 9a78 4dbe 6d1d 95bd df4f 8ebd
000002f0: 9b32 1a3d c290 ebbd ae68 e4bd 053c 243e
00000300: 5cf1 863e 0a6f 713e 075e 4fbe 0262 24be
00000310: e471 c33d 9d70 31be 5670 863e 86ff 863e
00000320: 0650 563e cdec 9c3e fd11 053e 07e7 d1bd
00000330: cb49 b63e 032f 933e e06b 313f 330e 06bd
00000340: 8641 9f3d e3c3 453d 2f35 2e3e b28a 3ebe
00000350: cbf5 f03c 4589 353e 6fc5 7abe b14a 8ebe
00000360: b832 9a3d 29c1 74bd f3e7 b1bd 8aed f9bd
00000370: 119c 0b3c 0838 073e 02da a03d 2081 2f3b
00000380: 1622 813d 1792 533e 2c78 1c3d a0a3 85bd
00000390: a107 503e af67 b0bb 9673 02bf f71c e23d
000003a0: 928e 4e3d 59da 303c 7e30 283e 70bb 003e
000003b0: fb9f fd3b 8e61 c43d c3ef c33b d006 5bbd
000003c0: f3ad 8b3d 051c e7bc 4125 f63d 35aa ce3d
000003d0: b907 59be bc24 1fbb 6a39 d7bd f07d 54bd
000003e0: b190 8dbe 48a6 21be bdd8 91be 5a3e 0f3d
000003f0: 2fb1 9b3d a546 fe3c 81ef 7cbd 0209 38bd

weight f4 [24, 24]
-0.055602614 -0.12080739 -0.39087242 -0.2691186 -0.20772044 -0.41160518 0.3149702 -0.27160695
-0.044856783 0.3697082 -0.70074326 0.1558669 0.14754035 -0.43013218 -0.0966996 -0.6286912
0.10633029 -0.12302415 0.3137281 -0.22258586 -0.12723063 -0.16664223 -0.1656661 0.116984405
-0.17841859 0.54049754 -0.2681089 0.08235828 -0.0075036185 -0.034540713 0.12415573 -0.16365902
0.16495061 0.44535708 0.23582895 0.2662066 -0.36428666 0.14126857 -0.116016746 -0.11917178
0.40826732 -0.04273531 0.13989164 -0.03506028 -0.5377816 -0.29833445 0.3562695 0.33287123
0.04867586 0.09448578 0.6911794 0.20518872 -0.10476451 -0.04224506 0.011651337 0.036489867
0.043075215 0.07229265 0.23214169 -0.024846524 -0.16313814 -0.2689126 -0.07312135 0.071697995
0.7477878 -0.1763639 0.21945229 -0.37722367 0.11995426 0.056422733 0.35826075 -0.26992357
0.07746983 -0.04066534 0.14625467 0.21213008 -0.08787326 0.07038014 0.26940724 -0.2643677
0.05089695 0.28378928 0.27921218 -0.14562638 0.4277484 0.26362303 0.30697262 0.33524266
-0.41566375 0.41861287 -0.3551668 0.2722912 0.1941494 0.2831626 -0.032414775 0.6638856
-0.42075053 -0.11456274 -0.08815176 -0.29592532 0.062800735 0.051777355 -0.2821113 -0.26445073
-0.24672034 0.32228166 -0.26984736 -0.22972324 -0.05601797 0.20920542 0.5717938 0.05549281
-0.1160911 0.06438526 0.6615156 0.29901156 -0.23565061 0.2041489 -0.012704327 -0.004907907
-0.1773334 0.054337375 -0.08394516 -0.34402767 0.10448344 0.34538963 0.1243309 0.122923106
0.57933706 0.22135833 -0.2679385 0.04424447 -0.39042705 -0.3012246 0.35542288 0.26847738
0.3449785 0.13365106 0.15653846 0.12930004 0.21198145 0.061060213 -0.07094865 0.31870362
-0.11917542 0.08317467 0.0850788 -0.28748783 0.31104147 -0.10426334 0.37579438 0.02713027
0.59343743 0.7148027 0.020822817 -0.5127266 0.32195982 -0.13809432 -0.31820506 -0.1489939
-0.30740133 -0.64615864 0.5208589 0.07174291 0.5365937 0.14056773 0.12554507 -0.034387626
0.22704619 -0.3285586 0.031194197 0.05096235 0.33874562 -0.29637644 -0.27618513 0.23539066
-0.22614945 -0.18726403 0.18307391 0.012028108 0.018970031 0.23098817 0.17942983 0.07348369
-0.32363826 -0.15494883 0.47922003 -0.40455565 0.23084721 -0.31646377 0.7197471 0.32079515
-0.23251757 -0.30871138 0.43979093 0.40542135 0.31567702 -0.23343511 0.016748957 -0.198029
-0.2929742 -0.15487257 -0.17694174 0.19926757 0.11452265 0.39977747 0.024734423 -0.23659307
-0.44276452 0.064653285 0.08878435 0.118559025 -0.20728734 -0.3034904 0.21123952 0.046714377
-0.4807235 -0.055923138 -0.1017321 0.22026552 -0.044897206 0.2933631 0.54121536 0.14333202
0.023070626 -0.27175108 -0.26395598 0.63811415 0.26821044 -0.09295425 -0.3197052 0.47366777
-0.23681934 -0.26878896 0.0359235 0.5507939 -0.3208054 -0.54138327 -0.044424646 -0.17686042
-0.10447948 0.09423952 -0.27332917 0.12400904 0.24425119 -0.04483286 -0.4912562 -0.21955425
0.18595165 0.1614483 -0.061242 -0.078826435 0.19408152 -0.17236511 -0.5561898 -0.29152116
00000000: 91bf 63bd dd69 f7bd 6e20 c8be eac9 89be
00000010: abb4 54be eabd d2be c643 a13e 1110 8bbe
00000020: bfbb 37bd 654a bd3e e963 33bf 939b 1f3e
00000030: d114 173e 493a dcbe 710a c6bd e8f1 20bf
00000040: b2c3 d93d 16f4 fbbd f8a0 a03e 8ced 63be
00000050: bf48 02be 43a4 2abe 60a4 29be 8595 ef3d
00000060: 5db3 36be 0c5e 0a3f 9245 89be 75ab a83d
00000070: eae0 f5bb 907a 0dbd 5c45 fe3d 3b96 27be
00000080: d0e8 283e d805 e43e 257d 713e 3b4c 883e
00000090: c883 babe b5a8 103e 309a edbd 5610 f4bd
000000a0: 6a08 d13e 380b 2fbd c13f 0f3e 5e9b 0fbd
000000b0: 0eac 09bf 4bbf 98be f568 b63e 196e aa3e
000000c0: 5760 473d c381 c13d 22f1 303f fe1c 523e
000000d0: c78e d6bd 2809 2dbd 40e5 3e3c 6676 153d
000000e0: a36f 303d 2b0e 943d 8db6 6d3e f08a cbbc
000000f0: af0d 27be eaae 89be a5c0 95bd 66d6 923d
00000100: 056f 3f3f bd98 34be 1ab8 603e 7623 c1be
00000110: 94aa f53d 861b 673d f46d b73e 6c33 8abe
00000120: 81a8 9e3d b390 26bd c9c3 153e a138 593e
00000130: e5f6 b3bd 7623 903d bfef 893e 345b 87be
00000140: 5279 503d d44c 913e e6f4 8e3e 151f 15be
00000150: d701 db3e 99f9 863e 842b 9d3e eda4 ab3e
00000160: e1d1 d4be 6d54 d63e 6cd8 b5be c169 8b3e
00000170: 1acf 463e b0fa 903e 5bc5 04bd 68f4 293f
00000180: 9d6c d7be df9f eabd e988 b4bd 8683 97be
00000190: ac9d 803d 7e14 543d e470 90be 1666 87be
000001a0: 42a4 7cbe 1a02 a53e 6f29 8abe 923c 6bbe
000001b0: 1973 65bd f239 563e 1461 123f 6e4c 633d
000001c0: 2cc1 edbd 6bdc 833d 1659 293f 0b18 993e
000001d0: 654e 71be 690c 513e cf25 50bc 82d2 a0bb
000001e0: e396 35be de90 5e3d 71eb abbd 6524 b0be
000001f0: 6afb d53d e9d6 b03e 33a1 fe3d 1cbf fb3d
00000200: 6f4f 143f c2ab 623e 3c2f 89be b039 353d
00000210: 0ee6 c7be 1c3a 9abe fdf9 b53e de75 893e
00000220: 06a1 b03e d3db 083e 9e4b 203e 3b67 043e
00000230: aa11 593e 461a 7a3d 874d 91bd 1f2d a33e
00000240: 3e12 f4bd 7b57 aa3d cb3d ae3d 9b31 93be
00000250: d440 9f3e 0588 d5bd 1f68 c03e 4d40 de3c
00000260: 84eb 173f 4ffd 363f 9d94 aa3c 0d42 03bf
00000270: ebd7 a43e 9968 0dbe c6eb a2be db91 18be
00000280: b563 9dbe a76a 25bf 0257 053f f2ed 923d
00000290: 345e 093f fdf0 0f3e e38e 003e 0ada 0cbd
000002a0: cc7e 683e d538 a8be f98a ff3c e6bd 503d
000002b0: 1170 ad3e a7be 97be 2368 8dbe 400a 713e
000002c0: b993 67be 24c2 3fbe ba77 3b3e 8b11 453c
000002d0: 0a67 9b3c 2a88 6c3e 74bc 373e 9e7e 963d
000002e0: eab3 a5be e8aa 1ebe 545c f53e eb21 cfbe
000002f0: 3663 6c3e 8a07 a2be 5941 383f 433f a43e
00000300: 1619 6ebe 6b0f 9ebe 472c e13e 6393 cf3e
00000310: 6ba0 a13e 9d09 6fbe 1c35 893c 1dc8 4abe
00000320: b700 96be ea96 1ebe 3730 35be cc0c 4c3e
00000330: da8a ea3d a2af cc3e d89f ca3c 7445 72be
00000340: 08b2 e2be f168 843d 92d4 b53d 13cf f23d
00000350: 2243 54be 1863 9bbe 2c4f 583e 9357 3f3d
00000360: 6421 f6be a90f 65bd eb58 d0bd 498d 613e
00000370: 22e6 37bd b033 963e 178d 0a3f a1c5 123e
00000380: 9cfe bc3c f522 8bbe 3d25 87be 735b 233f
00000390: e152 893e cc5e bebd 66b0 a3be 9584 f23e
000003a0: c580 72be b59e 89be 8524 133d d400 0d3f
000003b0: 9b40 a4be 1898 0abf 9ef6 35bd e61a 35be
000003c0: 56f9 d5bd a600 c13d cdf1 8bbe 74f8 fd3d
000003d0: fc1c 7a3e a9a2 37bd ef85 fbbe d4d2 60be
000003e0: 1c6a 3e3e b452 253e e4d8 7abd c16f a1bd
000003f0: 4ebd 463e 7b80 30be 7462 0ebf 4342 95be

bias f4 [24]
-0.24392559 -0.180847 0.30630937 0.041911103 -0.17795971 -0.15280879 -0.11201435 0.019321783
0.09251448 -0.05713079 0.07823958 0.003289655 -0.24912065 -0.013084278 0.024640074 -0.019502109
-0.035216928 0.011392072 0.0056203343 -0.07221722 0.041659873 0.1467106 0.14011104 0.1819142
00000000: a1c7 79be f52f 39be 95d4 9c3e faaa 2b3d
00000010: 123b 36be e879 1cbe c867 e5bd b748 9e3c
00000020: 3b78 bd3d fa01 6abd 133c a03d 4197 573b
00000030: 7c19 7fbe 715f 56bc fbd9 c93c e3c2 9fbc
00000040: a03f 10bd d0a5 3a3c c82a b83b 9fe6 93bd
00000050: 8ba3 2a3d 4e3b 163e 4579 0f3e b747 3a3e

weight f4 [24]
1.1528604 1.1162863 1.4212027 0.84703153 1.0457418 1.054113 1.0854142 0.9413907
1.0388261 1.2335296 1.0829023 1.131801 1.3520226 1.1302757 1.1950064 0.90684986
1.0286279 0.9330054 1.0540775 0.9922866 0.8531372 0.9420797 1.1065778 1.1515833
00000000: ee90 933f 78e2 8e3f f8e9 b53f 0fd7 583f
00000010: deda 853f 2ded 863f daee 8a3f fbfe 703f
00000020: 41f8 843f 4ce4 9d3f 8b9c 8a3f dbde 903f
00000030: 140f ad3f e0ac 903f f8f5 983f 5027 683f
00000040: 14aa 833f 71d9 6e3f 03ec 863f 7f06 7e3f
00000050: 3367 5a3f 232c 713f 57a4 8d3f 1567 933f

bias f4 [24]
-0.14414373 -0.3551136 0.019298421 0.22931093 -0.18223341 -0.16672155 -0.094022304 -0.2197925
0.027608257 -0.09833523 -0.04372846 0.16342884 0.0063321157 -0.21351099 0.15166779 0.11756778
0.1660899 -0.32284102 -0.24487454 -0.177013 -0.15883227 -0.015406914 -0.046006277 0.14614679
00000000: 6a9a 13be 73d1 b5be b917 9e3c 7cd0 6a3e
00000010: 659b 3abe 0eb9 2abe c48e c0bd 4911 61be
00000020: b62a e23c fb63 c9bd 9d1c 33bd e459 273e
00000030: a37d cf3b a0a2 5abe cd4e 1b3e 60c7 f03d
00000040: 7913 2a3e 6b4b a5be 64c0 7abe e542 35be
00000050: eda4 22be 486d 7cbc 1471 3cbd 81a7 153e

weight f4 [24, 24]
-0.28397685 -0.5120622 0.548709 0.2705232 0.07830457 0.055257548 0.12872362 0.18035029
-0.010157535 -0.48121732 0.10768863 0.39424017 -0.06355018 -0.02165786 -0.35947314 -0.24235423
-0.081461646 0.20788705 0.024942225 0.168263 -0.22974682 -0.22988959 0.2047101 -0.016316846
0.39524442 0.028791437 0.12636177 0.16119863 -0.060141936 0.3754094 0.050992418 -0.3258005
-0.22238885 -0.19884443 0.48994628 0.20998573 0.29922202 -0.5723924 -0.410758 -0.32570264
0.344278 -0.64583284 -0.25325236 -0.040266443 0.28227624 0.2837909 0.18248306 -0.299615
-0.12743872 0.27235764 0.6162048 -0.01373932 -0.19696243 0.1435996 -0.041550484 -0.41115466
-0.3272507 -0.14089714 0.09033862 -0.24345773 0.4073905 0.16814643 -0.40715474 -0.20087935
0.12182625 0.05817414 0.46869612 -0.055014506 -0.18193819 0.07684331 0.37906718 0.3354827
0.2559453 0.37756965 0.028897602 0.333729 0.026535658 0.17355369 -0.17270969 -0.12069268
0.15698324 0.15944748 0.29189473 -0.1836325 -0.40264204 -0.14158258 -0.2820291 -0.0935249
-0.30183405 0.112519704 0.4607006 0.11009091 0.27029315 -0.1457465 -0.587747 -0.20108947
0.20701487 -0.100626804 0.120686084 -0.111176364 0.12657006 -0.10412674 -0.18790556 -0.1063406
0.32187864 0.67011386 -0.16882187 -0.1821858 0.1530914 0.04701664 -0.54905653 0.15940645
-0.14069037 0.042451516 0.040476777 -0.167698 -0.26519337 0.06614733 0.2704938 -0.039954364
0.5709234 -0.24596277 -0.43837777 0.057692472 -0.013619619 0.16751532 -0.019879656 0.2614357
-0.09099025 -0.20427763 0.12625179 0.22307226 -0.0040831184 0.2806878 0.40477684 0.53358364
-0.14531955 0.06684009 -0.5562324 -0.16108291 -0.03108737 0.26397753 0.06613382 -0.0069529214
0.29325017 0.37327915 -0.1948166 -0.12177334 0.2076337 -0.10272355 0.093970545 0.25181192
-0.12114911 0.29378492 0.053440217 -0.026273951 0.20464633 0.03717157 -0.26089272 0.08444063
-0.466994 -0.014935457 -0.19550583 0.51121646 -0.30194774 0.17098276 -0.12667376 -0.15374625
-0.106149696 0.13415726 -0.086456016 0.38900322 0.20968868 0.33120078 -0.075509354 -0.03226616
-0.26044387 -0.6247008 -0.13641268 0.07461043 0.11470654 0.32819563 -0.5815503 0.42332265
-0.16814765 0.06898477 0.30016086 0.28424957 0.1594143 0.10670552 0.40712747 -0.25704637
0.25513995 0.19992957 -0.022377022 0.33009875 0.028989557 0.21068817 -0.29430687 -0.46456623
-0.2605906 -0.17105624 0.24035501 -0.21418768 -0.28951204 -0.39536357 0.18710218 0.28806517
0.12050143 0.16590716 -0.1773956 0.2871422 0.11244584 -0.2201803 -0.6462414 0.55226475
0.08714194 -0.44418022 0.5976898 0.14895256 0.076443285 0.24943204 -0.09973181 0.008415892
-0.19013731 -0.020707203 -0.25057712 0.7459859 0.41670123 -0.15279832 -0.25668988 -0.012187455
0.19104448 -0.28140512 0.18287408 0.50413764 -0.034781147 0.16337131 -0.3037639 0.09012339
0.20229626 -0.04590989 0.38706842 -0.15521622 -0.06696072 0.37955055 0.3492618 -0.20725688
-0.20543991 -0.4548849 0.22208357 -0.08033346 0.06445898 0.3428204 -0.2711 0.032070037
00000000: 6a65 91be 8216 03bf 3178 0c3f 0482 8a3e
00000010: 255e a03d bd55 623d 20d0 033e bfad 383e
00000020: ca6b 26bc 1e62 f6be db8b dc3d d9d9 c93e
00000030: 9926 82bd d36b b1bc dd0c b8be b52b 78be
00000040: 5dd5 a6bd 58e0 543e a353 cc3c 234d 2c3e
00000050: c042 6bbe 2d68 6bbe 869f 513e e8aa 85bc
00000060: 7a5d ca3e 05dc eb3c fb64 013e 4111 253e
00000070: 6457 76bd a935 c03e 6ddd 503d 53cf a6be
00000080: e7b9 63be e09d 4bbe 3dda fa3e 8006 573e
00000090: a133 993e 4f88 12bf df4e d2be 7fc2 a6be
000000a0: 3545 b03e 4d55 25bf 4baa 81be 6dee 24bd
000000b0: 8386 903e 0a4d 913e d7dc 3a3e 2367 99be
000000c0: 4c7f 02be 7672 8b3e 99bf 1d3f e31a 61bc
000000d0: 85b0 49be c60b 133e d730 2abd dd82 d2be
000000e0: 678d a7be 5747 10be 7403 b93d fc4c 79be
000000f0: 7d95 d03e 942e 2c3e 9676 d0be 51b3 4dbe
00000100: 0a80 f93d 0248 6e3d f0f8 ef3e e456 61bd
00000110: 014e 3abe 0660 9d3d 1815 c23e 63c4 ab3e
00000120: 430b 833e cf50 c13e aaba ec3c 87de aa3e
00000130: 4f61 d93c 0fb8 313e cfda 30be b92d f7bd
00000140: 37c0 203e 3346 233e 3a73 953e 280a 3cbe
00000150: 1927 cebe 06fb 10be 1e66 90be fc89 bfbd
00000160: fe89 9abe bb70 e63d f3e0 eb3e 5877 e13d
00000170: dd63 8a3e 923e 15be 9676 16bf 66ea 4dbe
00000180: b5fb 533e 6d15 cebd 442a f73d 6fb0 e3bd
00000190: 959b 013e 6640 d5bd 516a 40be 1ac9 d9bd
000001a0: 47cd a43e 958c 2b3f a4df 2cbe ea8e 3abe
000001b0: fec3 1c3e 8594 403d f88e 0cbf 723b 233e
000001c0: 2311 10be a4e1 2d3d faca 253d 06b9 2bbe
000001d0: 6dc7 87be 4078 873d 2a7e 8a3e 30a7 23bd
000001e0: 0928 123f aadd 7bbe 0d73 e0be f14e 6c3d
000001f0: d324 5fbc 2389 2b3e a9da a2bc e6da 853e
00000200: 1959 babd 282e 51be 2648 013e 0e6d 643e
00000210: aecb 85bb 50b6 8f3e e93e cf3e f098 083f
00000220: a6ce 14be 75e3 883d 3f65 0ebf ebf2 24be
00000230: f1aa febc 1028 873e 2b71 873d 55d5 e3bb
00000240: e324 963e 721e bf3e 017e 47be 4d64 f9bd
00000250: ee9d 543e b960 d2bd a173 c03d 7eed 803e
00000260: 061d f8bd fa6a 963e 21e4 5a3d 783c d7bc
00000270: cf8e 513e 3741 183d bb93 85be 36ef ac3d
00000280: d619 efbe d9b3 74bc ae32 48be 15df 023f
00000290: e598 9abe 1b16 2f3e c4b6 01be a86f 1dbe
000002a0: 0365 d9bd 8560 093e da0f b1bd 6e2b c73e
000002b0: a1b8 563e 2693 a93e a6a4 9abd 8529 04bd
000002c0: e658 85be 64ec 1fbf c4af 0bbe 5acd 983d
000002d0: 43eb ea3d 4209 a83e 7be0 14bf bfbd d83e
000002e0: e62e 2cbe e347 8d3d afae 993e 2989 913e
000002f0: 813d 233e 6c88 da3d 0373 d03e 959b 83be
00000300: b4a1 823e 56ba 4c3e 0450 b7bc b402 a93e
00000310: 827b ed3c a4be 573e 64af 96be a0db edbe
00000320: 226c 85be 5e29 2fbe a01f 763e 0454 5bbe
00000330: ec3a 94be 186d cabe b797 3f3e 477d 933e
00000340: 74c9 f63d 91e3 293e 31a7 35be 4d04 933e
00000350: 014a e63d f276 61be 1470 25bf 3961 0d3f
00000360: 7977 b23d 976b e3be 3302 193f 0587 183e
00000370: 4c8e 9c3d 1d6b 7f3e 3140 ccbd cfe2 093c
00000380: 5bb3 42be 27a2 a9bc a54b 80be eff8 3e3f
00000390: dd59 d53e 2a77 1cbe db6c 83be e4ad 47bc
000003a0: 2aa1 433e 5514 90be 5843 3b3e 2a0f 013f
000003b0: ad76 0ebd cf4a 273e f186 9bbe 9d92 b83d
000003c0: c026 4f3e 020c 3cbd d52d c63e 00f1 1ebe
000003d0: b422 89bd 7354 c23e 71d2 b23e 263b 54be
000003e0: d75e 52be ace6 e8be e069 633e de85 a4bd
000003f0: 1203 843d 2886 af3e 9fcd 8abe df5b 033d

bias f4 [24]
-0.2799706 -0.237997 -0.032005575 -0.03499866 -0.18376093 -0.3098326 -0.29350105 -0.06524887
-0.21555099 -0.31824046 -0.34515494 -0.31545004 0.1869635 -0.1586689 -0.22279121 -0.16119339
-0.10806552 0.041679922 -0.23858136 -0.19894396 -0.19160835 0.049653802 0.14364158 -0.32673874
00000000: 4e58 8fbe 7cb5 73be 4718 03bd c15a 0fbd
00000010: d32b 3cbe 61a2 9ebe c545 96be 33a1 85bd
00000020: 66b9 5cbe 6af0 a2be 26b8 b0be ab82 a1be
00000030: 5c73 3f3e 1a7a 22be 6123 64be e10f 25be
00000040: 7551 ddbd 91b8 2a3d ac4e 74be f7b7 4bbe
00000050: fb34 44be c961 4b3d c716 133e 4d4a a7be

weight f4 [24, 24]
-0.35162112 0.24560598 0.32716125 0.2579649 0.27184722 0.030056214 -0.62137675 0.1282431
-0.36962175 -0.37136704 0.172016 -0.38449776 -0.1029594 0.40839377 -0.17647819 0.11919067
0.15218596 -0.096666515 0.64536786 0.16037324 0.5046724 -0.09216051 0.13199764 -0.059593473
-0.052912515 0.35651323 -0.07655404 -0.24608314 0.0012149576 0.2506845 0.228798 0.09910582
0.023487044 0.5073432 -0.07623637 0.21340847 0.031564742 -0.042748705 -0.06849915 -0.004252613
-0.5757669 -0.047743708 0.012987675 -0.28941205 -0.64225763 -0.18805303 -0.4053567 -0.19703181
0.1410424 -0.4965176 0.10399941 0.45026484 -0.36035943 0.08085604 0.012884974 0.56711024
-0.25406072 -0.22012715 -0.3903165 0.45669058 0.10601045 0.29734996 0.057350043 0.058869876
-0.027663156 0.17811763 -0.035696175 -0.51102847 -0.042628173 0.14220294 0.14511164 0.150664
0.5132014 0.28853202 -0.0264394 0.21579564 0.4554195 0.37841007 -0.0018678405 0.4288926
0.4736936 -0.04327014 -0.034596406 0.107334286 0.0017267065 -0.21023986 0.16851349 -0.60460883
-0.41336793 -0.027877385 -0.34054512 0.5087588 -0.35986832 -0.54220915 0.047773425 0.4611852
0.13559088 -0.35388726 -0.14291143 0.058057666 -0.3377425 -0.1346007 0.011080054 0.15833409
-0.3273373 0.18448795 0.33572227 0.07545137 0.036688928 -0.14202935 -0.13646282 -0.6781415
-0.5028363 -0.12754445 0.03593143 0.18208583 -0.099399835 -0.21662776 0.1182593 0.5398802
0.11756203 0.2124683 0.061496846 0.27500087 -0.26095432 0.15555803 0.22516893 0.24894463
-0.19764057 0.034055647 0.23612997 0.19629659 -0.275739 0.3104912 0.521788 0.14473712
-0.8642353 -0.12741469 0.29541236 -0.01886392 0.27478892 0.63017595 0.27904812 0.219227
0.30857635 -0.07883979 -0.016499544 0.25693056 -0.20091043 -0.21184205 0.012353526 0.16282584
-0.08880213 0.31609288 0.19832866 -0.12795033 -0.3096768 -0.091544874 0.10765795 -0.35032463
-0.58040154 -0.034293734 -0.33103034 -0.14176661 -0.09035599 0.035453342 -0.29395857 0.22705145
0.08279408 -0.3778024 0.32200328 -0.342818 0.084113546 0.08843337 -0.0103062475 -0.49072784
-0.15858509 0.6383192 -0.09190587 0.070045575 -0.11359429 0.17430711 -0.31897104 0.1351838
-0.0071296133 0.12587054 0.1184076 -0.55420345 -0.048006017 -0.22532049 -0.24290225 -0.15260872
-0.3085262 0.02483557 0.01782147 -0.03513013 0.19812718 0.28156283 0.15306616 -0.2684658
0.5496647 0.425099 0.42791405 -0.18865731 -0.0278404 -0.24272566 -0.30109656 -0.61592615
0.00996314 -0.3460264 -0.20805779 0.0038956034 -0.13805595 -0.68897706 -0.46809936 0.1919049
-0.18139882 0.075043276 -0.4248384 -0.48156965 -0.054503474 0.21305726 -0.27260056 0.26775005
-0.10839507 -0.01706487 -0.31924504 -0.23570958 0.054019455 0.13571003 -0.31783053 0.28004748
0.17226954 0.20476937 0.080606975 0.1626189 -0.25642172 -0.0909744 0.13365974 -0.022734009
0.011649032 0.5568325 -0.2030759 0.107232556 0.33406034 -0.22657458 0.11203127 -0.029245315
0.2809318 -0.071841784 0.2833163 -0.37218297 0.12423104 0.23954277 -0.06312943 -0.34444454
00000000: af07 b4be 2280 7b3e ae81 a73e fa13 843e
00000010: 8f2f 8b3e 7338 f63c 8c12 1fbf 2952 033e
00000020: 103f bdbe d223 bebe f624 303e e4dc c4be
00000030: 61dc d2bd fd18 d13e b3b6 34be 3d1a f43d
00000040: a3d6 1b3e 18f9 c5bd d436 253f e238 243e
00000050: 3632 013f a6be bcbd 642a 073e 4918 74bd
00000060: cbba 58bd e788 b63e 5dc8 9cbd 38fd 7bbe
00000070: 363f 9f3a b859 803e 064a 6a3e fef7 ca3d
00000080: e767 c03c 3ee1 013f d021 9cbd c087 5a3e
00000090: 084a 013d 4419 2fbd 4849 8cbd 8159 8bbb
000000a0: 7665 13bf e88e 43bd 42ca 543c d12d 94be
000000b0: ff6a 24bf f990 40be ea8a cfbe b5c2 49be
000000c0: 6b6d 103e 8e37 febe a5fd d43d 1d89 e63e
000000d0: 0881 b8be da97 a53d 7f1b 533c 232e 113f
000000e0: 3f14 82be 0369 61be 90d7 c7be 59d3 e93e
000000f0: 021c d93d 413e 983e e1e7 6a3d 8a21 713d
00000100: d89d e2bc 7864 363e 2736 12bd c3d2 02bf
00000110: e19a 2ebd a69d 113e 2598 143e aa47 1a3e
00000120: 2b61 033f 78ba 933e 7197 d8bc 88f9 5c3e
00000130: bf2c e93e f7be c13e 54d2 f4ba d097 db3e
00000140: f887 f23e 083c 31bd f6b4 0dbd 14d2 db3d
00000150: a852 e23a 1e49 57be cd8e 2c3e a5c7 1abf
00000160: f6a4 d3be 1d5f e4bc ee5b aebe 043e 023f
00000170: a940 b8be 38ce 0abf 11ae 433d 7720 ec3e
00000180: 56d8 0a3e b630 b5be 6057 12be e0cd 6d3d
00000190: 96ec acbe c4d4 09be 1d89 353c 5522 223e
000001a0: c198 a7be 69ea 3c3e cae3 ab3e 3f86 9a3d
000001b0: 2147 163d 2470 11be e9bc 0bbe ae9a 2dbf
000001c0: e1b9 00bf 039b 02be d62c 133d b574 3a3e
000001d0: 2492 cbbd abd3 5dbe ef31 f23d 9735 0a3f
000001e0: 5dc4 f03d 4a91 593e 1ee4 7b3d eacc 8c3e
000001f0: ce9b 85be 9b4a 1f3e af92 663e 57eb 7e3e
00000200: 4a62 4abe ef7d 0b3d 0ecc 713e f901 493e
00000210: aa2d 8dbe b4f8 9e3e e693 053f f835 143e
00000220: 863e 5dbf ff78 02be 4a40 973e 8288 9abc
00000230: 22b1 8c3e 3653 213f 65df 8e3e 0b7d 603e
00000240: b8fd 9d3e c176 a1bd 0d2a 87bc 678c 833e
00000250: 77bb 4dbe 1fed 58be 7266 4a3c d1bb 263e
00000260: e4dd b5bd edd6 a13e ab16 4b3e 6905 03be
00000270: f58d 9ebe e17b bbbd c57b dc3d c05d b3be
00000280: 3295 14bf 9677 0cbd cf7c a9be 442b 11be
00000290: 900c b9bd 8637 113d bd81 96be 2d80 683e
000002a0: f18f a93d 516f c1be 9ddd a43e d785 afbe
000002b0: b943 ac3d 8e1c b53d 89db 28bc ae40 fbbe
000002c0: 2164 22be e368 233f 2539 bcbd 0e74 8f3d
000002d0: 20a4 e8bd 907d 323e 2c50 a3be 9f6d 0a3e
000002e0: 889f e9bb 35e4 003e af7f f23d 47e0 0dbf
000002f0: f5a1 44bd 6aba 66be 5ebb 78be 7645 1cbe
00000300: 25f7 9dbe f773 cb3c 55fe 913c 9ce4 0fbd
00000310: dae1 4a3e 0129 903e 60bd 1c3e 5974 89be
00000320: d3b6 0c3f 93a6 d93e 8d17 db3e 622f 41be
00000330: 8d11 e4bc 138d 78be 5429 9abe 56ad 1dbf
00000340: 703c 233c 5f2a b1be 1a0d 55be 614d 7f3b
00000350: 8a5e 0dbe cd60 30bf b8aa efbe b882 443e
00000360: 9dc0 39be 4ab0 993d 6b84 d9be 4c90 f6be
00000370: 093f 5fbd af2b 5a3e 4d92 8bbe 8916 893e
00000380: 3cfe ddbd a0cb 8bbc 1674 a3be da5d 71be
00000390: 8143 5d3d 92f7 0a3e afba a2be 6262 8f3e
000003a0: 6d67 303e 10af 513e 4515 a53d 9285 263e
000003b0: b549 83be c950 babd 19de 083e ac3c babc
000003c0: 95db 3e3c 938c 0e3f 21f3 4fbe be9c db3d
000003d0: f509 ab3e 2b03 68be a770 e53d df93 efbc
000003e0: 4bd6 8f3e c921 93bd d60e 913e c48e bebe
000003f0: d86c fe3d b34a 753e 014a 81bd 095b b0be

bias f4 [24]
-0.121124685 0.31412607 0.19202527 -0.061866254 0.10736684 0.25182992 0.14966378 0.0031731762
0.041076202 0.1383647 0.17843154 0.0704949 -0.056044877 -0.052001335 0.03607034 0.09321488
-0.16388942 -0.2907175 -0.022639561 0.2468798 -0.20405534 -0.11914276 -0.04334045 0.12200324
00000000: 3810 f8bd 22d5 a03e 46a2 443e 7867 7dbd
00000010: 25e3 db3d daef 803e 7641 193e 10f5 4f3b
00000020: 853f 283d 7aaf 0d3e c2b6 363e a15f 903d
00000030: 508f 65bd 5aff 54bd 7ebe 133d 71e7 be3d
00000040: a1d2 27be edd8 94be 9a76 b9bc 0fce 7c3e
00000050: e2f3 50be 1f01 f4bd c185 31bd d6dc f93d

weight f4 [24]
1.5741488 1.4076473 1.2477149 1.0538455 2.041182 1.4299933 1.5781417 1.8427576
1.6726743 1.7622364 1.2683192 1.9689766 1.5872293 1.9288188 1.561555 1.3652949
2.1638222 1.5028908 1.460128 1.6288843 1.9922675 1.8531857 1.4762264 1.6662135
00000000: b57d c93f c92d b43f 1fb5 9f3f 69e4 863f
00000010: baa2 0240 050a b73f 8c00 ca3f 7bdf eb3f
00000020: 311a d63f f690 e13f 4958 a23f 6d07 fc3f
00000030: 542a cb3f 89e3 f63f 09e1 c73f fcc1 ae3f
00000040: 107c 0a40 ba5e c03f 79e5 ba3f 487f d03f
00000050: 9f02 ff3f 3035 ed3f fdf4 bc3f 7c46 d53f

bias f4 [24]
0.044576086 -0.120192476 -0.23946287 -0.07272293 -0.09089694 -0.32526672 -0.32078746 0.11904444
0.100742176 0.2980481 -0.12206262 0.27016637 0.078639366 0.101682924 0.18940824 0.3007382
-0.018269306 0.1795574 -0.13599846 0.07681167 -0.24270399 -0.30338064 -0.06942619 0.07283848
00000000: 6a95 363d 7927 f6bd c135 75be c2ef 94bd
00000010: 2d28 babd 5c89 a6be 413e a4be 92cd f33d
00000020: ea51 ce3d c399 983e f8fb f9bd 3f53 8a3e
00000030: ad0d a13d 233f d03d 3cf4 413e 5bfa 993e
00000040: 83a9 95bc e5dd 373e 2e43 0bbe 704f 9d3d
00000050: 6587 78be b554 9bbe 512f 8ebd 572c 953d

weight f4 [10, 24]
-0.08953795 -0.5145191 0.36159274 0.3875588 -0.31963515 -0.060073663 0.3455068 -0.6621309
-0.21981536 -0.06439401 -0.48153183 -0.9015665 -0.5433775 0.37099564 0.15651777 -0.16189021
0.8981832 -0.40439558 0.09718858 0.17437725 0.79795015 0.6399495 0.18938607 0.26965982
-0.56054693 0.4420607 0.10506927 0.1982657 0.6772947 0.43769202 0.12178009 -0.9439872
-0.45758316 0.5232081 0.097168766 -0.24805409 0.25478762 -0.10072316 0.18335682 0.009849673
-0.59350497 0.33124486 -0.48298642 -0.20286995 0.022232786 -0.08136742 0.0843898 -0.42724252
-0.26676294 0.12777442 0.28642192 -0.103659965 -0.41403893 -0.15511478 -0.42855605 -0.37240735
-0.51726824 0.17993283 -0.05802052 0.6271542 0.48767826 0.2580316 -0.1435044 -0.3834599
0.04444732 -0.11760568 0.48631525 -0.66593736 0.7634277 0.070530385 0.06902214 0.35115945
0.094865344 0.09356858 -0.3268916 0.23006766 -0.48617682 -0.32534468 -0.43585426 -0.14085385
0.38637727 0.0963156 0.12109542 0.5030566 -0.08107591 0.30725035 0.50940216 0.39097455
-0.07479077 0.4582353 -0.27027184 -0.14216122 -0.31993034 -0.15206401 -0.20377246 -0.41763198
-0.13196945 0.14023802 0.46432152 0.006967086 0.52890146 0.09426632 0.65545815 0.43509492
0.07463344 -0.7207163 -0.47373366 0.26466495 -0.3095122 -0.6199179 -0.3858219 -0.5631933
0.2562035 -0.016085789 -0.15585019 0.311115 0.11609696 -0.2106608 0.019739578 -0.5575064
0.7004955 -0.19378254 -0.07851875 -0.33284694 -0.33452263 -0.1479435 -0.15867926 0.13898861
-0.22033882 0.6389767 -0.08131497 -0.19915521 -0.40444434 -0.4026323 0.28443998 0.14126825
-0.14704534 0.4720493 -0.3638514 0.42975357 -0.5793415 -0.18510574 0.146179 0.52216256
0.17113337 -0.046605848 0.15431707 0.32097292 -0.19126542 0.30805397 0.37298146 -0.33533886
-0.23523937 -0.29414457 0.600499 -0.5749437 -0.26060987 -1.1949866 -0.30349338 -0.16918811
-0.48649624 -0.30092937 0.15529221 -0.2889449 0.30022505 0.82099 0.64487123 0.43209532
0.33103347 -0.6017305 -0.25043663 -0.097479045 0.6820233 -0.3317443 -0.32048863 -0.37257335
0.28215122 -0.3419652 0.008360294 -0.009081803 0.4612428 0.33612874 -0.6113696 0.02529285
0.3784455 0.26089483 0.5288625 0.53208566 0.068440646 -0.5327487 -0.22204745 -0.5204767
-0.26711378 0.4606334 -0.31392944 -0.23796578 -0.232554 -0.43788248 -0.19485538 0.35794508
0.38210592 0.32922888 0.1997456 -0.2861697 -0.009819742 0.3809446 -0.15363638 0.4108734
-0.4652215 -0.3846248 0.12310322 0.07549246 0.25440592 -0.29771435 0.44167325 -0.036500007
-0.06402761 0.07757379 0.15396468 -0.16689034 0.4499795 -0.3754159 0.025691474 0.3619255
0.589357 -0.0782804 -0.33404407 0.33987972 -0.35095406 0.23441331 -0.1740675 -0.17511535
0.74699384 -0.39161772 -0.0062039816 0.12870218 -0.5840076 0.118798934 -0.52416486 0.2323375
00000000: ac5f b7bd 86b7 03bf af22 b93e 1b6e c63e
00000010: 38a7 a3be cd0f 76bd 44e6 b03e 6981 29bf
00000020: 4717 61be 02e1 83bd 578b f6be 10cd 66bf
00000030: ca1a 0bbf 24f3 bd3e 3246 203e 8cc6 25be
00000040: 56ef 653f f00c cfbe ce0a c73d f38f 323e
00000050: 7646 4c3f bbd3 233f 6cee 413e da10 8a3e
00000060: 0180 0fbf c855 e23e 8f2e d73d 2a06 4b3e
00000070: 2f63 2d3f 2b19 e03e d767 f93d 25a9 71bf
00000080: 5748 eabe f7f0 053f 6b00 c73d e401 7ebe
00000090: 8673 823e f247 cebd e4c1 3b3e 8660 213c
000000a0: f1ef 17bf ed98 a93e ff49 f7be 24bd 4fbe
000000b0: 8821 b63c f6a3 a6bd 8fd4 ac3d 88bf dabe
000000c0: 2795 88be 4cd7 023e e5a5 923e ad4b d4bd
000000d0: e9fc d3be 69d6 1ebe b36b dbbe 2dac bebe
000000e0: b16b 04bf 5040 383e eda6 6dbd 2d8d 203f
000000f0: f7b0 f93e b81c 843e d1f2 12be db54 c4be
00000100: 650e 363d 3fdb f0bd 50fe f83e df7a 2abf
00000110: ff6f 433f 3c72 903d 7b5b 8d3d 2ccb b33e
00000120: c348 c23d e2a0 bf3d 565e a7be db96 6b3e
00000130: 2bec f8be 9493 a6be 4a28 dfbe fe3b 10be
00000140: 3ed3 c53e 1d41 c53d e000 f83d 51c8 003f
00000150: 200b a6bd eb4f 9d3e 2e68 023f d12d c83e
00000160: e72b 99bd d19d ea3e 1261 8abe b692 11be
00000170: e9cd a3be abb6 1bbe baa9 50be dcd3 d5be
00000180: 0023 07be 8e9a 0f3e 8dbb ed3e 274c e43b
00000190: 1666 073f b30e c13d 1bcc 273f c3c4 de3e
000001a0: 6bd9 983d dd80 38bf 388d f2be 2a82 873e
000001b0: 6278 9ebe f1b2 1ebf 738a c5be 702d 10bf
000001c0: 1b2d 833e 58c6 83bc 3197 1fbe 774a 9f3e
000001d0: 3ec4 ed3d 77b7 57be e5b4 a13c bdb8 0ebf
000001e0: ac53 333f ee6e 46be 70ce a0bd ea6a aabe
000001f0: 8d46 abbe 807e 17be d17c 22be 0853 0e3e
00000200: 80a0 61be fa93 233f 7788 a6bd 58ef 4bbe
00000210: 5413 cfbe d225 cebe 1ea2 913e a0a8 103e
00000220: 0e93 16be 72b0 f13e bb4a babe a908 dc3e
00000230: b94f 14bf 5c8c 3dbe f3af 153e 72ac 053f
00000240: 963d 2f3e c6e5 3ebd 4b05 1e3e 9056 a43e
00000250: 15db 43be 40b9 9d3e 6df7 be3e 89b1 abbe
00000260: 97e2 70be 1e9a 96be 4dba 193f 832f 13bf
00000270: a86e 85be 52f5 98bf 7c63 9bbe a63f 2dbe
00000280: 0916 f9be 6a13 9abe ec04 1f3e 96f0 93be
00000290: 19b7 993e 672c 523f 4816 253f 993b dd3e
000002a0: 387d a93e 030b 1abf 3b39 80be 18a3 c7bd
000002b0: 1499 2e3f 64da a9be 1617 a4be efc1 bebe
000002c0: 2076 903e 1016 afbe 9df9 083c d8cb 14bc
000002d0: 0428 ec3e 1119 ac3e b882 1cbf f332 cf3c
000002e0: 9cc3 c13e 0294 853e 8863 073f c436 083f
000002f0: 9c2a 8c3d 3862 08bf 6860 63be f63d 05bf
00000300: 23c3 88be 24d8 eb3e 5cbb a0be 4dad 73be
00000310: a322 6ebe 2232 e0be 2b88 47be 9444 b73e
00000320: 63a3 c33e b090 a83e 1c8a 4c3e d684 92be
00000330: fce2 20bc 2c0b c33e db52 1dbe 005e d23e
00000340: 8331 eebe 8bed c4be 8a1d fc3d ca9b 9a3d
00000350: 7e41 823e 046e 98be ff22 e23e 0881 15bd
00000360: e820 83bd 02df 9e3d eba8 1d3e 4de5 2abe
00000370: b763 e63e 8336 c0be ed76 d23c 4d4e b93e
00000380: 1ae0 163f 7951 a0bd d307 abbe b704 ae3e
00000390: 40b0 b3be 0b0a 703e c03e 32be 7051 33be
000003a0: fd3a 3f3f 1e82 c8be c54a cbbb 81ca 033e
000003b0: 8681 15bf db4c f33d ab2f 06bf e2e9 6d3e

bias f4 [10]
-0.18541631 -0.1214269 0.14868514 0.028959243 0.038187794 0.04591328 -0.14741877 0.002181331
0.16145879 -0.13677765
00000000: c6dd 3dbe abae f8bd eb40 183e ef3b ed3c
00000010: ce6a 1c3d 900f 3c3d f2f4 16be a9f4 0e3b
00000020: 7455 253e 710f 0cbe
