Case_Study_1/trained_transformer/verification/vit_18_2_6_64.pt (torch, 56200 bytes, 30 tensors)

pos_embedding f4 [1, 50, 18]
000000 f8 3a 62 3f e3 86 39 3f f9 33 b6 3e 0e 45 44 bf
       0.8837123 0.72471446 0.35586527 -0.7666787
000010 8e 59 41 bd 0c 35 b9 3e 1b 12 84 bf 6a 5f 25 3f
       -0.047204547 0.36173284 -1.0318025 0.64598715
000020 52 53 a7 3f 1c 4d 39 bf 4a a1 70 3e f7 04 a0 bf
       1.3072302 -0.72383285 0.23499027 -1.2501515
000030 90 ab 34 c0 15 aa 19 bf 22 65 ef 3f 00 f4 87 3e
       -2.8229713 -0.6002515 1.8702738 0.26553345
000040 9c 05 c8 3f ca 12 1d 3f 3d d5 fa bf bd 4c 91 bf
       1.5626712 0.61356795 -1.9596325 -1.1351544
000050 d3 33 09 3f 65 8c 7b 3e 33 38 c8 bf cd 72 7c be
       0.535947 0.24565275 -1.5642151 -0.24653168
000060 d6 00 28 40 9d 9f 25 bf 20 42 2d bf 9d f9 2e 3b
       2.625051 -0.64696676 -0.67679024 0.0026699074
000070 54 1d 65 bd e6 bf e2 3d a7 68 cd 3f c1 c8 92 be
       -0.055936173 0.11071758 1.6047562 -0.28668788
000080 c5 dc 78 bf 32 2c bd 3f 5b 6c 1d 40 7f 69 0a bf
       -0.9721187 1.4779112 2.4597385 -0.54067224
000090 cf d0 68 3f 16 eb ff be 64 39 23 bf b7 2d a5 3f
       0.90943617 -0.49984044 -0.63759446 1.2904576
0000a0 29 1a 95 bf fb 2a a0 bf ea 52 22 bf 5e 61 a4 bf
       -1.1648608 -1.2513117 -0.63407767 -1.2842214
0000b0 fc 41 2b be 8b ff 49 3f 63 38 6f bf 0c 77 21 bf
       -0.1672439 0.7890555 -0.93445414 -0.63072276
0000c0 53 6d bc be c7 bd d7 3e fa 4c 8f bf 31 8d c0 be
       -0.36802158 0.42136976 -1.1195366 -0.3760772
0000d0 b4 a7 d9 3e ab 5f 3f 40 60 d6 b3 bf 19 4f 48 c0
       0.4251076 2.990214 -1.4049797 -3.1298277
0000e0 82 b5 9d 3f 23 2b 1b bf b9 33 78 be 61 0a 4c 3f
       1.2321017 -0.60612696 -0.2423848 0.79703337
0000f0 fb 40 e7 be 16 70 47 3f 00 5c 15 bf 68 dd 0d c0
       -0.45166764 0.77905405 -0.58343506 -2.2166386
000100 c5 47 44 3f 78 be 0f 3f de 6e d2 be b6 37 d1 bf
       0.7667201 0.5615001 -0.4110021 -1.6345127
000110 40 ad ab 3f 32 6d 6f 3f 2d 1d 26 bf 22 03 44 3f
       1.3412247 0.93525994 -0.6488827 0.7656728
000120 31 61 57 bf c0 e4 88 3e 31 c5 9b 3f a1 f7 4b bf
       -0.8413268 0.26737022 1.2169553 -0.79674727
000130 5f 57 6b bd 70 48 48 3f eb f1 9b 3c 1d de ce bd
       -0.05745637 0.7823553 0.019036254 -0.101009585
000140 a0 a0 f0 bf 47 64 fe 3f 7c dd 9d 3f 7b 3e a8 bf
       -1.8799019 1.9874352 1.2333217 -1.3144068
000150 f6 c1 03 bd 08 91 16 3f f4 ea 7e 3f bc cc cd bf
       -0.032167397 0.5881505 0.9957726 -1.6078105
000160 46 53 86 3f e4 4d e0 be 2b c3 a1 3c 08 f1 0a bf
       1.0494163 -0.43809426 0.019746384 -0.54274035
000170 1f c1 38 3e a5 d2 84 be 03 b4 0f 3f 24 07 9f bf
       0.1804242 -0.2594196 0.5613405 -1.2424054
000180 41 e1 65 3f b8 82 c1 bf b8 f9 35 be 32 1e 0e 3f
       0.89796835 -1.5118017 -0.17771041 0.55514824
000190 b0 da a5 bf 6f 0c 42 bf 79 f4 48 be 6e ec c6 3f
       -1.2957363 -0.7580022 -0.19624509 1.5540903
0001a0 72 11 bd 3e cc d5 11 3f a7 46 0d 3f 33 0b b2 3e
       0.36927372 0.56966853 0.5518593 0.3477417
0001b0 c2 cc 05 c0 19 f7 a6 be 29 18 13 bf d1 f5 81 3f
       -2.0906224 -0.32610396 -0.5745874 1.0153142
0001c0 7f 14 1d 3c 1e 2c 60 bf 87 e1 8e 3f 5a d3 86 bf
       0.009587406 -0.8756732 1.1162575 -1.0533249
0001d0 cf b1 8b be f6 9f 73 3e f9 3a b1 bf 99 1c e9 be
       -0.27284095 0.23791489 -1.3846122 -0.4552963
0001e0 b7 08 0b bf 6d 5f cf 3f 2d 6e 28 3f 91 9b 53 bf
       -0.5431017 1.6200997 0.65793115 -0.8265925
0001f0 f4 4d 00 40 64 8b 8c 3e 48 f5 98 be ac e8 f9 be
       2.004758 0.27450097 -0.29874635 -0.48810327
000200 57 a5 1c 3f cf 3f 8c 3f 54 b0 41 bf 3a d1 49 bf
       0.6118979 1.0956973 -0.7565968 -0.7883488
000210 4e 62 76 3d f6 38 72 bf 2e f7 32 bf 56 59 d5 be
       0.060152344 -0.94618165 -0.69908416 -0.4166972
000220 78 4d 28 3f 7d 6d b4 3f 53 2d c6 bf d3 f4 06 bf
       0.6574321 1.4095913 -1.5482582 -0.5271732
000230 5d 8c 3f 3f 05 13 43 c0 4a 0b 35 be 05 6a 3d bf
       0.7482355 -3.0480359 -0.17680088 -0.739899
000240 b2 dd 5d be f9 bf 67 3f e0 93 79 be 7c 30 01 c0
       -0.21666601 0.905273 -0.24372816 -2.0185843
000250 51 bd 03 3e d1 ba 1c 3f 4a 4a 81 3f d1 bd ac bf
       0.12865187 0.6122256 1.0100796 -1.3495427
000260 b7 8c bc 3e 28 69 cf 3f 65 22 88 bf 3b 2e 11 3f
       0.36826107 1.6203966 -1.0635496 0.5671117
000270 a4 0b cd 3d 9b e2 7c 3f 07 be 1a 3f 98 72 8f bf
       0.10011986 0.9878327 0.6044621 -1.1206846
000280 5f 0d 25 3f 65 94 1e 3d 03 82 0d 3f d0 06 c6 3f
       0.6447353 0.03871574 0.5527651 1.5470829
000290 07 17 9e be 28 0c 33 be e8 83 44 bf 26 8d 50 bf
       -0.30876943 -0.17485106 -0.7676377 -0.81465375
0002a0 fc 1a 0a 40 84 c8 4b bf 8a d6 b8 bf 12 e5 cb 3e
       2.157897 -0.7960284 -1.4440472 0.39823204
0002b0 3a 8f d7 3f 28 02 00 3f d4 18 f5 be a2 8f 1f 3f
       1.6840584 0.5000329 -0.47870505 0.6232854
0002c0 37 1b d4 3e 07 a7 99 3c 10 4d 63 3f 78 b9 35 3d
       0.41427013 0.018756403 0.88789463 0.04436633
0002d0 f8 be b6 3f 83 f5 d1 be a1 8b c7 bf 9c 88 94 3f
       1.4277029 -0.41007623 -1.5589486 1.160419
0002e0 e4 73 09 40 f3 6b 0c 3e 7c fa ad bf 39 8c 4f 3f
       2.1476984 0.13713054 -1.3592067 0.8107334
0002f0 af 8d 98 bf eb af 3e bf c6 ca 2b be e1 da 83 bf
       -1.1918238 -0.7448718 -0.1677657 -1.0301172
000300 9f c2 6a bf 2c 36 38 3f 15 42 34 bf 5c a2 bb bf
       -0.9170322 0.7195766 -0.70413333 -1.4658923
000310 88 4e 14 c0 e1 11 11 3e 9b 5e 43 be dd 4d 92 3f
       -2.3172932 0.14166977 -0.19079058 1.1430012
000320 f6 4f b3 be 36 de 3c 3f c4 f8 c6 3f ed a6 b1 3e
       -0.35021943 0.73776567 1.5544667 0.34697667
000330 ba 2f 55 be 22 a6 de 3f 20 18 0c 40 ca d0 ba bf
       -0.20818987 1.739445 2.1889725 -1.4594967
000340 3a 4a 6f be c0 3b 3c 3f 26 ba 30 3f df 3a f9 3e
       -0.23368159 0.7352867 0.6903404 0.48677728
000350 9f 44 7f 3d 8a 91 bc be 9d 4c 04 c0 6e 1e 86 bf
       0.0623213 -0.36829787 -2.067176 -1.0478036
000360 53 e9 86 3f a4 18 28 3f 04 62 52 bf ee 94 79 3f
       1.0539955 0.656626 -0.8218081 0.97492874
000370 13 87 b1 3f 9a 2b 05 40 34 bc 80 be cf 04 92 bf
       1.3869346 2.0807862 -0.25143588 -1.1407717
000380 e2 4f 1e 40 4f 92 61 3e de a4 4e bf 93 6b 11 bf
       2.4736257 0.22028469 -0.8072032 -0.5680477
000390 cd 68 bc be ab 45 ef bf 3f 1c 35 3e a4 16 02 be
       -0.36798707 -1.8693136 0.17686556 -0.12703949
0003a0 fd 2f 1f 3f 66 e2 8d bf cf 28 8a bd f4 8c 33 3f
       0.621826 -1.1084716 -0.06746065 0.7013695
0003b0 1d c4 84 bf 43 f4 41 3f 2d c3 c1 3f 3c 6f 96 3f
       -1.0372349 0.7576334 1.5137688 1.1752696
0003c0 96 d8 dd be 73 03 9b bf 68 44 8a 3f 30 4e 8a 3e
       -0.43329304 -1.2110428 1.0802126 0.27012777
0003d0 ad e7 30 be 48 f9 e5 bd 0a 62 59 be a6 10 bc be
       -0.17275877 -0.11229187 -0.21228805 -0.36731452
0003e0 b3 4b f0 3e 4c 81 5a 3f b4 10 cc 3f 25 55 09 c0
       0.46932754 0.8535354 1.5942597 -2.1458218
0003f0 b6 84 ab 3f e4 dd dd bf 03 a6 ca be 69 54 c0 bf
       1.3399875 -1.7333341 -0.39579782 -1.502576

cls_token f4 [1, 1, 18]
000000 9e 08 06 3e 23 95 91 bf 5e f1 6a 3d 9a f2 b9 3e
       0.13089225 -1.1373638 0.057359092 0.36317903
000010 e3 af f7 be b1 c7 10 bf 14 03 4f 3e 9b a0 aa bd
       -0.48376378 -0.56554705 0.20216018 -0.08331414
000020 07 44 6a 3e 3e 99 4f bf 0c fb b9 bf 81 d2 41 bf
       0.22877513 -0.81093204 -1.4529738 -0.7571183
000030 69 41 18 bf fc 16 02 3f 56 e8 35 bf d9 28 a2 3f
       -0.5947481 0.5081632 -0.7105764 1.2668716
000040 7e ab d1 bf 3f ee fa 3f
       -1.638046 1.9603957

weight f4 [18, 16]
000000 0e ce 73 3e 42 d2 95 3e 0d 23 dd 3c fa f3 e5 bd
       0.23809072 0.29261976 0.026994253 -0.112281755
000010 84 78 54 bc cd ca 1e 3d f0 ec e7 bd fb 9a ae 3d
       -0.012968186 0.038767625 -0.11324489 0.08525654
000020 ae ca ba 3d e8 97 0d 3e 09 fe da bd 3c 22 59 3e
       0.09120689 0.13827479 -0.106929846 0.21204466
000030 70 6d 02 3e bb 50 50 be ab cb bd bd 05 0a 84 3e
       0.1273706 -0.20343296 -0.09267362 0.25788894
000040 fb 1e 93 3d ea 22 e1 3d 78 8a 0b 3a 03 ad b4 be
       0.071836434 0.109929875 0.00053230627 -0.35288247
000050 3e 7d 34 3d a2 dd 01 be b6 ac 8f bd 3d 6c 6d be
       0.044064753 -0.12682202 -0.07015364 -0.23185821
000060 4b 37 bf 3d 62 37 43 be 6b 38 aa 3d 26 7c 78 be
       0.09336718 -0.19064096 0.08311542 -0.24266109
000070 9c 21 bd bc 4b 73 dd 3c 00 2d 35 3e 2f 7e 80 bd
       -0.023087315 0.027032515 0.17692947 -0.062740676
000080 82 36 71 3e 02 7b 24 3e 83 90 33 bd ea 88 bd be
       0.2355595 0.16062549 -0.04383899 -0.3701852
000090 5a 5b 0f 3e fd 71 a6 3d ef 9d d5 bd 12 dd 1f be
       0.13999692 0.0812721 -0.10430514 -0.15611675
0000a0 51 4b eb 3d 5d 19 cf 3d 63 6e cb 3c 8c 21 04 be
       0.11488975 0.101122595 0.02483291 -0.12903422
0000b0 54 32 72 3d 91 76 8e 3e 8d db 41 3d 80 a8 7f be
       0.059130028 0.27824834 0.04732852 -0.24966621
0000c0 a7 bf b5 be 0e 86 a9 be 82 6e 92 be 2a e0 71 3e
       -0.35497782 -0.33110088 -0.28599936 0.23620668
0000d0 57 f7 42 be 72 aa 08 3e 29 10 61 be c1 20 d7 3e
       -0.19039665 0.1334627 -0.21978821 0.42017177
0000e0 55 28 bb 3d c1 43 47 be b4 2e e4 3c 25 57 7d 3e
       0.09138552 -0.1945944 0.027854301 0.24740274
0000f0 0d e1 25 be ac 7d 4f 3d cb 48 43 3d e9 ed 8e 3e
       -0.16199131 0.05065696 0.047676843 0.27915886
000100 67 70 81 3d 18 1e 56 bd 1b 83 f2 be ba 75 8e 3e
       0.06320267 -0.052274793 -0.4736565 0.27824193
000110 da 09 94 be 69 20 8b be 99 0c 95 3e 57 18 d8 3e
       -0.28913766 -0.27173164 0.29111174 0.4220607
000120 48 ef c5 be e7 cf 0c 3e 88 4a 01 3f 73 30 50 3d
       -0.3865912 0.13751183 0.5050435 0.050827455
000130 83 74 15 3d 68 b1 de 3e 2f ca 0e 3f d5 ab 4f be
       0.036488067 0.43494725 0.5577726 -0.20280392
000140 c3 3d d6 3e 48 2a 5d 3d b0 90 0c be e3 53 b7 be
       0.41843995 0.0539954 -0.13727069 -0.35806188
000150 25 81 f4 3d 75 e2 0d 3e 58 00 52 be fa 1d 4b be
       0.11938695 0.13855918 -0.20507944 -0.19835654
000160 7b 0d 9a 3e ab 09 03 bd f5 af af be fb 06 79 bd
       0.3008841 -0.031991642 -0.34313932 -0.060797673
000170 73 38 fc bd 9a d9 b4 be c8 4c 95 be d9 a5 23 bd
       -0.12315454 -0.35322267 -0.29160142 -0.039953087
000180 5e be 93 be 63 c5 2f 3d f2 18 ed 3c 27 78 83 3e
       -0.28856176 0.042912852 0.028942559 0.25677606
000190 57 8a 8f be d3 0c 81 bd ae 26 aa 3e cf 39 1b bd
       -0.28035232 -0.06301274 0.33232635 -0.037896927
0001a0 11 46 be bd 0c c7 11 3e 59 67 c9 3e bc 56 83 be
       -0.09290708 0.14236087 0.3933666 -0.2565211
0001b0 31 42 6e bd 8e f6 39 3e 94 8e 6d 3d 1f f7 f5 be
       -0.058168594 0.1816046 0.0579973 -0.480401
0001c0 82 bb 96 be c3 b0 19 3e 7d fa 32 3e 43 f1 30 3e
       -0.29439932 0.15008835 0.17478366 0.17279534
0001d0 08 c8 18 bc 30 b9 22 be 28 8d 85 3e ba 88 19 3d
       -0.009325035 -0.15890956 0.26084256 0.03748391
0001e0 ae 1b f7 3b f0 ed 86 3d 2f a6 37 3e 5d c0 a9 3d
       0.0075411415 0.06588352 0.17934488 0.082886435
0001f0 fd d9 71 be 08 9d 0d be ac d6 49 3c 7c 5f 38 3e
       -0.23618312 -0.13829434 0.012319248 0.18005174
000200 41 41 64 be 79 88 34 3c cd 2e 08 be a1 96 b2 bd
       -0.22290517 0.011018866 -0.13299103 -0.087201364
000210 41 b8 25 3d fa c7 b5 bd 2d b4 a2 bd e7 70 21 be
       0.04045892 -0.08876033 -0.07944522 -0.15765725
000220 91 a3 ee 3d 0d b4 03 3e 19 5a fc bd 82 a0 89 3b
       0.116522916 0.12861653 -0.12321872 0.004200042
000230 f2 ee 98 3e c7 d6 0d bc 31 4e 5d be f3 c5 b0 be
       0.298698 -0.008657164 -0.21611859 -0.34526023
000240 88 c0 2b 3e db 95 84 bd 27 ee 84 be 0f 0d 88 be
       0.16772664 -0.06473895 -0.25962946 -0.26572463
000250 62 4c cf bd 0b bd 1c be 55 68 aa bd 81 0d 38 3d
       -0.10121991 -0.15306489 -0.08320681 0.044934753
000260 1b f8 0c be 24 fe c6 bc 69 78 9c 3c bf 10 75 bd
       -0.1376652 -0.024291106 0.019100385 -0.059830423
000270 ca 42 10 bd 1b 17 e2 3c a0 1f 82 3d d3 02 ad 3e
       -0.035219945 0.027598908 0.06353688 0.33791217
000280 68 3a c5 3e ea 2a cf 3d fe 21 b7 be 18 19 73 bd
       0.38521123 0.10115607 -0.3576812 -0.059350103
000290 d0 d3 3a 3e 1c 7a 48 be 7b 5e f5 be ca ae f4 3d
       0.18244863 -0.19577831 -0.47923645 0.11947401
0002a0 0c 89 10 3e ad d5 42 be 83 bb 8b be 20 ce 22 3e
       0.14114779 -0.19026823 -0.27291498 0.15898943
0002b0 5c 2e 3e bc d2 0c e4 be de 8f aa be 32 47 05 be
       -0.011607733 -0.4454103 -0.33312887 -0.1301544
0002c0 b6 46 d4 bd fd 7a 9b 3e 5c 22 cb 3d 7a cb a0 3c
       -0.103650495 0.3036727 0.09918663 0.019628275
0002d0 0a b5 94 bd de c8 45 3e 52 fd 67 3e 59 4e 0d bd
       -0.07261093 0.19314906 0.22655228 -0.034498546
0002e0 ce b7 bb bc 52 ed aa 3e fc ca 21 3e d3 d8 98 bd
       -0.022914793 0.33384186 0.15800089 -0.07463231
0002f0 3f 10 89 bd 49 c9 99 3e f2 f5 af 3c 13 37 7d be
       -0.06692552 0.3003638 0.02147958 -0.2472804
000300 4c 24 b6 3e f0 0b 7d be b0 6a 88 be 03 cc ce 3e
       0.35574567 -0.24711585 -0.26643896 0.40390024
000310 b2 53 85 3e 1b 82 3f be f6 54 81 be 48 bb fd 3e
       0.26040417 -0.18701975 -0.25260133 0.49556947
000320 1a 1c 50 3e 71 9d b1 be f3 75 3a 3e 29 e3 80 3e
       0.2032322 -0.3469043 0.18209057 0.2517331
000330 5c a5 82 3d 9e a3 1c be 1b ac 31 3e ad 16 88 3c
       0.06379196 -0.1529679 0.1735081 0.016612375
000340 d7 1c 05 3d 96 05 93 3d 6e 60 2a be a0 b8 f0 3d
       0.032498207 0.071788 -0.16638348 0.117539644
000350 f3 5a e9 bd 73 9f 69 3e 5d 4b f2 bd 0c 7d 4d 3c
       -0.113943 0.22814731 -0.11830781 0.0125420205
000360 98 50 02 3e 87 51 7a 3e fc 07 44 be d0 ac 17 bd
       0.12726057 0.24445163 -0.19143671 -0.03703004
000370 ad 3b ab 3d a1 a5 a1 3d 5d e3 d9 bd 62 1c 18 be
       0.083609916 0.07892919 -0.10639069 -0.14854577
000380 d7 ae f7 3d 74 71 ca 3d 67 af e5 bc 56 53 9c bc
       0.12093895 0.09884921 -0.02803774 -0.019082706
000390 89 f9 ba bd 38 da 08 3c d8 3d 1c 3e 4f c2 17 be
       -0.09129626 0.008352809 0.15257967 -0.14820217
0003a0 0b 54 9b 3d 0a b2 e2 3d 16 af f2 3d c7 84 0d be
       0.07584389 0.110691145 0.11849801 -0.13820182
0003b0 b0 3e 98 3e 67 8a 19 3e 86 da 67 3d 81 44 b2 be
       0.29735327 0.14994203 0.056604885 -0.3481789
0003c0 7c c5 53 3e 3b 80 ba be 76 c2 af be 05 2c 20 be
       0.20680803 -0.36425957 -0.3432805 -0.15641792
0003d0 2f 47 57 be 2d da ca be 50 36 8d be ed 96 e4 3e
       -0.21023248 -0.3961958 -0.275805 0.44646397
0003e0 db 97 c1 be d5 ea 47 be 17 6d 23 bc 97 e6 9b 3e
       -0.3781117 -0.19523175 -0.0099747395 0.30449364
0003f0 da 1f 04 bf 10 d9 77 bd 1d 38 29 3d ef 80 b1 3d
       -0.516111 -0.06050974 0.04131328 0.0866717

bias f4 [18]
000000 9e 9a 4a 3e 0c 2e 8e bd ed b1 8e be 19 77 37 3d
       0.19785544 -0.069423765 -0.27870122 0.044791315
000010 7a 6c 2d 3d b4 b9 2b 3e 6f 83 30 bd 8f e1 86 be
       0.04233978 0.16770059 -0.043094095 -0.26343963
000020 e5 55 52 be 11 d5 8f be 83 e0 96 bd 1d 24 cb 3c
       -0.20540579 -0.28092244 -0.07367041 0.024797494
000030 ce 55 9d 3e 54 87 5a 3e e8 4a c0 3d 84 b0 0f 3e
       0.30729526 0.21340686 0.09389287 0.14032179
000040 d1 40 80 3e dc 51 eb bd
       0.2504945 -0.11490223

weight f4 [18]
000000 ce a8 9a 3f 4a 7c 91 3f 39 f1 78 3f 65 53 7c 3f
       1.2082765 1.1366055 0.97243077 0.9856475
000010 91 bf 84 3f 5d 3e 38 3f 8c 04 8b 3f 83 61 80 3f
       1.0370961 0.7197016 1.0860763 1.0029758
000020 f3 28 95 3f a9 6a 64 3f b3 96 58 3f ff 8f a1 3f
       1.1653122 0.8922525 0.8460495 1.2622069
000030 02 90 73 3f 69 2d a0 3f 38 b5 82 3f 07 27 5b 3f
       0.95141613 1.2513858 1.0211554 0.85606426
000040 fc 8d 8e 3f 8d 6a 80 3f
       1.113708 1.0032517

bias f4 [18]
000000 5a 12 c4 bd 20 79 c1 3d 11 e2 46 3d 03 37 04 bc
       -0.09573813 0.09446931 0.048555437 -0.008069756
000010 bd 88 04 3d 07 2e 1c be ef 11 7b 3d 81 20 7c 3d
       0.032356966 -0.15251933 0.0612964 0.061554436
000020 4b cd 30 bd 4d 79 c4 3d d1 50 38 3c 69 8c 07 bd
       -0.043164533 0.09593449 0.011249737 -0.03309289
000030 b9 cf c9 3b a1 2b 0a bd 36 65 95 bd b5 45 aa bd
       0.0061587957 -0.033733014 -0.07294695 -0.08314077
000040 7e e7 46 bd 10 a8 18 bd
       -0.048560612 -0.037269652

weight f4 [54, 18]
000000 ec 63 f6 3d 9d d8 f2 bc 1a b6 2c 3e 08 42 a9 be
       0.12030777 -0.029644305 0.16866341 -0.3305819
000010 70 ab 93 be 6b 83 26 3e 9d f1 d9 3d 13 21 6a 3e
       -0.28841734 0.1626107 0.10641787 0.2286418
000020 a8 97 ac bd a3 4b 86 be b7 61 c8 3c 78 4a 23 be
       -0.08427364 -0.2622958 0.024460657 -0.15946376
000030 65 61 88 3d d0 fc 34 3d 87 1f 08 3f f2 5b 60 3e
       0.066592015 0.044186413 0.53173107 0.21910074
000040 74 41 6d 3e 50 d0 e8 3e d2 45 1e 3e 12 a4 1f be
       0.231695 0.4547143 0.15456322 -0.15589932
000050 92 f9 c6 3d 26 0f 36 be be 02 f8 be 0a b8 dd 3e
       0.097155705 -0.17779216 -0.48439592 0.43304473
000060 3b 8e 9e 3d fa ac 02 3e f9 d0 e2 be 77 f3 aa 3c
       0.07741972 0.12761298 -0.44300058 0.020868046
000070 7a c2 60 bd 18 81 9c bb a1 53 f8 3d c0 11 82 3e
       -0.054872967 -0.0047761314 0.12125326 0.25404167
000080 e0 7f 8f bd ee d1 8c 3e 83 45 ba 3c 70 27 98 3d
       -0.07006812 0.27503914 0.022738224 0.07429397
000090 15 cb 37 3e 3a e5 27 be 58 a4 47 3d e2 eb 0f 3e
       0.17948563 -0.16396037 0.048740715 0.14054826
0000a0 c2 72 51 be c1 32 85 3e 0d 3b d3 3e bb 2b cd bd
       -0.20453933 0.26015285 0.4125599 -0.100181065
0000b0 97 54 83 be cd ae 95 be 3f 94 e9 3d 7d 95 03 3e
       -0.25650474 -0.29234925 0.11405229 0.12849994
0000c0 8e d9 a7 3e dc 42 56 3e 3a 54 08 be a5 4c fe 3c
       0.3278317 0.20923942 -0.1331338 0.031042406
0000d0 c0 ff e1 3d c2 5f fd 3c c0 e5 8a be a1 b7 5a 3e
       0.110351086 0.03092945 -0.2712841 0.21359111
0000e0 9e 83 ba 3d 6c a0 24 bf cd 02 07 bf 83 1d 02 be
       0.09107135 -0.64307284 -0.5273865 -0.1270657
0000f0 d3 f1 42 3e 64 14 4b 3d 25 4d 0c be 9b 75 ae 3e
       0.19037561 0.049579993 -0.13701303 0.340741
000100 bb 27 a0 3e 9d 1e 30 3e 0a a6 00 3e 38 44 17 be
       0.31280312 0.17199178 0.12563339 -0.14772117
000110 a7 1e 68 be 69 fd 2b 3e 80 45 01 bf 35 cd 5c be
       -0.22667943 0.16795887 -0.50496674 -0.21562655
000120 cf be bb 3d dc 59 ab 3d 5b 66 63 bd a8 1a 99 3b
       0.09167253 0.08366749 -0.055517536 0.004672367
000130 70 53 be bc 1a df b2 bd fe 98 98 3d bd ee f0 bd
       -0.023233145 -0.087339595 0.07451056 -0.11764286
000140 01 20 2c 3e 2e c7 24 be 89 4e 91 be 2a 99 a0 be
       0.16809084 -0.16091606 -0.2838023 -0.31366855
000150 ff b4 99 bd 7a 99 36 bd 1a eb 8b 3d 4a 52 a0 3e
       -0.075052254 -0.04457996 0.068319514 0.31312782
000160 69 56 83 bc 5c 08 7a 3e 7f 94 ea be 92 95 02 3f
       -0.016032415 0.24417251 -0.4581642 0.51009476
000170 5e 4a 8d be 2e ca e3 bd 36 12 21 3e 5c 13 32 be
       -0.275958 -0.11122547 0.15729603 -0.17390198
000180 6e c2 99 be 9f db 5b be 7c d0 27 3d 84 df f8 bd
       -0.3003115 -0.21470498 0.04097031 -0.12152007
000190 40 e2 b2 be df 50 1d be 8d ec ba bc a2 1d ee 3e
       -0.3493824 -0.15362881 -0.022817874 0.46506983
0001a0 55 c9 bb 3e 1f 5a 45 3e dc 6b ec 3d 31 35 21 bc
       0.36677042 0.1927266 0.1154401 -0.009839342
0001b0 5f 1c b8 3e 6b ea 3f be fe 09 06 3e c3 09 b1 3e
       0.35959145 -0.18741767 0.13089749 0.3457776
0001c0 5d be 20 3d bd e2 fa 3d ed 52 c3 3e 54 6b 57 be
       0.039244045 0.12250278 0.38149205 -0.21037036
0001d0 2e 66 0b bf 2f 8f 53 be 41 2e c0 3d 26 8f 3c bd
       -0.5445279 -0.20660089 0.09383822 -0.046034954
0001e0 b5 ad 7a 3e bb ad b7 3e 16 e5 aa be f2 14 9b be
       0.24480326 0.35874733 -0.33377904 -0.30289418
0001f0 11 ca c6 bc 40 1a 43 be fe 4f c0 3d 3a 89 2a be
       -0.024266275 -0.19052982 0.09390257 -0.1665391
000200 21 54 0a be 0f 8b 0b 3d 66 91 87 be 9b 18 bd bd
       -0.13508655 0.034068163 -0.26478118 -0.09233209
000210 c5 96 2e be 33 00 fa 3e a5 1d 15 3f 69 4e 95 be
       -0.17049702 0.48828277 0.5824836 -0.29161385
000220 52 e5 25 3d 24 5c 9c be e7 7b d3 3c ab a8 28 3e
       0.0405019 -0.30539048 0.025815917 0.16470592
000230 68 06 88 bd 12 8f 1d 3d 73 7b be 3d bd 5a 10 3f
       -0.06641847 0.03846652 0.0930089 0.56388456
000240 54 42 e6 bd 26 06 d2 bc aa 40 e2 3e 47 e2 bb be
       -0.1124312 -0.025637697 0.4418996 -0.36696073
000250 15 b7 8f 3d d7 3e 5a be 74 89 1b 3f 43 a9 c9 3e
       0.07017342 -0.21313034 0.6075661 0.3938695
000260 d8 fb d6 bd 92 db e6 3d 24 c3 1d be 4a e1 b3 3a
       -0.10497254 0.112723485 -0.15406471 0.0013723758
000270 8a 2e be 3e 53 49 20 3f b5 c9 1b 3e f6 e9 69 be
       0.3714488 0.62611884 0.15213664 -0.22843155
000280 04 93 b7 3d 15 a9 1f bd 7e 70 5e 3e 4d cc 05 3f
       0.08963588 -0.03897961 0.217226 0.52264863
000290 83 db 94 bd 00 20 72 3e cd a0 29 be b5 06 07 3e
       -0.07268431 0.2364502 -0.16565247 0.13186152
0002a0 da 95 51 be f7 b1 b6 be 57 5c fa bd 3c 17 01 3e
       -0.2046732 -0.3568265 -0.12224644 0.1260652
0002b0 d9 4d 5a bd 36 3b fe bd 79 ef 10 3e e8 28 c8 bd
       -0.053296898 -0.12413637 0.14153852 -0.09773427
0002c0 d4 30 61 be 38 24 dd 3d 32 24 b6 be f0 2c db bd
       -0.21991283 0.10797924 -0.3557449 -0.107019305
0002d0 f3 3a 91 3d 17 8e ba bd 26 b7 30 3e 0b 91 58 be
       0.07091322 -0.09109133 0.17257366 -0.2114908
0002e0 af ad 39 bd f2 9b 69 3e 56 27 02 bf ca 60 62 3e
       -0.045331653 0.22813395 -0.5084127 0.22107235
0002f0 01 1e 9f 3d 43 ae 16 3c b2 ec 03 be 14 d1 10 3e
       0.07769395 0.009196821 -0.12883261 0.14142257
000300 7b f3 8f 3e 25 b9 1f 3e 37 f5 f2 3d 8b d7 81 3e
       0.28115448 0.15597971 0.11863177 0.2535976
000310 36 6b 08 3f 30 42 49 3e 4b d8 59 3e cb 95 69 3e
       0.5328859 0.19654155 0.21273915 0.22811048
000320 b6 0a 47 3e 28 3e 13 be f6 3e 5d 3e 63 05 6b be
       0.1943768 -0.1437918 0.21606049 -0.22951274
000330 77 20 2a be 39 d8 4a bd 47 76 67 3e 65 df b2 3d
       -0.16613947 -0.049522612 0.22603713 0.087340154
000340 96 5a 2b be 6b 22 df be 0b ce 9e be ba 4c be be
       -0.16733775 -0.43580946 -0.31016573 -0.37167913
000350 82 fb f6 3e a4 b0 29 3e 56 8f 88 bd 6b a2 11 3e
       0.4823876 0.1657129 -0.06667964 0.14222114
000360 34 02 2c 3d 20 68 26 bd 43 ab 25 3d 0d f1 97 be
       0.04199429 -0.040626645 0.04044653 -0.29676095
000370 7d c5 bb bd 26 65 49 be 82 d0 20 bc 12 d1 9c 3c
       -0.09168527 -0.19667491 -0.009815337 0.019142661
000380 41 50 95 be 83 0a 02 3d 74 9e 43 3e 20 29 03 be
       -0.2916279 0.031748306 0.19103414 -0.12808657
000390 0c 98 99 3e c6 6f 1a 3f ce e4 c5 3e 68 52 6e be
       0.29998815 0.603268 0.38651127 -0.23273623
0003a0 28 47 5a 3d 49 8d 85 bd 1f 52 0a be 37 9d 23 3f
       0.053290516 -0.06521089 -0.13507889 0.63911766
0003b0 9d b5 82 3d d5 98 b3 3e ed 0f e4 3e 1a 26 61 bd
       0.06382296 0.3507754 0.445434 -0.054967977
0003c0 46 e9 a2 3e b1 11 c3 bd b2 e5 65 be 69 ac 66 3e
       0.31818599 -0.09524859 -0.22450903 0.22526707
0003d0 fb 6d 11 3c e7 f1 1d 3e 04 de 8a 3e 6c f7 11 be
       0.008876319 0.1542431 0.2712251 -0.1425454
0003e0 25 a4 0a bf 4b a9 05 be fd 96 aa 3e dc 6a c9 be
       -0.54156715 -0.13052861 0.3331832 -0.3933934
0003f0 7a 24 37 3c 87 c7 1f be 08 7a c0 3e bf ad da be
       0.01117813 -0.15603457 0.37593102 -0.42710683

weight f4 [18, 18]
000000 54 d3 f1 bd f3 cf 11 be a7 8f 34 be 3e 01 18 3e
       -0.11807886 -0.14239483 -0.17632924 0.14844224
000010 df 1d fc 3d f1 e5 f3 be 74 7f 75 3e e0 58 d9 be
       0.12310385 -0.4763637 0.23974401 -0.4245062
000020 c3 36 00 3f db ea 80 bc be 7b 90 3e ae 3c cc bd
       0.5008356 -0.015736988 0.28219408 -0.09972511
000030 97 08 2a be ac 8b b3 be 50 ef f5 3b 99 a6 af 3e
       -0.1660484 -0.350675 0.007505335 0.3430679
000040 fc 9c 37 3e 41 73 14 be 00 a3 bb be a9 f5 32 3e
       0.17930979 -0.14497091 -0.36647797 0.17476524
000050 78 e8 03 be 60 f7 70 be 71 d2 fd 3d 84 a6 3f be
       -0.12881649 -0.23531866 0.12393654 -0.18715864
000060 2e 06 05 bf a5 64 aa be 33 32 4c 3e bd 7e 3b 3d
       -0.51962554 -0.3327991 0.19941024 0.045775164
000070 df 30 b9 be 0f 89 86 be 99 1d c0 be 52 24 92 be
       -0.36170098 -0.26276442 -0.3752258 -0.28543335
000080 54 90 24 3c 17 39 11 3f b9 38 1f 3d 0f 16 1e be
       0.010044176 0.5672774 0.038872454 -0.15438102
000090 c2 63 ae 3e c8 83 a9 3e d5 04 ab 3e 80 53 93 be
       0.34060484 0.33108354 0.33402124 -0.28774643
0000a0 4f d7 37 be 98 9d 6a bd d6 45 d5 3c 54 60 a9 bd
       -0.17953227 -0.0572792 0.026034277 -0.08270326
0000b0 d2 5e 89 3e 69 e6 62 be b0 06 a0 3e 3e c7 78 be
       0.26830155 -0.22158207 0.31255102 -0.24294755
0000c0 a4 a1 cf 3c e0 8f 6d be e5 7f 65 bd f4 d7 92 be
       0.025345631 -0.23199415 -0.056030173 -0.28680384
0000d0 ce bc 06 bf e8 d4 15 3f a5 2c 06 3e 5d 55 20 bd
       -0.52631843 0.58527994 0.13102968 -0.03914391
0000e0 b6 7b 64 3e 24 8d 70 be 66 68 8e 3e fe bf 81 3e
       0.22312817 -0.23491341 0.27814025 0.2534179
0000f0 ee 38 bd bd bc b2 c4 bd b3 47 8c be 79 60 32 be
       -0.09239374 -0.096044034 -0.27398452 -0.17419614
000100 93 55 f2 3e f6 2e 56 be 78 7b 1e be 46 18 00 be
       0.47330913 -0.20916352 -0.15476787 -0.1250926
000110 d9 b2 81 3e 2e 44 f7 3e be 94 a1 3e 78 4d f3 be
       0.25331762 0.48294204 0.31558794 -0.4752004
000120 18 ac f7 bb 87 b7 c9 3e 47 ca b5 be 6d 60 c8 bd
       -0.007558357 0.39397833 -0.35505888 -0.09784017
000130 73 ea 57 be 5f 60 d3 be b0 dd 9d 3e 3e b9 92 3e
       -0.21085529 -0.41284463 0.30833197 0.28656954
000140 be 1b 7c 3e ed a4 e5 be 6e 5f 1b 3d f4 fa 13 be
       0.24619958 -0.4485239 0.037932806 -0.144512
000150 02 99 33 be a1 ff f8 3e f0 81 bd 3e 3d b9 76 bd
       -0.17538837 0.4863253 0.37013197 -0.06023525
000160 1b 28 85 3e 28 8b b1 be a7 13 68 be 8b 99 76 3e
       0.2600716 -0.3467648 -0.22663747 0.2408201
000170 a4 ce 98 3e 01 0e 22 3e 04 e6 44 3f 79 4e b5 be
       0.29845154 0.15825655 0.76913476 -0.35411432
000180 4f 8b 95 3d fe e2 62 3d b8 85 a5 3d 31 29 ec be
       0.07301962 0.055392258 0.080821455 -0.46125177
000190 9f e5 8d be 66 f8 7c bc 45 21 0e be 33 15 01 bf
       -0.2771425 -0.015440082 -0.13879879 -0.5042297
0001a0 3f 3f a5 3c 14 cf 8c be 41 5d 21 3e b7 3b 0e 3f
       0.02017176 -0.27501738 0.1575823 0.5555987
0001b0 48 fc 21 be e9 8e 43 3e 91 35 e2 bd 0b b1 79 3e
       -0.15818894 0.19097485 -0.11045373 0.24383943
0001c0 9b 9f 41 be 92 48 d1 be 10 f9 2f bc 8a ea 25 be
       -0.18908541 -0.4087568 -0.0107405335 -0.16202751
0001d0 89 d8 ff bc dc 4b 8c be 5d 99 10 be 6a 73 b0 bc
       -0.031231182 -0.27401626 -0.14121003 -0.021539409
0001e0 64 ad 5a 3e cb 3a 2c 3f ef 84 9f be 31 9e 3a bc
       0.21355206 0.6727721 -0.31156108 -0.011390255
0001f0 d3 f1 90 bd 16 e9 41 be 33 a9 08 3e 2c 85 bd be
       -0.07077374 -0.18936571 0.13345794 -0.37015665
000200 6b 72 07 3f df 0c 7e be 68 66 3c be 1b 3e b6 bd
       0.5290896 -0.24809597 -0.1839844 -0.088985644
000210 5f b1 dc 3d 0a 73 59 bd f0 f6 43 3e d0 dc 7f 3e
       0.10776018 -0.053088225 0.19137168 0.24986577
000220 b1 37 fa 3c 17 88 ad 3e 66 92 8b 3e c7 93 93 be
       0.030544134 0.3389289 0.2726013 -0.28823683
000230 b9 b6 b7 be f0 cf 41 3e 90 8f ed 3d af 1f 84 3d
       -0.35881594 0.18926978 0.11599648 0.06451356
000240 70 ad 5f 3d 89 38 c6 be 07 0c 9c bd 4c f8 0d 3e
       0.054608762 -0.38715008 -0.076194815 0.13864249
000250 7c 37 87 be e9 d6 b4 3e 61 d9 03 3f b9 73 b4 bc
       -0.2640952 0.35320213 0.5150357 -0.022027837
000260 95 3a 1f bd 33 29 99 3e e2 db d4 bd c3 70 c2 be
       -0.038874228 0.29914245 -0.10393502 -0.37976655
000270 ac 9a 48 3e 63 51 21 be 7b 0a cd 3e 2a 0c f6 3c
       0.19590253 -0.15753703 0.40047058 0.030035097
000280 09 de 6d be 8c fe f2 bd 2f 62 ce 3d f7 b0 62 3e
       -0.23229231 -0.11864957 0.10077321 0.22137819
000290 c3 a8 ff 3d 0a b7 bf be 4f c9 d9 bc 3f 97 d9 be
       0.124833606 -0.37444335 -0.02658525 -0.42498204
0002a0 ae df ed 3e e0 1a 78 3e b6 73 29 be 49 38 87 be
       0.46459717 0.24229002 -0.16548046 -0.2641013
0002b0 3c 35 c9 be f3 a5 d2 bd 63 a6 82 3d 6f 28 2e 3e
       -0.39298427 -0.102855586 0.06379392 0.17007612
0002c0 09 93 88 be ba ef 82 3d 1c 1f 36 3f ca e1 bb 3b
       -0.2667468 0.063933805 0.7114122 0.0057337033
0002d0 56 9a c4 be e4 94 10 bf 90 09 dc be e4 17 ec 3e
       -0.38399 -0.5647719 -0.42976046 0.46111977
0002e0 df 72 3a bc 52 6e 1e 3f d9 44 a0 be 31 8d 97 bd
       -0.011379926 0.61887085 -0.31302527 -0.07399977
0002f0 3e 35 fa 3d 53 81 ea 3d d2 c1 8a be fc 66 d3 3d
       0.122171864 0.11450448 -0.27100998 0.10322377
000300 0d 6e c8 bd 1c 57 1f be f3 e0 6d bc fc e4 93 3c
       -0.097866155 -0.15560573 -0.014518964 0.018053524
000310 3f 67 56 3e 61 31 ed bd a7 ef d7 3e 13 f9 ac 3e
       0.20937823 -0.11581684 0.42175028 0.3378378
000320 b3 36 06 bf 6f c1 f5 3d 1b de 92 3d 5e 57 de 3e
       -0.52427214 0.11999785 0.071712695 0.4342603
000330 02 2a 86 3e 32 ba dc 3e f2 69 a0 be 30 c9 16 3c
       0.26203924 0.43110806 -0.3133083 0.00920324
000340 1a a7 cc 3e fe a4 a4 be 8f 43 37 3e a6 a9 8c bd
       0.39971238 -0.3215713 0.17896865 -0.06868295
000350 c7 7b bc bc 46 ca 39 bf 7e 78 ee be 63 1d c2 bd
       -0.02300824 -0.7257427 -0.46576303 -0.09478261
000360 96 6f ab 3e c6 49 41 3e 27 c7 76 3e 55 3f 13 3e
       0.3348357 0.18875799 0.24099408 0.14379628
000370 b6 26 be be e6 18 ae bc b9 47 15 3e 44 fc c3 be
       -0.3713891 -0.021252107 0.14578141 -0.382784
000380 ce 1b c7 3e db 7b 0d 3e 30 4b 70 be 53 bf 3d 3d
       0.388884 0.13816778 -0.23466182 0.04632504
000390 31 7c b3 bb e9 80 09 3e 7e c5 3b bd a6 89 fe 3d
       -0.0054774513 0.13428082 -0.04584264 0.12428598
0003a0 79 b6 ce 3d 30 0a e5 3e 9a 24 f1 bd 88 24 2a 3e
       0.10093398 0.44734335 -0.11774559 0.16615498
0003b0 78 ba 69 be 4b 2a 2f 3d dc 11 18 bd 3c 52 2c 3e
       -0.22825038 0.042764943 -0.037126407 0.16828245
0003c0 7e ee 27 3e 66 0e 7b 3e 89 1b 9b 3e f0 1e e2 bd
       0.16399571 0.24517211 0.30294445 -0.11041057
0003d0 e7 04 66 3e b8 71 15 3f 3c 65 a6 be 91 63 26 3e
       0.22462808 0.58376646 -0.3249911 0.16248919
0003e0 af 47 ef bd 96 ca 83 bd d8 f3 f9 3d 9d 38 4d be
       -0.116835944 -0.064351246 0.12204713 -0.20041128
0003f0 24 0b 5e 3e 0f ab 15 be 19 55 3e be b8 a6 8a 3e
       0.21683937 -0.14616035 -0.1858715 0.2708032

bias f4 [18]
000000 0e fc 50 be 92 fa 02 bd db 9a 2c be 9c 52 7b 3e
       -0.20408651 -0.031977244 -0.16855948 0.24543232
000010 95 f3 04 be a5 78 5e be ae 7a 64 3e a6 0a 9e be
       -0.12983544 -0.2172571 0.22312424 -0.308675
000020 60 de b8 3d c4 e0 9d 3e 58 3f c7 3d f6 a9 ac be
       0.0902679 0.30835545 0.09728879 -0.3372342
000030 a0 8c 0d be 1d ce bd 3d 9a 69 8f be a2 8f 12 3e
       -0.13823175 0.092678286 -0.28010255 0.14312604
000040 51 c3 d8 bc cb 52 7d be
       -0.026460322 -0.24738614

weight f4 [18]
000000 62 e0 82 3f 0f 38 56 3f 5e c9 82 3f 3c 7f 38 3f
       1.0224726 0.8367929 1.0217702 0.72069144
000010 36 ad 5f 3f bc 26 69 3f 00 40 46 3f ac 4c 80 3f
       0.87373674 0.9107473 0.77441406 1.0023398
000020 f7 c9 79 3f b9 80 7d 3f ee 9f 5b 3f 2a 2f 46 3f
       0.975738 0.9902454 0.8579091 0.77415717
000030 62 bb 35 3f 2b 02 9a 3f 97 ae 4e 3f ad e2 33 3f
       0.7098905 1.2031912 0.8073515 0.70267755
000040 41 3a 8c 3f 8a f0 e5 3e
       1.0955278 0.4491008

bias f4 [18]
000000 ad 8f 80 be e7 7a 22 3e 6b b8 53 3e 0d 6c b3 3e
       -0.25109616 0.15867196 0.20675819 0.35043374
000010 34 61 e3 be 5f 5f 26 3e b6 3b 6c bd ff 1a 2c be
       -0.44410098 0.16247319 -0.057674132 -0.16807173
000020 ae c1 5d bc 74 f7 f7 3d 96 a6 85 3d 05 7c 06 3e
       -0.013534946 0.12107745 0.06525914 0.13133247
000030 29 65 bb be 3f fd 8d 3b ed 9e 2c be bb 73 02 bd
       -0.36600617 0.004333168 -0.168575 -0.03184865
000040 9d 10 c0 3d 01 61 06 be
       0.09378169 -0.13122942

weight f4 [64, 18]
000000 f4 53 19 3e 17 7d 1b be 7a 5d 31 bb 57 ce 93 be
       0.14973432 -0.15184437 -0.0027063773 -0.28868362
000010 01 88 81 3b ce 11 1b be ed 10 f8 bd 66 1a 86 3e
       0.0039529805 -0.1514351 -0.12112603 0.26192015
000020 ee 2b e1 3d 26 cd 0b bf bf 37 d8 3e 8f 5c da 3d
       0.10994707 -0.54609907 0.4223003 0.106621854
000030 a6 ca f8 3d 25 f7 05 bf fb fd cb 3d f5 45 af 3d
       0.12148027 -0.5233024 0.09960552 0.08558265
000040 a3 cf 0b bf df ff f0 bd 1c 14 36 3e 30 5f a4 be
       -0.54613703 -0.117675535 0.17781109 -0.32103872
000050 bd 31 66 3e 29 64 d2 be d9 90 72 3e b7 02 1d be
       0.22479911 -0.4109204 0.23688067 -0.15333067
000060 0c a4 1f 3f 47 a4 33 bd df 8c e8 be 19 f6 e1 bd
       0.6235969 -0.04385784 -0.45419976 -0.110332675
000070 c0 77 1b be 69 85 de 3e 2c d1 68 be b7 6f 40 bf
       -0.151824 0.4346116 -0.22736043 -0.75170463
000080 b6 0e 6b bd 41 e3 1b 3e f6 15 8c bc 94 eb 20 bd
       -0.057387076 0.15223409 -0.017100316 -0.039287165
000090 65 82 28 bd ae 9f 34 be 75 e4 bc 3d e8 6f 31 bd
       -0.04113998 -0.17639038 0.09223262 -0.043319613
0000a0 44 f9 0d 3f 02 2f ff 3d 34 c8 5c 3d f3 1c a5 be
       0.55458474 0.12460138 0.053901866 -0.3224865
0000b0 c9 31 bd 3e ce 6e 97 be 07 da 8a 3d 16 33 a5 3e
       0.36952046 -0.29576725 0.06779867 0.32265538
0000c0 c2 29 0e bc b8 2b 06 bf af 89 5f be 5f 8c be bd
       -0.008676948 -0.5241046 -0.21829866 -0.093041174
0000d0 38 27 20 be b0 69 b9 3e 1b 84 27 bd c5 8b e0 be
       -0.15639961 0.36213446 -0.04089747 -0.43856636
0000e0 22 d7 b3 bd ad 26 83 be 63 13 a7 3d 76 e9 89 bd
       -0.08781268 -0.25615445 0.081579946 -0.06733982
0000f0 20 14 e6 bb df 44 7c 3e fb fc 4e bd 32 90 d5 be
       -0.007021442 0.24635647 -0.05053423 -0.41711575
000100 2b 71 c7 3e 28 d8 7d 3e 51 0d 1f 3b 2d 02 1e 3f
       0.38953528 0.24789488 0.0024269412 0.6172207
000110 55 6e 95 be 61 f4 36 3d fa f4 ee bd 20 c8 f0 3d
       -0.2918574 0.04466665 -0.11667819 0.11756921
000120 dd 04 04 3d 32 6b a3 bd 78 84 13 be 14 cf 3d be
       0.0322312 -0.0797943 -0.14406002 -0.18536025
000130 71 64 bc bd 69 2f 2f bf 26 99 a9 3e 67 7b 49 3d
       -0.09198845 -0.6843172 0.33124655 0.04918995
000140 8d 2b 38 3e 02 6e ba bd ea 74 11 3f f2 68 02 be
       0.17985363 -0.091030136 0.5681902 -0.12735346
000150 8f af 27 3e b1 c8 26 bd a4 07 e7 bd 3a dc 0a be
       0.16375564 -0.040718738 -0.11280754 -0.13560572
000160 41 d3 30 be 3e 42 d4 bd 1e 2b 47 3e ef 9c b1 bd
       -0.17268087 -0.10364197 0.19450042 -0.08672511
000170 7f 44 d6 be fd 71 85 bd 95 5e 66 3e 45 b1 83 3e
       -0.41849133 -0.06515882 0.22497018 0.25721183
000180 8c 87 d1 bd a6 1f 53 3e 88 ba aa be 30 4f ca bd
       -0.10230932 0.20617542 -0.33345437 -0.09878385
000190 56 ec c3 bd 1f d8 74 be c6 dc bf 3e 32 ec d5 bc
       -0.09566562 -0.23910569 0.37473124 -0.026113603
0001a0 d2 54 c9 bd 15 cc 9e be a9 ed 30 3f 74 3a a6 bd
       -0.09830631 -0.31015077 0.6911264 -0.08116618
0001b0 13 36 08 3f a3 ba de 3e 0c 80 86 3e 09 3f a0 3d
       0.5320751 0.43501768 0.26269567 0.07824523
0001c0 72 22 dd 3e 92 78 40 3d 62 3e a2 3d fb 8b 7e be
       0.43190342 0.046989985 0.07922055 -0.24858086
0001d0 d1 bb 4e 3e e5 6a f2 3d 88 8f 06 be 03 02 a5 be
       0.20188834 0.11836795 -0.1314069 -0.32228097
0001e0 fc de 40 3e 85 1e 2c be bc 0f 02 bf 3c ed a5 3d
       0.18835062 -0.16808517 -0.5080526 0.081018895
0001f0 14 ed a0 bd 22 9e 28 3e 8d b7 78 bd 85 94 0c 3e
       -0.07857719 0.16466573 -0.060721923 0.1372853
000200 e5 ef 6d be 15 20 22 3e b6 ee 8c bc ef e2 08 3d
       -0.23236044 0.15832551 -0.01720367 0.033419546
000210 b6 dd b1 3c 8b 84 4c 3d 02 5a 9a 3d b2 65 d4 be
       0.021712165 0.04993109 0.07536699 -0.41483837
000220 1b 0b 04 bf aa 25 24 be 4f 90 35 3f f9 0a 49 3e
       -0.51579446 -0.16029993 0.7092332 0.19633092
000230 fa 43 f9 3d 24 71 9d be 50 ff 06 3f ba c4 92 be
       0.121711686 -0.30750382 0.52733326 -0.28665715
000240 23 a6 d1 3d dd d3 5b 3d aa 34 c1 3d 1e 2b bd bd
       0.10236766 0.053668845 0.09433873 -0.092367396
000250 14 28 29 be 7d 65 01 3d a7 9a 0d 3e cf 9f c8 3e
       -0.16519195 0.031590927 0.13828526 0.39184424
000260 7a 29 48 bf 2b 62 f0 3d c2 84 e5 bd 44 56 09 3c
       -0.7818829 0.11737474 -0.11206962 0.008382384
000270 f0 bc ec 3c ee 1e 6c be 88 bd b9 bd dd 6c 82 3e
       0.028898686 -0.23058674 -0.09069353 0.2547368
000280 ec a1 7a bc a1 17 b9 3c e1 b8 be be df ef d5 bd
       -0.015297394 0.022594275 -0.37250426 -0.104461424
000290 a6 ea 21 3e c8 0d 38 3e 61 8c 25 3f 2b 3a b3 be
       0.15812168 0.17974007 0.64667326 -0.35005316
0002a0 8d 1d 33 be 68 e5 ab 3e 68 6c 60 3d c6 81 9f 3e
       -0.17491741 0.3357346 0.054790884 0.31153697
0002b0 fb 2f 85 bd f7 65 04 3e 10 18 92 3e 2e b1 34 bd
       -0.06503292 0.12929522 0.28533983 -0.044114284
0002c0 e4 04 8c be 03 c1 d0 3d 1d 99 8a be 76 23 a0 be
       -0.2734748 0.10193064 -0.2706994 -0.31277055
0002d0 3b c3 00 3f b7 bc 95 be c0 68 52 be 33 18 5e 3d
       0.502979 -0.2924554 -0.20547771 0.054222297
0002e0 e4 aa 16 bc d9 f3 ca bd 02 19 94 3e b6 04 bf 3c
       -0.009196017 -0.099097915 0.2892533 0.023317676
0002f0 d9 56 13 3e 34 6d 0a 3e 51 b9 3a be 7e 42 06 3e
       0.14388599 0.1351822 -0.18234755 0.13111302
000300 a9 a4 35 be f1 cf cc bc e4 01 bf bd fe 3e 18 bd
       -0.17738594 -0.025001498 -0.093265325 -0.03716945
000310 8d b9 d8 be 52 b9 41 3d 46 ec 02 3e 66 86 0c bb
       -0.42329064 0.047295876 0.12785444 -0.0021442412
000320 5a cf 71 3e 20 b7 50 bd 02 06 6d 3e c2 90 4b bd
       0.23614255 -0.05095589 0.23146823 -0.0496986
000330 fa 13 99 be 00 82 95 bc 2e 5b 89 be b6 d2 2d 3e
       -0.29898053 -0.018250465 -0.26827377 0.16974911
000340 14 69 62 3b 7a 06 41 3e 95 3a 16 3f 43 1d 72 bd
       0.0034547495 0.18850127 0.5868314 -0.059109937
000350 80 7f e5 3d 80 fa 21 3e fe 6d 2c be 14 72 1c bd
       0.11205959 0.15818214 -0.16838834 -0.03819473
000360 e0 9f b1 be a7 bd 9b 3e 20 ad 83 3e d4 96 f4 3d
       -0.34692287 0.3041813 0.2571802 0.11942831
000370 4a c0 9a 3c f7 b6 36 3c d0 d9 eb be a2 7b 1e bf
       0.018890519 0.011152021 -0.46064615 -0.619074
000380 e8 3e 3b 3f 32 a5 15 bd 68 d8 da 3c ca 14 46 be
       0.7314286 -0.036534496 0.026714519 -0.19343868
000390 08 1a 17 3f 4d 37 98 3d ae 09 2b be ff 24 c4 be
       0.59024096 0.07432423 -0.16702911 -0.38309476
0003a0 3b 2c 9b 3d 7a 5e f8 3c fd 55 7f be f1 6a 4b 3e
       0.07576796 0.030318487 -0.24935146 0.19865014
0003b0 6e 1a 88 3e c1 9b a1 be 73 24 4b 3e d3 69 b8 3d
       0.26582664 -0.31564143 0.19838123 0.09004559
0003c0 60 26 09 bd 47 81 2a 3e 61 09 37 3b 5c 66 22 3f
       -0.033483863 0.16650878 0.0027929174 0.6343744
0003d0 35 04 aa bb b4 d1 32 3c 75 b0 2f 3e 30 22 47 38
       -0.00518849 0.010914255 0.17157157 4.7477137e-05
0003e0 dd 72 6c be 80 5b 0a be f5 47 a2 3d 24 27 1d 3e
       -0.23090692 -0.13511467 0.07923881 0.15346962
0003f0 68 4a 65 3e cf 0b b2 be a7 ed c6 be 1f e2 e4 3d
       0.22391665 -0.34774634 -0.3885319 0.11175942

bias f4 [64]
000000 d7 25 49 be 85 27 d9 be 5e 0a e4 3d f7 37 4f be
       -0.19643341 -0.42412964 0.1113479 -0.20236193
000010 65 95 8d be 88 fa 10 bf 7f 02 a3 bd 57 3a bb be
       -0.2765304 -0.5663228 -0.079594605 -0.36567947
000020 16 10 52 be ef 65 a9 be 9b fe 5f 3d 47 c2 cd bd
       -0.20513949 -0.33085582 0.05468617 -0.10046821
000030 e7 31 e8 be 4b bd 68 be 24 ef 8a be 10 43 d5 bd
       -0.45350572 -0.2272846 -0.27135575 -0.10413182
000040 81 0b fa bc e4 0d f6 be 02 79 3b be 8a f6 c7 3d
       -0.030523064 -0.48057473 -0.1830788 0.097638205
000050 41 75 99 be 8f d0 b9 be a5 6a 86 be a8 b0 ef be
       -0.2997227 -0.3629193 -0.26253238 -0.46814466
000060 63 2d 90 be 65 52 a1 be 12 30 d0 be ff 8f b6 be
       -0.28159627 -0.31508175 -0.40661675 -0.35656735
000070 0a 93 c1 bd 43 e8 54 3c 1c 09 af be 90 8c 85 be
       -0.094518736 0.012994829 -0.34186637 -0.26083803
000080 0e 32 90 be 8d f9 cf be 85 f6 88 be 6c 64 21 be
       -0.2816319 -0.4062008 -0.2675058 -0.15760964
000090 82 8d 35 bd fc f5 95 be ba 25 c9 be fb b8 af be
       -0.044324405 -0.29289234 -0.39286596 -0.34320816
0000a0 39 89 d8 bd 70 58 ad be 3f 8c 96 be 3d 76 a1 bd
       -0.10573048 -0.33856535 -0.29403874 -0.0788388
0000b0 db 45 e1 be 2a e4 b7 be cb 7a cc bd ab 7b 51 be
       -0.43998608 -0.35916263 -0.099843584 -0.20457332
0000c0 b2 62 84 be b9 30 c0 be 08 d7 8d bd 6b 51 6e be
       -0.2585655 -0.37537172 -0.069257796 -0.23273246
0000d0 01 1e 94 be 66 f7 bf be 1e a5 cb be 71 dd 83 be
       -0.2892914 -0.37493438 -0.39774412 -0.25754884
0000e0 5a 93 db be 80 1a e1 be 6c 03 89 be 22 71 22 3d
       -0.42885858 -0.4396553 -0.26760423 0.039658673
0000f0 fb 0f 61 be be 93 e3 bb 8d e3 70 be c6 57 bb be
       -0.21978752 -0.0069451025 -0.23524304 -0.36590403

weight f4 [18, 64]
000000 6b a3 05 be d4 a0 97 be 72 4e a2 be 6f 8a df 3d
       -0.1305062 -0.2961489 -0.31700474 0.10915076
000010 2f 2d 6f 3d c0 ce aa 3e e4 2d 07 3f 35 4e 69 3e
       0.0583927 0.33360863 0.528044 0.2278374
000020 c6 09 10 3e 75 78 17 be 92 6e bc 3d 14 e3 38 3e
       0.14066228 -0.14792044 0.09200777 0.18055373
000030 03 11 f0 3d d0 c9 29 3e 04 bb f6 bd 3f f4 49 3e
       0.11721995 0.16580892 -0.12047389 0.19722079
000040 f8 79 33 bc fc ca cb be 7f 28 f2 3d 8b ca a1 3c
       -0.010954373 -0.39803302 0.1182413 0.0197499
000050 b6 b1 16 bd 80 70 d6 3e 29 3d e1 bd 7d 15 aa 3e
       -0.036790572 0.41882706 -0.109979935 0.3321952
000060 92 54 66 bd b1 51 33 be cc 8d c7 bd 1a 36 34 bd
       -0.056232996 -0.17511632 -0.097438425 -0.043996908
000070 13 c6 d3 bd 2d 28 97 bd 56 fc 0a be fd f1 92 3e
       -0.10340514 -0.0738071 -0.13572821 0.28700247
000080 50 0c 1a 3d e5 66 ea bc e0 d8 94 be 12 8e 6b 3a
       0.0376094 -0.028613517 -0.29071712 0.00089857087
000090 59 72 0f ba a7 5b 9b 3e b0 4a 3e be dc 91 d0 bd
       -0.0005472056 0.30343363 -0.18583179 -0.101840705
0000a0 5a c1 cc 3c 4f 9b 89 3e 0f 34 ce 3e 61 87 35 3e
       0.024994541 0.26876304 0.40274093 0.17727424
0000b0 5d 30 04 3e b5 92 9f 3e 93 80 47 3e a5 b9 92 be
       0.12909074 0.31166616 0.19482641 -0.2865726
0000c0 6f 21 8a bd 59 fc 27 3e a5 f5 61 3d 9c 7c d1 be
       -0.06744658 0.16404857 0.055165906 -0.40915382
0000d0 95 cc a2 3d 81 b0 ff 3d 1d 43 df 3d 45 ea 16 3e
       0.07949177 0.12484837 0.10901473 0.14737804
0000e0 ec 5b b6 3e d0 23 a5 be 18 27 78 3d 7a d5 5d 3e
       0.35617006 -0.32253885 0.060584158 0.21663466
0000f0 d1 a7 89 be 8c 65 50 3d df cd 96 3e 34 5c 13 3c
       -0.26885846 0.050878093 0.29453942 0.008994151
000100 42 23 eb bd 92 d3 5f 3d 85 17 31 be 4a 48 28 be
       -0.11481334 0.05464513 -0.17294128 -0.16433826
000110 d5 0c fe be 81 cd a5 3e 99 fc 82 be 2d 35 f8 3d
       -0.49619165 0.3238335 -0.25583342 0.121195175
000120 c1 9c 7e 3e e2 e2 6e 3d e7 41 6a be f4 28 93 bc
       0.24864484 0.05832184 -0.22876702 -0.017963864
000130 51 87 77 3e 3e ea 15 be 21 84 e7 3d 17 18 1f 3e
       0.24172713 -0.14640138 0.113044985 0.15536533
000140 a2 06 b7 be a0 58 68 3e 8c 6b 5f be f5 13 02 bd
       -0.35747248 0.22690058 -0.2181837 -0.031757314
000150 70 3a e0 3c a0 c2 92 be 89 1a 06 be 1e 61 00 be
       0.027371615 -0.28664112 -0.1309606 -0.12537047
000160 f1 cb 0e 3e 15 ee 4a 3d b8 2e 67 bd c2 2a 1c 3e
       0.13944985 0.04954346 -0.05644104 0.15250686
000170 29 92 2d 3d c8 bc 31 bd 90 22 50 3e d7 71 2d be
       0.042375717 -0.043392926 0.20325685 -0.16937958
000180 29 f5 4c 3e b7 52 c6 be 97 ad 8b 3e a3 f2 b0 3d
       0.20015396 -0.3873498 0.27280876 0.08640029
000190 c2 0f 57 3e 7d c8 1f 3c c0 46 64 be 07 b8 89 bc
       0.21002105 0.00975239 -0.22292614 -0.016811384
0001a0 83 3a 01 be 1c ba 58 bd 4d 59 93 bc cd 60 2a 3e
       -0.12619977 -0.052911863 -0.017986918 0.16638489
0001b0 19 ef 98 bd 47 2b 0b be 9a 92 d1 bd 21 7d 17 3c
       -0.07467479 -0.13590728 -0.1023304 0.009246142
0001c0 ec 3b a8 3d c7 e5 70 bc 23 04 2a 3e ba cd 80 3e
       0.08214554 -0.014703221 0.1660314 0.25156957
0001d0 a5 f0 b3 be 34 ce 80 3e 6d e7 16 3e 61 9d da 3e
       -0.35144535 0.2515732 0.1473672 0.42698196
0001e0 c4 99 06 3e da e6 59 be 40 9e 84 3d ab f5 c7 3d
       0.13144594 -0.21279469 0.06475496 0.09763654
0001f0 78 a6 8a 3e d1 ed 4d be 11 93 1f 3e fe a4 11 be
       0.2708013 -0.20110251 0.15583445 -0.14223096
000200 fe f1 4b bb eb 1a 5c be 7f 0a a9 bd 89 3c b5 be
       -0.003111958 -0.21494643 -0.08253955 -0.35397747
000210 05 aa 6b 3e 75 18 8c bd ef bd 85 3e 4e 08 c4 3e
       0.23014076 -0.06840602 0.2612147 0.38287586
000220 a4 d2 78 be 0d da 32 3e 9d 1d b2 3d 46 75 fd 3d
       -0.24299103 0.17465992 0.086970545 0.12375884
000230 ce 72 c3 bd 9b d9 fd 3d 48 73 27 3d f1 cd ad 3d
       -0.09543382 0.123950206 0.040881425 0.08486546
000240 07 f2 08 3e da b0 61 be 41 fc ac 3d 24 79 de bd
       0.13373576 -0.2204012 0.08446551 -0.108629495
000250 3c a5 e9 3c 48 69 1b 3e 8b be 68 3e cb 5b 30 3e
       0.028521173 0.1517688 0.22728936 0.17222516
000260 af ba 8f 3d ed a4 f5 bd 0d 26 87 be c2 1a cf 3d
       0.07018029 -0.11994348 -0.26396218 0.101125255
000270 d4 ee 97 3e cc 37 78 3d 08 fc 90 be 61 cf b8 3e
       0.296744 0.060600087 -0.28317285 0.36095718
000280 13 98 32 bd d8 6c 92 3e b4 a6 1b 3e ae b6 25 be
       -0.04360206 0.28598666 0.15200311 -0.16182968
000290 7d 0c e4 3d 94 85 81 be 4d 37 0d bd 45 34 91 be
       0.111351945 -0.25297225 -0.034476567 -0.2836019
0002a0 4d 59 85 bd 81 df 4f be 53 a1 b0 3d 21 b9 18 bd
       -0.065111734 -0.20300104 0.0862452 -0.037285928
0002b0 19 75 1c bd 1d fd a2 be 56 d7 19 bd 59 92 9a be
       -0.03819761 -0.31833735 -0.037558876 -0.3018978
0002c0 03 c1 7d be 0f a0 06 bd 8b fe a5 3b d4 56 1b be
       -0.2478066 -0.032867488 0.0050657443 -0.15169841
0002d0 ed ee b3 bd 1e 9c 97 be 0d 29 a5 3d 6b e8 86 3e
       -0.08785806 -0.29611295 0.080644704 0.26349196
0002e0 ed a9 0a 3c 7a 93 26 be 1e bd ab bc 80 b0 b7 3d
       0.008463365 -0.16267195 -0.020964202 0.089692116
0002f0 7c 7e 1b 3e a1 1e e8 bd c7 4b 9e bd 14 80 3c 3e
       0.15184969 -0.11333967 -0.07729297 0.18408233
000300 f4 52 28 3d 98 8c 33 3e 2e 06 f7 3e 1a 4d 0e 3e
       0.041094735 0.17534101 0.48246902 0.138966
000310 46 1f 09 be 54 f1 1e be 16 6a 0c be 67 e6 24 be
       -0.13390836 -0.15521747 -0.13712344 -0.16103517
000320 81 f4 ef 3d 1e 04 30 be 89 92 8e bc 6a ec be bd
       0.11716557 -0.1718907 -0.017403858 -0.09322436
000330 74 cd 9a 3e 3c e3 65 be 02 bd 6e be dc f6 7d be
       0.30234873 -0.22449964 -0.23314288 -0.248012
000340 95 17 de bd 22 19 a8 3e f5 dd 52 3e 20 af c4 bc
       -0.10844342 0.32831675 0.20592482 -0.024009287
000350 8d 82 29 3e 89 3b ce be 06 d8 75 bd a7 58 67 be
       0.16553707 -0.40279797 -0.06002047 -0.22592412
000360 f7 e9 a2 3d 42 f3 1e 3d f4 8b bc 3e e8 a1 09 3e
       0.079547815 0.038806207 0.36825526 0.13440669
000370 15 3c 06 bc 0a c6 a8 bc b3 de 62 bd 6b a2 1a 3e
       -0.008193036 -0.020602245 -0.055388164 0.1510102
000380 6d 01 68 3e 41 0e 18 3e 41 6b 44 be da 16 e5 3e
       0.22656794 0.14849187 -0.19181539 0.44743997
000390 5f ba 09 be 01 84 04 3f e4 9c 1b bd fa c0 1d 3e
       -0.13450001 0.5176392 -0.03799142 0.15405646
0003a0 fd db d6 bd 4f 98 77 be b6 54 9a be 62 47 34 be
       -0.10491178 -0.24179195 -0.30142754 -0.17605355
0003b0 dd af 83 be 7e c8 07 3d 44 dd aa 3e 43 f7 a4 3e
       -0.2572011 0.03315019 0.33371937 0.32219896
0003c0 d5 72 8b 3e 48 7c 75 bd b7 26 3d 3e ce 21 2a 3e
       0.27236047 -0.059932977 0.184718 0.16614458
0003d0 15 80 a2 3e e4 d7 b3 3e cc 32 6a 3e fe 94 67 bd
       0.31738344 0.3512565 0.2287094 -0.056538574
0003e0 a9 04 0e be d2 a8 ff 3e e6 dc 15 3d 43 46 56 3e
       -0.13868965 0.49933487 0.03658762 0.2092524
0003f0 54 d9 07 3e 27 58 22 be 86 1b a5 bc aa 93 e4 be
       0.13266498 -0.1585394 -0.020154726 -0.4464391

bias f4 [18]
000000 a9 c6 e6 3d 64 94 01 bd ac 4e 16 3c 0d 01 69 bd
       0.1126836 -0.031635657 0.00917403 -0.056885768
000010 b9 62 22 3c c4 2d c8 bd df 6d 73 3c 4b 51 50 bd
       0.009911233 -0.09774354 0.014857738 -0.050858777
000020 d9 ef 57 3d 40 60 ee 3c 74 81 0e bd 3d 49 8a bd
       0.05271897 0.02909863 -0.034791425 -0.0675225
000030 69 30 1f bc 17 f2 06 be 8a 56 17 be 8b eb 4e bd
       -0.009716132 -0.13178287 -0.14779106 -0.0505176
000040 f3 1d 0e be 95 f2 01 bc
       -0.13878612 -0.007931371

weight f4 [18]
000000 03 63 8d 3f 8c 76 83 3f 02 d3 8e 3f 25 4b 7e 3f
       1.1045841 1.0270553 1.1158144 0.9933341
000010 0b 7e 77 3f 74 cd 96 3f 79 28 8e 3f a6 b5 81 3f
       0.966767 1.1781449 1.1106101 1.013356
000020 a3 c1 8d 3f 93 2d 73 3f f8 0d 35 3f a4 6c 92 3f
       1.1074718 0.94991416 0.7072444 1.1439404
000030 83 e7 78 3f 03 ac 88 3f 83 df 93 3f 3c eb 75 3f
       0.9722826 1.0677494 1.1552585 0.96062064
000040 0a 79 8f 3f 0d c2 84 3f
       1.1208813 1.037172

bias f4 [18]
000000 44 e7 2e be 67 28 3b 3c 5b 80 ca bd 04 04 2e 3e
       -0.17080408 0.011423207 -0.09887763 0.1699372
000010 2d e8 4c 3e 1c cd 83 3d 10 dc 11 3e af dd 48 be
       0.20010443 0.06435606 0.14244103 -0.19615816
000020 12 b5 03 be 58 47 44 3e 08 54 eb 3d ac b5 af 3d
       -0.12862042 0.1916784 0.11490637 0.08579573
000030 d9 10 82 be 4e e8 28 be 2a b2 1c be 17 db 52 be
       -0.2540348 -0.16494867 -0.15302339 -0.20591389
000040 86 55 c6 3d 98 db b3 3d
       0.09684281 0.087821186
