Case_Study_1/trained_transformer/verification/vit_48_1_6_12.pt (torch, 71399 bytes, 19 tensors)

pos_embedding f4 [1, 50, 48]
00000000: c7ad a33f 7230 3c3f 284d 85bd 56d9 85bf
00000010: 598c c3be 5fb1 bbbe 9e18 fb3e f942 d0bf
00000020: 241b ba3f e569 cbbf 43c7 b4bd 799f c8bf
00000030: ca28 4fbf 3970 803f 9b4f b8bd 25dd 91be
00000040: d914 633f b3be 523f a860 a93e 7999 74bf
00000050: 84bc ba3f cdac 29bf a4f7 14bf d8df 19be
00000060: e97a 983f 238d 3d3f 48f5 7ebf eb1e 8bbf
00000070: 38ba 883e 217f 53bf 360b f1be a76c 1dbe
00000080: 7a9c ee3e bdfe b8be 10aa cfbe 34a5 24c0
00000090: 55e0 89be d628 36bf e1b7 0a3f 2912 8fbf
000000a0: e04b 973f b47c 1ebf 49df a33f 3d02 5cbf
000000b0: b28e 8a3f fb6f 8bbf 7cbd 433f 8143 083e
000000c0: 5759 083e 6973 babf 16a2 3d3f 5218 4f3f
000000d0: ae09 babf f466 be3f 54f6 c5bf 2247 8abf
000000e0: e02b fdbe 9e67 8dbf df1f a7bf 240f 2d3e
000000f0: a716 e2be 95eb cc3f d3bf 843c 0e11 ad3f
00000100: 25e0 91be 96b4 3ec0 25b3 39c0 8561 ff3f
00000110: 874a 14c0 6646 7fbe 8693 f1be 0473 01bf
00000120: 1853 3fbe 47af 593d f6d6 9b3d ffd7 c3bd
00000130: b5cb e0be 2d58 153f 75ef 0640 7f18 a6be
00000140: cb0d 563f 652a 893e 7b61 cabe 01c0 b53f
00000150: 2916 d73f b027 e2bf 6bc2 3a40 4664 0f3f
00000160: 1f42 d0bd 579a 663f 47b1 ed3d 45dc 183d
00000170: 361a 5c3e 9ba7 b53e 5ea2 823e d890 b63d
00000180: d81b aebe 4b3b 0fbf 7e5b 13bf 2806 87be
00000190: 3015 5dbf ae21 ccbe 15ad 83bf a274 133d
000001a0: f5a5 113e 9ecf 87be 753a 53be 8844 8e3e
000001b0: da31 e9bb e387 053e 59a4 df3e 0d56 a6bf
000001c0: 022a bd3f 5272 56bf a670 79bf 503b 3abe
000001d0: e8f4 46bf b499 05bf 0634 e1be ecd2 be3d
000001e0: 68a6 abbf 03d7 e4be 2807 063c 1dc9 f1bf
000001f0: 83b1 d3be 1873 d83d 6c66 0cbf 4162 a9bf
00000200: 43cc 7d3f ffbf 8bbf f386 2540 2f6b 47bf
00000210: 5ea1 8bbf 7643 2940 9faa e6be 64c0 523f
00000220: 581c f9be bac7 c63f b04e c0be 8694 003f
00000230: 1451 433f cdf2 8a3f 26a0 0a40 af89 893d
00000240: e143 9a3f ba26 bb3f 7d34 03c0 8afb 993f
00000250: 66d6 643e 27ed ed3e 9e76 0b3f c337 233f
00000260: e46b 533f 088b 8ebf f192 87be 23ba cdbf
00000270: 3a69 6c3f 4702 bdbe e5c1 05be 8b07 993e
00000280: f5b0 893f a1bc 4a3e 0a81 0f3f 68a0 1abd
00000290: bb26 18bf 5d5a f7bf 3c87 b53f 1089 9a3d
000002a0: 1603 bf3e c571 2fbf f256 af3c e849 5c3f
000002b0: 330e b2bf 8202 e73f fb8e d5be 21f6 f1bf
000002c0: dc95 57be bbc4 afbf bd9d 8e3f 9dd3 46bf
000002d0: a74f 4fbf 6df6 c8be aaf6 43be 8adc 983f
000002e0: 0120 9a3f 6c44 b5bd 1406 97be 8c56 0c3f
000002f0: ab4b 773f 39e4 1a3f f1f4 3dbf d838 173f
00000300: 896a 1b3f 69ab b8be 607d cebe 841d 0ebf
00000310: b933 f2bf e9ec 393f a5a6 41be 6049 22bf
00000320: 0ce8 933f 36df 25bf c3c0 2e3f ebf1 f8bf
00000330: 21ef 6b3f c1a7 e33f c2bf 5abe 1eb5 d43f
00000340: 3377 e5bd e9cf b13e a7b1 df3e 2cf9 883f
00000350: b58c f8be 4e18 cb3e f94a 453f eaf6 87bf
00000360: 7d9d e5be ae80 bdbe 11b3 55bf f858 2d3f
00000370: d2fb f13f 207b 34be 11d4 a7bf 6a89 13bf
00000380: e55e b2bf 1e0e d23f 06a2 3abf c786 6f3f
00000390: 7e1c cdbe a50c 9c3e 7b41 50bf 2676 033f
000003a0: 690f 523f 4b47 783f 3b8c 9b3f 973f 033f
000003b0: 6454 25bf 9a39 28bf f1a3 0240 e0b4 903f
000003c0: 8048 393f 1f0a ab3f 57ca 363f 333e 4f3f
000003d0: 386f b13f e548 eabf c8d5 2c3f d054 883f
000003e0: 42af 0340 8451 25bf 1a9a f43e bd3d 7fbf
000003f0: 0778 2c3f 9ded a23f 09a7 bbbf ca86 383f
1.2787408 0.7351142 -0.06508857 -1.0456951 -0.38193014 -0.3665876 0.4904222 -1.6270438
1.4539533 -1.5891691 -0.08827069 -1.5673667 -0.80921614 1.0034248 -0.089995585 -0.28489032
0.88703686 0.82322234 0.33081555 -0.9554668 1.458878 -0.662793 -0.5819037 -0.15026796
1.1912509 0.7404348 -0.9959302 -1.086881 0.26704574 -0.8261586 -0.47078866 -0.15373479
0.46603757 -0.3613185 -0.40559435 -2.5725832 -0.26928964 -0.7115606 0.54186827 -1.1177417
1.182003 -0.6190903 1.2802516 -0.85940915 1.0824797 -1.0893549 0.76461005 0.13307
0.1331533 -1.456647 0.7407545 0.80896485 -1.4534204 1.4875169 -1.5465798 -1.0802958
-0.49447536 -1.1047246 -1.3056601 0.16900307 -0.44157907 1.6009394 0.01620475 1.352083
-0.2849132 -2.979772 -2.901559 1.9951636 -2.3170488 -0.24929199 -0.47182864 -0.50566125
-0.18684042 0.053145673 0.0760936 -0.09562682 -0.43905416 0.5833767 2.1083653 -0.32440564
0.83614796 0.26790157 -0.39527497 1.419922 1.6803638 -1.7668362 2.9181163 0.5601238
-0.101688616 0.90079254 0.116060786 0.03731944 0.21494374 0.35479435 0.255145 0.089143455
-0.34005618 -0.5594985 -0.5756148 -0.26371884 -0.86360455 -0.39869446 -1.0287195 0.0359999
0.14223464 -0.26525587 -0.20627768 0.2778666 -0.0071165385 0.13040118 0.43680075 -1.2995011
1.4778445 -0.8376819 -0.9743751 -0.18186688 -0.7771745 -0.5218766 -0.43985003 0.09317574
-1.3410158 -0.4469529 0.008180417 -1.88895 -0.41346368 0.105688274 -0.54843783 -1.323311
0.99139804 -1.0917968 2.5863616 -0.77897924 -1.090862 2.6447425 -0.4505205 0.82324815
-0.48654437 1.5529702 -0.37560034 0.5022663 0.7629559 1.0855347 2.1660247 0.06715714
1.2051965 1.4621193 -2.0500786 1.2029889 0.22347412 0.46469995 0.5447787 0.6375696
0.82586503 -1.1136179 -0.26479295 -1.607243 0.92348063 -0.369158 -0.13062246 0.29888567
1.0757128 0.19798519 0.56056273 -0.03775063 -0.594341 -1.9324452 1.4181895 0.07545674
0.37307042 -0.68532974 0.021403763 0.8605027 -1.3910583 1.804764 -0.41710648 -1.8903238
-0.2105326 -1.3731912 1.1141888 -0.77666646 -0.80980915 -0.39250508 -0.19137064 1.1942303
1.2041017 -0.08850941 -0.29496825 0.5481956 0.96599835 0.6050449 -0.74201876 0.5907111
0.60709435 -0.36068276 -0.4033003 -0.5551379 -1.8922035 0.7262712 -0.18911226 -0.6339321
1.155519 -0.6479372 0.6826288 -1.9448828 0.92161757 1.778557 -0.21362212 1.6617773
-0.11204376 0.34728935 0.43690225 1.0701041 -0.4854485 0.3966698 0.77067524 -1.0622227
-0.44846717 -0.37012237 -0.8347636 0.6771388 1.8904974 -0.17625093 -1.3111593 -0.5763155
-1.393521 1.6410558 -0.7290348 0.9356503 -0.400608 0.30478397 -0.81349915 0.51352155
0.82054764 0.96983784 1.215217 0.51268905 -0.64581895 -0.65712893 2.0412562 1.1305199
0.7237625 1.3362464 0.71402496 0.80954283 1.3862066 -1.8303496 0.67513704 1.0650883
2.057572 -0.6457751 0.4777382 -0.9970358 0.6737065 1.2728764 -1.466035 0.7208067

cls_token f4 [1, 1, 48]
00000000: 0905 af3f 760d 633f 590a bcbe c01c 38bf
00000010: 8a63 f4bf 5b96 eebe 0722 59bf 5757 8ebf
00000020: 5ad3 963f 21a5 1cbf 2ae0 cbbc 039c 653f
00000030: 3e9a e63e 54f4 34bf 09ce c8be 68cd 0b40
00000040: 44ec 973f 0d22 503f 0c41 483e 7d88 13c0
00000050: a2f4 93bf 724e dbbb 661b 3b3f 2285 d23f
00000060: 5d21 2dbe 4f34 6ebf 2e8c b63f 0b48 823f
00000070: 187a 1dbc e601 a63e d4d5 05be 0acb 56bf
00000080: 9fee 42be 268c 0c3f 1667 28bf 91e7 8fc0
00000090: 0a4f debf 930f 9f3e ef74 a4bf 4c64 5dbe
000000a0: 28be 73bf a6c9 8a3e 2641 85bf 2190 64bf
000000b0: 7251 873f e5ee b03f c21a 8b3f 30a7 e03e
1.3673412 0.88692415 -0.36726645 -0.7191887 -1.9092877 -0.46599087 -0.84817547 -1.1120404
1.1783249 -0.61189467 -0.024887163 0.8969118 0.45039552 -0.70685315 -0.39219692 2.184412
1.1868978 0.8130196 0.19556063 -2.3052056 -1.1559031 -0.006692701 0.7308868 1.6446879
-0.16907258 -0.93048567 1.426153 1.0178236 -0.009611629 0.32423323 -0.1306985 -0.83903563
-0.19036339 0.5490135 -0.65782297 -4.4970174 -1.7367871 0.3106657 -1.2848185 -0.21620291
-0.9521203 0.2710697 -1.0410507 -0.89282423 1.057173 1.3822905 1.0867541 0.43877554

weight f4 [48, 16]
00000000: 8ee7 dcbc 1bbb 89bd 0bd3 1dbe 8bd9 643e
00000010: 8412 173e dabe 2d3e ce84 20be e15e c53d
00000020: 73b9 893e 0bfa 963d b940 6ebe 9ff1 9bbd
00000030: 0c8e 5d3d b0ff 30be a50f b7be 37b3 773e
00000040: 55e6 3f3d 28c0 09be 3a69 90be eb5f babe
00000050: 8d3b b4bc 53dd 74bd 2c13 9cbe 1ac2 e33b
00000060: 844b 9bbd dcbb 9ebc 91cc 58be c647 b6bd
00000070: b808 fdbd b339 67be aad9 ffbc 6954 a83d
00000080: 9b17 d3bd 5fc1 013d 7165 183e 6bca 65be
00000090: 0a55 1dbe f779 ab3e c507 b43d 1477 06be
000000a0: 9f57 a33d ee16 843e 005a 41be 006f 9d3d
000000b0: 85fc 143d f21c 03bd 0b06 45be 4abd 833e
000000c0: 2de3 3d3e 957b fc3d d424 533a 1f83 a4be
000000d0: a539 b23e 941c c33c 7930 b1be 1d0a acbe
000000e0: 3315 be3e da0c debd b2bc 9cbe 1bb7 57be
000000f0: 86d3 153e f617 b2be 60df f8be 4094 fe3d
00000100: 649b 423e 3ba4 5abd 01ee bfbd ca4b 233e
00000110: b8b4 8fbd 4c6a 2bbd 66d6 43be 2637 eb3d
00000120: 3ee0 00bc 6799 eb3d 2816 d9bd b403 8c3e
00000130: 882e 2dbd 8974 90bd e5ac c2be c0df 413d
00000140: 7233 94bd 22f2 253e 34e3 c0bd 6c1e 26be
00000150: 017b cbbd 49b5 b8bd bc23 0e3d ea3d 5fbc
00000160: 01d4 323c 8966 7b3d 1e44 fabc a711 13be
00000170: 06a8 f23d 81f5 47bd 4c53 c2be d143 7fbe
00000180: a5b4 093e 1855 6ebe 6034 8ebe 741e ab3d
00000190: ea7c 173e b343 a0bd 7f37 43be d5ad 273e
000001a0: 697f 2abe fcdd de3d 0391 92bd dbf3 c0bd
000001b0: cfab 42be 173e 64be 0327 e5bd 4194 7a3b
000001c0: 76d1 b9be bd3e 05be 0249 9aba 62c6 273e
000001d0: 4c85 a8be 060b 683e 3ffc 383e ef81 b7bd
000001e0: 76de 8abe 1b36 2b3e 6f5a ed3c 3c1d 633d
000001f0: 1746 40be 3ac1 d23e 42c9 80be f1fc 15be
00000200: 6733 543e 8359 48bd 94c2 5fbc 870b 3c3d
00000210: 59ce fe3d 8bd4 9cbe f265 8b3d 8fc9 593d
00000220: 2d54 0b3e e239 b3be e9fb 813d 5ecf 19bd
00000230: cfad 1ebd 4629 8dbe c10d 943c b1b3 60be
00000240: 0a7d 313d 3cdc 1f3e a3a9 0e3e 69dc 8e3e
00000250: 1bf8 b5bd 9a41 1f3e c342 273d 46df 4abe
00000260: cc5f afbc 83f1 4abc 16e0 3d3e f275 46be
00000270: c873 80be 3159 723e a413 e7bd 50bc 16be
00000280: 3b01 cabe 02bc 803d e1a9 5239 5a86 c33e
00000290: 7de0 17bd 7386 33be 7d60 123e 2351 16bc
000002a0: 5cbf 253e d1c9 7fbe 28c8 063e 0a7e 253e
000002b0: a010 c0be c1bc 0dbe 4dd8 fc3d a73b c93d
000002c0: 8e17 4dbe 5452 a93c 8310 9fbe 8050 98bd
000002d0: 1488 f93b 17b1 0b3e 24c5 acbe caf4 cb3d
000002e0: 0541 bb3d e35f 8cbe 486f abbd f233 f33d
000002f0: 99ce 67be 3f1b 5abe ed55 c13d 485d fc3d
00000300: 54e3 fb3d c14b b5bd 4d6d b63d d2fd 0d3c
00000310: b691 b43d 742d 52be 0b6b 353e c3f4 32be
00000320: d5f0 62bd 704c 793d f4a6 313e 2f03 98bc
00000330: 8c12 9fbd 6b95 813d 7aab 143e b1f3 5cbe
00000340: b140 733e 60de 55bd 620a f63a 4351 23be
00000350: bcc6 ce3c 0731 9bbd 2e0d 453e 0961 8dbd
00000360: fb3c 34be 9954 b93c 63f7 6e3d 08d5 fdb9
00000370: 511e f2bd feb1 2a3e 8348 cd3d 7a6e 70be
00000380: 7dbe 03be 9ef0 433e f514 a73e db18 f5bd
00000390: 2186 09be baf2 1f3e ce09 893c 34a9 563d
000003a0: 16c6 8cbd 6abb 313e 65f8 34be 3e8b e2bc
000003b0: b079 253d 7459 4bbe b693 9bbd ded7 35be
000003c0: c9c6 833e fa6d b8be 4096 68be f7f7 b03e
000003d0: 8fa6 283e 6e76 59be 5b9d 8fbe 0f6c c63e
000003e0: fd8a ccbc b38b 64be a4e0 c73c 1717 6a3e
000003f0: 4b00 83be e5b6 34be 1e14 a23c f50a b13e
-0.026965883 -0.06725141 -0.15412538 0.22348611 0.14753157 0.16967335 -0.15675661 0.09637237
0.268993 0.07371911 -0.23266877 -0.07614445 0.054090545 -0.17285037 -0.35754123 0.24189459
0.04685052 -0.13452208 -0.28205281 -0.36401305 -0.022001052 -0.059781384 -0.30483377 0.006950629
-0.07582763 -0.019376688 -0.21171786 -0.089004084 -0.123551786 -0.22580604 -0.03123172 0.08219225
-0.10307237 0.031678554 0.14882447 -0.22440498 -0.15364471 0.3349149 0.087905444 -0.13131362
0.07975697 0.25798744 -0.18881989 0.07687187 0.036373634 -0.032010026 -0.19240586 0.25730354
0.18543692 0.12328259 0.0008054499 -0.32131287 0.34809604 0.023817338 -0.34607294 -0.33601466
0.3712555 -0.10842295 -0.30612713 -0.21065943 0.14631471 -0.34783906 -0.48607922 0.1243062
0.1900459 -0.05337928 -0.093715675 0.1594688 -0.07016891 -0.04184942 -0.19124755 0.11485128
-0.0078659635 0.115038686 -0.10599929 0.27346575 -0.042280704 -0.07053477 -0.38022533 0.047332525
-0.07236375 0.16205648 -0.094183356 -0.16222543 -0.099355705 -0.090189524 0.034702048 -0.013625601
0.0109148035 0.061377082 -0.030550059 -0.14362203 0.11848454 -0.048818115 -0.37954175 -0.24928214
0.13447817 -0.23274648 -0.27774334 0.08355418 0.14793745 -0.078254126 -0.19064139 0.16374905
-0.16650166 0.10882184 -0.07156565 -0.09421512 -0.19010852 -0.2228931 -0.111890815 0.003823534
-0.3629262 -0.13012214 -0.0011771026 0.16384271 -0.32914197 0.22660455 0.18064974 -0.0896033
-0.2712285 0.16719858 0.028973786 0.055447802 -0.18776737 0.41163045 -0.25153548 -0.1464727
0.20722733 -0.04891349 -0.013657231 0.04590943 0.124417014 -0.30630907 0.06806554 0.053170737
0.1360633 -0.350051 0.06346876 -0.037551276 -0.038739976 -0.27570552 0.018072965 -0.21943547
0.043332137 0.15611356 0.13931899 0.27902535 -0.08885213 0.15552369 0.040835153 -0.19811735
-0.021407984 -0.012386682 0.18542513 -0.1938093 -0.25088334 0.23666836 -0.11283043 -0.14720273
-0.39454064 0.0628586 0.00020090445 0.3818844 -0.037079323 -0.17531757 0.1429462 -0.009174618
0.16186279 -0.2497933 0.13162291 0.16161361 -0.37512684 -0.13841535 0.123459436 0.09825831
-0.20028517 0.02066914 -0.31067285 -0.07437229 0.0076150987 0.13641773 -0.33744156 0.09958799
0.09143261 -0.27416906 -0.083708346 0.11875142 -0.22637405 -0.21299456 0.09440217 0.123224795
0.12299219 -0.088523395 0.08907566 0.0086664725 0.08816855 -0.20525151 0.17716615 -0.17476182
-0.055405457 0.060863912 0.17348844 -0.018556206 -0.077672094 0.06327327 0.14518538 -0.21577336
0.23755147 -0.052214026 0.0018771405 -0.15948968 0.025241248 -0.075777106 0.19243309 -0.069032736
-0.17601387 0.022623347 0.058341395 -0.0004841464 -0.11822189 0.16669461 0.10023596 -0.23479643
-0.12865634 0.19134757 0.32633176 -0.119676314 -0.13430072 0.15619937 0.016728308 0.05240746
-0.068737194 0.17356649 -0.1767288 -0.027654286 0.040399253 -0.19858342 -0.07596533 -0.17758128
0.257376 -0.36021405 -0.22713566 0.34564182 0.16469787 -0.21236584 -0.2804974 0.38754317
-0.024968619 -0.22318916 0.02439911 0.2286037 -0.2558616 -0.17647894 0.019784983 0.34578672

bias f4 [48]
00000000: 7fa8 0ebe 23ea 6c3e 41bf 073f 08a8 9b3d
00000010: f6f6 f7bd 2c85 babe 4368 ad3e 67bc 1abe
00000020: fe42 b5be be69 ed3e e906 cbbe 7422 eb3a
00000030: da2e ddbe 19e3 a83e ad84 9fbe 7406 31bd
00000040: d8c8 7e3e 38b8 87be fea4 6fbe efaf 42be
00000050: e6e1 b5be 1994 4abd 7423 c63e 3276 82bd
00000060: 17ed 92bd fb32 3c3e 156b 9b3d 17af 21bf
00000070: 586a d53e f072 cfb8 ebf1 5ebd ce08 893d
00000080: 616d b8be 1403 b0be 9461 b53d 745b 97bd
00000090: 111b c13d 4f11 fa3d d333 0d3e 1a84 6cbd
000000a0: 283e 5cbe 98ea 08bf 2e4a d1bc 580a 033d
000000b0: 6450 48be 5018 473e 03e3 e6bd d800 a53e
-0.13931464 0.23136191 0.53026205 0.07600409 -0.12107651 -0.36429727 0.33868608 -0.15110932
-0.35402673 0.46369737 -0.3965371 0.0017939345 -0.43199807 0.32985762 -0.3115591 -0.043219045
0.24881303 -0.26507735 -0.23402783 -0.19012426 -0.3552391 -0.049457643 0.38698924 -0.063702
-0.071741275 0.18378823 0.07588784 -0.6315779 0.41682696 -9.891938e-05 -0.05442993 0.066911325
-0.3602095 -0.34377348 0.08856502 -0.0739049 0.09428991 0.122103326 0.137893 -0.05774317
-0.21508086 -0.5348296 -0.025548067 0.031992286 -0.19561917 0.19442868 -0.11273768 0.32227206

weight f4 [48]
00000000: 6ba4 373f 471b 7a3f 6437 863f dc63 4e3f
00000010: eaf4 593f dd31 7d3f d4bf 413f 29b5 1c3f
00000020: f053 5c3f 5876 8c3f a1a8 3d3f eeac 5d3f
00000030: b3d7 8a3f 6ff6 583f 6fb6 873f 2190 213f
00000040: eedf 773f d42b 073f 7969 3c3f 3fda 933e
00000050: d2f9 2f3f 04c1 823f fc2c a23f 6453 453f
00000060: eb0c 2f3f 214b 683f 73f8 8d3f 1334 653f
00000070: 2982 603f 0995 823f 7ad5 923f 2837 433f
00000080: 7cb0 153f 124a 603f 5dfb 313f 02a4 db3e
00000090: 749e 6c3f 56ec 883f 945f 7f3f cb43 4d3f
000000a0: 634b 503f e955 843f 0fc5 563f 72d4 7c3f
000000b0: f2bb 3f3f 7087 573f 87c5 373f b447 723f
0.71735257 0.9769787 1.0485654 0.80621123 0.85139334 0.9890421 0.7568333 0.6121393
0.8606558 1.0973616 0.7408543 0.86591995 1.0847076 0.8475103 1.0602549 0.6311055
0.96826065 0.5280125 0.7359844 0.28877446 0.6874057 1.0215154 1.2669978 0.7708037
0.68379086 0.9073964 1.1091446 0.89532584 0.8769861 1.0201732 1.1471398 0.76256037
0.5847242 0.8761302 0.69524175 0.42898566 0.9242928 1.0697124 0.99755216 0.8018157
0.8136503 1.0338718 0.8389444 0.98761666 0.74896157 0.84191036 0.7178578 0.9464066

bias f4 [48]
00000000: 700f ae3d ac70 bc3d bce9 a0bd 5abb 713e
00000010: 1410 613e bc98 a53e c49d 873d 521f 603e
00000020: c58b 733e 805b 523e 41d3 39bd f0e3 693e
00000030: 9df6 a53c dca2 8cbe 8e70 2b3e 8281 83be
00000040: 1702 a1be bc95 e1be 9538 86bc 5eed 11bb
00000050: a531 4abe 9f30 203e 96b5 96be 57df 803c
00000060: f516 23be 169b 423b 7bb5 dcbe 5599 a0bd
00000070: da81 72be 7b91 363e 046c 7ebd 4af4 973e
00000080: c305 5abe cfde 5ebe e8f3 0f37 f9bb a43e
00000090: e2ac 1dbe 50af ad3d 27b8 463e 5a80 8e3d
000000a0: 5de4 52be 838f 833e 0af9 20be b1e2 a63d
000000b0: edd5 7fbd 6994 75be 6771 abbd ff58 14be
0.08499038 0.09201178 -0.07857081 0.23606625 0.2197879 0.3234309 0.06621888 0.21886948
0.23783787 0.20542717 -0.045367483 0.22840858 0.020259196 -0.27468002 0.16742155 -0.25684744
-0.31446907 -0.4405955 -0.016384402 -0.0022266726 -0.197455 0.15643547 -0.29435414 0.015731497
-0.15926726 0.002969449 -0.4310721 -0.07841746 -0.23682347 0.17828934 -0.06211473 0.29678565
-0.2129126 -0.21764682 8.580253e-06 0.32174662 -0.15397981 0.08480704 0.19406186 0.06958075
-0.20594926 0.25695428 -0.15720001 0.08148707 -0.062459875 -0.23982395 -0.08371239 -0.14487074

weight f4 [144, 48]
00000000: d0ca 193d d867 c83d e8e8 aa3d ca78 533d
00000010: 79e9 c93d 20cf 573d 1068 233d 72ac 23bd
00000020: 7200 2d3d 8602 263e beac fabc 92fe dc3d
00000030: d7e5 85bd 1357 e2bd 14be 983d 3f8e d63b
00000040: dad6 f23c d8a0 dc3d d45f af3d aad7 cb3d
00000050: 160c e8bd 1d85 e7bd 0e4e b8bd cee9 4e3d
00000060: 67ed 17be 6358 3fbe 64cf c6bb 96db 80bd
00000070: 7645 47bd e9c5 c2bd bb09 8b3d 97fd e33d
00000080: 0a7a 1e3d ecfc fabc aa3b 5abd 585d b7bd
00000090: d047 4f3d 1da1 fa3d 5324 ec3b 6373 453d
000000a0: e7dd 56bc 9f25 45bd 0eb7 03be 628e 3cbd
000000b0: c6e8 95ba 3280 f5bd d712 b9bd e5bf 9cbd
000000c0: 88d6 d2bd 6834 cebc 4e60 17be fdf0 d8bc
000000d0: 344b 8dbd 3c7d f43d e417 393d f621 2abd
000000e0: 122c 3f3d a96a f63c 5081 15be fb33 ce3c
000000f0: 5849 e83d 8a0d 70bd f324 0a3e 7379 753d
00000100: 8323 dabd 02b4 9cbd ff8d 113e f83e 5dbd
00000110: 318d 6cbd 37eb 8ebd 5e3e b9bd 8f33 003e
00000120: f015 a1bd 9071 58be b6d6 ab3d 7c1a 39bc
00000130: 2a7e b4b9 4314 423d 935c d5bd 225b 99bd
00000140: 2634 f1bd 7f38 ca3d 82b8 8dbd be2d b13c
00000150: 035d 0a3c 2630 b4bc 423e d83d d108 8b3c
00000160: 7629 95bd aa89 cf3d 37b1 d53c 4c0c 86bc
00000170: 181b 183d 74d2 21bd 4122 cfbc a25c 523d
00000180: ed62 833e 625d 9e3e 8b15 80bd 6c96 68bd
00000190: 2276 2ebd e654 5fbe 1266 7e3e dcbc 40bd
000001a0: a4b5 8e3e 35cb 45be ebdf f3bd 7893 21be
000001b0: 88fe 7bbd 7125 083f 8cd1 6c3d 41e3 8c3e
000001c0: 6f86 8c3e ae29 ee3c a62d 7d3e e6aa 4ebd
000001d0: 5f0f 943d 34b2 29bd 1718 973e 5fb3 163e
000001e0: b939 323e e6ee 87be a877 0c3e f3bc fbbd
000001f0: 7bc2 9b3e 2a23 b5bc b2e3 20be 12ac 2dbe
00000200: e056 d8ba 36e5 58be efc9 91be 6cf9 47be
00000210: 68d9 76bd 8cc6 f2bc 2442 b9bc c9b3 97be
00000220: 5692 0a3e ba6a 453e 4113 f73d 7650 dabd
00000230: a416 233e fe30 593d 3c3c 973e ad9c d83d
00000240: ad89 ce3d bfba 1e3e cec5 a0bc 98e4 94bd
00000250: 8cbf edbd a450 debd fba3 02be 87ae 0bbe
00000260: 0a4b 7fbd 6a25 e93d 426c 45bd 1116 903d
00000270: 98d1 57bc 0314 03be f113 3dbe 7295 c13d
00000280: 93a8 78bd 5bec 903c 0d10 273d 0e3b 9e3d
00000290: 8af2 5fbc bcc1 f4bc a165 4d3d 3074 a7bd
000002a0: e1ac 943c ba7a 0ebe df37 b6bd 398d 2c3c
000002b0: e30f efbd 0444 9ebd 2160 e3bd 8cb9 5bba
000002c0: 6250 8abb 8078 a33c 608a 273b 4dac a03c
000002d0: 35bf 16bd 6acf be3c 54e9 80bd 1614 f6bc
000002e0: 0b54 183e 2462 1d3e cc12 ca3d 1b7f 033e
000002f0: 466b f8bd 56ea d6bd 4c16 e0bd 1dc5 293d
00000300: 2581 903d 3e8b 18be 0e69 d03d 8d73 8b3c
00000310: 5e48 9c3d fd1b fe3d 9f88 d73c 6f29 80bd
00000320: 6002 ee3d 18ba cabd feac ab3d 6724 793d
00000330: 28d1 a2bb 0dfd 13bd 4e12 eebd 5d7b 9dbd
00000340: 8154 fcbc b35d 49bd 35b4 79bd 19d5 07be
00000350: e138 cbbd 0770 ee3b 03ce 6f3e 7794 4bbd
00000360: 989d ef3d 2e34 323e 2703 a9bd 3b55 babd
00000370: ddda bf3d 088e 683d b574 bdbd ea90 8ebd
00000380: d389 febd b60d 9d3d 5a9b 6e3d 4802 9f3c
00000390: 1669 54bd 801d 913d 8bb2 1c3e 6e7d 103e
000003a0: 997b 3cbd 41da db3d 6382 13be ce67 a33d
000003b0: 050e c8bd 368d a1bd 8c2e 8c3d c690 c33d
000003c0: e5a9 01be c089 82bc 4ee9 423c 00fc 5dbd
000003d0: e550 02be eece c9bd 71e0 75bd b52b 05be
000003e0: a001 dcbc 5988 e83d 5b04 303c c733 04be
000003f0: 5ad0 243d dd04 21bc c859 0ebd 0a2d e43d
0.037546933 0.097854316 0.083452046 0.051628865 0.098589845 0.052687764 0.039894164 -0.03995938
0.042236753 0.162119 -0.030599948 0.10790743 -0.06537979 -0.11051764 0.074581295 0.006547719
0.029643465 0.10772866 0.085632 0.09953244 -0.1133043 -0.11304686 -0.08999263 0.050515942
-0.14836656 -0.1868606 -0.0060672034 -0.06291883 -0.048650227 -0.095104046 0.06788965 0.11132353
0.038690604 -0.03063818 -0.053279556 -0.08953351 0.050605595 0.12237761 0.0072064786 0.048205744
-0.013114429 -0.04813158 -0.12862799 -0.046034224 -0.001143717 -0.11987342 -0.090367965 -0.076537885
-0.10294825 -0.025171474 -0.14782831 -0.0264821 -0.068991095 0.11937949 0.0451888 -0.041536294
0.046672888 0.030080156 -0.1460011 0.02517127 0.11342114 -0.05860666 0.13490658 0.059930276
-0.106513046 -0.07651521 0.14214323 -0.05401513 -0.057751838 -0.069784574 -0.09045099 0.12519668
-0.07865512 -0.2113707 0.08390562 -0.011297818 -0.00034426275 0.047382604 -0.10418048 -0.07488085
-0.11777525 0.09874057 -0.06919958 0.021628257 0.008445027 -0.021995615 0.1055875 0.016971977
-0.07283299 0.10133679 0.02608548 -0.016363285 0.037135214 -0.039507344 -0.025284888 0.051357873
0.25661412 0.3093062 -0.06254109 -0.05678408 -0.04259313 -0.2180973 0.24843624 -0.04705511
0.27872956 -0.19315799 -0.11907943 -0.15778911 -0.061522037 0.5318213 0.057817027 0.2751713
0.27446315 0.029072609 0.24724445 -0.05045595 0.07229494 -0.041429713 0.29510567 0.14716862
0.17404832 -0.26549453 0.1371752 -0.122918986 0.30421814 -0.022111494 -0.15711859 -0.16960171
-0.0016505383 -0.21181187 -0.28474376 -0.1952874 -0.06026593 -0.02963569 -0.022614546 -0.29629353
0.13532385 0.19278994 0.12064219 -0.10659878 0.15926605 0.05302524 0.29538143 0.105767585
0.10084853 0.15500925 -0.01962557 -0.07270163 -0.116088 -0.10855225 -0.12757866 -0.13640796
-0.062327422 0.11384089 -0.048198946 0.07035459 -0.01317253 -0.12800603 -0.18464638 0.094523326
-0.06070764 0.017690828 0.04078679 0.077261075 -0.013668666 -0.029877536 0.05014575 -0.08176458
0.018148841 -0.13914004 -0.08897375 0.010531717 -0.11672952 -0.07727817 -0.111023195 -0.00083818357
-0.004221008 0.01995492 0.0025564656 0.01961341 -0.036803443 0.023292262 -0.06294504 -0.030038875
0.1487581 0.15369469 0.098668665 0.12841456 -0.12129836 -0.10493915 -0.10941753 0.041447747
0.07055882 -0.14896867 0.101762876 0.017022872 0.076309904 0.12407682 0.026310263 -0.06257903
0.11621547 -0.09898776 0.08382605 0.06082573 -0.004968781 -0.03613 -0.11624585 -0.07689545
-0.030802013 -0.049161624 -0.060962874 -0.13264884 -0.09922958 0.0072765383 0.23418431 -0.049702134
0.116999805 0.17402717 -0.082525544 -0.09098288 0.09367917 0.056776077 -0.09250776 -0.06961234
-0.12428632 0.07668631 0.058253624 0.019410267 -0.05185803 0.07085705 0.15302484 0.14110348
-0.04601631 0.10734988 -0.14405207 0.079787835 -0.09768299 -0.07888262 0.068448156 0.09549098
-0.12662466 -0.015934825 0.0118964445 -0.054195404 -0.12726171 -0.09853922 -0.060028497 -0.13004954
-0.026856244 0.11354131 0.010743226 -0.12910376 0.040237762 -0.00982782 -0.03475359 0.11141403

weight f4 [48, 48]
00000000: a9a6 78be 3b77 94bd 44a7 0abe 2690 74be
00000010: 36ef b43e 3b1d 1cbe af7b 643e 3bd9 403e
00000020: f80b aabe ab1d 173e 3f08 803e a7a4 403f
00000030: afe8 e0be 784c 813e 06a1 a63e 6ee8 c93d
00000040: 5818 94bd f4b4 25be a498 a83e 017a 0d3e
00000050: 81b5 58be ef79 7cbe 3f61 893c 0215 18be
00000060: 18ca 7a3e 6446 4abe a61b 8e3e feef 3a3e
00000070: 58f2 cf3d b643 acbe 2590 543e 21e0 893e
00000080: cd6a 853e 1db3 9e3e a237 a2bd 4f0b 563a
00000090: 2381 123d 44c0 353e 6b62 213e 4560 7fbe
000000a0: 3b73 563e f8b0 9ebe 8262 4d3e 0ce1 86bc
000000b0: c644 18bb a905 a4be 8b49 e9bd 24a0 973e
000000c0: 037a c2bd a9f6 22bd 39be 12be bc06 813c
000000d0: 7a78 853d f097 2f3e 41f2 cbbd 7953 64bd
000000e0: 3b57 a53e a2fd c8bd 3627 3e3c 5a80 ebbd
000000f0: a475 f0bd 0c81 663e 10d5 a7be 5dd6 fcbe
00000100: b077 97bd e4aa ae3d 66a1 01bd bcbe 38be
00000110: a440 933e e9f7 093f d939 20bd 8b64 ca3e
00000120: b640 aa3d dce8 583f a0b5 0fbf 163d 103f
00000130: b255 8ebd afcd c3be 3fa5 0f3f 9d61 38be
00000140: 0a4b 823a d1ee 103f ae12 65be 5346 57be
00000150: cd37 4d3e aafb 2f3e 3e13 883d adfb d23d
00000160: b745 d5be cf0d 833e 5172 01bf 318e cd3d
00000170: 5ea7 b93d 3214 de3e 1732 3dbe 0a84 d93b
00000180: 456c 49be 37fc 75bd 55de 4cbe 87fd 9ebe
00000190: 3e6c a63c 009e 85be 990b 4fbe 0dc3 8f3d
000001a0: 53ab d43e b1ab f0bc 396c 96be 3761 9fbe
000001b0: 8958 4bbc 4f5e 0bbe 5017 de3d 777f 2a3d
000001c0: a905 9b3d 1880 eabc bedf bb3d 0a5c 0ebe
000001d0: d01e 053e 9ce9 f93d ead0 54be a388 ca3d
000001e0: 8879 853e 8c0f 983d 6236 033f d800 dabd
000001f0: a76f c0be 4ce8 81bc 1145 00bd 303a a6be
00000200: abda 4cbe 3803 6ebd 16c7 9a3d f2db 6cbc
00000210: 357a 77bd ae2c 66be d8c2 45be 52e4 9dbe
00000220: 00a0 a93c 8d7d f0be 4edc 08bf c36c 363e
00000230: 3e48 ab3e 934e c6bd 591c 1a3e 9d5e 8b3e
00000240: 7ad9 6abd 17f1 a3bd 3176 df3d 6273 6dbd
00000250: 8012 fd3d e6e2 c5bc ff39 44be e2d4 29be
00000260: ea08 c6bd 09e4 8ebc 68bc 8fbd 9f5a c23d
00000270: 7392 24bf 8f10 0f3f 14cd 80be 3eb5 39be
00000280: 0f48 43bd faa6 c93c 5b46 ad3d 3300 23be
00000290: 6ff6 e6bd 40f0 b43e 1eea 31be b97d 453e
000002a0: 61d7 62be 5b97 01be 9c70 bbbe 451e 53be
000002b0: 2c3d 68be eb0d 59be d468 8bbe 54a5 b5bd
000002c0: f0cc 33be da08 95bb 0b54 00be c7d4 ff3d
000002d0: 671f 663d c94f 99be db1c b2bd a407 693c
000002e0: 451a d3be 5843 28be 51e9 d43d c657 50be
000002f0: bec2 31bf 8128 433f 2602 87be a9a5 13bf
00000300: 0a7b 6cbd 588d 37be 5adc 85be f6f9 20be
00000310: a39b 6dbe 7821 d83b ec7b e1be 28b8 853d
00000320: baef 343d 4429 aebe 1114 5ebe c398 0e3c
00000330: d514 a03d 249d fbbd 8cd4 b23e 0f18 26be
00000340: a17e e9bc 7729 893e 2dbc 8f3e 7c55 ec3d
00000350: 7854 e0bd 8519 a0be c626 91be d222 47be
00000360: c07e ccb7 9a72 b83e cba9 2fbb 8e0f 8d3d
00000370: d810 fd3d 1e28 15be d1aa 0fbe a3a7 e2bd
00000380: 6f8d 77bd a16f e8be 7a72 1639 6b91 c33e
00000390: 9ccd 903e 1c02 afbe f254 a9be 9f2e 143f
000003a0: 30b8 ccbd 1569 7f3c 532c e2bd 0f08 003e
000003b0: afef 1bbe 0010 993e d5bf 10be 8835 dbbe
000003c0: 5f85 35be 3ab7 843e 2b5c 4b3e f27d ce3e
000003d0: a920 9b3e 819e 0f3e 20ac 023e d755 533d
000003e0: 346e 49be ae30 f63c ae26 943e 2e79 6c3e
000003f0: 845c b5bd 54f4 753d d209 103f 2be8 85be
-0.24282326 -0.07249304 -0.1354037 -0.23883113 0.35338753 -0.15245526 0.22312807 0.18832867
-0.33212256 0.14757411 0.2500629 0.7525124 -0.43927523 0.25253654 0.32544726 0.098587856
-0.07231206 -0.1618231 0.32928956 0.13816072 -0.21162988 -0.24655889 0.016770003 -0.14851764
0.24491155 -0.19753414 0.2775547 0.18255612 0.10153645 -0.3364541 0.20758112 0.2692881
0.26058045 0.30996028 -0.07920767 0.0008165137 0.035767686 0.17749125 0.157602 -0.24939068
0.20942394 -0.3099439 0.20057109 -0.016464733 -0.0023234352 -0.32035568 -0.1139098 0.29614365
-0.09495928 -0.039786015 -0.14330377 0.015750282 0.0651712 0.17147803 -0.09958316 -0.05574367
0.32293114 -0.098140016 0.011606028 -0.114990905 -0.11741188 0.22510165 -0.3277974 -0.49382296
-0.073958755 0.085286885 -0.031648062 -0.1804151 0.28760254 0.53893906 -0.039117668 0.39529833
0.08313124 0.84730315 -0.5613651 0.5634321 -0.06949939 -0.38242862 0.5611152 -0.18005987
0.0009940576 0.56614405 -0.22370407 -0.2102292 0.20040818 0.17185846 0.06644295 0.103019096
-0.4165475 0.25596473 -0.5056506 0.100368865 0.09065126 0.43374783 -0.18476139 0.0066380547
-0.19670208 -0.060054984 -0.20006688 -0.310528 0.020315286 -0.26097107 -0.20219268 0.07019625
0.4153696 -0.029378744 -0.29379442 -0.31128857 -0.012411245 -0.13610195 0.1084429 0.041625466
0.07569439 -0.028625533 0.09173535 -0.13902298 0.13000035 0.122027606 -0.2078282 0.09889343
0.26069283 0.0742484 0.51254857 -0.10644692 -0.37585184 -0.015857838 -0.031315867 -0.3246627
-0.2000529 -0.05810854 0.07557504 -0.014456736 -0.06041928 -0.22477981 -0.19312608 -0.30838257
0.020706177 -0.46970788 -0.5346116 0.17814927 0.33453554 -0.096829556 0.15049876 0.27220622
-0.057336308 -0.080049686 0.10911215 -0.057971366 0.12357044 -0.024156045 -0.19162749 -0.16585115
-0.09669669 -0.01744272 -0.070183575 0.09489941 -0.64285964 0.5588464 -0.25156462 -0.18135545
-0.047676142 0.024615753 0.08460685 -0.15918045 -0.11277472 0.35339546 -0.17374465 0.1928624
-0.22152473 -0.12655394 -0.36609352 -0.20617016 -0.22679585 -0.21196716 -0.27228415 -0.088694245
-0.17558646 -0.0045481743 -0.1253206 0.12491756 0.05618229 -0.29943684 -0.0869691 0.014223013
-0.4123098 -0.1643194 0.10396064 -0.20345983 -0.6943778 0.7623368 -0.26368827 -0.5767465
-0.057734527 -0.17925012 -0.26144677 -0.15720353 -0.23203902 0.0065957867 -0.44039857 0.06529266
0.044173934 -0.34015858 -0.21687342 0.008703413 0.078164734 -0.122858316 0.34927785 -0.16220115
-0.028502764 0.26789448 0.28073254 0.11539742 -0.10953611 -0.3126947 -0.28349894 -0.19446877
-2.4377718e-05 0.36024934 -0.0026804085 0.068877324 0.12356728 -0.14566085 -0.14030005 -0.110671304
-0.060437616 -0.45397666 0.0001434776 0.38196883 0.28281868 -0.34181297 -0.3307262 0.5788364
-0.099960685 0.015589018 -0.110436104 0.12503074 -0.15228151 0.2989502 -0.14135678 -0.4281428
-0.17726658 0.2592104 0.19859378 0.40330464 0.30298355 0.14025308 0.12760973 0.051595535
-0.19670945 0.03005251 0.2893576 0.23093101 -0.088555366 0.060047463 0.56264985 -0.26153693

bias f4 [48]
00000000: 9bcb dcbd db79 36be f718 ae3d 3e11 8f3d
00000010: f479 bb3d 0bdb 353e 1656 15be 6942 27bc
00000020: 17bf cb3d 33de 873d 4a81 e6bb ec12 083e
00000030: 1f0c eabd 343b e33d 4017 ae3c f766 1cbe
00000040: 46ac 3a3d 9334 4cbd 4137 c43d 8f8c 053e
00000050: 3c3b ecbd 2bec 943e ff28 9f3c 3250 9f3c
00000060: b09e 24be 6b15 2bbd 4814 473e ee44 8bbd
00000070: f239 b73c 46fd 0ebd dde2 80bd cb49 bfbb
00000080: 6685 1fbd db9c 55bd 8e30 8ebd 1b1e 31be
00000090: 87e8 883a 9791 23be 3d08 193e 0889 863e
000000a0: dcc2 e13d da14 d8bd f6eb 683c b772 72bd
000000b0: fe84 babc c7eb 13be 791e b13d 12a5 e9bd
-0.10781022 -0.17819922 0.085008554 0.069857106 0.0915412 0.1775934 -0.1458362 -0.0102087045
0.09948557 0.06634178 -0.0070344554 0.13288468 -0.11428093 0.110952765 0.02125132 -0.15273653
0.04557445 -0.049854826 0.09580851 0.130419 -0.115347356 0.29086432 0.019428728 0.01944742
-0.1607616 -0.041768473 0.1944133 -0.06800257 0.022366498 -0.03490951 -0.06293271 -0.005837654
-0.038945578 -0.052151542 -0.06942855 -0.1729664 0.0010445275 -0.15973507 0.14944549 0.26276422
0.110234946 -0.10550852 0.014216414 -0.05919143 -0.022768494 -0.1444541 0.0864839 -0.11408438

weight f4 [48]
00000000: ce07 6d3f 1020 8d3f 365e 583f a979 523f
00000010: db98 933f 8aa9 463f 2a09 983f 5ab9 3d3f
00000020: 04e0 403f 788b 973f b8b3 913f eefa 623f
00000030: a3b8 703f 7fc3 8f3f 30a2 363f c490 9f3f
00000040: f1f0 2d3f 31d8 c53f 386b 603f 300a 6a3f
00000050: f97a a83f ef7d 6e3f 506d 543f f381 853f
00000060: e9b4 943f 4f26 883f ab32 8c3f 0d3d aa3f
00000070: ae4e 673f 8708 933f c334 653f c481 373f
00000080: 4db9 693f d27e 9c3f b952 a33f b88d 513f
00000090: c0cc a23f e886 663f 32e7 963f fc68 b03f
000000a0: a708 703f 7ca6 863f 3829 753f 59a4 a43f
000000b0: d719 993f fdd7 683f 973e 913f 09ce b03f
0.92590034 1.102541 0.84518754 0.8221689 1.1531023 0.77602446 1.1877797 0.7411095
0.7534182 1.1839437 1.1382971 0.8866414 0.94031733 1.1231536 0.7134123 1.2466054
0.6794577 1.5456601 0.876636 0.91421795 1.3162528 0.9316091 0.829793 1.0430282
1.1617709 1.0636691 1.0952963 1.3299881 0.9035443 1.1486977 0.89533633 0.7168238
0.9129837 1.2226202 1.275962 0.8185687 1.2718735 0.900496 1.1789305 1.3782039
0.937632 1.0519557 0.9576602 1.2862655 1.1961011 0.9095457 1.1347226 1.3812877

bias f4 [48]
00000000: c99c 5cbe 5712 17be c27a 903e 0c79 febd
00000010: f18b 0e3e ee0a 143e f289 a83e b5c5 e43e
00000020: 010e b5be d333 a43d 651c 7c3c 2d48 363e
00000030: 99ce debd ce8f 0e3e e4ad e4bd 3d28 1fbe
00000040: ef93 04bf 10f2 a9bc e714 7dbe ef0f ae3e
00000050: eb47 423c 9ebf d2bd e755 ae3d 8b3a d3bc
00000060: d877 e93d 76ae 3d3c 4646 2b3d 2d63 e4bd
00000070: 626f 4bbe 9c46 91be ce3e 953e 87ac 9f3c
00000080: 8bcc f23d e67e d8bc 727c c03d 05a7 ca3e
00000090: fb4f b53d 574e 673e 8429 413e 2f6f a1bc
000000a0: d43b 7dbe 8049 5b3e 9608 4dbe e173 86bd
000000b0: 4367 60be 1d07 29bc 4004 94be 2ae7 efbc
-0.21544184 -0.1475309 0.28218657 -0.124254316 0.13920571 0.14457294 0.32917744 0.44682088
-0.35362247 0.08017697 0.015387629 0.1780097 -0.10879249 0.13922045 -0.111659795 -0.15542693
-0.5178823 -0.020745307 -0.24715005 0.3399653 0.011857967 -0.10290454 0.08512478 -0.025784751
0.113998115 0.011577239 0.041815065 -0.11151729 -0.19866708 -0.28374183 0.2914948 0.019491447
0.1185542 -0.026427697 0.09398736 0.3958055 0.08853146 0.22588478 0.18863493 -0.019706337
-0.24729854 0.21414757 -0.20022807 -0.06565071 -0.21914391 -0.010316637 -0.28909492 -0.029285032

weight f4 [12, 48]
00000000: 1dc2 e7be b13d 9a3e dd81 d73d ad75 e23d
00000010: 7137 ccbe 5c42 793e c3e4 933e dd3b 43be
00000020: 7b01 a2be b598 a83d d944 77be e209 2b3d
00000030: 1d9a 963e ab72 66be d23e abbc 7762 acbe
00000040: 86a0 5e3d fecf 1b3e 07a7 97be ca21 fb3d
00000050: 74e8 223e cf38 873d a6d8 50be 185d 3e3d
00000060: 586d 903e dd69 a8be f167 88bb 752d 06bf
00000070: cb64 46be 2e44 7abe 783b a53d 7c87 803e
00000080: 3ac2 ad3e 38f5 cf3b 08ae aa3e dead f9ba
00000090: 91a7 423e 0082 85be ad42 fa3e c9c7 b83e
000000a0: 3cf8 05bd d908 c23d 3694 bc3d 3ae8 a9be
000000b0: 1b63 33bf 0309 d7bd 66a2 833e 8f7a e03e
000000c0: 216c 1fbe 114e 15be a067 103c 0c5b 6a3e
000000d0: d376 40be 8aad b43d c610 203f 00d0 8f3e
000000e0: 8825 4b3e ef77 de3d ab8e f7bd b49d 4f3e
000000f0: 7fe7 7dbd 38c5 5f3e 0ec9 723e 0051 3e3e
00000100: c1a9 a1be e5d7 d8bd 2ab5 f43c 0408 973c
00000110: 4beb 03bf d0d6 4e3e b18b a5bd cb4a e7be
00000120: cc26 3bbe 2136 d2be 6ea2 34be 5653 8bbe
00000130: b05c 8d3e 0842 d8bc 0c41 e7bb 97f0 613d
00000140: 5558 88bd e324 63bd da6e 24be f251 c63e
00000150: a3a5 3d3f a6e6 503e 401c 32be 4b06 f93e
00000160: a074 42bd ae1f 62be 6baf 2bbf eb35 10bd
00000170: 6980 5fbc 4f78 bdbe de01 d93c b582 bfbe
00000180: 4bb1 2bbe 05fe 013e 57d4 cf3d 5499 323e
00000190: 794b 803d 661e f23d 669b 9ebd cd89 33be
000001a0: 1d25 073e 3bdc e53e a945 95be 1903 08be
000001b0: 4265 a53e ef84 ebbe ee2a 83be 6667 a2be
000001c0: 8789 8b3e 222d 8fbe 224b a8bd 9fec 05bd
000001d0: d7a0 32be d983 6b3e 8e25 54be 8238 9cbe
000001e0: 12e1 033e aaf1 26be 3f27 eb3c e3c5 273e
000001f0: 75be edbd 0972 053e c554 85be e252 3f3d
00000200: 7900 78be 0c7f 46be 84dc 803e cd86 393b
00000210: 3b74 e13e 2c3a 653c 8258 81be 13c5 e93e
00000220: 4ef2 8b3e 1e6b aa3e 0d53 b13e d876 323e
00000230: c35f 1f3d 43cf 41bd f85c 483e 0c7d c23e
00000240: d476 23be 5e2f 36be c79c 3dbe ab05 bfbd
00000250: 6e4a e0be ea16 823e 26fc eebe 6ec9 e73c
00000260: 376b 97be 414e ec3c be40 b5bd 3600 f83d
00000270: c63b 023c b2da c73d e454 8bbe 79e6 d23e
00000280: d32f 00bd b5ef 20bf 8375 d9be e56c c63d
00000290: fe1d 8a3e 16de 6dbe 9dd4 90bd 0238 343d
000002a0: 5658 8d3e 7888 86bc cbe9 8cbe 591c 813e
000002b0: 7692 893e f220 e03d aa36 c5be f9bb ba3e
000002c0: 2ecf 0bbe 4504 b5be 0ba7 033e a768 563c
000002d0: 1c7d 8f3e 3116 8cbc 719b 0d3f 145e 103d
000002e0: 1eca 3e3e 3f92 9abe edc3 2bbe f1c8 713e
000002f0: aed4 603e f5ad c13d a5c1 d9be 8236 0fbe
00000300: e5d7 ecbe 09b0 623d 8d02 103e cea3 553e
00000310: a9c8 0a3f 1466 74be 1dfc 0d3d 0c35 e23d
00000320: 552e 7ebd 89e9 2e3f c248 9bbe 3573 6dbe
00000330: a050 973d 24f8 7fbe e04d 27be 7151 b4bd
00000340: 2d91 1bbe 5d8b 06bf 0d38 6a3e 0b53 863e
00000350: 07ee 423e 4e8f 733e 993a 61be f529 5bbe
00000360: 0971 2d3e 4b7d a13e b00c eebe d6a7 5e3e
00000370: 79ba 48be b091 9ebd 7d51 5a3e 9963 85be
00000380: 6121 e6bd 5c3c 5abe 6ff5 853e b0a9 ee3c
00000390: d511 0d3e b8b0 4e3e bdb8 133c d0e7 673e
000003a0: 402d f83d 284a 16ba b01f afbe 1c72 a63e
000003b0: 74bb ddbd 2f45 443d 1675 81be f316 32bc
000003c0: 766a 95bd b763 1cbe 307e ddbe 1dc4 f8be
000003d0: 3815 4dbd 07e3 7b3b c9fb 20be b38d 3c3b
000003e0: fa98 ccbc e067 bfbd 4823 82be 4b08 943b
000003f0: 67de 2b3c eda2 71be 2f8c 813c d8ad 48be
-0.45265284 0.30125192 0.10522816 0.11057601 -0.39886048 0.2434172 0.2888547 -0.19065805
-0.31641755 0.082322516 -0.24147357 0.04175747 0.29414454 -0.2250468 -0.020903978 -0.33668873
0.054352306 0.15216061 -0.2961962 0.12262304 0.15908986 0.06602632 -0.20395145 0.0464755
0.28208423 -0.32893267 -0.0041627814 -0.5241311 -0.19374387 -0.24440071 0.080679834 0.25103366
0.33937246 0.006346371 0.333359 -0.0019049009 0.19009234 -0.26075745 0.48878995 0.36089924
-0.032707438 0.09474344 0.092079565 -0.33184987 -0.700731 -0.10499766 0.25709838 0.43843505
-0.15568592 -0.14580561 0.008813769 0.22886294 -0.18795328 0.088221624 0.62525594 0.2808838
0.19838536 0.10862719 -0.12087759 0.20275003 -0.06198835 0.21852577 0.23709509 0.18585587
-0.31574824 -0.105880536 0.029871542 0.01843644 -0.51530904 0.20199132 -0.08083285 -0.4517425
-0.18276519 -0.41056922 -0.17640087 -0.27212018 0.27609777 -0.026398674 -0.0070573147 0.055161085
-0.06657473 -0.0554551 -0.16057912 0.38734394 0.74080867 0.20400485 -0.17393589 0.48637614
-0.047474504 -0.22082397 -0.6706454 -0.03520767 -0.013641455 -0.3700585 0.026490148 -0.3740441
-0.1676685 0.12694557 0.101479225 0.17441303 0.06264395 0.11822204 -0.07744484 -0.17533036
0.13197751 0.44894585 -0.2915471 -0.13282432 0.32303816 -0.45999858 -0.2561869 -0.31719512
0.27253363 -0.2796412 -0.082174554 -0.032696363 -0.17444168 0.22999515 -0.20717451 -0.30511862
0.12878826 -0.16303125 0.028705237 0.16384082 -0.116085924 0.13031782 -0.26041237 0.046709903
-0.2421893 -0.19384402 0.2516824 0.0028309107 0.4403399 0.01399092 -0.2526284 0.45658168
0.273333 0.3328485 0.34633675 0.17428148 0.038909685 -0.0473168 0.19566715 0.37986028
-0.15963298 -0.17791507 -0.18516837 -0.09327253 -0.43806785 0.25408107 -0.4667675 0.028294291
-0.29573986 0.028845908 -0.08850239 0.12109415 0.007948821 0.0975851 -0.27213204 0.41191462
-0.03129561 -0.62865764 -0.42472467 0.09688739 0.26976007 -0.2322925 -0.07071803 0.043998726
0.27606457 -0.016422495 -0.2752212 0.2521694 0.26869553 0.10943784 -0.38518268 0.36471537
-0.13653252 -0.3535482 0.1285669 0.0130864745 0.28025138 -0.017100425 0.5531531 0.03524597
0.18631789 -0.30189702 -0.16773959 0.2361181 0.21956131 0.09457008 -0.42530552 -0.13985637
-0.46258464 0.05534366 0.14063473 0.20863268 0.54212433 -0.23867065 0.034664262 0.11045274
-0.062055904 0.68325096 -0.30328947 -0.23188479 0.07388425 -0.24997002 -0.163383 -0.08804596
-0.15192099 -0.525564 0.22872944 0.26235232 0.19036113 0.23785135 -0.2199501 -0.21402724
0.1693765 0.31540903 -0.46494055 0.21743712 -0.19602384 -0.077426314 0.21320148 -0.2605255
-0.11236835 -0.21312088 0.26163813 0.029133648 0.13776334 0.201846 0.009016213 0.22647023
0.12118006 -0.0005733096 -0.34203863 0.32508934 -0.108267695 0.04791754 -0.25284642 -0.010869729
-0.072956964 -0.15272413 -0.43260336 -0.48587123 -0.050069064 0.003843488 -0.15721048 0.0028770983
-0.024975289 -0.093459845 -0.25417542 0.00451759 0.010490037 -0.23597308 0.015813915 -0.19597566

bias f4 [12]
00000000: 3e79 adbd 720d f23d 5682 fabd ba34 a2bd
00000010: 91a5 bc3d 2089 1a3e 9bcf b33d ea4a 56be
00000020: 7f33 223d 9db8 80bd e424 6ebe 16de a8be
-0.08470391 0.11818971 -0.12231891 -0.07920213 0.09211267 0.15091372 0.08779832 -0.20927015
0.03959989 -0.06285212 -0.2325626 -0.32981938

weight f4 [48, 12]
00000000: 2d51 08bf 9315 483d c9e9 af3e 01e2 0bbe
00000010: 1861 a93d ae6d 8cbe b843 5ebd 24bd fbbe
00000020: d7a6 65be d4ad 3e3d 717f 92be 26eb 7dbe
00000030: f941 a7be e71b e6bd 923a bcbe 2733 243e
00000040: afe6 39be 654f 5dbe 7afe 83be 9069 55be
00000050: 073d 89be b95a 43be ad5e 523e 1aba 9c3d
00000060: 3fdd 273e 1a4b b4be 9f01 13bf bbfc 4abc
00000070: d57d da3e aaff 953e 1371 373c 36cb 36be
00000080: cc45 fc3e 2d34 6abe d07f d93e f277 a7bd
00000090: e326 8dbe 5684 c0bd 0dac fdbd c0f1 50be
000000a0: 5b80 2cbf 0ff2 063e 9d28 8a3d 1079 9fbe
000000b0: d26a 82be d833 1fbe 3cb9 103e 90ce 00be
000000c0: 13ab 603e 164c 49be 3656 4e3e d7e6 643e
000000d0: 1457 51ba f5fc b53d 83dc e1be 27eb 0bbe
000000e0: 427f 633e 4ec2 09bf 6796 4f3f a961 65bd
000000f0: aea2 a1be 9409 ff3e c4bd a33e c3de 85be
00000100: db15 903d 3e02 5b3e 050c a0be ac5e 023f
00000110: d082 103f 740d 31bd fde7 2fbe b3bb d0be
00000120: e4f9 a3be 6c1b 6d3d 9d1c 51be 8d8e a03e
00000130: 99c7 88be 2b2f 5d3e 0c42 f03e 1433 8fbd
00000140: b79d c8bd 5a61 433e fe66 5dbd b1fc 3f3e
00000150: 65fc 213f 3718 05be 2c80 863e 4d49 6a3d
00000160: 5f9f 1d3f cc88 4f3e 5dcb 643d b2f4 2e3d
00000170: 1b07 003f 9337 563e c36d 9a3e e5cb 843c
00000180: 3aea ff3e 295b 50bf 3f65 273e d7eb 4d3c
00000190: 3878 98bd 05fb 6bbe 07d5 d4be cb9d 50be
000001a0: 6bf9 a3be 58a6 be3e 1cdf d23e 68a8 b83e
000001b0: c44c 783d f59f 14bd 555e 0dbf 33e7 753e
000001c0: f44f 43bf 98b5 3bbe 87ad 023f da42 d0be
000001d0: 885c 503e a798 26be 449c 9f3e 9b2c b33e
000001e0: db66 f7be 47ee b53e e118 f63e cf28 b73e
000001f0: e48c 70bc e0c5 e03d 33b5 80bd 246a 3cbe
00000200: 64b6 71be dc8a 22bc 6873 8fbe 5e16 00be
00000210: 01de b4bc dbd0 093e 36c0 fe3d f21d 5c3e
00000220: b325 bc3e 2d7b 203e 292f 993e 1df9 c1bd
00000230: 9d7d 753e 283b 75be 81f1 0fbd 5a18 983e
00000240: a5ff 4bbe fbe3 f2bc 74c8 8abe fa88 6bbc
00000250: 94a9 89be 8132 013f a19f dbbd ba71 ddbe
00000260: 2c94 69be 5913 93be 8f2a 70be dc1b c2bd
00000270: 17ea 1fbe e711 933e dca8 bebe 4faa 45be
00000280: fcee 2cbe 055d 963e 8c49 963e f24e abbe
00000290: 49bd 533e 2f3e 81be 31cb ae3e f201 30be
000002a0: b4be 003e 6de7 903e 8e81 a83e 3c34 b5be
000002b0: b283 a53e 8f69 d63d 252e 993e e483 e0bd
000002c0: 719a 73bd bc90 5b3e 9697 bcbe bbf6 9fbd
000002d0: eafa ed3d 0d08 74be b6d6 b93d c821 99be
000002e0: 7596 133e 108e f8bd 6a3b 8fbe f3fe 30be
000002f0: 00c3 2dbd 51fa a5be 3183 f03e ef55 ef3d
00000300: f67e e93b 5d7b 9cbe d278 c03e 0154 bcbe
00000310: 1d5e 333d cab4 a53e ce6d 12bf cc85 8f3d
00000320: 270e 90be f6de ce3e 8afe 1b3c 04cc 0c3e
00000330: 2734 f2be abd8 febe 1a6e a7bd 0d09 d13e
00000340: 0974 6ebe 4cc5 d6be dce0 9bbe 374e 823e
00000350: 6660 6ebe c132 77be 255b 013e 1f99 c6ba
00000360: c85e c4be 6a50 cabe 14eb a53e 847e b23d
00000370: 2adc d33e e5ea e0be d6f4 53be 68d5 403e
00000380: 6b82 38be 57a4 00be 98ac 1c3e 46fa 5d3d
00000390: 06ec 83bd acd3 a43d c3a2 e9bd 9c3d ac3d
000003a0: 2bec cfbc e3a7 993e 5875 efbc 4aff 853e
000003b0: 6997 23bd d479 0a3f 3b24 e5be ca39 013d
000003c0: 695d 773f ea3d cb3d f0a7 1ebe 2154 b2be
000003d0: 5a92 133d ee6d 193e 2ba1 c73e 0cb3 ecbe
000003e0: 6fbb 2b3e 6b3b e53e 5581 debc 8483 663e
000003f0: 338b b7be c072 17bd 12d4 45bc 8eba abbe
-0.53248864 0.0488487 0.3435805 -0.13660432 0.08270472 -0.2742743 -0.0542638 -0.4916774
-0.22426926 0.046552494 -0.28612855 -0.24796733 -0.3266752 -0.11235791 -0.36763436 0.16035138
-0.18154405 -0.21612318 -0.25780088 -0.2084105 -0.26804373 -0.19077577 0.20543928 0.076526836
0.16392992 -0.35213548 -0.5742435 -0.012389357 0.42674127 0.2929662 0.011196393 -0.17850956
0.49272 -0.22871466 0.42480326 -0.08177175 -0.2756873 -0.09400241 -0.12386332 -0.2040472
-0.67383355 0.13178276 0.067460276 -0.3114705 -0.25472122 -0.1554712 0.14133161 -0.12578797
0.2194026 -0.1965793 0.20150074 0.22353683 -0.0007985693 0.08886138 -0.4411355 -0.13663922
0.22216514 -0.5381211 0.8108887 -0.05600134 -0.31569427 0.49811995 0.31980717 -0.26146516
0.070354186 0.21387574 -0.3125917 0.5092571 0.56449604 -0.04322572 -0.1717834 -0.40768203
-0.3202659 0.05788748 -0.20421071 0.31358758 -0.2671478 0.21600024 0.4692539 -0.06992164
-0.09795707 0.19080105 -0.0540533 0.18748738 0.6327575 -0.12997518 0.26269662 0.05719881
0.61571306 0.20267028 0.055858005 0.04271383 0.5001084 0.20919637 0.30161867 0.016210506
0.49983388 -0.813891 0.16347216 0.012568436 -0.07444805 -0.23044975 -0.41568777 -0.20372693
-0.32026228 0.37236285 0.41185844 0.36065984 0.060620084 -0.03628536 -0.55222064 0.24013977
-0.76293874 -0.18330991 0.5104603 -0.40676004 0.20347798 -0.1626917 0.3117391 0.3499497
-0.4832066 0.35533354 0.48065856 0.35773322 -0.014682028 0.10975242 -0.06284561 -0.18399864
-0.23604733 -0.009920802 -0.28017735 -0.12508532 -0.022078516 0.13458578 0.12439005 0.21495798
0.36747512 0.15671988 0.29918793 -0.09471343 0.23973699 -0.23948348 -0.035142425 0.2970608
-0.1992174 -0.029649725 -0.2710606 -0.0143759195 -0.2688719 0.5046769 -0.10723806 -0.4325083
-0.2281043 -0.287257 -0.23453735 -0.0947797 -0.15616642 0.28724596 -0.37238204 -0.19303249
-0.1688804 0.29367843 0.29352987 -0.33458668 0.20677675 -0.25242755 0.34139398 -0.17188242
0.12572747 0.28301564 0.32911342 -0.35391414 0.32327038 0.104693525 0.29918018 -0.10962656
-0.05947346 0.2144193 -0.368344 -0.07810732 0.11620124 -0.23831196 0.09074156 -0.29908586
0.14412864 -0.12136471 -0.27975017 -0.17284755 -0.042422295 -0.3241754 0.4697509 0.116863124
0.0071257306 -0.3056287 0.3759218 -0.3678284 0.043790925 0.32364494 -0.571988 0.070079416
-0.28135797 0.4040448 0.009521136 0.13749701 -0.47305414 -0.4977468 -0.08175297 0.40827218
-0.23286451 -0.419474 -0.30444992 0.25450298 -0.2327896 -0.24140455 0.12632425 -0.0015151835
-0.38353562 -0.39514476 0.32405913 0.08715537 0.4137891 -0.4392921 -0.20698866 0.18831408
-0.180185 -0.1256269 0.15300214 0.054193757 -0.06441502 0.08048186 -0.114079975 0.084101886
-0.025381168 0.300109 -0.029230759 0.26171333 -0.039939318 0.54092145 -0.44754204 0.031549253
0.9662691 0.099239185 -0.1549375 -0.3482981 0.036028244 0.14983341 0.3899015 -0.46230352
0.16770719 0.44771895 -0.02716128 0.22511107 -0.35848388 -0.03697467 -0.012074487 -0.33540767

bias f4 [48]
00000000: b159 53be 3e2b 8bbd da56 643d 8b71 853e
00000010: 2351 87be 8a49 fabd dd43 c4bd 1c88 7ebb
00000020: 5822 203d 2737 0b3e 8a78 83be 340b 41ba
00000030: 194f fa3d 319d 40bd 069e c63d ab17 64be
00000040: 3a4b bb3e 9c50 8b3d 4385 023d 6f38 373e
00000050: 7f2c 9cbe 4fd0 033f 6f68 c2be 809c 96be
00000060: 543d 513e 2b2b f03d 8795 8d3d 5f0e 0c3e
00000070: e768 18be f930 d33d 27f4 573d 7585 e3bc
00000080: 05ce a9be a18b 793e a067 4d3e 3d7b b8be
00000090: b573 af3e 5edb 723e 7244 f3bd 5469 c03e
000000a0: 12ff 3b3e 24de 503d 3942 77be 85c2 8fbd
000000b0: c44e 0abd 8196 c93d c558 9d3e cdcf 7b3e
-0.20639683 -0.06795357 0.05574689 0.2606319 -0.2642909 -0.12221058 -0.095832564 -0.0038838452
0.039095253 0.13595258 -0.25677902 -0.0007364035 0.12222118 -0.04702491 0.09698109 -0.22274654
0.3658083 0.068024844 0.03186537 0.17892621 -0.30502698 0.5148973 -0.37970302 -0.29416275
0.20433551 0.11726984 0.06913286 0.13677357 -0.14883767 0.10312075 0.052723076 -0.027773598
-0.33164993 0.2436967 0.20059061 -0.36031523 0.34267965 0.23716494 -0.11878289 0.3758036
0.1835902 0.0509931 -0.24146356 -0.070195235 -0.033766523 0.098431595 0.30731788 0.24590988

weight f4 [48]
00000000: 943e ad3f 2754 633f 1efe b33f 43c2 c93f
00000010: 18ea 9c3f a4b0 c73f a70e c43f afdc a53f
00000020: af1a 953f baa4 923f 515f a03f 643b 813f
00000030: 1ff9 e13f 6350 c03f 4b37 d93f f0ab 8b3f
00000040: 3351 4e3f b21b bc3f c68e c93f c788 673f
00000050: 2589 ae3f cf3b 7d3f 817e b03f 5ed0 823f
00000060: 746d b33f 86c0 1b3f 07dc c33f 65c9 a73f
00000070: d547 ab3f 6750 b93f c8e4 b83f 241b ac3f
00000080: 619d da3f 1993 a83f 5f78 9b3f c7bd 443f
00000090: 6399 bb3f ad00 bc3f 7ec8 8e3f 5d4f 7f3f
000000a0: 5f95 ce3f c69e b93f b174 a43f 4aa8 d63f
000000b0: ab8a a13f 7b5b 923f 9074 1f3f 6752 bc3f
1.3534722 0.8880028 1.4061925 1.5762409 1.225894 1.5600781 1.5316972 1.2957972
1.1648768 1.145652 1.2529088 1.009625 1.7654151 1.5024532 1.6969999 1.0911846
0.8059265 1.4695952 1.5746696 0.9044308 1.3635603 0.98919386 1.3788606 1.0219839
1.4017777 0.6084064 1.5301522 1.3108336 1.3381296 1.4477662 1.4444818 1.3445783
1.7079278 1.3169891 1.2146109 0.7685208 1.4656185 1.4687706 1.1154935 0.99730474
1.6139334 1.4501579 1.2848111 1.6770108 1.2620443 1.1434168 0.62287235 1.4712647

bias f4 [48]
00000000: a855 4b3d 1c51 bbbe 222c f6bb 052b 77bd
00000010: cd19 a7bd d692 db3c bf7d 3c3e 4e02 363e
00000020: 6595 aebe dd92 503e 539b 223e f58f 7e3e
00000030: 9013 36bd 297a e53d 1bb0 ba3d 09b1 40be
00000040: a4ed cfbe dac3 a5bd 865f aebd 2dda 763e
00000050: 4f99 dfbd 6b37 00be 4ad1 d8bd 9cbf 833c
00000060: 763a e23c cea4 9abd 25e7 61bc 5bfd 91bd
00000070: d15d 0bbd 53a2 7cbd f8ed 773e ffae 17bd
00000080: 3fb8 3e3d 1d1e e83d 0e3a abba c5c8 c23e
00000090: 5074 173e acd6 0abe 11e9 553e 7ceb efbc
000000a0: 871a e2bd 1a91 f33c 547f 18bd 5ccb d1bd
000000b0: 5b35 fe3a 303a 093d 4f3e 95be 82da 383d
0.049642235 -0.3658532 -0.0075125853 -0.06034376 -0.08159218 0.026803415 0.18407343 0.17774317
-0.34098354 0.20368524 0.15879564 0.24859603 -0.04445225 0.11204941 0.09115621 -0.18817534
-0.40610993 -0.08093996 -0.085143134 0.24106665 -0.10917913 -0.1252114 -0.10586794 0.016082577
0.027615767 -0.07550965 -0.013788019 -0.07128402 -0.034025017 -0.061678242 0.24211872 -0.037032124
0.04656243 0.11333869 -0.0013063566 0.380438 0.14790463 -0.13558453 0.20889689 -0.029287092
-0.11040216 0.029732276 -0.037230805 -0.10243866 0.0019394563 0.033502758 -0.291491 0.04513026
