Case_Study_1/trained_transformer/verification/vit_48_4_6_24.pt (torch, 239498 bytes, 52 tensors)

pos_embedding f4 [1, 50, 48]
000000 55 f9 3e bf a0 60 8b be ef 0e 01 40 b5 13 a1 3e
       -0.745992 -0.27222157 2.0165365 0.31460348
000010 5d 42 31 3f 54 fe e5 3e 53 39 d8 be de ee 07 40
       0.6924189 0.449206 -0.42231235 2.1239543
000020 d2 29 b8 bf 55 35 00 c0 e9 66 3a bf d1 95 93 bf
       -1.4387763 -2.0032551 -0.7281328 -1.1530095
000030 0c 98 31 3e 29 04 83 3e 3e 76 9f be 62 d5 f1 bf
       0.17343158 0.2558911 -0.311449 -1.8893244
000040 69 0b 68 3f f0 bc ef be 2c 40 48 bf d0 f3 84 3e
       0.9064241 -0.46823835 -0.7822292 0.25967264
000050 8e e4 89 3e f9 e4 bf 3d 4f a6 96 3f ed 0f 4e bf
       0.26932186 0.09369845 1.1769503 -0.8049305
000060 2f b9 0c c0 91 95 69 3f 94 58 9c bf 73 ce 27 c0
       -2.1988027 0.91243845 -1.2214532 -2.6219757
000070 84 34 50 bf e1 af 89 3f e7 e7 96 3f c0 e1 74 bf
       -0.8133013 1.0756799 1.1789521 -0.9565697
000080 cf 85 11 c0 41 1d 7b bf f6 73 04 40 50 fb c8 bd
       -2.273792 -0.9809151 2.0695777 -0.09813559
000090 90 7e 8f 3e 05 fc 24 bf 4f ed 2f be 29 d5 3d 3e
       0.28026247 -0.6444705 -0.1718037 0.18538345
0000a0 12 c4 1e c0 cf 20 9e bf a9 21 84 bf 69 fb 8c be
       -2.4807172 -1.2353762 -1.0322772 -0.2753556
0000b0 d8 ae 64 3e 5c 91 be 3f 38 8d 4e 3e 21 fc 95 bf
       0.22332323 1.488811 0.20171058 -1.1717569
0000c0 ac 19 a9 bd 26 91 d0 3f f9 37 58 bf 41 72 11 3e
       -0.0825685 1.6294296 -0.8446041 0.1420374
0000d0 8b b5 cb 3e 3d 19 06 3f c9 30 99 bf eb b8 b2 3e
       0.39786944 0.5238226 -1.1968013 0.34906706
0000e0 51 3f 0d 40 da c5 ec 3e 4c 6e 30 40 79 1c c6 bf
       2.2069895 0.462447 2.756732 -1.5477439
0000f0 9c 1b ee bd 1b 57 b5 3d c0 b2 18 3f ff 91 94 bf
       -0.1162636 0.08854505 0.5964775 -1.1607054
000100 e4 ed 1c be 86 24 a1 3d f0 39 9e 3f 85 19 db 3d
       -0.15325123 0.078682944 1.2361431 0.10698227
000110 34 d4 9d 3f c0 e6 90 bf d4 fc 42 3f 6b 9c dc 3f
       1.2330384 -1.1320419 0.76167035 1.7235235
000120 fc 4a 0d 3d d3 6c 4f bf c2 aa 61 bf e6 9f 2f bf
       0.03449534 -0.8102543 -0.8815118 -0.6860336
000130 72 67 58 3f 44 19 86 3e 4d 84 a1 bf fd 0a 0c c0
       0.84532845 0.2619115 -1.26185 -2.1881707
000140 c2 cb df bf da 72 31 c0 36 64 ff 3f fb 36 d5 3e
       -1.7484057 -2.772635 1.9952457 0.4164351
000150 6e ce 4b bf ad 4f ab 3f 01 13 92 3f 8d db 8a be
       -0.7961186 1.338369 1.141205 -0.2712063
000160 01 40 fc be 62 68 ca be 8e 44 ea be 1a 23 a2 bf
       -0.4926758 -0.39532763 -0.45755428 -1.2666962
000170 5a ef 58 40 42 c8 92 be bb 3c c2 be 51 7d 7f 3f
       3.3896089 -0.2866841 -0.3793696 0.9980059
000180 2c 93 21 3f 45 f3 ba bf c8 86 af 3d 82 19 05 c0
       0.6311519 -1.460549 0.08570629 -2.0796819
000190 4e 68 0e bf 5d 0c 24 bf 34 3b bd 3e c5 b8 f6 3e
       -0.55627906 -0.64081365 0.3695923 0.48187843
0001a0 bc 89 8b 3e 3f 69 e3 bf cf 56 ca be 1e 16 33 3f
       0.2725352 -1.7766494 -0.39519355 0.69955623
0001b0 17 6d 59 3f 2d ef 22 40 86 49 00 40 09 18 8b 3e
       0.8493208 2.5458481 2.0044875 0.27166775
0001c0 5c 12 96 bd 9c 9f 2f 3f 26 5b 4b bf de df 2a bf
       -0.073277205 0.6860292 -0.79435956 -0.66747844
0001d0 f6 8a f1 bf 59 1a 08 bf 3d 89 a9 bf 1b fe 06 3f
       -1.8870533 -0.53165203 -1.3245007 0.52731484
0001e0 d1 c3 a5 bf 93 f0 13 3f f8 d1 0e c0 ad 85 48 be
       -1.2950383 0.5778896 -2.2315655 -0.19582243
0001f0 db 02 75 bf dc cf c7 bf ad e9 d4 3d 41 7d b8 3f
       -0.9570748 -1.5610309 0.103961326 1.4413224
000200 80 cf f8 bd 73 88 ec be 0b 38 a5 bf 9b 3f e7 bf
       -0.121489525 -0.46197852 -1.2907728 -1.8066286
000210 a2 78 ce 3f 42 05 79 bf af 9b 7c be 07 35 40 bf
       1.6130564 -0.9727365 -0.24668764 -0.75080913
000220 e6 21 20 40 13 4f dd bf 01 5d ee 3f 58 6c 9f bf
       2.502069 -1.7289757 1.8622133 -1.2454939
000230 81 12 e8 bf 3d b7 85 bf 85 5d fb 3e 91 00 a1 bf
       -1.8130647 -1.0446545 0.49094787 -1.2578298
000240 db 94 c1 bf d0 49 07 bf 40 27 24 bf 3a b6 92 3e
       -1.5123552 -0.52847004 -0.6412239 0.28654653
000250 08 b7 15 40 81 0f 25 bf 6e 1a 61 3f 87 b6 64 bf
       2.3392963 -0.6447678 0.87930954 -0.89341015
000260 68 09 c7 bf d1 61 86 3e 13 af 00 3e cc 5c 4a 3f
       -1.5549746 0.26246503 0.12566786 0.79047847
000270 27 4b 23 c0 63 12 63 3f 9e e8 be bf 8a 5a a8 be
       -2.551462 0.8869993 -1.4914739 -0.32881576
000280 1f 41 9f be 99 f0 a7 bd f4 05 14 bf 7c d0 17 c0
       -0.3110437 -0.08200187 -0.57821584 -2.3720999
000290 7f 03 4b bf f5 a9 f5 be 62 0e c3 bf 43 08 8e be
       -0.7930221 -0.4798123 -1.5238764 -0.27740678
0002a0 7d 3d 07 3f e6 92 14 3f f6 7f 29 3f c2 be b3 3f
       0.528282 0.5803665 0.6621088 1.404259
0002b0 20 30 cb 3e 9a fc 05 be d0 d3 bd be ae 32 73 bf
       0.39685154 -0.13084641 -0.37075663 -0.94999206
0002c0 a7 d7 01 c0 6d 4a d1 3f df 8f 69 3e 81 35 17 c0
       -2.0287874 1.6350838 0.22808789 -2.3626406
0002d0 a5 36 e5 be 14 49 fa be bf 9a 81 3f 1f 50 fa be
       -0.44768253 -0.4888388 1.012535 -0.48889253
0002e0 c9 3e a3 3f e4 1a 3f bf 04 57 70 bf cd 8f f9 3f
       1.2753536 -0.74650407 -0.93882775 1.949701
0002f0 ae ef a1 bf 33 a4 72 bf ad 75 14 3f b3 d2 d8 3d
       -1.265127 -0.947818 0.5799206 0.10587063
000300 37 62 c5 3f 50 c9 8d 3f c6 32 79 bf 64 86 c0 3f
       1.5420598 1.1077061 -0.973431 1.5041013
000310 60 39 46 3e c7 11 e3 3e 75 84 00 c0 15 09 d8 3e
       0.19357824 0.443495 -2.0080845 0.4219443
000320 30 64 ff 3d 97 2c b0 3f 81 27 af 3e 73 e0 27 bf
       0.12470281 1.3763608 0.34209827 -0.6557686
000330 2d f4 8f 3f 63 88 46 bf 43 89 53 bf 21 7f 02 c0
       1.1246392 -0.7755186 -0.8263132 -2.0390093
000340 66 f7 b6 3f 2b b8 a9 3f dc c5 2a bf fc ed 60 bf
       1.429425 1.3259329 -0.6670816 -0.87863135
000350 c5 9e ba bf 11 4c 39 bf cd 88 8b 3d 56 2e dd 3e
       -1.4579703 -0.72381693 0.06813202 0.43199414
000360 c7 57 03 3f b8 33 d1 be 52 2a 60 3e 8e d2 81 be
       0.5130581 -0.4085977 0.21891144 -0.25355953
000370 d4 b5 4b 3f df 04 83 40 b0 81 20 be 70 9b b6 bf
       0.7957432 4.0943446 -0.15674472 -1.4266186
000380 bd 7d 61 3e 04 c9 ec 3d f5 cf 0f 40 58 2b fc 3d
       0.22020622 0.11561778 2.2470677 0.12312955
000390 0d 48 2d bb 8d c0 ae bf d9 80 b5 3f fd 50 02 40
       -0.002644065 -1.3652512 1.4179946 2.0361931
0003a0 f7 8e 88 3f 7d bd c8 bf b5 41 de 3e e7 6d b5 3f
       1.066863 -1.5682827 0.43409505 1.4174165
0003b0 6d cc 92 bc 1a 70 eb 3e d3 87 10 40 ae 2a 62 3f
       -0.017919743 0.45983964 2.25829 0.88346374
0003c0 c6 db d3 3e 01 3c e7 3f e0 1c 1c 40 8c 52 f8 3e
       0.4137861 1.8065187 2.4392624 0.48500478
0003d0 69 1c d3 3f 6d ca 5a 3f dc ea 9d bf c5 48 52 bf
       1.6493045 0.8546513 -1.2337298 -0.8214229
0003e0 82 51 00 bf 83 b2 bd bf 5f 9e 33 bf fa d2 b6 be
       -0.5012437 -1.4820102 -0.7016353 -0.35707837
0003f0 dc 92 49 be 19 3a 45 3f f5 06 cf 3e 89 58 21 bf
       -0.19684929 0.77041775 0.40434995 -0.6302572

cls_token f4 [1, 1, 48]
000000 96 b3 44 be 9d 12 cd bf 7c 60 38 3f 0c ba 6d bf
       -0.19209132 -1.6021305 0.72022223 -0.9286201
000010 71 d4 22 40 05 40 4b bf 1f e5 25 3f 61 b5 69 bf
       2.5442164 -0.7939456 0.64802736 -0.9129239
000020 1d e5 b7 3e 6a e3 67 3f 1e 59 bc bf 15 f8 29 3f
       0.35916987 0.9058138 -1.4714696 0.6639417
000030 13 b4 4e 3f b8 e7 10 be bd 21 75 3f b6 a3 91 bf
       0.8074352 -0.14150894 0.95754606 -1.1378086
000040 db ae 40 bf bd 70 4c bf 9b 6c 9f 3e b1 4e 34 3f
       -0.7526681 -0.79859525 0.31137547 0.70432574
000050 59 4a 30 be 58 c0 75 be 07 03 a6 3f a7 15 9e be
       -0.17215861 -0.23999155 1.2969674 -0.30875894
000060 8f 5e 76 3e ba 0d 3e 3a 5e 90 28 bf 1a 6f 5e bf
       0.24059509 0.000724997 -0.65845287 -0.8688828
000070 c9 89 a1 bf 04 f6 90 be 6a 13 e8 3d 70 9d 3e bf
       -1.2620174 -0.28312695 0.11331828 -0.7445898
000080 2e 6f 9e 3d c9 46 ca bf 72 84 bf bf e1 7f 69 bf
       0.077360496 -1.5802852 -1.4962294 -0.9121075
000090 1a 92 9c bf 47 7d 40 bf 88 33 42 c0 ac 2e 4d 3f
       -1.2232087 -0.7519116 -3.0343952 0.8014934
0000a0 04 ce a8 be 75 6e 66 be 9b 6e 3f 3f 8b 39 a5 3f
       -0.32969677 -0.22503074 0.74778146 1.2908186
0000b0 a6 06 33 bf 5c 50 6a 3f b1 7d 07 3f c6 80 d1 be
       -0.6993202 0.9152887 0.52926165 -0.4091856

weight f4 [48, 16]
000000 e9 85 e4 3d 79 96 60 be 9f d5 2e be 47 bf 95 be
       0.11158354 -0.21932401 -0.17073677 -0.29247496
000010 19 96 56 3e e2 73 15 be 1e cb 3d 3e 24 a8 47 be
       0.20955695 -0.14594987 0.18534514 -0.19497734
000020 10 76 ab be 96 46 0c 3e 3b b6 99 3d 65 f3 e3 3c
       -0.33488512 0.13698801 0.07505461 0.02782602
000030 cf 0a 9e 3e 65 6f 59 3d 4a 45 cd 3d 30 b0 6a be
       0.3086762 0.05308475 0.100229815 -0.22918773
000040 e8 8a 92 3d db 0b 37 be f3 c1 10 3e 0c 7e 88 3e
       0.071554005 -0.17875616 0.14136486 0.26658666
000050 5d 33 da bc 31 89 73 3c b1 fc 36 3e 42 7d 93 3e
       -0.02663582 0.014864252 0.17869832 0.28806502
000060 5f f1 68 3d c0 95 30 3e 88 ee 89 3e 2f f9 30 3d
       0.056870814 0.17244625 0.26939797 0.04320639
000070 95 3e 4b be 20 68 4f be 0d 61 c9 be e1 f5 95 3d
       -0.19848092 -0.20254564 -0.39331856 0.07322288
000080 2c d5 91 be 5f fa b6 be 54 e5 23 be 7c 11 0d be
       -0.2848295 -0.35737893 -0.1600545 -0.13776201
000090 9b 1a fd 3e 42 40 04 3f df 83 97 3e 0b 1e a3 bc
       0.4943436 0.5166055 0.29592797 -0.019911787
0000a0 b4 86 52 3e f9 17 c1 3e 5f 06 c5 3e 91 af 8d be
       0.20559198 0.37713602 0.38481423 -0.2767301
0000b0 fa fa 5b 3e 4b 43 ae 3d b6 cb e6 3d 0a 99 f9 be
       0.21482459 0.08508929 0.112693235 -0.48749572
0000c0 d0 e7 b8 3e 90 3c 1f 3e e2 6d f0 3d f3 db 8c be
       0.3611436 0.15550447 0.117397085 -0.27511558
0000d0 b8 4e 3e 3e f9 45 12 3e 35 68 87 3e 6c 11 11 3e
       0.18584716 0.14284505 0.2644669 0.14166802
0000e0 54 05 90 3e b2 b4 d4 bd a4 b6 7e 3c 0f 74 10 3e
       0.28129065 -0.103860274 0.015546475 0.14106773
0000f0 cb f0 4d 3c c9 fd 1c be 38 4a 48 be 0e 26 a5 bd
       0.012569617 -0.15331186 -0.19559562 -0.08063899
000100 1c bf 22 be 42 37 3a be de 2c c7 be b6 f5 b1 3c
       -0.15893215 -0.18185142 -0.38901418 0.02172361
000110 31 b4 89 bd da 55 5b be 37 66 c8 be 5f 7f 6e be
       -0.06723822 -0.21419469 -0.39140484 -0.23290776
000120 65 c5 bb 3e ae f8 29 bd aa 26 27 3e 0f 8e 91 bc
       0.36674038 -0.041496925 0.16323343 -0.017767934
000130 ef ae d5 3e b1 cd 8b 3d a4 d8 e8 bd d0 9a b0 be
       0.41735026 0.06826342 -0.11369446 -0.34493113
000140 b1 bb c5 bd fd 62 38 3e 91 6f bd 3c bf ad 49 3e
       -0.0965494 0.18006511 0.023124488 0.19695185
000150 bd c3 8e be 71 d8 68 3e d4 34 b2 3e a3 53 14 3f
       -0.2788371 0.22738816 0.3480593 0.5794012
000160 4e 3b 3a bc 16 40 50 bd 1e cb 6c 3e 2d 75 91 3e
       -0.011366678 -0.050842367 0.23124358 0.2840971
000170 b3 71 f0 be 6b a3 4b be 4f 53 1e be 46 ba 1d 3e
       -0.46961746 -0.19886558 -0.15461467 0.15403089
000180 30 68 2f 3d 81 76 8d be 20 f5 9b 3d 91 d8 8d 3e
       0.04282397 -0.27629474 0.07615113 0.2770429
000190 14 8d 6e 3e d7 00 e5 bc c0 7e 77 be 62 de 1b be
       0.23296005 -0.027954502 -0.24169445 -0.15221551
0001a0 8c eb e1 3e b1 09 3e 3e 28 dd 26 3b cc 57 70 be
       0.4412502 0.18558384 0.002546141 -0.23470992
0001b0 c0 32 b7 3e 79 ef a8 3e 51 30 3c 3e 0a 42 65 bc
       0.35780907 0.32995203 0.18377806 -0.013992796
0001c0 4f 2c 15 3e ea 8c c0 3c 25 32 9f 3e 50 43 8d bd
       0.14567684 0.023504693 0.31092945 -0.068976045
0001d0 d3 06 95 be c3 e9 d8 be 94 5f 89 be 6c 07 ae bd
       -0.2910677 -0.42365846 -0.26830733 -0.08497509
0001e0 34 1c 0a bd fc 6e 81 bd 69 9d 85 be 2d 79 17 3d
       -0.033718303 -0.06319997 -0.26096657 0.036980797
0001f0 fe 31 b8 3e 57 9b 19 bc b5 60 b9 3d 96 91 4f 3e
       0.3597564 -0.009375415 0.090516485 0.2027038
000200 7a eb a6 3d ec 29 ac be a3 e1 a9 bd 28 0a 1f be
       0.08150382 -0.33625734 -0.0829499 -0.15531218
000210 7e ef ad 3e 13 9b a1 be 38 25 a2 be 2e a2 26 bd
       0.3397178 -0.31563625 -0.3166902 -0.04068201
000220 d3 59 ba 3e 0a 72 07 3e 10 d4 8d be 66 19 e0 3d
       0.36396655 0.13227096 -0.27700853 0.10942344
000230 b9 29 94 3e 10 28 97 be 4a 81 35 be 6e 1c 5d 3e
       0.28938082 -0.29522753 -0.17725101 0.21592876
000240 d5 b6 55 be f2 04 ce be 74 a5 3b be f4 e4 ad bd
       -0.20870526 -0.40238148 -0.18324834 -0.08490935
000250 f5 3f 90 3e 5b 8b 30 bd bf ff ea bd 8c a5 94 be
       0.28173795 -0.04310165 -0.11474561 -0.29032552
000260 4a 58 97 3d 8b 1e 41 3e 93 d6 24 3e d0 02 5a 3e
       0.07389887 0.18859307 0.16097479 0.21290135
000270 9f 12 64 3e 8f 9d e0 3d 96 3b 6b 3e 4d 85 be 3e
       0.22272728 0.10967552 0.22971949 0.37211075
000280 7e 15 cb be 0a f2 6f bb b5 1c bb bd 93 66 87 be
       -0.39664835 -0.0036612772 -0.09136335 -0.26445445
000290 23 87 9b be 42 98 89 bb d1 2a 86 3e cc eb 0d 3d
       -0.3037654 -0.0041990587 0.2620454 0.0346487
0002a0 53 8a 18 be 90 31 d1 3d 1d 8d 56 be 0f bc 26 3e
       -0.14896517 0.102145314 -0.20952268 0.16282676
0002b0 38 6f 05 3f 2f a2 ec 3e d8 87 c8 bd 32 90 94 3e
       0.5212283 0.46217486 -0.09791535 0.29016262
0002c0 ce 47 83 3e 5e f2 d0 be 2b 38 7e be b8 bc ce be
       0.2564072 -0.4080991 -0.24826114 -0.40378356
0002d0 bb 1f 8b 3d e1 7e 14 bd 22 90 7b 3c 4f b7 5c bd
       0.067931615 -0.036253814 0.015354188 -0.053885754
0002e0 61 ee 60 3e 88 14 99 bd dd e6 91 bd 9d 2a aa be
       0.21965934 -0.07474619 -0.07124112 -0.33235636
0002f0 dd 73 41 be 8b 45 89 3e 5d a3 9c 3d 42 ca ea bd
       -0.18891855 0.2681087 0.076483466 -0.11464359
000300 8f 50 a5 3b a7 9b 92 be bf 7a eb be 24 d3 a4 3d
       0.0050450037 -0.28634378 -0.45992085 0.080480844
000310 f4 50 03 3e 1a d0 99 3e 7d 7c 8f 3d 9f bd b5 3e
       0.1282385 0.3004158 0.07006166 0.35496232
000320 c6 03 92 be 19 42 0e be 9b 3c ad bd b2 45 81 3e
       -0.28518504 -0.13892402 -0.08458825 0.25248486
000330 6d 96 20 bf ca c2 75 be ec 34 0e be 4e 3e 56 3e
       -0.6272953 -0.24000087 -0.13887376 0.20922205
000340 74 56 d1 3c e0 50 82 be 2c e9 17 be a5 c2 6e be
       0.02555392 -0.25452328 -0.14835042 -0.23316438
000350 ca 6a 20 be f6 bc a3 3e 90 a6 ee 3d 52 04 8a 3e
       -0.15665737 0.31980103 0.11652863 0.2695642
000360 07 d8 40 bd e1 bd 71 be bb c0 41 be 4d 21 02 be
       -0.04708102 -0.2360759 -0.18921177 -0.12708016
000370 b7 64 a3 3c d8 55 40 3e b1 db 92 3e 10 e9 5b 3e
       0.019945486 0.18782747 0.28683236 0.21475625
000380 20 b0 15 3f 8e a1 c7 3e 6c f9 a5 bd 3f 19 2d 3e
       0.5847187 0.38990444 -0.08104214 0.16904162
000390 7b 06 de bc 82 ff c7 bd d9 4d b4 3d 65 eb 40 be
       -0.0271027 -0.09765531 0.08803911 -0.18839796
0003a0 a4 c7 a5 be 66 2e 0b be 8a ea bf bd 8c c3 95 be
       -0.32378876 -0.13591918 -0.09370907 -0.29250753
0003b0 7f 98 86 be 80 3b 9f 3e af d1 b3 3e 84 17 a6 bd
       -0.2628822 0.31100082 0.35120913 -0.08109954
0003c0 99 a2 fc bd 6b 39 b6 bd 5b 27 16 3d 8d 15 ad be
       -0.123357005 -0.0889767 0.036658626 -0.33805504
0003d0 66 47 61 be bc 1d 66 be 68 e7 c9 bc 35 6d cd be
       -0.21999893 -0.2247228 -0.024646476 -0.4012238
0003e0 b0 4c 9e 3c 98 50 6d bc eb 54 89 3e 94 df ae bd
       0.019323677 -0.014484547 0.268226 -0.08538738
0003f0 12 a2 88 3d 4d 1e 89 3e 77 66 aa 3c d8 c0 a4 3c
       0.066715375 0.2678093 0.020800812 0.020111486

bias f4 [48]
000000 eb 6b 7a bd bb 4d 5e 3e 23 b9 79 3e fb c0 83 3e
       -0.061138075 0.2170934 0.2438703 0.2573317
000010 6b c7 b0 bd 66 2b 1a be 26 f4 ef bd 7e 86 a8 3d
       -0.08631786 -0.15055618 -0.117164895 0.08228777
000020 04 eb 77 3d 13 d0 94 bb 24 30 fb bd 1e 64 9d 3c
       0.060526863 -0.004541406 -0.122650415 0.019212779
000030 b1 8e 52 be da fe 3d be ad 1e ed 3d d4 b6 15 bd
       -0.20562245 -0.1855425 0.115781166 -0.03655131
000040 b8 a8 dc 3c 3f 6c 37 3e 9c a8 7a 3b e4 53 84 3d
       0.02693592 0.17912386 0.0038247472 0.06461313
000050 ec 4a 7d be 55 c3 30 3e ff 3c b2 be 98 14 94 bd
       -0.24735612 0.17262013 -0.3481216 -0.072304904
000060 a0 fd 94 be 25 04 89 bd 74 ba 7f bd 99 f0 cb 3d
       -0.2909975 -0.06690244 -0.062433675 0.09958
000070 15 ce 77 3e 79 fc a3 3e 45 4a 3c be b6 d3 7a bd
       0.24199708 0.3202856 -0.18387707 -0.06123706
000080 92 0c 92 bb b6 41 5e be e1 b3 44 be 48 4d 34 3e
       -0.004457065 -0.21704754 -0.19209243 0.17607605
000090 b3 6c ed bd 79 68 d9 bd 1a 75 18 be 40 af 93 bd
       -0.11592998 -0.1061563 -0.1488842 -0.07211161
0000a0 88 2b e9 bd 2c d6 ac 3d 3e 4a 61 3e 55 39 d1 bd
       -0.11385256 0.084392875 0.22000977 -0.10216013
0000b0 1c e8 cc 3c 80 c5 11 3d b5 a6 43 be 98 78 85 3e
       0.025013022 0.03558874 -0.19106562 0.26068568

weight f4 [48]
000000 ae d9 50 3f 49 be 18 3f 0e 6e 16 3f 04 f2 32 3f
       0.8158215 0.5966535 0.5876168 0.69900537
000010 b7 d9 ea 3e 72 ad 13 3f f6 81 2b 3f b9 8a 3d 3f
       0.45869228 0.5768653 0.6699518 0.740398
000020 1a 06 24 3f 44 ff 03 3f de 93 18 3f d0 f6 42 3f
       0.6407181 0.5156138 0.5960063 0.76157856
000030 75 6a 08 3f 75 52 50 3f 7b 9d 26 3f 00 22 54 3f
       0.5328744 0.8137582 0.65084046 0.8286438
000040 1d 74 32 3f 51 c2 08 3f 93 ef 31 3f 12 2e 1b 3f
       0.69708425 0.53421503 0.69506186 0.6061717
000050 f2 94 ff 3e 75 a0 29 3f 92 b4 48 3f 7a e8 1f 3f
       0.49918324 0.66260463 0.7840053 0.62464106
000060 36 c7 4f 3f 93 34 57 3f ab c0 21 3f 6f c8 24 3f
       0.81163347 0.84064597 0.63184613 0.6436834
000070 32 98 0b 3f d3 b4 c4 3e 0d 7a 14 3f 7a ec 11 3f
       0.54529107 0.38419208 0.57998735 0.5700146
000080 f4 a2 69 3f e1 51 06 3f ca 4d 3d 3f 8e a1 3f 3f
       0.9126427 0.5246869 0.7394682 0.7485589
000090 1a 40 2e 3f f4 ce 0a 3f 13 fc 27 3f 79 f2 51 3f
       0.6806656 0.54222035 0.6561901 0.8201061
0000a0 71 d4 17 3f 84 bc 3a 3f 2a 2d 10 3f e6 fb 2c 3f
       0.59308535 0.729439 0.56318915 0.67571867
0000b0 4b f8 19 3f 8e 76 1c 3f f0 4e 39 3f 1a d3 2d 3f
       0.6014449 0.611184 0.72386074 0.6790024

bias f4 [48]
000000 08 2c 38 3c 56 f7 3b bc 8c d2 ff bd 56 37 81 3d
       0.011240967 -0.011472544 -0.124913305 0.063093826
000010 04 6b 08 bd 8d bb 55 3d b0 8a dd 3d 4a 30 e7 bd
       -0.033305183 0.052180815 0.10817468 -0.11288507
000020 80 87 01 be 7d f1 e7 3d 2a e4 6a bd ea d0 1f 3e
       -0.12649345 0.11325357 -0.0573465 0.15607038
000030 f5 d6 a0 3c e6 90 61 3d ed e8 d4 bc 16 91 12 3d
       0.01963375 0.055069827 -0.025989974 0.035782896
000040 21 77 28 3d c7 3f 85 bd 8e 97 08 bd d0 a5 d6 bc
       0.041129235 -0.06506305 -0.03334766 -0.026202112
000050 4c f0 19 3e cf 42 d0 bd dc 03 36 bc 95 1f 33 3e
       0.15033072 -0.10168993 -0.011109319 0.17492516
000060 fe 1f cc 3d 32 40 d2 3b b6 92 8b 3d b9 41 4f 3d
       0.099670395 0.006416344 0.06815092 0.050599787
000070 19 a7 dd bc 0f 1f 05 be f6 17 e8 39 ed 65 91 bc
       -0.027057217 -0.13000129 0.0004426834 -0.017748797
000080 64 da 35 3d ef 75 2e 3d 12 cf 6a 3d 32 48 64 bc
       0.044397727 0.04259294 0.057326384 -0.013933228
000090 f5 a3 6e 3d 3c 4b 70 bd 4f 5e 52 3d fd 5f c2 bd
       0.05826183 -0.0586655 0.05135947 -0.094909646
0000a0 16 91 25 bd fa c2 88 3c 3d 6c 73 bc f6 91 81 bd
       -0.040421568 0.016694535 -0.014857349 -0.06326668
0000b0 e6 ca 65 bd 5b 14 d1 bd a2 56 6d 3d 5d a1 d2 bd
       -0.056101702 -0.102089606 0.057943948 -0.10284684

weight f4 [144, 48]
000000 00 61 07 3e 18 f5 98 3d 92 e5 cc bc d0 4c b5 3d
       0.13220596 0.07468623 -0.025011811 0.088525414
000010 81 ac fc 3b 06 b1 65 bd 26 b4 72 3e 59 77 0c be
       0.0077109938 -0.056077026 0.23701534 -0.13717403
000020 e4 0d 30 be 5d 21 6c 3e aa a9 98 bd 10 56 15 3e
       -0.17192799 0.23059602 -0.07454236 0.14583611
000030 21 ed 65 3d 1d 50 3d 3e 61 04 6e be e8 a9 13 be
       0.056134347 0.18487592 -0.23243858 -0.14420283
000040 02 ea 35 3e c2 dd 33 be 8f b2 e0 bc 18 61 a1 3c
       0.17765048 -0.17565063 -0.027428893 0.019699618
000050 75 e5 5c 3e fa 35 0b 3e ad 09 00 3e dc 39 39 3e
       0.21571906 0.13594809 0.12503691 0.18088478
000060 81 d6 1c be 99 9c 83 bd 01 7e 22 be 02 a7 8e 3d
       -0.15316202 -0.06426353 -0.15868379 0.06965448
000070 da 62 ff 3d 54 b7 a9 3c 48 80 34 be ef 2b 55 bd
       0.12470026 0.0207173 -0.1762706 -0.05204385
000080 5a f4 88 3d 19 fe 6a be 21 dc 2c be 71 26 20 3e
       0.06687231 -0.22948493 -0.16880848 0.15639664
000090 d4 aa bc ba 20 41 74 3e 12 22 e4 3c 54 7e 6c bc
       -0.0014394172 0.23852968 0.027848277 -0.014434416
0000a0 e4 b1 8b bd c6 b0 95 bb b6 96 60 be 2b c0 6b 3b
       -0.06821039 -0.004568192 -0.21932492 0.0035972695
0000b0 dd 81 1f bd 10 a8 ec 3d 36 ae 92 3e 64 73 1c 3e
       -0.038942207 0.11555493 0.28648537 0.15278393
0000c0 5e 49 18 3e 2f 53 0b bd 05 f7 dc 3c 99 7c c8 bc
       0.14871737 -0.034014877 0.026973257 -0.024473475
0000d0 3d 59 28 be 9e 84 13 3e 44 ac 7f be f2 b3 a3 be
       -0.16440292 0.14406058 -0.24968058 -0.31973225
0000e0 8b 79 b1 be d9 31 a5 3d 35 ad 03 be 25 63 f3 3d
       -0.34663042 0.08066148 -0.12859042 0.11884145
0000f0 90 46 b6 3d a9 ba 42 3e ed 2e f0 bd 0b 68 95 bd
       0.089001775 0.19016518 -0.117277004 -0.07295235
000100 0a b9 af bd d6 75 6a bd 16 9a ac be a7 dd 6b bd
       -0.08580215 -0.057241283 -0.33711308 -0.05758443
000110 d7 8f 37 3e 7a 9c 47 3e be d7 5a 3c 46 ab 03 3d
       0.17925964 0.19493285 0.013357101 0.03214576
000120 4c ad 87 3c 7e aa e0 bd 80 ca 4b bb 04 9e dd 3c
       0.016562127 -0.10970019 -0.0031096041 0.027052887
000130 e1 79 59 be 7a ce 42 3d f6 7d 90 3d 4c 96 c3 3d
       -0.212379 0.047560193 0.07055275 0.09550151
000140 eb 06 36 3e 4d 8f 0a be 6e 4f 8d 3c f5 4a ab 3e
       0.17776076 -0.13531227 0.01724979 0.33455625
000150 44 fe 37 bd af 38 6e 3e 0f 0e 8f 3c 90 70 ed be
       -0.04492022 0.2326381 0.017462758 -0.4637494
000160 90 3c 52 be a4 80 80 bc a5 76 a1 be 23 03 f0 3d
       -0.20530915 -0.01568634 -0.3153583 0.11719348
000170 21 45 ce bd 98 e3 ab bd 5e 4b ba 3d 75 c5 27 be
       -0.10071779 -0.083930194 0.090964064 -0.16383918
000180 62 78 14 be c6 f6 6f bd 47 26 83 3d 25 ae b5 3c
       -0.14499047 -0.05858495 0.06403785 0.022177765
000190 6d bb 0b 3e fc 96 18 3e 25 30 9d bd b2 3c 4a 3e
       0.13645716 0.14901346 -0.076751985 0.19749716
0001a0 85 f1 ad 3d 5c 4e df 3d 2d 59 84 bd 3e da 6d bd
       0.08493332 0.10903618 -0.064623214 -0.05806946
0001b0 d2 38 58 bd 3d 83 0c 3e 31 54 f6 bd f1 59 d0 3d
       -0.052788563 0.13721938 -0.12027777 0.10173405
0001c0 f1 72 d1 3c 75 13 a3 3c a0 1b 31 bd cb b6 c2 3d
       0.025567504 0.019906739 -0.043239236 0.09507521
0001d0 36 94 45 bc c5 2f 69 be f7 46 9a 3d 89 b9 77 3b
       -0.012059262 -0.22772129 0.07533067 0.0037799797
0001e0 d2 bd c5 bc 0a 86 a3 bd 30 4e d3 3d 15 8e 70 3c
       -0.024138365 -0.0798455 0.103176475 0.0146823125
0001f0 d9 cc 99 be 4d 57 d8 3d 2f 2a 88 bd bd 54 49 bc
       -0.300391 0.10563526 -0.06648671 -0.01228827
000200 e5 30 8a 3d eb 40 2e be 51 ab 91 3d dd 43 75 3c
       0.06747607 -0.17016952 0.07112754 0.014969793
000210 03 d6 fe 3d 1f 87 9d bc 80 d4 56 bd 60 01 25 bd
       0.12443163 -0.01922947 -0.05244875 -0.040284514
000220 b5 d0 81 3d 75 92 1c 3e 2e 52 25 be 7a 49 d6 3c
       0.06338636 0.15290244 -0.1614463 0.026158083
000230 71 9c 4b 3c d6 38 82 3b c9 c5 08 bc 7c 5f 48 3c
       0.012427435 0.0039740605 -0.008347937 0.0122297965
000240 84 4d 6f bd 78 28 65 bd 06 b0 36 be 9f 09 59 3e
       -0.058423534 -0.055946797 -0.17840585 0.21195076
000250 9d 74 3d 3e c8 34 07 3f 65 30 66 3e 9e f2 aa 3e
       0.18501516 0.5281491 0.22479399 0.33388227
000260 1a 79 32 3e d7 b4 6e 3e b3 a9 f3 3d f3 fe ba be
       0.17429009 0.23311172 0.11897602 -0.36522636
000270 c1 37 32 3e 19 b4 16 3e 7f b2 7e 3d b5 33 c3 be
       0.17404081 0.1471714 0.062181946 -0.38125387
000280 b6 86 48 3d ef b8 ca be 1e 51 34 3e f0 4d be be
       0.048956595 -0.39594218 0.17609069 -0.37168837
000290 ee 5b 1e 3f e1 53 d9 3d 33 f0 96 3e c8 ff bf be
       0.61859024 0.10611702 0.29480132 -0.37499833
0002a0 94 f3 15 bd 2d 4b ba 3d cd ee b0 3d 9d 08 60 be
       -0.036609247 0.0909637 0.08639298 -0.21878286
0002b0 ae 5e 28 bd be 63 1f be 7c 6b ec bd 5d 04 10 be
       -0.04110592 -0.15565392 -0.115439385 -0.14064164
0002c0 6d 95 f6 bd 28 fa 6e be 67 c4 f7 bd d2 49 fb bd
       -0.120402195 -0.23337615 -0.12098008 -0.122699395
0002d0 27 83 32 3e 82 9f 93 be ea 1e 2b be 15 dc 51 3e
       0.17432843 -0.28832632 -0.16711012 0.20494111
0002e0 10 05 c9 be 56 df 95 be 8f d9 00 be 0e 17 68 bc
       -0.39261675 -0.29271954 -0.12582992 -0.014165653
0002f0 ec b7 9f 3e 4a f2 f6 3d 5d e6 9c 3d b6 32 92 be
       0.3119501 0.12057932 0.07661126 -0.28554314
000300 09 4b 08 3e 25 a4 b6 bc f0 7f 17 3c e7 49 69 3d
       0.13309874 -0.022295067 0.009246811 0.056955244
000310 01 d9 3e 3e 7b d7 15 3e 78 3f 43 3e c1 61 04 be
       0.18637468 0.1463298 0.1906718 -0.12927915
000320 ed 7b 89 be 44 70 0e 3e 84 67 dc bd 07 de c3 bd
       -0.2685236 0.13910013 -0.107619315 -0.09563833
000330 1f 61 30 3c f6 7c 8e bc f4 59 2e be a5 ef c0 bd
       0.010765343 -0.01739357 -0.17026502 -0.094207086
000340 43 b9 27 be 9d a6 52 be 58 8a 00 bd 50 6d 52 3d
       -0.16379265 -0.2057137 -0.031381935 0.05137378
000350 ce 8d 80 bd f5 f5 69 3e 69 c9 e6 3e 53 f7 e0 bd
       -0.06277047 0.22847731 0.4507554 -0.10984673
000360 d7 14 5b be c1 fe 28 3e e8 f7 bd be 4f a9 c2 bd
       -0.21394669 0.16503431 -0.371032 -0.09504949
000370 5c 14 18 3e 63 4d 36 3d 4b a3 65 bb 99 4e 2d bd
       0.14851516 0.044507395 -0.0035039957 -0.042311285
000380 c3 b0 6d be e1 f2 0d be 47 b3 47 be 86 f7 1d 3d
       -0.2321196 -0.13862182 -0.19501983 0.038566135
000390 c0 2b 39 3e ed ed 94 be 4e 3f 55 bd ab 65 57 3e
       0.18083096 -0.29087773 -0.052062325 0.21034877
0003a0 0b a4 52 be df 1f 65 be 05 6d d2 3d 93 59 2e bd
       -0.2057039 -0.22375439 0.102747 -0.042565893
0003b0 21 87 0b bd 1d 1e 92 3e f0 d1 3c 3e 20 c7 ae 3d
       -0.034064416 0.285386 0.1843946 0.08534074
0003c0 0f 28 86 3e 9c 75 b2 3e 7f 39 ac 3d a3 ac 51 bc
       0.26202437 0.34855354 0.08409404 -0.012797507
0003d0 cc c9 71 3e 95 1a 3b 3e b6 78 d7 be 70 95 22 3e
       0.23612136 0.18271859 -0.42084283 0.15877318
0003e0 76 8c fd bd 38 b6 75 3e 71 08 a0 bd 0b a1 2e 3e
       -0.123803064 0.23995292 -0.0781411 0.1705362
0003f0 82 cd 6f be ea a1 0d 3e 6b 0a a4 be ee 82 50 be
       -0.23418239 0.13831297 -0.32039198 -0.20362446

weight f4 [48, 48]
000000 8a 94 d7 3d d9 33 2b 3f 23 79 89 3e fc 29 93 bd
       0.105263785 0.6687599 0.26850232 -0.07185742
000010 1b d0 ba 3c 51 60 6c be aa 22 bf 3e 7c 97 9d 3a
       0.02280431 -0.23083617 0.37331134 0.0012023295
000020 7c 05 ce 3e 00 f5 86 be ca e2 eb bc 16 bb 62 be
       0.4023856 -0.26358795 -0.028794665 -0.2214168
000030 41 fe 1e bd f9 dd e6 3e 2f fb 8e 3d 5a 2b ad be
       -0.038816694 0.45091227 0.06981503 -0.33822137
000040 8b 2c 0d be 6c 1e 1a bd 62 ed 10 3e c0 1f c3 be
       -0.13786523 -0.03762667 0.14153054 -0.3811016
000050 75 e7 46 bd 40 a8 6c be 76 fb b6 bd d1 9b 24 bd
       -0.04856058 -0.23111057 -0.08934681 -0.04018766
000060 87 c2 25 3e bc 6c 38 be 95 5c 34 be d2 aa 80 3d
       0.16187488 -0.18010229 -0.17613442 0.062825814
000070 9b f7 c5 3d d2 e0 c3 3e cd 21 07 3e 26 77 b2 3c
       0.096663676 0.38257462 0.13196488 0.02178533
000080 e1 1b 1b bd 6a 4c ac bc b1 2e d9 bd fd 67 b2 be
       -0.037868384 -0.02103253 -0.10604609 -0.34844962
000090 da 7a aa 3e de 3a 27 be ad df 34 3e aa cf 0c 3e
       0.33296853 -0.1633105 0.1766345 0.13751093
0000a0 74 c1 b8 bc 0a 34 b9 3d 21 b5 f0 3d 37 42 4e 3e
       -0.022553183 0.09043129 0.117532976 0.20142446
0000b0 d7 be ac be 86 71 0d 3e 27 2c 1a be ea dc 87 3e
       -0.3373935 0.13812837 -0.15055905 0.26535732
0000c0 4e d9 bc 3e 15 61 f4 be 5a 03 0c be 3c 24 47 be
       0.3688454 -0.47730318 -0.13673154 -0.19447416
0000d0 bb 18 01 3f 05 01 d2 be 3e 09 bd 3c ec 33 00 3e
       0.5042836 -0.41016403 0.023075696 0.12519807
0000e0 c2 10 ed bd 5e 3b 2e 3e 36 c3 28 3e 16 7a b5 bd
       -0.11575462 0.17014834 0.16480717 -0.08861177
0000f0 5b 66 92 bb b7 f3 fc bd 4e 8d 83 be b6 0f 1c 3e
       -0.004467768 -0.123511724 -0.25693744 0.15240368
000100 73 9d cb bd 55 32 83 bd f9 0e 0a bd 6b cd 94 be
       -0.099421404 -0.064060844 -0.033705685 -0.2906297
000110 d1 b6 d9 bd af e2 9d be a1 40 33 3e 67 0e 7f 3d
       -0.106305726 -0.30837008 0.17505123 0.062269595
000120 2b 17 bd bd 22 e5 2c 3e 9f 16 c0 be 66 0d 4a 3d
       -0.092329346 0.16884282 -0.3751726 0.049329184
000130 59 3d cd bd 6b eb 94 3d 94 b5 a6 3d c9 7a 59 be
       -0.10021467 0.07271465 0.08140102 -0.21238245
000140 22 d3 c9 3d c6 7e 31 3d b2 ae d1 bc b0 2e 61 3e
       0.098547235 0.04333379 -0.025595997 0.21990466
000150 31 a9 c2 bc 98 ed 39 3e 31 bd 04 3e 70 c5 b6 3d
       -0.023762317 0.18157041 0.12962796 0.08924377
000160 18 87 72 3e 96 ff 28 be 80 40 05 3e b2 70 a2 3d
       0.23684347 -0.16503748 0.13012886 0.07931651
000170 f9 bc c3 be a4 51 97 3e c7 bb 8b bd 6e 9b 22 be
       -0.38230112 0.29554474 -0.06822925 -0.15879604
000180 97 e6 b1 bc fa 0b f1 3d 35 02 ab bd 29 51 95 be
       -0.0217164 0.117698625 -0.0835003 -0.29163483
000190 41 ad 68 bc 8d a1 99 3d f9 de c9 3d 1a 50 7e 3e
       -0.014201463 0.075015165 0.09856982 0.24835244
0001a0 bd b6 e2 3d 0f 30 bb be 6c 32 b0 bd 30 ad bd bc
       0.11070011 -0.36560103 -0.08603367 -0.023153871
0001b0 de db 06 bf a0 b7 3f 3e d7 9b 08 3f 8c 75 34 3e
       -0.5267924 0.18722391 0.5336279 0.17622966
0001c0 21 60 be bd 9e d3 a7 3d 95 78 4e bd 9d be 3a 3c
       -0.09295679 0.0819466 -0.050407965 0.011397985
0001d0 a6 e1 52 3e d4 22 f9 bd ff ae 23 3e 2a bb 1a 3d
       0.2059389 -0.12164846 0.15984724 0.03777615
0001e0 ea 3c 23 be b5 47 15 3e e9 ab 9c 3d d2 4c 8a be
       -0.15941206 0.14578135 0.07649977 -0.27011734
0001f0 56 5c c7 3d 85 8a bb bd 63 5e 2e 3e 88 17 54 3d
       0.097344086 -0.0915728 0.17028193 0.051780254
000200 a0 13 13 be 09 91 01 3e 34 04 93 be 3f 22 f0 bd
       -0.14362955 0.12652983 -0.28714144 -0.11725282
000210 eb 24 03 be 9b c5 b2 be 11 e3 d5 bd 81 f4 6b be
       -0.12807052 -0.34916386 -0.104437 -0.2304249
000220 89 59 87 3e 3b c9 fc bd 29 ae 75 bd 5a 82 84 bd
       0.26435497 -0.12343069 -0.059980545 -0.06470175
000230 06 42 4f be 76 93 e3 3e 0c dd 20 be b2 84 d3 bd
       -0.2024003 0.4444844 -0.15709323 -0.10328044
000240 21 53 37 be 9e c9 39 3d 0e f4 84 be c1 6c 9f 3c
       -0.17902805 0.045358293 -0.2596745 0.019461038
000250 20 26 e9 3c 9f 04 86 bc 18 74 23 be 9b 6a 80 3e
       0.028460562 -0.016359625 -0.15962255 0.25081334
000260 1b 15 bd be 30 fe 5f 3d c3 13 a5 3c 49 15 f8 3d
       -0.36930165 0.05468577 0.020151025 0.12113435
000270 e0 62 a3 be 83 cd 34 be 01 d2 00 be 57 c5 af 3c
       -0.31911373 -0.17656521 -0.1258011 0.021456404
000280 e6 bd 01 3c 66 7e e8 3d 01 d5 19 be b5 3d 68 3e
       0.0079188105 0.113522336 -0.15022661 0.2267979
000290 f5 d8 06 bd 1f f4 d6 bd 4b 45 2c 3e 8f b8 e9 bc
       -0.03292175 -0.10495781 0.16823308 -0.028530387
0002a0 1e 8a 34 bd ed 18 be bd da 2c b1 3c bb c7 b3 3d
       -0.04407703 -0.09282098 0.021627832 0.0877833
0002b0 3d 0b e1 bd 0f b4 c2 3d 97 c6 6d be c1 57 05 3e
       -0.10988472 0.09507 -0.23220287 0.13021757
0002c0 70 9e 1b bc ec 03 ea 3d e3 40 3c 3c 19 27 77 3d
       -0.009498224 0.11426529 0.01149008 0.06034002
0002d0 6c f6 9e be 10 ae a0 3c 82 97 0a be 79 3c 9d bd
       -0.3104738 0.01961425 -0.13534358 -0.0767755
0002e0 02 8a 9d be 9a 1a b3 3d d2 ad 1a be ad 11 a4 3e
       -0.30769354 0.08745308 -0.1510537 0.32044736
0002f0 ba 62 92 be db d3 53 3e 4a 37 87 be 18 97 36 3e
       -0.28590947 0.20686285 -0.2640937 0.17831075
000300 f3 6d 0a be 33 34 a3 be b5 db 7a 3e 8f 50 2a 3e
       -0.13518505 -0.31875762 0.24497874 0.16632293
000310 a9 76 0c 3f 8f 4c 03 3e 30 5f c6 bd 4b 5f fb 3d
       0.5486856 0.12822174 -0.09686124 0.12274035
000320 1f 31 38 3e 59 f3 09 3f 21 c5 b8 be 68 6f 92 3e
       0.17987488 0.53886944 -0.36087897 0.2860062
000330 49 31 e5 bd 67 43 bb bd cd be be be dd db b5 bd
       -0.11191041 -0.09143715 -0.37254944 -0.08879826
000340 03 48 48 be b3 e3 d8 3e 04 06 01 be 14 1e 9f 3e
       -0.1955872 0.4236122 -0.12599951 0.31077635
000350 2a bb ff 3b a3 5e bf bd 34 57 3d 3c e0 da 82 bd
       0.007804294 -0.093442224 0.011556435 -0.06389403
000360 22 50 d4 be 87 71 27 3e 12 65 2c be b1 c1 d2 bd
       -0.41467386 0.16351901 -0.1683543 -0.1029085
000370 81 88 97 3d 2c b9 4a be cc ea 1f bd d8 f2 3e be
       0.07399083 -0.197972 -0.03904228 -0.18647325
000380 58 3c 29 bd 02 a0 86 be cd f1 87 be 36 08 77 3d
       -0.041317314 -0.2629395 -0.26551667 0.060310565
000390 c6 69 e2 bd 07 f2 35 be 4c 27 79 3e 4a db 68 3d
       -0.11055331 -0.17768107 0.24331397 0.056849755
0003a0 2b ed d9 3e 26 7a 8d 3e 32 9f 6f 3e da ca 9a 3d
       0.42563757 0.27632254 0.23400572 0.07558222
0003b0 92 76 04 b9 c0 50 50 3e e5 87 2b be 72 a5 50 3d
       -0.00012632672 0.20343304 -0.16751058 0.05093903
0003c0 9e 38 7d be 54 59 50 be 9b 13 59 3e ed 12 81 3d
       -0.24728629 -0.20346576 0.21198885 0.06302438
0003d0 61 df e5 bc f5 d7 f0 bd 23 c7 24 3e cb 6a 6b 3d
       -0.028060617 -0.117599405 0.1609159 0.057474893
0003e0 2d 01 49 bd 02 85 3a 3e aa a3 88 be 6c bf 84 3e
       -0.049073387 0.18214801 -0.26687366 0.25927293
0003f0 ea 79 75 bc a0 5e e8 bc 3c 8e 9c be 0d 4d 9a bd
       -0.01498268 -0.028365433 -0.30577266 -0.075342275

bias f4 [48]
000000 b4 70 f8 bb 65 95 d6 bd 96 5f 38 3e 5a 80 62 be
       -0.0075817946 -0.104777135 0.18005213 -0.22119275
000010 69 a8 58 3e 47 f3 cb bd aa f1 19 be f8 6b cd bc
       0.21157993 -0.09958511 -0.15033594 -0.025075898
000020 f7 59 17 3c 3f ca 1f be 5e d4 09 3e 99 7d 08 3d
       0.009237758 -0.15604495 0.13459918 0.033322904
000030 83 dc 29 be 4d 3b 28 be 24 06 ad 3d bc 2b 49 bd
       -0.16588025 -0.16428871 0.08448437 -0.049113974
000040 69 fa f1 bc e2 8d 7a bd 5c 11 c1 3d 5b a2 84 3d
       -0.02953835 -0.061170466 0.09427139 0.06476279
000050 27 54 60 be 09 4b 8b bd fd 02 d8 3d d6 5f b1 bc
       -0.21907102 -0.06801421 0.10547445 -0.021652143
000060 61 40 37 bd 86 fb 82 3d 80 ad 4b 3e ca 35 56 be
       -0.04473913 0.063956305 0.19890404 -0.20918956
000070 29 d9 31 3c ac d4 c2 3d 2a b5 90 3c b5 ce 5d ba
       0.010854998 0.0951322 0.01766451 -0.00084612827
000080 03 8f 18 be 37 77 69 bd e4 4d a9 bd 01 3c b8 bd
       -0.14898305 -0.056998458 -0.082668096 -0.0899582
000090 8e 5a af bc 6b 53 1d 3d 18 d1 04 bc 22 bb 39 3d
       -0.021405485 0.03840963 -0.008106492 0.04534448
0000a0 49 c3 84 3d d1 f7 b6 ba 39 48 ab 3e 57 6d 24 3e
       0.0648256 -0.0013959353 0.3345354 0.16057335
0000b0 c0 61 3c be d4 9d 6d 3d 6d a9 1b be 41 1f af bd
       -0.18396664 0.058011845 -0.1520135 -0.08550883

weight f4 [48]
000000 15 5a 27 3f 57 1e 0e 3f 17 ab 51 3f 16 c2 4f 3f
       0.6537183 0.55515045 0.8190169 0.81155527
000010 6c 1b 44 3f 52 38 46 3f 60 1a 15 3f 55 d5 73 3f
       0.7660434 0.7742969 0.5824337 0.95247394
000020 f9 fa 57 3f 56 c1 26 3f 13 fb d3 3e d1 62 3d 3f
       0.8436733 0.6513876 0.41402492 0.73978907
000030 57 a7 86 3f 03 d0 3d 3f 3d a0 57 3f a8 e7 e1 3e
       1.0519818 0.74145526 0.8422888 0.44122052
000040 24 2d 5d 3f a7 55 7a 3f 1d a6 1d 3f 1f 26 10 3f
       0.86397004 0.97786945 0.61581594 0.5630817
000050 1c a6 52 3f 47 c2 30 3f e5 63 84 3f f9 1a 4e 3f
       0.8228471 0.69046444 1.0342985 0.80509907
000060 89 07 81 3f ab 8d 46 3f 00 98 6e 3f 22 6c fa 3e
       1.0080425 0.7755992 0.93200684 0.48910624
000070 91 a5 2e 3f 7f c1 6e 3f a8 e2 02 3f 80 c6 42 3f
       0.68221384 0.93264 0.511271 0.76084137
000080 9b f3 56 3f ef 5a 14 3f 8f 02 56 3f df b5 49 3f
       0.8396546 0.57951254 0.83597654 0.7879314
000090 56 7a 66 3f 0e 5d 1a 3f ae eb 59 3f bf 63 30 3f
       0.9003042 0.6029824 0.85125244 0.689022
0000a0 7f ae f3 3e f2 05 35 3f 19 8f 61 3f ab fe ce 3e
       0.47594067 0.70712197 0.88108975 0.4042867
0000b0 25 6e 78 3f 21 91 31 3f f9 fb 0b 3f 6a 96 97 3f
       0.9704307 0.69362074 0.54681355 1.1842778

bias f4 [48]
000000 50 61 05 3f f9 33 f8 3c ab ec a9 bd 79 2b b2 bd
       0.5210161 0.03029822 -0.08297094 -0.08699698
000010 91 cc cc 3e a6 43 9e be ac 93 6a 3e c8 44 cf 3c
       0.39999822 -0.30910987 0.22907895 0.025301352
000020 0b ba a2 3d 9a 9d be be 85 3f 06 bd 9c 42 b8 3a
       0.07945641 -0.37229615 -0.03277542 0.0014057937
000030 f8 3e 88 be 98 7c 8c be a6 cf a4 3e 4e 14 25 be
       -0.2661054 -0.27438807 0.32189673 -0.16121027
000040 04 54 35 bd 26 5e 28 3e b8 4c 31 be 3a 16 06 be
       -0.044269577 0.16442165 -0.17314422 -0.13094416
000050 8a dc 2a be c9 5a c5 bd 60 b7 59 3e b3 8b bc bd
       -0.16685691 -0.096364565 0.21261358 -0.09206333
000060 98 62 be bb f0 d6 78 3c 4d df 92 3d d4 27 bb be
       -0.005810093 0.015187964 0.071714975 -0.36553824
000070 3f dd 9f 3d b4 43 2b 3f 72 de 05 3f cb ce 81 be
       0.07805871 0.6690018 0.5229255 -0.25353083
000080 e4 7d dd ba 99 cf 7e be 65 27 13 bc 38 63 06 be
       -0.001689848 -0.2488388 -0.00898156 -0.13123786
000090 04 37 76 be a3 49 e8 bd 24 67 ab bc 4c 1c 26 3e
       -0.24044424 -0.1134217 -0.020923205 0.16221732
0000a0 40 f2 4d bd e1 e3 20 be bd ab 04 3f e4 45 0d 3e
       -0.050279856 -0.15711929 0.5182455 0.13796192
0000b0 39 e7 a9 3d 6f ce d4 bd af f6 58 be e8 0e 07 be
       0.08296055 -0.103909366 -0.21187852 -0.1318928

weight f4 [24, 48]
000000 ac e8 68 be e8 25 e8 bb f1 58 ba 3c 0d a2 9d 3e
       -0.22745007 -0.007084597 0.022747489 0.30787697
000010 9a 84 8d be 8f 3f f7 3d c7 18 82 bd bc 4b 0d bd
       -0.2764023 0.1207267 -0.06352382 -0.034496054
000020 8d 9e 11 bf 29 a1 8f 3d db 5e 0f bd c4 ca 2e 3e
       -0.56882554 0.07013161 -0.03500257 0.17069536
000030 07 18 4f 3d 85 0e 56 3e 67 ab a1 3e c0 5c 18 3e
       0.050560024 0.20903976 0.31576082 0.14879131
000040 01 fa 1f 3d 06 bf 13 be 7d a1 da 3d d5 89 d5 bc
       0.03905678 -0.14428338 0.10675333 -0.0260667
000050 7d 94 59 be 9e 6a 2f 3e 6f 83 dd bd 4e 60 2e bd
       -0.2124805 0.17130515 -0.108160846 -0.042572312
000060 e3 9e e2 bd f0 0e 0a 3e 88 0e 0c be db 29 ae 3d
       -0.110654615 0.1348226 -0.13677418 0.08504077
000070 ba 76 4c bd 98 e2 e4 be 92 d5 ab bd 62 9e 1c be
       -0.049917914 -0.44704127 -0.08390345 -0.15294793
000080 25 0c e0 bd 31 b3 a1 bc f4 f3 78 3e ea 1f 23 3d
       -0.109398164 -0.019738765 0.2431181 0.039825357
000090 31 e1 2b 3e 7b af 60 bd 89 ae 53 be 27 df ab bd
       0.16785122 -0.05485485 -0.20672049 -0.08392172
0000a0 ff fa 28 3e 87 59 ff 3d 2d 10 cc be 08 ed 0b 3d
       0.16501997 0.12468248 -0.3985609 0.034161597
0000b0 81 1a 00 3e ee 16 cc bc f2 1e 41 3d 07 fb a9 3e
       0.1251011 -0.024913277 0.047148652 0.3319933
0000c0 a2 ee 8f be 01 76 d0 3d 54 31 6c be 8f e7 91 be
       -0.2811175 0.101787575 -0.23065692 -0.28496978
0000d0 05 1d 70 be 0a 5a 4c 3e 73 c0 35 bd 8c 8c b0 bc
       -0.2344857 0.19956222 -0.044372987 -0.021551393
0000e0 d0 f5 0c 3e 13 c0 18 be 36 93 2d be b7 c2 ca be
       0.13765645 -0.1491702 -0.16950688 -0.3960168
0000f0 58 14 0f 3e ba df 49 3e d4 c1 2c be 4e 12 86 bd
       0.13972604 0.19714251 -0.16870815 -0.0654646
000100 a1 bc c2 3e bb 47 f8 bd 96 4c 84 3d 05 55 2c be
       0.38034537 -0.121230565 0.0645992 -0.16829307
000110 44 00 8c 3e fc e2 3e 3e 94 03 b2 bd 43 4e 39 3e
       0.27343953 0.18641275 -0.08692089 0.1809626
000120 b5 3b 9e bd bf 12 07 be fa d1 23 3e 7e 70 7f 3c
       -0.07726232 -0.13190745 0.15998068 0.015590785
000130 d8 52 30 be da 2a f7 bd 0a a8 01 be 70 ea d5 3e
       -0.17219102 -0.1206872 -0.12661758 0.41780424
000140 cc 25 7d 3e 8e 02 b1 3c e5 2f 21 be 3e 5b 96 be
       0.2472145 0.021607663 -0.15740927 -0.29366487
000150 93 17 99 3e 0f 7e af 3e 23 7c 71 bd 5b a6 49 3e
       0.29900798 0.34275863 -0.058956277 0.19692366
000160 a6 18 dc 3d e9 8f ed 3d 12 5f 9b be 96 66 01 be
       0.10746889 0.11599714 -0.3034597 -0.1263679
000170 0b a1 38 be db e4 11 3e a7 dd 63 3d c6 93 d4 be
       -0.18030183 0.14247458 0.055631306 -0.41518992
000180 e0 c1 01 be 84 74 f6 bd 9e fc 7c 3d af 7b 62 be
       -0.12671614 -0.12033942 0.061764352 -0.22117494
000190 66 b3 90 bd da 69 6f be 19 38 87 3e 92 6b 83 3d
       -0.070654675 -0.23380223 0.26409987 0.06417002
0001a0 87 b7 3f 3e f3 8b f4 3c 66 68 e3 bb 46 58 60 3e
       0.18722354 0.02985189 -0.0069399355 0.21908674
0001b0 91 fb 02 3d 98 1b 7f 3d e7 a4 53 bd 75 68 b2 3d
       0.031978194 0.062282175 -0.051670935 0.0871133
0001c0 48 73 9d bd aa 09 a3 be fe e5 d2 bd f3 cb 37 3d
       -0.07688004 -0.3184331 -0.10297774 0.044872236
0001d0 5d 2f 92 3e 68 c3 82 be 73 9d 3a be f0 48 a6 bd
       0.2855176 -0.25539708 -0.18224125 -0.081193805
0001e0 65 33 a4 3d 5e 39 6d be 3a 7e 51 be 94 17 89 bd
       0.08017615 -0.23166415 -0.20458308 -0.0669395
0001f0 74 70 e5 bd b8 36 9e be 45 36 88 3d e0 fa 23 be
       -0.11203089 -0.30901122 0.06650976 -0.1601367
000200 32 2f ac 3c 42 cf 28 3e 60 30 29 be 77 13 92 3d
       0.021018598 0.16485313 -0.1652236 0.07132619
000210 98 98 e2 3d ed 27 b5 bd 93 ee 5c 3d 0b a8 0b 3e
       0.11064261 -0.08845506 0.05393846 0.13638322
000220 99 09 5a 3e 54 9d 78 3e d1 b9 58 3e 24 fd c3 bd
       0.21292724 0.24278766 0.21164633 -0.09569767
000230 59 b2 40 bd f7 23 55 3d 33 08 c1 3d 66 03 24 3d
       -0.047045086 0.052036252 0.09425392 0.040042304
000240 cb 67 c9 be 2d 95 be bd 81 39 30 be 60 6b 6e 3e
       -0.39337 -0.09305797 -0.17209436 0.23283148
000250 2e 77 d5 bd 93 39 b5 3c a7 4d 82 3d 75 c4 36 3c
       -0.10423122 0.02212218 0.06362467 0.011155237
000260 ea 60 83 3d 57 80 67 3e 32 16 d0 ba f5 d6 f7 3c
       0.06414969 0.22607552 -0.0015875755 0.030253867
000270 0e 4e e6 3d 65 8c 5e 3e 53 e5 e7 3c 25 20 0a 3e
       0.112453565 0.21733244 0.028307592 0.13488825
000280 0a f4 89 3c 39 e5 14 3e c3 94 29 be 4e 17 96 3d
       0.01684 0.14540567 -0.16560654 0.07328664
000290 d4 b1 a7 bc 23 2c 41 be 24 ab f1 3d 2d 81 52 3d
       -0.020470537 -0.18864493 0.118002206 0.051392723
0002a0 c6 42 d3 bb d0 19 1e 3e dd 61 91 3d 11 d6 e4 3d
       -0.006447169 0.15439534 0.07098744 0.111736424
0002b0 b3 de 24 3e 6e d5 6a bd 76 76 6c be 3c 8b bf 3d
       0.16100578 -0.05733245 -0.23092064 0.09352729
0002c0 27 67 15 3e 4a 36 bf 3c 1a 51 02 3d 81 de a0 bd
       0.14590131 0.023341317 0.031815626 -0.07854939
0002d0 53 fd 3e 3e 87 08 fd 3d 73 d5 89 bd 26 06 76 bd
       0.18651323 0.12355142 -0.06730165 -0.060064457
0002e0 c1 fe 39 3d 83 0c 4e 3d dd c5 63 be 55 95 63 be
       0.045408968 0.0503049 -0.22243448 -0.22224934
0002f0 c3 eb 04 3d 5c 51 09 be 98 da 08 bb 90 2e 9a bc
       0.032451402 -0.13409942 -0.0020882245 -0.01882103
000300 6d 13 cc 3d d0 70 15 bd b8 ad 8a 3c 35 8d 6f bc
       0.09964643 -0.03648454 0.016928539 -0.014621069
000310 c1 03 a2 be 27 9d 5b 3e 4a b1 58 be bf 36 2e be
       -0.3164349 0.21446668 -0.2116138 -0.17013071
000320 e7 d9 b9 be 8c dc 2f 3e a8 43 87 3e 83 08 0f be
       -0.3629906 0.17173976 0.26418805 -0.1396809
000330 03 1f e8 bd d8 90 31 3e 5d cf 66 be c9 02 4a bd
       -0.1133404 0.1734041 -0.2254004 -0.049319062
000340 e2 e3 72 3e 09 5f e1 be dd 3f 28 3e 3d f9 87 be
       0.23719743 -0.4401782 0.16430612 -0.2655734
000350 77 b3 7c bd 02 8d 2f 3e e2 37 da be cb 50 03 bb
       -0.06169459 0.17143634 -0.4262076 -0.002003717
000360 70 63 7a 3e 39 e9 8e be 2c 08 15 3e 83 a7 9d 3e
       0.24451995 -0.2791231 0.14553899 0.30791864
000370 ec 10 65 be a1 b2 03 be 79 28 3e 3e 11 28 9a bc
       -0.22369736 -0.1286111 0.18570127 -0.018817933
000380 42 a7 8f be 6a 6b 78 bd 7c f7 73 3e 0b 01 2c be
       -0.28057295 -0.060649313 0.23824877 -0.16797273
000390 82 a5 80 3e b1 e8 9d 3d 53 33 89 be ea 87 16 3d
       0.25126272 0.07710398 -0.2679697 0.03675071
0003a0 ea 2a 2e bd 3f 58 e4 3e fb 82 17 bf ac af 14 3c
       -0.042521395 0.44598576 -0.59184235 0.009075087
0003b0 8e a4 11 3e 08 c2 a7 bd c9 b2 95 3e c0 67 89 3d
       0.14222929 -0.081913054 0.29237965 0.06709242
0003c0 4d 0f 85 bd 8b 74 7a 3d b8 1b 4a 3e 69 e0 3a 3c
       -0.06497059 0.0611463 0.19737136 0.011406043
0003d0 b8 5a e5 bc 7f a3 11 3d e6 6e 6f bc b1 05 9b bd
       -0.02799736 0.035556313 -0.014613843 -0.07569445
0003e0 94 80 40 be 26 3c 57 3e b0 d0 fc bd 8a 46 98 3e
       -0.18799049 0.21019039 -0.123444915 0.29741317
0003f0 24 1d 51 be 31 46 0b 3e 9d be b2 3d b2 3e 15 bd
       -0.20421273 0.13600995 0.08727763 -0.036436744

bias f4 [24]
000000 dd be 9f be e7 73 51 be f4 4b 17 be da 0e e9 be
       -0.31200305 -0.2045437 -0.14775068 -0.45519143
000010 ca 05 9c be e3 64 ee be 8f df d6 be 00 25 82 be
       -0.30473167 -0.46561345 -0.41967437 -0.25418854
000020 b6 d6 c7 be d4 e1 3b bd 54 7b 18 bd 25 39 a1 be
       -0.39031 -0.045869663 -0.03722699 -0.3148891
000030 a4 36 db be d6 fc 3e bd 5b be 5b be 3c dd a0 be
       -0.42815125 -0.046627842 -0.21459334 -0.31418788
000040 8f 3d b7 be b7 3c b4 be 3f 0b 85 be 20 1f 7c be
       -0.35789153 -0.35202572 -0.25985143 -0.24621248
000050 33 8c 8a be 24 79 37 be fe 55 3b be f1 9c b2 be
       -0.2706009 -0.17917305 -0.18294522 -0.34885362
