Case_Study_1/trained_transformer/verification/vit_6_4_6_64.pt (torch, 51986 bytes, 52 tensors)

pos_embedding f4 [1, 50, 6]
00000000: 315e 42bf 999d 0840 add7 3a3e ef1b c43f
00000010: a797 d73e 3383 66bc 7110 763e e47e 09bf
00000020: 9d87 123f e158 22be aaab 933f 3b86 6d3e
00000030: 6c99 64be e3eb 86bf 4a54 e33f 99d7 cb3f
00000040: 59dd ba3f f217 213d 00ae 20be ac2e 073f
00000050: daf3 863f 569b 0d3f eb8c 023f acf5 c3bf
00000060: 848e 3b3e 4d9f 593e a67a 883f ea23 70bf
00000070: 4892 723f b403 d5bf cb3b e53f 41eb 8b3f
00000080: d136 07c0 c983 1f40 f9f1 3dbf 8bc3 573f
00000090: ac06 fa3f 5b30 8bbf 0d19 bcbe d581 d8be
000000a0: a44b ef3d 6ba0 00bf fa7f bfbf cfa8 13bf
000000b0: a7ee f03c d9a4 2dbf a9b8 db3f b867 a93f
000000c0: 062a e8be 475e 033f 76e0 04bf 7ad1 30c0
000000d0: 9f05 d93f c6b3 a43f 6014 ef3e 0545 5ebf
000000e0: 9f78 83bf fd5f e13c 115e a3bf 19c8 07be
000000f0: bb5a 98bf c786 4e3f 7fa6 cfbf 9613 703d
00000100: 299d fa3e c825 cdbf 020f 03bf 9d89 a13f
00000110: 857a a7bf 403e cf3e d63a 983f 5148 35be
00000120: de5f 32bf d84d 893e cf91 74bf bb9e 58be
00000130: d30c 1d3e 4b8c 543f 25c0 443f e565 ef3d
00000140: e474 45bf 59a6 1ebf e5c2 26bf 4dc8 c03f
00000150: 1434 833f ad77 22bf 2364 f13e cd9f 2a40
00000160: 800e ad3f c84b 283f cff6 ec3e 2eec 2abf
00000170: 3c17 ee3e 35f9 543d 7ce2 633f 5c52 123f
00000180: 79ff a33f b5d8 e1be f292 8bbc fce7 4c3e
00000190: e6ae 873f 5e63 623f 24d7 4d3f bf72 dd3e
000001a0: ee83 39bf e545 15c0 0f0c ce3c e934 cbbf
000001b0: 90f4 4dbf 1185 1dbf 4d07 a73d bb6f fa3f
000001c0: 8a45 483f 073b 16be 853d 25be c7a8 953d
000001d0: 71cb 8c3f 77c9 c43e ed8a 20bf 7e9a 663f
000001e0: f92d 273f fa22 af3f b36e 6bbd 062c 8b3f
000001f0: 6848 a9bf b741 c0bf eaec 82bf c712 a8bf
00000200: f05a e9be 49be d43e fab1 12bf 0006 54bf
00000210: 602b 24bf 5b58 efbf 7815 d8be 4306 b2be
00000220: 04fe eabd 5bd1 05bf 565a 3d3f 8ba0 42be
00000230: 3707 3ebe 94c2 59be 4411 8f3e 574a a93d
00000240: 5546 183f 9fd0 4bbe e44c 09bd a9f1 adbf
00000250: d2b8 40bd 0e16 0fbf 99a0 91be f359 01c0
00000260: 22a1 b83e 0aa2 a7bd 4b20 2640 3b27 ddbf
00000270: d254 a4bf d5d7 1a3c 684f 893f 3468 a83f
00000280: 07eb 9cbf 5e2e ed3f 2b57 573f 30ce 4ebe
00000290: 5332 b93d 8648 30bf 23d7 6e3e 831e 59bd
000002a0: e849 ca3e 59e3 a33e 4c24 a9bf 07da 88bf
000002b0: 598d 153f e63d a43f 33e9 2ebe e06e efbf
000002c0: 043c 5d3f 8564 69be e7a9 ef3f fdfb 313f
000002d0: be4e cdbd bbd8 d93f 97db 9b3e 183b 1c3f
000002e0: 9281 163f 43f0 10c0 53c6 a8bf 102d 863f
000002f0: cffc 1f3f 30d9 93bf cb79 e23e cec9 9abf
00000300: 7289 e73d b466 32c0 e716 4c3f ec12 953e
00000310: c6b4 4bbf ee6e f33f b343 bb3f c0b7 0bbe
00000320: 103c 2a3f c073 b5bf f4b4 22bd e469 493e
00000330: c3e6 77be 20e9 693e 3da1 c03f 1ab3 d7bc
00000340: 52c1 74be 659d efbf d4bb 813e 7e89 0d3e
00000350: a5d0 943f cac0 a6bf 6aaa ed3e f510 9ebf
00000360: 4fa4 4ebf dbed 86be e37c 4940 959b 8ebf
00000370: 98a9 e43e 799a 603e fe80 193e 29f2 883f
00000380: 4092 30bf fb1d 033f fd7b 2bbf ff21 973e
00000390: 02f8 1c3e f07e 843f ab37 ccbe f499 0bbe
000003a0: 625b 02bf b034 1a40 6a2e 033f 4e93 6a3f
000003b0: 8a4b 0e40 98f9 df3e e5de 133e 0222 b3be
000003c0: ada0 23be 3fb8 1cbd 8ae7 373f ff2f 56bf
000003d0: 4bf7 4cbf adb1 b1bf 5b21 38bf c03f db3e
000003e0: f2ee 10c0 3664 cc3d d744 34c0 cc08 c43f
000003f0: 15f5 043f b455 8e3e d788 d63f c03f 59bf
-0.75924975 2.134619 0.18246336 1.5321025 0.4210789 -0.014069366 0.2402971 -0.53709245
0.5723818 -0.15854217 1.1536763 0.23195736 -0.22324151 -1.0540737 1.7760098 1.592517
1.45988 0.039329477 -0.15691376 0.5280559 1.0543168 0.5531515 0.50996274 -1.5309348
0.18316084 0.21252175 1.0662429 -0.938048 0.9475446 -1.6641755 1.7908872 1.0931169
-2.1127207 2.4924185 -0.74197346 0.8428275 1.9533286 -1.0874132 -0.36737862 -0.42286554
0.11684349 -0.5024478 -1.496093 -0.57679456 0.029410673 -0.6782966 1.7165729 1.3234777
-0.4534456 0.5131573 -0.51905 -2.7627854 1.695484 1.2867362 0.46695232 -0.86824065
-1.0271186 0.027511591 -1.2763082 -0.13259925 -1.1902689 0.80674404 -1.6222686 0.05861243
0.4894803 -1.6027155 -0.51194775 1.2620121 -1.3084265 0.4047718 1.1892955 -0.17703368
-0.6967753 0.26817203 -0.95534986 -0.21154301 0.15336923 0.8302657 0.7685569 0.11689357
-0.77131486 -0.61972576 -0.65141135 1.5061127 1.0250268 -0.6346386 0.4714671 2.6660035
1.352005 0.65740633 0.4628205 -0.6676663 0.465021 0.051995475 0.8901746 0.5715692
1.2812339 -0.44110647 -0.017037842 0.2001037 1.060025 0.8843287 0.80406404 0.43251607
-0.72466934 -2.332391 0.025152234 -1.5875522 -0.804513 -0.6153117 0.081556894 1.9565347
0.7823111 -0.14670955 -0.16136749 0.07307582 1.0999585 0.38434955 -0.62711984 0.90079486
0.65304524 1.3682549 -0.057478618 1.087281 -1.3225222 -1.5020055 -1.022855 -1.313073
-0.45577192 0.41551426 -0.5730282 -0.82821655 -0.64128685 -1.8698839 -0.4220388 -0.34770402
-0.11474231 -0.52272576 0.73965967 -0.19006555 -0.1855744 -0.21265632 0.2794286 0.08266132
0.5948232 -0.19903801 -0.033520594 -1.3589374 -0.04705126 -0.5589303 -0.2844284 -2.021115
0.36060435 -0.081852034 2.595721 -1.7277597 -1.2838385 0.009450872 1.0727358 1.31568
-1.2259225 1.8529775 0.8411738 -0.20195842 0.09042802 -0.6886066 0.23324256 -0.053007614
0.3950951 0.3200939 -1.3214202 -1.0691537 0.58418804 1.283139 -0.17081146 -1.8705711
0.864197 -0.22792251 1.8723725 0.6952513 -0.100247845 1.7019266 0.3044097 0.6102767
0.5879146 -2.2646644 -1.3185524 1.0482502 0.6249513 -1.1550655 0.44233546 -1.2092836
0.113055125 -2.7875185 0.79722446 0.29116 -0.79572713 1.9018228 1.4630035 -0.13644314
0.664979 -1.4175949 -0.03972335 0.196693 -0.24209122 0.22842836 1.5049206 -0.02633052
-0.23901871 -1.8719908 0.25338614 0.1382198 1.1626173 -1.3027585 0.46419078 -1.2348925
-0.80719465 -0.26353344 3.1482475 -1.114123 0.4466064 0.21933927 0.14990613 1.0698901
-0.6897316 0.5121762 -0.66986066 0.29518124 0.15328982 1.0351238 -0.3988622 -0.13632947
-0.5092069 2.4094658 0.512427 0.9163102 2.2233605 0.43745112 0.14440496 -0.34986883
-0.15979262 -0.03826165 0.71837676 -0.83666986 -0.8006484 -1.3882347 -0.71925896 0.42822075
-2.264584 0.09980051 -2.8167017 1.5315185 0.51936466 0.2779976 1.676051 -0.848629

cls_token f4 [1, 1, 6]
00000000: b81a 75bf 8a6a 553f 5f65 9a3f 7ec2 cfbe
00000010: f2d2 8abe 1faa 623f
-0.95743895 0.8336569 1.2062186 -0.40578073 -0.27114064 0.88540834

weight f4 [6, 16]
00000000: 4bd0 80bc b3ae 2a3e d9f5 153d d545 a33e
00000010: 359d b23d e62a 013e 6f03 a43c 7a4a 063f
00000020: 80a2 aaba 8e7c 543e be64 e33d a863 023f
00000030: b11c 89be 333b 15be afd7 33be 9268 283d
00000040: 2133 57bc f6b6 fabc 7957 9e3b 3ebb e5bc
00000050: b2ff bb3d 2b9b 073d 6377 803c 8771 063e
00000060: b461 cbbb 5e96 6abd 72c3 1abc a919 413e
00000070: 4ff0 833e 7bfd 503e 4681 703e 0749 ae3e
00000080: ef2a d2be 2486 4abe ea0c 7dbe 3753 80be
00000090: 2472 3cbe 56a6 81be adbf 52be 6a3c 49be
000000a0: 254e b9be 8693 abbe acdb 90be aca8 17bc
000000b0: fcbf 0a3d a634 c83d 409f 913e 4e3a 2f3f
000000c0: 6b0e 273e 524e 4cbe 58e3 6ebd 1b26 68be
000000d0: 1c32 3c3e 9768 6bbd 7e20 99bd e827 c4bc
000000e0: e930 963d 61ad e2bd 5cc2 da3c 2a29 013d
000000f0: 2bfe e6bd 2e87 bfbe eced 91be a9a5 a6be
00000100: b50c 5bbe 81b0 293e 039e 603d f74a 02bc
00000110: 2730 99be 979d 32bd 630a e5bd c8a7 bc39
00000120: f675 bdbe 545b 813c 4352 3c3c 917c 7dbe
00000130: 7eaa d3be 31d1 d4be 0e0d cebe 5940 bebe
00000140: 2ddc 95be bfb6 d93c 1192 6f3d b229 0fbe
00000150: 49e3 4cbd f13d acbd fd53 ecbd 191c 70be
00000160: 8f7e c7bd 6d33 01be 0c07 04be 6a09 53be
00000170: 89dd e33e 56c3 dc3e 0bcb e23e 9e1a 93bc
-0.015724322 0.16668205 0.03661141 0.31889215 0.08721391 0.1261402 0.020021169 0.5245739
-0.00130184 0.20750639 0.111031994 0.50933313 -0.26779702 -0.14573364 -0.17562746 0.04111535
-0.013134749 -0.03060482 0.004832205 -0.028043386 0.091796294 0.033106964 0.015681928 0.13129245
-0.0062067155 -0.057272308 -0.009446012 0.18857445 0.25769278 0.20409195 0.23486814 0.3404009
-0.4104838 -0.19777733 -0.24711958 -0.25063488 -0.18402916 -0.25322217 -0.20580931 -0.19651952
-0.36192432 -0.3351099 -0.28292596 -0.009256523 0.033874497 0.09775667 0.2844181 0.6844834
0.16314094 -0.19951752 -0.05832228 -0.22670786 0.1837849 -0.05747279 -0.074769005 -0.02394481
0.073335476 -0.11068226 0.026704006 0.031533398 -0.112789474 -0.3740782 -0.28501832 -0.32548264
-0.21391566 0.16571237 0.05483819 -0.007952443 -0.2991955 -0.04360732 -0.11183622 0.0003598316
-0.3700406 0.015790619 0.011494222 -0.2475455 -0.41341013 -0.4156585 -0.40244335 -0.37158468
-0.29269543 0.026576398 0.05848891 -0.13980749 -0.050021444 -0.08410252 -0.11539457 -0.23448218
-0.09740936 -0.12617274 -0.12893313 -0.2060906 0.44504955 0.4311778 0.44295534 -0.017957028

bias f4 [6]
00000000: 95da 63be 9d39 26be 08a3 323e 71fb 1bbe
00000010: 0757 dcbd dcdb 00be
-0.22251351 -0.16232915 0.17445004 -0.15232636 -0.10758787 -0.1258387

weight f4 [6]
00000000: f97d 9d3f 3c74 ab3f 591c b23f d072 8c3f
00000010: 6a4e 973f c3be a03f
1.2304069 1.3394847 1.3914901 1.0972538 1.1820805 1.2558216

bias f4 [6]
00000000: 50e9 a53c 8f15 9a3b 4b9d 25bd 909a b33d
00000010: 9aac f63d 4b92 bfbd
0.020252854 0.004702277 -0.04043321 0.08769715 0.1204464 -0.09354075

weight f4 [18, 6]
00000000: 1b63 13bf ac23 193f 69e5 033f 4276 803f
00000010: dcf1 76ba bd43 363e 800e 2a3e 4717 febc
00000020: de9b 0cbf 6e1c 8abe 06c4 a3be 90d3 a3be
00000030: ed2e fabb cc2a db3e 5c9e 0f3f 546d 30be
00000040: a312 18bf 6789 893e a0b6 673e 3bb9 cb3e
00000050: 6166 f8bd 6c88 cdbe e3b0 493e 6e37 78be
00000060: 7920 f6be f7f9 453f b260 ba3e 4f3e 203f
00000070: 3129 83bd 3325 013d 51bc 8fbe 9a50 3a3f
00000080: a6d3 743e 1e00 bb3e 8795 12bf 451b 99bc
00000090: ab53 bfbe 5aa8 c0be 71d5 07bc 5025 463b
000000a0: 7efc 8dbe 3b18 343f 4fd2 76be e2b6 083f
000000b0: 6622 92be 609f 23bf 89b0 98be f045 9cbe
000000c0: 0d0c ccbd 4d2f 973d ec5d 4bbf b325 ed3e
000000d0: a7cd 873e 4b77 14be 7f64 fe3c b92a 1c3d
000000e0: 358a 8abe d303 da3e 26dc 233e f6dd 2ebd
000000f0: d129 433e 7f13 fcbd 1728 6fbd db27 373c
00000100: 0f4f 363f f501 f6be d27b 393f 82e9 d03d
00000110: 49dd b3be 72f2 4bbf 542f 643e 5bb6 8f3c
00000120: 2d62 84be 35cc 96be 6ee8 5b3f b56b 763e
00000130: ff1b a4be d053 cebd c590 8abf 81ad b13d
00000140: 624d fbbc 0071 553d aea4 8e3e 71e5 39bf
00000150: d818 913f 7219 0abf 0b5e fb3d 0a11 cabd
00000160: 4d0a b23e dddb 01bf 055b 38be ef00 0abe
00000170: f0de d9be 3804 e13e c96f 2cbe 191b b8bd
00000180: da5a ec3e 4d05 83bc 0f53 9bbd af27 d6be
00000190: 2370 7abe f884 cebd 2367 b13e 7f1a 1c3e
000001a0: 3c5c 9c3d 63d2 8fbd 0b98 27bf c7c9 ea3e
-0.575731 0.59820056 0.5152193 1.003609 -0.0009420195 0.17799278 0.16607094 -0.031016959
-0.54925334 -0.26974815 -0.31985492 -0.31997347 -0.0076349885 0.4280609 0.5610101 -0.17229205
-0.5940344 0.26862642 0.2262826 0.39789757 -0.12128902 -0.40143144 0.19696383 -0.24239895
-0.4807165 0.7733454 0.36401898 0.62595075 -0.06404341 0.031529617 -0.28073362 0.7277924
0.23908862 0.36523527 -0.5725941 -0.018689761 -0.3736852 -0.37628442 -0.0082906345 0.0030234642
-0.277317 0.7034947 -0.24103664 0.5340406 -0.2854187 -0.6391506 -0.29822186 -0.30522108
-0.09963236 0.07382069 -0.7944019 0.46317825 0.26524088 -0.14498632 0.03105378 0.03812668
-0.2705857 0.42581043 0.16001949 -0.042692147 0.1905892 -0.12308406 -0.058387842 0.011178936
0.71214384 -0.48048368 0.7245456 0.10200788 -0.35129765 -0.7966682 0.22283679 0.017543009
-0.25856152 -0.29452673 0.85901535 0.24064524 -0.3205261 -0.1007458 -1.082543 0.08675671
-0.030676547 0.05210972 0.27860016 -0.72615725 1.1335707 -0.53945076 0.12273797 -0.09866531
0.34773484 -0.5072611 -0.18003471 -0.13476919 -0.425529 0.4394853 -0.16839518 -0.089895435
0.46163064 -0.015993739 -0.075842015 -0.4182715 -0.2445684 -0.100839555 0.34649 0.15244482
0.0763478 -0.0702255 -0.65466374 0.4585707

weight f4 [6, 6]
00000000: 570d 053e 577f bf3e 9ba4 26bf 2e3a a83e
00000010: 668d cb3b efa4 39bd 9c6a 9d3e 4f5d 9e3d
00000020: 2b0b 08be 42e1 1d3f c8e5 3b3e 2246 cd3d
00000030: a839 6dbf 5e8c 9d3e 08e3 b03c d35e f9be
00000040: ff0b ad3d fb25 94bd ed9d 1a3e e396 c8be
00000050: 2384 b23d e9a8 89be 9b4c 3d3e 2e87 71bf
00000060: 73c1 8b3e bfca 28bd 803c cebd 46d5 423e
00000070: bc87 92be 096c fc3c 821d 2abf 1ed7 693e
00000080: 1f19 44bf 9717 823e 440b 183f 1506 d63e
0.1299337 0.3740184 -0.6509492 0.32856888 0.0062119244 -0.04532331 0.307454 0.07732641
-0.1328551 0.6167184 0.18349373 0.100231424 -0.926661 0.30771154 0.021592632 -0.48705158
0.08449554 -0.07233807 0.15099306 -0.39177617 0.08716609 -0.2688668 0.18486254 -0.9434689
0.27296028 -0.04120898 -0.10070133 0.1902667 -0.28619182 0.030813234 -0.66451275 0.22835967
-0.7660083 0.25408623 0.5939219 0.41801515

bias f4 [6]
00000000: 8fe7 963e ed87 c23c c301 aabe 2a07 213e
00000010: 37a9 543e 1e3e 2b3c
0.2947354 0.023746455 -0.3320447 0.15725389 0.20767675 0.010451822

weight f4 [6]
00000000: 54c2 453f 088f 5e3f 24bd 873f 312e 973f
00000010: 8ca4 8b3f 042f 813f
0.77249646 0.86937 1.0604596 1.1810971 1.0909591 1.0092473

bias f4 [6]
00000000: ef44 2abd 841e 94be b1da 10bd f867 043e
00000010: 5c21 db3d 927a fc3d
-0.041569646 -0.28929532 -0.03536481 0.12930286 0.10699722 0.12328066

weight f4 [64, 6]
00000000: 17d8 81be 4287 2d3e 181f aebd e137 cc3e
00000010: a7ba debc 0e26 7fbe 9382 1cbd a809 c3be
00000020: f3d0 4dbe 7dd7 293f ccbe a2be 4ee0 d63e
00000030: 0bbb af3e fde0 fdbe bfc2 833d 1989 ce3e
00000040: e9a1 393d bbc5 743d c325 7fbe 507d 18bf
00000050: d8cd 6cbe 11a0 a33b a3e0 87bd 7a1b 5bbe
00000060: 296b 3d3e 3512 753e 88ca 9dbe 1009 1cbe
00000070: af09 843d 72a4 babe 222f 40be 76cf b1be
00000080: 2b9d c13d 28b1 9a3e e524 8dbe a85f cf3e
00000090: ae68 9bbe 29fe bd3d 9591 c73d 6de6 09bf
000000a0: dce3 d63e ad41 4d3e 31f5 5c3d 6471 c1be
000000b0: c74a 7c3e 6990 8fbe ffc4 2e3e b503 37bd
000000c0: cdaf 993d 9ebe a63d 38d7 833d a5b6 95be
000000d0: 617b bebe 48e7 183e 7c6a 80be fcd4 243e
000000e0: 0974 133f 62ab f43e 7bb1 51be b4ce b4bd
000000f0: 738a cb3e 2f51 dc3c 4805 5bbe d816 c63c
00000100: 028d 6cbe 2ab3 b4bd 4ca2 bb3e 38c1 71be
00000110: 0591 1ebe 1991 8f3e 2c2b 82be bc66 3e3e
00000120: 80e5 963e f599 76be 301c 213d 29a6 0abe
00000130: 02a3 c53e 9f07 0ebe 2da8 e73d 2942 e43d
00000140: 4b61 fcbe 5316 143f f9ec 9fbe f1d4 e33e
00000150: fd5f 15bd 083a ae3e 401e a7bc 4fd9 0fbd
00000160: 5fad f93d 792e da3b 369f 283e f3c8 bd3d
00000170: 3f75 3b3e d4e8 90be e011 773b 545a b13d
00000180: 75b2 3a3c 045b 8d3e 4958 0d3f 664d b5be
00000190: 3339 cabd f418 533e d605 543e 31df 82be
000001a0: e3cf 063f 886e 39be 43dd 8ebe 1256 d1be
000001b0: 2a64 a33d 4a34 a8be 3b90 873f 5e05 01bf
000001c0: 2fb2 cf3e df94 9b3e 8946 a73e 880c 99be
000001d0: b3ff a33e f1ac 063e 3b98 12bf a474 483e
000001e0: af09 ee3d 1b0d 2cbe eaa6 413f 49ba c33e
000001f0: 4437 a3be a9d0 1ebe 0f07 7b3e 94b3 98bf
00000200: ffcd 40bd 588c 813f 34ee cabc 6dd2 0a3e
00000210: 6f12 72be 65fe 52bf a234 bf3d 97af 00bf
00000220: 88bf 543f 8566 be3e 471a 253e a6c1 873d
00000230: 5026 bf3e 9825 073f 1d84 dabe c69f 013e
00000240: 7e33 193d da46 45bf 53d2 523e f563 8bbe
00000250: 2562 7e3e 4f81 81be 0356 17be 8d60 97bc
00000260: 5e0e c13e 36fd 64be a875 96bd d89c 503f
00000270: 67ab bb3e d350 b2be dd67 45bd c9dc 98bc
00000280: a390 033f a7d0 8abe 4d77 f4bd 7239 673e
00000290: 57f7 0ebe bbb2 463e 14db b6be 597e 52bd
000002a0: 33bb 663e ede6 12bd 9a5b 59be b11f ea3e
000002b0: e55f 053e 1b43 96bc f72f 04bf dec8 c1be
000002c0: e0e2 2ebd 99df 123f e284 77be f464 81bd
000002d0: abd7 8cbe 2bff 153d fc51 353e 8f7a a3be
000002e0: 4218 1abe 713b abbe 9212 c93e cb8f 5e3c
000002f0: cf05 513f a382 b7be a067 dabe 3452 0bbf
00000300: dd74 f83e 597a 9abe c9d1 ec3e ad09 e0be
00000310: 6102 2bbe ccb1 00bf ec4d 8f3b 9cf3 cf3d
00000320: 378e 3c3e bade 2ebe b189 ce3e f342 6c3e
00000330: 1c60 683d 6776 29bf 4d09 233f 8b0b 01bf
00000340: cdc0 c63e a0f2 693e dbaa c0bd fd83 223e
00000350: b63a 673f 01f2 9c3e 74fc 6d3e f406 7e3b
00000360: 5bea a7bd 0e59 c03d d055 cc3e b09d 8f3e
00000370: 01f4 283f e550 a8bd 4c2d 323d 3dde ac3d
00000380: fbb7 5f3e 1a68 2bbe 2ec8 48be 4d67 6cbe
00000390: 2929 673e fa76 863e 6909 2cbe 0d8e c8be
000003a0: 0806 c03c f806 95b9 001d a73e f1bb 14bd
000003b0: 01f0 463d f5b8 0a3e d62f 473e 729d fc3e
000003c0: 3fde c33e 8dc5 43bf 28bb 3d3e 5672 ef3e
000003d0: f1ea b53e 15a8 9abe 3192 bf3d 5bab 85bf
000003e0: 362b 883e 53e7 5abd 72e4 273f 1c0f 9a3e
000003f0: 97a0 febd 0342 863d 010e f83e a9a6 7ebe
-0.25360176 0.16946128 -0.085020244 0.39886382 -0.027188612 -0.2491686 -0.038210463 -0.38093305
-0.20099239 0.66344434 -0.3178619 0.41968006 0.3432239 -0.49585715 0.06433629 0.40338972
0.045320425 0.059758883 -0.24916749 -0.5956621 -0.23125398 0.0049934466 -0.06634643 -0.213972
0.1849791 0.23932727 -0.30818582 -0.15237832 0.064471595 -0.36453587 -0.1876798 -0.34728593
0.094538055 0.30213284 -0.2756721 0.40502667 -0.30353302 0.09276993 0.097445644 -0.53867227
0.41970718 0.20044585 0.05394477 -0.37781823 0.246379 -0.28039864 0.17067336 -0.04468127
0.075042345 0.08141826 0.06437534 -0.2924091 -0.37203506 0.14931977 -0.2508124 0.16096872
0.5759893 0.47787005 -0.2047786 -0.08828488 0.39754066 0.02689418 -0.21388733 0.024180815
-0.23100665 -0.08823235 0.3664726 -0.23608863 -0.15485008 0.28040388 -0.25423563 0.18593878
0.2947197 -0.24082167 0.039333522 -0.13539948 0.38600928 -0.13870095 0.11311374 0.111454315
-0.4929298 0.57846564 -0.31235483 0.444984 -0.036468495 0.3402865 -0.020400167 -0.03511935
0.12191271 0.006658372 0.16466984 0.09266844 0.18306445 -0.28302634 0.0037699863 0.08659807
0.0113950865 0.27608502 0.5521284 -0.35410613 -0.09874191 0.20614988 0.20705351 -0.25560907
0.5266096 -0.1810857 -0.27903184 -0.4088598 0.07978089 -0.32852393 1.0590891 -0.50398815
0.4056563 0.30387017 0.32671002 -0.29892373 0.3203102 0.1315191 -0.57263535 0.19575745
0.11622941 -0.16801874 0.75645316 0.38228062 -0.31878102 -0.15509285 0.24514411 -1.1929803
-0.047071453 1.0120955 -0.024771787 0.13556834 -0.23639844 -0.82419425 0.09336211 -0.5026793
0.83104753 0.3718759 0.16123305 0.066287324 0.37333918 0.5279174 -0.4267892 0.12658605
0.037402622 -0.77061236 0.20588045 -0.272247 0.24842127 -0.25293967 -0.14778905 -0.018478656
0.37706274 -0.22362217 -0.0734666 0.81489325 0.36654207 -0.3482729 -0.048194755 -0.018659966
0.51392573 -0.27112314 -0.11936817 0.22580507 -0.1396154 0.19404118 -0.35714018 -0.051390026
0.22532348 -0.03586476 -0.2122635 0.45727304 0.13024862 -0.018342545 -0.5163569 -0.37848562
-0.042696834 0.5737243 -0.24171785 -0.063180834 -0.27508292 0.0366203 0.17707056 -0.31929442
-0.15048316 -0.33443788 0.3927198 0.013584088 0.8164949 -0.35841855 -0.42657185 -0.54422307
0.4852666 -0.3017147 0.46253803 -0.43757382 -0.16700126 -0.50271297 0.0043733027 0.10153887
0.18413626 -0.17077151 0.40339425 0.23072414 0.056732282 -0.6619629 0.63686067 -0.5040824
0.3881897 0.2284646 -0.09407588 0.15870662 0.9032396 0.30653384 0.23240834 0.0038761469
-0.08198997 0.09391986 0.3990922 0.28049994 0.6599732 -0.082185544 0.04350023 0.08440826
0.21847527 -0.1673893 -0.19607612 -0.23086281 0.22574295 0.26262647 -0.16800465 -0.39170876
0.023440376 -0.00028424687 0.32639313 -0.036312047 0.04856873 0.13547118 0.19451842 0.4933887
0.38255498 -0.76473314 0.18528426 0.4676692 0.3553081 -0.3020636 0.09354056 -1.0442919
0.26595467 -0.053443264 0.65582955 0.30089653 -0.12432974 0.065555595 0.48448184 -0.24868263

bias f4 [64]
00000000: b744 e8be 9a46 52be 1fbe 55bd dba7 7dbe
00000010: 5b83 f1be ad32 47be 106d c5bd 7ae5 a03d
00000020: 6a7f c23c cf2f 06bf a0a0 a0be 7e4f 073e
00000030: d1c0 2cbe e574 debd fce4 84be d64a 4dbe
00000040: 5931 20bf 9ce7 fcbd 956a cfbe 1f17 0a3e
00000050: 1440 9dbe d37c 4fbd 5a85 d6be 5a0d 933e
00000060: c429 b4be 0666 cdbe 9413 51bd 9098 84be
00000070: e337 5c3d 8af4 25bd ff9c d5be dab8 b0be
00000080: dba6 7fbe a151 8b3d 8284 20be 2c91 b7be
00000090: dfbd af3d 8e0c 0abe 7e64 433e f79d 013e
000000a0: 856c 8a3e cee8 cd3d 7e55 e9bc e28b e6bd
000000b0: d92a 263d 51f1 60be 8063 a2bd fc46 80bd
000000c0: c161 febe 6ed7 653d 1f09 c13c 5459 853c
000000d0: fcb4 50bd a4fe 2a3e dc58 8d3e 30b0 223c
000000e0: dead 25bf af04 0a3e d31c 28be 5365 3ebe
000000f0: e975 f73d 27d0 133e 85ee 3b3e ed67 53be
-0.45364925 -0.20534745 -0.052183267 -0.24771063 -0.4717053 -0.19452925 -0.09639943 0.07856269
0.023742396 -0.524167 -0.31372547 0.13213918 -0.16870429 -0.108621396 -0.2595595 -0.20048079
-0.625753 -0.123488635 -0.40511003 0.13485382 -0.3071295 -0.05065615 -0.41898614 0.28721124
-0.35188115 -0.401169 -0.05104406 -0.25897646 0.053764235 -0.040516414 -0.4172134 -0.3451603
-0.24965994 0.06802679 -0.15675548 -0.35852945 0.08581137 -0.13481352 0.19081303 0.12657915
0.2703592 0.100541696 -0.028483149 -0.11257149 0.040568206 -0.21967055 -0.07929134 -0.06263539
-0.49683955 0.056113653 0.02356392 0.016277947 -0.05095385 0.166987 0.27606857 0.009929702
-0.64718425 0.13478349 -0.16417246 -0.1859334 0.120830365 0.14434873 0.18352707 -0.20645113

weight f4 [6, 64]
00000000: 8504 6c3b 7c10 9cbd 6f9e 17bd 060d e0bc
00000010: fd6d fabd b1b7 3abe 59a3 e8bc 43ab 32bd
00000020: 5674 3bbd 3025 f3bd ee44 453e 761a d3bd
00000030: 73e6 41be 3211 26be 826a fcbd 5c97 1c3e
00000040: 4926 ec3d 5547 de3d 78b8 f9bb 0af1 55bd
00000050: afe9 6c3e 799d adbd 02ad d4be 7e96 8fbd
00000060: 032d 5fbe 2a03 bbbe b230 8ebe 9646 0bbe
00000070: 5dc3 323e fd8c 16be 038a a33d 74f2 a13e
00000080: ab28 f43e ddf4 41bd 30fa 2abe fbb6 4fbc
00000090: 7e3e 43bd 0a75 b03d 3ed1 523d 6230 60be
000000a0: 6f34 61be 4a61 cabd 3850 ec3b 8882 3bbd
000000b0: b692 a03d 4d12 9abe 7c42 87be be72 abbd
000000c0: 6c79 083d 52cf e3bd 6a9d 843b 8330 753d
000000d0: c776 0ebe d29e ce3d 9d95 a2be 9cb9 093d
000000e0: df35 993e 925e c33c a035 16be 2177 d3bd
000000f0: f4f9 d1bd b8d8 11be 7960 343e 35a1 513e
00000100: f0e7 64bd 76fb 343e 1fc5 0ebe eb5e a1be
00000110: d14f 4e3e 116e cb3e 8928 953d 5b5c 13be
00000120: 76e3 abbd fcb3 18be eb4a 3d3d cf88 68bd
00000130: 80d8 453c 3e77 953d b3f3 223e 91de ef3c
00000140: 0096 3b3e e99b c5bd 6edf f8be 5545 f2bc
00000150: e22d b03a 2f68 56bf bee7 57bf 74f8 21be
00000160: 4384 3ebe c3c4 e63e cd8a d53d ef9d 04be
00000170: 387a 05be cf96 cbbe 9ece f93d 40e5 f13d
00000180: 70a9 cfbd bb1c 6c3d d8a8 c3be b601 d3be
00000190: 49e8 93bd 3802 77bc 1998 4bbd fb63 0a3c
000001a0: 9b8e 99be 25a7 49bf ea22 c4bc 6995 de3d
000001b0: 925a 1b3e e54e 47be 07f6 003e 49f4 92bf
000001c0: 20de ccbd 0f36 063e 95b5 eebd b219 533d
000001d0: df8e 04bf edb7 a6be cc48 3a3d da8b 0fbf
000001e0: e225 e5bd 16e0 77be 272a ccbe 9cda 38bb
000001f0: b415 26bc 9d86 10bb c356 d8bd fec9 07bd
00000200: 5c87 d4bc 7f1e c33c 6892 fc3d 5430 33be
00000210: 616d f0bc e1e8 24be c9cb 893e b956 97bd
00000220: e634 82bd aabd 4d3e 1ce6 5cbd 0412 eabd
00000230: 490d 4f3e f080 90be fa6e 3e3d 77f5 19bd
00000240: 87fb a73e 1c19 b6bd 5c23 be3e 2083 a2bc
00000250: a6a2 a4be bc62 2dbd 8160 ea3e 40d7 133d
00000260: de2f 513e dc94 913e 043b 533e f0b8 943c
00000270: 866c 2f3c 2c93 bb3d 9c76 67bd 2098 35ba
00000280: 6393 45be 2c74 f33d e8c1 623e a3c1 1a3d
00000290: 5660 903e 502c 2b3d 6af8 0ebd c11c c2bc
000002a0: a120 743e f012 dd3d 2dcc 133e a67a 76bd
000002b0: f492 103e adb1 f33e 9555 cf3d 92eb e8bd
000002c0: cd85 4a3e 4107 f83d 55b3 0cbd 9e99 c5bc
000002d0: d2d8 63bd a9d7 33be 5e7e bebc 98a1 23bd
000002e0: c31d d4bb 50d0 0c3e e282 24be bf42 b73e
000002f0: 416c 9b3b 9933 1c3d 7d15 d13d 13d2 b1bc
00000300: 6751 793e a692 ac3e ad7c 253d 51e2 3c3d
00000310: 4a36 9ebe e09a 123e 3a29 10be 7346 143e
00000320: 6b26 aabd b241 c93d c299 77be cab6 383e
00000330: 2c88 0a3e cd1d a13e 9432 27bc 3653 64bd
00000340: 7a8f 033d 5056 babe cbf3 2a3f 7a9c 993d
00000350: f0f2 39be f4b6 2c3f cb60 b23e 488a 3e3e
00000360: 9455 953e e148 f5be 6229 393d dad3 3c3e
00000370: e669 f7bd 269e f13e 8ea0 8a3d c060 03bf
00000380: 4363 2dbe b787 a3bd 5a94 203f 7235 923e
00000390: cfe3 263e a4d7 dbbd 9c38 29be a3a2 ec3d
000003a0: d015 073e d2b5 5b3e 420c 92bc f35b 963c
000003b0: 1872 e43d 4fc7 4dbd aff5 82bd 8aa6 bf3e
000003c0: 9eea b9be 84d6 9fbb ac87 1c3e 96b7 35be
000003d0: c772 ca3e d841 773e 89f1 783e addd 223f
000003e0: 979d 833e b2f1 b03e 433c 8c3e 96e5 0f3e
000003f0: 1353 6abd ba8f 203e 62a4 f1bc a717 78be
0.0036013436 -0.07620332 -0.03701633 -0.02734996 -0.1222801 -0.18234135 -0.028398203 -0.04362036
-0.045765243 -0.11872327 0.19264576 -0.103077814 -0.18935566 -0.16217497 -0.12325002 0.15292114
0.1153074 0.10853449 -0.0076208673 -0.052231826 0.23136018 -0.08477301 -0.41538244 -0.07011126
-0.21794514 -0.3652585 -0.27771527 -0.13601145 0.17457338 -0.1470222 0.07985308 0.3163029
0.47687277 -0.04735266 -0.16697001 -0.012677903 -0.04766702 0.086160734 0.05146908 -0.21893457
-0.21992658 -0.09881838 0.0072117113 -0.04577878 0.07840483 -0.30092087 -0.2641791 -0.08371495
0.033318922 -0.111235276 0.0040470855 0.059860718 -0.13912497 0.10088886 -0.3175477 0.033624277
0.29923913 0.023848806 -0.14668894 -0.103254564 -0.10252753 -0.14242828 0.17614926 0.20471652
-0.055885255 0.1767405 -0.13942383 -0.3151773 0.20147635 0.39732412 0.07283122 -0.143907
-0.08392994 -0.14912409 0.046214025 -0.056771096 0.012075543 0.07298134 0.15913276 0.029280933
0.18318939 -0.09648878 -0.48607963 -0.029574076 0.0013441409 -0.8375272 -0.84337986 -0.15817434
-0.18605141 0.45071992 0.10426865 -0.12950872 -0.13034904 -0.39763495 0.12197612 0.11811304
-0.101397395 0.057644587 -0.38214755 -0.41212243 -0.07222039 -0.015076213 -0.0497056 0.008446689
-0.29991612 -0.7877067 -0.02394243 0.108683415 0.15171269 -0.1946369 0.12593852 -1.14808
-0.100033045 0.13106559 -0.11655728 0.051538177 -0.51780504 -0.325622 0.04547958 -0.5607277
-0.11188866 -0.24206576 -0.3987591 -0.0028206473 -0.01013701 -0.0022052892 -0.105634235 -0.03315162
-0.02594345 0.023818253 0.12332612 -0.17498904 -0.02934903 -0.16104461 0.26913288 -0.07389588
-0.06357746 0.20091882 -0.053930387 -0.114292175 0.20219912 -0.28223372 0.046492554 -0.03758761
0.32809088 -0.08891508 0.37136352 -0.019837916 -0.3215534 -0.04233049 0.45776752 0.03609395
0.20428416 0.28433883 0.20627981 0.018154591 0.010707026 0.0915893 -0.0565096 -0.00069272704
-0.19294505 0.118873924 0.22144282 0.037782323 0.28198498 0.041790307 -0.034904875 -0.023695352
0.23840572 0.10794628 0.14433356 -0.06017556 0.14118558 0.47596493 0.10123745 -0.113730565
0.19777603 0.121107586 -0.03435071 -0.024121102 -0.055626698 -0.17562737 -0.023253616 -0.03994903
-0.0064732744 0.1375134 -0.16065553 0.3579311 0.0047431295 0.038135145 0.10209177 -0.021706617
0.24347459 0.33705634 0.040402103 0.04611427 -0.30900794 0.14316893 -0.14078227 0.14479999
-0.08308109 0.098269835 -0.24179748 0.18038478 0.13528508 0.3146805 -0.01020493 -0.05574342
0.03211925 -0.36393976 0.6677825 0.07500549 -0.1815908 0.67466664 0.34839472 0.18607438
0.29166853 -0.47907165 0.04520548 0.1844019 -0.120807454 0.4719097 0.067689046 -0.51319504
-0.16932397 -0.0798487 0.62726367 0.285564 0.1629784 -0.107344896 -0.16525501 0.11554458
0.13191915 0.21456078 -0.01782811 0.018354392 0.11154574 -0.050238904 -0.06394517 0.37431747
-0.3631181 -0.004877867 0.1528613 -0.17745814 0.39540693 0.24146211 0.24310888 0.636195
0.2570617 0.345594 0.27389726 0.14052424 -0.057208132 0.15679827 -0.02949733 -0.24227773

bias f4 [6]
00000000: b197 d7bb 9606 113d b9b7 263e 40cc b23d
00000010: 2f5e 90bd 165e 08bd
-0.0065793623 0.03540667 0.16281022 0.08730364 -0.07049214 -0.033292852

weight f4 [6]
00000000: 4aba ad3f ead4 943f 84bb 8d3f 4a77 7f3f
00000010: 03d3 783f a37d 803f
1.3572476 1.1627476 1.107285 0.99791396 0.9719698 1.0038341

bias f4 [6]
00000000: 9b3e 023d f817 d93c 270b 65bd 6ad3 b53d
00000010: 1a00 aebd 6697 103d
0.031797986 0.026500687 -0.05591884 0.08878215 -0.08496113 0.035300635

weight f4 [18, 6]
00000000: 1c57 203f c32c aabe 21a0 aebe f0f1 15bf
00000010: 53ba 90be 21de 103f e4bb 97be 05a4 913e
00000020: 7a09 04be f2d5 583e 3fc2 8fbe e27f ec3d
00000030: 6846 8f3e 4349 18bf 7c73 993e 18da f0be
00000040: fd11 803e 6491 1e3e 115b 983e 2d7b c8bd
00000050: 7b36 52be 1279 403e acd5 1e3f bfb6 24bf
00000060: f4bc 833e 98a1 a63e ec7e 4e3d 92b0 ab3d
00000070: b720 07be d86a dbbc 8c41 163f 3ed1 83be
00000080: 27da 8cbe 1472 48bf 8a7c d63e 75a0 b53d
00000090: 0e6e 9f3e 6091 70be 08cf 31bf 3969 233f
000000a0: 2f5c 563e c07f 863e ec28 5c3e 4dd4 a13e
000000b0: b3e6 1fbe 08e9 9cbe 15ff 013c b0cf 6dbe
000000c0: d779 66be 2971 24be ba25 3a3e 2007 bbbc
000000d0: 9299 7d3e 702d 673f 7f45 303d f0ea 15bf
000000e0: 1616 b03d adfa b33e 3f3e 4b3e af7e 3ebd
000000f0: 6546 a3be 815a 0b3d 0b55 4cbe 405a 4abc
00000100: 21aa 0fbe d873 7cbd 44e7 4a3e af6d 3e3d
00000110: f20b 983e fe08 ffbe acf2 6b3f d40d 8dbf
00000120: b213 583f 9a88 37be 294a 7ebd 5ecb 513d
00000130: 274c f9be a82a 4f3d 48ef 9ebe d219 03bf
00000140: e373 cc3e 28f7 013f dec9 e9be edd0 5bbe
00000150: 6d6d 82be c946 57be 4f47 d13d 34e4 14bd
00000160: 55e0 4f3d 96c2 afbe 6020 5c3f 33a7 30be
00000170: 7ecf d53e 84bc fcbd 5ed0 35be 1c4b 1fbf
00000180: 2aa6 23be c1c3 90be 45a4 ae3e 9c9e d3bd
00000190: 9a42 8b3b e4e3 ca3c 301c f3be 2ad7 573e
000001a0: ca4e 0e3f 5b60 14be f175 ea3c 4beb ba3d
0.6263292 -0.33237275 -0.34106544 -0.5857229 -0.28267154 0.5658894 -0.29635537 0.2844545
-0.1289424 0.21175364 -0.28077886 0.11547829 0.27983403 -0.5948679 0.2997092 -0.47041392
0.25013724 0.1548515 0.29756978 -0.09789119 -0.20528595 0.18796185 0.6204479 -0.6434135
0.25730097 0.3254516 0.05041401 0.083832875 -0.13196073 -0.026784346 0.58693767 -0.25745577
-0.27510187 -0.7829907 0.4189189 0.088684954 0.31138653 -0.23492956 -0.6945653 0.6383243
0.20933603 0.2626934 0.21499985 0.31607285 -0.15615349 -0.3064654 0.007934351 -0.23223758
-0.22507416 -0.16058792 0.18178454 -0.022830546 0.24765614 0.9030371 0.043035027 -0.5856161
0.085979626 0.35152188 0.19847964 -0.046507534 -0.31889644 0.034021858 -0.19954316 -0.012350619
-0.14029743 -0.061633915 0.19814783 0.04649132 0.29696614 -0.49811548 0.9216716 -1.1019845
0.8440505 -0.17923203 -0.062082443 0.051219337 -0.48690912 0.05057779 -0.31041932 -0.51211274
0.39932165 0.50767756 -0.45661825 -0.21466418 -0.2547411 -0.21023096 0.10218679 -0.036350444
0.05075105 -0.34328145 0.859869 -0.17251281 0.41759866 -0.12340644 -0.17755267 -0.6222398
-0.15981355 -0.28274348 0.34109703 -0.10332987 0.004249883 0.02476687 -0.47482443 0.21078172
0.5558897 -0.14489882 0.028620692 0.0912691

weight f4 [6, 6]
00000000: be38 313f 53ee 5dbf 26c7 4fbe 3925 043f
00000010: 6c47 d8be e37d a9be 85bb 6d3d ae8c 09bf
00000020: 46d8 0ebe 9e83 363e 17ea 95be 7059 bc3c
00000030: a52d 973e 9764 a83d a12c 843e 52cf 7bbf
00000040: 84ca 9ebe 2fa7 eb3e aaf4 263e 0b76 cfbd
00000050: 2894 e13d 58cf 873e 9623 ce3d 7a95 10bf
00000060: cbe5 06bf d140 793e 109d 88bc 638b 7c3d
00000070: 7d50 5bbe 9719 293e 9b11 3e3e b9a1 503d
00000080: f790 833e 3124 fbbd a79d 8b3e c9d1 85be
0.69227207 -0.8669178 -0.20290813 0.516193 -0.4224199 -0.33103856 0.05804016 -0.53730285
-0.1394969 0.17823645 -0.2928016 0.022991866 0.29527012 0.08222311 0.258153 -0.9836322
-0.31013882 0.46025988 0.1630427 -0.10129937 0.11014587 0.26525378 0.10065381 -0.56478083
-0.52694386 0.24341132 -0.016676456 0.061656367 -0.21417423 0.16513668 0.18561403 0.05093548
0.25696537 -0.12262762 0.27268717 -0.26136616

bias f4 [6]
00000000: fdf3 793e 44c0 09be f50d 24be 866c a2bc
00000010: 71c6 a9be 0582 bebd
0.2440948 -0.1345225 -0.16020949 -0.019827139 -0.3315921 -0.09302143

weight f4 [6]
00000000: 0fce 6d3f 19b4 373f 61a1 743f 74c4 4d3f
00000010: 01dd 7c3f 53ad 833f
0.92892545 0.7175918 0.95558745 0.8037789 0.98774725 1.0287269

bias f4 [6]
00000000: 6170 fd3d c300 f2bd 7f64 19be 76de 16bd
00000010: 4bd5 413b 72e6 383c
0.1237495 -0.118165515 -0.14979742 -0.03683325 0.0029576595 0.011285411

weight f4 [64, 6]
00000000: c45f ba3e ebbe 2f3e 1e60 fd3e b9bb fbbd
00000010: 0e72 cdbc 65ec 9cbc f6c7 82bd b2aa b8be
00000020: 991a 6dbe d780 8c3d 367e 753e 448e ebbd
00000030: e140 50bd 46c0 d63d ce34 d63d 8648 4e3d
00000040: 33c9 053e d40d 9d3d 44fd 213e 95ca 803d
00000050: b064 993e fd98 7c3d f5ba 123e e77d 23bf
00000060: 1b3c a2be 7d8f 0fbf 448b 153f 6fe8 bfbe
00000070: f739 93bb b313 413d 23ad 123e c438 a5be
00000080: 2dcc 4a3f 178d f1be 4986 a13e 6c61 25bf
00000090: d899 273e fa45 42bf 77e9 4cbe 6881 08be
000000a0: ec9f 8c3e 57c2 f23e 8af5 203e bff1 4f3e
000000b0: cb24 72be 871e 543e 645d bbbd 0b8b ff3d
000000c0: 44c8 693e c4ee 793e 062c 463e ed36 843e
000000d0: 08ff 8f3e e6a1 493e 18b1 38be 1b6d 95be
000000e0: 2e8c d83e af8c cabe 845e 943c 2df0 45be
000000f0: e8f5 263f d725 e4bc b435 70bd 69f0 00be
00000100: d9ec c83d ccd5 d1be 4d3c 773c 6880 173e
00000110: 46c0 5f3d 255c f63d 45fa 9e3d 432a 14be
00000120: 663a 0b3f 57ab c9be adcb c63e af97 82be
00000130: 8df1 773e 337a 75be 4807 b73c 634c 66be
00000140: 8725 dc3e acc6 563d a155 453e 987f f0be
00000150: 8d51 fabd 4059 a0be 5f3f e2be 1f6e f3be
00000160: e09a 163e 217b 163e 5edb b5be 7afa 82be
00000170: 08cc ed3d c9f7 8b3e 2547 03bd 32f6 a73d
00000180: 5f7b 323e 3b4a 683e 9ac1 543d 1175 8abe
00000190: 6642 423d e0ce 113e 69d1 7ebe 6e14 4a3d
000001a0: ec91 a3be 873c bc3d e4ab 20be 9482 1d3d
000001b0: a1c9 b53e 91f1 243f 1b36 853e a5a8 cfbe
000001c0: f4c6 353e aac0 d2bc 6882 ab3e c1f2 4a3e
000001d0: 130b f8bd 50fe cbbd 0d94 8a3e 5692 0abf
000001e0: 564e 2fbc 6ec0 1a3e 8bf1 ca3c b847 15bd
000001f0: 82f9 073e 40ba 1bbf ed71 ac3e ae67 bcbe
00000200: 508e aabe af6c 65bd 969b d63e 95af 193e
00000210: ef41 873d 2d1e 0b3d 235f 023e dc11 193b
00000220: d2df dd3c 9e8d 333d dbed 99be 1b63 233e
00000230: d3cb 533e d6c7 f3be a77c 0a3f 246b d83e
00000240: 1f61 143f f2e3 24be bd77 3abe a85d 993b
00000250: ea6f 5d3f bf9e e13d 4ee2 de3d 41a4 64bb
00000260: ce67 d93e 89b0 d23e 4cb4 1fbe 1a1b 153e
00000270: 775a 1f3e 6e06 6c3e d6d0 90bc 3832 c0be
00000280: 5d7e 2c3f 89f2 f0be 67d1 b73e cb82 05bf
00000290: ca62 e2be e990 063e edc5 b1bc 2778 383d
000002a0: d062 be3e 18bb 29bf c3e1 9b3d e2e1 fe3d
000002b0: 2baa 593e 6730 81be 7dbb e43e db69 e1bd
000002c0: d7ab 5b3d 2881 39be 6c83 593c a8a1 e0be
000002d0: 23d9 5abe 405a 6bbe 3ecf 39bf dee4 a03e
000002e0: 75d7 cf3e 9b5a a9bc 116a b33c 565a 113e
000002f0: 89ff 313c a84f debd 8b2a 97bd f373 443f
00000300: 994c 86be 0032 033f 86cc b7be db62 c2be
00000310: f9b7 603d b5ec aa3c 279c 5cbe b7bd 033e
00000320: 9faf 903e 56d5 06be 6284 dfbd cf55 11be
00000330: 4de5 96be bdae 51be 5f72 b83e a567 c3bd
00000340: 3d3f 353e 95ab 2b3e 3a4f 0dbe 15a1 85be
00000350: 917a 0d3e 2657 d8be 836d 6bbe 54cf a23e
00000360: 3776 a4bb 3303 11be d292 e33e e008 2ebe
00000370: aef0 d63d adc0 bd3e da3d 063f 4e73 433e
00000380: c807 38bd 56df a3be ec32 493e 4593 0bbf
00000390: 8a33 b4be f820 56be 317a 31be 27cf 68be
000003a0: cc03 90be 5322 9c3e c010 c93d f633 7a3e
000003b0: 058b 273e 67a9 e23e b981 723b a202 823d
000003c0: 12c2 98be 928e 0fbf b710 fe3d 8faa 513e
000003d0: 1656 1e3e 793d a53e 065a cb3d 383a e93c
000003e0: 81e9 333e 0ad1 e63d 21a0 053d 6eaf 133d
000003f0: b06f aebe 15ac 0cbe fb3d 733e 0d5c 9c3e
0.36401188 0.17162673 0.49487394 -0.12291665 -0.0250788 -0.01915569 -0.06385796 -0.3606773
-0.23154677 0.06860512 0.23973927 -0.115017444 -0.050843123 0.10485892 0.104592904 0.050362132
0.13065033 0.07668653 0.1581927 0.062886395 0.2995963 0.06166934 0.14329131 -0.63863987
-0.31686482 -0.5607832 0.5841563 -0.3748202 -0.004492994 0.047137927 0.14323859 -0.3226987
0.792178 -0.47177956 0.31547764 -0.6460178 0.1636728 -0.75888026 -0.20010935 -0.13330615
0.2746576 0.47413895 0.15718666 0.20307063 -0.23646848 0.2071477 -0.09148672 0.12477692
0.22830302 0.24407488 0.19352731 0.25823155 0.2812426 0.19690666 -0.18036306 -0.29184803
0.4229445 -0.39560458 0.018111475 -0.19329901 0.65218973 -0.027850075 -0.058644965 -0.12591709
0.098108 -0.40983427 0.01509006 0.14795077 0.054626726 0.12029294 0.07762579 -0.14469247
0.54385984 -0.39388534 0.38827267 -0.2550635 0.24213238 -0.23972397 0.02234234 -0.22490077
0.4299738 0.052435562 0.19270946 -0.46972346 -0.12222586 -0.31318092 -0.44188973 -0.47544953
0.14707518 0.14695407 -0.35518926 -0.25581723 0.116111815 0.27337483 -0.03205027 0.08201255
0.17429875 0.22684567 0.051942445 -0.2704244 0.047426604 0.14239073 -0.24884571 0.04933589
-0.31947267 0.09191232 -0.15690571 0.038454607 0.35505393 0.644311 0.26017842 -0.40558353
0.17751676 -0.025726635 0.3349793 0.19819166 -0.12111487 -0.09960616 0.2706608 -0.5412954
-0.010699829 0.15112469 0.02477338 -0.03644535 0.13278773 -0.6083107 0.33680668 -0.3679785
-0.333117 -0.056011852 0.41915578 0.15008385 0.06604373 0.033964325 0.12731604 0.0023356592
0.027084265 0.04383623 -0.30064282 0.15955774 0.20683222 -0.476134 0.54096454 0.42269242
0.57960695 -0.16102579 -0.18209739 0.004680354 0.8649889 0.110166065 0.10883008 -0.0034887942
0.4246201 0.4115031 -0.15596122 0.1456112 0.15561853 0.23049328 -0.017677706 -0.37538314
0.67380315 -0.4706004 0.3590195 -0.521527 -0.44215995 0.13141216 -0.021700824 0.04503646
0.37184763 -0.6630111 0.0761142 0.124454275 0.2125632 -0.2523224 0.44674292 -0.110065185
0.053630676 -0.18115675 0.013275962 -0.43873334 -0.21371894 -0.22983646 -0.7258185 0.31424612
0.40594068 -0.020673087 0.021901162 0.14194617 0.010864147 -0.10855037 -0.07381161 0.76739424
-0.26230314 0.5124817 -0.35898226 -0.37966046 0.05486295 0.020864824 -0.21543942 0.12865339
0.28258988 -0.13167319 -0.10913922 -0.1419289 -0.29471818 -0.20476814 0.36024758 -0.09541253
0.17699905 0.16764672 -0.13799754 -0.26099458 0.13816287 -0.4225399 -0.22990994 0.31798804
-0.005018975 -0.14161377 0.44447953 -0.16995573 0.10495125 0.37061062 0.5243813 0.19086954
-0.044929296 -0.3200633 0.19648331 -0.5452159 -0.3519557 -0.20911014 -0.17331769 -0.22735272
-0.28127897 0.30494937 0.09817648 0.24433884 0.16361625 0.4426987 0.003700359 0.063481584
-0.29835564 -0.5607692 0.12405532 0.20475219 0.15462527 0.32273462 0.0992928 0.028470144
0.17569543 0.1127034 0.032623414 0.036055975 -0.34069586 -0.13737519 0.23754112 0.3053898

bias f4 [64]
00000000: 47d0 9e3d 0b33 25bf f0c0 c7be 40bc 16bf
00000010: c806 11bf 388c 44be 9d51 e5be 1bd0 8cbe
00000020: b161 8c3d a73b b0be d22d abbe dba0 6fbd
00000030: f7d1 adbe 99fd afbe 2563 6dbe 8141 bbbe
00000040: 7db1 0bbf 4bc0 eebe 9fbf bbbe 044a 95bd
00000050: 632f 773e 624c 29be f60a debd 1e89 443d
00000060: 0bbe 08bf d134 54be 990c 8bbe 59e7 d63d
00000070: bce5 26be c2d3 9e3e 3a70 c7be 5fca acbe
00000080: a36a 95be fddb 84be cdfc ebbe da03 a4be
00000090: e708 a23e 60f2 e3be 4377 8d3d 080c b93c
000000a0: 2074 b5bb 7512 e6bd 8056 303d 81c3 1bbf
000000b0: 4651 dc3d 0c82 bf3d 3633 fabe ebea 17be
000000c0: 4761 493e fcab 05bf 78fd bebd 2ebc 193d
000000d0: 765b e5be cb68 97be e354 443d bd95 ba3d
000000e0: 1334 07bf d8d8 9fbd 1806 d2be 1ba8 853e
000000f0: b76d babe bac7 38bc a555 80be 11c0 f33c
0.077545695 -0.6453101 -0.39014387 -0.58880997 -0.5665097 -0.19194114 -0.44788828 -0.27502522
0.06854571 -0.3442051 -0.33433396 -0.058503013 -0.33949253 -0.34373167 -0.23182352 -0.36573413
-0.545677 -0.46631083 -0.36669633 -0.07289508 0.2413917 -0.16533044 -0.108419344 0.047982328
-0.5341498 -0.20723273 -0.2715805 0.10493345 -0.16298574 0.31020933 -0.3895281 -0.33748147
-0.2918292 -0.25949088 -0.4609131 -0.32034189 0.31647417 -0.44520855 0.06907513 0.022588745
-0.005537525 -0.11233989 0.043051243 -0.6084519 0.10757689 0.09350976 -0.48867196 -0.14835708
0.19666015 -0.5221555 -0.09325689 0.037532978 -0.44796342 -0.29572138 0.047932517 0.091105916
-0.52813834 -0.078050315 -0.41020274 0.26104817 -0.3641183 -0.011278087 -0.25065342 0.02975467

weight f4 [6, 64]
00000000: 4fff f4bd 8e92 19bd 4925 133e ab30 c1be
00000010: bde9 b7be 4414 45be 434a b93e b0f1 ed3d
00000020: 3d0e 53bc 17ac 4b3e 82fb 0abe cfa5 f13b
00000030: 69e4 7c3e 9c89 45be 7d30 68be 294c 85bc
00000040: 3301 22be 34c8 a73d 05e1 debe 6bdc 9bbd
00000050: a447 c6bd da76 313d a635 8e3c f8c7 9fbe
00000060: 01b2 563f 580c 86bd 1743 fbbe fecc 063f
00000070: f56e 5e3e e7e0 b5be 34d4 c93d 9e6c b33e
00000080: ca9a e6bd c744 663d e3d2 0dbe 9d22 493e
00000090: 6a5f 0a3e 0235 c0be aa88 533c 9f6c 2a3d
000000a0: a196 4abe f7af eebc 8534 d2bd 0a01 0c3f
000000b0: 0372 81be 684a a5be 58ca 693e 3919 9f3d
000000c0: e87f a5bc 8e4b e03d 102e 62bd 7d3d 453c
000000d0: 1df0 71be 0da9 013d 3720 e6bd 7224 e0bd
000000e0: b097 d53d 574d e0bd e5c9 bebe 577e 8bbd
000000f0: 8009 e0bd 8cc2 dbbd c54b 08be d985 f6bb
00000100: f398 1abe b8a9 0f3e 325f 9cbd 8276 113e
00000110: cb87 a33c 737d c83e fd60 42bd ce31 af3c
00000120: 63db 013c 58fe b53d 24c0 8abe ef30 6fbd
00000130: b81f f3bc 59e9 7d3e f443 303e 6107 40bd
00000140: 6255 993b 58d3 3c3c 2e9f 063f 4fd9 273c
00000150: 39eb 943d 0be4 7d3e 9bb3 ea3b 4dfe 0f3e
00000160: e5c0 083f 9fec 1fbe f2e9 9b3e 2304 fcbd
00000170: 77f7 0a3e 4a54 07bd 2188 ba3e 041a f9bc
00000180: 71ed c43e 4cb5 57bd 0938 2fbe 15ab 72be
00000190: bb36 51bd 3bdb aebe a75b 95bd f7ac 3cbd
000001a0: 9fb4 333e bc6d 433d 1873 153e 70e4 693e
000001b0: 5e8d 903e 3af7 523e 387b 12bc 1708 07be
000001c0: 0bf5 93be 27e7 8a3d 18ce a0bc c537 a9bd
000001d0: 6ff4 45be 2031 3b3e 0f88 86be c049 a0bd
000001e0: 329d 9d3e a00c df3d e66c 673e c525 d5bd
000001f0: 3380 24bc 6ecb 57bd e41f 873c ba7c ecbb
00000200: bfb9 24be 5218 453e 08a2 bb3d f8fc 4cbe
00000210: b49d 6abe ded3 76bf 54d3 d03e 1161 66be
00000220: 7c1f 64bb 57cd 97be 0eb9 de3d 5f16 863d
00000230: ee0d d7be 0293 1fbe 3a64 033e c49f f63b
00000240: 812b ab3e 4c12 7a3d 4282 50be d230 c73e
00000250: 306f 903e 53b3 b9bd c5cd a2bc e242 8e3e
00000260: a9c7 bfbc 4675 c83d cadd 1d3d 5dcc 8b3d
00000270: a65a 5fbe 7255 b93d d5e6 dabe bf4a f33c
00000280: 8d39 c8bb 5572 4b3d d89d 1abd d1a3 bf3d
00000290: 2c17 303e 1b01 f83d f7bb 79bd 5c8c a13d
000002a0: a4e6 97bd 25a1 2cbd 1890 a63e 0e77 8dbe
000002b0: e567 813d bb15 b8bb 3c1c 80be deac 933d
000002c0: 5f6d 6c3d 9bd4 6ebd 73c8 fe3d 0d6c 5d3d
000002d0: 9bcc dc3c b8e3 db3e 429f cf3b e828 dabd
000002e0: 5a5e f0be 74e8 a63d 78b7 133d a6aa 653d
000002f0: 9a52 32bf fea9 41be e91a 0cbf cac0 05bf
00000300: b0ed c33d 1542 bdbd e166 0abd bdbe 78bb
00000310: 828e d53e 2c39 443e a799 36be 81c9 fe3d
00000320: 48c9 6c3c e74d 103e 53e4 a43e 08c6 5b3d
00000330: 258c e8bd 5fe2 df3d ad17 c9bd 98fa 303e
00000340: 446e f2bd 025b 4d3e b82e 2abe 5866 88be
00000350: b3e4 b9bc c2b2 85be 75aa 1f3c 4ec1 7bbe
00000360: b159 c6bd 1834 e13d 7d32 a2bd 570c 11be
00000370: d076 b9bb 1f6d 4bbd a6d9 dfbe f17a a1bd
00000380: 28d0 babc 0a85 8c3c bde0 ac3e ced1 173d
00000390: e5ed 9b3c 3528 6b3e f39a 1c3e ddc2 253e
000003a0: 31ee 13be e585 81bd f83e de3d 5ef7 b33e
000003b0: 9e58 b9bc 4b8e a0bd 000a 293e 4580 f73d
000003c0: a0fa d13d f054 bd3c 7603 17be 88f5 683e
000003d0: 70e3 b63d 11d3 8abe 2593 403e 2182 19be
000003e0: f133 7bbe 8f35 92bd 2c4a 88b9 c6e9 473e
000003f0: 00e4 12be c4cf 5f3d bc36 8b3d 0926 0e3d
-0.11962759 -0.03749328 0.14369692 -0.37732443 -0.35920516 -0.19246012 0.3618947 0.11618364
-0.012881813 0.19889866 -0.13572505 0.0073745023 0.24696507 -0.19290775 -0.22674747 -0.016271668
-0.1582077 0.081924826 -0.4353105 -0.07610401 -0.09681633 0.043326236 0.017359566 -0.31207252
0.8386536 -0.06545323 -0.49074623 0.52656543 0.21722014 -0.3552315 0.09854928 0.35043806
-0.112599924 0.056217935 -0.13849978 0.1964211 0.1351296 -0.37540442 0.012911001 0.041607495
-0.19784023 -0.029136641 -0.102639236 0.54689085 -0.25282297 -0.3228333 0.22831094 0.07768483
-0.020202592 0.10951911 -0.05521971 0.012038586 -0.23626752 0.03165536 -0.11236613 -0.109444514
0.10429323 -0.109522514 -0.37263408 -0.06811207 -0.10939312 -0.10730466 -0.13310154 -0.00752328
-0.15097408 0.14029586 -0.076353446 0.14205363 0.019962212 0.3915821 -0.047455776 0.021386053
0.007925841 0.08886403 -0.27099717 -0.058396276 -0.02967821 0.24796046 0.17213422 -0.046882037
0.004679368 0.011524998 0.5258664 0.0102446815 0.07271428 0.24794023 0.007162524 0.14061852
0.53419334 -0.15617608 0.30451924 -0.123054765 0.13570963 -0.03303937 0.36431983 -0.030407913
0.38462403 -0.052663133 -0.1711122 -0.23698075 -0.051077586 -0.34151635 -0.07292872 -0.04606339
0.1754937 0.047712073 0.14594686 0.22841048 0.28232855 0.20602122 -0.00894051 -0.1318668
-0.2889789 0.0678237 -0.019629523 -0.0826259 -0.19331525 0.18280458 -0.2627568 -0.07826567
0.30783993 0.1089108 0.22600135 -0.104075946 -0.010040331 -0.05268424 0.016494699 -0.007217017
-0.16086482 0.19247559 0.091617644 -0.20018375 -0.22911721 -0.96417034 0.4078623 -0.22497965
-0.0034808805 -0.2964885 0.1087514 0.06547236 -0.42002815 -0.15583423 0.12831202 0.0075263698
0.33431628 0.061052606 -0.2036219 0.38904434 0.2820983 -0.090674065 -0.01987351 0.27785403
-0.023410635 0.09787993 0.038541593 0.068260886 -0.21811923 0.090495005 -0.42754236 0.029698728
-0.006110376 0.049669582 -0.037748188 0.093574174 0.1719634 0.12109586 -0.060970273 0.078880996
-0.07417038 -0.042145867 0.3253181 -0.27629894 0.063186444 -0.005617825 -0.2502154 0.07210706
0.057721492 -0.058308225 0.124405764 0.054058123 0.026953032 0.42947173 0.0063361237 -0.106523335
-0.46946985 0.08149806 0.03606364 0.056070946 -0.6965729 -0.18912503 -0.5472856 -0.522473
0.0956682 -0.0924112 -0.03378952 -0.0037955486 0.41710287 0.19162434 -0.17832051 0.124407776
0.014452286 0.14092217 0.32205448 0.053655654 -0.113548554 0.10931849 -0.09818969 0.17283094
-0.11837438 0.20054248 -0.16619384 -0.26640582 -0.02269206 -0.26112944 0.00974523 -0.24585459
-0.09685076 0.10996264 -0.07919786 -0.14164864 -0.0056599155 -0.049664613 -0.4372074 -0.07884777
-0.022804335 0.017153282 0.33765212 0.03706532 0.019034335 0.22964557 0.15293483 0.16187616
-0.14446332 -0.063243665 0.10851854 0.35149664 -0.022625264 -0.0783964 0.16507721 0.12085012
0.10252881 0.02311179 -0.14747414 0.22749913 0.08930099 -0.27114156 0.18806131 -0.14991046
-0.24531533 -0.07139122 -0.00025995204 0.19522771 -0.14344788 0.0546415 0.06797549 0.034704242

bias f4 [6]
00000000: 93c3 893c bcf2 6c3d a3a4 2abd f18a 833c
00000010: 0d18 39bc 04c2 1bbe
0.01681689 0.057848677 -0.041660916 0.016057463 -0.011297238 -0.1521073

weight f4 [6]
00000000: aa46 ae3f bea0 a83f c02b 8f3f e867 ab3f
00000010: 9d81 9a3f 560c a23f
1.3615315 1.3174055 1.1185226 1.3391085 1.2070805 1.2660015

bias f4 [6]
00000000: aa6b c33d 91f9 45bd 1b6c 7e3a a759 65bb
00000010: 1efa 1abe f583 87bc
0.0954202 -0.04833371 0.000970544 -0.0034996064 -0.15134475 -0.016542414

weight f4 [18, 6]
00000000: f909 6bbe 4d94 99be f06c 78be f7d0 34bf
00000010: 6eb3 533d a30e 123f 7a28 0abe a42f 283f
00000020: 3594 65be d140 073f 6fd8 06bf 6945 d8bb
00000030: a3e0 d03e 4067 46be 0c30 03bf c7b3 be3d
00000040: e362 843e a9cf 60bc 4fb7 83be cdcd c1bd
00000050: 1ff2 173e d477 4c3f cdf3 123e 12ea c9bd
00000060: a39f 2a3f e944 f3be 21e8 cdbe 133b 0bbe
00000070: f688 253f a0c7 3c3e cbe2 d13e e8bb d43b
00000080: 4120 b83e 7508 d4be 8697 b4be 88a7 0fbe
00000090: 831f 33bf 7698 1d3f abff fabe 7f94 643e
000000a0: eb21 b23e 210f 13be e0c6 453e 1dce ae3e
000000b0: 73f9 86be 3e79 043e 178d 9fbc 796f 8abf
000000c0: 4b31 383e f006 d9be 5a90 163f c23c 003d
000000d0: 074b 8fbe ace4 fbbd e371 d53e 5542 c53e
000000e0: 765e 6c3e 6054 44bf 4e55 b6be 5872 b1be
000000f0: 16bd 61be 2d9f 1cbf aaf2 03be 27f2 103f
00000100: 4f12 af3d 327c a93e 891e d83e b47b fcbe
00000110: df34 843e fa3d 8b3c 24a4 3a3e 86b1 94be
00000120: 7eaf 2d3f 0f6d 733e 5d7b 05be d7e7 ebbe
00000130: a4ad b53e 449c 9b3e aea2 2dbe 770f 0f3f
00000140: e53a 14be e55b 17bf f2a2 a63e 47f5 653e
00000150: 3b22 24bf bf1e 7cbe 2b63 003e 012c 003f
00000160: e590 563e 038d f5be 47a9 9b3d 9187 323e
00000170: 9f76 133e 4572 743e cc40 dabe b339 563d
00000180: 3875 433e 10d2 a9bd dcfa bcbe c65a 1b3e
00000190: 231e 75bf 7495 3ebf 302d f13c db2f 243e
000001a0: 35a5 643e d6ad edbd fb5a 8cbe 04e0 7f3e
-0.22953023 -0.29995957 -0.24260306 -0.70631355 0.05168479 0.57053584 -0.13492003 0.65697694
-0.22419818 0.52833277 -0.52674 -0.006600071 0.40796384 -0.19375324 -0.5124519 0.093116336
0.25856695 -0.013721385 -0.2572579 -0.094630815 0.14838456 0.79870343 0.14350815 -0.098590985
0.66649836 -0.47513512 -0.40216163 -0.13596754 0.6466211 0.18435526 0.40993342 0.0064921267
0.35962108 -0.41412702 -0.35271853 -0.14028752 -0.6996996 0.6156076 -0.49023184 0.22322272
0.34791502 -0.1436124 0.19314146 0.34141627 -0.2636219 0.12936875 -0.019476457 -1.0815269
0.17987554 -0.42388105 0.58814013 0.031307943 -0.2798693 -0.12299475 0.4168845 0.3852717
0.23082909 -0.76691246 -0.35611957 -0.3465755 -0.22044787 -0.6118038 -0.12885538 0.56619495
0.08548414 0.33102566 0.42210796 -0.49313128 0.25821587 0.016997326 0.18226677 -0.2904169
0.67845905 0.23772071 -0.1303534 -0.46075317 0.3548404 0.3039266 -0.16956589 0.5588297
-0.14475591 -0.59124595 0.32546192 0.22456847 -0.6411473 -0.24621104 0.1253783 0.50067145
0.2095371 -0.47959146 0.076006465 0.17434527 0.14400719 0.23871715 -0.4262756 0.05230112
0.19087684 -0.08292019 -0.3691014 0.15171346 -0.9574911 -0.744468 0.029440492 0.1603388
0.22328646 -0.11605422 -0.27413163 0.24987799

weight f4 [6, 6]
00000000: 9bfe 70be 4946 a73e 750b fbbe e3bf 563e
00000010: 2c7c eabe ec24 0cbd 54e3 173f 86d7 81bd
00000020: a0e1 22bf 23f3 003e 2f64 eabe 99ff c13e
00000030: 2640 47bd 0e6d 483f 4c2f 063f aefe 68be
00000040: f7c5 943e 2e57 233e 670a b8be cc5a cebd
00000050: c8f1 25be 38cd 583e f790 eb3e 15fa d23e
00000060: 0c92 e63a 55f6 30be f964 fa3e 02f9 8c3d
00000070: 9e9d 463f 8cc2 3b3e 025b cdbe 2752 cebe
00000080: 44db 0e3f 522c febd d148 11bf d5a1 103e
-0.23534624 0.3267081 -0.4903218 0.20971636 -0.4579786 -0.0342149 0.5933125 -0.06339936
-0.63625526 0.1259275 -0.4577956 0.37890318 -0.04864516 0.78291404 0.5241592 -0.22753403
0.29057285 0.15951225 -0.35945436 -0.10075912 -0.16205513 0.21172035 0.46009037 0.41206422
0.0017591133 -0.17281468 0.4890516 0.06883432 0.77584255 0.18335932 -0.40108496 -0.40297052
0.5580332 -0.12410797 -0.56751734 0.14124234

bias f4 [6]
00000000: b6d3 683c d879 883d 098d 22bb 9f3d 933d
00000010: 3129 3abe e780 0e3e
0.014210632 0.06663865 -0.0024803302 0.07189488 -0.18179776 0.1391636

weight f4 [6]
00000000: 7a65 853f fcdd 673f 03c2 8f3f 5910 7c3f
00000010: cafa 513f 94af 6b3f
1.0421593 0.90573096 1.1231083 0.98462445 0.820233 0.92064786

bias f4 [6]
00000000: 409f 783d 4223 29be 00bf 783c bcf4 4bbe
00000010: 678f 303e 9a7b de3d
0.060698748 -0.16517356 0.015182257 -0.19917578 0.17242204 0.10863419
