Case_Study_1/trained_transformer/verification/vit_18_2_6_64.pt (torch, 267208 bytes, 30 tensors)

pos_embedding f4 [1, 50, 18]
000000 55 8d f8 3e 89 1e 07 be 8b 49 cc bf 55 a4 7f bf
       0.48545328 -0.13195242 -1.5959944 -0.99860126
000010 59 72 e6 3e 8f ec e1 be b6 62 6f 3d 18 1c 80 bf
       0.45009115 -0.44125792 0.058443747 -1.0008574
000020 90 ab b8 be 24 e0 4f 3f b0 5a 50 3f a3 e0 c8 3e
       -0.36068392 0.81201386 0.8138838 0.39233884
000030 ac 1c 56 bf 99 56 a6 3f d8 6e d9 bf 08 78 b2 be
       -0.836375 1.2995178 -1.6986952 -0.34857202
000040 a9 3e 2f bf 35 9e 85 3e bc 61 ae be 84 0b 37 bf
       -0.68454987 0.26097265 -0.3405894 -0.71501946
000050 2c 84 79 bf 9a 76 40 40 b6 55 15 c0 9c 02 34 bf
       -0.97467303 3.0072389 -2.3333564 -0.7031648
000060 4b 9c e6 be 61 cc a0 3c 5a eb c3 3e c7 73 26 bf
       -0.45041117 0.019628705 0.38265496 -0.6502041
000070 82 fb 5f 3f 3c 06 b4 bf d8 aa 15 3e 43 eb 9d 3e
       0.87493145 -1.4064403 0.14615953 0.30843553
000080 08 09 7a 3f a2 30 b0 bd 35 5f e3 bb 3c d2 0a c0
       0.9767003 -0.08603026 -0.00693884 -2.1690817
000090 00 16 56 bd 9e 12 6e bf 73 11 7f bf 59 ba 80 3f
       -0.052267075 -0.9299716 -0.99636 1.0056869
0000a0 8e 67 b5 3e f6 17 8e 3f f5 a3 63 3f c7 8b b9 bf
       0.35430568 1.1101062 0.88922054 -1.4495782
0000b0 2a 55 1f 3f a3 09 40 3f 49 d4 a5 be 5a 62 40 40
       0.62239325 0.75014704 -0.32388523 3.006003
0000c0 79 43 3f bf 8e cc a5 bf 80 6d 64 3d 97 96 c7 3d
       -0.7471233 -1.295305 0.05576849 0.097455196
0000d0 e9 86 aa bf 63 a3 03 c0 ce ee 33 3f 42 c6 90 bf
       -1.3322421 -2.0568473 0.7028626 -1.1310503
0000e0 6e 36 e3 bd b1 df b1 bd 0a 28 74 3f a3 5b d9 3e
       -0.11094366 -0.08685244 0.95373595 0.42452726
0000f0 1c 87 e2 3f a7 03 2e bf e5 88 79 3f 16 dc 7a bf
       1.7697482 -0.67974323 0.9747451 -0.97992074
000100 12 57 81 3d b3 15 10 bf 0b 38 40 3e 88 2f 17 40
       0.063154355 -0.5628311 0.18771379 2.362276
000110 fe 1a a9 3f 70 cb 85 3e f4 4e 97 bf 48 a6 99 3e
       1.3211362 0.26131773 -1.182097 0.30009675
000120 e8 36 2a c0 72 5d bb bf f9 34 2f be b2 05 04 40
       -2.6596012 -1.4637892 -0.17110051 2.0628476
000130 01 81 de be a6 42 44 bf 56 ec 43 3f e5 fe 14 c0
       -0.43457797 -0.766642 0.76532495 -2.3280575
000140 7c 86 71 bc cf 58 fa bc 29 57 cd be ba df 82 be
       -0.014741536 -0.030559925 -0.4010556 -0.25561315
000150 39 5e 63 3f ae 82 1e be d7 97 dc be 04 5b 1f bf
       0.8881565 -0.15479538 -0.43084595 -0.62248254
000160 75 f2 7f bf ea 4f 00 40 51 67 49 3f 5c e1 8c 3c
       -0.99979335 2.0048776 0.78673273 0.017197303
000170 f1 51 08 3f db 06 1b 3d 51 eb 65 3f d7 79 78 3f
       0.5325003 0.037848335 0.8981219 0.9706091
000180 34 1a 3c be ea 45 27 bf c9 ac d6 bf 23 43 45 3d
       -0.1836937 -0.65341055 -1.677148 0.04815973
000190 02 ec 39 3f d9 b6 18 c0 23 f9 f4 3f c4 00 60 bf
       0.72625744 -2.3861601 1.913853 -0.8750117
0001a0 39 5f e1 3f a7 99 1a c0 70 7a 9a be c2 35 c5 be
       1.7607185 -2.4156282 -0.30171537 -0.38517576
0001b0 66 e2 5c bf 18 e7 5d 3f 23 6e 20 be 51 66 9d be
       -0.86282957 0.86680746 -0.15667014 -0.30742124
0001c0 e5 7f 32 3e 4f 19 78 bf 38 d3 37 be 7c 94 8f bf
       0.174316 -0.9691362 -0.17951667 -1.1217189
0001d0 5b 5f b4 bf 8e 72 1f be 0d 54 d4 3f cf 3b 87 3f
       -1.40916 -0.15571043 1.658815 1.0565127
0001e0 65 0d 90 3f 92 48 5c be 0b d9 83 3f 88 d2 46 c0
       1.1254088 -0.21512058 1.0300611 -3.1065998
0001f0 9d 3f 00 be 87 d4 15 bf af ff d0 3d 29 72 ba bf
       -0.12524267 -0.58527416 0.10205018 -1.4566089
000200 74 a1 a3 3e 62 d4 ac 3c e5 74 86 3d 04 75 a0 3e
       0.31959116 0.021097366 0.065652646 0.31339276
000210 9b c2 11 3f cd 94 92 bf 0e e8 1b bf 07 49 24 3e
       0.5693757 -1.145166 -0.6090096 0.16043483
000220 19 97 a8 bf 5f c1 84 3f 07 98 dc bf 18 3e 71 bf
       -1.3171111 1.0371512 -1.7233895 -0.9423537
000230 57 ac 96 bf 7c 1f 6a be f4 59 26 c0 c3 5c de 3f
       -1.1771344 -0.22863573 -2.5992403 1.7372059
000240 d6 6b dc bf 1f 80 f1 3e 6d f1 99 3d 18 61 14 c0
       -1.7220409 0.4716806 0.075167514 -2.3184261
000250 78 78 66 3e 29 cc a7 3f 35 11 64 bf e4 8e ac be
       0.22506893 1.310918 -0.89088756 -0.33702767
000260 15 b9 a7 bf b4 05 90 bf 1e 5b 71 3e 56 e5 9b be
       -1.3103358 -1.125174 0.23569915 -0.30448407
000270 f3 30 8a 3d 92 ba 0b 3f 41 4d 9b 3f 8e 4a 91 3f
       0.067476176 0.5458156 1.2132951 1.1350877
000280 be ec fe 3d 93 66 35 bf e7 27 3a 3e ff 79 b8 bf
       0.12447499 -0.7085964 0.18179284 -1.441223
000290 e3 c1 a2 bf 48 58 18 40 d4 94 80 be 1d f9 45 bf
       -1.271542 2.3803883 -0.25113547 -0.7733324
0002a0 31 13 70 3f 6b 6d 7c 3f 6b 84 dd 3f d2 d9 91 3f
       0.93779284 0.9860446 1.7306036 1.1394598
0002b0 ac b5 0f 3f ae 07 38 40 ed 9a 10 3d f4 b5 dd be
       0.56136584 2.8754687 0.035304 -0.43302882
0002c0 6e 10 be 3e ed 2c 95 3f 42 a4 54 3e 11 0f b2 bf
       0.3712191 1.1654335 0.20765784 -1.3910848
0002d0 40 21 d6 bf c0 87 ae 3c 05 8b ce be f6 93 d3 3f
       -1.6728897 0.021304965 -0.40340438 1.6529529
0002e0 e9 73 2e 40 f7 d7 bc 3f 8e b4 14 3f b2 b0 a3 3f
       2.7258246 1.4753407 0.58088005 1.2788298
0002f0 66 3e 40 3f 93 2e b9 bf 5c df 63 3f 73 b5 b8 3f
       0.7509521 -1.4467338 0.89012694 1.4430374
000300 0f 97 35 3e 71 b4 df 3f 88 64 36 bf c3 91 12 bd
       0.17733406 1.7476941 -0.7124715 -0.03578354
000310 6b 7c 8f bf 1e bf 4c bf c2 ab 45 3e 87 61 0b bf
       -1.1209844 -0.7997912 0.19303802 -0.5444569
000320 52 d4 bc 3f 54 e7 f6 3f 8b c6 6a bf 8e 6a 87 3f
       1.4752295 1.9289346 -0.917092 1.0579393
000330 47 a3 96 bf 75 00 80 be 7a ce c6 bf 86 98 2f bf
       -1.1768578 -0.2500035 -1.5531762 -0.6859211
000340 29 f3 96 3f d1 e6 ab bd 6e 18 d5 be b0 fe 85 bf
       1.1792957 -0.08393634 -0.416202 -1.046835
000350 36 ab 14 bf 7e 67 86 3f 8f df 33 3f 1e b9 98 bf
       -0.5807375 1.0500333 0.70263 -1.1931493
000360 12 8f 9a 3d 2b 9f a6 bf c5 21 70 bf a0 0a 04 40
       0.0754682 -1.3017324 -0.9380153 2.0631485
000370 2f 4d 3a bf 86 97 34 3f d2 aa f6 3e 29 f7 85 3f
       -0.7277402 0.70543706 0.481772 1.0466052
000380 0c 12 d8 3d b7 b5 11 bf cb 3f 39 3f 59 f1 bc be
       0.10550317 -0.569179 0.72362965 -0.36902884
000390 da fd dc be 6e 89 49 bf 21 5c fc 3d 57 4d a2 3e
       -0.43162423 -0.78725326 0.1232226 0.3169963
0003a0 86 13 0b bf 24 79 b4 bd d1 3e fd 3e 88 81 b7 3d
       -0.54326665 -0.08812168 0.49461988 0.08960253
0003b0 4f 35 20 3f 28 03 a5 be 9b bb 3a bf b5 62 ed be
       0.6258134 -0.3222897 -0.72942513 -0.4636437
0003c0 83 76 57 bf 54 37 8d bf bd e2 6e bf fd dd 8d 3f
       -0.8416521 -1.103251 -0.93314725 1.108337
0003d0 d0 94 9c 3f 65 5e 41 3f fc d7 cf 3f ec 87 19 3f
       1.2232914 0.7553466 1.6237788 0.59973025
0003e0 4c 5c eb 3d 23 35 83 3f 78 0b 01 3e d0 0b a1 bf
       0.114922136 1.0250591 0.12602031 -1.258173
0003f0 a6 0d 6d bf 7a 88 96 bf 1c 1c e9 3f 40 d8 a1 bf
       -0.9259895 -1.1760399 1.8211703 -1.2644119

cls_token f4 [1, 1, 18]
000000 02 f0 09 3f 62 b3 93 be fd 9d 9a 3e 58 18 ad be
       0.5388185 -0.28847796 0.3019866 -0.33807635
000010 1d 0a 2c bf a0 98 86 bf 5f a0 7c 3f 32 6f 88 bf
       -0.6720293 -1.0515327 0.98682207 -1.0658934
000020 16 6b 9a bf ab 11 2a 3f 64 7b 91 3f 33 8b 9c bd
       -1.206393 0.6643321 1.1365781 -0.07643738
000030 5f 23 7b 3f 97 51 e5 3c b3 e8 e2 3e 99 83 4a 40
       0.98100847 0.027993007 0.4431816 3.164282
000040 db 05 19 40 3e 51 a0 3f
       2.3909824 1.2524793

weight f4 [18, 16]
000000 0a 13 be bc fa e7 3d bd bc eb d1 bd ca 96 82 be
       -0.023202438 -0.04636381 -0.10250041 -0.25505668
000010 7e ae a5 3d 92 26 a7 bd f9 b2 ac bc 21 59 41 bd
       0.08089922 -0.081616536 -0.021081435 -0.04720414
000020 b8 8b 84 bd 7d e3 15 be de 5f 14 3d 03 87 cf bd
       -0.06471962 -0.14637561 0.03622424 -0.10133173
000030 d9 0e 28 3e c8 16 9b bd 84 8a 58 bd 98 f1 cd bd
       0.16411914 -0.075727046 -0.052866474 -0.10055846
000040 a3 06 36 3e 19 fb 76 bd f6 b3 09 be 91 63 87 3d
       0.17775969 -0.06029806 -0.13447556 0.06610788
000050 8d 37 39 be 7a 78 b6 bc 7a 19 cb bd aa 8b aa 3d
       -0.18087597 -0.022274245 -0.09916969 0.0832742
000060 8d 83 34 be 6e 65 7d 3d f3 3c 98 3e ac 9c f7 ba
       -0.17628308 0.06186431 0.29734 -0.0018891296
000070 bd 01 f0 bc 77 2f 08 3e 58 cf a4 3d 14 9e 85 bd
       -0.029297704 0.13299356 0.0804736 -0.06524292
000080 a3 c1 9d 3e 0e 71 ee bc e4 6c 96 3d be fb 9b be
       0.30811796 -0.029106643 0.07344988 -0.30465502
000090 c7 8b af 3e 97 5c dd bd 79 be 97 be 89 1a f6 bd
       0.3428633 -0.10808676 -0.29637507 -0.1201678
0000a0 42 22 e4 3d 39 2e 8b bd c2 0e 5c bd 8b ca 52 bd
       0.11139347 -0.06795926 -0.05372501 -0.05146269
0000b0 66 b0 ad bd 3d 57 44 bd 00 52 5c 3d 51 08 9b 3e
       -0.08480911 -0.04793476 0.05378914 0.30279782
0000c0 48 c0 48 be 6f a0 42 3e 5a fe a8 3d 90 fe a3 3c
       -0.196046 0.19006513 0.08251639 0.020018846
0000d0 d2 fc 03 bd 8b aa bb 3c b5 8c 0b 3e 64 37 37 be
       -0.03222353 0.02290847 0.13627894 -0.17892224
0000e0 de 5e 02 be 44 f3 86 be 36 5b b9 3d 4a bd 14 be
       -0.12731501 -0.26357472 0.090506 -0.14525333
0000f0 c9 6d 1b 3e 9a 7c 85 bd ed e5 75 3e 42 f9 36 3e
       0.15178598 -0.065179065 0.24013491 0.17868522
000100 57 20 c8 3e 66 61 eb bd ab b9 26 be b8 2e 05 be
       0.39087173 -0.11493187 -0.16281764 -0.13006103
000110 f0 47 22 3e 10 a4 ca bd 3a 6c c6 bc 50 7b 72 3e
       0.15847754 -0.09894574 -0.024221528 0.23679852
000120 b7 9c 9f 3b 4d cd 8e bd 27 a5 05 3e a7 f2 79 3e
       0.004870977 -0.06972752 0.13051282 0.24408971
000130 09 ee 0a 3e 32 a3 3a bc 5e 07 ea 3d a7 e9 c2 3b
       0.13567366 -0.011391448 0.114271864 0.0059482637
000140 bc 36 06 3e 7e ed 8f be a6 9a 92 be 0a ef ab bd
       0.13106817 -0.2811088 -0.28633612 -0.083952025
000150 44 bb 4a be db 11 a8 be 20 ab 37 ba ce 7c f8 3c
       -0.19797999 -0.32826123 -0.00070063956 0.030332949
000160 3d 93 5a be a0 2d 74 be 76 97 a9 bd 71 bc c1 bd
       -0.2134523 -0.2384553 -0.08280842 -0.094597705
000170 f6 68 3d bf 47 28 1c be 57 f5 a8 3d 0d 62 f1 3e
       -0.7398828 -0.1524974 0.0824992 0.4714512
000180 50 bb d5 3d 62 9a 4e 3e 2c 61 67 3e 82 9b 3b be
       0.10436118 0.2017608 0.22595662 -0.1832104
000190 27 53 2b 3e 10 50 93 3e 09 a1 22 3d 54 d1 2d bf
       0.16730939 0.2877202 0.039704356 -0.67897534
0001a0 a4 e8 aa 3d a7 a4 25 3e 87 fe 13 be 13 0e e6 be
       0.08345154 0.16176091 -0.14452563 -0.44932613
0001b0 29 e6 9f bd 16 5d c7 bd c7 c7 57 be dc ce f0 be
       -0.078075714 -0.097345516 -0.21072303 -0.4703282
0001c0 6b f3 6d 3b ac 9f f2 3d 1d a0 99 bd ef 2a ae 3e
       0.0036308418 0.11846861 -0.07501242 0.3401713
0001d0 80 62 eb 3c 39 b5 2c 3c 69 ee b9 3d 8a 9c d1 3c
       0.028733492 0.010541254 0.09078676 0.025587339
0001e0 84 6e fe bd b3 d9 24 3e 68 d0 33 bd 6f 97 43 bc
       -0.12423423 0.1609867 -0.043899924 -0.01193796
0001f0 cc ad 8f be 88 8a bd bd 62 1e 8e be b9 1a 44 be
       -0.28062284 -0.09254938 -0.27757555 -0.19150819
000200 75 d8 2f 3d 03 df f5 be dc 27 55 be cd 39 b5 3e
       0.04293104 -0.48021707 -0.20815986 0.3539566
000210 4b 47 e5 be 58 8a 91 be 6f 26 1a 3e ac 11 dc 3d
       -0.44780955 -0.2842586 0.15053724 0.10745558
000220 6c 37 df be 77 ec ca 3d a9 f1 a6 3d 1a 8a d3 3c
       -0.4359697 0.09908383 0.08151562 0.025822688
000230 73 33 c8 bc 20 9d 69 3e 8a 0e d7 3d 56 b6 0d be
       -0.024438595 0.22813845 0.1050082 -0.13839087
000240 93 75 6b be d0 b6 16 be e5 b6 b8 bd 7a 79 da bd
       -0.2299407 -0.14718175 -0.09019259 -0.10667701
000250 76 00 81 3c b9 37 91 3c 4c fa ca 3d 5c 75 60 3d
       0.01574729 0.017726766 0.099110216 0.054799423
000260 dc 5c 30 be 34 82 a1 3c ce f2 99 3d cc 4f 00 3e
       -0.17222923 0.019715406 0.075170144 0.1253044
000270 50 f0 3e bd c8 e0 f2 3d af d4 47 3e aa 2b b5 3d
       -0.0466159 0.1185928 0.19514726 0.08846219
000280 46 40 b0 bd 2a 2f d3 be 79 ce a0 be ab 13 ff 3d
       -0.08606009 -0.4124692 -0.31407526 0.12454923
000290 94 1f c8 3d 08 a1 8a 3c 06 5c f6 bd 63 c2 7e 3e
       0.09771648 0.016922489 -0.12029271 0.2487884
0002a0 c0 7d 07 3e 0b e0 30 3e 68 c3 ef 3d 51 7c 57 3e
       0.13231564 0.17272966 0.11707193 0.21043517
0002b0 04 53 03 bd 5b f7 8b be 39 e9 52 be 5e d2 eb bd
       -0.03206159 -0.27337155 -0.2059678 -0.11514734
0002c0 82 56 b6 3e 8c a8 d2 3e f0 94 7d bc e6 d9 a6 bc
       0.35612875 0.41144216 -0.015477404 -0.020367574
0002d0 ba cf a8 3e 21 46 b2 bd 53 08 ee be 53 37 1a be
       0.32970983 -0.08704782 -0.46490726 -0.15060167
0002e0 ea c9 d7 3e 8c b8 63 be b1 37 a3 be f4 e1 eb 3d
       0.42146236 -0.22238368 -0.31878427 0.115177065
0002f0 71 5a e3 3e ae 6a d5 be 9c 25 a3 be 39 a8 09 bd
       0.4440494 -0.41682953 -0.3186463 -0.033607695
000300 c9 94 c4 bd 8e 33 80 3e 51 4b 6d 3e 8e 27 9e 3e
       -0.09598691 0.25039333 0.23173262 0.30889553
000310 8e 40 0a be 0b b0 c7 bd 7c ae c7 bd 1a 9c 5f 3e
       -0.13501188 -0.097503744 -0.09750077 0.21836892
000320 3c bc 41 be 32 49 e3 bc c0 c4 7c 3d 40 e9 9f 3d
       -0.18919462 -0.027744863 0.061711073 0.07808161
000330 3a 7b ca be 59 fd 94 be ad 03 00 bc ce e4 3b be
       -0.3954714 -0.2909954 -0.007813376 -0.18349001
000340 2a f0 6d be 73 81 c9 3d 5d 6e 70 3e 57 e1 68 be
       -0.23236147 0.098391436 0.234796 -0.2274221
000350 6a 7c 32 be 2b 63 db 3c 84 de b7 bd 42 ac 56 be
       -0.17430273 0.026780685 -0.08977988 -0.20964149
000360 34 58 56 bd e0 b2 28 3e 48 d3 90 bc c4 d4 52 be
       -0.05233021 0.16474485 -0.017678872 -0.20588976
000370 44 58 b7 3e b9 35 1b 3e a2 65 22 3e da 17 80 be
       0.3580953 0.15157212 0.15859082 -0.25018197
000380 c4 77 b9 be 9a 9d ab bc 9a fa 50 3e aa 4a 88 3e
       -0.36224186 -0.020949174 0.20408097 0.26619464
000390 02 fe 09 3d 92 a6 9c 3e f6 62 4b 3d a4 ad 54 3d
       0.033689506 0.30595833 0.049654923 0.05192341
0003a0 45 b8 5c 3e e9 4a 18 3e 99 a3 3a 3e fe 8b d3 bd
       0.21554668 0.14872326 0.1822647 -0.10329436
0003b0 31 48 38 3e 02 6d d7 bc 5d dd d7 3b 34 d6 a3 3d
       0.17996289 -0.026297096 0.006587668 0.079998404
0003c0 e2 e0 10 bf c5 bd 40 3e df e4 a4 3e ff e1 cc 3e
       -0.56593144 0.18822391 0.32205865 0.4001617
0003d0 93 fb 17 be 34 99 2b 3e 58 bf 88 3e bc 71 9e 3c
       -0.14842062 0.16757661 0.26708484 0.019341342
0003e0 80 0c 4a be d4 06 d6 3e ef e0 b1 3e 0f 56 d2 bd
       -0.19731331 0.41802084 0.34741923 -0.102703206
0003f0 20 ad 60 3d 48 ab 84 3e dc d5 8e 3e 94 84 8d bd
       0.054852605 0.25911927 0.27897537 -0.06910053

bias f4 [18]
000000 6b 57 09 be 62 f5 17 3d 1e cc 76 bd 80 a0 4b 3e
       -0.13412254 0.03709925 -0.060253255 0.19885445
000010 77 9b 15 3e 53 4a aa bd f7 3c 93 be 59 be 02 3e
       0.14610086 -0.083149575 -0.2875745 0.12767924
000020 6e 52 61 3d 27 d1 ac 3d 69 7c 15 3d f9 ba 7a 3c
       0.05501025 0.0843833 0.0364956 0.015303367
000030 d2 09 de be 97 b7 da 3d 1c ec 0f 3e a9 64 05 be
       -0.43366867 0.10679548 0.14054912 -0.1302668
000040 d3 d6 b5 3d ad 8c 09 be
       0.08878865 -0.1343257

weight f4 [18]
000000 dc 42 33 3f 22 e1 44 3f 44 52 38 3f 03 5b 21 3f
       0.70023894 0.76906025 0.7200053 0.630295
000010 ac 53 47 3f fa 3c 0d 3f 98 f9 2a 3f a1 cb 31 3f
       0.7786205 0.5517117 0.667871 0.6945134
000020 c0 04 1d 3f d9 ce 42 3f 27 33 4e 3f 89 6b 08 3f
       0.6133537 0.76096874 0.805468 0.53289086
000030 ab 6d 50 3f 62 70 3b 3f f4 bc 33 3f 12 15 0a 3f
       0.8141734 0.7321836 0.70210195 0.539384
000040 83 68 5e 3f 45 bc 3d 3f
       0.8687822 0.741154

bias f4 [18]
000000 5a 82 28 3c c0 e7 dc 3d 35 2d 8b 3d c8 fd ca bc
       0.0102849845 0.1078639 0.06795732 -0.024779215
000010 50 cb 06 bd 65 51 c9 bd f3 59 48 bd 34 6d 0e 3d
       -0.032908738 -0.09829978 -0.048913907 0.034772113
000020 8b 47 e3 bd f5 e6 81 bd 25 3d 70 3c 73 c0 8e bc
       -0.1109763 -0.0634288 0.0146630155 -0.017425751
000030 23 c7 f1 3d 07 91 a7 bd 78 c0 13 3d 41 7a 99 3d
       0.118055604 -0.08181959 0.036072224 0.07494021
000040 6d 96 13 bd 5e 36 92 3c
       -0.03603213 0.01784819

weight f4 [1152, 18]
000000 23 f7 79 3e 64 a7 4f 3e ef 8f 11 bd 43 4c b0 bd
       0.24410681 0.20278698 -0.035537656 -0.08608296
000010 83 ad 27 3e e9 f3 84 3e 40 a0 87 bd 7c ee dc bd
       0.16374783 0.2596734 -0.06622362 -0.10787675
000020 10 67 49 be 50 f4 8e be cb 6a 53 3e 10 25 55 3e
       -0.19668221 -0.2792077 0.20646207 0.2081492
000030 e5 25 ae be 07 e7 55 3c 31 03 fe bc 37 7b 1b 3c
       -0.34013286 0.0130555695 -0.031007381 0.009489826
000040 6f 00 89 3c ba 36 43 be ac 61 f1 3d 74 ad 5b 3d
       0.01672384 -0.19063845 0.117862076 0.053632215
000050 95 51 bf 3e 4b 03 8c 3d eb 24 06 3e 6a 29 d1 be
       0.3736693 0.068365656 0.1310002 -0.4085191
000060 3e 3a 68 be d6 87 31 bd 1a ac 1f be 0f d4 b6 3d
       -0.22678468 -0.043342434 -0.15592995 0.08927166
000070 6a bd 33 3e 1d 3a b5 3c 2e 56 f2 bc c0 2e c2 3e
       0.17552724 0.022122437 -0.02958211 0.37926292
000080 77 8b eb 3d d3 c0 2f be 7f 47 5c be 54 ec 52 3e
       0.1150121 -0.171634 -0.21511649 0.20597965
000090 9e ad 6a be 57 c4 b9 3c 23 cb 12 be 26 2d de bd
       -0.22917792 0.02267663 -0.14335303 -0.10848455
0000a0 ee 15 74 be a8 71 d0 be bb da a1 3c 94 57 93 3e
       -0.2383649 -0.40711713 0.01975762 0.28777754
0000b0 66 35 ec bd 2f af ef 3c 73 b4 7a 3e b7 8f 6e be
       -0.115336224 0.029258339 0.24482898 -0.2329701
0000c0 37 36 da 3e 0e a8 2d bd aa 46 10 3e 9b 70 12 be
       0.42619488 -0.042396598 0.14089456 -0.14300768
0000d0 37 b1 8a 3e 9b 2c d2 3e bb 1b 1e 3e ef bb 84 3e
       0.2708833 0.41049656 0.15440266 0.25924632
0000e0 54 e6 13 be 88 7a 95 bc 61 90 b4 bb be 4e 7a bd
       -0.14443332 -0.018246904 -0.0055103754 -0.06111025
0000f0 c5 18 f7 bd 78 1c fa bd 26 fc 51 be 70 e2 55 3e
       -0.12065271 -0.12212461 -0.20506343 0.2088716
000100 fc cd 3e 3e 69 be 5a 3d cd b4 f2 bd 89 76 1b bd
       0.18633264 0.053404246 -0.11850891 -0.03795484
000110 a3 f0 0d 3e b8 71 27 be 62 2b b6 3e 4a 2b f5 bb
       0.13861327 -0.16351974 0.35579973 -0.007481967
000120 be 02 97 bd 36 07 77 3e b6 63 91 3e 4f 54 99 3c
       -0.0737357 0.24123845 0.28396386 0.01871696
000130 c4 e2 3a 3e da 24 c6 3d de a4 9e be 57 0a 78 3e
       0.18250567 0.09674998 -0.3098516 0.24222694
000140 9f 84 ce 3e b6 70 3d 3d 82 34 8a be 67 0d 18 3e
       0.40335557 0.046250068 -0.26993185 0.14848863
000150 bb e8 20 be f1 7e 47 3e 7f 14 7f 3e a8 47 cd 3d
       -0.1571378 0.19482018 0.24910162 0.10023433
000160 84 b4 a6 be 95 26 9c bc e9 7e ab bc 2a f3 1c be
       -0.32559597 -0.019061366 -0.020934539 -0.15327135
000170 ed 5d 65 bc 7c cd 9f be 78 f4 83 3e 9d 01 4d be
       -0.013999444 -0.3121146 0.25772452 -0.20020147
000180 0d 8f c3 3e 6e 9f 35 be 2e d7 50 3e d2 d6 00 3e
       0.38195077 -0.17736599 0.20394585 0.12581947
000190 f3 2c 53 3a 09 04 65 3c cd a9 40 be 7b 5f ac 3d
       0.0008055709 0.013978013 -0.18814774 0.08416649
0001a0 40 c4 67 3e 17 af be 3c 88 d2 04 bd 89 c1 8f 3e
       0.22633457 0.023276849 -0.03242734 0.28077343
0001b0 9d d3 20 3e 81 d1 d2 3d f2 e8 23 be 4a 24 e7 3e
       0.15705724 0.10293866 -0.1600683 0.45144874
0001c0 92 e3 d2 3d 69 72 ae 3d ea 49 e5 bc 86 f6 a2 3d
       0.10297312 0.08517916 -0.027989347 0.07957177
0001d0 ea 02 9e 3e 52 17 20 3c 5a 43 0b be be 0d 0a 3e
       0.30861598 0.009771185 -0.13599911 0.13481805
0001e0 1a ba 52 be 1c b8 77 be 50 e0 81 be d3 11 2d 3e
       -0.20578805 -0.24191326 -0.2536645 0.1690133
0001f0 db 95 a2 be dc c3 c9 be 67 20 7d 3e 2f f4 9f be
       -0.31754956 -0.3940724 0.24719392 -0.31240985
000200 f4 b7 f2 be 7a 90 58 bd 7f 20 9e 3e b3 4e f7 bd
       -0.4740597 -0.05287216 0.30884168 -0.120755576
000210 d0 5d 71 3d fe ed c3 be 0f 21 37 3e 2b ca ad 3e
       0.058927357 -0.3826751 0.17883705 0.33943304
000220 66 38 66 3e c0 40 1b 3e 9b f2 59 3d b1 10 e6 bb
       0.22482452 0.15161419 0.053209882 -0.0070210327
000230 eb 85 b2 bd fa fd 90 bd 48 60 ad 3e c3 b6 ae bd
       -0.08716949 -0.07079692 0.3386252 -0.08530953
000240 90 df 62 3e 0c 33 12 be 8d 2f 06 be da ca e1 bc
       0.22155595 -0.14277285 -0.13104077 -0.027562547
000250 c7 55 d2 bd f4 46 71 be 69 31 1f bc 9f 2a f5 bd
       -0.10270267 -0.23562223 -0.00971637 -0.1197102
000260 84 b7 ed 3e e4 2a 1b 3d 85 69 3e be e6 79 16 be
       0.46429074 0.0378827 -0.1859494 -0.14694938
000270 15 82 00 3e 59 b9 a1 be 59 94 b5 3d cf 33 f1 bd
       0.12549622 -0.31586722 0.08866186 -0.1177746
000280 04 9d 34 3e 8d 09 5b bb af 78 08 be 5c 16 9c 3d
       0.17638022 -0.003342244 -0.13327287 0.07621452
000290 c6 8e 27 3e 53 a0 71 bc 8b 98 3c 3e b5 5e 03 bd
       0.16363057 -0.014747697 0.18417566 -0.03207274
0002a0 7a ec d4 be 68 13 bf 3d fe 6b b9 3e 7d e1 10 39
       -0.41586667 0.09329873 0.36215204 0.00013816911
0002b0 31 50 3f be 30 7b f1 bd c5 84 4a 3d 36 e5 37 39
       -0.18682934 -0.11791074 0.049443025 0.00017537628
0002c0 74 91 37 3e 1b 04 8f bd 77 81 e0 be 21 ed 26 be
       0.1792658 -0.06983205 -0.43848774 -0.16301395
0002d0 6e 44 93 bd c2 5a 9d be c7 4e a2 be a2 f4 21 3e
       -0.07190786 -0.30733305 -0.31700727 0.15815976
0002e0 76 23 c0 3c f2 73 24 3e a5 88 8d 3e c0 16 03 be
       0.02345441 0.16059855 0.27643314 -0.12801647
0002f0 14 16 85 3e 8f da a4 be 30 1f 22 3e f4 fd 6a 3e
       0.25993407 -0.32197997 0.1583221 0.22948438
000300 12 08 d3 bb cd 59 a6 be 73 34 9c bc 4a 9a 4d 3e
       -0.006440171 -0.32490388 -0.019067978 0.20078388
000310 0e 19 ee 3d df 4a 0e be f1 c4 11 be b5 01 9b be
       0.116258726 -0.13895749 -0.14235283 -0.3027474
000320 c2 f2 ef be b9 88 0a be 8e ce 7d be 87 32 b8 bc
       -0.46864897 -0.13528718 -0.24785826 -0.02248503
000330 e4 24 5c 3e 0a 2c 0a 3e e6 30 b0 be 17 1d d3 3d
       0.21498448 0.13493362 -0.34412307 0.10308283
000340 c9 2b bb 3e 07 2e 4b be 91 aa 0b 3f 28 9f 32 be
       0.36556843 -0.19841777 0.5455714 -0.17443526
000350 18 ef 54 be dd 49 5b 3e 61 bd 48 3e 3a a5 17 3d
       -0.20794332 0.21414895 0.19603492 0.037022807
000360 e5 a9 0b be b0 eb e4 3c 65 5a ab be 53 1c a2 be
       -0.13639028 0.027944416 -0.33467403 -0.31662235
000370 4d 8b f6 bd 5c 38 73 3d 40 07 0d 3d 01 73 19 3e
       -0.12038288 0.05937992 0.034430742 0.14985277
000380 4b f3 2e bd d0 16 cb 3d 2c 6f 99 3e 2b 23 18 3e
       -0.04271249 0.099164605 0.2996763 0.14857166
000390 ed f5 24 3e 46 9a 35 bc 46 c5 0f be 34 f3 83 3e
       0.16109438 -0.011084145 -0.14040098 0.25771487
0003a0 2b 87 b2 3d 9e e6 84 3c d8 e9 2d 3c 6f 39 6a be
       0.087171875 0.016223248 0.010614835 -0.22873472
0003b0 3a 08 21 bd a9 d5 04 3e 1a 2c 54 3d e9 00 c1 3e
       -0.039314486 0.1297213 0.05179987 0.37696007
0003c0 25 f2 9d 3d ee 46 cb be 9d c5 26 be 3a 77 ff bd
       0.07712201 -0.39702553 -0.16286321 -0.124739125
0003d0 ca bf 94 be a0 6e b9 3e 28 eb 36 bd 56 37 e5 3d
       -0.29052573 0.36217213 -0.044657856 0.11192195
0003e0 0c bd 34 bd fa 82 2a 3e 4e ce 86 3d 30 c5 ef 3d
       -0.0441256 0.16651526 0.06582318 0.117075324
0003f0 0c 30 8a 3d 34 b1 cd 3e 81 52 0c 3f 6a c7 09 be
       0.067474455 0.40174258 0.5481339 -0.13454977

weight f4 [18, 384]
000000 fa 82 28 3c fb eb 62 3d 0a 44 b9 bd b8 5f 80 bd
       0.0102851335 0.05540083 -0.090461805 -0.06268257
000010 ae a5 8b be 66 d5 c5 3d 24 11 95 bc 92 36 81 3e
       -0.2727484 0.09659843 -0.01819665 0.25236946
000020 11 70 f2 bd dd 04 0b be 44 1a 87 3d 38 c6 c8 3d
       -0.11837781 -0.13576074 0.06596807 0.09803432
000030 9f 46 96 3b 29 28 f3 bb 2c 77 28 be 73 bb 24 be
       0.0045860554 -0.007420559 -0.1645171 -0.16087131
000040 89 6f 86 be 1c 47 e9 3d a0 b5 09 3d d2 a8 61 3e
       -0.2625697 0.11390516 0.033620477 0.22037056
000050 62 57 33 be e9 6c aa bd 47 9b ab bc 70 da 87 3d
       -0.17513803 -0.08321554 -0.020948065 0.066334605
000060 bb 1b 8c bb a7 b1 5c be 00 bf de 3d e0 58 2d be
       -0.0042757667 -0.21552144 0.10876274 -0.16928434
000070 30 c0 a9 3e 15 7f 23 be 28 4c 83 3d d3 58 15 be
       0.3315444 -0.15966447 0.0641101 -0.14584665
000080 53 09 1a bd e5 23 72 3d 6d cc 00 3c fb 9e bf 3d
       -0.03760655 0.059116263 0.007861239 0.09356495
000090 1b c1 b4 3d 4c 77 38 be 3c a1 e2 bc da 50 6f bb
       0.088258944 -0.18014258 -0.027664773 -0.0036516697
0000a0 b8 6b 46 3e be f2 ce be 0c f8 6e be cf 21 b8 bd
       0.19377029 -0.40419573 -0.2333681 -0.089908235
0000b0 d6 f6 d1 3d 14 23 1c 3d b4 fb 43 3e 5a b5 7f bd
       0.10252158 0.03811939 0.19138986 -0.06242881
0000c0 53 f8 a7 3e e9 58 c6 3d a5 62 30 3e 41 d7 b9 3d
       0.32806644 0.09684927 0.1722513 0.090742595
0000d0 5b 96 bb bd 99 8f b5 bd 45 38 57 be 58 39 1c bd
       -0.091595374 -0.0886528 -0.21017559 -0.038140625
0000e0 06 83 c6 be a4 a5 1b be 2d 0f 97 3d 92 6e 16 3d
       -0.38771838 -0.15199906 0.073759414 0.03672654
0000f0 b4 e7 ee 3d d5 80 fa bd 8e ff fd 3c 77 2e 2c bd
       0.116652876 -0.12231604 0.031005647 -0.0420365
000100 35 6b 4c bc 9f f2 2f 3d e1 53 84 bc ca 84 84 bd
       -0.012476732 0.04295599 -0.016153278 -0.0647064
000110 50 f9 9e bd 3e e9 7a bd b0 92 ab bd 27 4f b6 bd
       -0.07762396 -0.061257593 -0.08377588 -0.08901816
000120 2a 87 6d 3d 74 21 7d 3a c6 e5 f3 3c 4e 52 05 3d
       0.05799023 0.0009656169 0.02977265 0.032549195
000130 bd 45 24 3c 83 e8 4f 3e ec 63 32 bd b7 fe ba bd
       0.0100263925 0.2030354 -0.043552324 -0.09130614
000140 f6 11 43 3c 55 34 35 be 72 6b 60 bd 4e 4b f3 bc
       0.011906138 -0.17695744 -0.054789968 -0.029698994
000150 b0 f7 ac 3c 05 d9 78 bd 50 7e 79 bd e3 a9 65 ba
       0.0211142 -0.06075384 -0.060911477 -0.0008760972
000160 06 05 96 ba 2f 4f 08 3c 77 33 d7 bd 44 3f 27 3b
       -0.0011445589 0.00831966 -0.10507863 0.0025519887
000170 ba ba 4d bc ac 89 ae 3b 9f 0d 0f bd 32 4f 76 bc
       -0.012556726 0.0053264704 -0.0349251 -0.01503353
000180 0b 68 74 bd ce f6 1f bd bb 09 a7 3c 24 04 73 bd
       -0.059669536 -0.03905373 0.020390382 -0.05933012
000190 3f f5 e5 3d 5a 5d 02 3e 71 0d 94 bb 60 4a e0 bd
       0.112284176 0.12730923 -0.004518204 -0.10951686
0001a0 b0 93 34 be 72 46 e8 bd 5e 19 c4 3b 18 9f a1 3d
       -0.17634463 -0.113415614 0.0059844693 0.07891673
0001b0 2d 07 05 3d a6 55 06 3c 31 dc 8a bc 4f ca 39 3e
       0.032477546 0.008199131 -0.016950699 0.18143581
0001c0 b2 47 09 3a 30 18 76 bd 61 c0 31 3d 9f a2 0e 3d
       0.00052368187 -0.06008166 0.043396357 0.034823056
0001d0 76 e8 2e 3d 41 63 3a be 1e 76 33 bb e2 82 3b bd
       0.04270216 -0.18201925 -0.0027383636 -0.045779116
0001e0 f0 99 48 3e 32 7c 96 bb ce e9 c7 bc 27 32 c9 bd
       0.19589972 -0.004592442 -0.024403479 -0.09824019
0001f0 04 37 81 3d 2e b8 a8 3d 0f c9 d7 ba fb 9b 88 3d
       0.063093215 0.082382545 -0.0016463118 0.06670376
000200 1d 6c ab bd 6d e4 dc 3d 51 a9 35 be 19 01 74 be
       -0.0837023 0.10785756 -0.1774037 -0.23828544
000210 81 10 ba 3c ce 6e ee 3c d5 7e 57 3d e1 cb 3b bd
       0.022712948 0.02910557 0.05261119 -0.04584873
000220 4e a3 4f be 8b cf 1b 3e 55 a8 3c be 97 47 e1 be
       -0.2027714 0.1521589 -0.18423589 -0.4399993
000230 b9 20 2b bd ed e3 8f be ce 1d bf bc ca ae 40 be
       -0.041779254 -0.2810358 -0.023329642 -0.18816677
000240 07 4a 9a 3e c9 bf 3f 3e 95 c0 70 3e 4d 7e 71 3e
       0.30134603 0.18725504 0.23510964 0.23583336
000250 54 c7 68 3e ac 0d 49 be 45 ba 65 3e a9 bc e8 bd
       0.22732288 -0.19634122 0.22434337 -0.11364109
000260 41 53 2c be 70 82 78 bd e8 eb 7b bb 1b f9 f9 3d
       -0.16828634 -0.06067127 -0.0038440172 0.12205716
000270 6f 80 b6 be 82 2d d1 3d c8 e9 04 3e 85 42 45 3e
       -0.35644862 0.10213758 0.12979805 0.19263656
000280 f7 52 21 3e 11 65 3b 3d 53 e8 c3 bd 4a c7 90 bd
       0.15754305 0.04575068 -0.09565797 -0.07069261
000290 01 55 20 bd 45 b8 a9 be 8c 49 57 3d 36 06 41 be
       -0.039143566 -0.331484 0.052560374 -0.18850026
0002a0 96 66 45 be 97 2a f9 3d c8 38 44 3e c4 36 87 3d
       -0.19277415 0.121663265 0.19162285 0.066022426
0002b0 c4 a4 3f be 8d 1d 6d 3e 9b 14 73 be 3c fd 15 be
       -0.18715197 0.23155804 -0.23738329 -0.14647382
0002c0 bd b6 a3 bd 2b 83 e1 3c d5 47 8c 3d 1b ca ef bd
       -0.07993839 0.027528366 0.068496384 -0.117084704
0002d0 a5 07 45 3e dc 4b 6f be 13 6c c3 bc 50 be 1c be
       0.19241197 -0.23368782 -0.023855245 -0.15306973
0002e0 b3 21 70 3d 01 db 07 be 7d d1 e7 bd 78 24 5c 3c
       0.058625888 -0.13267137 -0.113192536 0.013436429
0002f0 6b 03 a4 bd b2 b1 b5 bc dc 76 84 3e 41 0a 76 3e
       -0.080084644 -0.022179458 0.25871933 0.24027349
000300 87 d6 4c 3e 50 d6 53 bd b5 c0 88 bd a0 11 6d be
       0.2000371 -0.051718056 -0.06677381 -0.23151255
000310 d7 1a 19 bc 06 1b 1e bd 04 56 f0 bd 82 0a 9d 3e
       -0.009344778 -0.03859999 -0.11735156 0.3067208
000320 67 71 ad 3d 17 f7 87 3e af 4c f8 bd bc 78 28 be
       0.084688954 0.26555702 -0.12124001 -0.16452307
000330 2b bb 22 bc 3c 23 83 3e 49 40 49 3d 8f a0 4d 3d
       -0.00993232 0.2561282 0.049133573 0.05020195
000340 c9 db 7f be 73 b5 41 bd ed b9 2c 3e ed 1f 3b 3e
       -0.24986185 -0.047292184 0.168678 0.18273897
000350 1f a1 92 bd a9 39 ad bd 52 63 39 be 08 ea 36 bd
       -0.07159638 -0.084582634 -0.18104294 -0.044656783
000360 0c 18 8f 3d f5 cc 88 bc 98 e3 88 bd 5d e5 4c be
       0.069870085 -0.016699294 -0.06684035 -0.2000937
000370 dd 6e 07 3e 9e 26 ce 3b 3b c0 93 3e 2e 67 04 bd
       0.13225885 0.0062912246 0.28857598 -0.032324962
000380 fd 29 cd 3d 3b fa a3 bd ff 4d e6 bd 5a 58 3a 3d
       0.10017774 -0.08006712 -0.11245345 0.045494415
000390 fd 35 68 3b 17 a3 e9 3c fe 83 31 3e 21 05 2b 3c
       0.003543257 0.02852015 0.17335507 0.010438235
0003a0 fa 54 03 bc f1 58 cf bd 2e 06 97 bb 91 33 99 3d
       -0.008015865 -0.10124386 -0.004608891 0.07480539
0003b0 0d b6 84 bc 2c dc 4c bd 99 b3 80 3e 77 d0 0a 3d
       -0.01620009 -0.05001466 0.25137022 0.033890214
0003c0 3c b4 26 3e 51 80 a1 bd 8e 92 2c 3e 97 fe ef bd
       0.16279691 -0.078858025 0.16852781 -0.11718481
0003d0 f6 80 d1 bc a1 86 15 3e 37 e8 c7 3d 24 2a 10 bd
       -0.025574189 0.14602138 0.09761088 -0.03519644
0003e0 b9 3a 57 3d b6 3c f9 3d 4f 8e 15 bd 9e c5 50 3d
       0.052546237 0.12169783 -0.03651267 0.050969712
0003f0 00 2e 4c 3c ae 5f 62 3a 19 6d 00 3e 7d f2 31 be
       0.012462139 0.0008635473 0.12541617 -0.17377658

bias f4 [18]
000000 e9 99 3e 3d b9 36 df bd 48 e9 66 3b 2c e4 01 bd
       0.0465335 -0.108991094 0.0035234261 -0.031711742
000010 7f be 84 bd b8 e2 06 3e 61 8e ab 3d 0f cc 47 3b
       -0.06481647 0.13172424 0.08376766 0.0030486619
000020 74 c3 83 3b 26 5a 3d 3d 59 62 53 3e 25 97 46 bd
       0.0040211026 0.04622855 0.20642985 -0.048483986
000030 ab fa 13 be 71 22 35 3d d7 8f e6 bd a9 57 38 be
       -0.14451091 0.0442223 -0.11257904 -0.1800219
000040 ca 0f 02 3e c2 bd e9 3c
       0.12701336 0.028532866

weight f4 [18]
000000 87 f9 7a 3f b0 1f 7d 3f 3f c5 62 3f ba 30 69 3f
       0.98037 0.98876476 0.88582224 0.91089976
000010 33 af 78 3f 47 25 89 3f 3f 04 69 3f e6 31 5d 3f
       0.9714233 1.0714501 0.91022104 0.86404264
000020 a2 dd 74 3f 26 91 25 3f a5 45 a8 3f fe 08 62 3f
       0.95650685 0.64674604 1.3146254 0.8829497
000030 2b 9f b0 3f 7e 7a 66 3f e0 80 41 3f 70 45 84 3f
       1.3798574 0.9003066 0.7558727 1.0333691
000040 6d 37 80 3f a3 f0 85 3f
       1.0016915 1.0464061

bias f4 [18]
000000 c6 f8 89 3e 54 93 0a be 06 af 93 3e 73 a8 23 bd
       0.26947612 -0.13532764 0.2884447 -0.039955568
000010 7e 96 7a 3e 64 21 e9 3d b4 0b 8c bc 59 fd 19 3e
       0.2447147 0.11383322 -0.017095424 0.1503805
000020 4b f1 89 3d 39 6c 70 b9 40 36 d9 bc 19 cf 39 be
       0.06735476 -0.000229285 -0.026515126 -0.18145408
000030 cb 2c cb bd b8 85 8b 3e f4 d4 e6 bc 63 4c 5c be
       -0.09920653 0.27250457 -0.028177716 -0.21513514
000040 6a dc 37 3d 4b 1e 48 bd
       0.044887938 -0.048857015

weight f4 [64, 18]
000000 29 97 19 3e ca 72 a4 bd 21 aa 66 be 16 28 34 be
       0.1499907 -0.08029707 -0.22525837 -0.17593417
000010 ca b7 ef be 25 a2 b4 3e be be 10 3f f0 e7 50 3e
       -0.46819907 0.35279956 0.5654105 0.20400977
000020 97 ba 9e be 3a ee 77 3d 06 49 81 3d fd a4 53 3e
       -0.31001732 0.060529925 0.06312756 0.20668407
000030 2f 61 20 3e 44 3e a3 bd 3d ed a4 3e 8b ba 9f be
       0.15662073 -0.079708606 0.32212248 -0.31197008
000040 43 94 a2 be 81 c5 b3 be 94 7f 9f 3e 5b 15 c4 3d
       -0.3175374 -0.3511162 0.31152022 0.09574386
000050 28 73 2e bf 23 fe aa 3e 00 27 03 3e 5f c5 05 3d
       -0.68144464 0.33397016 0.12807846 0.03265893
000060 dc c2 ad 3e 04 b1 ef 3d a4 fb 61 be a6 cc b9 bd
       0.33937728 0.11703685 -0.2206865 -0.09072237
000070 e5 01 30 3f ce fa 87 bc d7 86 bb 3e 8a e1 07 bf
       0.6875289 -0.016599085 0.36626312 -0.5307852
000080 72 4f 26 3e d5 b0 d4 3d e8 60 99 be b3 f4 88 be
       0.16241243 0.103852905 -0.29956746 -0.2674919
000090 be b6 88 bd 14 26 b8 3d b3 af e5 be 6e a4 a0 3e
       -0.0667548 0.08991638 -0.4486061 0.3137545
0000a0 e3 45 e5 bd 4b 93 d7 bd b6 26 fb 3d ce f0 3b bd
       -0.111949705 -0.10526141 0.12263243 -0.045883946
0000b0 da 73 49 3e d2 81 c5 3e f4 b8 16 3e 19 04 9a be
       0.196731 0.38575608 0.14718992 -0.3008125
0000c0 52 fe 9a bd 75 ef 71 bd 27 83 b4 bb 75 a9 d2 3d
       -0.07568039 -0.059066255 -0.0055087986 0.102862276
0000d0 d5 a2 5a be b8 f6 bb be b7 09 04 bf 99 aa 3a 3f
       -0.21351178 -0.3671167 -0.51577324 0.7291656
0000e0 80 50 ab bd a5 1c a1 3b 10 fc 61 be 06 ef 18 bd
       -0.083649635 0.004916745 -0.2206881 -0.037337326
0000f0 c0 24 8a 3d cb c8 7b 3b bd fa c3 be 25 8a 4f 3e
       0.06745291 0.0038419242 -0.38277236 0.20267542
000100 83 74 ba be dd cb 3b be 5e 15 80 3e 7c b2 38 3e
       -0.36417016 -0.18339486 0.25016302 0.18036836
000110 b9 c0 36 3e 8c 96 af be 65 ae cc bd d3 13 d3 3e
       0.17846955 -0.34294546 -0.099942006 0.41226062
000120 93 c9 d8 3d f9 da 1d be 5f 01 b3 bd d7 25 ad 3d
       0.10585322 -0.15415563 -0.08740496 0.08454483
000130 fe 2c a6 be 30 cf ac 3d 05 ca ba bd 91 40 5b 3d
       -0.324562 0.084379554 -0.091205634 0.053528372
000140 5f f8 86 bd a3 c7 2a 3e d8 bb 4a 3d c8 6c 77 be
       -0.06590342 0.16677718 0.049495548 -0.2416259
000150 f1 0f 81 be 7b 79 a0 bd 82 5f 3c 3e e5 9f ed 3d
       -0.25207475 -0.078356706 0.18395808 0.11602763
000160 3d d5 d7 bd 95 ec 38 bd 88 c1 07 3e 7e d7 5b bb
       -0.10538719 -0.045147497 0.1325742 -0.0033545191
000170 12 c1 e0 bc 61 83 cc 3d 7f ec df be e7 f0 ca 3e
       -0.027435813 0.09985996 -0.4373512 0.3963692
000180 b9 fb bf bd 60 99 72 3e ac 6d d2 be 5e ef c2 3e
       -0.09374184 0.2369132 -0.41099298 0.38073248
000190 45 d7 b5 bd d6 a7 5f 3e d0 09 f4 3d 08 79 92 3e
       -0.0887895 0.21841368 0.11915934 0.28607965
0001a0 d0 6c c9 be d9 5d 0e bf f0 a1 b7 bc 33 00 78 be
       -0.3934083 -0.5561195 -0.022416085 -0.24218826
0001b0 bf 39 7f be 48 d9 06 bc e3 09 05 bf 24 e3 16 3f
       -0.24924372 -0.008230515 -0.5196821 0.5894034
0001c0 7c 1b 45 be 43 28 8c 3e 70 77 6c be 8d 03 b8 3d
       -0.19248766 0.27374467 -0.23092437 0.08985052
0001d0 c7 40 61 bd e4 fa 6f be 25 f3 23 3e 26 cd c5 bc
       -0.054993417 -0.23435551 0.16010721 -0.024145674
0001e0 1a bd 43 3f c7 f8 cb be 16 10 96 bd a3 4c 9c 3d
       0.7646042 -0.3983824 -0.07327287 0.07631805
0001f0 49 81 9a 3e fe 56 3c bd 8c 01 72 be 5a ae 48 3f
       0.30176762 -0.0459814 -0.23633403 0.7839104
000200 da 50 79 be ab 9d 9c be b8 91 e6 be 2f 02 8e be
       -0.24347249 -0.3058904 -0.4503305 -0.2773604
000210 d9 1a b9 3c 4c 44 97 3e fc 29 93 be ce 07 f3 be
       0.02259581 0.29544294 -0.2874297 -0.47466892
000220 d3 d6 e3 bc 39 d1 4b bc e3 16 5b 3e e5 70 97 3e
       -0.027812397 -0.012440019 0.2139545 0.2957832
000230 01 c7 99 be 29 e4 a5 be 2f ee d3 3c b1 9f 80 3e
       -0.3003464 -0.32400635 0.02587041 0.25121835
000240 d2 97 55 bd 72 fc ba 3e c9 15 75 bd 97 f1 24 bd
       -0.05214674 0.36520725 -0.05983523 -0.04026946
000250 f2 90 9d 3e 09 58 25 be a0 56 22 3e de de c0 be
       0.30774647 -0.16146864 0.15853357 -0.37670034
000260 be a8 19 be ae 7a 06 bd 4a 56 25 be 06 8c d0 be
       -0.15005776 -0.03283184 -0.16146198 -0.4073183
000270 00 b1 78 3d b5 c8 34 bd e8 17 9e 3b 0a 86 73 3c
       0.060715675 -0.04413672 0.004824627 0.0148635
000280 9f 08 cf be f3 20 a0 3e e6 24 8d be ee 0c 91 3d
       -0.40436265 0.31275138 -0.27567214 0.07082544
000290 85 82 d6 3e 71 bd c1 be 42 56 72 bc 34 22 fd 3d
       0.41896453 -0.37839845 -0.014791073 0.12360039
0002a0 e7 3b ac bd 3a 5e 3b bd c5 b8 26 3d cf c8 b9 3c
       -0.08409863 -0.04574416 0.040703554 0.02267876
0002b0 0c c5 00 bf 37 94 45 be 1a de 90 3c 0e fb e7 3d
       -0.5030067 -0.1929482 0.017684031 0.11327182
0002c0 c3 78 e3 bd 1e 72 bb bd d0 a3 0f 3e 2e 63 14 be
       -0.11107018 -0.091526255 0.14027333 -0.14490959
0002d0 21 a5 88 3e 81 44 26 3d 40 8d c5 3d 21 5a a8 bd
       0.26688483 0.040592674 0.09646082 -0.08220316
0002e0 dc ba 10 3d 11 2f 67 be 5d 32 33 3e 32 79 7b be
       0.035334453 -0.22576548 0.17499681 -0.24557951
0002f0 00 b0 d0 be f4 cc 4d bd 83 a7 3b 3e d4 4e 40 3f
       -0.40759277 -0.050244287 0.1832562 0.7512028
000300 5c 05 8a be bf af e7 bd 5b 5b 60 be 28 39 11 bf
       -0.26957214 -0.11312818 -0.2190985 -0.5672784
000310 c0 6c 30 3e 43 85 94 3d 69 9b 0d bd 3a 7c 9e 3e
       0.17228985 0.0725198 -0.03457204 0.30954152
000320 d3 b6 9b be de dd 60 3e 53 b5 89 bd 7f 75 58 3e
       -0.3041292 0.21959636 -0.06724038 0.21138571
000330 b6 6b 39 be bf 3e 0d be 6f 42 82 3d 5a 96 db 3e
       -0.18107495 -0.13793467 0.063603275 0.42888147
000340 a7 65 d6 be 10 2a 5b be 4a 3b 5e be bf a1 04 3e
       -0.4187443 -0.21402764 -0.21702304 0.12952326
000350 d0 8e 5a be bb e2 73 be dc fa 5c be fc 70 a0 3d
       -0.21343541 -0.2381696 -0.2158007 0.0783405
000360 67 77 48 3e d8 26 57 3e dd ab 98 bd 3e bf 71 be
       0.19576798 0.21010911 -0.07454655 -0.2360811
000370 a0 22 15 bf d3 5d b3 3e b9 b8 c7 be 2c 23 9e 3e
       -0.5825596 0.3503252 -0.3900812 0.3088621
000380 20 eb 95 3e 1f e1 b0 3e 6f da a2 3e c9 bf 6b be
       0.2928095 0.34546754 0.31807277 -0.23022379
000390 a0 65 ac 3e 9b 54 1a bf 27 01 d2 3e f0 8f 5a bd
       0.33671284 -0.6028535 0.41016504 -0.053359926
0003a0 12 7b 2b be 40 8b 9e 3e a3 fd fe 3d 77 c4 5c 3e
       -0.16746166 0.30965614 0.12450721 0.2155932
0003b0 2f 17 ae bd e7 65 cf 3d 48 64 90 3e 27 fe 74 3d
       -0.08500516 0.10126858 0.2820151 0.05981269
0003c0 4f e1 a5 be 0b 59 49 be 1d af dd bd bf 32 1b be
       -0.3239846 -0.19662873 -0.10824416 -0.15156077
0003d0 3b 90 44 3e 78 88 7b bc 88 82 98 3d ac be 60 be
       0.19195645 -0.015352361 0.07446772 -0.21947736
0003e0 b7 c4 32 be eb 87 8a be 09 fa 21 be b2 c1 0b 3f
       -0.17457853 -0.27056822 -0.15818037 0.5459243
0003f0 97 29 cb bd 01 39 b0 be e9 a0 b5 be fe e4 0e 3d
       -0.09920042 -0.3441849 -0.35474327 0.034886353

bias f4 [64]
000000 30 87 a8 be f7 0e cd bd 9b 39 99 be 2e a4 6e be
       -0.3291564 -0.1001262 -0.29926762 -0.23304817
000010 b6 bc f5 be 35 ab b1 be 34 e5 4f bd cc 93 89 be
       -0.47995538 -0.34700933 -0.050755695 -0.26870573
000020 72 59 a8 bd 8d d3 31 be 2b 69 f9 be 45 1b e5 be
       -0.08220185 -0.17365856 -0.4871305 -0.44747368
000030 da 55 1c be df 6c c0 be 64 db ba be 2e b9 83 be
       -0.15267125 -0.37583062 -0.36495507 -0.25727218
000040 3e b1 10 be 7d 00 bc be 9e 74 e3 be 75 c6 a6 be
       -0.14130113 -0.36719123 -0.4442491 -0.32573286
000050 c6 2d 15 be cd c9 c3 be ab 97 8e bd 68 30 23 be
       -0.14568242 -0.382399 -0.06962522 -0.15936434
000060 22 20 c0 be 72 76 be be 9f 93 28 bf 8c a2 f2 be
       -0.37524515 -0.37199742 -0.6585025 -0.47389638
000070 7b c8 06 bf e1 76 ca be d2 da 57 be 47 60 67 be
       -0.5264966 -0.39543822 -0.21079567 -0.2259532
000080 0b 1c c6 be 72 43 af be 30 03 05 bf e0 3e d1 be
       -0.3869327 -0.34231144 -0.5195799 -0.40868282
000090 79 54 99 be 7f 5d c0 be 9c 28 7f be 2e cf c7 be
       -0.2994726 -0.37571332 -0.24917835 -0.39025253
0000a0 20 6a 34 bf c0 95 c5 be 49 87 a9 be 55 8a 0a be
       -0.70474434 -0.38590813 -0.33111027 -0.13529332
0000b0 b9 1d 91 be 47 df d3 3d 86 d2 7c be bf b6 a3 be
       -0.2834299 0.10345321 -0.24689683 -0.31975362
0000c0 ff 31 be be 61 fd a8 be ab bd a8 be 80 1b 90 bd
       -0.3714752 -0.33005813 -0.32957205 -0.07036495
0000d0 81 78 16 bf 52 d9 20 be c8 3b 01 bf 9f aa b6 be
       -0.58777624 -0.15707901 -0.50481844 -0.3567705
0000e0 1c e1 0c be 38 fa f1 be f2 39 af be f1 d5 2c be
       -0.13757747 -0.47261214 -0.34223896 -0.16878487
0000f0 f5 55 d5 be ac 3e 13 be 4c 62 a7 be d5 1c 01 bf
       -0.41667143 -0.14379376 -0.32692182 -0.5043462

weight f4 [18, 64]
000000 73 f2 08 3f 75 56 bf 3e 80 52 da bd bb 3f bc be
       0.5349495 0.3737065 -0.10660267 -0.36767372
000010 c0 e3 f8 bd 8d 35 35 3d e9 38 25 be 59 c2 2e be
       -0.12152815 0.044240523 -0.16134991 -0.17066325
000020 91 27 18 3e 5c a3 29 3d 0c 8c 47 bb eb cd cd bd
       0.14858843 0.041415557 -0.0030448465 -0.10049041
000030 63 59 89 3d a5 48 66 3c f9 57 8c 3e 3c d1 62 3e
       0.06706502 0.014055406 0.27410868 0.22150129
000040 98 d3 7d be 23 da e6 3d e8 f5 63 be 8c e5 90 bb
       -0.24787748 0.11272075 -0.22261775 -0.0044218954
000050 57 60 34 be 03 6d 97 bc bb 1c b9 bc ff fa 82 3e
       -0.17614876 -0.018484598 -0.022596708 0.2558212
000060 bc 7a 85 bd 63 8f 2c bd 7c 98 9e bd 2c 93 2a 3f
       -0.0651755 -0.04212893 -0.07743928 0.66630816
000070 58 16 f9 3e ff 0d b2 3e 89 c1 45 3d cb a2 12 3e
       0.4864986 0.34776303 0.048280273 0.14319913
000080 b8 c6 3a be d7 bb a5 3c c9 69 aa 3e de 34 9e 3b
       -0.18239868 0.02023117 0.33283833 0.0048280796
000090 b0 4d f0 bc f4 7d 4d 3f 76 81 9b 3e 99 e8 cf be
       -0.02933392 0.80270314 0.30372208 -0.40607145
0000a0 f9 81 11 bb 70 6a 01 be 12 4d cf bc 9d c8 ed bd
       -0.0022202714 -0.12638259 -0.025305305 -0.116105296
0000b0 46 17 ed 3d 87 80 59 be 63 22 c3 3b 3c 58 88 be
       0.11576705 -0.21240436 0.005955027 -0.26629817
0000c0 36 c3 d7 bb 06 57 ba 3e 13 8e ce 3c 1f ee 35 3d
       -0.0065845503 0.3639452 0.02521423 0.044416543
0000d0 29 0a b9 bd 07 6d 23 3c 59 5d b0 3e f6 ce 45 3a
       -0.09035141 0.009974725 0.3444622 0.0007545793
0000e0 a3 4c c1 3e a5 f5 84 3e 79 8b 0d 3d 2a 1d 20 be
       0.37753782 0.25968662 0.03455684 -0.15636125
0000f0 e2 3f a1 bd 38 c9 87 be 5b 4f 0c be f2 8a 85 be
       -0.07873513 -0.26520705 -0.13702147 -0.2608257
000100 33 75 65 be 7b 2a 9c 3d 9f d9 8b 3d 1b ba ed be
       -0.22407989 0.0762529 0.06828617 -0.4643105
000110 5f f2 c8 bd d3 f2 87 3d 78 87 19 3f ad 1a 47 be
       -0.098118536 0.06638112 0.59972334 -0.1944377
000120 37 7e df 3d 47 cb 20 3e f6 3c 3c 3e 7d f6 fb be
       0.109127454 0.15702544 0.1838263 -0.49211493
000130 69 ef e1 3e 3c b1 13 be b2 c1 97 3e be 4f 90 be
       0.44127968 -0.14423078 0.29639965 -0.28185838
000140 ed 8f a3 3e ed c9 2b 3f 68 0c d2 bc a8 65 98 be
       0.31945744 0.6710499 -0.025640681 -0.29765058
000150 94 76 81 3e f3 ce 91 bd 8b b1 3f 3e 31 71 b5 3c
       0.2528578 -0.071195506 0.18720071 0.0221487
000160 5b 74 0a 3e f6 6d 2f be 95 ac dc bd 20 02 c1 3e
       0.13520949 -0.1713179 -0.10775105 0.37696934
000170 9f 7b 3d 3e a9 0e 2c be b2 02 12 be ab e5 91 3e
       0.18504189 -0.16802467 -0.1425884 0.28495535
000180 e6 2b 13 bf ed ee a9 3d 30 b1 2c bd e2 b1 53 3e
       -0.5748886 0.082975246 -0.042161167 0.20673326
000190 94 f6 1b bf 2b 49 cd 3c 78 9b f9 bd 90 6c 00 bf
       -0.60923123 0.025059303 -0.121878564 -0.50165653
0001a0 1e da a4 3e 8f b2 f0 bd af 91 84 bd 1a f0 53 3e
       0.3219766 -0.11752807 -0.064730994 0.2069706
0001b0 c4 26 25 bc fc 25 a3 bb 55 10 44 be bc 42 0f be
       -0.010080043 -0.0049788933 -0.19146855 -0.13990301
0001c0 f3 9f 0a 3e cf ee b9 be 15 27 bd bd 51 a7 92 3d
       0.13537578 -0.3631501 -0.0923597 0.07160819
0001d0 7e f9 2a 3e d1 22 67 3e b1 ac d6 3d 60 7d 73 be
       0.16696736 0.22571875 0.10482157 -0.23778296
0001e0 18 b5 85 3e 79 e8 8a 3e 8c a7 20 3d 17 23 d7 bd
       0.26114726 0.27130488 0.039222285 -0.1050474
0001f0 a6 99 06 3e 9e cc 43 3e d0 5a 22 3e 43 ce 3e be
       0.1314455 0.19121024 0.15854955 -0.1863337
000200 89 a8 cf be 90 30 7b 3d f9 cd 05 3d 79 ca ab bd
       -0.4055827 0.06132561 0.032667134 -0.08388228
000210 8c 91 3c 3e ee 47 e0 be a8 96 9e 3e 2c 9c 2d be
       0.18414897 -0.43804878 0.30974317 -0.16954106
000220 f4 9f ad 3d 67 40 c4 bb c2 88 a2 3e 11 82 fe bd
       0.08477774 -0.0059891227 0.31744963 -0.12427152
000230 65 37 b7 3e d0 c6 b4 be 38 8f a5 3d ee 99 83 3d
       0.3578445 -0.35307932 0.080839574 0.06425844
000240 5d 15 18 3e 21 d5 e0 bc f0 22 9f bd c8 42 b0 3e
       0.148519 -0.027445378 -0.07770336 0.3442595
000250 49 bd 8c bd e0 69 ce 3d b0 cd e8 bd 9f f1 a1 3c
       -0.06872041 0.10078788 -0.11367357 0.019768534
000260 1e e7 73 3d bc 61 30 be e5 ec b9 3c f6 41 d4 be
       0.059546582 -0.17224783 0.022695968 -0.41456574
000270 9a 5e bd bd 45 01 bf be 3f 40 31 be ed ef 44 be
       -0.092465594 -0.37305656 -0.17309664 -0.1923215
000280 77 15 3b be 7f 95 40 3d 37 67 d4 3d 8d ee 4c 3e
       -0.18269907 0.04701757 0.10371249 0.20012875
000290 10 75 24 be 63 f3 25 be 66 eb 3a 3d ad ee 91 3e
       -0.16060281 -0.16206126 0.04563465 0.28502408
0002a0 15 83 1d 3d aa 17 c9 3d b8 ed 8a 3e 0e ff d9 3d
       0.038455088 0.09818967 0.2713449 0.10644351
0002b0 d0 ac c3 3c 6e 55 4b bc fa 94 06 3f 6f 38 70 3e
       0.023886114 -0.012410505 0.5257107 0.23459028
0002c0 bf 44 7f 3e 9e c0 aa be 9e c5 62 3e f9 0b 84 3d
       0.24928568 -0.3335008 0.22145697 0.06447596
0002d0 e9 38 38 3f 93 4a 22 3e 2c a3 7a 3e 01 6e 9b be
       0.7196184 0.1584876 0.24476308 -0.30357364
0002e0 83 8e 92 be e3 e7 bc 3e d2 54 9e 3d e6 d4 80 be
       -0.28624353 0.36895666 0.07731022 -0.2516243
0002f0 a7 27 04 be 20 57 87 bc 15 47 35 be 54 f2 3c be
       -0.12905751 -0.016521037 -0.17702897 -0.18451816
000300 e6 24 6b bd 4b 40 a6 be 83 9b 0a be d3 57 97 3d
       -0.057408236 -0.32470927 -0.13535886 0.07389798
000310 4f a4 1b 3e 2c 68 46 be ef 39 7d be 85 1b 96 3d
       0.15199398 -0.19375676 -0.24729131 0.07329468
000320 85 fa 58 3d c0 d5 98 be 6b 0e 36 be fb de 2d bd
       0.05297329 -0.29850578 -0.17778938 -0.04244898
000330 8a 3e 82 be db ac 51 3d 0f 13 ca 3d 5f cc ed 3e
       -0.2543834 0.05119024 0.098669164 0.46444985
000340 32 61 e3 be 3a b4 3c bd de 19 02 3e 16 6a 0b 3e
       -0.44410092 -0.046070315 0.1270518 0.13614687
000350 09 1e 74 be 2f d4 94 be 30 40 a4 b8 54 35 8d be
       -0.23839583 -0.29068133 -7.832085e-05 -0.2757975
000360 9d 86 5e be 31 b8 5b be 9b 1b 06 3f df 9d 9e 3d
       -0.21731038 -0.21456982 0.5238587 0.07744955
000370 1b 60 f4 bd 36 c5 b9 bd c3 7b 48 be b3 55 c3 be
       -0.11932393 -0.09070818 -0.19578461 -0.3815132
000380 1d b5 73 3e ec 3b 1c bd 40 42 37 bd 76 40 24 be
       0.23799558 -0.038143083 -0.044740915 -0.16040215
000390 ac 39 cf bd fa ea 79 3d 16 77 93 3e fb c2 19 be
       -0.10118422 0.061015107 0.28801793 -0.15015785
0003a0 ba b3 58 be 9d c1 4f bd 3f 92 9b 3e a8 b9 27 be
       -0.2116231 -0.050721753 0.30385014 -0.16379416
0003b0 f2 62 0b 3d 13 78 0d be 37 20 6a be ff f4 42 be
       0.03402991 -0.13815336 -0.22863851 -0.19038771
0003c0 b0 57 6b be b6 5a 1a bd b7 11 a4 bd 66 d3 6f be
       -0.22982669 -0.037684165 -0.08011191 -0.23420486
0003d0 68 ea 80 bd 9b 1f ea bc da ee 74 be ca 18 ee 3d
       -0.062947094 -0.028579524 -0.2391924 0.11625822
0003e0 df 00 a8 be aa 93 9b be 64 0d 1b bd 17 cc 10 3e
       -0.32813165 -0.30386096 -0.037854567 0.14140354
0003f0 43 03 27 3e 51 b5 a1 3d ed cd ac be b4 f9 93 bd
       0.16309838 0.078959115 -0.3375086 -0.072253615

bias f4 [18]
000000 86 36 fa 3d 88 0d 0a be 40 6d ca 3c 21 0b f6 bb
       0.12217431 -0.13481724 0.024710298 -0.007508651
000010 aa 52 94 bd 5f 71 1a 3e 56 ce e5 3d a9 64 e0 bd
       -0.072423294 0.1508231 0.11220996 -0.109566994
000020 58 1b 9d ba d1 a4 52 3d 85 1d 14 3e d8 de 99 bd
       -0.0011986298 0.051426712 0.14464386 -0.07513207
000030 20 67 2c 3d 47 32 eb bd 93 05 38 bd f1 67 17 be
       0.042090535 -0.11484199 -0.04492719 -0.14785744
000040 5f 2a 36 bc d2 e9 12 3e
       -0.0111185005 0.14347008

weight f4 [18]
000000 d1 4b 42 3f 61 08 53 3f d9 fb 50 3f 0d a2 1b 3f
       0.75896937 0.8243466 0.8163429 0.60794145
000010 71 2b 5c 3f 7e 7f 33 3f 86 50 2e 3f 0b 2f 3f 3f
       0.86003786 0.7011641 0.6809162 0.74681157
000020 49 8a 38 3f 02 86 25 3f 3f ea 47 3f 97 b1 0f 3f
       0.72086006 0.64657605 0.78091806 0.56130356
000030 5e e6 62 3f d3 d8 54 3f b5 60 23 3f a8 d3 51 3f
       0.8863276 0.8314335 0.6381944 0.81963587
000040 ed 06 66 3f 27 b4 35 3f
       0.8985432 0.70978016

bias f4 [18]
000000 05 fe ef 3d e2 63 91 3d fe 2e d9 bd a9 bf 17 be
       0.11718372 0.07099129 -0.10604666 -0.14819206
000010 9a 18 73 bc 43 4b bd ba f5 f2 90 3d 17 ed 56 3d
       -0.014837408 -0.0014441985 0.070775904 0.0524722
000020 07 2b a3 3d 6f 98 f3 bd 02 63 91 bd 4a 41 83 3d
       0.07967191 -0.11894309 -0.07098962 0.06408937
000030 10 0f 02 3e b8 18 a6 bd 82 a4 6c bd 45 96 cf bc
       0.12701058 -0.081101835 -0.057774074 -0.025340209
000040 0c b8 c5 bd 88 51 82 3b
       -0.09654245 0.0039770044
