Case_Study_1/trained_transformer/verification/vit_18_1_6_64.pt (torch, 34087 bytes, 19 tensors)

pos_embedding f4 [1, 50, 18]
00000000: 0b76 353f 3c0b 24bf 582d 803d 373c 0640
00000010: d9f7 bf3d 9abd 253f 62cb 473f b850 84be
00000020: 2919 b73e d23d 5dbf e72f 713e 4c08 ae3f
00000030: 2214 843f 1527 233f 63b6 02bf 5608 8bbf
00000040: 327f 1c3f b257 8d3e 9024 e73d 85f8 acbf
00000050: 8a35 163f 2ba1 633f 7ad6 333f 51db 283f
00000060: 60a0 0340 16a5 e93e f6bb 22bf d740 12be
00000070: f22d 65bf 71c6 4dbd 2b26 4dbf 2841 17be
00000080: a05a 93bf 46b6 1a3f 9d02 8bbe 1c5e b63e
00000090: e34e dcbf 8c5a 8f3f 6163 df3e 0499 e1bf
000000a0: db5c a43f de1e 08c0 e45c 33bf f6ea 65bf
000000b0: b551 d43e 312d e03e d675 2ebe 4e42 0e3d
000000c0: c601 9a3f c043 cabe 399b a1bf c5f5 1f3e
000000d0: 757f 0bbf 2a54 7f3f 5df9 133f 33c3 1b40
000000e0: b524 bbbf c04f 40bf 01a1 80be f1c6 b5bf
000000f0: 0713 483f 8e58 0f3d a3d3 adbf a8ca 1fbe
00000100: f49f ee3f 6477 89bf 3717 b7bd 66df 283f
00000110: 16bc 0f40 88c0 5b3e 9eb4 ef3f 479a 9bbf
00000120: bc0e b93f 132a 95bf 16aa d4be 54c1 bbbe
00000130: f9b4 ae3f a2a8 8bbe 9e9f 49bf 3c80 213f
00000140: 262b 01bf 2b25 b43f 34d3 febe cf34 06bf
00000150: 882b 83bf e753 b03f 7e05 e3bf 91ee 7fbf
00000160: 7ad9 0940 c2ea 83bf ded0 a2be 5d01 1ac0
00000170: f5ac 893f 0354 383f b898 513f 5ec1 803e
00000180: d730 bbbe cde2 bf3e f4c1 d33f faa9 45be
00000190: f88d d9bd 48aa 4d3e a34f fc3e 25bb 243f
000001a0: 3ec7 71be 5368 173f 3e18 ea3f e66b 70bf
000001b0: 1d89 f3bd 8a18 b23e e29e 9d3d 9123 b1bf
000001c0: af7c 373f aa9f 3fbf d1c4 a23e 3b9f 02bf
000001d0: 7910 943e 9103 60bf d392 a73d 8917 8e3f
000001e0: 665e 973a 3ecb db3e 8717 20c0 9079 b33e
000001f0: dee4 a1bf 4f0b 7a3f 35de fc3f 6194 0e40
00000200: 1689 f13e 4cc3 1f3f d5cb 183f f7f5 0cc0
00000210: 9214 7e3e 919c 083f 1a53 9f3f e11b aabe
00000220: 9680 83bf 1fff c5bf fdcb 4e3f cdcb 93bf
00000230: e538 9dbe 4977 a83f 37a3 513f d715 99bf
00000240: 638c a13f 377a 4c3f 593a 92bc 1d22 34bd
00000250: 7fa9 6bbf 10ee 17c0 411a fdbe 0d69 803d
00000260: f396 ec3d 4ef1 2cbf 3e0c 64bf 7b28 fd3d
00000270: dee7 8fbf e769 10bf 21ef 7abf 729c 71bf
00000280: baca 8b3f 36bf d7be 6018 0240 0642 ebbe
00000290: cd73 de3e 4e9d 6c3f 174b 39bf f694 be3e
000002a0: 89c8 3bbf 2f24 3a3f 0fc8 b93f cf54 7dbf
000002b0: c14e a53e 239e 56bf 258c f2bf fe12 01c0
000002c0: 203b 3bbf 0949 623f 4fc6 533f 269d 6d3f
000002d0: b881 3b3f fec2 603f bffd 4b3e c2f3 493f
000002e0: c30a 28bf dce5 203e 68ba bdbe b1c8 043f
000002f0: 7c38 8bbd 3202 ec3e d3a7 193d 1a0a 7f3f
00000300: 90fd b63f 275c 6ebe 14e5 5cbf 1890 1abf
00000310: 95b2 0ebf eaa9 c3bf 55d1 783e e8c4 c8bd
00000320: 4035 a4bf 013e f0be 38be 83bf 24fb 28bf
00000330: dcf7 85bf f9f2 193f d7c6 ce3f 7df0 3e3f
00000340: 0d85 573f 5f07 953f c838 a63f 1e8a 5d3c
00000350: 958a 5a3f ced4 8ebe b081 86bf e13a 5ebf
00000360: 3aba fe3c 99e7 66bf d460 82bf f103 98bf
00000370: 3ac7 d7bf 2e37 1cc0 dc23 d0be 12e0 33bf
00000380: 834e 723f 881f a63e 86be 083f 1e6e 183f
00000390: efbd 7d3e 166b 0fbf 60e7 f53d cd3e 053f
000003a0: b040 6cbf 9713 88be a085 913f 1dc7 ac3f
000003b0: d1f7 7a3f 06bb 1bbf 3fbe c6be 31b2 b3be
000003c0: 8d8d 24bf 43d5 5b3f b36c ae3f 7e59 79be
000003d0: 6c05 4b3f 7861 e3bd 85b6 b4bf ca7d c5bf
000003e0: aca0 1bbe bbf8 523f 697e e43d 619a afbf
000003f0: fbed 043f fd7b ddbd 09f5 9fbe 0c6b 14bf
0.70883244 -0.6407964 0.06258649 2.0974252 0.09373445 0.64742434 0.7804471 -0.25842834
0.35761383 -0.86422455 0.2355343 1.3596282 1.0318644 0.6373151 -0.5105955 -1.0861919
0.61131585 0.2760597 0.112862706 -1.3513342 0.58675444 0.889178 0.7024914 0.6595965
2.0566635 0.45633763 -0.63568056 -0.14282547 -0.8952323 -0.050238077 -0.80136365 -0.14770949
-1.1512032 0.6043438 -0.2715043 0.35618675 -1.7211574 1.1199508 0.43630508 -1.7624822
1.2840837 -2.126884 -0.70063615 -0.89811647 0.41468588 0.43784478 -0.17037138 0.0347312
1.2031791 -0.39504814 -1.2625495 0.15621097 -0.5449136 0.997378 0.57802373 2.433789
-1.4620577 -0.7512169 -0.25122836 -1.4201337 0.78154033 0.03499656 -1.3580211 -0.15604651
1.8642564 -1.073956 -0.08939975 0.6596588 2.2458549 0.21460164 1.8726995 -1.2156457
1.4457622 -1.1653465 -0.41536015 -0.36670935 1.3648978 -0.27277094 -0.7875918 0.63086295
-0.50456464 1.4073843 -0.4977051 -0.5242433 -1.024766 1.3775605 -1.7736051 -0.999734
2.1538987 -1.0306017 -0.31799978 -2.4063332 1.0755907 0.7200319 0.81873655 0.25147527
-0.365607 0.37477723 1.6543565 -0.19303122 -0.106227815 0.20084488 0.49279508 0.6434806
-0.23611161 0.5914356 1.8288648 -0.9391464 -0.11891387 0.34784347 0.0769632 -1.3838979
0.7167463 -0.74853003 0.31790784 -0.51024216 0.28918818 -0.8750544 0.08182301 1.1100932
0.0011548519 0.429285 -2.501436 0.35053682 -1.264797 0.97673506 1.9755312 2.2278063
0.471749 0.62407374 0.59686023 -2.2025125 0.24812534 0.533639 1.2447236 -0.33224395
-1.0273616 -1.5468482 0.8078001 -1.154657 -0.3070747 1.3161403 0.8188967 -1.195979
1.2620968 0.79873985 -0.017850088 -0.043977845 -0.92055506 -2.3739052 -0.49434093 0.06270037
0.11552229 -0.675557 -0.8908118 0.12361237 -1.1242635 -0.56411594 -0.9802113 -0.9437934
1.0921242 -0.4213807 2.0327377 -0.4594881 0.43447724 0.9242753 -0.72380203 0.37223023
-0.7335287 0.7271146 1.4514178 -0.9895753 0.32286647 -0.8383505 -1.8949019 -2.0167842
-0.7313709 0.8839269 0.8272447 0.92817914 0.7324481 0.87797534 0.19921015 0.7888757
-0.6564142 0.15712684 -0.3705628 0.5186873 -0.06797883 0.46095425 0.037513565 0.9962479
1.4296131 -0.23277341 -0.86287045 -0.6037612 -0.55741245 -1.5286229 0.24298604 -0.09803182
-1.2828751 -0.46922305 -1.0292425 -0.6600821 -1.0466266 0.6013637 1.6154431 0.74585706
0.84187394 1.1642874 1.2986078 0.013521699 0.8536771 -0.27896732 -1.0508327 -0.8680859
0.03109466 -0.9019714 -1.01858 -1.1876203 -1.6857674 -2.440868 -0.4065236 -0.7026378
0.9465105 0.3244593 0.53415716 0.59543025 0.24779485 -0.56022775 0.12007022 0.5204895
-0.92286205 -0.26577446 1.1368904 1.3498265 0.9803439 -0.6083225 -0.3881702 -0.35096887
-0.6427849 0.85872287 1.3626922 -0.24350545 0.7930515 -0.11102575 -1.41182 -1.5429013
-0.1519801 0.8241078 0.11156923 -1.3718988 0.5192563 -0.108146645 -0.31241634 -0.5797584

cls_token f4 [1, 1, 18]
00000000: 35d8 05bf b45a e2bf 91c5 173f f93d 83bf
00000010: a7af cd3d c2af 763f 77f5 44be be8c 74bf
00000020: 1e72 a6be 55e9 873f 3cb9 92be a459 1fbf
00000030: 614b 12c0 9be4 3abf 25f1 99be eb7b ca3f
00000040: 45be 82be be89 48bf
-0.5228303 -1.768393 0.5928584 -1.0253288 0.10043269 0.96361935 -0.19234262 -0.95527256
-0.3250894 1.0618082 -0.28656948 -0.62246156 -2.2858508 -0.73005074 -0.3006679 1.5819067
-0.2553579 -0.7833518

weight f4 [18, 16]
00000000: a3f5 863d bc96 36bd 731a d8bd c530 ca3d
00000010: a0ca 87bc 2dc4 d6bd 5ee7 f0bc 309d cbbd
00000020: 2f84 ed3d 1077 123d f9ea 34bd ae62 3abd
00000030: 20f2 733e bf54 37bd 9efa 95be 708e af3d
00000040: 9bec 033e 76f1 793d b950 a4bd ee8b 02be
00000050: f49b 223e 06dc 9cbb 7e1d 6fbe 94e0 3fbe
00000060: 8679 2b3e 955c d5bd e9d6 74be 47bd 823d
00000070: 5e5e 943c 47f6 bebd baa3 84be 11eb f7bc
00000080: 280e 643e 617d a7be 0e33 f7bd 471b f73d
00000090: 3363 a33d 8b87 e6be 54a0 f23d a311 183e
000000a0: 01c2 0e3d d3cc 18be 7af5 e73d c58a 933a
000000b0: c625 bebd 1d23 afbe 83dc 553e afe4 063e
000000c0: a580 75be 9eea 713e 0ad0 8e3d c51a 48be
000000d0: bbe6 cabc b4e9 963e 792d 2fbd 9d1c 9fbe
000000e0: 0661 d73d 8a75 293e d3ec abbe a978 0abd
000000f0: 533f cc3d 9af3 a53d 1612 8fbe ce7c f5bc
00000100: 4514 f8bd e0b1 adbd f645 bb3d 235c 1b3e
00000110: 4042 50be 7a14 0cbe edb3 ad3c 35ae 3d3e
00000120: 3a72 49be 846f 583c e883 013e 9e48 b33c
00000130: d697 64bd 9eeb 873c cac4 2f3e f3e2 bf3c
00000140: e456 a7bd 82af 203e 11b7 3d3e 88f0 56be
00000150: 4e3e b23d be30 d13d 6916 d2bd 7119 11be
00000160: 464e 9bbd ed34 213e fc5f 6e3e eeb3 98be
00000170: 2395 0bbe c234 c53e b2a8 69bd 1e4e a8be
00000180: fb4b 68be 6b01 43be 7b49 3bbe c83e 4b3e
00000190: de37 46bc 694a 90bd 8ff9 4abe 568e 2a3e
000001a0: a2ec a5bd b1bd 493b e7b2 dd3d 2519 b1bc
000001b0: 7943 45be c896 303d a9a8 1dbd 5124 5cbd
000001c0: 677a 02be 1567 b0bd d462 bb3e 26aa 25be
000001d0: 6d70 34be 0a64 0ebc eda8 8b3e 3b68 13be
000001e0: b0f5 d0bd b949 353e c401 c93c fd51 10be
000001f0: 9d27 debd c902 d63d fa61 303e 1305 c1bd
00000200: 92c0 d13e 3412 95be 9958 dabd 4c2b 62be
00000210: d584 153e b56f 64be 4e37 8bbd 8f1b 16bd
00000220: ecae bb3c 686e 98bd 454a d3bc 70dc c0bd
00000230: ec7d 91bd a553 b53c 9976 b0bd 2a9d 39bd
00000240: 7672 babd c874 443e 8870 2a3e ad27 763e
00000250: 4ec5 023e fb03 533e 08de efbd 4ace 943d
00000260: 9207 9b3e b7f4 f43d f006 c03d 580d 28be
00000270: 057e 7f3e 2055 36bd 8d93 403e d2cc 93bd
00000280: 883e 79be b713 00be 3476 533e 6bd1 d33d
00000290: 4193 8cbe 407a f6bd e991 4d3e 01ce 4c3c
000002a0: 34ca 82be 6c37 f43d 0f74 943e d3d6 68be
000002b0: 77e4 c8be e077 953e a565 823e 98d3 9abe
000002c0: af7b 83bb 32d0 70be 2a2e c1bd f9b4 7fbc
000002d0: c913 e33c b7eb 03bd d625 3ebd e00a 333e
000002e0: ee4a a0bd 0204 d0bd 81ef 8fbd 956d 3a3e
000002f0: 1663 41be e8b3 88bd 298d 72bd 599c 933e
00000300: c0a9 8c3d bfe8 ed3d ad76 263c 8033 90bd
00000310: 5d3f 383d 87e0 643d f7cb a73d 4655 783d
00000320: 7649 8abc a92e 5f3e a4df 0c3e 25c1 f6bd
00000330: 5478 1abe 752f a13e 5135 2a3e 7002 b0ba
00000340: c80c 983d b578 183d b134 7dbd 915a f33c
00000350: 1b79 d13d b31d b0bd f2b7 1fbe 68cf f13d
00000360: 13cc 6a3e 593a 25be d148 eabd 2703 2e3e
00000370: 23de efbc e1e4 9bbe b66c 67be 1b3a eb3c
00000380: 019d 88be 8f87 34bd e021 b7be b398 813d
00000390: 6f1d f13d 8627 68bd 8bcd a6be 84d7 943d
000003a0: f09f 4c3e 684a 06be 2a5d e5bd d78e 923d
000003b0: 0641 f1bd dca1 89be 600d 94bd c9bd 3fbd
000003c0: ba6d e13d 6127 fc3c 25b8 9dbd e02b 4f3e
000003d0: 0088 81bd 5351 c83d d69b 0cbd a492 173d
000003e0: c2b6 00bc 9650 113e b286 fabc e7de 7abd
000003f0: 5388 4dbe 9ee5 313e 3e19 f4bd 5527 973d
0.0658982 -0.044577345 -0.1055192 0.09872583 -0.016576111 -0.10486636 -0.0294072 -0.099420905
0.11597478 0.035758078 -0.0441694 -0.045504265 0.23822832 -0.044758555 -0.29292768 0.0857209
0.12883227 0.06102129 -0.08023209 -0.12748691 0.15879804 -0.004786971 -0.23351094 -0.18738014
0.16745576 -0.10418049 -0.23910107 0.06383758 0.018111404 -0.093243174 -0.25906163 -0.030263456
0.22271025 -0.32712844 -0.12070285 0.120657496 0.07977905 -0.45025286 0.118469864 0.14850478
0.034852985 -0.14921884 0.11326118 0.0011256567 -0.092845485 -0.34206477 0.208849 0.13173173
-0.23974855 0.23624656 0.06973274 -0.19541462 -0.024768224 0.29475176 -0.042767975 -0.31076518
0.105165526 0.16548744 -0.3357912 -0.033806477 0.09973016 0.08103104 -0.27943486 -0.029966738
-0.12113241 -0.084811926 0.09144203 0.15171866 -0.20337772 -0.13679686 0.02120396 0.18523486
-0.1967248 0.013210181 0.12647974 0.021885213 -0.055808865 0.016591843 0.17164913 0.023423648
-0.0817087 0.15691951 0.18526866 -0.20990193 0.0870329 0.10214375 -0.10258181 -0.14169861
-0.07583289 0.15742846 0.23278803 -0.29824775 -0.1363111 0.38516814 -0.057045646 -0.328721
-0.22685234 -0.1904351 -0.1828975 0.19848168 -0.012098281 -0.070454426 -0.19821762 0.1665586
-0.08101775 0.003078323 0.108251385 -0.021618435 -0.1926402 0.043112546 -0.038490925 -0.05374557
-0.12742005 -0.08613411 0.36598837 -0.16178188 -0.17621012 -0.008690843 0.27277318 -0.1439523
-0.10203111 0.17703904 0.024536975 -0.14093776 -0.108473994 0.1044975 0.17224875 -0.09424796
0.40967232 -0.2911545 -0.1066143 -0.22086829 0.14601453 -0.22308238 -0.06797658 -0.036647376
0.022910558 -0.07442933 -0.02579225 -0.09417045 -0.07104096 0.022134611 -0.08616371 -0.0453159
-0.09103863 0.19185174 0.1664449 0.24038573 0.12770578 0.20606987 -0.11712271 0.07265909
0.30279213 0.11960738 0.09376323 -0.1641134 0.24950416 -0.044514775 0.18806286 -0.07216801
-0.2434026 -0.1250752 0.2065056 0.10342678 -0.27456096 -0.12035036 0.20075192 0.012500287
-0.25544894 0.119246334 0.28994796 -0.22738199 -0.39236805 0.2919302 0.25468174 -0.30239558
-0.004012547 -0.2351692 -0.09432633 -0.015607112 0.027719395 -0.032207217 -0.046422802 0.17484617
-0.07826792 -0.101570144 -0.070281036 0.18205865 -0.18885455 -0.066749394 -0.059216652 0.2883022
0.06868315 0.116166584 0.01016013 -0.07041073 0.044982303 0.05587819 0.081932 0.060628198
-0.016880732 0.21795143 0.13757187 -0.12048558 -0.15084964 0.3148152 0.16621901 -0.0013428461
0.07424313 0.03722449 -0.06181783 0.029706271 0.10228177 -0.08599415 -0.15597513 0.11807138
0.2292941 -0.16135539 -0.1143967 0.1699339 -0.029280728 -0.30448058 -0.22600064 0.02871423
-0.26682284 -0.04407459 -0.35768032 0.06327953 0.11773192 -0.056678317 -0.32578692 0.07267669
0.19982886 -0.13114321 -0.1119941 0.07156151 -0.1177998 -0.268813 -0.072291136 -0.046811853
0.11007257 0.030780496 -0.077011384 0.2023158 -0.06324768 0.09781136 -0.034328304 0.03700508
-0.007856073 0.14190897 -0.030581806 -0.061247732 -0.20071535 0.17372748 -0.11918877 0.07380549

bias f4 [18]
00000000: a427 8bbe b267 1d3b 0cc6 753e 1640 3e3c
00000010: dc38 773d 280d 24bd b041 093e ea9a 3cbe
00000020: 4a37 103e 60e0 813e 8fff 09be 0a8c 8a3e
00000030: 72d6 493d f65a 6d3d a602 2f3e 919c b8bb
00000040: 9a6d c23d 2d20 bdbb
-0.2717868 0.0024018106 0.2400133 0.011611959 0.06035696 -0.04005161 0.13403964 -0.1841847
0.14083591 0.25366497 -0.13476394 0.27059966 0.049276777 0.057948075 0.17090854 -0.0056338985
0.09493561 -0.005771658

weight f4 [18]
00000000: d87b 6d3f 9a1d 6a3f 711c 633f c14b 833f
00000010: b8f6 8e3f 3833 803f 08d1 a03f fa49 883f
00000020: aad7 853f 9a95 9b3f c1bb 863f d745 4d3f
00000030: 6e67 8a3f 16e1 913f 1ed5 903f 2270 943f
00000040: 02c9 803f 24b4 813f
0.92767096 0.9145142 0.88715273 1.0257493 1.1169043 1.0015631 1.2563791 1.0647576
1.045644 1.215503 1.0526048 0.8018469 1.0812814 1.1396816 1.1315038 1.159672
1.0061343 1.01331

bias f4 [18]
00000000: a855 d8bd 89ed 813d d1fa e33d 4691 d63d
00000010: 755a 95bc 8607 383c ab78 213e 7375 fb3d
00000020: 5d28 9a3d 021e 83be 908b 263d 9c9a 52be
00000030: 481c 383d 09a1 df3d 737a d6bc 2daf 0bbd
00000040: 9d9b e93d 0af6 2c3e
-0.10563213 0.06344134 0.11131824 0.104769275 -0.01823161 0.0112322625 0.15768687 0.12278261
0.0752723 -0.25608832 0.04066044 -0.20566791 0.044948846 0.10919387 -0.026181435 -0.034102608
0.11406634 0.16890731

weight f4 [54, 18]
00000000: 6b46 3f3e 4a93 9ebe 2918 a83e b56a ba3e
00000010: c663 7c3e 8522 853e 0f23 863e 6093 8abe
00000020: 6875 403d 7740 4b3e 3466 0f3e 65b1 6b3e
00000030: 293f 0cbe 1a19 94be 8df1 71bc 92de 36bd
00000040: 3584 8cbd 6357 bf3d 20a7 b73d 678e f63d
00000050: 0794 d0bd df3f ab3d 535b 883c 24a0 193e
00000060: 060f 883c 098a 5d3e 8cc9 85bd fd6f 5c3e
00000070: 127d 023e f6bb 1e3c 80fc 25be 4aa5 cf3a
00000080: e98a 433e c8dc 1ebe c1c4 dbbd 41ef e23d
00000090: 5d3e a63d fc93 343e aea7 963d 0706 443d
000000a0: 950d 613d 02f9 77bb fca1 31be 13e2 fcbd
000000b0: 9d5d 37be c7aa 423e 3fba a63c 904c 823d
000000c0: 9a17 64bd 45b4 46be 94e4 4cbe ab31 66bb
000000d0: 8988 db3d 7155 27be b26d 82be c50f 7d3e
000000e0: 3a19 40be 1f54 b03c 9aa5 013e f002 f73d
000000f0: b97c 8dbe 8319 f33d 5824 3ebe acfd 10bd
00000100: 81d5 4c3e af79 42be 57b3 2f3e 0da8 153d
00000110: 8d3e 6a3e e544 dfbd e03d 413d 3caa 7c3e
00000120: 1108 883d 96e3 1a3d e124 d3bd 7bd2 0cbe
00000130: 5a3e 2e3e d231 2c3e fc15 453d 1ce7 3c3e
00000140: e47a b63d 5b1d 193e 1b32 02be 9c99 1b3d
00000150: 6dd0 63be 9c3f 5fbe 23b6 d03d 077c 03be
00000160: 0aae 403e 485c 3cbe 8a2d 40be d8a7 40be
00000170: 757b 123e 5c79 14be 82f2 47be cdd4 d93d
00000180: bbb8 14bd b483 67be 1e1b 013e 6598 1c3e
00000190: 56b7 89bc 79cb 0f3e 586b 3dbe ecc0 b3bd
000001a0: 391b c6bd a117 61be f9a3 213e 6b1c adbd
000001b0: 3d9c 983e 44d0 93be 546f bf3e 0e5e ad3e
000001c0: 7013 993e 99ff 923e ba6c c03e a30a c9bd
000001d0: eaeb 323e bb2f 9c3d 3156 b13d 50ec 81bd
000001e0: 98af 07bc 37fb 3ebe 0c7f 2cbe 62b1 ac3c
000001f0: b477 ca3d 3fbe 02be c2da 0bbd b713 303d
00000200: 653d c13d 3efc 1ebe 0f1a 043e 1811 51bd
00000210: 98c4 4bbd dd92 0dbe ef12 673d cb72 47be
00000220: e17c 24be b0a4 0f3e 0cd2 efbd 87a8 b2bd
00000230: 649c 79be bc66 7f3d 97dd 273e 195d 17be
00000240: 4f4a a13d 9a15 c63b bd9e 08bd deaf 473e
00000250: 157b c23c 5757 6f3d 10fe 9ebb a802 aebc
00000260: 20ce c03d 9e66 5e3c af3a 8b3d 37f5 573e
00000270: b899 1e3e e2b1 d3bd 733f 42be 8763 693d
00000280: 3286 1fbe 2325 85be a5d2 143e 8b5d 2bbe
00000290: 0c80 533e e695 83be e6e8 36be 7918 c63d
000002a0: 3276 4cbc f170 9ebd b37e 2e3e ec20 1dbe
000002b0: ccff 35ba 9dfd 7bbe 1d50 c5bd b7e3 e7bd
000002c0: ae80 5d3e 108a efbd fa63 233c 135d 96bd
000002d0: 216c 25be 88cb 863e 6e54 41bd fed0 013d
000002e0: 57c3 26bd 9686 87be 486f 6f3d 208d 903e
000002f0: 7ead 16be bfb6 843d 76ad 34be 0b4f 7abe
00000300: 2e56 cebd 1888 b3bc 122c a73d 01df 73be
00000310: 5721 27be 9f43 53bb 7859 bc3e 5bee 2abe
00000320: 9763 ab3e 16c3 253e 4cf4 713e 5b0f 843e
00000330: bfaf a5bd 1f82 7cbe 6d00 ff3d d69e c73e
00000340: c21a c43d 009d 0c3d d217 a2be df56 b03d
00000350: f72b cebd 001c 5c3d 3027 27bd ec76 73be
00000360: bede 013e 494d 89be e1d2 803d c5c5 5e3e
00000370: 100b 523e f3d1 e33d afb0 cb3d 1335 0cbd
00000380: 117e 233e 6244 893e 0a4c fbbd 603e 3c3e
00000390: 7742 a43d d35d 80be 9db3 55be c9b8 5e3e
000003a0: 7f39 fb3d e87f 3abe 1908 0c3e 5f5f 80be
000003b0: 9836 10bd ac76 253e 227e ab3c 3931 e1bd
000003c0: 21a6 1d3e 8964 10bd 5ae7 c7bc b656 1dbe
000003d0: 3a5e 74be 4696 4c3d be12 2fbe 1537 1fbd
000003e0: 9b88 55be 54d1 633e 1c9c 623e 24f4 fa3d
000003f0: 293d 7dbd 0156 79be 143d 95bd c109 67bb
0.18679206 -0.30971748 0.32830933 0.36409536 0.24647436 0.260029 0.26198623 -0.27065563
0.046986967 0.1984881 0.14003831 0.2301689 -0.13695969 -0.289254 -0.014767063 -0.044645853
-0.06861154 0.093428396 0.089674234 0.1203888 -0.10184484 0.08361792 0.01664511 0.15002495
0.016608726 0.21634687 -0.06532583 0.21527095 0.12743023 0.009688368 -0.16209602 0.0015842107
0.19095959 -0.15513909 -0.10730887 0.1108079 0.081173636 0.17634577 0.07356201 0.04785731
0.054944593 -0.003783763 -0.17346948 -0.12347808 -0.17906804 0.19010459 0.020352481 0.063622594
-0.05568657 -0.19404705 -0.2000907 -0.003512482 0.107194014 -0.16341187 -0.25474316 0.24713047
-0.18759623 0.021524487 0.12660828 0.12061107 -0.27634218 0.118701 -0.18568552 -0.03539817
0.2000332 -0.18991731 0.17158256 0.03653722 0.22875424 -0.109018125 0.04717815 0.24674314
0.066421635 0.0378147 -0.103097685 -0.13752167 0.17015973 0.1681588 0.04811667 0.18447536
0.08910158 0.14952604 -0.12714426 0.03798829 -0.22247477 -0.21801609 0.1019099 -0.12840281
0.1881639 -0.18394578 -0.18767372 -0.18814027 0.14304908 -0.1449942 -0.19526103 0.10636292
-0.036308985 -0.22608835 0.12608 0.15292509 -0.016811054 0.14042462 -0.1849798 -0.08777031
-0.09673161 -0.2198167 0.15785207 -0.08452686 0.298067 -0.28869832 0.37389624 0.3386082
0.29897642 0.2871063 0.37582952 -0.09816482 0.17472807 0.07626291 0.08659018 -0.06343901
-0.008281611 -0.18650518 -0.1684534 0.021080676 0.09886113 -0.12767886 -0.03414417 0.04298755
0.09435538 -0.1552591 0.12900566 -0.051041692 -0.049748033 -0.13825555 0.05641454 -0.19477384
-0.16063263 0.14027667 -0.11709985 -0.0872355 -0.24376065 0.062353835 0.16393124 -0.14781608
0.07875501 0.0060450556 -0.03335451 0.19500682 0.02374033 0.058432903 -0.004852064 -0.021241501
0.09414315 0.0135742705 0.067983024 0.21089636 0.15488327 -0.10336663 -0.18969516 0.056979682
-0.15578535 -0.26004896 0.1453348 -0.16734903 0.20654315 -0.257003 -0.17862281 0.096726365
-0.012479352 -0.077363856 0.1704052 -0.1534459 -0.0006942719 -0.24608465 -0.09634421 -0.1132273
0.21631119 -0.11696255 0.009972567 -0.07341971 -0.16154529 0.26327157 -0.04719966 0.03169345
-0.040713634 -0.26469868 0.058455735 0.2823267 -0.1471462 0.064801686 -0.17644295 -0.24444215
-0.10075031 -0.02191548 0.081627026 -0.23815538 -0.16321312 -0.003223635 0.3678701 -0.16692488
0.3347442 0.161877 0.23628348 0.25792965 -0.080901615 -0.24659012 0.12451253 0.3898837
0.09575416 0.034329414 -0.31658798 0.08610319 -0.100669794 0.05373764 -0.040808856 -0.23775834
0.12682626 -0.26816776 0.06290222 0.2175513 0.20512033 0.11124029 0.09945809 -0.034230303
0.1596606 0.26809984 -0.12270363 0.18383169 0.0802049 -0.25071582 -0.20869298 0.21750177
0.12266826 -0.18212855 0.13674964 -0.25072762 -0.035208315 0.16158551 0.020934168 -0.109957166
0.15395404 -0.035252128 -0.02440231 -0.15365109 -0.2386407 0.049948 -0.17096993 -0.03887089
-0.20852892 0.22247821 0.22129864 0.122535974 -0.061825905 -0.24349214 -0.0728704 -0.0035253617

weight f4 [18, 18]
00000000: 0e3e 7c3d f7f1 0f3e 45e5 ac3e e619 7f3e
00000010: c184 e93b 9e4c fdbe 4c35 b33e 4e10 1d3f
00000020: d182 e4be 44f3 e13d ad13 4e3e b027 bb3d
00000030: b263 8b3c 3677 9b3e 01df 8bbe 6173 253e
00000040: 7f5e 63be 4b5b b73e 63d6 b73e 0029 78be
00000050: 7810 df3e c580 c5be 89ca 72be 4473 68bd
00000060: e193 e1bc 5773 54bd 92f7 52bd abfe 7dbe
00000070: ea06 20bf f1be f0be 95a8 08bd e90b a2be
00000080: 96af c93e 67ba 083e 08a8 6fbe e46c 2c3c
00000090: b960 443e 3c70 233e 154e d9bd 4169 ef3e
000000a0: c0a2 03bf c9c8 5cbd c37f 91be 4abd f4be
000000b0: d112 a53b e4ab c93d 59c5 483c b8e2 a9bd
000000c0: 7161 0b3e 4a15 cabd 7bc8 72be 2fb8 033f
000000d0: 3ece 4fbe 85b3 08bf e77a cabe 332b 4cbe
000000e0: 4f74 a53e 17d7 413e de20 2e3f 4ead 4e3d
000000f0: ad75 1e3f 4019 2abe db04 193e a303 18bd
00000100: 5b30 4fbe cee2 7ebd b62a 3dbf 4c7b 9f3d
00000110: 73d6 51be c787 113f 311e 1fbe f39a 1dbd
00000120: fb4c e43e 2f51 1abe c400 edbe ea9d 18be
00000130: 8fb5 b53e 3905 b0be bfcc 14bd b189 703e
00000140: 905d 113d a5a1 293d 2e91 f4bd 2648 9dbe
00000150: 2112 2d3e 7324 b73d 1d7b 283e 9407 3cbf
00000160: 63c2 7ebf 7448 533e 6bc6 b0be 1246 7dbd
00000170: 2042 523e 4d4b 5ebe 4230 4bbd ffde 043f
00000180: 92bf 1b3e 85b1 93be dcae a5be b3c5 8cbe
00000190: e895 96be ed96 043e 1eee a43e c0bd c4be
000001a0: 221b 52bf 50f8 82bb f6c8 52bf 77eb 453d
000001b0: 1bba 97be 5b9d 01be 56ca 683e 7f62 6bbe
000001c0: 2202 a1be 400f 133e f5dd d43e eeb8 f63e
000001d0: a382 ad3b 2259 5fbf 9e98 9abd 5818 81be
000001e0: 3342 e83e 6645 92bd 6243 1fbe bde5 44be
000001f0: 5b14 573f 51c7 8ebc e01d 17be 561d 69be
00000200: ccb6 2bbe 04d1 b2bd d6a9 b1bd 42a9 11bf
00000210: 4d0b debd a480 893e d66d 2c3f 736a 4e3d
00000220: c61b ccbe 485f 8c3e 6e9a 043e dd40 35bf
00000230: 26d9 bdbd 821f eebe b283 633e 94ff 773c
00000240: 6033 b53e 3dde 253e bdda 7d3e fb46 1cbf
00000250: ab96 b7be fa29 96bd a81a dcbc eb4c 3d3e
00000260: a12d 0a3f aad1 9b3c 982e f33e c6db 5b3e
00000270: 06c7 2c3e 6779 d13b a64e c63e 126f 843c
00000280: ee0d a13d 7e50 f13a 52ea 883e ebbe 2abf
00000290: da76 433d 85e9 82bd 33ca b93e af06 f13e
000002a0: b831 8bbe 8b39 323d 5e9e 923e cef0 96be
000002b0: e783 9b3e ab64 353e 5d2c cc3d dd81 8e3e
000002c0: 888a 89be 0d95 e0bc dab3 83bd 5e07 8abd
000002d0: 34a7 b4be 6cce a83e ae0c 92bd 7aa4 9dbe
000002e0: a87b 02be 5845 5fbe 66b8 023e 49c5 7abe
000002f0: f717 a6bd 2828 30bc fb8a 913d f271 e9be
00000300: f2e0 d93e 1623 943b be00 6a3d c676 f53d
00000310: da1a a1bd 1ab2 573f 4fb0 c83e 4ade b7be
00000320: ecc6 2f3e 5441 8fbe 6af5 4c3d d769 88bd
00000330: 2ebf 13be f10f b4be bcc6 1fbe a876 f63d
00000340: fe1f a2be 62f6 913e 250d ed3d 3ddf 4a3e
00000350: 0744 013e 03cf 293e 221c 273f 0435 c83e
00000360: d4b8 a3be 0bea df3e 8f9e 2cbd 7a6c e23d
00000370: 5893 18bd 29f5 c4be a34e 1cbe dc70 4fbe
00000380: 8c28 e4bd ca0c b1be a0c7 a9be 9041 ef3e
00000390: 6315 9ebe a20a f33e 4e08 203f e17a f6be
000003a0: b9a6 3bbe f45a 283e 8bd6 0cbe 7022 0f3d
000003b0: 0fda a93e 3602 e53d 7742 5e3e d00f 7b3d
000003c0: 3aed 6a3e cfa7 b8be 67e4 d3bd ca91 d33e
000003d0: 2140 99bd 99d0 37be f7ef d73e effe fe3e
000003e0: e573 70bd 4c94 06bf e97c da3d ca1d 25bf
000003f0: b7a9 61be 88d4 553e 5696 3dbf 2c17 9ebe
0.061582617 0.14057146 0.3376867 0.24912223 0.007126421 -0.49472517 0.350016 0.61353004
-0.44631055 0.11032727 0.20124693 0.09138429 0.017015312 0.30364388 -0.27318576 0.16157295
-0.22204016 0.35811839 0.35905752 -0.2423439 0.43567252 -0.38574806 -0.23710074 -0.05675055
-0.027536334 -0.05186781 -0.051505633 -0.2480418 -0.6251055 -0.47020677 -0.033363897 -0.31649712
0.39391774 0.13352357 -0.23403943 0.010524008 0.19177522 0.15960783 -0.10610596 0.4675999
-0.5142021 -0.05390242 -0.28417787 -0.47800666 0.0050376435 0.09847239 0.012254083 -0.08295196
0.1361139 -0.09867342 -0.2370929 0.51452917 -0.20293519 -0.53398925 -0.39546892 -0.19938354
0.323153 0.18929707 0.680189 0.050458245 0.6189831 -0.16611195 0.14943258 -0.037112843
-0.2023329 -0.062228017 -0.73893297 0.07787189 -0.20491962 0.56847805 -0.15538861 -0.03847785
0.4458998 -0.15070032 -0.46289647 -0.1490399 0.3549008 -0.34378985 -0.036328074 0.23490025
0.03548962 0.041413922 -0.11941753 -0.30719107 0.16901447 0.08942499 0.16453214 -0.73449063
-0.9951536 0.20633107 -0.3452638 -0.061834402 0.20533037 -0.21708412 -0.04960657 0.51902765
0.15209797 -0.28846374 -0.3235997 -0.27494583 -0.29411244 0.12948199 0.3221292 -0.38426018
-0.8207265 -0.0039968863 -0.8233789 0.04832026 -0.29634175 -0.12657683 0.22733435 -0.22986792
-0.3144694 0.14361286 0.4157559 0.48187965 0.005295114 -0.8724538 -0.07548641 -0.25213885
0.45363006 -0.07142143 -0.15553048 -0.19228263 0.84015435 -0.017429026 -0.1475749 -0.22765097
-0.1676895 -0.08731273 -0.08674972 -0.5689889 -0.10841999 0.26855958 0.67355096 0.050394487
-0.3986494 0.27416444 0.12949535 -0.708021 -0.092699334 -0.46508414 0.22218207 0.015136618
0.3539076 0.16198058 0.24790473 -0.6104581 -0.35857138 -0.07332225 -0.02686818 0.18486373
0.53975874 0.019020874 0.47496486 0.21470556 0.16872796 0.006392646 0.3873188 0.016166244
0.07863985 0.0018410829 0.26741272 -0.6669757 0.047720768 -0.063921966 0.36287078 0.47075412
-0.2718637 0.04351191 0.2863645 -0.29480594 0.3037407 0.17714183 0.09969399 0.27833453
-0.26863503 -0.027414823 -0.06430788 -0.067396864 -0.35283816 0.32969987 -0.07131325 -0.30789548
-0.12742484 -0.21803796 0.12765655 -0.24489321 -0.0811004 -0.0107517615 0.071065865 -0.45594746
0.42554432 0.004520784 0.057129614 0.11985545 -0.0786645 0.84256136 0.39197013 -0.3591178
0.17165726 -0.2797953 0.050038733 -0.06660812 -0.14428398 -0.35168412 -0.15603155 0.12034351
-0.31665033 0.28508288 0.11574773 0.19811721 0.12623607 0.16582875 0.652773 0.39102948
-0.3197695 0.43733248 -0.0421434 0.110558465 -0.037249893 -0.38468292 -0.15264373 -0.20257896
-0.11140546 -0.3458007 -0.33160114 0.46729708 -0.30875692 0.4746905 0.6251267 -0.48140624
-0.18325318 0.16440946 -0.13753717 0.03494495 0.33174178 0.11182062 0.21705042 0.061294377
0.22942057 -0.36065528 -0.10346299 0.41322166 -0.07482935 -0.17950667 0.42175266 0.49803874
-0.058704276 -0.52570033 0.10668356 -0.6449858 -0.22037397 0.20881855 -0.7405752 -0.30877054

bias f4 [18]
00000000: 1438 643d 05b2 6a3e 2506 5ebe 61c8 1abd
00000010: fb0a 5abc 1c35 8ebe 741d efbd cd77 993d
00000020: c831 313e d31b 63be 7de1 623e f5ad 55bd
00000030: 4fa0 2bbd 2270 d3bd 8d61 273e 05c3 f5bd
00000040: 77a6 39be ef8a 6c3e
0.055717543 0.22919472 -0.21682031 -0.037788752 -0.013308282 -0.27774894 -0.116755396 0.07493553
0.17304146 -0.22178583 0.2215633 -0.05216785 -0.04190093 -0.10324122 0.16345806 -0.12000088
-0.18129908 0.23099874

weight f4 [18]
00000000: ff95 9e3f c2dd 5f3f c1d8 863f 8213 843f
00000010: d8c2 763f 443c 833f ce3c 8c3f 7f27 8b3f
00000020: efb8 7e3f 18b8 5b3f 514f 943f 76d3 8f3f
00000030: 40a1 8e3f ba51 903f 533f 803f d979 943f
00000040: 250b 8a3f d6bd 3c3f
1.2389525 0.8744775 1.0534898 1.0318453 0.9639106 1.0252767 1.0956056 1.0871428
0.99500936 0.8582778 1.1586705 1.1236408 1.114296 1.1274941 1.0019325 1.1599685
1.0784651 0.73727167

bias f4 [18]
00000000: e3c0 1e3d 6ef0 9f3e 7df5 46be 23c1 a5bd
00000010: 0436 5abd db25 00be dbf0 c8bd 3f54 97bc
00000020: c09c e7bd b536 4e3e 0347 1abe 9cf7 60be
00000030: dee4 d1bd 887f afbc 11a4 943e 735b 293e
00000040: 5821 1d3e 1cba 2b3e
0.03875817 0.3123812 -0.19429584 -0.080934785 -0.05327417 -0.1251444 -0.098115645 -0.018472789
-0.113091946 0.20138057 -0.15066151 -0.21969455 -0.10248731 -0.021423116 0.29031423 0.16538791
0.15344751 0.16770214

weight f4 [64, 18]
00000000: 06a7 2f3f cadb 6e3a b245 debe 25ab 84bd
00000010: 7ab8 c63d f416 a8bb bc8e ba3e de0c 803e
00000020: 8c6e 52be 1d8c 973b cfd2 863e afd2 14bf
00000030: 6bfd edbd c92b 8d3e ee30 073e e20a 1e3d
00000040: 1827 1f3e 8f29 0ebd 287b dbbd 099f 21be
00000050: c85e b5bb 34be 6cbe 33bb 123f 75e9 383f
00000060: d517 4dbc f6de a0bd c5fb 28bc f6b6 283e
00000070: b391 5bbe eaae 26bd 0ef7 4bbe a4d7 2e3e
00000080: 557f 103e 4696 df3e 5fda a8be 258f ca3d
00000090: 8e1e a7bd 2d2e bcbd 1aad 993e 478d ffbe
000000a0: 60a4 1dbe ecff 0ebf 8e23 26be 4f73 3f3e
000000b0: 399f a13e 478c 81bc a6db 3a3e 67d4 823e
000000c0: 7f9b 7dbe 7e41 1cbe 575c ee3e 832f e53e
000000d0: 000f 093e 8ebb f5bd 3013 d93e ddbd 0d3e
000000e0: ad5f a8bd b4af 033e f9cc cb3e 2c19 5bbe
000000f0: 5aea ecbe 0c0b f43c 2096 563e 8900 ee3d
00000100: 5f64 9d3e d4a4 b73e b957 92be faae afbe
00000110: b86a 06be c104 b83d 117b 0abe f698 b43d
00000120: 4ba9 9c3e caf5 e4bd 3520 16bf 0ecd d4bd
00000130: 2614 6cbe a2b1 ad3e 64f2 4fbe 265e 0e3e
00000140: d769 0bbc d1d2 86be df53 1b3f ccf7 c2be
00000150: d399 45be 9e5a ad3b 21ae 133d 83de a53e
00000160: 2d4f 13bf 4a46 5a3e a974 0ebe ba5b babe
00000170: 7328 273e 9f0d 3bbe 2ce2 cdbe b635 583e
00000180: 9299 6ebe a15c 31be d5ef a73e dd36 463f
00000190: 12fa 663e 9273 9ebe d908 aa3b 6324 f5bc
000001a0: 54f7 24be 3dcb 723e db6a 613e a61d ce3e
000001b0: c691 2c3e 7b98 aa3e 0cc6 5dbe 0856 14bf
000001c0: feeb c4be 5e8f d5be 2e2a 153d f967 533d
000001d0: 9db8 7fbe 0072 1b3e 80fd d93c dfdc 22be
000001e0: 6010 98be 1c40 603e 9b14 423f 6913 0f3e
000001f0: 783f cc3e e8f5 f8bc 62d9 493e f25f bbbd
00000200: e1d5 3f3d a467 a0be 59fa 38bf 6227 ff3c
00000210: 0c92 75be 5310 203f 330b 363d f0dd b73e
00000220: 419e 21be 562f 483e b347 70be e876 8abd
00000230: 4181 88be f2dc da3d f9b7 b5bd d3a0 82bd
00000240: 0d4a 243f e77c 30be 8a01 cebe caaa 8fbe
00000250: 2a84 803e aac0 82be 5788 33be 7fd8 e33c
00000260: a3f4 713e aa1e 183c 73b9 00bc 6808 21bf
00000270: d566 733e 5945 a5bc 9e45 ac3e eb42 753d
00000280: a2bc 07bf 1abf 12be ea15 b9be b818 9a3e
00000290: 6db9 4f3e 481e d0bc 4fcd 02bf 9739 d43c
000002a0: 0689 49be d442 22be 28fd e4be 5669 1cbe
000002b0: 5f45 a53e 7069 9c3e 62a8 033f 6dfa 8b3e
000002c0: 8d92 303e befb 1c3e 0d73 2d3e 5240 b9bd
000002d0: 004d c7be 4c34 913e 9712 01bf 5da5 8ebe
000002e0: ad22 133d e824 1bbe 0821 923d 36df 5dbe
000002f0: fc36 9abe edb2 51bc 6011 a03e 12f5 38be
00000300: 9574 13be 5c98 873d 0a1b 383f 22c9 a33e
00000310: 3599 043f b8b1 b5bc a373 8cbe 3c9c 8a3d
00000320: fdb9 a9be 969a 2c3e b319 04bf 99e9 8c3d
00000330: 1e14 bfbb 90a6 293e e829 cd3c 4d46 5c3d
00000340: 7c5e f13e d22b 8c3e 6ed4 0e3f 5825 7f3d
00000350: 6735 62be 66a0 d33c 5781 06be 16f0 22bd
00000360: f475 c13e b691 233c 5b9e efbd 2022 1abd
00000370: fc79 39bd 4485 07be 577e 98bc badd f73e
00000380: dce7 a33e 3dec 863e d13c eabe a965 1fbe
00000390: 1260 3dbe 3569 853e 05dc 643c a3f7 a23c
000003a0: cbcb 153e 2901 a53d dc86 0a3e d68a c53e
000003b0: 6d78 47bc 0fc6 78be 2881 a6be 9c11 b3be
000003c0: fb3c 2cbe 1a7e 893e c53e 38be acc5 523e
000003d0: 1f20 d83d 4267 c4be 022b 943e 7601 22be
000003e0: dd6f b1bd fc9d 333e f434 903b 7e2b a7bd
000003f0: 290b 1e3d 6407 e73e 1461 84bc a7f7 c43d
0.6861423 0.00091117306 -0.43412548 -0.06477956 0.09703155 -0.0051296894 0.36437023 0.25009817
-0.20549983 0.004624857 0.2633271 -0.5813398 -0.11620601 0.27572468 0.13202259 0.038584597
0.15542257 -0.034707602 -0.107168496 -0.15783323 -0.0055349804 -0.23119432 0.57316893 0.7223123
-0.012517889 -0.078550264 -0.010313933 0.16476044 -0.21442299 -0.040694155 -0.19918463 0.17074448
0.14111073 0.43669337 -0.32979104 0.09890584 -0.08160125 -0.09188495 0.3001488 -0.49912474
-0.15394735 -0.55859256 -0.162245 0.1869633 0.3156679 -0.01581396 0.18247852 0.25552675
-0.24766348 -0.15259358 0.46554825 0.4476281 0.13384628 -0.11998664 0.4239745 0.13841958
-0.08221374 0.12859994 0.3980482 -0.21396321 -0.46272546 0.029790424 0.20955706 0.11621196
0.3074064 0.3586794 -0.28582552 -0.34313184 -0.13126647 0.08985282 -0.13523509 0.088182375
0.3059791 -0.11179693 -0.58642894 -0.103906736 -0.23054561 0.33924586 -0.20307308 0.13903102
-0.008509121 -0.26332715 0.6067485 -0.3807968 -0.1929696 0.0052903434 0.036054734 0.32396325
-0.5754269 0.21315876 -0.1391169 -0.36398107 0.16324024 -0.18266915 -0.40211618 0.21114239
-0.2330077 -0.17320491 0.32800165 0.77427465 0.22556332 -0.30947548 0.005189043 -0.029924577
-0.16109973 0.23710342 0.22013418 0.40256995 0.16852483 0.33319458 -0.2165758 -0.57943773
-0.38461298 -0.41710943 0.03641718 0.051612828 -0.24972768 0.15180206 0.026610136 -0.15904568
-0.29699993 0.21899456 0.7581269 0.13972248 0.39892173 -0.030390695 0.19711831 -0.091491595
0.04683483 -0.31329072 -0.72257 0.031146709 -0.23981494 0.6252491 0.044444274 0.35911512
-0.15783025 0.19549307 -0.23464851 -0.06760961 -0.26661113 0.10686673 -0.088729806 -0.06378331
0.6417549 -0.17235146 -0.4023555 -0.2805999 0.25100833 -0.25537616 -0.17532478 0.027813194
0.23628478 0.009284655 -0.007856715 -0.6290345 0.23769696 -0.02017467 0.33646864 0.05987827
-0.53022206 -0.14330712 -0.36149532 0.30096984 0.20285578 -0.025405064 -0.51094526 0.025906367
-0.19681177 -0.15845805 -0.44724393 -0.15274557 0.32279488 0.30549192 0.51428807 0.27339497
0.17243405 0.15330407 0.1693842 -0.09045471 -0.38925934 0.28360212 -0.5041899 -0.27860537
0.03592174 -0.15150797 0.071352065 -0.2166718 -0.30120075 -0.012799007 0.31263256 -0.18062237
-0.14399941 0.06620857 0.7191626 0.3198939 0.51796275 -0.02217947 -0.27431974 0.067680806
-0.3314971 0.16855845 -0.51601714 0.06880493 -0.0058312556 0.16567445 0.025044397 0.05377798
0.47142398 0.27377182 0.5579289 0.062291473 -0.22090684 0.02583332 -0.13135277 -0.039779745
0.37785304 0.009983471 -0.11700126 -0.0376302 -0.04528235 -0.1323443 -0.018614931 0.4841135
0.32012832 0.2635211 -0.45749524 -0.15566124 -0.18493679 0.2605683 0.013968472 0.019893473
0.14628522 0.08056862 0.13528007 0.38582486 -0.012174708 -0.24294303 -0.32520413 -0.34974372
-0.16820137 0.2685402 -0.17992695 0.20583218 0.105530016 -0.3836003 0.28939062 -0.1582087
-0.08663914 0.17540735 0.0044008438 -0.08162592 0.038584862 0.45122826 -0.016159572 0.096175484

bias f4 [64]
00000000: 1e70 7abe 72c0 ddbd d749 69be 5b62 31be
00000010: baaf a2be 4c4a 4fbe 181b bcbe a889 dfbe
00000020: 3117 b8be 028a 04be 9743 3abe d73c 8ebe
00000030: d070 2b3d 94c1 1dbe dcf6 153d f5cf f9bc
00000040: 84a5 a0be e6a1 82be 739c c53d 1353 a2be
00000050: 1637 e63d e811 4bbe 24d6 9bbe 24e2 c3be
00000060: 3dd4 9ebe 75ad d23d 7dbe dabd 2f18 023b
00000070: 20d7 883d 1313 263e 09a5 8bbe 2000 ecbe
00000080: c20c 7a3d 809b babd 9aca 86be 05d5 1a3d
00000090: a8f8 81be d1d0 c2be aaec 46bd 012f debc
000000a0: 1436 68be 95ac 85bd de91 b23d 8053 33be
000000b0: 6004 0f3e 1f14 cb3d 5952 bcbd 2b7b 53be
000000c0: 4554 c53d 4c13 59bd 54e9 97be d174 48be
000000d0: a53b 83bd 4573 a6be 40ec 3abe bb6d 56be
000000e0: 6fbb 3bbe e87c 75be cfa0 abbe 6a7f f3bd
000000f0: 349e e4bd bb40 90bd 4230 a0be 13d7 f5bc
-0.24456832 -0.10827722 -0.22782074 -0.17322676 -0.31774694 -0.20243186 -0.3673942 -0.4365971
-0.35955194 -0.12943271 -0.18189846 -0.27780792 0.041855633 -0.15405875 0.036612377 -0.03049467
-0.31376278 -0.25514144 0.09648981 -0.31704006 0.112409756 -0.1983105 -0.30436814 -0.3825847
-0.310213 0.102869906 -0.10680864 0.001985084 0.06681657 0.16218214 -0.2727435 -0.46093845
0.061047323 -0.091116905 -0.26326448 0.037800808 -0.25385022 -0.3804994 -0.048565544 -0.027122023
-0.22676879 -0.06527058 0.08719228 -0.17512321 0.13966513 0.09915947 -0.09195394 -0.20652454
0.09635214 -0.05299692 -0.29670203 -0.19575812 -0.06407861 -0.3250982 -0.18254185 -0.20940296
-0.18333219 -0.23973429 -0.33521125 -0.11889537 -0.11162987 -0.07043596 -0.31286818 -0.030009782

weight f4 [18, 64]
00000000: 044a e83b d78e 253e 97aa febd 322d 193e
00000010: 3fb2 6f3d 10d5 98be 5a00 b93e 2e76 06bf
00000020: 39ef 313e 8170 503d bc79 5a3d 5387 283e
00000030: 9373 03be df85 483e 7a47 d33d 4a3d cf3d
00000040: 666a 333e 7570 113b 7a4c 6c3d 7c1b a9be
00000050: 84e2 6cbe c60b 10be d3c5 063f 8015 cc3e
00000060: 3386 86bd d122 fb3e 4410 583e c451 fb3d
00000070: c462 1bbd 1407 8cbe 91d2 c9bc 18d4 14be
00000080: 851b cc3e 4bfb 60be 2477 47bd 4a4b 4abe
00000090: e685 a23e 189c aebe a5af 533e a0c5 3abd
000000a0: 923f d1bd 3442 95bb 7a1c 9cbd 4c5c 70be
000000b0: 2b5f 983e d5ba 093e e6a9 a13e 9a4d 0abe
000000c0: 05b5 0dbe 6973 09bd 693b a33c 8a69 353e
000000d0: d46e 62be a812 afbe ebb9 fc3d c3b6 df3d
000000e0: 3f44 7abe d3a8 22bd d1f4 f0be 6c22 2c3e
000000f0: fa7b bd3e a4de e63e 2191 e83e cd76 473e
00000100: e440 263d f60f b1bd b669 b8bd 6aa1 a13e
00000110: 1d15 cfbe 50d7 fdbe f44c db3d 2c03 953d
00000120: 0b0d f83e e9fe 443e 4c01 a83d cef2 333e
00000130: ca48 533d 55a4 54bd f864 48be 20f1 f8be
00000140: 5171 02be 4bf6 39be 0a7b 26bc 69bc 5e3d
00000150: 42f0 ff3c 28e7 7abe c776 a4bd cd35 2abf
00000160: ef8c ff3e 636e d9be 52db 9fbc d4af e43d
00000170: f00a 513f 96e2 723d db52 9bbd d71a cf3b
00000180: 5208 05be 4a06 a7bd e2dd ce3d c813 f2be
00000190: b62f 2f3d dda4 313e 4b8b 24be 4237 0a3e
000001a0: 49c4 533e 6837 2f3f 3556 133e 5da5 033f
000001b0: e030 bcbd daf5 a43d 293a 73be b135 d93e
000001c0: 226c cd3e 36e1 723e dc38 74be 6801 3b3e
000001d0: 5933 3ebe 515d 8b3e a803 86be ecd1 a53d
000001e0: 6ea1 ee3e 741d 3dbe 4e4c e63d 492b b3bd
000001f0: 322c 46be 106f a63e 049b 8f3d 134e 1ebe
00000200: a60b 77be 3673 233d d3b4 113e 5c2d 0b3e
00000210: 1cb0 15bf 0e5a 02bf 7f65 913e 8eb4 72be
00000220: 5f74 083e 4941 2ebe 5831 ea3e c986 b9be
00000230: 6ee9 273e 8e73 8d3d 88ed eb3d 1bb2 44be
00000240: 4f51 693e bc0f debe 458b a2bd b2ce ffbe
00000250: 1c18 853d 458d 68be 6e07 753e 5d06 17bf
00000260: 4e0f 973d 14e7 9f3d 8389 76be 8a15 37bd
00000270: e369 e33d 06de 613e 7625 8b3d 93bc debd
00000280: c653 783e ccf0 3d3b 88d0 923d 1ad1 e3bd
00000290: d812 b1bd 955e 99be 0b37 dbbe 17ae e8bd
000002a0: d6a2 aa3e a14d d9be ca43 9c3d 72b3 a63d
000002b0: bfaf 3cbe 9044 0bbe 2cbd dcbe 912e 9d3e
000002c0: 4fe8 5d3e 8ea6 85be d097 0f3e 87f6 c43e
000002d0: f522 c3bb 0d81 8cbe 5cd5 bf3e 1acb babd
000002e0: 4be2 1ebd 47ad 7abe 300a adb9 e39b 0cbe
000002f0: e998 b3be a163 84bd e5e6 ef3e d577 9d3e
00000300: f20c 71be ed8e 133f 78a6 593d 4c7e 58be
00000310: cac1 573e f028 293e 3708 66be c375 1cbe
00000320: c023 86be 99cc cdbe e710 0abf b38d 0cbe
00000330: f5b0 c13c 9360 52be 3473 c9bc 639b bb3d
00000340: 9be6 9a3c ddaf 083f c03f c4be 8d9c 1a3e
00000350: 34ba 56be a087 f8bd da3e 1b3e fa62 b1be
00000360: 57d8 cfbe 973b 373e eb22 97be b3a0 8f3d
00000370: 7f1a 263d e379 d23c ec8c cabc 6e52 f33c
00000380: c877 083e 1175 56bd 3073 33bd a8e5 893e
00000390: fd80 3ebd 1adb 673e 1591 9b3e f7a4 5cbd
000003a0: 92b7 8fbe 9039 9bbe c0ad 933e 48d0 9fbe
000003b0: dbbe f6be 092f 14be 90b6 e43d d3dd 893d
000003c0: af31 663d dc79 66bb e00b 743e 1578 74be
000003d0: 05b0 ea3b 6456 33be 39b5 0c3d 8d36 d9bd
000003e0: a3cd bc3e 9635 c43e fda3 febd c311 1bbf
000003f0: 388f a4bc 4803 1bbf f8a9 90be 983d 8fbd
0.0070889015 0.1616777 -0.12434881 0.14958647 0.058519598 -0.29850054 0.3613308 -0.5252408
0.17376412 0.050888542 0.05333875 0.16457872 -0.12837057 0.19582318 0.103163674 0.10119112
0.17521057 0.0022192274 0.05769012 -0.3302878 -0.23133284 -0.14066991 0.52645606 0.39860153
-0.06568565 0.4905 0.21099955 0.12271455 -0.037935987 -0.2734915 -0.024636539 -0.14534032
0.39864746 -0.2197086 -0.048697606 -0.19755283 0.3174278 -0.34103465 0.20672472 -0.045598626
-0.10217203 -0.004555011 -0.07622619 -0.23472708 0.29760107 0.13450177 0.31574935 -0.13506165
-0.13838585 -0.03355733 0.01992579 0.17716041 -0.2211259 -0.3419392 0.123401485 0.10923531
-0.24440096 -0.039711785 -0.4706178 0.16810006 0.3700865 0.45091736 0.45423225 0.19478913
0.04058923 -0.086456224 -0.09004538 0.31568462 -0.40445796 -0.49578333 0.10708037 0.072759956
0.4844745 0.19237866 0.08203372 0.17573091 0.05158309 -0.05191453 -0.19569767 -0.48621464
-0.1273854 -0.1816036 -0.010161171 0.0543789 0.031242494 -0.24502242 -0.080304675 -0.66488343
0.4991221 -0.4246703 -0.01951376 0.11166349 0.81657314 0.05929812 -0.07584163 0.006320338
-0.12991455 -0.081554964 0.101009145 -0.47280717 0.04277011 0.17348047 -0.16068761 0.13497642
0.20680346 0.6844392 0.14388354 0.514242 -0.0918901 0.08054705 -0.23752655 0.42423776
0.4012156 0.23718724 -0.23849815 0.18262255 -0.18574275 0.27219632 -0.26174664 0.0809668
0.46607536 -0.18468267 0.11245023 -0.0874849 -0.19352797 0.3250661 0.07011989 -0.1545947
-0.24125537 0.039904796 0.14229135 0.13591522 -0.58471847 -0.5091866 0.28397748 -0.23701689
0.13325642 -0.17017092 0.4574077 -0.36235645 0.1639764 0.06906806 0.11519915 -0.19208567
0.22784923 -0.4337138 -0.0793672 -0.49962384 0.06498739 -0.2271014 0.23928615 -0.58994085
0.07375966 0.078077465 -0.24075894 -0.044698276 0.11104181 0.22057351 0.067942545 -0.108758114
0.24250707 0.0028982637 0.071686804 -0.11123867 -0.08646172 -0.29954973 -0.42815432 -0.1136133
0.3332736 -0.4244204 0.07630117 0.08139695 -0.18426417 -0.13600373 -0.43113077 0.3069959
0.2167065 -0.26103634 0.14022756 0.38469335 -0.005955095 -0.27442208 0.37467468 -0.0912077
-0.03879003 -0.24480163 -0.00033004722 -0.13731341 -0.350776 -0.06464315 0.46855846 0.30755487
-0.23540094 0.5763996 0.053137273 -0.21141928 0.21070018 0.16519523 -0.22464071 -0.15279298
-0.2619915 -0.40195158 -0.5393204 -0.13725929 0.02364395 -0.20544653 -0.024591066 0.09160497
0.01890879 0.53393346 -0.38329887 0.15098782 -0.20969468 -0.121352434 0.15160695 -0.34645826
-0.40594742 0.17893825 -0.29518828 0.07013073 0.040552612 0.025692886 -0.0247254 0.029702391
0.13326943 -0.052357737 -0.043811023 0.26933026 -0.04650973 0.22642174 0.30384126 -0.05386826
-0.2806974 -0.30317354 0.28843498 -0.31213593 -0.48192486 -0.14471067 0.111676335 0.06731763
0.056199726 -0.0035167849 0.23832655 -0.23873933 0.0071620964 -0.17513424 0.034352515 -0.10606108
0.36875638 0.38322133 -0.12433622 -0.6057398 -0.020087823 -0.6055188 -0.28254676 -0.0699417

bias f4 [18]
00000000: 9897 2ebd e823 9b3d a611 fcbc 909f 64bd
00000010: b8f5 8abe 3817 cebd cdb2 09be b5b2 8d3e
00000020: 2b8d 703e 9a80 46bd 9baf 893e b4e4 62be
00000030: 17a2 693e e3f4 973b 59a3 5bbd 1608 9b3d
00000040: 0d34 3ebc 09f4 0abe
-0.04262504 0.07575208 -0.030770134 -0.055816233 -0.27140594 -0.100630224 -0.13447113 0.27675405
0.23491351 -0.048462488 0.2689179 -0.22157556 0.22815739 0.004637347 -0.053622577 0.07569902
-0.01160909 -0.13569655

weight f4 [18]
00000000: 0de8 f73f f4e5 b33f 1536 f13f 9fa4 0640
00000010: cc8b cb3f 6e54 a43f 3ac0 e63f 327a b53f
00000020: 6e30 e53f c466 d13f 63fc ec3f 884c a93f
00000030: 48c2 ae3f 5936 f43f 28fa b53f 9a33 e73f
00000040: 740d ef3f 630d 0d40
1.9367691 1.4054551 1.884463 2.1037977 1.5902038 1.2838266 1.8027413 1.4177916
1.7905405 1.6359487 1.8514522 1.322648 1.365304 1.9079086 1.4216967 1.8062623
1.867598 2.203942

bias f4 [18]
00000000: d4ae 2f3d 17ad da3d 1a06 1ebd 085f 36bd
00000010: f02a e1bd 8c45 6fbb 34da 813d a043 ffbc
00000020: 04fd 9fbd d80f 1f3e bb82 19bc a2e2 313e
00000030: 4cad 16be 8cd7 c2bd e3aa 8bbd a460 593d
00000040: 481d 9f3d 4d18 04be
0.04289134 0.106775455 -0.038580038 -0.044524223 -0.10994518 -0.003650996 0.06340447 -0.031160176
-0.07811931 0.15533388 -0.0093695475 0.1737161 -0.14714545 -0.095137686 -0.068197034 0.05307068
0.07769257 -0.12899895

weight f4 [10, 18]
00000000: e64a b9be edb5 ecbe cb02 8f3e c4f6 1bbf
00000010: a370 f2be 0246 8dbd aaca f03d 453f fcbe
00000020: 1d17 d63e a706 fd3d 35c4 cabd 9e2a 883e
00000030: 21fe f33d 14a9 293f c49b 043e efd4 6f3f
00000040: 71fb 313f 715b 733e 1cda 6b3e a889 7e3d
00000050: c3da 1bbf 8f41 9bbe f66c 1a3f 7b79 893e
00000060: 87fe d83c 63d7 17bd cc65 aabe c94c 1dbf
00000070: 4835 a4bd e3ae e5be e29b 713e 2ed0 a43e
00000080: e6f2 c43e 5a5a a1be fa53 f9be 1f68 3b3f
00000090: 21f6 943e 9aad d23e 6ad1 2d3e 665e 62bf
000000a0: aa8e c33e 141f 9ebe 2c9e 82be 607b 053f
000000b0: a601 463f 9727 b53e 8e4e d33d 9bbd dabd
000000c0: fe50 07be 3b9c e9bd a026 f0be b21e b8be
000000d0: 00e0 88be 7559 8d3e 35bc a9be 3779 ae3e
000000e0: 124e 85be 9289 f8bd 2ae2 85be 5dd3 0e3e
000000f0: 9374 df3d bca5 cd3c c609 903e a914 8ebe
00000100: 73ec 2d3f 19d1 ad3e 7c67 ee3e de5e 42be
00000110: d3e5 81bc af57 cfbe 1f04 b9be fa35 16bf
00000120: f256 583e d5a6 cb3d 8fac 1cbf eb82 c93e
00000130: bbb4 5fbd b993 a43e e228 163f aa34 b23e
00000140: ff2f d2be 79ea 673e c04c 86be 5ae5 c3be
00000150: 4382 fabe b4ee 2abf fa0e fbbd 9244 063f
00000160: 6e7f df3e 3aa3 c13e 583f fdbe 6363 6b3e
00000170: 658f 2c3f a55b 933e ba23 01bf 6f63 283f
00000180: d034 123e a8c1 9ebe 64d1 76be 4141 583e
00000190: 7cb2 20bf e9d1 543d 1e5d 37be c261 ef3e
000001a0: 8e58 06be 9908 02bf 2305 babd fece e9be
000001b0: 881d 3ebf f015 9abe 2b52 ad3e ee7e 033f
000001c0: d0f5 d7be 9116 943e b9b2 1abf 8b42 1dbe
000001d0: 72f0 ac3e 64a5 9a3e d1bb 02bf 8ec6 4d3e
000001e0: 971f 84be ab1b 10be 9f7a f13e 00e4 293e
000001f0: 06f5 9bbe ae95 933f 8037 343f 3ef0 643e
00000200: d0dc 923e ffa5 42bf a0dc 6abd b4c6 2f3e
00000210: 80ec 323c a3b7 833e 423f e7be bd2e 96be
00000220: 1521 103f 9ed4 f3bd f0d5 b53e 6d52 22bf
00000230: d165 d33e 8e44 d6bd e08d 3a3f f3a6 d33c
00000240: 8934 153f ff9e b0be 56aa 9f3e 7b36 213f
00000250: b2bd 93bd ff2a d7bd 102c 21bf 908b e2be
00000260: 647c 8b3e c750 90bd e866 b83e 364e bf3d
00000270: 278a 3e3c c09c e33d 3ad3 fabe bacd 893d
00000280: db4c e7be e654 5ebe 997a 053f 877c 99be
00000290: 6c6a 34bf d90e 443e e740 ffbd 28ab ac3c
000002a0: 22a1 303f 3f53 0ebe 1988 5cbe c203 f03e
000002b0: 6d82 a93d 32a4 de3e 4bc4 76be 03b8 89be
000002c0: 397b 683e b3df 17be b071 e73e 3b2c 1abf
-0.36189955 -0.46232548 0.27931818 -0.6092341 -0.4735156 -0.068981186 0.11757405 -0.4926702
0.4181451 0.123547845 -0.09900705 0.26595014 0.119137056 0.6627362 0.12950045 0.93684286
0.69524294 0.23765351 0.23032421 0.062142998 -0.6088068 -0.30323455 0.6032251 0.26850495
0.026488556 -0.037070643 -0.3328079 -0.6144529 -0.08017975 -0.4485999 0.23594621 0.32190078
0.38466567 -0.31514245 -0.48696882 0.7320575 0.2909403 0.41148072 0.16974416 -0.8842529
0.38194782 -0.30883086 -0.255113 0.5214138 0.77346265 0.35381767 0.103177175 -0.106806956
-0.1321449 -0.11406752 -0.4690447 -0.3596092 -0.26733398 0.27607313 -0.33151403 0.34076855
-0.26036125 -0.121356145 -0.26149112 0.13947816 0.10910907 0.025103442 0.28132457 -0.27750137
0.6793892 0.3394859 0.46563327 -0.18981501 -0.015856659 -0.40496585 -0.36135957 -0.5867611
0.21126917 0.0994393 -0.61200804 0.39357695 -0.054615717 0.32143953 0.5865613 0.34805804
-0.41052243 0.22648038 -0.2623043 -0.3826092 -0.48927507 -0.6677048 -0.12258716 0.5244838
0.4365191 0.37819844 -0.4946239 0.22987132 0.674063 0.28780857 -0.5044514 0.65776724
0.14277959 -0.31007123 -0.24103314 0.21118642 -0.62772346 0.051958 -0.17906615 0.4675427
-0.13119718 -0.5079437 -0.09083011 -0.45665735 -0.7426381 -0.30094862 0.33851752 0.51365554
-0.42179728 0.28923467 -0.6042896 -0.15357415 0.33777195 0.30204308 -0.51067835 0.20095274
-0.2580535 -0.14073054 0.47163865 0.16590881 -0.30460376 1.1530054 0.70397186 0.2235727
0.28684092 -0.7603454 -0.05733931 0.17165643 0.010920644 0.2572604 -0.4516545 -0.29332533
0.5630048 -0.11905788 0.35514784 -0.6340702 0.41288617 -0.104622945 0.72872734 0.025836444
0.5828329 -0.34496304 0.31184644 0.62973756 -0.07213916 -0.10506248 -0.6295786 -0.44247103
0.2724334 -0.07046657 0.3601601 0.093410894 0.011629618 0.11113882 -0.48989278 0.06728692
-0.45175824 -0.21712074 0.52140194 -0.2997782 -0.70474887 0.19146289 -0.12463551 0.021077707
0.6899587 -0.13898943 -0.21536292 0.46877867 0.0827683 0.43484646 -0.24098317 -0.26898202
0.22703256 -0.14831428 0.45203924 -0.6022374

bias f4 [10]
00000000: 7702 c73c e728 a7be 3d08 09bd e8f2 acbd
00000010: 5230 933e f223 7f3e 84df 89be c8f7 41be
00000020: b685 bf3d d7d3 9e3c
0.024293168 -0.32648394 -0.033455122 -0.08444768 0.28747803 0.24916056 -0.2692834 -0.18942177
0.09351675 0.019388122
