Case_Study_1/trained_transformer/verification/vit_6_4_6_32.pt (torch, 45330 bytes, 52 tensors)

pos_embedding f4 [1, 50, 6]
0.3226019 -0.1515676 1.0072467 -0.7879662 1.1119499 -0.06379099 0.019290255 1.0910658
-1.1074247 0.99500424 0.8685918 -0.17684518 -0.6131557 -0.5227665 -1.0044217 0.5429179
-1.3097206 0.63406897 0.67864764 1.6210647 0.7064551 0.017939555 1.4213624 0.936647
0.33971366 0.24867795 0.8509278 0.8839083 -2.963453 -1.0862855 1.1116524 -1.1023325
-0.49630392 1.2430779 1.2576085 -1.9395409 -0.6496798 0.17764789 0.42205596 0.3023258
-0.40413558 0.23232411 -0.120511085 -0.7674322 0.37839526 0.30155948 1.1824055 0.9681395
1.7545434 -0.90553784 -0.41797107 -0.006136359 0.3746429 1.3267522 -2.315837 -0.38221645
1.0032443 -0.9806564 -0.45642403 2.6466367 1.1986024 1.7044885 -1.5069823 -0.58888304
-0.06227739 -0.87405294 -0.73252994 -0.0646376 -2.4284286 -1.0795062 -0.44902807 -2.132143
-0.5130247 0.40313104 -0.24193 0.5914534 0.44822806 0.13519633 -0.3470673 -0.25922227
0.37821096 0.55720294 -0.5179512 -1.253969 0.3168551 -0.97196186 -0.64752173 0.31903598
0.8311103 -0.5260435 1.5127684 -0.7124329 -0.36480972 -0.7143019 2.117207 -1.7075042
0.6095802 -1.7265148 0.41606015 0.571134 -0.18647462 1.0196179 -0.112514675 -0.2971755
-1.0704778 0.23291273 3.005039 -0.21047485 -1.2227805 -2.2526655 2.0497901 -1.7972137
1.7563895 0.21153305 -0.9999293 -1.0554644 1.9721768 -0.57538176 0.988023 1.4578627
0.4703608 0.7363941 -0.092134275 -0.42667127 1.5806307 0.42610756 1.3697361 1.0711484
0.26587874 -0.38543883 1.3572059 1.1208397 1.1084924 -0.8298604 -0.08189397 -0.5242781
1.5004767 0.75674295 -1.393074 -0.08926388 1.5710328 1.2366269 0.9159423 -1.2532659
2.9713938 0.46337503 0.161529 -1.7733794 0.062063497 -0.11931113 -0.23908707 0.6441618
-0.81287825 -1.5267324 -0.19129133 2.7601838 -1.531969 1.2125413 1.0710214 0.76352197
3.7881126 -2.9056802 -0.9741466 0.47176933 1.678271 0.46783048 1.5809997 -0.96281004
1.504365 -0.6146898 -0.46537578 0.68483084 0.508964 -1.6051503 0.9572118 1.1787311
-0.5643992 -0.4704107 -1.3566996 -0.024948306 -0.03975203 -1.457464 -1.6534569 -0.39354926
-1.4208841 0.092995666 0.58093196 1.502663 1.3717391 -0.62732774 0.76600116 -1.8533305
1.9960382 1.5544215 3.32606 -0.45459095 -0.32403463 -0.44465762 -2.517927 -0.4335088
1.6769017 1.6427912 1.1960614 0.3706299 -1.4278594 0.021358438 0.70937985 0.078643546
-0.538755 -0.4929784 -0.18710972 0.60286033 1.440357 0.10758874 -0.45425326 -0.2394852
-0.79273003 -0.88673806 -1.426822 0.25766823 -0.9070264 -0.38102394 0.29970422 2.5819936
-0.77341205 -0.095115066 0.3654938 -1.6384227 -0.8706705 -1.2015868 -1.2234992 0.74974024
-0.062462755 -0.22310312 -0.43166256 0.75520355 -0.38472515 1.019951 -0.44723585 -1.0978695
0.58346695 0.98964006 -0.40408632 0.3189922 -0.92262053 -0.4598452 -0.30643916 -1.3274894
-0.27411738 0.27522698 1.044199 1.9311873 -0.27203444 0.019015884 -0.4592578 -0.4370509
00000000: 142c a53e 8934 1bbe 76ed 803f 27b8 49bf
00000010: 6054 8e3f daa4 82bd 9906 9e3c 0ba8 8b3f
00000020: 18c0 8dbf 99b8 7e3f 085c 5e3f e716 35be
00000030: c6f7 1cbf 06d4 05bf e490 80bf abfc 0a3f
00000040: eda4 a7bf 5852 223f dabb 2d3f 0c7f cf3f
00000050: 3eda 343f f9f5 923c 34ef b53f 19c8 6f3f
00000060: f3ee ad3e 6fa5 7e3e 68d6 593f d047 623f
00000070: 37a9 3dc0 670b 8bbf a04a 8e3f 3b19 8dbf
00000080: 8c1b febe 2d1d 9f3f 51f9 a03f e042 f8bf
00000090: 6a51 26bf 54e9 353e b817 d83e 72ca 9a3e
000000a0: dcea cebe 5fe6 6d3e 84ce f6bd 7076 44bf
000000b0: 06bd c13e 0166 9a3e 1059 973f fed7 773f
000000c0: e194 e03f 54d1 67bf 4e00 d6be 8313 c9bb
000000d0: 32d1 bf3e 04d3 a93f ac36 14c0 e0b1 c3be
000000e0: 4f6a 803f 4c0c 7bbf 69b0 e9be 7f62 2940
000000f0: ce6b 993f ae2c da3f cce4 c0bf 0ac1 16bf
00000100: 9416 7fbd efc1 5fbf 1587 3bbf b860 84bd
00000110: 606b 1bc0 422d 8abf 02e7 e5be 0875 08c0
00000120: 9655 03bf 3167 ce3e 7fbc 77be 7d69 173f
00000130: 267e e53e e870 0a3e ceb2 b1be c8b8 84be
00000140: dea4 c13e daa4 0e3f 7398 04bf 0e82 a0bf
00000150: d53a a23e 7ed2 78bf fcc3 25bf af58 a33e
00000160: a5c3 543f c9aa 06bf 65a2 c13f 0162 36bf
00000170: 57c8 babe 7ddc 36bf 5280 0740 7f8f dabf
00000180: 730d 1c3f 70fe dcbf d605 d53e d635 123f
00000190: 34f3 3ebe d782 823f 186e e6bd 6327 98be
000001a0: 6b05 89bf ad80 6e3e 8f52 4040 b886 57be
000001b0: 1284 9cbf ac2b 10c0 c32f 0340 190b e6bf
000001c0: 5fd1 e03f 1f9c 583e 5efb 7fbf 7519 87bf
000001d0: 4a70 fc3f 384c 13bf 13ef 7c3f 3f9b ba3f
000001e0: 21d3 f03e 5384 3c3f e5b0 bcbd a874 dabe
000001f0: 1b52 ca3f c52a da3e 8353 af3f 641b 893f
00000200: 4221 883e 3d58 c5be ecb8 ad3f ad77 8f3f
00000210: 14e3 8d3f bb71 54bf 07b8 a7bd 1737 06bf
00000220: 9f0f c03f e8b9 413f 4050 b2bf fbcf b6bd
00000230: 9a17 c93f ca49 9e3f 327b 6a3f 046b a0bf
00000240: 512b 3e40 7e3f ed3e dc67 253e 19fe e2bf
00000250: 4b36 7e3d 6559 f4bd 3ed3 74be cae7 243f
00000260: ca18 50bf f86b c3bf e0e1 43be daa6 3040
00000270: 8f17 c4bf 8e34 9b3f 3b17 893f 2d76 433f
00000280: 7070 7240 aaf6 39c0 ac61 79bf c08b f13e
00000290: 96d1 d63f 7a87 ef3e 335e ca3f b87a 76bf
000002a0: 088f c03f 505c 1dbf bc45 eebe 1351 2f3f
000002b0: 774b 023f 9175 cdbf d50b 753f a9e0 963f
000002c0: 777c 10bf acd9 f0be 55a8 adbf 6460 ccbc
000002d0: 06d3 22bd 2e8e babf 7aa4 d3bf 4a7f c9be
000002e0: 88df b5bf 8374 be3d f5b7 143f 4357 c03f
000002f0: 2695 af3f 8d98 20bf a718 443f ef39 edbf
00000300: 2e7e ff3f 49f7 c63f 2bde 5440 25c0 e8be
00000310: dee7 a5be 2aaa e3be b725 21c0 def4 ddbe
00000320: b7a4 d63f fb46 d23f 8a18 993f 34c3 bd3e
00000330: 19c4 b6bf e4f7 ae3c eb99 353f de0f a13d
00000340: d9eb 09bf aa67 fcbe b199 3fbe 0e55 1a3f
00000350: 9e5d b83f 7c57 dc3d e293 e8be 9c3b 75be
00000360: 5bf0 4abf 4401 63bf 1aa2 b6bf 17ed 833e
00000370: e232 68bf 9215 c3be d572 993e 623f 2540
00000380: 55fe 45bf b0cb c2bd 0122 bb3e d6b7 d1bf
00000390: 43e4 5ebf 99cd 99bf 9f9b 9cbf faee 3f3f
000003a0: f2d8 7fbd 2575 64be e002 ddbe 0555 413f
000003b0: b2fa c4be c18d 823f 19fc e4be fd86 8cbf
000003c0: 175e 153f 0d59 7d3f 67e4 cebe f252 a33e
000003d0: dc30 6cbf d470 ebbe 98e5 9cbe 2ceb a9bf
000003e0: 1d59 8cbe 8dea 8c3e 50a8 853f 2531 f73f
000003f0: 1948 8bbe 33c7 9b3c d723 ebbe 23c5 dfbe

cls_token f4 [1, 1, 6]
1.5205163 -0.5680127 -1.159975 1.5460194 -0.21773592 -0.13401465
00000000: 47a0 c23f 4869 11bf 107a 94bf f7e3 c53f
00000010: 2af6 5ebe 233b 09be

weight f4 [6, 16]
0.17568466 0.13610162 0.14439653 0.20938158 -0.08080537 0.20185092 0.22245768 0.2833385
-0.05738149 0.065468945 0.1899285 0.26601958 -0.090947494 0.30323368 0.25411397 0.5126373
-0.3454627 -0.08325749 -0.07808388 0.030496893 -0.20664172 -0.15943375 -0.18036564 -0.12661532
0.14130366 -0.35854194 -0.08570716 0.095716156 0.17331408 -0.057978887 -0.049258 -0.07358827
0.6144947 0.3900032 0.13448624 -0.015365457 0.19358256 0.3033177 -0.033758227 -0.16528967
0.5070316 -0.23239158 -0.048185743 -0.12665148 0.8050819 0.16868897 0.033697177 -0.38496032
0.060968596 0.23082122 0.20187469 0.24088576 0.050223198 0.13645 0.035683636 0.17131765
0.2301966 0.036957074 0.06294133 0.0619898 0.090338364 0.06961077 0.00031428324 0.057509076
-0.12897351 -0.014819876 -0.25528893 -0.16170274 -0.09901883 -0.10127276 -0.034862783 -0.13357139
-0.25623176 -0.21568231 -0.029548354 0.0033394217 -0.53615683 -0.11463967 -0.31305167 0.09028588
-0.3802012 0.0032355152 0.025858024 0.17824274 -0.110802665 -0.12527557 0.03362258 -0.02466307
-0.043382503 0.09548597 0.12617584 0.04574559 -0.05609405 0.15707122 0.058002915 -0.21570472
00000000: aee6 333e 395e 0b3e afdc 133e 2068 563e
00000010: 497d a5bd 02b2 4e3e f2cb 633e be11 913e
00000020: da08 6bbd 9514 863d 9e7c 423e b833 883e
00000030: ae42 babd 7241 9b3e 3a1b 823e 333c 033f
00000040: 7de0 b0be e782 aabd 71ea 9fbd 9fd4 f93c
00000050: e399 53be 9a42 23be c5b1 38be 72a7 01be
00000060: e8b1 103e cf92 b7be 3c87 afbd d506 c43d
00000070: 3f79 313e 457b 6dbd c2c2 49bd 72b5 96bd
00000080: 864f 1d3f 80ae c73e c3b6 093e 66bf 7bbc
00000090: 823a 463e 754c 9b3e 1146 0abd b241 29be
000000a0: d3cc 013f 0ff8 6dbe 6a5e 45bd edb0 01be
000000b0: d919 4e3f cdbc 2c3e 0d06 0a3d 8519 c5be
000000c0: 35ba 793d 665c 6c3e 3db8 4e3e c2aa 763e
000000d0: d7b6 4d3d 8cb9 0b3e 0129 123d e56d 2f3e
000000e0: a8b8 6b3e 4d60 173d 62e7 803d 04e9 7d3d
000000f0: 5203 b93d 1790 8e3d 62c6 a439 a38e 6b3d
00000100: a211 04be 11cf 72bc 3bb5 82be 6795 25be
00000110: 62ca cabd 1868 cfbd 47cc 0ebd f0c6 08be
00000120: cf30 83be d3db 5cbe 640f f2bc 33da 5a3b
00000130: 9341 09bf 34c8 eabd 4f48 a0be cee7 b83d
00000140: bba9 c2be f00a 543b 35d4 d33c 4485 363e
00000150: 82ec e2bd 3d48 00be d5b7 093d 350a cabc
00000160: dab1 31bd 268e c33d 3d34 013e ba5f 3b3d
00000170: e0c2 65bd 47d7 203e 7794 6d3d b3e1 5cbe

bias f4 [6]
0.10965446 -0.024058765 -0.0747838 -0.020816728 0.19992904 0.01986752
00000000: 8492 e03d e316 c5bc 4028 99bd d887 aabc
00000010: 33ba 4c3e 36c1 a23c

weight f4 [6]
1.0358346 1.2927724 1.350732 1.348554 1.2066506 1.1170039
00000000: 3a96 843f 9179 a53f c9e4 ac3f 6b9d ac3f
00000010: 8773 9a3f fcf9 8e3f

bias f4 [6]
-0.15582713 0.19242725 -0.07614483 -0.009996234 0.18180948 0.13128325
00000000: 2691 1fbe a60b 453e d2f1 9bbd 3fc7 23bc
00000010: 442c 3a3e 1e6f 063e

weight f4 [18, 6]
-0.20071457 -0.010186004 -0.28569177 -0.101326354 0.75313467 0.42157164 -0.4605061 0.75217575
-0.26966602 0.01311826 0.113743566 -0.11949706 -0.2076818 -0.19929801 -0.57141197 0.9942147
0.2740509 -0.43945682 -0.4220641 1.2462785 0.35294324 -0.93863356 -1.1384628 0.08397444
-0.44625574 0.46658885 0.00037625607 -0.4372797 0.18266001 0.5146539 -0.58485126 0.8419713
-0.08380933 0.17539835 0.378616 0.42950982 0.426181 -0.06736873 0.025326924 -0.45966187
-0.53794444 0.60918254 0.18678088 0.8178328 -1.2781377 -0.009478054 0.23703577 0.09327062
-0.791491 -0.31378096 0.19095615 -0.22565912 0.5922348 0.4897682 -0.49149817 -0.39929208
-0.72440445 0.14508708 0.45359328 -0.07432339 0.0013663811 0.34849632 0.43365294 0.38315052
0.103661425 -0.89213413 -0.40299106 0.7224184 -0.62539595 -0.34117484 0.0593555 0.39459717
0.076877296 -0.33297205 -1.1364684 0.44001803 -0.38840118 -0.03831377 -0.269569 -0.2123474
-0.25042135 -0.53600174 0.43435156 0.69324887 0.14770092 -0.124814436 0.54881924 -0.63729024
-0.26730752 -0.20227064 0.23486777 0.27895716 0.070718296 -0.48456186 0.2760556 -0.4745798
0.14809178 -0.6586839 0.22121674 0.6278486 -0.5550694 0.07213385 0.18218707 -0.39375144
-0.20943254 -0.49005464 -0.37207335 0.5253372
00000000: 1f88 4dbe 33e3 26bc 3146 92be 3184 cfbd
00000010: 6fcd 403f 3dd8 d73e 75c7 ebbe 978e 403f
00000020: aa11 8abe f8ed 563c 63f2 e83d e0ba f4bd
00000030: 8aaa 54be c714 4cbe 0e48 12bf db84 7e3f
00000040: 6650 8c3e 7c00 e1be c918 d8be 0e86 9f3f
00000050: fab4 b43e 4a4a 70bf 26b9 91bf cbfa ab3d
00000060: a27b e4be bce4 ee3e 3c44 c539 20e3 dfbe
00000070: 3a0b 3b3e 5cc0 033f d0b8 15bf 6e8b 573f
00000080: 3aa4 abbd a09b 333e f5d9 c13e b6e8 db3e
00000090: 6534 da3e 9ef8 89bd 697a cf3c cd58 ebbe
000000a0: bab6 09bf 63f3 1b3f 7d43 3f3e 7e5d 513f
000000b0: 049a a3bf d749 1bbc 81b9 723e ab04 bf3d
000000c0: 279f 4abf e6a7 a0be 028a 433e 2f13 67be
000000d0: b39c 173f e6c2 fa3e a6a5 fbbe 0370 ccbe
000000e0: 9272 39bf b591 143e 613d e83e dd36 98bd
000000f0: 2418 b33a 1c6e b23e c207 de3e 4e2c c43e
00000100: 714c d43d e762 64bf d854 cebe 6af0 383f
00000110: f319 20bf 78ae aebe c11e 733d a408 ca3e
00000120: d871 9d3d 507b aabe cc77 91bf 0b4a e13e
00000130: 85dc c6be e6ee 1cbd f304 8abe 9971 59be
00000140: 3a37 80be 6937 09bf 5463 de3e c278 313f
00000150: e93e 173e b69e ffbd 6b7f 0c3f 7425 23bf
00000160: 88dc 88be 0920 4fbe 2d81 703e 79d3 8e3e
00000170: c1d4 903d 7e18 f8be 2957 8d3e 20fc f2be
00000180: 5fa5 173e 829f 28bf a486 623e b0ba 203f
00000190: 0719 0ebf e9ba 933d 3f8f 3a3e ca99 c9be
000001a0: 7c75 56be 71e8 fabe 6680 bebe 807c 063f

weight f4 [6, 6]
-0.42094013 0.48549783 0.09790712 0.15517074 0.5559357 0.69740695 -0.26844186 -0.13026004
-0.1815591 0.10306628 -0.8016208 0.37274075 -0.24963811 0.08788918 -0.21883082 0.6398624
-0.05067875 0.22480415 0.4218921 0.25141403 -0.35690308 -0.47421008 0.26272488 0.4258451
0.05256374 0.522344 0.72619313 -0.32373285 0.101361185 -0.7143787 -0.2556796 -0.61411905
-0.19099267 -0.42214242 0.22974366 0.2571765
00000000: 7785 d7be 2c93 f83e 8783 c83d 14e5 1e3e
00000010: cd51 0e3f 4389 323f 3671 89be e362 05be
00000020: a1ea 39be 6a14 d33d 0537 4dbf e0d7 be3e
00000030: 22a1 7fbe 3eff b33d 3015 60be 06ce 233f
00000040: 8594 4fbd 0f33 663e 3e02 d83e 57b9 803e
00000050: 00bc b6be aacb f2be e083 863e 5e08 da3e
00000060: 144d 573d 56b8 053f cbe7 393f 50c0 a5be
00000070: 7496 cf3d 86e1 36bf 70e8 82be e836 1dbf
00000080: 9593 43be 0d23 d8be ec41 6b3e a3ac 833e

bias f4 [6]
-0.2893175 -0.31122485 0.39327133 0.3286062 0.1644277 0.34515658
00000000: 6c21 94be dd58 9fbe dc5a c93e 123f a83e
00000010: bc5f 283e 5db8 b03e

weight f4 [6]
0.8044609 0.5424322 0.9575533 0.92555636 0.7753653 0.8076879
00000000: 26f1 4d3f d6dc 0a3f 3722 753f 43f1 6c3f
00000010: 577e 463f a2c4 4e3f

bias f4 [6]
0.0916675 0.04813389 0.04634505 -0.0075267884 -0.11206697 -0.029330028
00000000: 2cbc bb3d 0b28 453d 4fd4 3d3d 47a3 f6bb
00000010: 5e83 e5bd 8745 f0bc

weight f4 [32, 6]
0.13274968 0.29033384 0.30773655 -0.1203218 -0.2397694 0.02068245 -0.12951949 0.1145942
-0.17985384 0.386766 0.49172598 -0.23079135 0.25158194 -0.24562961 -0.22174636 -0.042531874
-0.34726086 0.23806447 0.2922367 0.032229 -0.20103942 0.5117368 -0.21791583 -0.024357218
-0.48847532 0.701379 -0.2102632 0.037154663 -0.31892207 -0.18632196 -0.49295628 -0.056138303
-0.09286711 0.17385633 0.49070728 0.2693485 -0.094136216 -0.023601705 -0.25543284 -0.5354317
0.18193923 -0.05007696 -0.10483257 -0.1480239 -0.17741914 0.04962744 -0.32871115 0.40506765
-0.23627995 -0.14475222 -0.12814704 0.14248088 -0.004038303 -0.12294271 -0.106710434 -0.14132528
-0.15600584 -0.13525355 -0.3554196 0.0032735986 -0.5020616 -0.061273947 -0.25560796 0.36620152
-0.22097173 -0.14363046 0.18434645 -0.36083344 -0.07385549 -0.05915322 -0.15482946 0.43796986
0.18240869 -0.05262538 -0.29891482 0.33084556 -0.017318048 -0.15234289 0.42667317 0.4769163
-0.36009 0.1250805 -0.09354095 -0.5193577 -0.12792867 -0.08058759 0.61352813 -0.47815293
0.14796792 0.39966032 -0.29200828 -0.26158175 -0.041324746 -0.37607315 0.010557532 -0.531403
0.28937864 0.28844967 -0.013208397 -0.6691399 0.23208703 -0.2595813 0.118397325 0.12748839
-0.28594217 0.071453735 -0.13596962 0.45189568 0.02581698 0.4212561 -0.101713754 0.03459688
0.07651061 0.027257372 -0.03012104 0.48258385 0.07661378 -0.15139931 0.29120693 -0.15316705
-0.13541006 0.38359118 0.27893162 0.5203379 -0.2851317 0.027572073 -0.03966587 -0.14476931
0.47580808 -0.014601456 -0.12169351 0.095799394 0.09761409 -0.10184153 -0.1544276 -0.34340405
0.06849535 -0.17952478 -0.1808461 0.16969895 -0.027010772 0.047767293 0.058738902 0.07693263
-0.056500886 -0.16639929 0.14063899 -0.41942632 -0.22246327 0.019130198 -0.11275664 -0.3767179
-0.15089369 -0.23640308 0.25788414 -0.011818258 -0.10766659 -0.14633515 0.05714164 0.16014755
-0.5555615 0.34322086 0.2725084 0.20494638 0.2691575 0.18187907 -0.49863923 -0.23294693
-0.28153428 -0.19071266 -0.25661662 0.2019219 0.077211365 0.31147072 -0.11398125 0.44182655
-0.7307845 0.2762166 0.30628762 0.07967665 -0.5581351 0.35915196 0.19290069 0.11344536
0.2307609 0.106738 -0.13008289 0.35473812 -0.22495437 -0.41525465 0.15653944 -0.13238947
00000000: 88ef 073e a3a6 943e a58f 9d3e 476b f6bd
00000010: 1c86 75be 3e6e a93c c2a0 04be 5db0 ea3d
00000020: 9b2b 38be 3106 c63e 82c3 fb3e 9154 6cbe
00000030: 59cf 803e 5486 7bbe 7a11 63be e735 2ebd
00000040: 2dcc b1be 2cc7 733e 0ca0 953e 8e02 043d
00000050: 47dd 4dbe 2f01 033f 5425 5fbe ca88 c7bc
00000060: 7019 fabe 938d 333f 3c4f 57be 7d2f 183d
00000070: c149 a3be 2fcb 3ebe c464 fcbe 47f1 65bd
00000080: 1d31 bebd 6507 323e fc3d fb3e 0ce8 893e
00000090: 7dca c0bd 5d58 c1bc 18c8 82be 0d12 09bf
000000a0: 474e 3a3e 801d 4dbd 75b2 d6bd 9493 17be
000000b0: 5dad 35be 2446 4b3d d44c a8be 0765 cf3e
000000c0: 5ff3 71be ed39 14be fa38 03be 82e6 113e
000000d0: be53 84bb 63c9 fbbd 008b dabd 93b7 10be
000000e0: ffbf 1fbe e87f 0abe 8ff9 b5be df89 563b
000000f0: 1c87 00bf 64fa 7abd 0cdf 82be c47e bb3e
00000100: 6a46 62be dd13 13be 51c5 3c3e 29bf b8be
00000110: 8c41 97bd a64a 72bd 9d8b 1ebe 963d e03e
00000120: 58c9 3a3e b68d 57bd 5d0b 99be 9764 a93e
00000130: 94de 8dbc c6ff 1bbe e874 da3e 602e f43e
00000140: b75d b8be 1a15 003e 6692 bfbd a0f4 04bf
00000150: bcff 02be 1b0b a5bd 2e10 1d3f 76d0 f4be
00000160: e784 173e 47a0 cc3e 1c82 95be 0bee 85be
00000170: 2344 29bd a98c c0be 80f9 2c3c 070a 08bf
00000180: 7029 943e adaf 933e 0868 58bc c14c 2bbf
00000190: 39a8 6d3e d7e7 84be 4c7a f23d 518c 023e
000001a0: 0367 92be 5656 923d 9f3b 0bbe df5e e73e
000001b0: 227e d33c e1ae d73e 4d4f d0bd 75b5 0d3d
000001c0: 98b1 9c3d da4a df3c 66c0 f6bc 3b15 f73e
000001d0: afe7 9c3d 6c08 1bbe 1319 953e d3d7 1cbe
000001e0: efa8 0abe 1066 c43e 20d0 8e3e dd34 053f
000001f0: c8fc 91be d4de e13c ae78 22bd 683e 14be
00000200: 1e9d f33e f23a 6fbc 723a f9bd 7932 c43d
00000210: e5e9 c73d 4b92 d0bd 4522 1ebe a8d2 afbe
00000220: 4a47 8c3d 58d5 37be b82f 39be 90c5 2d3e
00000230: b245 ddbc a3a7 433d 3498 703d db8e 9d3d
00000240: 796d 67bd 9364 2abe ab03 103e 0cbf d6be
00000250: 69cd 63be efb6 9c3c f4ec e6bd 2be1 c0be
00000260: e083 1abe a613 72be 6409 843e 5ea1 41bc
00000270: 4d80 dcbd e2d8 15be 5a0d 6a3d b8fd 233e
00000280: 4739 0ebf a5ba af3e 3986 8b3e 77dd 513e
00000290: 03cf 893e 823e 3a3e a44d ffbe a489 6ebe
000002a0: 4325 90be 2e4a 43be 4163 83be 9dc4 4e3e
000002b0: fe20 9e3d 1779 9f3e 006f e9bd 1737 e23e
000002c0: b114 3bbf 436c 8d3e bbd1 9c3e 832d a33d
000002d0: f1e1 0ebf c4e2 b73e c287 453e 0a56 e83d
000002e0: 964c 6c3e 7499 da3d 7334 05be 3ca0 b53e
000002f0: 705a 66be 429c d4be e04b 203e 1b91 07be

bias f4 [32]
-0.20470609 -0.5911719 -0.46279708 -0.6961033 -0.28266278 -0.41253233 -0.22796123 -0.39574906
0.0032790892 -0.0002751398 0.021661345 -0.27602834 0.039791517 -0.20107473 -0.35277495 -0.4184348
-0.5928116 0.20905872 -0.11219952 -0.118069194 0.1402484 0.18649137 -0.27608323 0.0003347303
-0.47752795 -0.24676591 -0.3847924 0.08884962 -0.47541338 -0.33421406 -0.10283586 -0.501844
00000000: 799e 51be 0b57 17bf bdf3 ecbe d333 32bf
00000010: 2db9 90be 7037 d3be ab6e 69be 9f9f cabe
00000020: fde5 563b a440 90b9 2273 b13c 9653 8dbe
00000030: 6efc 223d 89e6 4dbe eb9e b4be 163d d6be
00000040: 80c2 17bf 7d13 563e ddc8 e5bd 43ce f1bd
00000050: 479d 0f3e 98f7 3e3e c85a 8dbe be7e af39
00000060: 8b7e f4be 34b0 7cbe 8203 c5be caf6 b53d
00000070: 6269 f3be 1b1e abbe 9b9b d2bd d978 00bf

weight f4 [6, 32]
-0.086866304 -0.19093253 -0.1335481 0.4217102 -0.39870936 -0.14704545 -0.09937548 -0.0971368
0.109160125 0.024647808 -0.185749 -0.045651935 0.03854544 0.21665336 0.07830224 0.40811452
0.1789015 -0.13471529 0.01290837 0.20118318 -0.123524286 -0.036590766 -0.055679075 -0.0787987
-0.059777685 -0.10677829 -0.036689404 0.107717924 0.08297769 -0.008390485 0.057024453 -0.19077075
-0.0117843775 0.45464465 0.07533026 0.24836695 0.12798682 0.015461669 -0.2533322 0.07061899
0.13386498 0.084693864 0.31556728 0.019244023 -0.027822623 -0.13133305 -0.30651435 -0.27495825
-0.41151404 0.08130342 -0.15095659 -0.187417 0.25810748 0.12463546 -0.11583253 0.04695803
-0.20506017 -0.22247131 0.27549517 0.04007515 -0.041135754 0.42173827 0.23905389 -0.19273202
-0.16401483 -0.17582935 -0.1996167 -0.106390715 0.098145716 0.00986668 0.0047640787 -0.13749498
-0.103144705 -0.048642863 -0.06416552 0.18802561 0.09176913 -0.05805988 0.26866397 0.17934307
-0.23939559 -0.09150852 0.067194946 -0.05190945 -0.09921757 0.13673706 0.07322023 -0.10157698
0.045742072 0.024415389 0.05460906 0.07600089 -0.24564677 -0.07953888 0.10034023 -0.25992644
-0.08835851 -0.28229457 0.21121067 -0.44457743 0.21339813 0.436912 -0.012666361 0.35778946
0.07542956 0.020959761 -0.023675619 0.21092278 0.124969535 0.121012636 0.1181438 -0.0029906796
-0.13104287 0.19109206 -0.09881925 -0.13143833 -0.023237012 0.020968288 0.023269836 0.08217168
0.116581984 -0.12172529 -0.070693284 -0.21116789 0.43716893 -0.32668787 0.0024458792 -0.20920318
0.041327246 -0.28437355 0.06603281 0.35039976 0.45384732 -0.30703208 0.16841817 -0.020861285
-0.065535165 -0.035402536 0.045695517 -0.1291575 -0.13596815 -0.19749452 -0.22616847 0.01149031
0.3407754 -0.23363082 0.008232571 0.14109081 0.041815706 -0.15594828 0.08839311 -0.029967781
-0.51682633 0.12236788 0.12221121 -0.16380198 0.033444803 -0.22897492 -0.21216618 0.24501085
0.14305677 -0.029240297 -0.013799621 -0.09732868 -0.13399465 0.37957463 0.079848565 -0.28608385
0.055240083 -0.010968911 -0.11114359 -0.033662543 0.07330512 -0.076893024 0.3142371 -0.38563803
0.17727277 0.00010126503 -0.047238655 -0.10319589 -0.13607305 0.0037451873 -0.0363148 -0.028640565
0.50276 -0.07128271 -0.3279167 -0.28430194 -0.26179805 0.28321743 0.07125401 0.19479063
00000000: f6e6 b1bd d183 43be d5c0 08be 66ea d73e
00000010: a223 ccbe 1593 16be 5f85 cbbd a9ef c6bd
00000020: 588f df3d 33ea c93c fc34 3ebe 86fd 3abd
00000030: d3e1 1d3d 61da 5d3e ed5c a03d 63f4 d03e
00000040: f431 373e cef2 09be a17d 533c f702 4e3e
00000050: 4dfa fcbd 33e0 15bd be0f 64bd 3661 a1bd
00000060: 72d9 74bd 93ae dabd a147 16bd 379b dc3d
00000070: 35f0 a93d 3f78 09bc 7992 693d 6859 43be
00000080: 4313 41bc 2fc7 e83e c046 9a3d e853 7e3e
00000090: fa0e 033e f152 7d3c c2b4 81be b0a0 903d
000000a0: e713 093e fa73 ad3d 0992 a13e a4a5 9d3c
000000b0: 45ec e3bc 2c7c 06be 73ef 9cbe 54c7 8cbe
000000c0: f8b1 d2be 6882 a63d 5d94 1abe 3eea 3fbe
000000d0: aa26 843e e040 ff3d 9b39 edbd 1057 403d
000000e0: 4bfb 51be 85cf 63be b40d 8d3e d725 243d
000000f0: f77d 28bd 14ee d73e 8bca 743e 8b5b 45be
00000100: 81f3 27be 9c0c 34be 5268 4cbe 60e3 d9bd
00000110: 9f00 c93d dba7 213c fd1b 9c3b 7ccb 0cbe
00000120: 883d d3bd bd3d 47bd 3669 83bd c989 403e
00000130: 74f1 bb3d 32d0 6dbd 538e 893e b6a5 373e
00000140: 1e24 75be d268 bbbd 819d 893d 019f 54bd
00000150: 9532 cbbd cd04 0c3e 7df4 953d 9707 d0bd
00000160: 0a5c 3b3d c802 c83c c0ad 5f3d 5ba6 9b3d
00000170: d48a 7bbe 48e5 a2bd 2e7f cd3d 1415 85be
00000180: 4ef5 b4bd ea88 90be 9c47 583e a79f e3be
00000190: 0a85 5a3e eeb2 df3e 9286 4fbc 2e30 b73e
000001a0: d07a 9a3d ceb3 ab3c 5ff3 c1bc 24fc 573e
000001b0: 07f0 ff3d 79d5 f73d 60f5 f13d 47ff 43bb
000001c0: 1a30 06be a3ad 433e bf61 cabd c597 06be
000001d0: 8c5b bebc b0c5 ab3c 62a0 be3c a049 a83d
000001e0: 89c2 ee3d 1c4b f9bd a4c7 90bd 653c 58be
000001f0: 9bd4 df3e a243 a7be 0b4b 203b 5c39 56be
00000200: c246 293d 6999 91be 363c 873d 9967 b33e
00000210: ad5e e83e 4f33 9dbe d075 2c3e 49e5 aabc
00000220: 4d37 86bd 4002 11bd 392b 3b3d dd41 04be
00000230: 3c3b 0bbe 013c 4abe b598 67be da41 3c3c
00000240: 1d7a ae3e eb3c 6fbe e8e1 063c 1c7a 103e
00000250: f246 2b3d e8b0 1fbe 7207 b53d fe7e f5bc
00000260: bb4e 04bf 039c fa3d df49 fa3d b5bb 27be
00000270: 6bfd 083d 6778 6abe 1742 59be 20e4 7a3e
00000280: 797d 123e 5989 efbc ce17 62bc 4254 c7bd
00000290: e535 09be 9b57 c23e a587 a33d 9579 92be
000002a0: 6d43 623d f3b6 33bc 409f e3bd bce1 09bd
000002b0: ff20 963d 177a 9dbd afe3 a03e 5972 c5be
000002c0: fe86 353e 405e d438 527d 41bd 5e58 d3bd
000002d0: bc56 0bbe d171 753b d4be 14bd 9e9f eabc
000002e0: e1b4 003f abfc 91bd b3e4 a7be 0690 91be
000002f0: 650a 86be e001 913e 9fed 913d 3277 473e

bias f4 [6]
-0.095144086 -0.099469654 0.04520467 -0.08218252 -0.09073606 0.040840253
00000000: e7da c2bd bfb6 cbbd 8828 393d 4f4f a8bd
00000010: d4d3 b9bd 1c48 273d

weight f4 [6]
1.2860364 1.0901616 1.3462372 1.5182357 0.90292287 1.2022889
00000000: d79c a43f 6a8a 8b3f 8051 ac3f 8c55 c23f
00000010: f425 673f 9ae4 993f

bias f4 [6]
0.030919597 0.13095556 -0.060188748 -0.046643842 0.0723552 -0.15488392
00000000: 184b fd3c 3719 063e 7a88 76bd 9d0d 3fbd
00000010: f72e 943d e499 1ebe

weight f4 [18, 6]
0.08491608 -0.5329641 -0.33871776 0.6279614 0.4480937 -0.51532227 0.066917896 -0.41090903
-0.09920368 0.5314357 0.45859334 -0.32598805 -0.6919141 0.710664 0.1493712 -0.15744391
0.07978871 0.26195735 0.39988372 0.2949972 -0.59520423 0.26551026 0.2870989 -0.4001733
0.6322767 -0.47338805 -0.11739452 0.45222792 0.33434483 -0.3479494 -0.8605971 0.427332
-0.705203 -0.2857453 -0.18315245 1.3775871 0.29614165 -0.046666324 0.12548852 -0.76564467
0.24225174 0.069504164 -0.41806468 0.021944458 -0.29330683 -0.24204667 0.52773094 -0.4387973
0.6484527 1.0763111 0.34087846 0.06155972 -0.37427658 -0.0726468 -0.29813665 -0.42618844
0.21776895 0.6749156 -0.0037484963 0.11572162 0.21735969 0.0055803345 -0.4537295 -0.36424994
-0.105479434 -0.16076547 0.0977594 -0.15967019 -0.28137058 0.17208467 0.017869115 0.86888933
-0.88549286 -0.19193703 -0.23717238 -0.1688415 0.30944726 0.35714337 0.02771964 -0.7240316
0.44907713 0.41759965 0.34338087 -0.2589706 0.07951161 0.09638992 -0.070367016 0.34640205
0.71872556 -0.5175084 0.5409966 -0.42601004 -0.14388154 0.20716064 -0.0010750691 0.6319736
0.432872 -0.10042749 0.6346887 -0.42864245 -0.5249251 0.09650549 0.650757 0.46527067
0.33080178 -0.7695586 0.061873626 0.31991425
00000000: 7be8 ad3d 5670 08bf 6a6c adbe 14c2 203f
00000010: 8a6c e53e 29ec 03bf 400c 893d ab62 d2be
00000020: 4d2b cbbd 2c0c 083f bfcc ea3e e8e7 a6be
00000030: 4821 31bf 13ee 353f c4f4 183e fa38 21be
00000040: 4368 a33d 461f 863e 8fbd cc3e df09 973e
00000050: 4e5f 18bf f6f0 873e a1fe 923e 84e3 ccbe
00000060: e3dc 213f eb5f f2be 8a6c f0bd 6b8a e73e
00000070: 3f2f ab3e 6c26 b2be 1750 5cbf 43cb da3e
00000080: 2f88 34bf 354d 92be 518c 3bbe c654 b03f
00000090: e19f 973e 3025 3fbd 1080 003e 4a01 44bf
000000a0: d710 783e 3358 8e3d 930c d6be ddc4 b33c
000000b0: 502c 96be 15db 77be 6019 073f 0aaa e0be
000000c0: ff00 263f 90c4 893f 9f87 ae3e 0c26 7c3d
000000d0: 2ea1 bfbe d8c7 94bd 5ea5 98be 5f35 dabe
000000e0: d3fe 5e3e 45c7 2c3f 55a9 75bb 75ff ec3d
000000f0: 8a93 5e3e 3ddb b63b 3c4f e8be f87e babe
00000100: 9a05 d8bd b49f 24be 1536 c83d 9580 23be
00000110: ce0f 90be f736 303e 4062 923c 886f 5e3f
00000120: a9af 62bf 248b 44be 51dd 72be c9e4 2cbe
00000130: df6f 9e3e 7fdb b63e 4c14 e33c 235a 39bf
00000140: 70ed e53e 9fcf d53e 9ecf af3e cb97 84be
00000150: fcd6 a23d 1468 c53d 951c 90bd 9c5b b13e
00000160: 66fe 373f 6e7b 04bf c17e 0a3f fd1d dabe
00000170: af55 13be eb21 543e 55e9 8cba 06c9 213f
00000180: 66a1 dd3e eeac cdbd f57a 223f 0677 dbbe
00000190: 7e61 06bf aca4 c53d 0398 263f f537 ee3e
000001a0: da5e a93e cb01 45bf 336f 7d3d cdcb a33e

weight f4 [6, 6]
-0.39934027 0.80126774 0.50055474 -0.00976575 0.12806755 0.24894598 -0.0404073 -0.25316083
-0.23358436 -0.34795755 -0.2872041 0.20985195 0.21124634 -0.040300146 -0.12224163 0.56800556
-0.09420849 0.46257263 -0.64413 -0.38292646 -0.32447302 -0.17683883 -0.7626556 -0.3349626
0.78109604 -0.009954241 0.08624937 0.14683646 -0.38484582 -0.62500143 0.30568847 0.21668799
1.3288041 -0.47342575 1.2400868 -0.6189647
00000000: 5476 ccbe e21f 4d3f 5b24 003f 8600 20bc
00000010: 2424 033e b2eb 7e3e 2082 25bd 4c9e 81be
00000020: bd30 6fbe 7e27 b2be 6a0c 93be 6ee3 563e
00000030: f650 583e c411 25bd d259 fabd d068 113f
00000040: 61f0 c0bd 52d6 ec3e b4e5 24bf f00e c4be
00000050: 5421 a6be 3d15 35be 663d 43bf 3880 abbe
00000060: e9f5 473f 1d17 23bc 82a3 b03d 4c5c 163e
00000070: 830a c5be 1800 20bf 3383 9c3e 75e3 5d3e
00000080: 4116 aa3f dc64 f2be 2abb 9e3f 7874 1ebf

bias f4 [6]
0.25148535 0.1655352 -0.19589645 0.4039671 0.17799602 -0.12456669
00000000: b0c2 803e 0f82 293e 1499 48be c7d4 ce3e
00000010: 9744 363e d21c ffbd

weight f4 [6]
0.89621174 0.7918549 1.0990655 1.0776541 0.8568274 1.1252393
00000000: 226e 653f 01b7 4a3f 2eae 8c3f 92f0 893f
00000010: 0a59 5b3f d707 903f

bias f4 [6]
-0.029048841 0.11843996 0.14561747 -0.0145851495 -0.109618545 0.05458274
00000000: d6f7 edbc a690 f23d bf1c 153e 8df6 6ebc
00000010: b07f e0bd 2792 5f3d

weight f4 [32, 6]
-0.5506989 0.3528795 -0.28508726 0.1062685 0.29533443 0.41610083 -0.43200403 0.8531951
-0.24618722 0.2476445 -0.18792512 0.20259422 -0.1162527 0.3051213 0.14128433 -0.961835
0.387936 0.54557896 0.08158338 0.45189986 0.011401537 -0.4433358 -0.79322666 0.5629511
-0.1264426 -0.42707583 0.33726138 -0.5013515 -0.33460575 0.3651365 0.2056454 -0.35643592
-0.13861777 -0.10797961 -0.05842591 0.32161525 0.08871311 0.5024635 -0.1972509 -0.20005347
0.30054024 -0.11980955 -0.27833748 -0.1884744 -0.0012044098 0.20314686 0.061420918 -0.18530865
0.2511185 -0.08237656 -0.27940091 -0.12090635 -0.13425437 0.33132613 -0.44442552 0.19143094
0.17853783 -0.13873486 0.29048845 0.04347651 -0.005747126 0.5961758 -0.031218199 0.2988885
-0.24721453 -0.65663815 0.31714576 0.0876889 -0.46311313 -0.615691 0.040493008 0.36909866
-0.34616452 0.30201736 0.23843032 -0.43540338 -0.02888022 0.5083047 0.06937489 -0.13483572
0.8596017 -0.45380676 0.16191477 0.498542 0.25587088 0.19297948 0.16526718 -0.16922916
-0.7216289 0.21870877 -0.48465526 0.088397205 -0.36944303 0.29644957 -0.38758847 -0.38759977
0.07584257 0.53161997 -0.20675409 -0.33167404 0.032549687 -0.42465445 -0.45012584 0.30592546
0.12307311 0.18792729 0.059845455 -0.30687675 0.21353838 0.03791038 -0.43167475 -0.39234987
0.0135279065 -0.1471789 -0.53174746 0.38933483 -0.4258717 0.30180794 0.07625894 0.5439165
0.13912134 0.10801312 0.254859 -0.05110681 0.19080798 -0.38925 0.04847408 0.2158681
0.06670243 -0.124516666 0.24528754 -0.33833072 0.40309113 0.1672264 0.13624622 0.0027895933
-0.44385028 0.103189826 -0.6782259 -0.056452814 0.28355056 -0.13552423 0.216342 0.23502259
-0.29708546 -0.35091996 0.29527512 0.3252217 0.14206414 0.39501166 0.011367439 -0.1693727
-0.008356243 0.25150555 0.30556744 0.24261919 -0.5384655 -0.35329103 0.4654388 0.2503844
0.1013557 -0.044275098 -0.47032037 0.35396135 0.21550715 -0.1495912 0.3387874 0.15424177
0.11958001 -0.06585495 -0.14057544 0.46671087 -0.12808761 0.32890877 0.25428843 0.2261504
-0.64547634 0.1661491 0.32882988 0.1174332 0.05574044 0.12897946 -0.66100866 -0.34425458
0.3855335 -0.32739884 -0.31704107 -0.015089812 -0.45918018 -0.2004948 -0.078617066 -0.34317407
00000000: 9afa 0cbf 9fac b43e f5f6 91be 4da3 d93d
00000010: 1336 973e 2b0b d53e a22f ddbe fe6a 5a3f
00000020: 8118 7cbe 8596 7d3e 716f 40be dc74 4f3e
00000030: e515 eebd dc38 9c3e d7ac 103e d23a 76bf
00000040: 8c9f c63e 10ab 0b3f 3015 a73d 6b5f e73e
00000050: 83cd 3a3c e9fc e2be e710 4bbf 901d 103f
00000060: 2b7a 01be afa9 dabe 86ad ac3e 9258 00bf
00000070: 7251 abbe 2cf3 ba3e b594 523e c57e b6be
00000080: d1f1 0dbe 6a24 ddbd 0250 6fbd c1aa a43e
00000090: 38af b53d 73a1 003f 24fc 49be d1da 4cbe
000000a0: 69e0 993e b65e f5bd 4082 8ebe 6fff 40be
000000b0: 49dd 9dba bb05 503e 8094 7b3d 8dc1 3dbe
000000c0: 9b92 803e 0bb5 a8bd a30d 8fbe c09d f7bd
000000d0: fa79 09be 94a3 a93e be8b e3be 7906 443e
000000e0: 9fd2 363e 8310 0ebe e7ba 943e 6d14 323d
000000f0: 6352 bcbb fa9e 183f 4fbd ffbc ea07 993e
00000100: ce25 7dbe 7019 28bf ee60 a23e 3d96 b33d
00000110: 2a1d edbe ed9d 1dbf ffdb 253d 80fa bc3e
00000120: 7a3c b1be 05a2 9a3e 1427 743e 31ed debe
00000130: 3696 ecbc 4220 023f 6c14 8e3d 6012 0abe
00000140: db0e 5c3f 5c59 e8be fccc 253e e640 ff3e
00000150: 8201 833e 6a9c 453e cd3b 293e 694a 2dbe
00000160: acbc 38bf 31f5 5f3e bc24 f8be 9809 b53d
00000170: a327 bdbe 3dc8 973e ff71 c6be 7a73 c6be
00000180: 5953 9b3d 3f18 083f 58b7 53be 2ed1 a9be
00000190: d252 053d 4f6c d9be e576 e6be 43a2 9c3e
000001a0: c10d fc3d 0370 403e 8220 753d f31e 9dbe
000001b0: cea9 5a3e ea47 1b3d 7904 ddbe 15e2 c8be
000001c0: 27a4 5d3c 11b6 16be 9a20 08bf e556 c73e
000001d0: db0b dabe 9286 9a3e a62d 9c3d 1d3e 0b3f
000001e0: d375 0e3e fc35 dd3d e17c 823e 6055 51bd
000001f0: 2b63 433e c74b c7be c28c 463d 870c 5d3e
00000200: 499b 883d 9802 ffbd a82c 7b3e af39 adbe
00000210: f661 ce3e 663d 2b3e 2184 0b3e 9cd1 363b
00000220: 5840 e3be 3055 d33d 36a0 2dbf 113b 67bd
00000230: 8a2d 913e ddc6 0abe c288 5d3e c3a9 703e
00000240: 961b 98be c8ab b3be 4d2e 973e 7583 a63e
00000250: 4379 113e f83e ca3e 7f3e 3a3c 0970 2dbe
00000260: a0e8 08bc 56c5 803e 5673 9c3e 2a71 783e
00000270: e0d8 09bf 90e2 b4be ff4d ee3e 6232 803e
00000280: 9493 cf3d ce59 35bd d5cd f0be 6c3a b53e
00000290: e8ad 5c3e 6f2e 19be 8b75 ad3e 8ef1 1d3e
000002a0: 5de6 f43d f6de 86bd 02f3 0fbe baf4 ee3e
000002b0: 6629 03be bb66 a83e 1832 823e f893 673e
000002c0: f03d 25bf fd22 2a3e 645c a83e d180 f03d
000002d0: 1650 643d 3113 043e dd37 29bf 2342 b0be
000002e0: a664 c53e d2a0 a7be 3553 a2be 423b 77bc
000002f0: aa19 ebbe 824e 4dbe fc01 a1bd 83b4 afbe

bias f4 [32]
-0.22401902 -0.5861751 -0.18385378 -0.2144038 0.2672086 -0.49772444 -0.5990789 -0.2899239
0.13426295 -0.08101716 -0.2024408 -0.3232974 -0.08174393 0.123509035 -0.075493455 -0.18673705
-0.29427376 0.091502525 -0.0627881 -0.28002632 -0.42467463 0.044060003 0.25603977 -0.006455817
-0.10272432 -0.119846016 -0.26658255 -0.010517129 0.25747728 -0.4110051 0.12870875 0.08218829
00000000: 3e65 65be 920f 16bf 2a44 3cbe ab8c 5bbe
00000010: 91cf 883e bdd5 febe 3c5d 19bf e870 94be
00000020: 3a7c 093e 53ec a5bd a44c 4fbe 3d87 a5be
00000030: 5d69 a7bd 4ef2 fc3d 509c 9abd ff37 3fbe
00000040: 0dab 96be ad65 bb3d 0c97 80bd 9c5f 8fbe
00000050: f46e d9be 4378 343d a517 833e 518b d3bb
00000060: 2161 d2bd d471 f5bd 827d 88be 0950 2cbc
00000070: 10d4 833e 436f d2be 3acc 033e 5652 a83d

weight f4 [6, 32]
-0.13629374 -0.36099342 0.0025881657 0.37552696 0.35076815 0.104445025 0.061508887 0.07183542
-0.01041849 0.097876996 -0.3147325 -0.29951394 -0.03201575 0.35701054 0.3451948 -0.12916318
0.041459087 -0.17623532 -0.019914214 -0.32811487 -0.33664313 -0.14253253 0.06570482 -0.0018438188
0.16255538 0.0385208 0.08752823 0.08390192 0.21748324 0.0644797 -0.13813286 -0.123700924
0.48528212 -0.04850379 0.08008144 -0.38380408 0.087613925 0.036097515 0.17173925 0.10188731
-0.07075484 0.12453081 0.17411526 0.003949138 0.23227726 0.23330443 -0.15994927 0.04130916
-0.03453907 0.29414183 -0.05153552 0.4847702 0.040068574 0.09576674 -0.06922866 0.13659546
0.16394524 -0.21356355 0.30267394 0.13572712 -0.06457734 0.07646765 -0.18565658 -0.06919669
-0.2949174 -0.0897496 -0.7810171 0.58619523 -0.14109033 -0.016014034 -0.06821451 -0.09470288
0.06854639 0.05506463 0.50609535 -0.6375783 -0.1734157 -0.12439656 -0.19851744 -0.20651974
0.24346696 0.017275034 0.15430695 -0.132364 -0.20792323 0.15851538 0.11309698 -0.08804598
-0.23261167 -0.12788565 -0.15124007 -0.0681601 -0.07599934 0.18752193 0.33236054 0.14864573
-0.0040655043 -0.47534356 0.80423164 0.18914154 -0.39586106 0.22437353 -0.18576089 0.11992303
-0.059556514 0.21959081 -0.22683927 0.12627946 0.19302267 -0.102455914 -0.25666678 -0.09472884
0.044737905 -0.19901873 -0.06913143 -0.17484327 -0.12400016 0.14640158 -0.15220106 0.3203742
0.019979913 -0.14671098 -0.007979759 0.32910052 -0.042111184 -0.7604244 -0.49378663 -0.0992201
-0.11126747 0.3978665 0.5188011 -0.11238854 -0.24986953 -0.09224076 -0.13269211 -0.030507078
-0.16300139 0.004132414 -0.27152905 0.022302516 0.19299307 -0.01285098 -0.043399684 -0.34127215
-0.2547811 -0.1146851 -0.09392683 -0.008032847 -0.10130712 0.05742049 -0.27024987 -0.07262707
-0.16860634 -0.04025489 0.14898081 0.0005283681 -0.2652225 -0.10521177 0.09045161 -0.15603264
0.19565527 0.4969292 -0.015742194 -0.32072425 -0.37173924 -0.20528558 0.39808673 -0.30605176
0.1450769 -0.1679167 -0.0016641293 0.35059765 -0.41941425 -0.39403635 0.19354902 0.61342
0.14450485 -0.042342454 0.13724396 0.2789067 0.18786404 0.13055012 0.18483263 -0.38460425
-0.26824984 -0.008743743 -0.44280374 -0.30360508 0.06325107 0.04540817 0.019158822 -0.14291283
00000000: 9690 0bbe 21d4 b8be 379e 293b 1245 c03e
00000010: e297 b33e 46e7 d53d bef0 7b3d 731e 933d
00000020: 50b2 2abc bc73 c83d 9e24 a1be e459 99be
00000030: f222 03bd 16ca b63e 5fbd b03e 5a43 04be
00000040: 01d1 293d 0877 34be 2223 a3bc acfe a7be
00000050: 7d5c acbe 0cf4 11be 4090 863d 4bac f1ba
00000060: eb74 263e fdc7 1d3d 0042 b33d c5d4 ab3d
00000070: edb3 5e3e ef0d 843d b372 0dbe e956 fdbd
00000080: e676 f83e e9ab 46bd bd01 a43d f881 c4be
00000090: ee6e b33d fdda 133d 6adc 2f3e 4baa d03d
000000a0: eae7 90bd 020a ff3d 454b 323e c567 813b
000000b0: 17da 6d3e 5be7 6e3e bec9 23be cb33 293d
000000c0: d778 0dbd c299 963e e916 53bd cd33 f83e
000000d0: f21e 243d 5a21 c43d c1c7 8dbd aedf 0b3e
000000e0: 43e1 273e 67b0 5abe 14f8 9a3e 0dfc 0a3e
000000f0: 2041 84bd 129b 9c3d c21c 3ebe ffb6 8dbd
00000100: 6aff 96be a3ce b7bd bdf0 47bf e410 163f
00000110: fc79 10be dd2f 83bc 0db4 8bbd 95f3 c1bd
00000120: 0d62 8c3d 738b 613d 778f 013f 5538 23bf
00000130: e393 31be a0c3 febd 2848 4bbe e979 53be
00000140: 674f 793e 5f84 8d3c a402 1e3e 6e8a 07be
00000150: d4e9 54be db51 223e 649f e73d 7351 b4bd
00000160: c131 6ebe 75f4 02be adde 1abe 8697 8bbd
00000170: 8ba5 9bbd c005 403e 292b aa3e 9636 183e
00000180: ec37 85bb 3b60 f3be 20e2 4d3f 52ae 413e
00000190: 4dae cabe 2dc2 653e 1a38 3ebe 359a f53d
000001a0: 88f1 73bd 6adc 603e 8e48 68be 674f 013e
000001b0: bca7 453e 68d4 d1bd d469 83be 3201 c2bd
000001c0: 183f 373d 91cb 4bbe c794 8dbd 1d0a 33be
000001d0: ccf3 fdbd 4cea 153e 98da 1bbe 1608 a43e
000001e0: eaac a33c 673b 16be 89bd 02bc dd7f a83e
000001f0: c77c 2cbd 2cab 42bf 9ad1 fcbe e833 cbbd
00000200: 33e0 e3bd 28b5 cb3e 26d0 043f f62b e6bd
00000210: ccdd 7fbe b9e8 bcbd 71e0 07be fbe9 f9bc
00000220: d6e9 26be 3369 873b db05 8bbe c4b3 b63c
00000230: fa9f 453e eb8c 52bc dec3 31bd 39bb aebe
00000240: ab72 82be 06e0 eabd b65c c0bd 349c 03bc
00000250: 1b7a cfbd bf31 6b3d 315e 8abe 80bd 94bd
00000260: 24a7 2cbe 50e2 24bd 6d8e 183e 2f82 0a3a
00000270: 3ecb 87be 4579 d7bd b23e b93d 05c7 1fbe
00000280: db59 483e 816d fe3e c6f5 80bc f835 a4be
00000290: 9b54 bebe 6236 52be 06d2 cb3e d1b2 9cbe
000002a0: 0a8f 143e 5bf2 2bbe ea1e daba 8981 b33e
000002b0: 77bd d6be 22bf c9be b731 463e 1809 1d3f
000002c0: 14f9 133e 486f 2dbd ae89 0c3e dccc 8e3e
000002d0: 6e5f 403e eeae 053e c444 3d3e d9ea c4be
000002e0: 0b58 89be eb41 0fbc 2cb7 e2be 2072 9bbe
000002f0: c789 813d ebfd 393d f6f2 9c3c be57 12be

bias f4 [6]
0.09677826 -0.052377056 -0.11523593 0.10831755 -0.104086466 0.028506398
00000000: ae33 c63d 5389 56bd d100 ecbd 97d5 dd3d
00000010: 492b d5bd 4086 e93c

weight f4 [6]
1.2048696 1.1145064 1.040835 0.92977285 1.2081118 1.2432792
00000000: 2b39 9a3f 25a8 8e3f 153a 853f 9805 6e3f
00000010: 68a3 9a3f c623 9f3f

bias f4 [6]
0.028165303 0.07962833 0.13775441 -0.013126316 0.044865996 -0.08526001
00000000: ecba e63c 2e14 a33d 7e0f 0d3e c20f 57bc
00000010: 68c5 373d cd9c aebd

weight f4 [18, 6]
-0.48791146 -0.16729829 -0.14637378 -0.2996788 0.4203234 0.89022255 -0.09354292 0.6715527
0.5929598 -0.028381718 -0.7752073 0.33719996 0.7351065 -0.32224208 -0.1660155 0.32481152
-0.0020723226 -0.46712998 0.6022645 0.07578279 -0.2984438 0.085586 0.61268944 -0.7449613
-0.18479368 -0.2466078 0.29812098 0.01532605 0.35581657 -0.025352875 -0.4831131 0.16814205
-0.52049404 -0.12864543 0.3340115 0.395629 -0.18874978 0.04606698 -1.0320673 0.98731667
-0.1531605 0.5209253 -0.059956282 -0.09818995 -0.5509936 -1.1447875 0.87329894 -0.18854278
-0.55908465 0.3460947 -0.45267528 -0.15262608 0.47841942 -0.20098798 -1.0921998 0.5836431
-0.5633195 -0.19910191 -0.06706602 -0.32757056 0.1158488 0.055610105 -0.2714094 0.63284
-0.0143022165 0.15717174 0.6197744 0.32900298 0.4391022 -0.15036596 -0.7684035 -0.19158684
-0.23686904 0.6096173 -0.05326868 0.18103656 0.459701 -0.4724427 -0.226514 0.15672246
-0.17174983 -0.23454304 -0.023010245 1.0878578 0.14904967 0.48418176 -0.30402735 -0.021439057
-0.7492305 0.30723515 -0.07111621 0.10807409 -0.29414025 0.5057125 0.6679607 -0.55301833
-0.26915395 0.3672177 0.09714502 0.011298163 -0.39678317 0.49493316 -0.12316701 -0.13459651
-0.3460301 0.18417081 0.09208001 0.6484794
00000000: 88cf f9be 3e50 2bbe 02e3 15be 806f 99be
00000010: a134 d73e a0e5 633f 6e93 bfbd e1ea 2b3f
00000020: 37cc 173f c780 e8bc fc73 46bf 79a5 ac3e
00000030: f12f 3c3f eafc a4be f8ff 29be b24d a63e
00000040: cecf 07bb a92b efbe 022e 1a3f 0234 9b3d
00000050: a0cd 98be b647 af3d 37d9 1c3f c9b5 3ebf
00000060: 8e3a 3dbe c186 7cbe 50a3 983e 1d1a 7b3c
00000070: 972d b63e d5b0 cfbc 9a5a f7be 6e2d 2c3e
00000080: 193f 05bf a1bb 03be 8e03 ab3e e28f ca3e
00000090: 9f47 41be bbb0 3c3d c81a 84bf c9c0 7c3f
000000a0: 1bd6 1cbe 5c5b 053f b894 75bd d017 c9bd
000000b0: eb0d 0dbf 6688 92bf 8590 5f3f 5c11 41be
000000c0: 2c20 0fbf 5333 b13e 0ec5 e7be 034a 1cbe
000000d0: 64f3 f43e cbcf 4dbe 34cd 8bbf a269 153f
000000e0: b535 10bf 5fe1 4bbe e959 89bd 54b7 a7be
000000f0: 2342 ed3d 6cc7 633d 2cf6 8abe cd01 223f
00000100: d853 6abc a1f1 203e 89a9 1e3f 1473 a83e
00000110: 01d2 e03e 89f9 19be 17b6 44bf 572f 44be
00000120: cc8d 72be e10f 1c3f 4230 5abd a661 393e
00000130: ee5d eb3e 02e4 f1be 49f3 67be da7b 203e
00000140: 30df 2fbe 0d2c 70be fb7f bcbc ed3e 8b3f
00000150: 7aa0 183e ace6 f73e 79a9 9bbe f6a0 afbc
00000160: 92cd 3fbf ed4d 9d3e 60a5 91bd f355 dd3d
00000170: 8d99 96be 6076 013f 79ff 2a3f 9c92 0dbf
00000180: 8cce 89be f503 bc3e f8f3 c63d ee1b 393c
00000190: 2a27 cbbe e167 fd3e fc3e fcbd abd3 09be
000001a0: db2a b1be 4697 3c3e 7294 bc3d bf02 263f

weight f4 [6, 6]
-0.47323862 0.4251927 0.5029392 -0.31720805 -0.051386174 -0.0006497463 0.27134225 0.15000205
0.6324126 -0.39893505 0.8132733 0.41984904 -0.5044781 -0.45727035 -0.6254777 0.28755927
-0.059010614 -0.28015518 0.15217799 0.07720396 0.06550741 0.08075315 0.5536141 -0.3678739
-0.12801456 -0.24284631 0.43940642 -0.0893483 0.018805493 0.10024969 0.9075593 -0.3448833
-0.7593874 -0.7077507 -0.16041824 -0.54548246
00000000: 554c f2be dcb2 d93e a0c0 003f 1869 a2be
00000010: 4f7a 52bd bc53 2aba 5fed 8a3e 239a 193e
00000020: cbe5 213f 3741 ccbe ae32 503f 74f6 d63e
00000030: 7a25 01bf 571f eabe 4e1f 20bf f83a 933e
00000040: 1db5 71bd 8070 8fbe 8cd4 1b3e 1c1d 9e3d
00000050: c028 863d e861 a53d a7b9 0d3f f859 bcbe
00000060: 4016 03be b4ac 78be e1f9 e03e 3efc b6bd
00000070: fa0d 9a3c b64f cd3d ce55 683f 8b94 b0be
00000080: 3667 42bf 262f 35bf ae44 24be bda4 0bbf

bias f4 [6]
-0.038002692 0.1849233 0.016253304 0.039571963 -0.049469747 -0.25712913
00000000: b6a8 1bbd 895c 3d3e a625 853c 3616 223d
00000010: caa0 4abd 6ea6 83be

weight f4 [6]
0.7084118 0.9508138 1.074845 1.0812861 1.0303364 0.8715087
00000000: 7a5a 353f 8868 733f 8594 893f 9567 8a3f
00000010: 10e2 833f 321b 5f3f

bias f4 [6]
-0.13704766 0.10009106 0.09385179 -0.032188393 -0.23345765 0.21773867
00000000: 3956 0cbe 8bfc cc3d 5e35 c03d fad7 03bd
00000010: 860f 6fbe e3f6 5e3e

weight f4 [32, 6]
-0.15730451 0.41445354 -0.63871527 0.36957276 0.22844088 0.24519539 0.24340083 0.461855
0.26213053 -0.3937231 -0.2621911 -0.06574145 -0.14534885 0.21895956 -0.61208624 0.07551248
-0.025878316 -0.52421415 -0.4020443 0.7071791 -0.2389194 -0.33603272 0.14946797 0.38593736
0.015824096 -0.23610993 0.27196196 -0.5166503 -0.19085732 -0.316646 0.40392065 0.19090702
-0.28216726 -0.079559796 -0.14868546 -0.48026788 0.013889953 0.17929335 0.08609165 -0.39018312
0.10777834 -0.08868481 -0.4959662 0.58135563 -0.26270506 0.43805248 -0.3024806 -0.19785489
-0.49748138 -0.2374871 -0.23783807 -0.20605563 0.09915768 0.14550991 0.26078695 0.07163664
0.259048 0.20709239 -0.24929385 -0.31056416 -0.05316568 -0.12609088 0.12905386 0.20570108
-0.24355644 -0.05687996 -0.35542795 0.4754899 -0.0024977971 0.20207816 0.75170314 -0.21115036
-0.07482893 -0.015166275 -0.38208172 -0.4139918 0.09987912 0.119765535 0.06602367 1.328479
-0.5428774 -0.3224787 -0.3848463 -0.060096774 -0.25199544 -0.084213994 0.24805564 0.094002
0.18464032 -0.073722504 -0.55693007 0.18082646 -0.43184504 0.41276252 -0.23326111 -0.18901178
-0.16672286 0.0076759392 -0.13998875 0.2558428 0.44593242 -0.26427373 -0.16687727 -0.11900049
-0.49116305 -0.44440588 -0.22804283 -0.16769716 -0.4244237 0.6676432 0.24372019 0.021789411
0.19671726 0.28273502 -0.13238129 -0.028673358 0.09160283 -0.08245826 0.5997294 -0.40488705
-0.3315141 -0.07140905 -0.3066138 0.43717644 -0.2136798 0.1620697 -0.027672924 0.035531644
-0.25008443 -0.18359233 -0.1228133 0.6432536 0.07647887 -0.1300313 -0.5705951 -0.2967725
-0.13765042 0.91329867 0.015262653 0.4805166 -0.13323596 -0.5538082 0.7271617 -0.035774227
-0.14392075 0.30231413 -0.5628308 0.22531465 0.32773086 -0.009183556 -0.35516724 0.18954429
0.3707721 -0.46279886 0.7599487 0.17502075 0.16299413 0.33921725 -0.39525655 -0.36905006
0.047632582 0.14357924 0.2828199 0.048088945 -0.32130286 0.43967986 0.20447138 -0.29297233
-0.18720976 -0.2164163 0.39179468 0.4108288 -0.16143803 0.36925218 -0.3295701 -0.055671647
-0.29732293 0.32200968 0.37427542 0.0035734172 -0.24208027 0.063358486 0.32841378 -0.3471857
-0.12232616 -0.26190355 -0.34233364 -0.4106353 -0.45653433 0.2144866 -0.34047672 0.47165868
00000000: 6f14 21be 4133 d43e d882 23bf a438 bd3e
00000010: 68ec 693e 8014 7b3e 113e 793e 4278 ec3e
00000020: f935 863e 1396 c9be e93d 86be 74a3 86bd
00000030: 54d6 14be ef36 603e afb1 1cbf 4aa6 9a3d
00000040: c3fe d3bc e632 06bf c0d8 cdbe b109 353f
00000050: 4aa7 74be 7b0c acbe 220e 193e 9599 c53e
00000060: 89a1 813c cdc6 71be 993e 8b3e 3243 04bf
00000070: 1a70 43be 6d1f a2be b0ce ce3e 217d 433e
00000080: 3a78 90be 3ff0 a2bd 0041 18be ace5 f5be
00000090: af92 633c ad98 373e d250 b03d 15c6 c7be
000000a0: e4ba dc3d 62a0 b5bd 48ef fdbe b9d3 143f
000000b0: 4781 86be 6a48 e03e bdde 9abe 799a 4abe
000000c0: e1b5 febe d12f 73be d38b 73be 3f00 53be
000000d0: 2f13 cb3d 8d00 153e de85 853e 3bb6 923d
000000e0: f1a1 843e 0710 543e e346 7fbe 4402 9fbe
000000f0: 42c4 59bd f81d 01be b226 043e 4ea3 523e
00000100: dc66 79be f6fa 68bd a7fa b5be 6a73 f33e
00000110: 15b2 23bb 94ed 4e3e 9e6f 403f cd37 58be
00000120: e93f 99bd f87b 78bc 37a0 c3be bcf6 d3be
00000130: 6d8d cc3d a247 f53d 6b37 873d 9a0b aa3f
00000140: 03fa 0abf ee1b a5be 930a c5be 0928 76bd
00000150: 8c05 81be 6378 acbd 4c02 7e3e 1f84 c03d
00000160: 5a12 3d3e d3fb 96bd f892 0ebf 922a 393e
00000170: cb1a ddbe 9c55 d33e 00dc 6ebe 4e8c 41be
00000180: 66b9 2abe 7286 fb3b 3659 0fbe d4fd 823e
00000190: 4151 e43e e34e 87be e0e1 2abe 87b6 f3bd
000001a0: b979 fbbe 2b89 e3be 0f84 69be ceb8 2bbe
000001b0: 104e d9be aaea 2a3f c991 793e b57f b23c
000001c0: 4070 493e a5c2 903e f68e 07be 64e4 eabc
000001d0: 449a bb3d e0df a8bd de87 193f 5b4d cfbe
000001e0: 37bc a9be e83e 92bd 7cfc 9cbe 97d5 df3e
000001f0: e1ce 5abe 99f5 253e 54b2 e2bc a189 113d
00000200: 110b 80be a1ff 3bbe 8a85 fbbd 45ac 243f
00000210: f4a0 9c3d ed26 05be 8512 12bf 91f2 97be
00000220: 3bf4 0cbe f1cd 693f 3510 7a3c 4606 f63e
00000230: 026f 08be 60c6 0dbf 4527 3a3f ff87 12bd
00000240: f65f 13be ebc8 9a3e ae15 10bf e2b8 663e
00000250: 57cc a73e a076 16bc 7bd8 b5be e617 423e
00000260: d7d5 bd3e f9f3 ecbe ff8b 423f a438 333e
00000270: efe7 263e e2ad ad3e 115f cabe 21f4 bcbe
00000280: 621a 433d 7006 133e c5cd 903e eaf8 443d
00000290: cf81 a4be b81d e13e f260 513e 7800 96be
000002a0: eab3 3fbe 3c9c 5dbe 5099 c83e 2758 d23e
000002b0: 0350 25be 9f0e bd3e 6abd a8be f407 64bd
000002c0: b63a 98be 74de a43e 07a1 bf3e fe2f 6a3b
000002d0: e4e3 77be 18c2 813d da25 a83e 53c2 b1be
000002e0: 2386 fabd 3918 86be 5b46 afbe ca3e d2be
000002f0: debe e9be 60a2 5b3e f752 aebe 3f7d f13e

bias f4 [32]
0.26241454 -0.18321447 0.24293987 -0.31577635 -0.27060926 -0.21909907 0.14888726 0.02686221
-0.33428377 -0.5639516 -0.21405539 -0.43580934 -0.0856977 -0.5358862 -0.15542434 0.00093357987
-0.42304242 0.058754977 0.36018533 0.3149493 0.12550466 -0.20252892 -0.1939918 0.17257883
0.21495299 -0.38838458 0.15720133 -0.044015992 -0.35706395 -0.052652873 0.34246278 -0.21586369
00000000: 335b 863e 939c 3bbe 3bc5 783e 70ad a1be
00000010: 4c8d 8abe 825b 60be e775 183e 230e dc3c
00000020: 3e27 abbe 225f 10bf 5631 5bbe 6722 dfbe
00000030: 4782 afbd d72f 09bf 8f27 1fbe 7cbb 743a
00000040: 0499 d8be 0fa9 703d 366a b83e 0941 a13e
00000050: 4b84 003e be63 4fbe c9a5 46be 81b8 303e
00000060: a31c 5c3e 58da c6be 63f9 203e 1d4a 34bd
00000070: 16d1 b6be 8aaa 57bd 4857 af3e 5f0b 5dbe
