Case_Study_1/trained_transformer/verification/vit_6_1_6_64.pt (torch, 18896 bytes, 19 tensors)

pos_embedding f4 [1, 50, 6]
0	0x3fc3ecab	1.53066
1	0x400efdc9	2.2342398
2	0x3f39cf4e	0.72581947
3	0x3f3ab025	0.72925025
4	0x3df9b022	0.12191798
5	0xbff2315d	-1.8921314
6	0xbe7dd80f	-0.24789451
7	0x3ede8d1e	0.4346704
8	0xbfc2c924	-1.5217633
9	0xbfccf895	-1.6013361
10	0xbfa72f77	-1.306136
11	0xbf6cfcb7	-0.9257311
12	0x401da7bc	2.4633627
13	0x3fc6afd6	1.5522411
14	0x3f120341	0.57036215
15	0xbef1f249	-0.4725516
16	0xbf73b276	-0.95194185
17	0xbf669c19	-0.90081936
18	0xbf556f21	-0.83372694
19	0xbec027fe	-0.37530512
20	0x3f8674e8	1.0504427
21	0x3fe2b768	1.7712221
22	0xbe9f66b6	-0.3113305
23	0x3f8799d1	1.0593816
24	0x3f1d40c5	0.61426955
25	0xbf00f3f5	-0.5037225
26	0xbbb1261e	-0.0054061553
27	0x3f70fbc0	0.9413414
28	0x3ec3c5c3	0.38236818
29	0xbf645572	-0.8919288
30	0x3e2af7e2	0.16696122
31	0xbf7969e3	-0.97427195
32	0xbe7effdd	-0.24902292
33	0x3f362aff	0.71159357
34	0x3edb9db4	0.42893755
35	0xbfd751ab	-1.6821798
36	0xbf3011f3	-0.6877739
37	0x3e3970c3	0.18109421
38	0xc02d7b27	-2.7106416
39	0xbf6d2d47	-0.9264721
40	0x3f976e25	1.1830488
41	0x3e987f43	0.29784593
42	0x3e63c600	0.222435
43	0x3d1ba778	0.038001508
44	0xbf37648b	-0.7163779
45	0x3f6499ef	0.89297384
46	0x3f32ef84	0.6989672
47	0xbfd020bf	-1.6259993
48	0x3f4e4685	0.80576354
49	0x3ff51641	1.9147416
50	0x3e20ba87	0.15696155
51	0x3e78189b	0.24228136
52	0xbef83a4e	-0.48481983
53	0xbf76411f	-0.96193117
54	0xbee91efc	-0.45531452
55	0x3fb4afc9	1.4116145
56	0xbdd4fdb3	-0.10399952
57	0xbf2ba0de	-0.6704234
58	0x3f8309a1	1.0237314
59	0x3f32fe33	0.6991913
60	0x3e3fa8ab	0.18716685
61	0xbf5ee459	-0.8706718
62	0x3eb521ad	0.35377255
63	0x3f536f5d	0.825918
64	0xbf6c9ca6	-0.92426527
65	0xbe9841f8	-0.2973783
66	0x3e1d933a	0.15388194
67	0xbf2b19a7	-0.6683602
68	0x3ef8a12a	0.48560458
69	0x3ecccaf7	0.399986
70	0xbf43f28d	-0.7654198
71	0xbef44a98	-0.4771316
72	0x3e92ba24	0.2865764
73	0xbf8d30a2	-1.1030467
74	0x3ea269cb	0.3172134
75	0x3f93992d	1.153112
76	0xbf3e1873	-0.74256057
77	0x3efb52c2	0.49086577
78	0x3f8adc8e	1.0848558
79	0xbec36d44	-0.381693
80	0xbf95e109	-1.17093
81	0xbe3317da	-0.17489567
82	0x3e7e2cee	0.24821827
83	0x3dd500f9	0.10400576
84	0xbf39348e	-0.7234582
85	0x3fcbd3de	1.5924032
86	0xbe392122	-0.18079045
87	0x3f34badb	0.7059762
88	0x3e9c460d	0.30522195
89	0xc000a48d	-2.0100434
90	0x40203da7	2.503763
91	0xbf99bf49	-1.2011501
92	0x3ec4961b	0.3839577
93	0x3f4c09d0	0.7970247
94	0x3f6d2168	0.926291
95	0x3f892a49	1.071603
96	0x3f83b7b8	1.0290442
97	0x3e5887ca	0.2114555
98	0xbe19d465	-0.15022428
99	0xbf350d75	-0.7072366
100	0x3d6cb8b7	0.057793345
101	0xbee39583	-0.44450006
102	0xbf9e6b77	-1.2376546
103	0x3e5dc7b8	0.21658218
104	0xbee7feed	-0.4531168
105	0x3fb33f6d	1.4003731
106	0xbf5d9738	-0.86558867
107	0xbf51758b	-0.8181998
108	0x3f36259e	0.7115115
109	0x3e891c7f	0.26779553
110	0x3e6f1aba	0.23350039
111	0xbef66277	-0.48121998
112	0xbf29a4c5	-0.66267043
113	0x3eef7354	0.46767676
114	0x3f877002	1.0581057
115	0x3ee52a0a	0.44758636
116	0x3f4941df	0.78616136
117	0x3e39b575	0.18135627
118	0xbf8d70f2	-1.1050093
119	0x3fcaf735	1.5856692
120	0x3f67a346	0.9048351
121	0x3f635013	0.8879406
122	0x3e9e3df7	0.3090665
123	0x3e81d06b	0.25354323
124	0xbee8eec9	-0.4549468
125	0x3e29ef68	0.16595232
126	0x3f244ae9	0.64176804
127	0x3ecdbd74	0.40183604
128	0x3e7ccb48	0.2468692
129	0xbdc44b2c	-0.095846504
130	0x3ccb0f51	0.024787577
131	0xbea804d9	-0.32816198
132	0xbded07c0	-0.11573744
133	0x3fe2696c	1.7688422
134	0xbe08fe94	-0.13378364
135	0xbef02d67	-0.4690964
136	0xbf2969a1	-0.661768
137	0x3f99f433	1.2027649
138	0x402f578f	2.7397192
139	0x3f40f901	0.7537995
140	0xbe14b56e	-0.14522335
141	0x3fb30fc8	1.3989191
142	0x3fcab91c	1.5837741
143	0x3e572761	0.21011116
144	0x401fc703	2.4965217
145	0xbda3ccd2	-0.07998051
146	0xbfc1e814	-1.514895
147	0x3fb02df7	1.3764027
148	0x3edea646	0.43486232
149	0xbf179111	-0.5920573
150	0x3df9778f	0.12181007
151	0x3ec22828	0.37921262
152	0xbff2726d	-1.894117
153	0x4013f46e	2.3117938
154	0xbec25d72	-0.37961918
155	0x3fa3e9d7	1.2805737
156	0xbeb4a837	-0.35284588
157	0xbfaa58d3	-1.3308357
158	0x3e155705	0.14583977
159	0xc00d5957	-2.2085779
160	0x3ec080b1	0.37598184
161	0xbedd38af	-0.4320731
162	0x3f1f4853	0.62219733
163	0x3fb2d95f	1.3972586
164	0xbfbabef4	-1.4589524
165	0x3f814d25	1.0101668
166	0x3e9203ea	0.2851861
167	0xbfd00f56	-1.625468
168	0xbfe40ceb	-1.7816442
169	0xbf185629	-0.5950647
170	0x3ff747c3	1.9318775
171	0x3ee89c68	0.45431828
172	0xbf9c7ab7	-1.222495
173	0x3f0c24b7	0.5474352
174	0xbf226fcb	-0.6345183
175	0x3ef2e6f5	0.4744183
176	0xbfbabed7	-1.458949
177	0xbfeb8690	-1.840044
178	0xbee60f90	-0.44933748
179	0xbf32d55b	-0.69856805
180	0xbe9f7e18	-0.3115089
181	0xbfa5c759	-1.2951461
182	0xbef5a6a1	-0.4797869
183	0x3e12ceaa	0.14336649
184	0xbe67b433	-0.22627334
185	0x3f59dca9	0.85102326
186	0x3f4bf9f6	0.79678285
187	0xbf4fa07e	-0.81104267
188	0xc00734f2	-2.1126065
189	0x3f558b92	0.8341609
190	0xbf176166	-0.59132993
191	0xbd019db5	-0.03164454
192	0xbf8e3f73	-1.1113113
193	0xbf2b2222	-0.6684896
194	0x3da76086	0.08172707
195	0xbe371ffa	-0.17883292
196	0x3fa5d8af	1.2956752
197	0x3f3e0d8d	0.74239427
198	0xbdc29ac2	-0.09502174
199	0xbf0034de	-0.5008067
200	0x3f6bca7e	0.92105854
201	0x3eb6790a	0.3563922
202	0x3f13f99b	0.5780274
203	0x4001fc09	2.031008
204	0xbe980e3c	-0.2969836
205	0x3f392751	0.7232562
206	0x3f028f95	0.5100034
207	0x3f8b7b1a	1.0896943
208	0xbe3940c5	-0.18091114
209	0xc00ba430	-2.1818962
210	0x3f439585	0.76400024
211	0x3f5fe6ee	0.87461746
212	0xbe1d4e09	-0.153618
213	0x3ec4e77a	0.38457853
214	0x3fd45e58	1.6591291
215	0x4005f43e	2.0930324
216	0xbe4454e9	-0.19173016
217	0xbbb24614	-0.005440483
218	0xbf676fcd	-0.9040497
219	0xbefb08f0	-0.49030256
220	0xbf875ef4	-1.0575852
221	0x3fa44abb	1.2835306
222	0xbf98353f	-1.189125
223	0xbf8c3eb0	-1.0956631
224	0x3f49418a	0.7861563
225	0xbf39cd22	-0.7257863
226	0xbed6b0c6	-0.41931742
227	0x3faab076	1.3335102
228	0xbec14c79	-0.37753657
229	0xbfba8bbd	-1.4573895
230	0x3f52effd	0.82397443
231	0x3f8d15a5	1.102223
232	0x3f93715d	1.1518971
233	0x3f4d38c5	0.8016475
234	0x3f42d59b	0.76107186
235	0x3fc7422c	1.5567069
236	0xbf95cab6	-1.1702487
237	0x3f077bd1	0.52923304
238	0xbec78195	-0.3896605
239	0xbdad539a	-0.08463211
240	0x3dd454b5	0.10367719
241	0x3f630fb1	0.8869582
242	0xbf120dbe	-0.5705222
243	0xbf3e8229	-0.7441736
244	0xbfe6817c	-1.8008265
245	0xbf2cbdbd	-0.6747702
246	0xbf5f7a19	-0.8729568
247	0x3d9612bf	0.07327794
248	0x3f896fcf	1.0737246
249	0xbe0283cb	-0.12745588
250	0x3f0777de	0.5291728
251	0xbfd08bb2	-1.6292632
252	0x3e896dcb	0.26841578
253	0xbe668523	-0.22511725
254	0x3f3c8f41	0.7365609
255	0x3ee189c9	0.44050434

cls_token f4 [1, 1, 6]
0	0x3cb3a73c	0.02193033
1	0x3fdcf0aa	1.7260945
2	0x3f20cb96	0.6281065
3	0xbe84add3	-0.25913867
4	0x3ef12103	0.47095498
5	0x3d91715a	0.07101698

weight f4 [6, 16]
0	0xbe35230e	-0.17689154
1	0xbcc0bc58	-0.02352731
2	0xbce22b46	-0.027608525
3	0x3ec765e6	0.3894493
4	0xbe87bb12	-0.2650991
5	0xbf172661	-0.59042937
6	0xbea4e16c	-0.32203233
7	0xbe374f64	-0.17901379
8	0xbd69bf3c	-0.05706714
9	0xbea98fff	-0.33117673
10	0xbdf15054	-0.117828995
11	0xbc44caa6	-0.012011206
12	0xbed21059	-0.41028097
13	0xbe6791df	-0.22614239
14	0x3dc47f5b	0.09594604
15	0xbcf823c0	-0.030290484
16	0x3f18a240	0.59622574
17	0x3e9e3dab	0.30906424
18	0x3ee30d43	0.44346055
19	0x3e899970	0.26874876
20	0x3e12087d	0.1426105
21	0xbe018b73	-0.12650852
22	0xbbe69243	-0.0070364787
23	0xbeb71a6b	-0.35762343
24	0x3e7cdaea	0.24692884
25	0x3e9e0e4e	0.3087029
26	0x3d98f839	0.0746922
27	0xbebda42e	-0.37039322
28	0x3dfabb08	0.12242705
29	0xbe57424c	-0.21021384
30	0xbe0bc088	-0.13647664
31	0xbed86b08	-0.42269158
32	0x3ee85407	0.45376608
33	0xbe0edb25	-0.13950785
34	0x3c657586	0.014005071
35	0xbec80ecf	-0.39073798
36	0x3e95e07f	0.2927284
37	0xbe7185aa	-0.23586145
38	0xbe46413e	-0.19360825
39	0xbe4f46da	-0.20241871
40	0x3e61cee2	0.22051576
41	0xbd8d3bb7	-0.06896155
42	0xbda73a2d	-0.08165393
43	0x3c382c13	0.011240977
44	0xbe0c945d	-0.13728471
45	0xbee7071d	-0.45122615
46	0xbdf9d398	-0.121985614
47	0xbebbb76a	-0.3666337
48	0xbe9383b7	-0.28811428
49	0x3df27755	0.11839167
50	0x3d52f653	0.051504444
51	0x3e289005	0.16461189
52	0xbcf1ee48	-0.029532567
53	0x3d18b469	0.037281428
54	0xbca3cf02	-0.01999617
55	0x3dce884a	0.10084589
56	0xbe99be4c	-0.30027997
57	0xbcaa9085	-0.020820865
58	0x3c266124	0.010154996
59	0xbd97a886	-0.0740519
60	0xbe65afe3	-0.22430377
61	0x3eab22b6	0.3342492
62	0x3e2fdff1	0.1717527
63	0xb8eba8d0	-0.00011237117
64	0x3c877bf7	0.016538603
65	0x3d33ac93	0.04386575
66	0x3e0d838c	0.13819712
67	0x3ee2c8d8	0.44293857
68	0x3dfd90a5	0.123811044
69	0xbd96f691	-0.073712476
70	0xbb4a98c2	-0.0030913805
71	0x3e32cedd	0.17461725
72	0x3d558d52	0.052136727
73	0x3dbc725f	0.09201502
74	0x3dcb7afc	0.09935567
75	0x3e6b9781	0.23007013
76	0x3e29468b	0.16530816
77	0x3e032935	0.12808688
78	0x3e9900b3	0.29883346
79	0x3ce18469	0.027528958
80	0xbde0a017	-0.10968035
81	0xbd9ae1c5	-0.07562593
82	0xbcf82b7d	-0.030294174
83	0xbdb2ab9e	-0.0872414
84	0xba44dab0	-0.00075093936
85	0x3d80d8cb	0.0629135
86	0xbb960ac1	-0.0045789187
87	0x3e185fed	0.14880343
88	0xbe05b9a5	-0.13059099
89	0x3e84db39	0.25948504
90	0x3d12d84a	0.0358508
91	0x3e7fbe84	0.2497502
92	0x3eaec11e	0.34131712
93	0x3e031589	0.12801184
94	0x3e3829d6	0.17984709
95	0x3e30ce48	0.1726619

bias f4 [6]
0	0xbe576394	-0.2103408
1	0x3e7b6fbc	0.24554342
2	0x3d6b99e4	0.05751981
3	0x3dfe2608	0.12409598
4	0xbe84cd0b	-0.25937685
5	0x3ec021b2	0.37525707

weight f4 [6]
0	0x3fb0d897	1.3816098
1	0x3fa91836	1.3210514
2	0x3fc26c57	1.5189313
3	0x3f91677a	1.1359704
4	0x3fc0eea5	1.5072829
5	0x3fa4cffd	1.2875973

bias f4 [6]
0	0x3dbadaaa	0.09123738
1	0x3d3533bd	0.044238795
2	0x3d822e1b	0.0635645
3	0xbe3c31e4	-0.18378407
4	0xbdfd3141	-0.1236291
5	0xbdd2801e	-0.10278343

weight f4 [18, 6]
0	0x3e9153b4	0.28384173
1	0x3c1dee5c	0.009639349
2	0xbe673a0a	-0.22580734
3	0xbe5a2e35	-0.21306689
4	0x3ed5d6f9	0.41765574
5	0xbeb80ee2	-0.35948855
6	0x3e55ee82	0.20891765
7	0x3dcd8e9d	0.10036967
8	0x3ef15f4a	0.47143012
9	0x3dbe3911	0.09288228
10	0xbe5f21ba	-0.2179021
11	0xbeec2ab8	-0.46126342
12	0xbea4a4fe	-0.3215713
13	0xbf263dbc	-0.6493795
14	0xbecf291c	-0.4046105
15	0x3eed5cc9	0.46359852
16	0x3f0cf0b7	0.550548
17	0x3e8758a2	0.2643481
18	0xbecf19e7	-0.4044945
19	0xbee4e4da	-0.4470585
20	0xbeeef340	-0.4666996
21	0x3e130a0a	0.14359298
22	0xbe054919	-0.13016166
23	0x3ded5dd6	0.115901634
24	0xbf16e168	-0.5893769
25	0xbf2e2ee5	-0.68040305
26	0xbdcb8ba5	-0.099387445
27	0x3f1f3846	0.6219524
28	0x3f30f55d	0.69124395
29	0x3f4a1530	0.7893858
30	0xbed489d4	-0.41511405
31	0xbea18419	-0.31546095
32	0xbecbcb05	-0.3980333
33	0x3eb5ddb9	0.35520723
34	0x3ebe1b08	0.37129998
35	0x3ed60d72	0.41807133
36	0xbe28c1a5	-0.1648012
37	0xbedd03fa	-0.43167096
38	0x3e7c1b52	0.24619797
39	0xbec4d8ae	-0.38446563
40	0xbed2f911	-0.41205648
41	0x3e91331d	0.2835931
42	0xbefa7fc5	-0.48925605
43	0xbe2b90b7	-0.16754423
44	0x3e89b108	0.26892877
45	0x3f675ac7	0.9037289
46	0xbdcf3008	-0.10116583
47	0xbebe5039	-0.3717058
48	0x3eee2125	0.46509662
49	0x3f05c9ef	0.5226125
50	0xbea55080	-0.3228798
51	0xbe2aa6d7	-0.16665207
52	0xbe702796	-0.23452601
53	0xbed2be3d	-0.41160765
54	0xbd1b5976	-0.037927113
55	0x3dd934dc	0.10605785
56	0x3f12a283	0.57279223
57	0xbf49d88b	-0.78846043
58	0xbdabc397	-0.08386915
59	0x3e0a7111	0.13519694
60	0x3e78486d	0.24246378
61	0xbc5cf3f2	-0.0134858955
62	0xbf215c92	-0.63031876
63	0x3f57bc60	0.8427181
64	0xbebf3dd7	-0.37351868
65	0xbee95619	-0.455735
66	0x3ca2f6f9	0.019893156
67	0xbeecc82a	-0.46246463
68	0x3e59630d	0.21229191
69	0xbf4f8821	-0.8106709
70	0x3ee879da	0.45405465
71	0xbe2bf86c	-0.16793984
72	0x3f700e53	0.9377186
73	0x3e1a4dd5	0.15068753
74	0x3ecea042	0.40356642
75	0xbe8d1778	-0.27556968
76	0xbef254b2	-0.47330242
77	0xbeb927b1	-0.36163095
78	0xbf325015	-0.69653445
79	0x3f72d9de	0.9486369
80	0xbf7d0bbb	-0.98846024
81	0x3ebe4e83	0.37169275
82	0x3f1c4042	0.6103555
83	0x3edfe06a	0.43725902
84	0xbf05e201	-0.5229798
85	0x3f163061	0.5866757
86	0xbf73a0c8	-0.9516721
87	0x3e0696d6	0.13143477
88	0x3f3f31b7	0.74685234
89	0x3e757cee	0.23973438
90	0x3db4d421	0.08829523
91	0x3b94b836	0.004538561
92	0xbe017293	-0.12641363
93	0xbe126541	-0.14296438
94	0xbfa0299f	-1.2512702
95	0x3ea3089d	0.3184251
96	0x3e52aa1a	0.20572701
97	0xbf1097a3	-0.5648138
98	0xbd663e99	-0.05621204
99	0xbbe23822	-0.006903664
100	0x3f0fc803	0.5616457
101	0xbe2ef611	-0.17086054
102	0x3f068113	0.525407
103	0x3ed32947	0.4124243
104	0x3ef80013	0.48437557
105	0xbcb0e07f	-0.021591423
106	0x3db012fa	0.085973695
107	0xbfba7a2a	-1.4568532

weight f4 [6, 6]
0	0xbf9b6833	-1.2141174
1	0xbecbe606	-0.3982393
2	0xbe01b38f	-0.12666152
3	0x3f9d8344	1.2305684
4	0xbe3f79b9	-0.18698777
5	0x3eeeffb3	0.46679458
6	0x3f9069fd	1.1282345
7	0x3fb1af27	1.3881577
8	0x3d249290	0.040178835
9	0xbe94fb94	-0.2909819
10	0xbe434200	-0.19068146
11	0x3f46ab96	0.7760557
12	0x3dfe465d	0.124157645
13	0xbf00cf36	-0.5031618
14	0x3ea89690	0.3292737
15	0xbeb14f9b	-0.34631047
16	0x3f17af03	0.5925142
17	0xbe46a3ea	-0.19398466
18	0x3fb00af3	1.3753341
19	0xbf72e3c5	-0.948788
20	0xbf50b17a	-0.8152081
21	0xbf3c717f	-0.7361068
22	0xbedd0655	-0.43168893
23	0xbe3f3540	-0.18672657
24	0xbf918485	-1.1368567
25	0x3d878224	0.06616619
26	0x3e8362bd	0.2566127
27	0xbebb616e	-0.3659777
28	0xbeccd266	-0.4000427
29	0xbf5380e4	-0.82618546
30	0x3ff6a751	1.9269811
31	0x3e5cbd6e	0.21556637
32	0x3f22c8c0	0.6358757
33	0x3e9f4e64	0.31114495
34	0x3e9cb740	0.3060856
35	0xbed60ef6	-0.4180829

bias f4 [6]
0	0xbd84cb57	-0.064840965
1	0xbee2d5cc	-0.4430374
2	0xbea0f332	-0.31435543
3	0xbd8414ee	-0.064493045
4	0x3e177c29	0.14793457
5	0x3f0524f5	0.52009517

weight f4 [6]
0	0x3fb84c8e	1.4398363
1	0x3f876b47	1.0579613
2	0x3fbb5dd6	1.4638011
3	0x3fb059c9	1.37774
4	0x3f9ae4a6	1.2101028
5	0x3f45b840	0.7723427

bias f4 [6]
0	0xbd73ca05	-0.059518833
1	0xbd0ee24d	-0.034883786
2	0xbde5751c	-0.112039775
3	0xbd058f1b	-0.03260718
4	0xbe3dd350	-0.1853764
5	0x3ec7004f	0.38867423

weight f4 [64, 6]
0	0xbf06fd82	-0.5273057
1	0xbe99d3d9	-0.3004444
2	0xbd95d293	-0.073155545
3	0x3f5cc5e0	0.86239433
4	0xbd4ca8cc	-0.049965665
5	0xbc81e87b	-0.015857926
6	0xbd713046	-0.058883928
7	0xbd44a5a9	-0.04800955
8	0xbf68d1da	-0.9094521
9	0xbe33bac0	-0.17551708
10	0xbe6da3e2	-0.23207048
11	0x3f27fbf8	0.6561885
12	0xbf17e82a	-0.5933863
13	0xbd130a8f	-0.03589874
14	0xbf1bb806	-0.6082767
15	0xbef0c6c9	-0.4702666
16	0x3df8ba4e	0.1214491
17	0x3eeee44a	0.46658546
18	0x3f09d1b6	0.5383562
19	0xbf1faf55	-0.6237691
20	0x3f20dd4a	0.6283766
21	0xbe8acb99	-0.27108458
22	0xbe8f1cd4	-0.27951682
23	0xbd5bb8ab	-0.05364291
24	0xbdeb72b8	-0.1149649
25	0xbea1f3b4	-0.31631243
26	0x3d4f9bb0	0.050685585
27	0x3e0bf9f3	0.13669567
28	0xbe4f0179	-0.20215406
29	0x3e4c9946	0.19980344
30	0x3f7b3aeb	0.98136777
31	0xbe9140b0	-0.28369665
32	0xbec4d1a2	-0.38441187
33	0xbce5ff36	-0.028075796
34	0xbe1b0f33	-0.15142517
35	0x3ebd2897	0.3694503
36	0x3e1b7061	0.15179588
37	0xbea4d390	-0.3219266
38	0x3f08a209	0.53372246
39	0xbe20819e	-0.15674445
40	0x3e18500e	0.14874288
41	0x3f1e11cd	0.6174591
42	0xbeb10a2b	-0.3457807
43	0x3ca13abd	0.019681329
44	0x3c943f04	0.018096454
45	0x3f49c26a	0.7881228
46	0x3f6768b1	0.9039412
47	0xbea7f8e8	-0.32807088
48	0xbf241bb4	-0.6410477
49	0xbeb79ff8	-0.35864234
50	0xbe8888f0	-0.26666975
51	0x3ebfbf40	0.374506
52	0x3ca403aa	0.020021278
53	0x3e5ea69d	0.21743245
54	0xbe0971d8	-0.13422334
55	0xbbade52e	-0.0053068614
56	0x3e861306	0.2618639
57	0xbe5321e5	-0.20618398
58	0xbd16df0c	-0.036833808
59	0xbed1f981	-0.4101067
60	0xbab6fc00	-0.00139606
61	0x3d746ae8	0.059672266
62	0xbe6a2046	-0.22863874
63	0x3dfb2dd8	0.122646034
64	0x3da28758	0.07935971
65	0x3e8be20a	0.27320892
66	0x3e34977d	0.17635913
67	0xbed15bbe	-0.40890306
68	0xbe6a6f2a	-0.22893968
69	0xbe5ec37d	-0.2175426
70	0xbeb9c3e2	-0.3628226
71	0x3e547636	0.20748219
72	0xbeeb22b0	-0.45924902
73	0xbece7b7c	-0.40328586
74	0xbea71736	-0.32634896
75	0x3f905572	1.1276076
76	0xbf4802fe	-0.78129566
77	0xbe3cc2b6	-0.18433651
78	0xbe954855	-0.29156747
79	0x3e24963f	0.1607294
80	0x3ebc738d	0.36806908
81	0x3e964425	0.29348865
82	0x3ec2496b	0.37946638
83	0xbed8285f	-0.422183
84	0x3f02b095	0.5105069
85	0xbf125cfe	-0.57173145
86	0x3e9e90c0	0.3096981
87	0x3f0c2f5b	0.5475976
88	0xbdc6e4ec	-0.09711632
89	0x3e59aafe	0.21256635
90	0xbf129316	-0.57255685
91	0x3e7fce5c	0.24981064
92	0x3e88bbab	0.2670568
93	0x3ea097cb	0.3136581
94	0x3ef9d29c	0.48793495
95	0xbea643e2	-0.32473665
96	0xbe8b5209	-0.27211025
97	0x3d2e535f	0.042559978
98	0x3ed7dd57	0.42161056
99	0xbea7629a	-0.32692415
100	0xbda603fd	-0.081062295
101	0x3dafb9d7	0.08580368
102	0xbed4a2bd	-0.4153041
103	0x3e5d06d3	0.21584634
104	0xbe500603	-0.20314793
105	0xbf642072	-0.8911201
106	0x3dcfd826	0.10148649
107	0x3eaf51dd	0.34242144
108	0xbe4f2438	-0.2022866
109	0xbe7cf38b	-0.2470228
110	0xbc4d71de	-0.012539355
111	0xbeb1a6aa	-0.34697467
112	0x3e9fcb86	0.31209964
113	0xbdc8d117	-0.09805506
114	0xbd6021ae	-0.05471962
115	0x3e1c34bd	0.15254493
116	0x3ec5c1eb	0.3862451
117	0xbbc4d382	-0.006006659
118	0x3d987890	0.074448705
119	0xbe6320bf	-0.2218046
120	0x3e798452	0.24366882
121	0xbedc97c3	-0.43084535
122	0xbf78ad9b	-0.971399
123	0xbeb6cfeb	-0.35705504
124	0x3f4b76c6	0.7947811
125	0x3e3cfe1f	0.18456315
126	0xbed9fa8e	-0.4257397
127	0x3ec7502d	0.38928357
128	0xbe46d400	-0.19416809
129	0x3e419a24	0.18906456
130	0xbe928a83	-0.286213
131	0xbd4c2b50	-0.049845994
132	0x3e7e71a7	0.24848042
133	0x3e29692e	0.16544029
134	0xbf059789	-0.5218435
135	0x3d8dfadc	0.06932613
136	0xbf77d669	-0.9681154
137	0x3d8ca22f	0.068668716
138	0xbf11b1a9	-0.5691171
139	0xbe0f8aa7	-0.14017735
140	0xbee0e929	-0.43927887
141	0x3f47790f	0.77919096
142	0xbe3aa845	-0.18228252
143	0x3e8b29d8	0.27180362
144	0x3ee05cea	0.43820888
145	0xbed4b73f	-0.41546056
146	0x3f1aa055	0.604009
147	0x3f2d9f19	0.6782089
148	0x3f3646db	0.71201867
149	0x3dd790ba	0.10525651
150	0x3f0c6219	0.54837185
151	0xbf091c2c	-0.5355861
152	0xbe8369f1	-0.25666764
153	0x3eb06a19	0.34455946
154	0x3efc6c5e	0.49301428
155	0x3d8ca7f8	0.06867975
156	0xbf028cbd	-0.50996
157	0xbe804f37	-0.25060436
158	0x3ef216bc	0.4728297
159	0xbe351bbc	-0.17686361
160	0x3d27c415	0.040958483
161	0x3f4502fb	0.7695767
162	0xbe6b21af	-0.22962068
163	0xbe627835	-0.22116168
164	0xbe94c278	-0.29054618
165	0xbd4ce4cc	-0.050022885
166	0x3d8e57e3	0.06950357
167	0x3f12c4f4	0.57331777
168	0x3dd80db9	0.105494924
169	0x3deab432	0.11460151
170	0xbf78465d	-0.96982366
171	0x3eb0fdee	0.34568733
172	0x3eea46a7	0.45757028
173	0xbe5c42b7	-0.21509825
174	0xbe6a8e4f	-0.22905849
175	0xbd44aa1b	-0.048013788
176	0xbe28725d	-0.16449876
177	0x3e959076	0.29211777
178	0x3e211af4	0.15732938
179	0x3f1c1685	0.6097186
180	0xbf3e9554	-0.74446607
181	0xbdc33db0	-0.0953325
182	0x3e20577b	0.15658371
183	0x3ececad7	0.4038913
184	0xbf0bb0fe	-0.54566944
185	0x3c20870a	0.009797821
186	0xbedf295f	-0.4358625
187	0xbf09427c	-0.5361707
188	0xbeb005cd	-0.34379426
189	0x3e94c8aa	0.29059345
190	0xbeb76b48	-0.35824037
191	0x3e3d155c	0.18465179
192	0xbd84f79f	-0.064925425
193	0x3d84cd91	0.06484521
194	0x3e5542b5	0.20826228
195	0x3d107237	0.035265174
196	0x3e60e408	0.21961987
197	0xbe17b3ce	-0.14814684
198	0xbd3dd049	-0.046341214
199	0x3e9dc514	0.3081442
200	0x3e93dd91	0.2887998
201	0x3e8a9083	0.2706338
202	0xbe970e51	-0.2950311
203	0x3e18ce37	0.14922415
204	0x3e6aa5d1	0.22914816
205	0xbe9b5b46	-0.30343074
206	0xbe19eda3	-0.15032057
207	0xbe264d3e	-0.16240403
208	0x3d8fe009	0.07025153
209	0x3e30bdbd	0.1725988
210	0x3f008775	0.5020669
211	0xbe932557	-0.28739426
212	0xbf0c699f	-0.54848665
213	0x3e040e69	0.12896122
214	0xbeb3bd98	-0.35105586
215	0xbdb27a9d	-0.08714793
216	0x3ec715b3	0.38883743
217	0xbf68ae57	-0.9089102
218	0x3e510288	0.20411122
219	0xbe60b914	-0.21945602
220	0xbf1c9d1d	-0.61177236
221	0xbe0d5d2a	-0.1380507
222	0xbe9b2ede	-0.30309194
223	0xbeed6503	-0.46366128
224	0x3e87c37b	0.26516327
225	0x3e5b1663	0.21395259
226	0x3f0a4350	0.5400896
227	0x3dc04dfd	0.09389875
228	0xbea42401	-0.3205872
229	0xbd01062f	-0.031500038
230	0x3ec320fa	0.38111097
231	0x3bc3284b	0.005955731
232	0xbcd40e9b	-0.02588587
233	0xbee7d59e	-0.45280164
234	0xbf4bf9ab	-0.7967784
235	0x3e280391	0.1640761
236	0x3deac3a5	0.114630975
237	0x3e85726c	0.2606386
238	0x3e33e399	0.1756729
239	0x3e4f1ddc	0.20226234
240	0x3f382358	0.7192893
241	0xbe210888	-0.1572591
242	0xbeb24c0b	-0.3482364
243	0xbc04413c	-0.008072194
244	0xbece3685	-0.4027597
245	0xbe04f352	-0.12983444
246	0xbe28ee38	-0.16497123
247	0x3ee55ab0	0.44795752
248	0xbe3bc03a	-0.18335047
249	0x3f0c57bd	0.5482138
250	0x3da88b01	0.08229638
251	0x3dbefd8f	0.09325706
252	0xbd21a37b	-0.039462548
253	0xbea84f6f	-0.32873103
254	0x3ea82671	0.32841828
255	0xbed57a2d	-0.41694775

bias f4 [64]
0	0xbe00b0a4	-0.12567383
1	0xbdea29af	-0.11433732
2	0xbdaa195b	-0.083056174
3	0x3cebfc80	0.028806925
4	0xbeb5caf1	-0.35506395
5	0xbd4e653e	-0.05038952
6	0x3e32c97f	0.17459677
7	0xbe841bdf	-0.25802514
8	0xbdbc2289	-0.091862746
9	0xbed9f290	-0.42567873
10	0xbe53245e	-0.20619342
11	0x3df60366	0.12012367
12	0xbd232419	-0.039829347
13	0xbec0d4b9	-0.37662295
14	0x3e14c4dc	0.14528221
15	0x3c54c40b	0.012986193
16	0x3e8ff2eb	0.2811502
17	0xbeb8af98	-0.36071467
18	0xbe85ffd7	-0.26171753
19	0xbecf4f8e	-0.40490383
20	0xbe27cfd8	-0.1638788
21	0x3d8283ae	0.06372772
22	0xbee812b9	-0.45326784
23	0x3e1637b0	0.1466968
24	0xbebe175f	-0.37127206
25	0xbc099bc4	-0.008398954
26	0xbee2fd7e	-0.44334024
27	0xbe250f58	-0.16119134
28	0xbed5fa73	-0.4179264
29	0x3dc70b09	0.09718902
30	0x3e952bf5	0.291351
31	0x3dde9c92	0.10869707
32	0xbeda0daa	-0.4258855
33	0x3e6cdb1f	0.23130463
34	0xbeda8ca4	-0.42685425
35	0x3ddd9e8c	0.10821256
36	0xbe92434c	-0.28566968
37	0xbe84a3c0	-0.2590618
38	0xbea97a78	-0.3310125
39	0xbedeccd0	-0.43515635
40	0x3d45e35f	0.04831254
41	0xbd5d0595	-0.0539604
42	0xbe8c15bb	-0.2736033
43	0x3e8b5f10	0.27220964
44	0xbe1b660d	-0.15175648
45	0x3d2fccc9	0.042919908
46	0xbd933020	-0.071869135
47	0x3e90cffc	0.2828368
48	0xbbc05f3d	-0.0058707283
49	0x3e45bced	0.1931035
50	0xbd160bac	-0.036632225
51	0xbd8765f9	-0.066112466
52	0x3be682ea	0.007034649
53	0xbe10e765	-0.1415077
54	0xbea8bf97	-0.3295867
55	0xbd34592d	-0.044030357
56	0x3c48555c	0.0122273825
57	0xbecb1105	-0.39661422
58	0x3d0a52fa	0.03377054
59	0xbdd35a65	-0.10319976
60	0xbd647bf5	-0.055782277
61	0xbe144fb7	-0.14483534
62	0xbe31e764	-0.17373425
63	0xbe0d3802	-0.13790897

weight f4 [6, 64]
0	0xbc954776	-0.018222552
1	0x3d391765	0.045188326
2	0x3eab746a	0.33487254
3	0xbe8cbddc	-0.274886
4	0xbe17336f	-0.14765714
5	0x3f3b5800	0.7318115
6	0x3e28b01b	0.16473429
7	0x3c729de2	0.01480815
8	0xbbb93033	-0.0056514977
9	0xbdd43f4e	-0.10363637
10	0x3decf1aa	0.11569531
11	0x3ce1d242	0.027566079
12	0x3e06c301	0.13160326
13	0xbb71834c	-0.003685194
14	0xbd71bfb8	-0.059020728
15	0x3cddf1ce	0.02709284
16	0xbe5ebc5a	-0.21751538
17	0x3d18289d	0.037148107
18	0x3d916445	0.07099203
19	0xbdbf83af	-0.093512885
20	0xbd9f9b10	-0.07793248
21	0xbe5debd1	-0.21671988
22	0x3e2545de	0.16139933
23	0xbe34626a	-0.17615667
24	0x3ef37c5a	0.4755581
25	0x3e30bdd2	0.1725991
26	0x3f4a5547	0.7903637
27	0x3e0a9e53	0.13536958
28	0x3ea7475c	0.3267163
29	0xbdc4fae8	-0.09618169
30	0xbebe1abe	-0.37129778
31	0x3e05c75e	0.13064334
32	0xbcb9dc95	-0.02268819
33	0xbdacea41	-0.08443118
34	0xbb208a3f	-0.0024496464
35	0xbda0b2d7	-0.07846611
36	0x3f9947e3	1.1975063
37	0x3e3a0769	0.18166889
38	0xbd7f6179	-0.062348817
39	0xbe85b7f4	-0.26116908
40	0x3dbe3093	0.092866085
41	0xbda6917e	-0.08133219
42	0xbe47f79f	-0.19528054
43	0xbcc4124a	-0.023934502
44	0x3ecf441d	0.40481654
45	0x3e3b9628	0.18318999
46	0xbce65a78	-0.02811931
47	0x3de72261	0.11285854
48	0xbe8c7073	-0.27429542
49	0x3d0adb44	0.033900514
50	0xbd40d406	-0.0470772
51	0xbe8cf956	-0.27533978
52	0x3e69e60f	0.22841667
53	0xbf07202f	-0.52783483
54	0x3db7d904	0.08976939
55	0xbe38e212	-0.18054989
56	0xbeebf6df	-0.46086785
57	0x3d398a13	0.045297693
58	0xbf281e1e	-0.65670955
59	0x3e87e559	0.26542166
60	0x3e058d14	0.13042098
61	0x3df32837	0.11872905
62	0xbc401ac0	-0.011725128
63	0x3da98168	0.082766354
64	0x3ebe7b3b	0.37203392
65	0x3e55de5c	0.20885605
66	0xbe03ef90	-0.12884355
67	0xbf0397e6	-0.51403654
68	0xbdea5969	-0.11442835
69	0xbf5705a0	-0.8399296
70	0xbebd8e85	-0.37022796
71	0xbda1031b	-0.078619204
72	0xbe6a27a9	-0.22866692
73	0xbd8a001f	-0.06738304
74	0xbdb31c5a	-0.08745642
75	0x3d8ad3d2	0.06778683
76	0x3dd19bba	0.102347806
77	0xbe557a56	-0.20847449
78	0xbd3b78a1	-0.045769338
79	0xbe7a8dd9	-0.24468173
80	0xbe5122a2	-0.20423368
81	0xbde7d3ba	-0.113196805
82	0xbe2d8621	-0.16945697
83	0xbc501f38	-0.012702756
84	0x3e9db0df	0.30799004
85	0xbdfbec0b	-0.12300881
86	0x3c117824	0.008878741
87	0x3f3bc3f1	0.7334586
88	0x3eac1e07	0.3361666
89	0xbe9ffb3d	-0.31246367
90	0x3e0f1ff7	0.13977037
91	0xbd8c31e8	-0.06845456
92	0xbeb2c71e	-0.3491754
93	0xbd78c0cf	-0.06073075
94	0x3dfad664	0.12247923
95	0xbe9ffef2	-0.31249195
96	0xbd4a8cc4	-0.04945065
97	0xbe2ee278	-0.17078578
98	0x3e353413	0.17695646
99	0xbed4f245	-0.41591087
100	0xbea570b3	-0.32312545
101	0xbea1ab58	-0.31576037
102	0xbe0f9f3e	-0.1402559
103	0xbde95596	-0.11393277
104	0xbf0fe1b7	-0.5620379
105	0xbecccedf	-0.4000158
106	0x3f3a98ca	0.7288939
107	0xbefa2840	-0.48858833
108	0xbee6692c	-0.45002115
109	0xbcf5355a	-0.029932667
110	0xbd2b134c	-0.04176645
111	0x3e918a8e	0.2842602
112	0xbea7fa3b	-0.32808098
113	0xbe540e4a	-0.20708576
114	0xbd8039a8	-0.06260997
115	0xbe5045a7	-0.2033907
116	0x3e320f26	0.17388591
117	0xbe778cb7	-0.24174772
118	0x3dc4ce97	0.096097164
119	0xbe433530	-0.19063258
120	0x3eb4b0af	0.3529105
121	0x3e0fa17d	0.14026447
122	0x3e8c1bad	0.27364865
123	0xbe5593e9	-0.20857204
124	0xbda3d296	-0.079991505
125	0x3de79361	0.11307407
126	0xbc804910	-0.015659839
127	0xbe1c721f	-0.15277909
128	0xbe397937	-0.18112646
129	0xbeb36c68	-0.35043645
130	0x3e7101b9	0.23535813
131	0x3f14a7c2	0.5806848
132	0xbd81c6a2	-0.06336714
133	0x3f91b03f	1.1381911
134	0xbef8848c	-0.48538625
135	0xbe7b11be	-0.24518487
136	0x3dfba826	0.12287931
137	0x3d48cf74	0.049025968
138	0x3dcfe742	0.10151531
139	0x3d4e9ff0	0.050445497
140	0xbf03b6b7	-0.51450676
141	0xbe3eee0d	-0.18645497
142	0x3eacb87e	0.33734506
143	0xbe2da263	-0.16956477
144	0x3dbd6f03	0.092496894
145	0x3ecdaad6	0.401694
146	0x3d7602d2	0.060061283
147	0x3d018ba5	0.031627316
148	0x3ed0fe2c	0.40818918
149	0xbdec8525	-0.11548833
150	0xbb923652	-0.004462042
151	0xbf35ff2c	-0.71092486
152	0x3f6a614b	0.9155471
153	0x3f1ed3ff	0.6204223
154	0xbf0f94f6	-0.5608667
155	0x3c838e3a	0.01605903
156	0xbdacfb44	-0.084463626
157	0x3e933560	0.2875166
158	0xbda4ed97	-0.08053129
159	0xbf1d0cb7	-0.61347526
160	0xbc428ce4	-0.011874411
161	0xbd368888	-0.0445638
162	0xbc340c42	-0.010989251
163	0xbc81d7ba	-0.015849937
164	0xbfbc71e9	-1.4722263
165	0xbe5a23b4	-0.21302682
166	0xbdf4b58d	-0.119486906
167	0x3deea442	0.116524234
168	0x3e00d8ba	0.12582675
169	0x3dca8a9a	0.098897174
170	0xbf531157	-0.82448334
171	0xbe6b5be0	-0.22984266
172	0x3eb4f550	0.3534341
173	0xbe3a1edd	-0.18175836
174	0xbc4b1090	-0.0123940855
175	0xbe968eec	-0.29405916
176	0x3f252c36	0.64520586
177	0xbdfbca02	-0.12294389
178	0x3cc26e7a	0.02373432
179	0xbd25e5c6	-0.040502332
180	0xbf51e96d	-0.81996804
181	0x3f1453ae	0.57940185
182	0xbd9949d4	-0.07484785
183	0xbd19b616	-0.037527166
184	0xbd9e951a	-0.077432826
185	0x3cdf9656	0.027293365
186	0x3f237d3f	0.63862985
187	0xbea27455	-0.3172938
188	0x3d5bd0c4	0.05366589
189	0xbe72ca97	-0.23710094
190	0x3dea595e	0.11442827
191	0x3e4cc54f	0.19997142
192	0x3e782d89	0.2423612
193	0x3da2169f	0.07914471
194	0x3db0b344	0.08627942
195	0x3e4c1433	0.1992958
196	0x3d25b0ce	0.040451817
197	0xbf191b7d	-0.5980757
198	0x3dd684cc	0.10474548
199	0xbe82385d	-0.25433627
200	0x3e64b9b5	0.22336467
201	0x3e0d8492	0.13820103
202	0xbd3474b4	-0.04405661
203	0xbd31eb66	-0.043437384
204	0xbe832100	-0.25611115
205	0x3d1b4143	0.037904035
206	0xbeb66832	-0.3562637
207	0x3de051cb	0.10953101
208	0x3e0de7c2	0.1385794
209	0x3e4ecaa0	0.20194483
210	0x3da6b6d3	0.0814034
211	0x3e07688a	0.13223472
212	0x3d567952	0.052361794
213	0x3e2f5122	0.17120793
214	0xbd8c175b	-0.06840392
215	0x3e2b8e98	0.16753614
216	0xbf1e0ca3	-0.6173803
217	0xbe70f178	-0.23529613
218	0xbf61ab06	-0.88151586
219	0xbdac14c9	-0.08402402
220	0xbe135274	-0.14386922
221	0x3ea45ce7	0.3210213
222	0x3ecb2bbb	0.396818
223	0x3ea091da	0.31361276
224	0xbc20a322	-0.009804519
225	0x3e52303c	0.20526212
226	0xbdcf918a	-0.10135181
227	0xbe567fc5	-0.20947178
228	0xbe82f697	-0.25578758
229	0xbe9891e2	-0.297988
230	0x3d9e5f62	0.077330366
231	0x3e73e9bf	0.23819636
232	0xbec0b555	-0.37638345
233	0x3b8f186b	0.0043669245
234	0xbe62c2e9	-0.22144665
235	0x3e594225	0.21216638
236	0x3c060605	0.008180146
237	0xbe2a05aa	-0.16603723
238	0xbd9682e6	-0.07349186
239	0xbe32495c	-0.17410797
240	0x3e98e1c6	0.2985975
241	0x3dd5e1d8	0.10443467
242	0xbe1af4b7	-0.15132414
243	0x3e4ead43	0.20183282
244	0xbe774fc4	-0.24151522
245	0x3ee995b1	0.45622018
246	0xbe027697	-0.12740551
247	0xbafb6130	-0.0019178744
248	0xbd080419	-0.033207033
249	0xbd8d7665	-0.069073476
250	0xbf31d17f	-0.6946029
251	0x3e369aae	0.17832443
252	0xbe0ed6ec	-0.13949174
253	0xbeaed3b2	-0.34145886
254	0xbbdecd40	-0.00679937
255	0xbe5c3d62	-0.2150779

bias f4 [6]
0	0xbe09b7eb	-0.13449065
1	0xbea31a1f	-0.31855866
2	0xbe0a0c2e	-0.13481209
3	0x3e49e1f8	0.19715106
4	0xbcfe0851	-0.031009825
5	0x3d387175	0.045030076

weight f4 [6]
0	0x402ef3ec	2.7336378
1	0x40068125	2.1016324
2	0x40207fd7	2.5078027
3	0x400e6bfc	2.2253408
4	0x40137e9a	2.3046021
5	0x3fbdef4c	1.4838653

bias f4 [6]
0	0x3eadc034	0.33935702
1	0x3e523f5d	0.20531984
2	0xbc02f616	-0.007993242
3	0xbf025011	-0.5090342
4	0xbe0e5c21	-0.13902332
5	0x3efa3198	0.48865962

weight f4 [10, 6]
0	0xbf0fbae7	-0.56144565
1	0xbf4a24ee	-0.789626
2	0xbef141f4	-0.4712063
3	0xbef14483	-0.47122583
4	0x3f105a45	0.5638774
5	0x3f4dd99c	0.8041017
6	0x3ea3773b	0.31926903
7	0x3f7c3f9a	0.9853455
8	0x3daa3ccc	0.08312377
9	0x3ee9cacd	0.45662537
10	0xbfb22aaf	-1.3919276
11	0xbdcb7bfd	-0.09935758
12	0xbe90eb1b	-0.2830437
13	0x3f755833	0.95837706
14	0xbe2bebb1	-0.16789128
15	0xbf14edc7	-0.5817532
16	0xbe40db8d	-0.18833752
17	0x3ecc9d55	0.39963785
18	0x3e9d213c	0.30689418
19	0x3f137f51	0.57616144
20	0x3f898634	1.074408
21	0xbf6fd687	-0.9368672
22	0x3e347cff	0.17625807
23	0xbe41a9c9	-0.18912424
24	0x3e93ccfe	0.28867334
25	0xbf044eda	-0.5168282
26	0xbf858ca8	-1.043355
27	0x3fb52443	1.4151691
28	0x3e2fbe23	0.17162375
29	0xbe01e940	-0.12686634
30	0xbe8a1cc6	-0.26975077
31	0xbecc61a7	-0.39918253
32	0x3f616c7a	0.8805615
33	0xbd168160	-0.036744475
34	0x3eb22ea3	0.34801206
35	0xbe0360d9	-0.12829913
36	0xbfcd0440	-1.6016922
37	0xbe61e934	-0.22061616
38	0xbf2739f7	-0.6532282
39	0x3f1dd7fd	0.61657697
40	0x3e85bdf9	0.261215
41	0x3ef45a9e	0.47725385
42	0x3fa3f3e3	1.2808803
43	0xbe8b920a	-0.27259856
44	0x3ec6a763	0.3879958
45	0xbecd9fb0	-0.40160894
46	0xbec8107c	-0.39075077
47	0xbdc436ac	-0.0958074
48	0xbb06f7de	-0.0020594518
49	0x3df87f59	0.12133665
50	0x3e4d9e4e	0.2007992
51	0xbe982a34	-0.29719698
52	0x3f5cad7e	0.8620223
53	0xbf7b90fc	-0.98268104
54	0x3f73c1ef	0.95217794
55	0xbf2658f6	-0.64979494
56	0xbebe93b1	-0.37222055
57	0x3dfad005	0.12246708
58	0x3e904734	0.28179324
59	0xbf108a66	-0.5646118

bias f4 [10]
0	0x3ec66b57	0.3875377
1	0xbf0da808	-0.5533452
2	0x3fd76176	1.6826618
3	0xbf54915f	-0.8303432
4	0xbd858b95	-0.06520764
5	0x3edcb191	0.43104222
6	0xbf942556	-1.1573894
7	0xbb06ac4c	-0.0020549474
8	0x3dacf2d4	0.08444753
9	0x3efcb107	0.4935381
