Case_Study_1/trained_transformer/verification/vit_48_2_6_64.pt (torch, 161608 bytes, 30 tensors)

pos_embedding f4 [1, 50, 48]
-0.2610438 0.56005394 1.0270709 2.4052186 -1.3237226 0.11108321 1.609497 -0.91080105
1.4461458 0.3050193 0.35173142 0.17753592 0.20146753 1.2297592 -1.4136051 0.16889212
-0.72953194 -2.8383906 0.77845216 -0.55406785 -2.3154695 0.54057616 -0.8242842 1.6963012
0.25622314 -1.2872808 -0.1549754 -0.39274147 0.5201258 0.88663524 0.109758675 0.44948527
0.048640512 -0.21397999 0.8225114 -0.09178155 -1.8754461 1.3861511 -0.9312404 -0.005211656
0.04302393 -3.6051564 -1.6929663 0.63210636 1.8398373 -0.53823197 -0.1669541 0.46270576
-0.47509888 1.8863797 0.3928275 -1.1583395 0.52039766 0.053759288 -0.7821676 -0.25795436
-0.305099 -1.4669287 -0.33309242 -0.7599282 -0.13289121 -0.5045602 1.5622387 1.0467896
-0.11360893 1.4147989 0.3056851 -1.0384977 0.72996056 -1.1355705 0.5271899 -0.15167464
-0.08404963 -2.280426 1.3362943 0.23213863 0.8377568 0.76864064 0.5823832 0.21320029
0.97190994 1.3372333 -0.15412903 -0.89604694 -0.6672884 1.3529035 -0.34236628 -0.06919411
1.870567 0.3578666 -0.63048667 1.9018373 -0.77112895 0.47313365 0.92741275 -0.7251138
2.3527632 -0.21864879 0.11565522 0.3519394 -0.66894084 1.5612813 -1.7902018 -0.7634403
2.0952778 -0.3170972 1.4189978 -1.9519081 -1.5425757 1.8128513 -0.0086318925 0.10359946
-1.6216213 1.1514579 0.9470541 -0.1119137 -0.49367628 1.6241882 -0.8702902 1.130183
-0.5762997 -1.4043685 1.5571268 0.18470164 -0.39095765 -1.0227877 0.25480235 0.2875714
2.2376945 -0.23463981 -0.9464463 -0.34371465 0.67412966 0.44661048 -1.3787572 -0.0924438
-1.9808241 0.9033775 -0.8211585 -0.110804066 -0.85985684 0.48593104 1.2555107 0.2581339
0.24325158 0.504645 0.8336718 -1.0978823 -1.0892826 -0.7268421 0.4333768 -1.231642
-0.25571868 1.202316 -0.5072779 1.6288192 0.25531998 2.3920748 0.40151465 0.3183698
0.25773433 1.211152 0.015712917 0.4778456 -0.75828344 -0.05161649 0.45173404 2.1983154
-1.5423841 -1.1079943 -1.1769435 -1.0680518 -1.6572653 0.7980202 1.1712568 -0.29833636
0.7105463 1.6819047 -0.20965663 1.3494724 0.28603905 2.154964 0.94523257 0.6015972
1.2387235 -0.36491737 -0.4912333 -0.28256238 -0.7059214 -2.1200645 2.1703284 0.27876654
0.2610581 -0.20957355 0.5650014 -1.3813285 -0.40612718 -0.82123214 0.17166544 0.44482967
-0.46239913 -0.09972974 0.24106242 0.066226356 -0.016330354 1.149333 1.1093313 -2.4259088
0.12459097 2.0769458 -1.2688638 1.0810311 -2.2516286 -0.42522433 -0.38840273 -0.38196322
0.035449777 -0.11484778 -0.42281514 0.019991381 -0.42853215 3.063679 0.087008104 0.22817537
0.21745057 1.1780385 -1.1798564 -0.48580274 -0.3761497 -0.34925556 -0.62213427 -0.44620076
1.34099 -0.5978579 1.3156604 -1.312536 -0.5926376 0.003704311 -1.3383709 -0.3568756
0.5478345 0.83277553 -0.45588776 -1.482197 1.1442305 0.66497165 0.6853403 1.6081864
0.60276115 -2.5595462 0.58911145 0.2665809 -0.18816875 -2.036667 -1.6369298 -0.8055362
00000000: 88a7 85be b25f 0f3f 0f77 833f 1aef 1940
00000010: be6f a9bf 987f e33d ff03 ce3f 422a 69bf
00000020: 4e1b b93f 7d2b 9c3e 2416 b43e facb 353e
00000030: 814d 4e3e c068 9d3f 03f1 b4bf 0ef2 2c3e
00000040: 9bc2 3abf 31a8 35c0 a448 473f 64d7 0dbf
00000050: a730 14c0 3363 0a3f 4a04 53bf 6620 d93f
00000060: ae2f 833e 9ec5 a4bf dfb1 1ebe 6915 c9be
00000070: f726 053f 87fa 623f 28c9 e03d ef22 e63e
00000080: 463b 473d 921d 5bbe 1b90 523f f7f7 bbbd
00000090: 9e0e f0bf 666d b13f c565 6ebf 8ac6 aabb
000000a0: dc39 303d e2ba 66c0 1fb3 d8bf b9d1 213f
000000b0: ca7f eb3f 92c9 09bf 04f6 2abe c5e7 ec3e
000000c0: 2940 f3be e474 f13f b020 c93e 7844 94bf
000000d0: c838 053f b332 5c3d 233c 48bf 9812 84be
000000e0: f035 9cbe 52c4 bbbf 178b aabe a88a 42bf
000000f0: a214 08be db2a 01bf 70f7 c73f 34fd 853f
00000100: ccab e8bd 2118 b53f c282 9c3e 7eed 84bf
00000110: b2de 3a3f 605a 91bf ebf5 063f 9950 1bbe
00000120: 3622 acbd 80f2 11c0 b10b ab3f c0b5 6d3e
00000130: 3b77 563f a2c5 443f 1117 153f 2d51 5a3e
00000140: 17cf 783f 762a ab3f 00d4 1dbe 5563 65bf
00000150: 6ad3 2abf f12b ad3f a24a afbe a4b5 8dbd
00000160: bd6e ef3f 4a3a b73e 9367 21bf 686f f33f
00000170: b568 45bf 933e f23e ec6a 6d3f 0fa1 39bf
00000180: ac93 1640 78e5 5fbe a5dc ec3d 6731 b43e
00000190: b53f 2bbf 11d8 c73f 5525 e5bf d370 43bf
000001a0: 0819 0640 905a a2be b8a1 b53f 20d8 f9bf
000001b0: 1f73 c5bf 830b e83f c86c 0dbc f42b d43d
000001c0: 4991 cfbf f962 933f 2372 723f 0333 e5bd
000001d0: 23c3 fcbe 66e5 cf3f 57cb 5ebf d6a9 903f
000001e0: 6188 13bf 59c2 b3bf ee4f c73f 6d22 3d3e
000001f0: 9a2b c8be b5ea 82bf 7475 823e 8f3c 933e
00000200: 6336 0f40 6b45 70be 4e4a 72bf 5efb afbe
00000210: c393 2c3f 21aa e43e 1e7b b0bf 2d53 bdbd
00000220: a58b fdbf bf43 673f 7237 52bf 3eed e2bd
00000230: 941f 5cbf f4cb f83e 93b4 a03f 202a 843e
00000240: f116 793e 6a30 013f 846b 553f 6887 8cbf
00000250: 9d6d 8bbf 5312 3abf 90e3 dd3e 72a6 9dbf
00000260: 8fed 82be 7ee5 993f f7dc 01bf 267d d03f
00000270: 4db9 823e c117 1940 5493 cd3e 5e01 a33e
00000280: c1f5 833e 0707 9b3f 60b8 803c 2ea8 f43e
00000290: dd1e 42bf d06b 53bd af49 e73e 33b1 0c40
000002a0: d86c c5bf c2d2 8dbf 16a6 96bf ecb5 88bf
000002b0: 4521 d4bf 0d4b 4c3f beeb 953f 8bbf 98be
000002c0: 5de6 353f a748 d73f 3ab0 56be 83bb ac3f
000002d0: b673 923e eeea 0940 c3fa 713f 4602 1a3f
000002e0: 7e8e 9e3f 73d6 babe ee82 fbbe 04ac 90be
000002f0: 44b7 34bf 23af 07c0 a9e6 0a40 7dba 8e3e
00000300: 68a9 853e 739a 56be efa3 103f 5fcf b0bf
00000310: e7ef cfbe 453c 52bf 11c9 2f3e b7c0 e33e
00000320: 94bf ecbe 1b3f ccbd 11d9 763e afa1 873d
00000330: 3cc7 85bc 581d 933f 91fe 8d3f 1742 1bc0
00000340: 8d29 ff3d aeec 0440 216a a2bf 3a5f 8a3f
00000350: af1a 10c0 01b7 d9be b9dc c6be af90 c3be
00000360: c933 113d 5035 ebbd 3a7b d8be f7c4 a33c
00000370: 9168 dbbe 5113 4440 4e31 b23d cea6 693e
00000380: 5dab 5e3e f7c9 963f 8905 97bf 23bb f8be
00000390: b296 c0be a0d1 b2be 3144 1fbf 6d74 e4be
000003a0: 8fa5 ab3f 370d 19bf 8f67 a83f 2e01 a8bf
000003b0: 19b7 17bf 07c4 723b bd4f abbf 66b8 b6be
000003c0: e23e 0c3f c730 553f 1f6a e9be a2b8 bdbf
000003d0: 2576 923f 953b 2a3f 7672 2f3f 0dd9 cd3f
000003e0: 8e4e 1a3f 9bcf 23c0 02d0 163f 4b7d 883e
000003f0: 4faf 40be c158 02c0 ea86 d1bf 9f37 4ebf

cls_token f4 [1, 1, 48]
-0.028882274 0.9634861 -2.337467 -1.7246203 1.8126543 0.40455058 0.027709989 0.15174074
0.6236401 1.2827011 1.1938349 0.14800248 -0.18354212 0.45907858 -2.8940825 -0.42387882
-0.9853561 -0.07062031 0.7395297 0.5782492 1.2824312 -1.3935496 -0.9508649 0.27200583
0.442679 -1.1243017 1.1221853 1.4316111 0.81635934 0.13641798 -1.4665986 -0.049538117
-0.4322036 0.44512844 1.3906267 -1.0638679 -0.27907294 -1.4510018 0.31732553 1.3415498
0.7219625 1.928312 -0.5289212 -0.25432009 2.4211385 0.43464953 0.9029737 -1.0295714
00000000: 859a ecbc 06a7 763f 0f99 15c0 5cc0 dcbf
00000010: 0e05 e83f 4121 cf3e 0f00 e33c ed61 1b3e
00000020: e1a6 1f3f 8d2f a43f 95cf 983f f68d 173e
00000030: 77f2 3bbe 590c eb3e a638 39c0 a506 d9be
00000040: 4c40 7cbf 62a1 90bd d251 3d3f 2408 143f
00000050: b526 a43f d55f b2bf e26b 73bf 5944 8b3e
00000060: d2a6 e23e 1ee9 8fbf c5a3 8f3f 083f b73f
00000070: edfc 503f 28b1 0b3e 81b9 bbbf 7be8 4abd
00000080: ca49 ddbe e0e7 e33e 0e00 b23f d32c 88bf
00000090: a6e2 8ebe 6dba b9bf 7e78 a23e e7b7 ab3f
000000a0: 89d2 383f edd2 f63f 6167 07bf 3e36 82be
000000b0: eff3 1a40 628a de3e 4929 673f ffc8 83bf

weight f4 [48, 16]
0.2740843 -0.17406674 -0.12435392 0.0015799244 -0.011691075 0.107071444 -0.058575273 0.38208443
-0.22680202 -0.012050116 0.090125024 0.2820001 -0.31474748 -0.1875645 -0.21239631 0.18020207
-0.31160146 0.25140902 0.11306667 0.46368778 -0.11831584 0.21448644 -0.17363806 -0.05479487
-0.06847956 0.048123755 -0.05372575 -0.18226504 -0.15901782 0.1606041 0.11480995 -0.27034554
-0.03558541 0.10447791 0.18483654 -0.2808807 0.22108553 0.03517663 -0.008623324 0.13802963
-0.17956235 -0.06295747 -0.22393842 0.07660509 -0.16583303 -0.039649777 -0.07421391 0.4756436
-0.15139472 0.20154424 -0.18639018 0.004100072 -0.17119496 -0.34288973 0.01271318 0.06632256
-0.24646871 0.012771056 -0.20343235 0.07460336 -0.044110112 0.28953308 0.029152343 -0.0075871297
-0.10717057 -0.109566785 0.120260514 0.29367933 -0.075434774 -0.33657438 -0.12108481 0.07675365
-0.07341508 -0.17260665 -0.3901721 0.13936666 -0.04221398 -0.26030228 -0.100070305 0.06696437
0.2201464 0.16484107 0.3189874 0.27778518 0.4006182 -0.13766211 0.12541948 0.12969062
0.15797226 0.19302616 -0.1754437 0.08186141 0.17193463 -0.3005635 -0.13679312 -0.04582639
0.40123978 0.30709702 0.17732804 -0.0099273 -0.014027186 -0.05847229 -0.41185218 0.07086888
0.12071857 -0.004674913 0.037062902 -0.18250106 -0.2043892 -0.4723228 0.04560863 -0.089079775
0.1265328 -0.2486719 0.15259093 0.08482379 0.25417444 -0.2393151 -0.35404494 -0.24009196
0.66231704 -0.24153572 -0.08469034 -0.080787115 0.58282256 0.17773758 0.28713363 0.08689725
-0.07962519 -0.09712745 0.0010425763 0.39288515 0.11300943 0.14896157 0.30726087 -0.22795218
-0.018450182 -0.09382497 0.31246218 -0.31498337 -0.023593992 -0.022880197 0.08468209 -0.05816683
0.02730127 -0.021637367 0.24791852 -0.18202254 0.09052662 0.30917075 -0.11119637 -0.27620947
0.38743097 -0.1454504 -0.11644325 -0.226016 0.37552267 -0.077644624 -0.3816837 -0.4853041
-0.0045176498 0.17211756 0.1386277 0.2695464 0.18250969 0.23507607 0.042701025 -0.22023818
0.25149837 -0.2711135 -0.01518476 -0.17145713 0.15215936 -0.19779411 -0.18756685 -0.048204
0.36556298 -0.10288195 -0.12970355 0.0033906065 0.23651057 0.02817724 -0.10483379 -0.24516858
0.092654675 0.12141475 0.059267387 0.008118417 -0.06908912 -0.07156204 0.015303552 -0.11648105
0.2320164 0.407939 -0.12046794 -0.38579717 -0.30093265 -0.29990548 -0.09817594 0.1445017
-0.105657116 -0.13537388 0.113967456 -0.07861978 -0.014000763 -0.059123546 0.115772665 0.20332946
0.0474767 -0.087758325 -0.04829698 0.3830011 -0.14328218 -0.32063675 -0.2965238 0.24889468
0.10394628 -0.39862972 0.049918532 0.32828227 -0.14372016 0.053747226 0.39923117 0.36504424
-0.24355482 0.1026241 0.2439762 0.2140205 -0.15563355 -0.08459213 0.03376697 0.2593398
-0.22320147 0.07894193 0.03660187 0.14220683 0.13782175 -0.055910308 -0.24559192 -0.27594155
0.2976426 -0.09178441 0.09237882 -0.3808633 -0.001438873 0.033855636 0.2317785 -0.2567945
0.032530215 0.18150018 0.1880067 -0.22047687 0.31399062 0.23588721 0.08737577 -0.05896984
00000000: c754 8c3e 8d3e 32be 45ad febd 7715 cf3a
00000010: ec8b 3fbc 4648 db3d a0ec 6fbd 92a0 c33e
00000020: ca3e 68be da6d 45bc 7893 b83d 5162 903e
00000030: 9526 a1be e910 40be 6b7e 59be e486 383e
00000040: 3a8a 9fbe afb8 803e 808f e73d 7c68 ed3e
00000050: 934f f2bd 55a2 5b3e 2dce 31be 9670 60bd
00000060: 033f 8cbd 6a1d 453d 880f 5cbd b0a3 3abe
00000070: 91d5 22be 6775 243e 7b21 eb3d bb6a 8abe
00000080: 02c2 11bd 84f8 d53d ca45 3d3e 98cf 8fbe
00000090: 3f64 623e 5f15 103d d848 0dbc a457 0d3e
000000a0: 31df 37be d9ef 80bd 1d50 65be 21e3 9c3d
000000b0: 22d0 29be ce67 22bd 76fd 97bd 8f87 f33e
000000c0: 3807 1bbe 9d61 4e3e 11dd 3ebe e659 863b
000000d0: bb4d 2fbe 3e8f afbe f14a 503c 1fd4 873d
000000e0: 4b62 7cbe b13d 513c 9250 50be a5c9 983d
000000f0: ceac 34bd ae3d 943e e5d0 ee3c 759d f8bb
00000100: 3e7c dbbd 8d64 e0bd 254b f63d 235d 963e
00000110: 8c7d 9abd 7a53 acbe 50fb f7bd 0531 9d3d
00000120: a55a 96bd ccbf 30be a3c4 c7be 22b6 0e3e
00000130: 91e8 2cbd 5746 85be a9f1 ccbd 9e24 893d
00000140: 0f6e 613e 19cc 283e 5152 a33e dc39 8e3e
00000150: d41d cd3e 4cf7 0cbe f76d 003e 9ecd 043e
00000160: 7bc3 213e a6a8 453e 83a7 33be f4a6 a73d
00000170: a20f 303e 76e3 99be 7f13 0cbe 74b4 3bbd
00000180: 4d6f cd3e d23b 9d3e 7b95 353e 1da6 22bc
00000190: 48d2 65bc a480 6fbd 4ade d2be b423 913d
000001a0: 4c3b f73d 0330 99bb 45cf 173d 8fe1 3abe
000001b0: 674b 51be 4bd4 f1be 1dd0 3a3d 756f b6bd
000001c0: d091 013e d9a3 7ebe cc40 1c3e 18b8 ad3d
000001d0: 2723 823e 040f 75be 6145 b5be abda 75be
000001e0: 9c8d 293f 2455 77be 2172 adbd b773 a5bd
000001f0: dc33 153f d700 363e 2e03 933e 2ff7 b13d
00000200: 8812 a3bd c2ea c6bd 0ea7 883a 3e28 c93e
00000210: 7d71 e73d 6289 183e 4c51 9d3e 4c6c 69be
00000220: d624 97bc 4e27 c0bd 0bfb 9f3e 8045 a1be
00000230: 3048 c1bc 406f bbbc ce6d ad3d 5840 6ebd
00000240: eaa6 df3c d940 b1bc 5ade 7d3e 1e64 3abe
00000250: 0566 b93d a14b 9e3e ecba e3bd 546b 8dbe
00000260: 5a5d c63e f3f0 14be cc79 eebd bd70 67be
00000270: 8244 c03e 2504 9fbd 0c6c c3be c779 f8be
00000280: cb08 94bb 963f 303e 6bf4 0d3e fc01 8a3e
00000290: d2e3 3a3e c8b7 703e 45e7 2e3d 1e86 61be
000002a0: 65c4 803e 64cf 8abe 80c9 78bc 7592 2fbe
000002b0: aacf 1b3e 8a8a 4abe 8611 40be 8f71 45bd
000002c0: 122b bb3e c6b3 d2bd 02d1 04be f034 5e3b
000002d0: d42f 723e f5d3 e63c 19b3 d6bd 790d 7bbe
000002e0: bcc1 bd3d 4ca8 f83d 5cc2 723d 1c03 053c
000002f0: 997e 8dbd 1e8f 92bd c0bb 7a3c 9e8d eebd
00000300: b595 6d3e 61dd d03e e5b7 f6bd 3587 c5be
00000310: d813 9abe 368d 99be 7810 c9bd 41f8 133e
00000320: c262 d8bd 739f 0abe c567 e93d 6803 a1bd
00000330: 7563 65bc 882b 72bd 381a ed3d 9935 503e
00000340: ee76 423d a3ba b3bd 0ed3 45bd b818 c43e
00000350: 90b8 12be 802a a4be f8d1 97be 3fde 7e3e
00000360: cae1 d43d 3219 ccbe 6077 4c3d 9d14 a83e
00000370: 612b 13be 0d26 5c3d 0768 cc3e 14e7 ba3e
00000380: 6f66 79be 962c d23d e6d4 793e 3128 5b3e
00000390: 675e 1fbe a33e adbd 3c4f 0a3d 30c8 843e
000003a0: ed8e 64be 4eac a13d d8eb 153d ab9e 113e
000003b0: 2521 0d3e 3502 65bd 737c 7bbe 3648 8dbe
000003c0: 9c64 983e 77f9 bbbd 1b31 bd3d 8400 c3be
000003d0: 9198 bcba 35ac 0a3d 5857 6d3e 927a 83be
000003e0: 673e 053d 2fdb 393e d484 403e b0c4 61be
000003f0: 61c3 a03e 6b8c 713e 11f2 b23d 5c8a 71bd

bias f4 [48]
-0.14908284 -0.006810309 -0.25488177 -0.2080808 -0.06817626 -0.091098964 0.21458985 0.22082777
-0.23112085 -0.019756965 0.08248107 -0.16774027 0.22022417 0.05710434 -0.18862753 0.26093447
-0.13244833 -0.27488533 -0.28775296 -0.15710865 -0.21991344 -0.2266941 0.019765684 0.1312946
-0.07048497 -0.20584464 -0.20364974 -0.10910014 0.2125823 0.07794285 0.2074221 0.19560085
-0.049968474 0.24350029 0.11959131 -0.24030153 0.016936803 0.19097474 -0.17029186 -0.16503014
-0.16613 -0.05755115 -0.0082920445 -0.19528534 -0.02018096 0.12629636 -0.159096 0.25576714
00000000: 2ca9 18be 0329 dfbb dd7f 82be 2213 55be
00000010: ff9f 8bbd 1892 babd 71bd 5b3e ad20 623e
00000020: f2aa 6cbe 5cd9 a1bc d6eb a83d 1bc4 2bbe
00000030: 7282 613e 3ee6 693d 9327 41be 3499 853e
00000040: 89a0 07be c5bd 8cbe 5b54 93be 17e1 20be
00000050: fd30 61be 8022 68be a5eb a13c 1772 063e
00000060: 6d5a 90bd f0c8 52be 8f89 50be e56f dfbd
00000070: 2daf 593e 80a0 9f3d 7566 543e 974b 483e
00000080: beab 4cbd 2458 793e 4aec f43d 9b11 76be
00000090: 0dbf 8a3c e28e 433e fd60 2ebe a9fd 28be
000000a0: fc1d 2abe c1ba 6bbd 5bdb 07bc e1f8 47be
000000b0: 8a52 a5bc d553 013e 10ea 22be e9f3 823e

weight f4 [48]
0.794732 0.48233435 0.6708574 0.7211063 0.7301316 0.7325675 0.7410302 0.890874
0.5610726 0.4624371 0.44303018 0.7720578 0.74616414 0.6365596 0.68795633 0.6425836
0.35181397 0.6415076 0.8356802 0.5504658 0.61304766 0.49730992 0.41280362 0.6699437
0.50882477 0.5057482 0.685992 0.66143245 0.58521605 0.6281795 0.78773165 0.8606166
0.83354825 0.57022256 0.6988978 0.77925766 0.7849877 0.8443468 0.46847916 0.55232936
0.6267585 0.579934 0.6021769 0.64543366 0.49282604 0.72045445 0.77513343 0.8159346
00000000: 8e73 4b3f 87f4 f63e 50bd 2b3f 6c9a 383f
00000010: e8e9 3a3f 8b89 3b3f 28b4 3d3f 5210 643f
00000020: 74a2 0f3f 8ec4 ec3e dad4 e23e 94a5 453f
00000030: 9d04 3f3f 92f5 223f e81d 303f 5c80 243f
00000040: f620 b43e d839 243f 23ef 553f 54eb 0c3f
00000050: b1f0 1c3f 689f fe3e ff5a d33e 6e81 2b3f
00000060: 5742 023f b778 013f 2c9d 2f3f a353 293f
00000070: b8d0 153f 5fd0 203f c8a8 493f 5f51 5c3f
00000080: 6b63 553f 1bfa 113f f7ea 323f 6e7d 473f
00000090: f4f4 483f 1d27 583f 80dc ef3e 7565 0d3f
000000a0: 3f73 203f 8e76 143f 4428 1a3f 243b 253f
000000b0: b253 fc3e b46f 383f 256f 463f 17e1 503f

bias f4 [48]
0.11337775 -0.11133999 0.21170337 0.019041901 0.03888572 0.044703428 -0.01097567 -0.14770791
0.10848655 -0.071377195 -0.17996016 0.15290864 -0.004999121 -0.23076749 0.29246828 -0.043185048
0.013213583 0.16809952 0.02162318 0.10009062 0.10026136 0.10416347 0.004825903 -0.10534278
-0.07408409 0.14399332 0.0043084277 0.04686266 -0.15633842 -0.080470525 -0.12574661 -0.092332415
-0.040046755 -0.05616322 -0.11581377 0.024732482 -0.041387603 0.09696716 0.018789295 -0.009120475
-0.03671128 0.11662793 -0.01572311 -0.10216062 -0.051364854 -0.037179545 0.039071627 -0.049718518
00000000: 9832 e83d 3806 e4bd c5c8 583e c3fd 9b3c
00000010: a246 1f3d f11a 373d 4cd3 33bc be40 17be
00000020: 322e de3d 352e 92bd 7a47 38be 1594 1c3e
00000030: abcf a3bb 504e 6cbe 67be 953e cee2 30bd
00000040: c97d 583c 4822 2c3e 1823 b13c 50fc cc3d
00000050: d455 cd3d a853 d53d 9c22 9e3b f5bd d7bd
00000060: 66b9 97bd fc72 133e b62d 8d3b 10f3 3f3d
00000070: 2e17 20be bbcd a4bd b8c3 00be c718 bdbd
00000080: 1108 24bd 680b 66bd c52f edbd c69b ca3c
00000090: 0c86 29bd b896 c63d 02ec 993c 0b6e 15bc
000000a0: 915e 16bd a0da ee3d c0cd 80bc 9639 d1bd
000000b0: f463 52bd 9449 18bd 9209 203d a5a5 4bbd

weight f4 [144, 48]
-0.10561976 -0.26817632 0.12798871 0.1609293 -0.17873032 0.1939939 0.024730124 -0.10845279
-0.1420107 -0.11866591 0.08603783 0.111559525 0.06044407 -0.103985265 0.21486108 0.109962575
-0.021093719 -0.007303611 0.1231948 -0.064700656 0.024633452 -0.06950068 0.1434305 -0.049822487
-0.13905005 -0.09504372 -0.13340692 -0.104500435 -0.34004197 0.20724054 0.002563693 -0.15325032
0.10811443 0.19158268 -0.20572674 0.2956023 0.0070744446 0.28702778 0.113736935 -0.18193366
0.066520855 0.14876325 -0.05953886 -0.052207828 -0.09176026 0.45453677 0.024749974 -0.15458432
-0.23191884 -0.12143952 0.24481982 -0.27667105 -0.015315024 0.4975878 -0.10797873 -0.08413437
0.17655103 -0.35498807 -0.32183504 0.39999196 -0.0626717 0.031944986 -0.19555259 -0.097727604
-0.2428123 0.011313611 -0.08535581 -0.15956454 0.134878 0.013036595 0.2588856 0.10093633
0.30286783 0.061633546 0.14979729 -0.38112506 -0.029897636 0.3288739 -0.22662249 -0.09535156
0.10502051 0.4095132 0.021828068 -0.29706815 0.15787141 -0.13351142 0.15112737 0.38870928
0.65370727 -0.1268446 0.011775069 0.1677308 -0.15596785 -0.11999135 0.046897423 0.49096125
-0.12489803 0.0027588087 0.04125348 -0.14708999 -0.21875773 0.10163836 -0.11284084 -0.114734024
0.012074545 -0.078637 -0.29310012 0.030940741 -0.095748276 0.11586861 0.22118725 -0.27473947
0.018485613 -0.16669096 0.30567318 0.13379413 -0.13978049 -0.16221058 0.35278103 -0.10926849
0.12853645 0.15542625 0.4506056 -0.0725358 0.0057081124 0.1430743 -0.18276426 -0.21527855
0.01717458 -0.33027086 -0.032060612 0.020632366 -0.26555982 0.22639976 -0.10406354 -0.076531135
0.013943392 0.055362985 0.095717795 0.051876117 0.0562754 -0.021342551 0.18715923 0.1020372
-0.20153075 -0.007010758 0.22965331 0.14730252 0.07078455 0.3158159 0.2940754 -0.123666376
0.13318653 -0.3039076 0.041969474 0.07237037 0.19562379 0.13524854 0.0089781005 -0.038037263
0.102143005 -0.17475191 -0.13405497 -0.11920511 0.038699217 0.029316291 0.113202676 -0.31301746
0.082525484 0.10672666 0.091879874 0.015127377 -0.14104992 -0.18707223 0.20823589 0.33911052
-0.3001744 0.22415452 -0.0361987 -0.27900317 0.21422023 0.028469168 -0.032119956 -0.056728527
-0.028301045 -0.15022516 -0.029635318 0.08917988 -0.06242731 -0.21971278 -0.02821123 0.2050308
0.09142148 -0.121338606 -0.016777117 -0.0033689842 0.26082566 0.10618245 -0.03641618 -0.04325111
0.0075291474 -0.11244344 0.33821848 0.13143463 0.042711575 -0.13061316 0.149642 0.08726751
-0.12713066 0.061843608 -0.07576701 -0.16043513 0.16733053 0.08021574 -0.03631314 0.22580683
-0.2016206 -0.33715597 -0.2525941 -0.0063486327 -0.059956122 0.23819056 -0.27671146 -0.11427072
0.2510486 0.40900418 -0.21533518 0.1592246 0.09185067 -0.05686519 0.09404996 0.10287867
0.027120572 -0.05325623 -0.20310079 -0.1612191 -0.14916879 0.13586138 0.115262054 0.18910725
-0.17873625 -0.2733288 0.23793197 -0.019090645 -0.2522657 -0.03018678 -0.26194793 0.045775253
-0.016611729 -0.08343041 -0.31788644 0.13992961 -0.16669413 -0.17613219 0.22334838 0.1185428
00000000: 2c4f d8bd 684e 89be 790f 033e a7ca 243e
00000010: 1505 37be 56a6 463e d496 ca3c 7f1c debd
00000020: 416b 11be 1d07 f3bd 9a34 b03d 5279 e43d
00000030: 3394 773d 3af6 d4bd 8b04 5c3e 0f34 e13d
00000040: bccc acbc 2153 efbb 8e4d fc3d c781 84bd
00000050: 18cc c93c 5f56 8ebd 72df 123e aa12 4cbd
00000060: 2363 0ebe 48a6 c2bd d39b 08be 5304 d6bd
00000070: fb19 aebe dd36 543e a203 283b a7ed 1cbe
00000080: 196b dd3d 402e 443e 08aa 52be 2f59 973e
00000090: bed0 e73b 4ef5 923e e9ee e83d d14c 3abe
000000a0: 163c 883d 6555 183e 05df 73bd e0d7 55bd
000000b0: ceec bbbd 0bb9 e83e 75c0 ca3c 5a4b 1ebe
000000c0: 227c 6dbe 48b5 f8bd 0cb2 7a3e d4a7 8dbe
000000d0: deeb 7abc d4c3 fe3e f423 ddbd a44e acbd
000000e0: cbc9 343e ffc0 b5be 90c7 a4be bfcb cc3e
000000f0: 055a 80bd bfd8 023d f03e 48be 6925 c8bd
00000100: caa3 78be b95c 393c 07cf aebd e364 23be
00000110: 751d 0a3e 7197 553c a78c 843e b5b7 ce3d
00000120: 7e11 9b3e 7573 7c3d 7664 193e d322 c3be
00000130: e3eb f4bc 2962 a83e ba0f 68be ae47 c3bd
00000140: fe14 d73d b7ab d13e c7d0 b23c 5119 98be
00000150: 0ba9 213e 38b7 08be 22c1 1a3e e704 c73e
00000160: 5c59 273f 8de3 01be 38ec 403c 9fc1 2b3e
00000170: 09b6 1fbe 06be f5bd 8317 403d 465f fb3e
00000180: 8aca ffbd 21cd 343b 69f9 283d c29e 16be
00000190: 0702 60be c627 d03d 1919 e7bd acf9 eabd
000001a0: 50d4 453c 6f0c a1bd 3811 96be 7077 fd3c
000001b0: ac17 c4bd 864c ed3d e97e 623e a7aa 8cbe
000001c0: 246f 973c 09b1 2abe 3281 9c3e 5401 093e
000001d0: 9e22 0fbe 881a 26be b79f b43e 28c8 dfbd
000001e0: 0f9f 033e 0f28 1f3e c7b5 e63e a68d 94bd
000001f0: 1e0b bb3b 1282 123e 8e26 3bbe fb71 5cbe
00000200: b4b1 8c3c 4319 a9be fd51 03bd 3505 a93c
00000210: 75f7 87be 57d5 673e 441f d5bd 5bbc 9cbd
00000220: d372 643c 4cc4 623d b107 c43d 0d7c 543d
00000230: 0981 663d 93d6 aebc aba6 3f3e e1f8 d03d
00000240: 145e 4ebe 80ba e5bb 3d2a 6b3e 79d6 163e
00000250: 7df7 903d 9fb2 a13e 0d91 963e cc44 fdbd
00000260: 0d62 083e c799 9bbe 2fe8 2b3d eb36 943d
00000270: 9a51 483e 987e 0a3e e218 133c f6cc 1bbd
00000280: 5a30 d13d 2af2 32be b545 09be cf21 f4bd
00000290: 1283 1e3d b828 f03c ced6 e73d d343 a0be
000002a0: 1f03 a93d 8293 da3d 842b bc3d d1d8 773c
000002b0: 646f 10be dd8f 3fbe ca3b 553e e59f ad3e
000002c0: 75b0 99be c388 653e 1745 14bd 81d9 8ebe
000002d0: 8c5c 5b3e 2c38 e93c 3790 03bd 2c5c 68bd
000002e0: 98d7 e7bc a0d4 19be c4c5 f2bc f1a3 b63d
000002f0: c7b3 7fbd 63fc 60be 3d1b e7bc 98f3 513e
00000300: 2f3b bb3d 6080 f8bd 2a70 89bc 2dca 5cbb
00000310: f18a 853e 2f76 d93d 2229 15bd 1328 31bd
00000320: 11b7 f63b bf48 e6bd f92a ad3e cd96 063e
00000330: 55f2 2e3d 75bf 05be c13b 193e 4fb9 b23d
00000340: 8a2e 02be b94f 7d3d bc2b 9bbd 1b49 24be
00000350: b258 2b3e 2648 a43d 16bd 14bd e839 673e
00000360: a175 4ebe b59f acbe 0454 81be 3108 d0bb
00000370: 8d94 75bd 3ae8 733e 20ad 8dbe c406 eabd
00000380: 7189 803e ff68 d13e d380 5cbe c60b 233e
00000390: 341c bc3d 79eb 68bd 449d c03d 0db2 d23d
000003a0: f62b de3c 3423 5abd a7f9 4fbe 9f16 25be
000003b0: b4bf 18be 3f1f 0b3e 830e ec3d 55a5 413e
000003c0: a306 37be c1f1 8bbe 70a4 733e fc63 9cbc
000003d0: f828 81be 444a f7bc 0a1e 86be d57e 3b3d
000003e0: 5215 88bc 90dd aabd 03c2 a2be b549 0f3e
000003f0: deb1 2abe ff5b 34be 70b5 643e 91c6 f23d

weight f4 [48, 48]
0.010915994 -0.19482319 0.26433003 0.1482864 -0.13017921 -0.12957814 -0.1311643 -0.08099712
0.14248796 -0.008402941 -0.30336058 0.063599974 0.25949824 -0.12005872 0.011592962 0.77163476
0.0009303487 -0.114542075 -0.09734753 -0.24865772 0.18554145 0.11867767 -0.25372788 0.29508328
0.15098153 0.26172575 0.004942875 -0.24597174 0.21231885 -0.116068766 -0.047244083 -0.16640927
-0.028884368 0.03278786 0.031897992 -0.18508318 0.017204078 0.1586036 -0.056417976 0.2826352
-0.009570997 -0.02851213 0.18108232 -0.01942885 -0.15746729 0.14368138 0.22146732 -0.14557478
-0.21785755 0.07598511 -0.071718246 -0.3542084 0.00887412 -0.13106176 0.08870075 -0.03853648
-0.08611983 0.2518256 0.18730757 0.01490918 0.09095077 0.16475283 -0.20275946 0.010119489
-0.11464613 -0.07669245 0.35429305 0.1766483 -0.1476247 0.20989408 0.29160258 -0.07898927
-0.1765468 0.1728949 0.3673252 -0.16208649 0.2601905 -0.025340226 -0.00021691556 -0.057663918
0.3228382 -0.18303482 -0.24425691 0.04949038 0.093932495 -0.3256807 -0.123847514 -0.01083031
-0.19872911 -0.052388877 -0.2082383 -0.07383998 -0.16578254 -0.3054556 -0.39134896 -0.2759219
0.29958498 0.24815245 0.20238814 -0.115710646 0.11281428 -0.28089502 0.30151546 -0.21688634
-0.072571255 -0.32112747 0.09906198 -0.10388148 0.06789151 0.032660536 0.07841757 0.23639594
-0.5041657 0.046769135 -0.23771137 0.03859146 0.06964531 -0.24779658 0.1715532 0.15323643
0.0054829163 0.17438586 -0.28812253 -0.25043544 -0.25643933 -0.05195441 -0.28882426 0.23090619
-0.22126275 0.18289493 0.29819724 0.15192847 0.35832605 0.08930329 -0.13538493 -0.32846656
0.22299723 -0.09254202 -0.2018623 -0.22608685 0.19368653 -0.06412068 -0.107622325 -0.1759554
-0.10282919 -0.105553485 0.1253665 0.09400226 0.049091738 -0.22002874 0.038031064 0.13111266
-0.2119361 -0.27429348 -0.4015625 -0.1169962 -0.21668775 -0.017544797 -0.008573038 -0.06715809
0.20736992 -0.06727516 -0.1908691 0.30699533 0.022915939 -0.2954153 -0.23405357 -0.28267336
-0.13719231 -0.011416552 0.08048175 0.038212344 0.10491474 -0.2060776 -0.35560727 -0.0137365535
-0.0052890107 -0.00734964 0.028602902 -0.013158971 -0.0008580508 0.2546563 -0.11137598 0.055249527
0.048232626 -0.083317995 0.062862046 -0.026790848 0.20911507 -0.13870157 -0.23258866 -0.007690309
0.025491633 0.17121832 0.039892916 0.2586261 0.00034320905 0.026667664 0.29113826 -0.24704102
-0.29112336 -0.1733281 -0.39252442 -0.0751602 -0.11497221 -0.21859373 0.19415382 -0.1401162
-0.12100182 0.31059888 -0.0026011488 0.025499616 -0.018760098 0.17925394 0.10427818 -0.2397855
-0.07955588 -0.020229518 0.04691111 0.074134484 0.09511572 0.10902194 0.07890688 0.080201246
0.1471516 -0.28082854 -0.17086154 -0.05783363 -0.13828994 -0.057464108 -0.28762075 -0.2620639
0.08780693 -0.17260958 -0.034681406 0.24163727 0.41735148 0.07115062 -0.15792064 -0.19729787
-0.39663893 -0.20006697 -0.1979034 -0.17196882 -0.09834997 -0.07780816 -0.076126516 0.16690446
0.026883354 0.22228709 -0.2307473 -0.007684973 0.08501295 -0.040506806 0.06486581 -0.22507527
00000000: ffd8 323c bb7f 47be 4456 873e 64d8 173e
00000010: b34d 05be 22b0 04be ef4f 06be d1e1 a5bd
00000020: 5de8 113e 7dac 09bc 1452 9bbe b440 823d
00000030: f4dc 843e 59e1 f5bd 68f0 3d3c db89 453f
00000040: a5e2 733a 0995 eabd 245e c7bd 21a0 7ebe
00000050: 94fe 3d3e 470d f33d 9fe8 81be 2815 973e
00000060: e79a 1a3e eb00 863e d7f7 a13b 04e0 7bbe
00000070: 1d6a 593e 76b5 edbd 0383 41bd 3167 2abe
00000080: e99e ecbc 904c 063d 78a7 023d 7286 3dbe
00000090: 91ef 8c3c fb68 223e 8916 67bd 90b5 903e
000000a0: accf 1cbc 4592 e9bc a56d 393e 4029 9fbc
000000b0: 1b3f 21be 3621 133e 54c8 623e 8e11 15be
000000c0: 0d16 5fbe 159e 9b3d 04e1 92bd ce5a b5be
000000d0: c264 113c 0e35 06be bda8 b53d 6ed8 1dbd
000000e0: 985f b0bd 49ef 803e 8ecd 3f3e a245 743c
000000f0: 6644 ba3d f7b4 283e 2da0 4fbe 37cc 253c
00000100: 97cb eabd ee10 9dbd e665 b53e 4be3 343e
00000110: ee2a 17be 79ee 563e ef4c 953e 20c5 a1bd
00000120: afc8 34be 5c0b 313e 0c12 bc3e 00fa 25be
00000130: b037 853e 4e96 cfbc d473 63b9 0031 6cbd
00000140: 0c4b a53e 7b6d 3bbe 7c1e 7abe 6db6 4a3d
00000150: ae5f c03d 9fbf a6be c4a3 fdbd 9d71 31bc
00000160: a57f 4bbe b895 56bd 6c3c 55be 6a39 97bd
00000170: e6c2 29be ad64 9cbe e45e c8be a345 8dbe
00000180: 3463 993e ad1b 7e3e d63e 4f3e b4f9 ecbd
00000190: 2c0b e73d 79d1 8fbe 3c60 9a3e 7417 5ebe
000001a0: 3da0 94bd d26a a4be 02e1 ca3d d0bf d4bd
000001b0: b40a 8b3d 0ec7 053d 6499 a03d c711 723e
000001c0: 0111 01bf fe90 3f3d 9c6a 73be 1412 1e3d
000001d0: 33a2 8e3d 63be 7dbe a4ab 2f3e 03ea 1c3e
000001e0: 09aa b33b 3592 323e cc84 93be 1339 80be
000001f0: 044c 83be 26ce 54bd c6e0 93be ac72 6c3e
00000200: b492 62be cf48 3b3e 4fad 983e 2393 1b3e
00000210: 8376 b73e a5e4 b63d 59a2 0abe c52c a8be
00000220: 6359 643e ac86 bdbd feb4 4ebe 5083 67be
00000230: c355 463e b451 83bd 1869 dcbd a72d 34be
00000240: 1c98 d2bd 6d2c d8bd 1360 003e 4284 c03d
00000250: 6b14 493d 374f 61be 76c6 1b3d 6642 063e
00000260: c705 59be 3270 8cbe 9a99 cdbe b49b efbd
00000270: 65e3 5dbe 1bba 8fbc ed75 0cbc 2e8a 89bd
00000280: c858 543e 8fc7 89bd 3073 43be 7e2e 9d3e
00000290: 35ba bb3c ad40 97be bdab 6fbe 90ba 90be
000002a0: 247c 0cbe 7d0c 3bbc 9ed3 a43d 8c84 1c3d
000002b0: 8add d63d 0206 53be 2812 b6be 480f 61bc
000002c0: 704f adbb 40d5 f0bb a250 ea3c ba98 57bc
000002d0: d0ee 60ba 5062 823e 1719 e4bd 544d 623d
000002e0: 938f 453d a0a2 aabd d1bd 803d 7b78 dbbc
000002f0: 4322 563e c907 0ebe b92b 6ebe fdfe fbbb
00000300: d4d3 d03c db53 2f3e c166 233d a46a 843e
00000310: bdf0 b339 2576 da3c 1310 953e 52f8 7cbe
00000320: 1f0e 95be ec7c 31be f6f8 c8be 97ed 99bd
00000330: 8d76 ebbd 09d7 5fbe 42d0 463e 9f7a 0fbe
00000340: cdcf f7bd d106 9f3e 0978 2abb 92e4 d03c
00000350: c7ae 99bc 588e 373e cc8f d53d 558a 75be
00000360: 31ee a2bd 60b8 a5bc dd25 403d d2d3 973d
00000370: 08cc c23d e546 df3d ee99 a13d 8d40 a43d
00000380: e9ae 163e c2c8 8fbe 54f6 2ebe f5e2 6cbd
00000390: e19b 0dbe 7c5f 6bbd 0743 93be 3d2d 86be
000003a0: 1fd4 b33d 91c0 30be 170e 0ebd c36f 773e
000003b0: 18af d53e 6bb7 913d f3b5 21be 7408 4abe
000003c0: 4214 cbbe 5bde 4cbe 30a7 4abe 9818 30be
000003d0: b66b c9bd e259 9fbd 38e8 9bbd 01e9 2a3e
000003e0: 7b3a dc3c 3a9f 633e 0549 6cbe 3ad2 fbbb
000003f0: 451b ae3d 77ea 25bd 5ed8 843d 227a 66be

bias f4 [48]
-0.03745637 0.23441215 -0.20826645 0.15111497 -0.04404876 0.08531471 -0.12179933 0.037092675
-0.20924892 0.02477714 -0.1534981 -0.08317241 -0.022284284 0.13244967 -0.17079309 -0.19464138
0.16733502 -0.2728125 -0.021353053 0.10675488 -0.35766092 0.086089455 0.03129457 0.07548389
0.19826515 0.14649092 0.23041879 0.18798473 0.16638318 0.21376792 -0.10466734 0.12452398
0.055827215 -0.00499573 -0.0971922 -0.18542103 -0.061612543 0.37046865 0.068883635 -0.121969685
0.07187921 0.06938206 0.1643289 0.009612103 0.37129864 -0.037735395 0.09212644 0.102929406
00000000: da6b 19bd bd09 703e cd43 55be e2bd 1a3e
00000010: 796c 34bd 7bb9 ae3d ed71 f9bd 7dee 173d
00000020: 5945 56be 6ef9 ca3c 9b2e 1dbe 4c56 aabd
00000030: 888d b6bc e3a0 073e 62e4 2ebe 1250 47be
00000040: df59 2b3e 14ae 8bbe 99ec aebc 4da2 da3d
00000050: 551f b7be ab4f b03d bc2e 003d 4c97 9a3d
00000060: 0506 4b3e b701 163e e7f2 6b3e 127f 403e
00000070: 5a60 2a3e fae5 5a3e d55b d6bd 6e06 ff3d
00000080: 14ab 643d 38b3 a3bb b40c c7bd 03df 3dbe
00000090: 6f5d 7cbd 11ae bd3e dd12 8d3d 3ecb f9bd
000000a0: 6835 933d 2e18 8e3d d645 283e 157c 1d3c
000000b0: db1a be3e 6e90 1abd c9ac bc3d a7cc d23d

weight f4 [48]
0.92316383 1.1431369 1.066188 0.80382013 0.9152566 0.97004175 0.83243954 0.85098296
1.0206534 0.55783564 0.66013986 0.6004974 0.85219 0.887857 0.4082862 0.813258
0.5622613 0.7694832 0.8194885 1.0634357 0.6324614 0.9552959 0.9075601 0.8061962
0.79879975 0.72005934 1.2130654 0.97989994 1.0321987 0.58022374 0.53729767 1.0576446
0.97379863 0.6421174 0.7587839 0.6475824 0.8141748 1.2183207 0.8420062 0.8953595
0.8116675 0.8620292 0.65009564 0.9030086 0.59810656 0.68478155 0.6157352 1.0980077
00000000: 7754 6c3f 4f52 923f d978 883f 28c7 4d3f
00000010: 424e 6a3f a854 783f c21a 553f 05da 593f
00000020: c5a4 823f 51ce 0e3f edfe 283f 33ba 193f
00000030: 2029 5a3f 994a 633f e40a d13e ad31 503f
00000040: 5bf0 0f3f dafc 443f 00ca 513f a91e 883f
00000050: fee8 213f 468e 743f dc55 683f e062 4e3f
00000060: 247e 4c3f cf55 383f ba45 9b3f b9da 7a3f
00000070: 161f 843f 8b89 143f 578c 093f e660 873f
00000080: de4a 793f ce61 243f a93f 423f f6c7 253f
00000090: c26d 503f eff1 9b3f b88d 573f 4836 653f
000000a0: 71c9 4f3f f2ad 5c3f ab6c 263f 922b 673f
000000b0: 831d 193f d84d 2f3f d2a0 1d3f 848b 8c3f

bias f4 [48]
-0.25079763 0.17661227 -0.32481518 -0.084182136 0.14849961 0.11138321 -0.089110054 -0.029631315
-0.4544166 0.14662838 -0.21237685 -0.11255055 0.09758915 -0.03110642 0.13789918 -0.06323648
0.15792996 -0.06672417 0.11749633 -0.07797982 -0.22976321 -0.36876217 -0.0035296245 -0.092458464
0.043690052 0.2982093 0.07106301 0.35468113 0.11508477 -0.09894097 -0.18854642 0.014052964
-0.21373661 0.20180863 -0.23718809 -0.041485097 -0.07377665 0.25729987 0.13401075 0.19078116
0.12385368 -0.0640811 0.24957079 -0.22351438 0.13788085 -0.0826915 -0.16555777 0.41693336
00000000: 8c68 80be d9d9 343e 2d4e a6be af67 acbd
00000010: 4810 183e e11c e43d 557f b6bd 5fbd f2bc
00000020: 4ba9 e8be c025 163e 5179 59be e780 e6bd
00000030: d2dc c73d e4d2 febc 7135 0d3e 2182 81bd
00000040: 64b8 213e afa6 88bd eaa1 f03d e2b3 9fbd
00000050: 0c47 6bbe 65ce bcbe 4651 67bb dd5a bdbd
00000060: 57f4 323d e4ae 983e 7c89 913d c498 b53e
00000070: 90b1 eb3d 90a1 cabd 5012 41be 673e 663c
00000080: c5dd 5abe eca6 4e3e 6fe1 72be 47ec 29bd
00000090: 3618 97bd cfbc 833e 1d3a 093e 235c 433e
000000a0: 00a7 fd3d f43c 83bd 7c8f 7f3e f4e0 64be
000000b0: a330 0d3e 295a a9bd fa87 29be 4a78 d53e

weight f4 [64, 48]
-0.0070971637 -0.17709504 0.30544367 0.32862595 -0.0018964796 -0.057549838 -0.20764285 0.20841543
0.24380744 0.21025299 -0.10557835 0.4119734 0.005119973 -0.11690093 -0.14749414 -0.027364103
-0.28988698 0.5172458 0.15448262 0.11958702 -0.03853231 0.12416802 0.07722412 -0.29259488
0.04022277 0.0861612 0.14254546 -0.24080056 0.10895593 0.17272559 0.001979316 -0.48762837
0.028427396 0.08319437 0.21997443 0.08076208 0.016921764 -0.094469436 -0.17313685 -0.14077544
-0.15087625 0.16430235 -0.19158334 0.074001044 -0.2145893 -0.3985596 -0.15712589 0.07534735
0.10516248 -0.57088697 -0.060486984 0.027406862 -0.17929068 -0.46064076 -0.35498238 -0.36756045
-0.1889026 -0.21231385 0.107235365 -0.022926388 0.076442845 0.047638115 0.07548074 0.049333446
0.26396215 0.107453875 -0.18465061 0.39807737 0.18727128 0.34894934 0.2105441 0.039305285
-0.028810345 -0.2520878 -0.0041671074 0.19070013 -0.35690668 0.16620895 -0.04272535 -0.47576883
0.54071754 -0.28741297 0.23673393 0.1097062 -0.04616982 -0.27783984 0.016683068 -0.21730651
0.14065203 -0.093067646 -0.36975268 0.38535285 0.28532848 0.044637024 -0.07232961 0.15976009
0.20747715 -0.6263497 0.23645538 -0.089631714 -0.20632245 -0.23227833 0.01324018 0.19489232
-0.06347415 0.19416225 -0.13998897 0.13950592 -0.081273705 0.15492675 -0.14059399 0.070994705
-0.040601224 0.3290518 -0.28028724 -0.08780052 0.0997414 0.33344853 -0.16170844 -0.010078243
0.07389025 -0.31756577 0.5752515 0.04844433 0.043844145 -0.039603446 -0.03494551 0.08917001
0.20561597 -0.29031605 0.29822695 -0.20955262 -0.091263376 0.25209287 0.011288089 0.046620116
0.21614255 -0.26328596 -0.24955377 0.16953234 -0.1193669 0.1637343 -0.05022629 0.15236627
0.41349983 -0.17842212 0.649427 0.20117447 -0.04005282 -0.066461325 0.024208376 -0.13847019
0.21190561 -0.07172249 0.24527884 0.042566616 -0.03335886 -0.040118195 0.18571639 -0.06406081
-0.16758017 0.07113464 0.023601847 -0.2574468 -0.06406907 0.097237624 -0.0073510213 0.14649947
-0.14471427 -0.14082031 -0.22747883 0.0070193023 -0.16200724 0.21616662 -0.012797059 -0.13825312
-0.08562063 0.11256701 -0.10770284 -0.08507543 0.33326337 -0.34373453 0.065718345 -0.21851173
-0.14559256 0.1703472 0.054534808 0.555312 0.048550725 -0.20646474 0.04607751 -0.15903802
0.23179321 -0.5523938 0.57819456 -0.17433856 0.22705747 -0.055689137 0.14197278 0.0016415175
-0.04870937 -0.08052504 0.14592347 0.2085492 0.4002027 0.17224266 -0.06369264 -0.24359961
0.04081615 -0.009565406 -0.41160902 0.06551885 0.06724258 0.23046583 -0.34201342 0.046000384
0.16815683 -0.12704375 -0.17716756 -0.15989962 -0.23707522 -0.32073796 0.15595075 0.086706854
0.06881429 -0.020536734 -0.16217074 0.021766702 0.56916595 -0.21472605 -0.033045847 0.011014112
-0.33309278 -0.2878555 0.040868208 -0.10639397 -0.10348847 0.081783794 -0.07600115 -0.072618194
-0.20137513 0.031807862 0.028714836 -0.17253691 0.019475576 -0.3449808 -0.09770371 0.18986662
0.31467885 0.06865878 0.054657042 -0.024201661 -0.14475927 -0.42560193 0.15990385 0.3251581
00000000: 538f e8bb 6758 35be 1d63 9c3e a941 a83e
00000010: 4c93 f8ba 61b9 6bbd 54a0 54be db6a 553e
00000020: a8a8 793e 8f4c 573e 7639 d8bd 2dee d23e
00000030: 72c5 a73b c169 efbd b408 17be af2a e0bc
00000040: 116c 94be 396a 043f b130 1e3e 0aea f43d
00000050: 0ed4 1dbd ce4b fe3d ae27 9e3d ffce 95be
00000060: a2c0 243d 4975 b03d 70f7 113e 6c94 76be
00000070: 4924 df3d fade 303e 69b7 013b 6daa f9be
00000080: 92e0 e83c cf61 aa3d fa40 613e 9766 a53d
00000090: 839f 8a3c 3179 c1bd c94a 31be 7027 10be
000000a0: 4e7f 1abe e03e 283e 6c2e 44be dc8d 973d
000000b0: 4cbd 5bbe 0110 ccbe 9ce5 20be b64f 9a3d
000000c0: 6d5f d73d a625 12bf 33c1 77bd 5b84 e03c
000000d0: fa97 37be 1bd9 ebbe 40c0 b5be e230 bcbe
000000e0: af6f 41be cd68 59be 379e db3d 1fd0 bbbc
000000f0: 118e 9c3d 2f20 433d a595 9a3d de11 4a3d
00000100: 0c26 873e c710 dc3d 0d15 3dbe ccd0 cb3e
00000110: 0bc4 3f3e 7da9 b23e df98 573e 94fe 203d
00000120: ac03 ecbc a711 81be 3b8c 88bb e546 433e
00000130: 79bc b6be ae32 2a3e c700 2fbd f997 f3be
00000140: 776c 0a3f cb27 93be 616a 723e a5ad e03d
00000150: 911c 3dbd 0641 8ebe eeaa 883c 9985 5ebe
00000160: 1607 103e 409a bebd 3950 bdbe f84c c53e
00000170: 9316 923e 50d5 363d 8c21 94bd 2698 233e
00000180: e474 543e 7458 20bf 5c21 723e d590 b7bd
00000190: 3146 53be 5fda 6dbe 57ed 583c da91 473e
000001a0: bcfe 81bd 78d2 463e 4559 0fbe a4da 0e3e
000001b0: d472 a6bd 1ea5 1e3e dff7 0fbe ac65 913d
000001c0: 784d 26bd 7a79 a83e cf81 8fbe c2d0 b3bd
000001d0: 3845 cc3d c4b9 aa3e e696 25be 371f 25bc
000001e0: c553 973d fb97 a2be af43 133f 906d 463d
000001f0: eb95 333d 3937 22bd 0623 0fbd c49e b63d
00000200: fe8c 523e 4ea4 94be 34b1 983e f694 56be
00000210: 4be8 babd 5112 813e adf1 383c bcf4 3e3d
00000220: 7954 5d3e 6bcd 86be 068b 7fbe e399 2d3e
00000230: a276 f4bd f7a9 273e 15ba 4dbd e705 1c3e
00000240: 40b6 d33e 4ab4 36be d940 263f ae00 4e3e
00000250: 6d0e 24bd e01c 88bd a550 c63c 21cb 0dbe
00000260: c9fd 583e 3ee3 92bd 602a 7b3e 555a 2e3d
00000270: 4da3 08bd fa52 24bd 702c 3e3e 5032 83bd
00000280: 239a 2bbe 0aaf 913d a958 c13c 11d0 83be
00000290: a536 83bd 8524 c73d d6e0 f0bb f503 163e
000002a0: fa2f 14be 3333 10be 36f0 68be 2d02 e63b
000002b0: 3ae5 25be c85a 5d3e c1aa 51bc 3a92 0dbe
000002c0: de59 afbd 8889 e63d 4e93 dcbd 073c aebd
000002d0: 7fa1 aa3e f9fd afbe 5797 863d 8ac1 5fbe
000002e0: 3716 15be 7f6f 2e3e e45f 5f3d ed28 0e3f
000002f0: 20dd 463d 7e6b 53be c5bb 3c3d ddda 22be
00000300: 335b 6d3e ae69 0dbf 8f04 143f cf85 32be
00000310: c181 683e 4b1a 64bd 5061 113e 3028 d73a
00000320: 7a83 47bd 50ea a4bd f66c 153e ec8d 553e
00000330: 5ee7 cc3e 6160 303e 4971 82bd 2d72 79be
00000340: d62e 273d 38b8 1cbc 6bbe d2be bf2e 863d
00000350: 7ab6 893d 3cff 6b3e 621c afbe e66a 3c3d
00000360: 4e31 2c3e c217 02be 6a6b 35be babc 23be
00000370: d9c3 72be c437 a4be 8eb1 1f3e 5d93 b13d
00000380: 82ee 8c3d a73c a8bc 1610 26be 1550 b23c
00000390: dcb4 113f 25e1 5bbe 155b 07bd 8974 343c
000003a0: 238b aabe cc61 93be 6c65 273d 15e5 d9bd
000003b0: c3f1 d3bd 437e a73d 7ea6 9bbd d9b8 94bd
000003c0: 4835 4ebe f648 023d 603b eb3c 84ad 30be
000003d0: 3e8b 9f3c 53a1 b0be e218 c8bd 656c 423e
000003e0: 961d a13e f99c 8c3d 10e0 5f3d 9042 c6bc
000003f0: c63b 14be 7fe8 d9be d6bd 233e 1f7b a63e

bias f4 [64]
-0.20569725 -0.17107442 -0.16065714 -0.20587562 -0.25826317 -0.28881758 -0.19018446 -0.38824302
-0.42325377 -0.23423627 -0.34107077 -0.28901544 -0.19814509 -0.3557575 -0.14097162 -0.17221594
-0.39233592 -0.1882601 -0.32613912 -0.30154026 -0.31470105 -0.36935928 -0.24510035 -0.34623748
-0.21525167 -0.23726143 -0.3121862 -0.15098962 -0.33119035 -0.25799543 -0.2363212 -0.2633477
-0.3718143 -0.2196277 -0.34593695 -0.45761192 -0.17067419 -0.28246242 -0.4088794 -0.09490859
-0.28719768 -0.22538775 -0.31595677 -0.15906158 -0.21913885 -0.3282313 -0.33117756 -0.2531958
-0.11231311 -0.28693885 -0.2777479 -0.12337248 -0.3146051 -0.45838058 -0.21731769 -0.21847132
-0.4668689 -0.4879281 -0.31093138 -0.13477497 -0.37866196 -0.19980802 -0.30243793 -0.39839366
00000000: 4da2 52be 222e 2fbe 4e83 24be 0fd1 52be
00000010: 123b 84be e6df 93be b7bf 42be cac7 c6be
00000020: b8b4 d8be a2db 6fbe d4a0 aebe d5f9 93be
00000030: 8ce6 4abe d925 b6be dd5a 10be 6059 30be
00000040: 41e0 c8be 41c7 40be b5fb a6be 7c63 9abe
00000050: 7f20 a1be a91c bdbe 96fb 7abe 0a46 b1be
00000060: ef6a 5cbe a9f4 72be dfd6 9fbe 069d 1abe
00000070: c891 a9be fa17 84be 2ffe 71be 82d5 86be
00000080: 725e bebe 15e6 60be a61e b1be 1c4c eabe
00000090: 37c5 2ebe ea9e 90be a458 d1be 6f5f c2bd
000000a0: 930b 93be 0ccc 66be 16c5 a1be 0ae1 22be
000000b0: ef65 60be ef0d a8be 1b90 a9be e1a2 81be
000000c0: 6a04 e6bd a6e9 92be f934 8ebe b6aa fcbd
000000d0: eb13 a1be dcb0 eabe 8788 5ebe f2b6 5fbe
000000e0: 7109 efbe b6d1 f9be 6632 9fbe 7302 0abe
000000f0: fbdf c1be 799a 4cbe 25d9 9abe 41fa cbbe

weight f4 [48, 64]
0.32420108 -0.33401364 -0.108049445 0.112816766 -0.034137722 0.11879801 -0.06554544 -0.06667377
-0.33161634 0.012926805 0.09083944 -0.09699539 -0.025629032 0.017329771 -0.122489795 -0.0900874
0.37856463 0.11706403 0.08983444 -0.022711031 0.25639892 0.31000063 0.13528867 -0.24086721
0.12476425 0.28333527 -0.22986192 0.09925133 0.09042134 0.0841625 -0.021410752 0.043357383
0.22274905 -0.04950573 0.17797932 -0.006995834 0.29124287 0.00047675075 -0.095947586 -0.19908723
0.17306134 -0.18342583 -0.13171905 -0.007922474 0.09623581 0.27434605 0.24500217 -0.10580937
0.028593356 0.15562862 0.0011995776 -0.28454924 0.22225621 -0.10885064 -0.009878765 0.18321538
0.057674095 0.03811766 -0.18125448 -0.10013664 0.22283015 0.06705839 -0.041043915 0.277932
0.27471238 0.14887165 -0.09240229 -0.09269224 0.27598712 -0.21639334 -0.21087621 0.08763621
0.13707969 0.12679085 -0.19300176 0.36946407 0.46730763 -0.09228673 0.013804327 -0.21492504
-0.17260236 -0.064126484 -0.15626137 0.045815576 -0.08970845 -0.21508485 0.07735699 -0.0663114
0.044523973 -0.02209929 0.09221755 -0.039903656 0.017693754 -0.06275903 0.17980985 0.12841085
0.14685152 0.24925297 -0.06838122 0.02756945 -0.0946038 0.060867492 -0.080143236 0.17087375
0.030141838 0.08585002 -0.0570825 -0.111050434 -0.14348991 0.024308013 0.14376725 0.10250416
-0.037265953 -0.015551953 -0.10301114 0.33564106 -0.07041992 0.06365853 -0.103999056 -0.07002755
-0.19613336 -0.10982829 0.11294619 -0.18233415 -0.34470463 -0.04602834 -0.020375734 -0.4118026
-0.018460253 -0.28661844 -0.3489215 0.023852877 -0.036318045 0.008026316 -0.08624133 -0.018833674
-0.21762973 0.07817336 -0.027852487 -0.36483172 -0.1806178 0.18230051 -0.25274637 0.0071643745
-0.18697365 0.32525054 -0.14899755 -0.0014834157 0.18691637 0.03739894 -0.080402024 -0.00845228
0.22554438 -0.04915346 0.44639832 -0.047574855 0.26074532 0.20718881 0.11779088 0.05205875
0.21515113 0.07456704 -0.19242893 0.36662748 0.02103278 0.3549566 -0.12839909 -0.08967415
0.031746272 0.038582917 -0.21806768 0.5031074 -0.025442777 0.21911007 -0.26317546 0.14282848
0.15524645 0.030273648 0.26448625 0.2855749 0.084822334 0.23738106 -0.12715158 0.5286316
-0.042712864 -0.08675118 0.037278872 0.22003154 -0.2995772 0.16155009 0.23991628 -0.035425406
0.039409455 0.0020223751 0.41548973 -0.054005705 0.11631479 0.07115282 0.05224526 0.14017805
-0.0017217036 0.1517161 0.2511404 0.5621804 0.040716823 0.1242451 0.2435457 0.10440929
0.088692024 -0.06246576 0.13734731 -0.043684706 -0.02949207 -0.066539496 0.33498776 -0.096051306
-0.16007541 -0.035157416 0.0026205853 -0.052488543 0.11624115 -0.3110912 -0.16778557 0.29589903
0.003343866 0.035785623 -0.01578375 0.052801657 -0.017628971 0.18516102 0.23919195 -0.07705792
-0.06402937 -0.21723694 0.09537145 0.05036388 0.08796156 0.08590315 0.4856367 0.23887625
0.15961118 0.25146034 -0.09239723 -0.50231636 -0.21247159 0.4775683 0.16460346 -0.14928207
-0.0465851 0.17167883 0.32243276 0.03467891 0.21030425 -0.2696653 -0.07666765 0.07484407
00000000: affd a53e d603 abbe 0749 ddbd 7a0c e73d
00000010: ffd3 0bbd 5f4c f33d b03c 86bd 428c 88bd
00000020: 9ec9 a9be f3ca 533c 070a ba3d 85a5 c6bd
00000030: faf3 d1bc 2af7 8d3c eedb fabd be7f b8bd
00000040: 39d3 c13e 44bf ef3d 1efb b73d 7c0c babc
00000050: b846 833e 67b8 9e3e 1d89 0a3e e5a5 76be
00000060: 6684 ff3d 5211 913e ec60 6bbe 4844 cb3d
00000070: d32e b93d 645d ac3d 9a65 afbc 8397 313d
00000080: 5418 643e 85c6 4abd 3640 363e 4f3d e5bb
00000090: c91d 953e 67f4 f939 2b80 c4bd 86dd 4bbe
000000a0: fe36 313e fbd3 3bbe 5ce1 06be 44cd 01bc
000000b0: 4817 c53d 1677 8c3e d9e1 7a3e 95b2 d8bd
000000c0: 9d3c ea3c 1c5d 1f3e 253b 9d3a 70b0 91be
000000d0: 2297 633e 16ed debd 8bda 21bc d09c 3b3e
000000e0: ac3b 6c3d 4321 1c3d c69a 39be 7014 cdbd
000000f0: 962d 643e e955 893d aa1d 28bd 1a4d 8e3e
00000100: 1aa7 8c3e cf71 183e 693d bdbd 6ed5 bdbd
00000110: 2f4e 8d3e 3796 5dbe efef 57be 9d7a b33d
00000120: 9e5e 0c3e 76d5 013e 41a2 45be 652a bd3e
00000130: f242 ef3e d300 bdbd 8b2b 623c 4f15 5cbe
00000140: acbe 30be bf54 83bd fb02 20be 1da9 3b3d
00000150: 10b9 b7bd 343f 5cbe 576d 9e3d 45ce 87bd
00000160: c55e 363d 9209 b5bc 8edc bc3d 0472 23bd
00000170: 7ef2 903c ce87 80bd 1320 383e 227e 033e
00000180: 3f60 163e 2c3c 7f3e 740b 8cbd 54d9 e13c
00000190: a3bf c1bd 3150 793d 2322 a4bd 87f9 2e3e
000001a0: 04ec f63c 23d2 af3d 57cf 69bd 696e e3bd
000001b0: 05ef 12be 9921 c73c b937 133e b3ed d13d
000001c0: 2fa4 18bd 9ecd 7ebc 81f7 d2bd 25d9 ab3e
000001d0: 5238 90bd 675f 823d 75fd d4bd 9b6a 8fbd
000001e0: 2fd7 48be a8ed e0bd 5550 e73d ceb5 3abe
000001f0: 207d b0be 3688 3cbd 03eb a6bc cad7 d2be
00000200: f539 97bc a7bf 92be d7a5 b2be 1c67 c33c
00000210: 3bc2 14bd cf80 033c 4b9f b0bd 1449 9abc
00000220: 54da 5ebe 5b19 a03d e62a e4bc 39cb babe
00000230: dff3 38be fcac 3a3e f967 81be 21c3 ea3b
00000240: 0576 3fbe 3d87 a63e d092 18be 2c6f c2ba
00000250: 0167 3f3e a22f 193d d1a9 a4bd 6f7b 0abc
00000260: 1bf5 663e 2355 49bd 528e e43e dadd 42bd
00000270: 6980 853e 4e29 543e 583c f13d 8e3b 553d
00000280: 9450 5c3e 9bb6 983d 170c 45be 99b6 bb3e
00000290: f04c ac3c dfbc b53e 0d7b 03be 15a7 b7bd
000002a0: 6108 023d 1f09 1e3d 224d 5fbe a6cb 003f
000002b0: 5f6d d0bc 645e 603e efbe 86be a141 123e
000002c0: edf8 1e3e 7100 f83c be6a 873e e036 923e
000002d0: 55b7 ad3d 0514 733e 0634 02be 6754 073f
000002e0: aff3 2ebd 9aaa b1bd bbb1 183d f34f 613e
000002f0: 2f62 99be 636d 253e 9dac 753e 3b1a 11bd
00000300: cf6b 213d d389 043b 12bb d43e 1635 5dbd
00000310: 7336 ee3d 92b8 913d 20ff 553d d68a 0f3e
00000320: c9aa e1ba 775b 1b3e 7995 803e 0eeb 0f3f
00000330: afc6 263d 3774 fe3d 0b64 793e 8ad4 d53d
00000340: 2aa4 b53d 19dc 7fbd c6a4 0c3e bcee 32bd
00000350: 5b99 f1bc dc45 88bd 8483 ab3e 8cb6 c4bd
00000360: cfea 23be 3901 10bd 20be 2b3b 3afe 56bd
00000370: d70f ee3d 5947 9fbe fbcf 2bbe 1480 973e
00000380: c324 5b3b f293 123d ec4c 81bc 8d46 583d
00000390: a26a 90bc da9a 3d3e bcee 743e 8bd0 9dbd
000003a0: d521 83bd 5c73 5ebe 1b52 c33d 5b4a 4e3d
000003b0: 3125 b43d feed af3d 60a5 f83e fa9b 743e
000003c0: 1d71 233e 69bf 803e c23a bdbd ce97 00bf
000003d0: 2792 59be d583 f43e cf8d 283e 66dd 18be
000003e0: 05d0 3ebd 93cc 2f3e e815 a53e 790b 0e3d
000003f0: ff59 573e 9211 8abe ee03 9dbd d947 993d

bias f4 [48]
-0.116254106 0.08587719 0.106443405 0.08473919 -0.07128134 -0.14021784 0.09796552 -0.10281515
0.048159264 0.03287261 0.15045576 -0.22747624 -0.005002835 0.021904903 -0.3943141 -0.06918679
-0.017948303 -0.1374367 -0.07357826 -0.047213193 -0.2212283 0.1984225 0.06726376 0.10159303
0.19078247 0.16324794 0.09320493 0.050046746 -0.0261611 -0.015822243 0.05131977 0.03509357
0.14901502 -0.17724624 0.2393868 -0.15363707 -0.06826859 0.11801042 -0.14287937 -0.011380243
-0.051901612 0.03453233 0.058098234 0.21434978 0.36745107 0.048687913 0.016712904 0.021088753
00000000: a216 eebd 61e0 af3d 00ff d93d be8b ad3d
00000010: f4fb 91bd 4495 0fbe 26a2 c83d c090 d2bd
00000020: a642 453d 6ea5 063d 1311 1a3e 88ef 68be
00000030: d2ee a3bb e971 b33c 8ae3 c9be ceb1 8dbd
00000040: 5208 93bc 35bc 0cbe 33b0 96bd 9f62 41bd
00000050: ac89 62be 452f 4b3e 95c1 893d 0210 d03d
00000060: 7b5c 433e 782a 273e 3ae2 be3d d1fd 4c3d
00000070: ce4f d6bc a69d 81bc ae34 523d 46be 0f3d
00000080: 6597 183e 0a80 35be d021 753e 0953 1dbe
00000090: 67d0 8bbd 72af f13d f84e 12be 3374 3abc
000000a0: c996 54bd c671 0d3d 6af8 6d3d 827e 5b3e
000000b0: 8c22 bc3e fa6c 473d 80e9 883c 52c2 ac3c

weight f4 [48]
0.873371 0.7306376 0.72159773 0.64230853 0.77915096 1.0249339 0.86146826 0.99605584
0.65989923 0.68584216 0.7622036 0.93992656 0.648258 0.69052863 0.73238754 0.66412807
0.7504277 0.7704605 0.80067945 0.8569935 0.78197294 0.74973696 0.45836675 0.7009692
0.77632666 0.7602182 0.85409325 0.69463795 0.61322796 0.6360225 0.73959357 1.0593345
0.6616682 0.6733998 0.62211937 0.95638245 0.9104214 0.82119524 0.8216218 0.59444356
0.9399771 0.93078613 0.3015572 0.7815683 0.5910442 0.7681985 0.71399945 0.693586
00000000: 3e95 5f3f 110b 3b3f a1ba 383f 556e 243f
00000010: 7076 473f 0931 833f 2f89 5c3f 84fd 7e3f
00000020: 28ef 283f 5a93 2f3f c61f 433f 079f 703f
00000030: 3cf4 253f 7cc6 303f c07d 3b3f 4c04 2a3f
00000040: 081c 403f e63c 453f 54f9 4c3f ed63 5b3f
00000050: 612f 483f c3ee 3f3f 0caf ea3e b872 333f
00000060: 58bd 463f a99d 423f dba5 5a3f cbd3 313f
00000070: 82fc 1c3f 5fd2 223f 0156 3d3f 4698 873f
00000080: 1663 293f ee63 2c3f 3743 1f3f 7bd5 743f
00000090: 6011 693f da39 523f ce55 523f 742d 183f
000000a0: 57a2 703f 0048 6e3f b565 9a3e dc14 483f
000000b0: ac4e 173f a8a8 443f abc8 363f da8e 313f

bias f4 [48]
0.06794867 0.03916863 0.32621673 -0.10278099 -0.012057587 -0.034387495 -0.09480738 0.030952742
-0.017445372 0.02605102 -0.18002105 0.065814056 0.040612414 -0.08404949 0.29375994 -0.08156813
-0.12227891 0.30552053 0.21875209 0.1664715 0.074200206 0.060430992 0.15285806 -0.120333694
-0.116534494 0.07729315 0.15426587 -0.09432277 -0.23513746 -0.06676559 0.19657995 -0.10356836
-0.07649593 -0.10764471 0.066697024 0.08528825 0.047059625 -0.07604309 -0.09063316 -0.12044572
0.070059136 0.077713005 0.06290212 0.03509811 -0.08242586 -0.18498857 -0.037548043 -0.12532397
00000000: ac28 8b3d 496f 203d e105 a73e d77e d2bd
00000010: 2f8d 45bc e7d9 0cbd 5f2a c2bd 9b90 fd3c
00000020: 99e9 8ebc f368 d53c 7057 38be 85c9 863d
00000030: 3459 263d 2422 acbd b467 963e 310d a7bd
00000040: 5d6d fabd 306d 9c3e 8c00 603e 8177 2a3e
00000050: 47f6 973d 7d86 773d d386 1c3e 8371 f6bd
00000060: a3a9 eebd df4b 9e3d dff7 1d3e 4c2c c1bd
00000070: e0c7 70be 66bc 88bd 414c 493e a61b d4bd
00000080: e6a9 9cbd d474 dcbd 7398 883d 9bab ae3d
00000090: 98c1 403d 7bbc 9bbd e19d b9bd 3fac f6bd
000000a0: 2a7b 8f3d ff27 9f3d d4d2 803d 09c3 0f3d
000000b0: e4ce a8bd a56d 3dbe facb 19bd ed54 00be
