Case_Study_1/trained_transformer/verification/vit_12_2_6_12.pt (torch, 31048 bytes, 30 tensors)

pos_embedding f4 [1, 50, 12]
000000 82 6e 63 3f 61 d0 d4 be 5c 99 00 bf 00 aa a2 3f
       0.88840497 -0.4156523 -0.5023401 1.270813
000010 b8 f5 ce bf 7d 5f 7e 3e 61 b5 27 bf 15 46 95 bf
       -1.6168737 0.24841113 -0.6551114 -1.1662012
000020 ac 7e 07 be 15 c5 61 bf 47 ba f0 be a4 2a a8 3e
       -0.13231915 -0.8819135 -0.47017118 0.32845032
000030 01 19 53 3f f4 08 1a bf ee 09 c4 be 52 83 99 3f
       0.8246003 -0.6016991 -0.38288826 1.1993201
000040 f7 ce 31 bf 29 9e 29 bf 1c ff bd be 84 68 60 bf
       -0.6945643 -0.6625696 -0.37108696 -0.8765948
000050 83 70 86 3e f2 4e 0b bf 30 73 c6 bf f3 75 20 bf
       0.26257715 -0.54417336 -1.5503902 -0.62679976
000060 59 03 21 bc 81 26 35 bf 9f b9 e6 3c c0 7b 04 40
       -0.009827458 -0.7076188 0.028164683 2.070053
000070 29 39 58 bf 86 3d 1d bf 30 83 7c bc aa 60 36 be
       -0.8446222 -0.61422 -0.015412137 -0.17810312
000080 6b fc d9 3e c4 e3 0b 3e 28 f5 3d bf ce 99 82 3f
       0.42575392 0.13661104 -0.74202204 1.0203187
000090 4c 17 09 bf cd 6a e7 be bd 32 04 bf 5f c9 0d 3f
       -0.53551173 -0.4519867 -0.5163992 0.5538539
0000a0 0a b7 ad bf 49 6d d8 bf 89 4d d9 be 66 eb 9e 3e
       -1.3571484 -1.6908351 -0.42441967 0.3103897
0000b0 94 70 b8 be c3 d2 1d bf 49 20 5d bf a9 47 6e be
       -0.3602339 -0.6164972 -0.8637739 -0.23269524
0000c0 38 1e 10 c0 aa 69 dc 3f 1f 31 18 40 d1 89 15 be
       -2.2518444 1.7219746 2.377998 -0.14603354
0000d0 4d 87 43 3f 81 77 7a 3f 18 7f 0e bf b2 eb 4c bf
       0.7637833 0.978386 -0.5566268 -0.8004714
0000e0 3b 2f 9b 3f 4c 4b 32 3c a1 68 56 bf 0d 34 b0 3f
       1.2123789 0.01088221 -0.837534 1.3765885
0000f0 75 fd ae 3f 58 b2 ec 3d ca ee a1 bf 40 6d ce 3f
       1.3671099 0.11557454 -1.2650998 1.612709
000100 bd 12 db bd 52 17 61 bf b3 11 a6 3f 5f 17 73 bf
       -0.106969334 -0.8792621 1.2974151 -0.94957536
000110 6d 8c 9c bf 4c 51 8c bf ae 8c 18 3f 68 46 c9 3f
       -1.2230355 -1.096231 0.5958966 1.5724611
000120 f4 1e 35 be b2 68 96 3f ae e6 41 bf 61 1b 13 c0
       -0.17687589 1.17507 -0.75742614 -2.298546
000130 ac 86 c1 bd f1 66 a2 bf 46 1e 12 40 f8 9e b7 3e
       -0.09449515 -1.2687665 2.2830977 0.3586347
000140 06 e8 1e c0 6d 42 b3 bf 51 56 1c be 31 0f a5 be
       -2.4829116 -1.4004647 -0.15267302 -0.32238153
000150 0c 19 bb 3f 67 d8 81 3e fb 53 8c 3f 10 0d 29 3f
       1.4617019 0.25360414 1.0963129 0.66035557
000160 93 3d d1 3f de b7 a4 bf 0a 77 95 3f b7 35 0a 3d
       1.6346916 -1.2868612 1.1676953 0.033742633
000170 7d 75 00 40 8b 20 96 3f 66 98 22 3f 4b 8c d8 be
       2.007171 1.1728681 0.6351379 -0.42294535
000180 2e e3 67 be 55 3c 02 3e 39 26 af 3f 06 ea 23 40
       -0.22645256 0.12718327 1.368354 2.5611587
000190 8f de fd 3f cf e1 94 3f d0 69 17 3f 41 5b 91 3f
       1.9833544 1.1631411 0.5914583 1.1355973
0001a0 c5 ec 80 bf b4 fc a6 bf 77 15 9f 3f f4 9d c6 3f
       -1.0072256 -1.3045869 1.2428426 1.5516953
0001b0 9c 47 22 be a6 e5 c7 bf 9d 2e dc be d5 1a 8b bf
       -0.1584763 -1.5616958 -0.43004313 -1.0867563
0001c0 7c 7d 1e bd fa 85 a5 be 28 c6 64 3f 6c b3 10 3f
       -0.03869389 -0.32328779 0.8936486 0.56523776
0001d0 2f 2d 71 3f eb 63 26 3e 60 de a5 bd 79 ee f8 3f
       0.9420957 0.16249053 -0.08099055 1.9447776
0001e0 df 6f b7 3f 4d af 23 3f 54 d9 0f be 65 e6 c8 3f
       1.4331015 0.6393936 -0.14047748 1.5695311
0001f0 4b 82 19 c0 cf cd 9f bf dd 04 d7 3f b0 7c d6 be
       -2.3985775 -1.2484683 1.6798359 -0.41892004
000200 ec cd ba be ec e6 22 3f 6a e6 13 3f ac 75 33 3f
       -0.3648523 0.6363361 0.5777346 0.7010143
000210 e7 f4 05 bf a4 56 6e 3f 3b 27 b7 3e 50 bd 7b 3f
       -0.52326816 0.93100953 0.35772118 0.9833574
000220 37 6e 88 3f 29 1f f0 be 0d b6 76 3e 91 8a a2 3f
       1.0658635 -0.46898773 0.24092884 1.2698537
000230 ca 90 79 be c0 e7 16 be 7d 49 96 bf d7 ae ca bd
       -0.24371639 -0.14736843 -1.1741177 -0.09896629
000240 84 61 c3 bf 7a c5 38 bf 52 62 5e 3f cb 0a 78 bf
       -1.5264134 -0.72176325 0.86868775 -0.9689147
000250 dd 07 ce 3f e1 bc 4f bf c4 f9 3e be df 1d 13 3f
       1.609615 -0.8114758 -0.18649966 0.57467455
000260 44 e0 5c be b1 fd 68 3f bc 77 03 bf 0d d3 47 bf
       -0.21569926 0.910121 -0.51354575 -0.7805641
000270 c0 c5 9d be e2 24 08 40 d1 59 dc be 1a 14 89 3f
       -0.30814934 2.1272511 -0.43037274 1.070926
000280 be 40 69 be 51 10 3d 3f 84 41 85 bf 80 93 5c bf
       -0.22778603 0.7385302 -1.0410619 -0.8616257
000290 a3 d1 e0 3e 9f 69 bc 3d 06 d3 ca 3d e4 bc 08 3f
       0.4390994 0.09199833 0.09903531 0.53413224
0002a0 a4 22 4d 3e 88 30 e7 3e 66 5a be bf 17 26 9f 3e
       0.20032746 0.45154214 -1.4871337 0.31083748
0002b0 65 6e dc be 00 07 11 bf fb 6e dd 3f 70 97 d8 bf
       -0.43052974 -0.56651306 1.7299494 -1.6921215
0002c0 48 8e 89 3d f5 fb 9c 3e 17 b2 53 bf cb 6f 72 bf
       0.06716591 0.30660978 -0.8269362 -0.9470183
0002d0 2b 92 08 40 e5 b6 30 3f 49 e5 95 3e a2 4b 14 c0
       2.1339214 0.69029075 0.29276493 -2.3171163
0002e0 9e e3 c9 bf 8f a2 5e bf ca 11 2f 3f 13 7b 00 be
       -1.5772588 -0.86966795 0.6838652 -0.12546949
0002f0 9e dd 13 3f 94 1b b6 3f 01 af 64 bf a3 8a 9e 3f
       0.57760036 1.4227166 -0.89329535 1.2386059
000300 3b 2e cc bd e6 6e 4a 3f e6 94 0e c0 d8 e4 da bf
       -0.09969755 0.7907547 -2.227838 -1.7101088
000310 c3 9b f5 3e c9 c3 11 40 c3 dd aa 3f 64 34 bc bf
       0.479704 2.2775748 1.3348926 -1.4703488
000320 f6 05 c4 bf ab 7b 10 be 7d 1a a0 3f 22 8d 46 bf
       -1.5314319 -0.14109676 1.2508084 -0.775591
000330 99 62 87 bf 0b 84 8a bf ff 36 c2 3f a5 4b 5b 3f
       -1.0576965 -1.0821546 1.5173033 0.856623
000340 35 c9 fe be 57 68 11 be 4d 64 07 bf 4d b1 64 3f
       -0.49762884 -0.14199959 -0.5288742 0.8933304
000350 ae f7 be 3f 0a 42 2f bf 57 6f 66 bf 77 b2 21 c0
       1.4919336 -0.6846014 -0.9001364 -2.5265176
000360 b8 ba 50 3e 25 c6 17 c0 ac 46 86 be fe b9 42 3f
       0.20383728 -2.3714688 -0.26225793 0.7606505
000370 94 ef 4d 3f 69 51 ab bf d5 26 92 3f 00 ae d6 bf
       0.8044369 -1.338422 1.14181 -1.677185
000380 33 f8 96 3f ca 1f 86 3f 38 5c 05 3f d9 d5 b4 3e
       1.1794494 1.0478451 0.5209384 0.35319403
000390 41 3b bb 3f a2 36 90 3f 22 33 06 40 f7 45 98 bf
       1.4627458 1.1266673 2.096871 -1.1896352
0003a0 af 8e 89 3f 87 2d 89 3f 5a 4a 8b 3f 1c 25 c7 3f
       1.0746669 1.0717019 1.0882065 1.55582
0003b0 5f 8e 2c 3f 39 95 6d c0 b1 3a 9e bd 20 97 f5 3e
       0.6740474 -3.7122328 -0.07726038 0.47966862
0003c0 ee 7e ae 3f 46 14 e3 bf 45 e2 d4 be c3 9f f5 3e
       1.3632486 -1.7740562 -0.4157888 0.4797345
0003d0 1d 0b af 3e f7 1f 4c bf 20 f4 b9 3f 20 52 82 bf
       0.34188166 -0.79736274 1.4527626 -1.0181313
0003e0 c6 f7 2e 3e 1b 14 56 bf 20 56 32 3f 44 dd a2 3f
       0.17086706 -0.8362443 0.69662666 1.2723775
0003f0 2d 16 3b 3e 5a 84 04 40 4c 75 6f bf f3 17 8a 3f
       0.18270178 2.070578 -0.93538356 1.0788559

cls_token f4 [1, 1, 12]
000000 42 8a 60 3f c8 9e da ba 4a 58 3b bf 04 ec 86 3f
       0.87710965 -0.00166794 -0.73181593 1.0540776
000010 1f f0 75 3f 59 e8 9b bf 2a d3 be bf 1d 1c ae bf
       0.9606952 -1.2180282 -1.4908192 -1.360233
000020 3d 7c 2d 3f 04 9d d2 3e 74 d6 68 bf 58 85 32 3f
       0.677677 0.41135418 -0.9095223 0.69734716

weight f4 [12, 16]
000000 ae 2a 6f be 02 80 f7 bd a4 d5 8c be 91 b9 8a bd
       -0.23356125 -0.120849624 -0.27506745 -0.06773675
000010 8a f2 f7 bc c1 6b 8b 3e ac 08 bc 3e 42 d2 b7 3e
       -0.030267019 0.27230647 0.36725366 0.359026
000020 91 ba 00 be 86 1e c3 3d 0f de 09 be e6 7a 5e 3e
       -0.1257117 0.09527306 -0.13463615 0.2172657
000030 88 1a 01 bf db 27 aa be 39 10 9f be 3e 3e 02 3d
       -0.5043111 -0.33233532 -0.31067064 0.03179764
000040 e9 0d bb 3e 2e 42 23 3e 2c 42 cb 3d 8e b8 c6 bd
       0.3653405 0.15943214 0.09924731 -0.0970317
000050 5e 2f 15 bd 4f f6 90 3e 3a c8 bb 3e 96 cc da 3c
       -0.036422126 0.2831292 0.36676198 0.026708882
000060 0b 9c f8 bc 54 e2 5f be 24 bd ff bd 8f d9 3e be
       -0.030347845 -0.21863681 -0.124872476 -0.1863768
000070 bb 25 0a bf 74 50 e0 be bb 33 ec be f2 b0 41 be
       -0.5396382 -0.4381138 -0.46133217 -0.18915156
000080 02 d2 4a 3e c3 77 01 3f 69 b6 99 3e 49 e2 85 3e
       0.19806674 0.50573367 0.3002198 0.26149204
000090 da 89 0d bf 4c 61 a2 be 59 bb b9 be 00 46 4f be
       -0.5528847 -0.31714857 -0.36275747 -0.20241547
0000a0 61 2c 1a bf 2a 51 ee be 72 13 d4 be cd 5c 13 bf
       -0.60223967 -0.46546298 -0.41421086 -0.5756348
0000b0 39 fb 09 be 41 a3 15 3e 40 42 04 3e e6 f8 67 3e
       -0.1347474 0.14613058 0.12915897 0.22653541
0000c0 a8 95 9e be 5d 6e b2 be 0e 0b 12 be bb 60 8d 3e
       -0.30973554 -0.34849826 -0.1426203 0.27612862
0000d0 d9 5b 1f 3e d6 62 c1 3e b8 8e 82 3e 1d fe fd 3d
       0.15562381 0.37770718 0.2549951 0.12401984
0000e0 1f f6 16 3e 1e 21 9b 3d 5a 1b 2f 3e 24 f1 13 be
       0.14742325 0.07574676 0.17100278 -0.14447457
0000f0 6e 87 93 3e b2 38 e4 bd 47 37 24 be 8a 00 12 bf
       0.28814262 -0.11143626 -0.16036712 -0.5703207
000100 82 5e 24 bf ef f2 cf bd b2 cf 4c be cd b8 d6 be
       -0.6420671 -0.10153758 -0.20001104 -0.41937867
000110 96 03 b8 bd 3e 18 bd be d5 e5 7b be a6 a1 0f bf
       -0.08985059 -0.36932558 -0.24599393 -0.5610603
000120 a5 ad 9e 3c f5 02 ec 3b 72 11 a6 bd 57 49 a5 be
       0.01936991 0.007202501 -0.08108796 -0.32282516
000130 c8 12 e7 3e 20 55 fb 3d 32 b2 58 3d b3 0a c9 bd
       0.45131516 0.12272096 0.052904315 -0.09816494
000140 03 f9 00 3f 53 c9 ff 3d 67 b8 05 be be 50 8b be
       0.5037996 0.124895714 -0.13058625 -0.2721004
000150 01 5e a9 3e 6d a3 94 3d f7 fe 49 3e d5 4b 24 3e
       0.33079532 0.072577335 0.19726168 0.16044553
000160 04 c9 30 3e 1a 74 74 3e ff bb bf 3e 9c b9 49 3e
       0.17264181 0.23872414 0.37448117 0.1969971
000170 8e cb a0 3e 5e 27 90 3e 5d ca b3 3e b4 64 f4 3e
       0.314053 0.28155035 0.35115328 0.4773308
000180 4a 0b 6e be 38 30 cd be 19 b7 02 bf d1 e3 18 bf
       -0.23246494 -0.4007585 -0.51060635 -0.5972262
000190 b9 af a1 bd 58 21 cb bd bc 73 0c bd e6 58 45 be
       -0.078948446 -0.09918469 -0.03429006 -0.19272193
0001a0 48 5b a9 bd 94 f4 0c 3e 8c 7e 90 3e e1 22 6c 3d
       -0.08269364 0.13765174 0.28221548 0.05765045
0001b0 84 6f ef bd 01 81 e3 bd f0 78 b6 bd d6 c3 2b 3e
       -0.11691192 -0.1110859 -0.08909786 0.16773924
0001c0 0c 3f bd be 73 51 c4 3d c7 31 b3 3d a5 17 12 3e
       -0.36962163 0.09585848 0.08749729 0.14266832
0001d0 3a 22 0e be 88 8e 5b be 60 fe 48 be 21 68 44 ba
       -0.13880244 -0.2144109 -0.19628286 -0.0007492323
0001e0 17 1a 7e 3e 51 77 00 3e c6 2a 91 3d 9b 01 b5 3c
       0.2481464 0.12545516 0.070882365 0.022095492
0001f0 6b f8 c7 3e ef 50 59 3e d6 54 f1 3d 11 46 06 3f
       0.39056715 0.2122228 0.11783759 0.5245066
000200 66 3e ee 3d 10 78 5d 3e 74 a1 13 3e c6 5f 59 3e
       0.11632995 0.21627831 0.14417058 0.21227941
000210 ed 9c 03 be b6 1e 91 be b7 c4 18 be 54 e1 08 3e
       -0.12852831 -0.28343743 -0.14918791 0.13367206
000220 d5 46 15 be da 18 30 be 8f 1c 2a be 95 d0 4b 3d
       -0.14577802 -0.1719698 -0.16612457 0.049759466
000230 f9 ad 35 be a6 8b 34 bd 17 17 0f be 93 5e 98 bd
       -0.17742147 -0.04407849 -0.13973652 -0.074399136
000240 d3 eb 89 3d e3 bc 40 3c df 4a dd bd 0b 0e ab bc
       0.06734433 0.011763784 -0.10805296 -0.02088072
000250 c2 1e de 3e 0d c0 ed 3e 65 e6 e3 3e 10 4d f6 3e
       0.4338284 0.46435586 0.44511715 0.4810567
000260 7e da 9d 3d 69 fb fa 3d 5a 42 59 3e 94 c3 4f 3e
       0.0770769 0.12254984 0.21216717 0.20289451
000270 8b 0a 93 be 33 35 c4 be 36 81 d6 be a0 6d b2 bd
       -0.2871898 -0.38321838 -0.41895455 -0.087123156
000280 39 4f c9 bd b1 f3 d5 bc 0e e5 f5 3d 55 93 2e 3e
       -0.09829564 -0.026117178 0.12006579 0.1704839
000290 bd c2 36 be 6e 49 26 bd 73 01 13 3d 15 f6 f0 bd
       -0.17847724 -0.04059737 0.035890054 -0.117656864
0002a0 22 0d 0c bc 57 32 45 bd 7e 31 75 be 00 50 e4 be
       -0.008548053 -0.04814371 -0.23944661 -0.44592285
0002b0 be 21 95 bd 3c cb 96 be 97 81 25 be 54 41 61 be
       -0.072818264 -0.2945193 -0.16162716 -0.21997577
0002c0 71 2e 26 3e ef c5 bf 3e 84 59 f1 3e 34 7f 20 3f
       0.16228653 0.374557 0.47138608 0.62694097
0002d0 d0 78 98 be 1a 7b 5c be 56 b9 bd bd 5b 43 77 bd
       -0.29779673 -0.21531335 -0.09263866 -0.06036697
0002e0 ff 55 80 bd 26 cc b1 bd ec 9e 90 be 30 00 25 be
       -0.062664025 -0.08681516 -0.28246248 -0.16113353
0002f0 6c 5d cb 3e 2a 05 00 3e 19 8b b9 3d a6 87 b7 bd
       0.39719713 0.1250197 0.09059734 -0.0896142

bias f4 [12]
000000 c8 0c ac bd 21 ba 70 3e 72 8e ea bd 68 b1 d3 3d
       -0.08400875 0.23508503 -0.114529505 0.10336572
000010 d9 7b 29 3d 4c 9a 58 3e c0 33 b7 bb 17 ce 84 ba
       0.041377876 0.2115261 -0.005590886 -0.001013222
000020 f0 fe 3f 3e 67 e2 02 3e f7 22 01 be d8 4e 8f be
       0.18749595 0.12781678 -0.12610994 -0.2798984

weight f4 [12]
000000 2c 4e 70 3f 45 2f 7b 3f ad 20 9c 3f 0b cf 91 3f
       0.9386928 0.98119 1.2197472 1.139131
000010 28 68 84 3f 7a 08 8a 3f 6d 25 a8 3f b6 f3 89 3f
       1.0344286 1.0783837 1.3136421 1.07775
000020 41 cb 9d 3f 90 8d a4 3f 9b ed 9e 3f a7 66 a6 3f
       1.2327653 1.2855701 1.2416261 1.3000077

bias f4 [12]
000000 1d db e2 3d a6 69 29 bd e2 85 43 3d f7 28 0a be
       0.11076949 -0.04136052 0.047735102 -0.1349219
000010 1f 95 4e 3d 70 15 eb bd 70 84 d9 3d 6e 51 11 bb
       0.05043518 -0.11478698 0.106209636 -0.002217378
000020 37 84 1e 3e 9b 7a a6 bd 14 b3 c6 3d 29 9d a4 bd
       0.15480123 -0.08128854 0.09702125 -0.080377884

weight f4 [36, 12]
000000 f7 16 ab 3e 69 6c 2c 3e 64 f7 c2 3c d7 c1 b0 be
       0.33415958 0.1683823 0.023799606 -0.34522888
000010 0c 55 8d 3e 18 dd 13 be 84 12 de 3e e3 fc 98 3e
       0.27603948 -0.1443981 0.433735 0.29880437
000020 9f 7e d2 bc a9 11 a9 bd a6 63 56 3c 6d 22 97 be
       -0.025695143 -0.082553215 0.0130852815 -0.29518452
000030 63 ea 4c 3e c2 37 27 3d 01 5b 36 3e 9b fc dd be
       0.20011286 0.04082466 0.17808153 -0.43356785
000040 0d ca 99 3e 95 48 eb 3e 49 d3 26 3f 50 fb ab 3e
       0.30036965 0.45953813 0.65166146 0.33590174
000050 be 44 a1 be 8b 87 df 3d 68 f4 88 3e 88 c3 05 bf
       -0.3149776 0.10914525 0.26748967 -0.5225148
000060 3a 35 28 3e 9e 59 03 bf 46 6c 37 bd 35 ad 1f 3e
       0.16426554 -0.5130862 -0.044780992 0.15593417
000070 e7 42 0c bf 6c 01 62 bf 65 11 c7 bd 0f f3 70 3e
       -0.54789585 -0.8828342 -0.097201146 0.2353022
000080 8f 1a 35 be eb 6c 54 3e 20 78 bf be e7 df b1 3e
       -0.17685913 0.20744674 -0.37396336 0.34741136
000090 42 5b 58 3e df 9c 86 3e 8d 0b 10 3f de 76 e9 be
       0.21128562 0.26291558 0.56267625 -0.455985
0000a0 c7 ea f4 3c ec 72 17 bf 81 96 87 be 27 71 ac 3e
       0.029897107 -0.5915973 -0.26482013 0.33680078
0000b0 f7 ce 8d 3e 16 73 e6 3e 4a 6f d3 3e d8 0e 87 be
       0.27696964 0.4500968 0.41295844 -0.26378512
0000c0 4a aa bc 3e 4e bd 07 3e c3 bd 9a 3e 12 23 1e 3f
       0.3684867 0.13255808 0.30222902 0.61772263
0000d0 b6 32 cf be fe 21 04 bf 4a 9c f4 bc 67 c4 d6 be
       -0.40468377 -0.5161437 -0.02985968 -0.41946718
0000e0 70 28 13 3e 7d e2 ed bd 26 25 ed 3d b3 0d 9a 3d
       0.14370894 -0.11615465 0.11579351 0.07522144
0000f0 a9 01 08 be 12 06 1d 3f 65 b8 77 3e 55 4b 21 be
       -0.13281883 0.6133739 0.24191435 -0.15751393
000100 91 07 3b 3f 88 fd c1 be 4c 70 ee 3e 6a 07 7e be
       0.7305842 -0.37888741 0.4657005 -0.24807516
000110 a2 24 45 be 6e 0d 46 3e d3 58 43 bd 3d c7 3a bf
       -0.19252256 0.1934106 -0.04769213 -0.72960263
000120 ae 7e ce be 67 dc 20 bd 66 e8 b3 be 1d 09 23 3e
       -0.40331024 -0.039272692 -0.35138243 0.15921445
000130 c0 90 15 be 39 24 45 be da 2a 86 bd bd 01 b3 be
       -0.14605999 -0.19252099 -0.06551142 -0.34962264
000140 f7 ae dd bd 8c 4c 00 3e 2f 89 6e 3e 09 24 1f 3f
       -0.108243875 0.125292 0.23294519 0.6216436
000150 cd ea 69 3e 60 0b 2c be 58 0b e1 be e2 1f ad 3e
       0.22843476 -0.16801214 -0.43953967 0.33813387
000160 e0 7c 85 bc f8 41 bc 3d ea 71 8f be 1b 02 60 bd
       -0.016294897 0.0919227 -0.28016597 -0.054689508
000170 87 f1 37 3f 0e 96 69 bd 59 1f 1e be 1a c7 f3 3a
       0.71852916 -0.05702787 -0.15441646 0.0018598766
000180 d5 70 a6 be ae 8e 1f 3e 69 71 12 bf 35 48 24 be
       -0.3250796 0.15581772 -0.572043 -0.1604317
000190 04 ae 43 3e 05 08 c2 3e 57 b8 1d bd fb 2c 21 bd
       0.1910935 0.37896743 -0.03850588 -0.039349537
0001a0 12 0d d9 3e eb c2 99 3e 7d 76 39 3d 40 af 18 3d
       0.42392784 0.30031523 0.045279015 0.037276506
0001b0 54 e4 19 be 7f 6a c0 be 8c e4 1e 3f 86 ef 1f bf
       -0.15028507 -0.3758125 0.62067485 -0.6247486
0001c0 e6 9f 89 be e6 b7 26 3d db 82 b2 3e 72 18 1a bd
       -0.26879805 0.040702723 0.3486546 -0.03762097
0001d0 03 5e 61 be 57 3f 49 be 8d fa 4f bd 42 35 92 3d
       -0.22008519 -0.19653068 -0.050776053 0.07139064
0001e0 21 e5 51 3f 2d 6e c6 bd f1 02 27 3e dd 4b 47 3e
       0.8199025 -0.09688983 0.16309716 0.19462533
0001f0 a5 ee 10 3e 16 a1 2e bf df ef 49 3b 40 da 51 bc
       0.14153536 -0.6821455 0.003081314 -0.0128083825
000200 ef 74 43 3d 3a 6a 8b 3d fd 29 a5 bc 4c e3 87 3b
       0.04771894 0.068073705 -0.020161623 0.004146969
000210 23 6a e2 be 64 00 6a bd 72 26 31 3f 32 90 12 3e
       -0.442216 -0.05712928 0.6919929 0.14312819
000220 0a 80 0d 3e aa 35 13 bf ae 43 a0 3e eb c7 8f 3e
       0.13818374 -0.5750376 0.31301636 0.28082213
000230 59 5a ce be 40 ca 56 3f d7 59 4e bc e8 bd 60 bd
       -0.40303305 0.8390236 -0.012594662 -0.05486861
000240 f5 04 14 bf 97 7a 2b 3e 95 55 62 be 79 fa a9 3d
       -0.57820064 0.16745983 -0.2210296 0.08299727
000250 42 3b 78 3e 85 e9 18 be 76 3f a2 3d 0e 34 78 be
       0.24241355 -0.1493283 0.079222605 -0.24238607
000260 d9 9a 8c 3e d1 32 1c be 79 d1 7d 3c 4f 36 5a 3e
       0.2746189 -0.1525376 0.015491837 0.2130978
000270 f0 25 d9 be b1 5e 16 be 6f 75 68 be 32 91 0a be
       -0.42411757 -0.1468456 -0.22701047 -0.1353195
000280 2f 45 d8 3e a1 72 9a be 89 36 ba bc 0c c4 bd be
       0.42240283 -0.3016558 -0.022731083 -0.37063634
000290 c8 5a 0a 3f df 88 69 be 88 25 92 3e 95 ee 5b be
       0.5404477 -0.22806118 0.2854426 -0.2147773
0002a0 82 5f d5 3d 51 1e f1 bd ec 70 82 3e 55 ab 17 bd
       0.10418607 -0.117733605 0.25476778 -0.03702863
0002b0 0a f0 a3 be 7d fc 0b be cc 1d 34 3e aa da e9 3e
       -0.32019073 -0.13670535 0.17589492 0.4567464
0002c0 5c 77 87 be ab 8c ea 3e df 0a 10 bf 30 51 a2 be
       -0.2645825 0.45810446 -0.5626659 -0.31702566
0002d0 fa f4 0d bd 48 8f 1a 3e 6b 72 c9 be e7 94 92 3d
       -0.034657456 0.1509372 -0.39345106 0.07157307
0002e0 b0 f7 16 bf 0e e6 12 be 71 68 22 3d e6 47 9a be
       -0.5897169 -0.14345571 0.039650384 -0.3013298
0002f0 e1 c0 d5 3e 7c 10 f8 be b7 f8 28 be b8 92 03 3f
       0.41748717 -0.48450077 -0.16501127 0.5139575
000300 af bb 98 be 07 b3 31 3e 9e 81 83 be 76 3e e6 3e
       -0.2983069 0.1735345 -0.25684828 0.4496953
000310 17 27 a6 3e 4f 12 04 be 3d 96 7c be 98 03 d7 bd
       0.32451698 -0.12897609 -0.24666686 -0.10498732
000320 0f 36 a9 be d5 87 f5 bd 28 5d 0b bf 5a e7 59 3d
       -0.33049056 -0.119887985 -0.5443902 0.05319915
000330 ae 0b 87 be ee a5 41 bf 13 19 8b 3e b0 da 0c 3e
       -0.26376098 -0.75643814 0.27167568 0.13755298
000340 91 c7 d4 3d ae cb 06 3d b2 31 8b 3e 8d 62 75 be
       0.10389627 0.032909088 0.27186352 -0.23963375
000350 fb 40 31 be 38 e8 e9 3e f7 a8 f5 3e 98 40 f7 bd
       -0.17309944 0.4568498 0.47980472 -0.12072867
000360 5b d8 eb bc 5a e7 91 3e 9b 94 59 3d 42 a7 41 be
       -0.02878969 0.2849682 0.053120237 -0.1891146
000370 00 14 2f be 6a a7 00 bd eb 12 0d bf 66 50 fa 3d
       -0.17097473 -0.03140966 -0.5510699 0.12222366
000380 e6 3b 05 bf 5a 10 27 3e 23 f8 2c 3d 22 e5 d1 3e
       -0.5204452 0.16314831 0.04222883 0.40995127
000390 dd 30 fd 3a a3 46 92 bd 93 c1 35 be 6b 24 32 be
       0.001931693 -0.07142379 -0.17749624 -0.17396705
0003a0 20 0a 8b be 86 ac ca 3e b3 f8 95 be ea 51 8c 3e
       -0.27156162 0.3958475 -0.29291305 0.27406245
0003b0 56 d1 d9 be 17 cd a1 3e 79 06 65 be 61 80 f7 3e
       -0.42542523 0.31601784 -0.2236575 0.48340133
0003c0 92 1a 3a be c1 02 25 3e 4b 6d c3 3d c2 1a 4e 3e
       -0.18174198 0.16114332 0.0954233 0.20127395
0003d0 30 dc 2e bf 58 55 de bd 21 9d 75 be 6f a8 10 bf
       -0.6830473 -0.10856122 -0.23985721 -0.5650701
0003e0 4c 44 13 3e 4b bf 40 be c6 a7 1d 3f 59 ff 4c 3e
       0.14381522 -0.18822972 0.61584127 0.20019282
0003f0 c8 da ae bd ce e3 1f bf 0d fc 69 be 82 7d 59 3c
       -0.08537823 -0.6245698 -0.22850056 0.013274552

weight f4 [12, 12]
000000 26 08 bb 3e e7 f6 b4 3e 9e 2c 8c 3e 4e 07 09 be
       0.36529654 0.35344622 0.2737779 -0.13381693
000010 02 dc a6 3e b7 14 8d bd ed 1b 5b 3d d5 27 f8 3d
       0.32589728 -0.06888717 0.05349343 0.12116972
000020 d8 aa 4b 3e 67 86 1e 3e f9 84 15 bf db 47 01 3f
       0.1988939 0.15480958 -0.58406025 0.5050027
000030 72 2f 51 be 2c b6 26 3c 7d 92 e0 be 7e e6 97 be
       -0.20428255 0.010175269 -0.43861762 -0.2966804
000040 a0 b2 74 3c 60 57 cd 3c 74 5c a6 3e 50 31 94 3e
       0.014935166 0.025066078 0.3249241 0.28943872
000050 e8 21 a1 be 08 33 b2 3e 08 06 a0 bb b1 74 08 bf
       -0.3147118 0.3480456 -0.0048835315 -0.53303057
000060 bd eb 1d 3e ba 35 4d be 8b fd 0c 3e b0 f0 13 bd
       0.15421958 -0.20040026 0.13768594 -0.03611821
000070 2f f1 2f 3e a5 c4 58 3c 14 8a ef 3d 1c 08 a1 be
       0.17181848 0.013230477 0.11696258 -0.314515
000080 be d1 6a 3e 68 19 79 3e 71 0d c4 be 05 bb e0 bc
       0.22931573 0.24326098 -0.38291505 -0.027432928
000090 16 a9 83 3c 64 6c 55 3e 42 24 75 3e 02 15 f9 3e
       0.016071837 0.20842129 0.23939613 0.4864884
0000a0 f6 15 e5 bc a6 cb 58 3d 2d 5b 18 3e 46 e3 61 bf
       -0.027964573 0.05292859 0.14878531 -0.88237417
0000b0 e0 73 0d 3e c0 bb 9b 3e 0c 2a ac 3e 50 5f 00 be
       0.13813734 0.3041668 0.3362583 -0.12536359
0000c0 aa 54 26 bf e2 31 0b 3f a6 6b 16 3e 84 ae 01 bf
       -0.6497294 0.5437299 0.14689502 -0.50656915
0000d0 01 1b 4c bd ac 6e 90 3d b2 f1 80 3e 35 8a bd 3e
       -0.04983044 0.07052359 0.251844 0.37019506
0000e0 2c b5 35 3e da ef a3 be 78 33 a0 3c c9 e4 82 be
       0.17744893 -0.3201893 0.019555792 -0.25565174
0000f0 e2 a5 75 be 14 43 5d be 3d 5e b2 be 9b e2 22 3e
       -0.2398906 -0.2160762 -0.34837523 0.15906756
000100 2a 4e 49 bd f9 cc 44 3c 2e f4 c2 be 71 66 30 bf
       -0.04914681 0.01201176 -0.3807692 -0.68906313
000110 a3 a7 ba bc c9 61 a6 3e 41 c8 08 3e ed 8f c7 3e
       -0.022785014 0.3249648 0.13357641 0.38976994
000120 85 ea 57 3e 0e d4 52 3e c8 b3 ea bc c7 d5 79 3e
       0.21085556 0.20588705 -0.02865018 0.24397956
000130 db 2f e8 3e 00 3c 00 3e 2b 8d 66 3e ec 69 1d 3f
       0.4534901 0.12522888 0.22514789 0.6148975
000140 fe ff 0e bd 04 2a d7 3e 4d ed ee 3e fc 5f 5b 3e
       -0.034912102 0.42024243 0.4666542 0.21423334
000150 73 a1 38 3d 33 93 b4 be 43 ed 33 3f 37 35 0a 3d
       0.045075845 -0.35268554 0.7028391 0.033742156
000160 af 67 0c 3f 6f a4 df 3e 82 2c e6 3e 79 84 60 3e
       0.5484571 0.4368014 0.44955832 0.21925534
000170 95 3b d5 bc b8 43 fc bd 0d 96 e1 3c 55 ac 8f 3d
       -0.026029387 -0.12317604 0.02753737 0.070152916
000180 bd 89 28 3e f0 98 11 be 04 0d f8 be 42 74 a2 3e
       0.16458793 -0.14218497 -0.4844743 0.31729323
000190 81 be fd bc 2c f6 13 bf f0 bd a7 3d d1 c0 3d 3e
       -0.030974628 -0.57797503 0.081905246 0.18530585
0001a0 dc 0d 21 bd 7e 2b 90 be 1b 6e 78 be c2 70 2f bd
       -0.039319858 -0.28158182 -0.24260752 -0.042832144
0001b0 c8 aa c8 ba ac a4 5d be 7b 76 40 be 5f 98 09 bf
       -0.0015309686 -0.21644849 -0.18795197 -0.53748125
0001c0 30 11 e8 bc 51 83 a1 be c8 26 ea bd 02 10 99 3e
       -0.028328508 -0.315455 -0.11433178 0.29895025
0001d0 bf ec 92 3e eb 75 66 bd 4c aa f9 3c 51 20 e8 be
       0.28696248 -0.0562648 0.030476712 -0.45337155
0001e0 79 b4 0f 3e 55 33 05 3e 51 ad 92 be 21 1a e9 3d
       0.14033689 0.13007863 -0.28647855 0.11381937
0001f0 82 56 52 bd 59 f4 72 3d a7 38 7f be f8 02 48 3e
       -0.05135203 0.05931506 -0.24923955 0.19532382
000200 e8 47 53 bf a2 53 2a bf c3 ab 18 3f 04 cd e0 3d
       -0.82531595 -0.66533864 0.5963709 0.109766036
000210 a4 6a f7 bd 11 09 bf bd 09 32 10 3f ba 39 df bd
       -0.12080887 -0.09327901 0.5632635 -0.10899682
000220 da ea e4 be 9f 68 9b 3e 7a f4 2b bf 15 cc ae 3e
       -0.44710428 0.30353257 -0.67169917 0.34140077
000230 ca f6 ca 3e 3d c8 1e be 24 41 d1 bd 1a 15 6c 3e
       0.3964141 -0.15506072 -0.10217503 0.23054925

bias f4 [12]
000000 89 ca a5 be 49 74 2b 3d f2 c5 f8 bd e9 9e 03 bc
       -0.32381085 0.041858945 -0.1214713 -0.008033493
000010 cd 39 cb 3d f8 c7 5f bd f3 c6 15 3d ae e7 c2 3e
       0.09923134 -0.054634064 0.036566686 0.38067383
000020 54 a0 04 3d cb c1 87 3d 7b 93 28 3e 2a e3 6f 3c
       0.032379463 0.0662876 0.1646251 0.0146415625

weight f4 [12]
000000 8b 17 3b 3f fa fd 98 3f 24 92 92 3f 2b 6b 4a 3f
       0.730828 1.1952507 1.1450849 0.79069775
000010 53 a8 80 3f 12 be 6e 3f 91 49 45 3f 2b 21 9a 3f
       1.0051368 0.93258774 0.7706538 1.2041372
000020 d3 ff 5c 3f c8 4e 76 3f a5 6e 39 3f 55 6f 8e 3f
       0.86327857 0.9621396 0.72434455 1.1127726

bias f4 [12]
000000 ab 1a 05 3d b2 52 92 3d ce 66 00 3e b5 c5 54 3d
       0.032496136 0.07144679 0.12539217 0.05194636
000010 17 73 75 3c 9a ac 09 3e c0 87 3d bd 4f 2f 01 3e
       0.014981053 0.13444749 -0.04627204 0.12615703
000020 66 69 93 be e8 9c 04 3e 8d 70 26 bd 47 96 3d bd
       -0.2879135 0.1295048 -0.04063468 -0.046285894

weight f4 [12, 12]
000000 dc 11 b3 3e c0 fa 01 bf 8f d4 a1 bc 28 4a 12 bd
       0.34974563 -0.5077324 -0.019754676 -0.035715252
000010 ba b7 d3 be 83 c8 a6 3e 4d 63 31 be ac e8 10 3f
       -0.4135111 0.32574853 -0.17323036 0.5660503
000020 29 37 0c 3f 4b 92 a7 3e 3b 81 4e be 83 52 fc bc
       0.5477167 0.327288 -0.20166485 -0.030801063
000030 a4 e4 3a 3e a1 ab 8d be 84 54 d3 be ce d6 97 be
       0.18251282 -0.27670005 -0.41275418 -0.2965607
000040 57 cd c4 bb 16 62 46 3e 06 01 8a 3e 5f 17 de 3e
       -0.0060059237 0.19373354 0.26953906 0.43377206
000050 f7 eb 54 be 2b 53 6b be f6 ae ce 3e bd 1d a0 3e
       -0.20793138 -0.22980945 0.4036786 0.31272689
000060 f4 de 45 3d ef 80 f0 3e ed 16 88 bd 6e 5b 1f be
       0.048308328 0.4697337 -0.06644998 -0.15562221
000070 dd fd 8c 3e 15 e9 dc be 33 26 8a bc 61 3f c2 bd
       0.27537432 -0.43146577 -0.016863918 -0.09484745
000080 08 ff b4 3e 2e 2b dd 3d 05 49 1c 3e ca fa c6 be
       0.35350823 0.107992515 0.1526223 -0.38863212
000090 17 d3 1f be ef 47 af 3e b5 6c 47 3d 0b c2 f8 be
       -0.15607868 0.34234568 0.048687655 -0.48585543
0000a0 cd 9b 2d bd c6 5a 10 bd c0 1d 1c bb de 97 ed be
       -0.04238491 -0.03524282 -0.0023821443 -0.46404928
0000b0 bf 38 aa bd fb 2a 1b be 1c 0b 3d 3f ae 1e b0 3d
       -0.08311605 -0.15153114 0.73845077 0.08599602
0000c0 ae 00 66 be c1 6b db be 42 0c f7 3e 30 7c 7f 3e
       -0.22461197 -0.42855647 0.4825154 0.24949718
0000d0 5c 7b 08 3e 05 2d ab 3e 1c 27 98 3e ef 47 e6 bd
       0.13328308 0.33432785 0.29717338 -0.11244189
0000e0 72 76 a0 bd 41 2a 4c be 52 fb db ba 56 f7 47 bd
       -0.07835092 -0.19937994 -0.0016783273 -0.048819862
0000f0 b4 15 19 bd 8c fa 92 3d 49 1b dc 3d ae 30 8e be
       -0.037374213 0.07176694 0.10747392 -0.27771515
000100 f6 6c f8 be f4 44 f7 be 65 60 16 3e 11 ef cf bd
       -0.4852063 -0.48294795 0.14685209 -0.1015302
000110 de 17 01 bd 29 c8 ad be f2 4e 99 3e e8 be 1a 3f
       -0.031516902 -0.33941773 0.29943043 0.6044755
000120 18 da 83 be bb 0b 5c bd 62 84 ea 3d ae d2 3f bd
       -0.2575233 -0.053722125 0.11451031 -0.04683178
000130 c8 4a 9e 3e c4 bf c6 be e1 72 d9 bc 93 fd d8 be
       0.3091643 -0.3881818 -0.026544036 -0.42380962
000140 06 a0 91 3e 75 40 49 3e a1 f1 93 3d 7b 0f a1 be
       0.284424 0.19653495 0.072238214 -0.31457123
000150 c1 da 36 be 0c 22 d2 3e 5c ba 10 3f d7 03 d9 be
       -0.17856885 0.410416 0.5653436 -0.42385742
000160 fe 51 11 bf 70 59 01 be c8 b8 82 3e b5 01 0f 3f
       -0.56765735 -0.12631774 0.25531602 0.5586198
000170 ff 51 4a be 6a 10 cd be 66 eb 99 3d 18 40 b4 bd
       -0.19757842 -0.40051585 0.07515602 -0.088012874
000180 6f e8 db be 0b 48 e2 3e 5a 73 af 3e 44 ac 0f 3d
       -0.4295077 0.4419559 0.34267694 0.035076395
000190 d1 0e a8 3d 8b e3 1a be f1 47 d0 3d df 17 97 be
       0.08205951 -0.15125863 0.10169972 -0.295104
0001a0 8c c3 6f bd 84 c7 c4 be 3b 99 db bd 12 c6 14 3d
       -0.058536097 -0.38433468 -0.10722586 0.036321707
0001b0 e1 05 f1 bd 71 b4 d2 3d bb 6c 3d 3f eb 66 c8 3d
       -0.117686994 0.10288323 0.73994035 0.09785255
0001c0 34 d3 fc 3d b8 db ef 3d bb 0b 6e 3d 41 a2 23 3e
       0.12344971 0.1171183 0.058116656 0.15979864
0001d0 fa e9 09 bd db 05 00 bf 27 22 09 be 2b 0c 1e be
       -0.033670403 -0.50008935 -0.13391934 -0.15434329
0001e0 af 17 3c 3d b8 a6 aa be 4b 68 7e 3d ac 64 2c be
       0.045921024 -0.3333032 0.06211118 -0.16835278
0001f0 c1 ed 97 be 08 4a 3a 3e a6 01 6f be 5a ef e4 3d
       -0.2967358 0.18192303 -0.23340473 0.11178465
000200 61 5e b7 3e 28 f4 14 3d a7 6e 1c 3e 7c 92 a6 3e
       0.35814193 0.036365658 0.15276586 0.32533634
000210 57 31 bd 3d ab 1e 18 3d b6 d0 25 be 93 06 81 be
       0.092379265 0.037138622 -0.16192898 -0.25200328
000220 df 13 8e 3d 61 2b 9c 3e 0a 41 1a bf 18 00 81 3e
       0.06937384 0.30501845 -0.6025549 0.25195384
000230 0d 72 2f 3e 13 02 35 3e 3a e0 c0 bd 7e ab a9 3e
       0.1713335 0.17676573 -0.09417768 0.3313865

bias f4 [12]
000000 35 be f7 bd 03 2c 5e be c0 ea 99 be ef 34 b8 bd
       -0.12096826 -0.21696477 -0.30061913 -0.08994471
000010 77 2b 4b be 8b 22 98 bc b3 fa b1 be fe 6c 30 be
       -0.198408 -0.018571159 -0.3476158 -0.17229077
000020 4a ca 77 be 00 ec 22 3e 2a b7 93 be 95 4d 02 bc
       -0.24198261 0.1591034 -0.2885068 -0.007953067

weight f4 [12, 12]
000000 f7 a7 59 bd 6e cc 04 3f 64 40 64 be fd 1b 14 3f
       -0.0531387 0.51874435 -0.22290188 0.57855207
000010 6a 0d 2b bf 54 8c 9a be 50 89 d9 be 30 e5 44 3e
       -0.66817343 -0.30185187 -0.42487574 0.19228053
000020 68 2c ea bd 9d c9 72 3d 6f 68 ed bd 43 0f d3 be
       -0.11434251 0.059274305 -0.11592185 -0.4122258
000030 a3 f9 c6 3d 76 f8 c8 3c 52 3b 53 bd ad 91 5d be
       0.09715583 0.024532538 -0.051570244 -0.21637602
000040 6c b4 cb be 47 36 bf 3d 91 b3 58 3e cb e5 45 3e
       -0.39786088 0.093365245 0.21162249 0.1932594
000050 9f 27 cd 3e c4 4a bf be bf 5d a3 be b1 9c 07 3f
       0.4006929 -0.3736173 -0.3190746 0.5297347
000060 1f 1c 10 3f 92 2c 5b be 9c b2 c7 3e 6c 7e 5b be
       0.5629291 -0.21403721 0.39003456 -0.21434945
000070 2b 20 db bc 6e 5b 2d 3e 1d 5a 45 3f 80 cf 38 bd
       -0.026748737 0.16929409 0.77090627 -0.045119762
000080 b5 d2 32 be e3 bc 0d be 79 27 83 bd 9d 8c 46 bd
       -0.17463191 -0.13841586 -0.06404013 -0.048473943
000090 9d 00 7c be f7 19 9f 3e ba bc a8 bc 33 84 e7 bc
       -0.24609609 0.31074497 -0.020597804 -0.02826128
0000a0 6f 00 18 3d d4 a6 54 be bf 6d 7b 3d bf c2 c8 3e
       0.03710979 -0.20766765 0.06138396 0.3921108
0000b0 a2 d3 53 bc ea 35 84 3d 7f bf c2 bd c2 11 ea be
       -0.012928875 0.06455596 -0.09509181 -0.45716673
0000c0 ec 10 28 3e 8f 69 a0 be 22 60 51 3a 6e 4b 3c be
       0.16412705 -0.31330535 0.0007987042 -0.18388149
0000d0 e7 7e 82 bd 50 52 d0 3d e4 78 88 bd 9e 8e ae 3e
       -0.06371861 0.1017195 -0.06663683 0.34093183
0000e0 cb 28 c9 be d4 ad d8 bc fa 98 eb bd 7f 32 f5 3d
       -0.39288935 -0.026450075 -0.11503787 0.11972522
0000f0 ad fc c1 be f8 14 cb be 2f ad 99 be 6f c6 51 3d
       -0.3788809 -0.39664435 -0.3001494 0.05121463
000100 05 44 b3 bc 3a 0b 91 bd 8c dd 67 3d 5f 18 90 be
       -0.02188302 -0.070822194 0.056607768 -0.28143594
000110 99 02 78 3e 95 a6 01 3e 46 54 bb bd 4f 0e 6e 3e
       0.24219741 0.12661202 -0.09146933 0.23247646
000120 bd 81 09 3f 2e 23 aa 3e 28 70 42 be ab ea b3 3b
       0.5371359 0.33229965 -0.18988097 0.005490621
000130 76 74 10 be 38 a8 89 be 52 e1 76 3e b4 d6 08 bf
       -0.14106926 -0.26886153 0.2410939 -0.5345261
000140 8b d8 3d be 9f 7c 98 be e6 48 04 3e 49 92 0a bd
       -0.18539636 -0.29782578 0.12918434 -0.033830915
000150 73 00 d6 bc fe 1b b3 be 1f 4b f6 3d 92 b1 57 bd
       -0.026123261 -0.34982294 0.12026047 -0.05265958
000160 fb 77 04 3e 1e 54 23 3f 9a 3b b2 be 73 10 49 3b
       0.12936394 0.6380023 -0.34811097 0.003067997
000170 89 c6 a4 3e ac 4c b2 ba 2e 84 01 bf 73 11 7e be
       0.3218272 -0.0013603172 -0.50592315 -0.24811344
000180 db 22 00 3e fd c9 6e bd ed d2 b8 3e 17 64 cc 3d
       0.12513296 -0.0582981 0.36098424 0.09980028
000190 48 03 0d be bf ee 40 be 29 83 74 3d ec 0a b4 be
       -0.13770783 -0.18841074 0.059695397 -0.35164583
0001a0 2e 21 8f bd 86 d6 b9 be 88 22 50 3e e0 cc 57 be
       -0.069887504 -0.3629648 0.20325673 -0.21074247
0001b0 9e 45 a1 be a3 4d 92 3e e7 7a 9d be e7 22 cc bd
       -0.31498426 0.28574857 -0.3075783 -0.099675946
0001c0 e1 9c 13 3e e7 56 33 3e 0e f6 0d be d5 d5 b7 3d
       0.14415313 0.1751362 -0.13863394 0.08976332
0001d0 03 6f 47 bd 03 a5 a2 3d e8 89 05 be 1c 73 e7 bd
       -0.048689853 0.0794163 -0.13040888 -0.11301252
0001e0 da 94 74 3d a0 55 80 be 11 dd 76 3d 79 77 1a bf
       0.05971227 -0.25065327 0.06026942 -0.6033855
0001f0 c8 d7 ed 3d c5 22 e4 3e 40 31 81 be cf 02 a9 bd
       0.11613423 0.44557777 -0.25232887 -0.08252489
000200 30 70 29 be cc 5b 47 be 81 23 86 3e 2b 31 25 3e
       -0.16546702 -0.19468611 0.26198962 0.16132037
000210 17 b2 c2 3d a5 5a 2b 3e 6b 6c 98 3d 94 9d 1b 3d
       0.09506624 0.16733797 0.07442554 0.037992075
000220 e6 e3 4c 3e 8c 0e 75 3e 45 36 91 3d ba d9 b9 3e
       0.20008811 0.2393133 0.07090429 0.36298925
000230 49 08 46 be 99 fa 56 3e 60 c5 2d bd d7 6c 97 3d
       -0.19339098 0.20994033 -0.04242456 0.073938064

bias f4 [12]
000000 e0 a9 9b 3d 21 c3 8f bd f8 86 76 3d ba 23 c0 bd
       0.076007605 -0.0701964 0.06018731 -0.09381814
000010 05 c5 86 be 3d bd 2c be c4 a4 0a be 15 a9 8b bd
       -0.2632219 -0.16869064 -0.13539416 -0.06819359
000020 f4 84 59 3d 19 bc 1a be dd 1e a7 3e 9b 5c 2d be
       0.05310531 -0.15110816 0.32640734 -0.16929857

weight f4 [12]
000000 d2 e6 91 3f ef ec a1 3f e1 74 87 3f 48 ec 85 3f
       1.1398566 1.2650431 1.0582544 1.0462732
000010 96 a4 a5 3f 39 0f 9f 3f 70 5d 92 3f 95 63 a2 3f
       1.2940853 1.242652 1.1434765 1.268664
000020 41 ec 9d 3f 3a 1b 9c 3f 74 0c 98 3f 6e 76 9a 3f
       1.2337724 1.2195809 1.18788 1.2067392

bias f4 [12]
000000 be 52 74 3d 65 da 16 3d 15 a9 a4 3d e1 6f 81 bd
       0.05964922 0.03682937 0.08040062 -0.06320167
000010 c6 33 68 3d f0 34 b6 bd 49 d7 5b bd c2 f1 66 bd
       0.05669 -0.08896816 -0.05367211 -0.056382902
000020 b0 4a b6 3c 4b d9 05 3d e6 e0 7c bc b7 7e 2b 3e
       0.02225241 0.03267793 -0.015434479 0.16747557

weight f4 [36, 12]
000000 73 79 c4 3d 8c d2 dc bd ba da 26 3e 4d 22 83 3e
       0.09593477 -0.10782346 0.16294375 0.25612107
000010 ff 1a c3 be 1f a5 24 bf 30 81 ac be 45 a4 16 bf
       -0.38106534 -0.64314455 -0.33692312 -0.58844405
000020 d6 8c 37 3f 78 8a f6 3d a9 ff c6 bd 86 14 1b 3f
       0.71699274 0.120381296 -0.09716732 0.6057819
000030 6d 03 18 be 99 0d 1d be 66 cd fc be 0a bc 82 be
       -0.14845057 -0.15337218 -0.49375457 -0.25534087
000040 82 b1 bf 3e 9a 30 8c be 40 fe e4 3c f0 8d 60 bb
       0.37440115 -0.2738083 0.027953267 -0.003426429
000050 b4 97 a8 3e 8a 19 74 be 7d 12 b6 3e 70 c5 0c 3e
       0.3292824 -0.23837867 0.3556098 0.13747191
000060 de 48 7d be bf da 2b 3f 57 bf 73 bd 54 e3 56 3e
       -0.24734828 0.67130655 -0.059508648 0.20985156
000070 be ec 75 3d 52 ab f3 3e c6 60 03 be 32 d3 d2 3d
       0.060040228 0.47591645 -0.12829885 0.102941886
000080 fd 5b 2b 3e 39 13 d0 3e 5d 5c 56 3e 1f b6 0e 3d
       0.1673431 0.40639666 0.20933671 0.034841653
000090 4f 7c b0 3d d1 54 3a bf 50 73 29 3f 17 83 c3 be
       0.0861746 -0.7278567 0.6619158 -0.3818595
0000a0 83 1b 14 3e 0f 55 e7 3e e1 68 94 3e cf 50 4e be
       0.1446362 0.45182082 0.28986266 -0.20148014
0000b0 18 b0 d1 3e 30 01 da be 6a 21 3d bd 37 b6 03 be
       0.4095466 -0.4257903 -0.046174444 -0.12862478
0000c0 52 3b 52 3e 40 c1 d9 bb b2 f6 66 3e 8c 2f d8 be
       0.20530441 -0.0066453516 0.22555044 -0.42223775
0000d0 5b 05 e3 bc 4a c6 3a 3e 8e 12 90 3e bc ff 8f 3e
       -0.027712515 0.18239704 0.28139156 0.28124797
0000e0 97 ea 3f be 08 c5 8e be ee c4 30 3f b1 8b 99 be
       -0.18741833 -0.27884698 0.6905049 -0.2998939
0000f0 98 29 84 bd d3 dd 14 be 17 1b c6 3d bc cc 86 be
       -0.06453246 -0.14537744 0.09673136 -0.26328075
000100 22 47 9d 3e 81 45 96 3e c5 14 a4 bc 82 99 14 3d
       0.30718333 0.29349902 -0.020029435 0.03627921
000110 1c 23 e6 3d cd a3 ab 3d 5b 35 9a be d9 01 91 be
       0.11237165 0.08380852 -0.30118832 -0.28321722
000120 4e c3 ef 3d 14 57 ae 3e 55 18 a1 be 2f 86 ba 3e
       0.11707173 0.3405081 -0.31463876 0.364305
000130 4a 27 93 3d d9 6a 67 be 83 72 cd be b2 72 f4 bd
       0.07185228 -0.22599353 -0.40126428 -0.11935939
000140 f5 e2 c2 3e 79 d2 a7 be 3f 0a ba 3d 4a a9 0c 3f
       0.3806378 -0.32777765 0.090839855 0.54945815
000150 a9 f4 8d 3d 38 4e 53 bd 59 48 56 3d 96 61 a7 3e
       0.06931431 -0.051588267 0.05231509 0.3269164
000160 7f 78 7e be 5d 9e a5 3e 66 e5 d5 bd 2d 21 da bd
       -0.24850653 0.32347384 -0.10444145 -0.10650859
000170 f1 8e 66 be 3a db 20 bc 1d 91 20 bf 33 cb 9a bd
       -0.22515465 -0.009817893 -0.62721425 -0.075582884
000180 40 9e 82 3d e5 bb 0b bf 23 6a 06 3d 2f 76 1d 3e
       0.0637784 -0.5458358 0.032816064 0.15377115
000190 6c da f9 be 5e 9e 35 be 60 48 4b bd 67 90 ba be
       -0.48799455 -0.17736194 -0.04962957 -0.36438295
0001a0 f3 a0 a3 3e 90 15 f1 3e 6f 81 83 3e 5f ce 36 be
       0.31958732 0.47086763 0.25684687 -0.17852162
0001b0 eb 7d b2 3e 9c c8 76 3e 50 a6 9b be 54 ae 0b 3e
       0.34861693 0.24099964 -0.30400324 0.1364072
0001c0 d3 18 19 3e b9 d7 b3 be bc b4 d1 be 7a 21 af 3d
       0.14950876 -0.3512552 -0.40958202 0.08551307
0001d0 9a b6 89 be ad 71 90 bb b4 f3 3e be 8b 39 1f 3f
       -0.26897126 -0.0044080825 -0.18647653 0.6219718
0001e0 d9 6f 09 3f db f9 dc 3e 66 34 90 3e 55 1c d0 bc
       0.5368629 0.43159375 0.28164977 -0.025404135
0001f0 1c c7 3c 3e 13 3f 89 be 6a 7c b6 be 78 a4 7a be
       0.18435329 -0.26805934 -0.35641795 -0.24476802
000200 c7 fe 95 3e a8 d9 09 be b2 2d a8 be dd db a1 3d
       0.29295942 -0.13461936 -0.32847363 0.07903264
000210 96 5a ec 3d a2 54 14 be 2e 95 c8 bd 0f 20 e0 3e
       0.115407154 -0.1448541 -0.09794079 0.4377446
000220 e6 99 18 3e f2 3f b0 be 12 a8 af be 8a d2 f9 3d
       0.14902458 -0.34423786 -0.34307915 0.1219836
000230 27 43 00 3e 41 d2 e1 bd c0 95 54 3e 6e 46 2c 3e
       0.12525617 -0.11026431 0.2076025 0.16823742
000240 99 12 ff 3c 43 c6 85 3e 3a 76 9d be e5 f1 e8 3d
       0.031136798 0.26127824 -0.30754262 0.11374263
000250 74 a2 0a bf 23 5c ec 3d 67 a5 2d be d1 7c 84 3d
       -0.54154134 0.11541011 -0.16957627 0.06469119
000260 e7 1a 30 3f 90 61 fa 3d 8c cd aa be c8 25 d8 3e
       0.6879105 0.1222564 -0.33359945 0.42216325
000270 da 8d bc 3c 39 13 a8 be 45 df bc be fa 27 9f be
       0.023016859 -0.32827166 -0.3688909 -0.31085187
000280 8e 4f b4 3d 69 73 df 3d 3b c8 b8 be 05 16 a9 3e
       0.08804236 0.109106846 -0.36090264 0.33024612
000290 e1 f9 51 3e 06 fa 79 3d da fe 05 3f 1b d0 12 3e
       0.20505477 0.061029457 0.52342 0.14337198
0002a0 be 74 3e bf bc 18 8c bd 29 7e a3 bd e7 72 9f 3e
       -0.74396884 -0.06840655 -0.079830475 0.3114235
0002b0 f2 7d 43 be 54 98 b8 3e 0d 44 ff 3d 65 92 ca 3e
       -0.19091013 0.36053717 0.124641515 0.39564815
0002c0 30 fe 8f bd 73 b3 80 3e 3e 40 9b be 0f 33 c2 3d
       -0.07030904 0.2513691 -0.3032245 0.09482395
0002d0 b5 a4 29 3f 1c ff 78 be 49 2c fb bd f9 68 1e 3e
       0.6626695 -0.24316067 -0.12264306 0.15469731
0002e0 6d 0c 2d be d4 30 3b 3e fe 74 95 bc eb a3 3a 3f
       -0.16899271 0.18280345 -0.018244263 0.7290637
0002f0 52 e4 f9 be 90 34 9e 3d 18 ea 4a be ba f7 ca 3e
       -0.48807007 0.07724869 -0.19815862 0.39642125
000300 1a 9d f1 be f9 49 f7 3e 83 e7 cc 3c a2 d1 b3 3d
       -0.4719017 0.48298624 0.025012737 0.08780219
000310 fa 88 e8 be 77 1c c9 be 76 3a b1 be cb 19 02 3e
       -0.45417005 -0.3927953 -0.34614915 0.12705152
000320 03 a1 94 be a6 e6 d0 3e 38 72 ad 3e 76 a1 3f bd
       -0.29029092 0.4080097 0.33876204 -0.04678484
000330 9c 01 2b 3d 03 be ad 3d 09 55 31 be a5 70 45 3e
       0.04174958 0.084835075 -0.17317595 0.19281252
000340 63 c3 cf be bf 50 ab be 19 ed a2 be 5c d1 26 3e
       -0.40578756 -0.33460042 -0.31821516 0.16290802
000350 a9 40 9c be 20 62 c7 bd fa aa 04 3f ed bd 6b 3e
       -0.30518082 -0.09735513 0.5182339 0.2302167
000360 e4 2e a9 bc 52 39 15 bf 8a 29 5c bd 1e f6 76 3d
       -0.020652242 -0.5829059 -0.053750552 0.06029331
000370 9a be 86 be 9c 0a 2f be be 2b 6e 3e c3 26 01 3f
       -0.26317292 -0.17093891 0.23258874 0.5044977
000380 1e 7c 37 be e8 56 0e 3f 16 2e 74 bd a3 2a 57 bc
       -0.1791844 0.5560136 -0.059614263 -0.013132724
000390 9a e2 56 bd 9f 68 ec be 39 50 43 3c bb 6c c1 be
       -0.052462198 -0.4617357 0.011920982 -0.37778267
0003a0 56 78 aa 3e d2 bf dc 3d f5 01 00 be dc 68 96 be
       0.33294934 0.10778774 -0.12500747 -0.29376876
0003b0 7a e5 9e be d1 6e 1e 3e 78 7c 60 bf fc 59 4f be
       -0.31034452 0.1547196 -0.87689924 -0.2024917
0003c0 53 ef ac 3b 0b 79 23 be 79 5e 1b 3e e5 d9 80 bd
       0.005277553 -0.15964143 0.15172757 -0.0629156
0003d0 b3 c0 b6 bc cb dd d0 be 1b 15 9f 3e c0 49 41 bf
       -0.022308683 -0.40794215 0.3107079 -0.7550316
0003e0 b3 c0 88 3e ff b8 f3 3e f0 d8 41 bd b5 70 7b 3e
       0.26709518 0.47602078 -0.04732603 0.24554713
0003f0 07 6e 1f bc 89 7b 0c bf d4 2d 57 be 78 a3 bc be
       -0.009730822 -0.54876 -0.21013576 -0.36843467

weight f4 [12, 12]
000000 60 50 a7 be d4 87 28 bf a5 c7 2e 3e 91 6e b5 bc
       -0.3267851 -0.6583226 0.17068346 -0.022147449
000010 b7 00 9b be 2c 30 d8 be ad 8c 93 3e fe 00 14 bf
       -0.30273983 -0.42224252 0.28818265 -0.57814014
000020 a8 df 46 bf 7a fa 06 3f a2 d1 0d 3f 02 f7 1f be
       -0.7768502 0.52725947 0.55398 -0.1562157
000030 6d a3 04 3e 50 78 f3 3d e0 ff 76 3e df a6 37 be
       0.12952967 0.11888182 0.24121046 -0.1793475
000040 c2 c8 2d 3e 51 68 b8 be 73 ed 33 be 04 dc 75 3a
       0.16971114 -0.36017087 -0.17571048 0.0009378793
000050 6f c2 aa 3e c0 b1 19 3f 2f dd 04 3d cf 9e c4 be
       0.33351466 0.6003685 0.0324375 -0.3840241
000060 8e 10 1f be 56 fa 84 3e 8c 45 dc be 82 4b 10 3e
       -0.15533659 0.2597224 -0.4302181 0.14091304
000070 b6 be 4a bd aa c8 e2 be a8 17 ad be 36 95 0e 3f
       -0.049498282 -0.4429372 -0.3380711 0.5569643
000080 ee fe 4b be f1 41 0d 3e 4d 39 76 3e c1 f8 fb be
       -0.19921467 0.13794686 0.24045296 -0.49213222
000090 4f 24 07 3f 74 86 2d 3e 5f a7 0c be 5f 08 11 3f
       0.5278978 0.16945821 -0.13735722 0.566534
0000a0 e9 d1 92 3e 6c e1 ba be 93 df 1b 3e 38 5e a9 be
       0.28675774 -0.36500108 0.15222006 -0.33079696
0000b0 cb 87 ca bd ae 4b 32 bf 56 97 0f be 45 79 41 be
       -0.09889182 -0.6964673 -0.14022574 -0.18893917
0000c0 2e 7c 45 be 27 47 ca 3c 8e bb da 3e 20 ed f2 be
       -0.19285652 0.024692131 0.42721218 -0.47446537
0000d0 79 83 d0 3e a4 58 74 3e 29 43 2f 3e 00 f1 1a 3e
       0.40725306 0.23861939 0.17115463 0.15130997
0000e0 95 d0 05 3f c0 41 69 be 23 70 0e be 96 b2 f8 3c
       0.52271396 -0.22778988 -0.13909964 0.030358594
0000f0 fc c0 9f 3e 39 c3 b7 3d 7e 72 8a 3d 65 be 8b 3d
       0.31201923 0.08972783 0.06760119 0.06823424
000100 af fc 7a 3e e6 18 61 3e 2c 99 98 be 3c b8 91 3d
       0.24510454 0.21982154 -0.2980436 0.07115218
000110 52 c4 ef 3e d7 59 ed 3e 95 e3 6a be dd bd a8 bc
       0.46829468 0.46357605 -0.22938378 -0.020598346
000120 61 a6 31 3f db f7 b2 be a3 85 43 3e 66 67 6c 3e
       0.693945 -0.34954724 0.19093947 0.23086318
000130 16 78 74 be 3b ee 8d 3d 1b 35 dc 3d b1 cd ec 3e
       -0.23873934 0.069302045 0.107523166 0.4625068
000140 a4 e2 ca be 9a 48 00 3e ed 38 82 bf 6b 25 cb 3e
       -0.39626038 0.12527695 -1.0173622 0.39676985
000150 4c 25 ce 3d 2f 32 ce 3e 0c ec a2 bb 49 d7 4b 3e
       0.100657076 0.40272662 -0.0049719866 0.19906344
000160 b5 93 94 be 68 f9 11 3d 4a 41 42 3d f6 2c a5 3d
       -0.29018942 0.035638243 0.047425546 0.08065216
000170 7c 88 08 3f 20 4a 08 3f 67 4d ef 3d 08 72 72 3d
       0.5333326 0.53238106 0.11684685 0.05919078
000180 3a 6a cb be 9d ab d3 be c8 a8 cd be 88 2c 88 3e
       -0.39729482 -0.41341868 -0.40167832 0.26596475
000190 9a e2 17 3f 31 bd bd 3c 66 4b e1 3d 57 46 ba 3e
       0.5933014 0.023161503 0.11000709 0.3638179
0001a0 49 0e 5c be 9e 99 b8 3e 18 1b a5 3d a3 b6 b0 3e
       -0.21489824 0.360547 0.08061808 0.3451434
0001b0 22 49 33 bf 85 c2 11 3e 6b f4 3b 3e 83 34 95 3e
       -0.70033467 0.1423436 0.18354957 0.29141626
0001c0 35 68 b8 be 5c 00 e5 bc 06 af fd bb a8 9d 74 bd
       -0.36017004 -0.027954273 -0.0077418117 -0.059720665
0001d0 e4 8b bf 3c 77 b4 9b bc b1 6d 39 3f bc 69 dc 3e
       0.023382135 -0.01900695 0.72433 0.4304942
0001e0 43 15 72 be e9 db 78 be c4 0c 66 bd 47 85 92 be
       -0.23640923 -0.24302639 -0.056164518 -0.28617308
0001f0 fd d7 d3 bd 4a f6 8f bb e1 8c 2b be d8 51 bc be
       -0.10343931 -0.0043933736 -0.1675296 -0.36781192
000200 86 41 1b be 60 74 83 be 72 15 d3 bd da 6e 9c be
       -0.15161714 -0.25674725 -0.10306825 -0.30553323
000210 ab 21 1a bd c2 9c 1e 3e 73 28 64 bc 87 ee 71 be
       -0.037629765 0.15489486 -0.0139256595 -0.23626147
000220 8c ac 66 be 0e 2b c5 3d 74 4c 01 3f 5d c9 ed 3e
       -0.22526759 0.09627353 0.50507283 0.4644269
000230 9f 7e 09 be 11 dc 97 bd bd 37 b6 3d c2 c0 b6 3e
       -0.13427208 -0.07415021 0.0889735 0.35693938

bias f4 [12]
000000 bb 2b 99 be 10 d3 fe 3d a3 2d 73 be d3 f9 8a be
       -0.29916176 0.12442601 -0.23747878 -0.27143726
000010 6d 12 03 be 2b 77 07 be f8 03 c1 bd ad e8 90 bd
       -0.12799998 -0.13229053 -0.09424585 -0.070756294
000020 2a 86 e3 bd cd e9 08 3e 5a 03 4f 3e ec b9 2e bd
       -0.11109574 0.13370438 0.20216122 -0.042657778

weight f4 [12]
000000 45 5c 83 3f 9c 31 9a 3f 0f 64 7c 3f 33 5d 87 3f
       1.0262533 1.204639 0.9859018 1.0575317
000010 ba 12 75 3f dd f1 8d 3f 54 32 7e 3f 34 2e 94 3f
       0.957317 1.1089436 0.99295545 1.15766
000020 ce 60 8f 3f 85 18 7d 3f 5c 64 91 3f f3 ad 80 3f
       1.1201417 0.9886554 1.1358752 1.0053085

bias f4 [12]
000000 9f da 49 be 90 aa 3b be 69 86 8e 3e 3a 7a 84 be
       -0.19712304 -0.18326783 0.27836922 -0.258745
000010 d8 56 3f 3d a8 e7 93 3e 50 7f a8 3e 85 74 a1 3d
       0.04671368 0.28887677 0.32909632 0.078835525
000020 2a fe 39 be 72 ad 49 3e 75 00 e2 3d 2a b0 5e be
       -0.18163362 0.1969507 0.110352434 -0.21746889

weight f4 [12, 12]
000000 2a 4c d8 be 26 bf f6 3b 76 92 78 be d6 55 68 3e
       -0.4224561 0.007530111 -0.2427462 0.22688994
000010 12 fa 0a 3e d3 cc 11 bf b5 fd 68 3e 46 ee c3 3e
       0.13571957 -0.5695316 0.22753032 0.38267726
000020 45 43 a4 3e 96 ec 4c be e8 85 0e bf 33 5d cd 3e
       0.32082573 -0.20012125 -0.55673075 0.40110168
000030 a2 f1 b4 3e fa 6a 14 bf bc 93 79 3e b4 28 81 3e
       0.353406 -0.57975733 0.24372762 0.25226367
000040 06 69 01 3e 8a 0f c6 3d 50 1f 90 3d 41 21 7e be
       0.1263772 0.096709326 0.070372224 -0.24817373
000050 73 c2 af be dc aa 9b be 29 88 d3 3e 23 a3 30 be
       -0.3432804 -0.30403793 0.4131482 -0.17249732
000060 02 28 07 3e d6 3a e4 3e 65 c5 10 bf ef d6 17 3e
       0.13198856 0.44576138 -0.565512 0.14828084
000070 73 4a c4 3c a9 99 00 bf 0f 01 e5 bd dc a6 9a 3e
       0.023961281 -0.50234467 -0.111818425 0.3020543
000080 5e 0d 3e bd a2 1f 66 bb df 10 96 bb e0 a9 48 3e
       -0.046399467 -0.003511407 -0.004579648 0.19596052
000090 96 16 73 3b a6 c2 f1 3e df 95 82 3e e5 1d 8a 3e
       0.003709232 0.47218817 0.25504968 0.26975933
0000a0 78 e9 7a 3d c0 a1 59 3e 8e 1a 65 3e 41 9c 4f be
       0.06125781 0.21253109 0.22373411 -0.2027445
0000b0 c0 ac 09 bf eb fb 61 be be 77 87 3e e3 45 f8 be
       -0.5377922 -0.22068755 0.26458544 -0.4849082
0000c0 5d 0c 0d bf 9c a4 5b be d1 46 2e 3f 7d bc 66 3e
       -0.5509699 -0.21449512 0.6807681 0.2253284
0000d0 e5 88 17 bf 94 ec 85 3d bd 24 da 3d b8 e5 39 bd
       -0.5919326 0.06539264 0.106515385 -0.045385092
0000e0 2d fe af be ac a5 c2 3e da 8f af be 57 c5 8a be
       -0.34373608 0.38017023 -0.34289438 -0.27103683
0000f0 ae 07 18 3e 5b 80 89 bd 5a dd 13 be c7 1c c3 3b
       0.1484668 -0.06713935 -0.14439908 0.0059543583
000100 18 09 4e be 7d 4e ea be 51 22 da be 64 3a 8b 3d
       -0.20120656 -0.45763007 -0.42604306 0.067982465
000110 95 29 95 be f8 06 00 be 9a 78 42 3e 23 69 44 3e
       -0.29133287 -0.12502658 0.18991318 0.19180731
000120 2b 4b 1e 3e 83 6f c1 3e 8c ea a9 bd b7 1c 74 3e
       0.15458362 0.3778039 -0.082966894 0.23839079
000130 45 5e 42 bd d1 25 df 3d cd 5c bd 3e ae 53 39 bf
       -0.047453184 0.10895885 0.36984864 -0.7239331
000140 74 97 ae 3e 28 5f 14 3f 46 f6 e7 bd 58 7d 05 be
       0.34099925 0.57957697 -0.1132627 -0.13036096
000150 86 d1 73 3c 74 37 ca 3d 6a 94 83 be 74 60 f0 be
       0.014881497 0.09873858 -0.25699168 -0.46948588
000160 08 6f ab bd 89 ad a0 be a8 31 a3 3e 49 45 43 be
       -0.08370787 -0.31382397 0.31873822 -0.19069399
000170 4a 29 43 3d db 76 a3 be 66 fd b6 3e 42 0c bb 3e
       0.0476468 -0.31926617 0.35740203 0.3653279
000180 b4 4a d1 be c2 73 bd bd f5 82 fd bd b5 4d 1b be
       -0.40877306 -0.09250595 -0.12378494 -0.15166362
000190 6c 9c f3 bc 93 42 81 3e b6 55 0f bf e0 09 8f 3e
       -0.029737674 0.25246105 -0.5599016 0.27937222
0001a0 e9 ee 98 3e 4f 6f 41 3e e9 69 00 3f cd 04 90 be
       0.29869774 0.18890117 0.50161606 -0.28128663
0001b0 72 d3 4c 3e 14 4a 11 be c8 0e 60 be df da 00 be
       0.20002535 -0.14188415 -0.21880639 -0.12583493
0001c0 8f 33 55 bd fa 35 dc 3c fc f1 be bd c3 96 08 bf
       -0.052051123 0.026881207 -0.093234986 -0.53355044
0001d0 5f f7 ec 3e c6 f8 8e 3d 12 4a 9a bd a4 18 2d 3e
       0.4628248 0.069810435 -0.07533659 0.16903931
0001e0 0a eb 77 3e d2 f4 a5 be 1e 49 a1 3d d4 d4 1f 3f
       0.24210754 -0.32413346 0.07875274 0.62434125
0001f0 39 ad 96 3e 3b 89 4b 3e 84 eb b6 3e 7f 68 b7 bd
       0.29429033 0.19876568 0.3572656 -0.08955478
000200 1e fe b9 3c fd 1e 45 3d 9b a4 c0 bd f7 bb 24 be
       0.02270418 0.048125256 -0.09406396 -0.16087328
000210 85 bd 51 3e 23 7c 49 3e b9 b0 f4 3c f7 ba ca 3d
       0.20482452 0.1967626 0.029869424 0.09898942
000220 a5 46 18 3f 6e 34 a8 3e 3c f0 7d bd 7a ba af 3c
       0.59482795 0.328525 -0.061996683 0.021451224
000230 ca f4 11 bf c9 8f 5f 3e 38 26 d4 be b5 46 24 bf
       -0.57014143 0.21832193 -0.4143541 -0.6417039

bias f4 [12]
000000 85 05 5e be 54 36 32 3e fe 30 43 be d5 7e 1e be
       -0.21681793 0.17403537 -0.19061658 -0.1547807
000010 6c 3e 01 be 52 e3 14 be 4f 3e 03 be af 96 78 be
       -0.12621468 -0.14539841 -0.12816738 -0.24276231
000020 fe e2 64 be 13 48 0c bc 5d 50 b7 bd 8c a0 01 be
       -0.22352216 -0.008562106 -0.08950875 -0.126589
