Case_Study_1/trained_transformer/verification/vit_18_1_6_12.pt (torch, 26215 bytes, 19 tensors)

pos_embedding f4 [1, 50, 18]
000000 2d fc 96 bd 79 d0 b4 bf b9 09 d5 be 32 19 be 3d
       -0.073723175 -1.4126121 -0.4160898 0.092821494
000010 e1 c7 4c 3f 86 61 69 3f 80 13 0e 3f c3 d8 04 bf
       0.7999249 0.91164434 0.55498505 -0.5189325
000020 1a 3e ae bf 2c ab a3 bd 94 33 f1 3e bb a2 5c bf
       -1.3612702 -0.07991633 0.47109663 -0.86185807
000030 a7 dc b8 3f 16 3d 35 3f 89 00 d0 3f d1 5c 88 bf
       1.4442338 0.70796335 1.6250163 -1.0653325
000040 75 d3 d4 3f 64 40 af be 99 a2 3c 3f 8d 02 e0 be
       1.6627032 -0.34228814 0.73685604 -0.43751946
000050 f7 0f 14 3e 68 87 6e 3d df 5c 82 be bd 4a 2f 3f
       0.14459215 0.058234602 -0.2546148 0.68473417
000060 ff 21 f7 3e 78 00 42 be 88 ba ca be 3f 2b 8a 3e
       0.48268124 -0.18945491 -0.39595437 0.2698612
000070 d4 1b bf bf b0 46 a1 3f 4d 99 89 3f a9 ff 72 40
       -1.4930367 1.2599697 1.0749909 3.7968543
000080 62 e2 ff bf 4a 1b e5 bd a6 14 31 3f b7 0a e2 be
       -1.9990962 -0.111868456 0.6917213 -0.441488
000090 e1 63 08 3f 54 b1 16 bf 28 71 7e bf be 54 32 3f
       0.53277403 -0.5886433 -0.9939141 0.69660556
0000a0 3a 28 b9 3d 6d 1e ca bf 5e 86 23 be 1a 5e f3 be
       0.09040876 -1.5790535 -0.15969226 -0.4753273
0000b0 93 f6 9d be 49 ad 83 3f a5 03 14 c0 24 94 33 be
       -0.30852184 1.0287257 -2.3127224 -0.1753698
0000c0 d8 bd 75 3f 39 57 30 be ad 2b a5 3f 67 20 8a 3f
       0.95992804 -0.17220773 1.2903954 1.0791138
0000d0 8b 86 da bf 9c 4c 12 bf 12 19 5b bf 36 79 dd bf
       -1.7072309 -0.57148147 -0.8558513 -1.7302616
0000e0 f3 d1 36 bf 45 d1 b9 bf 94 47 63 bf e9 7d 0a 3f
       -0.7141411 -1.4516989 -0.88781095 0.54098374
0000f0 ec 16 8e bf ba 03 d3 bf e1 aa 28 3f d0 bc 82 bf
       -1.1100745 -1.6485512 0.6588574 -1.0213871
000100 0f 60 3e 3f 7a 55 ad 3e e4 ec b6 be 79 cc 05 3e
       0.74365324 0.33854276 -0.35727608 0.13066281
000110 0e a9 fd 3d 1b 87 4e be 4b 06 4c bd b8 19 2c 3f
       0.1238576 -0.20168726 -0.04981069 0.67226744
000120 7a f3 01 bf 32 b2 3e bf 23 b4 7c bf 44 cb 95 3f
       -0.5076214 -0.74490654 -0.98712367 1.1702657
000130 65 f2 15 c0 fd 14 c7 3e c2 f3 4d be 88 45 ee 3f
       -2.3429196 0.388832 -0.20112517 1.8614969
000140 f1 04 ee 3e f0 ae 20 c0 46 9a 14 bf 37 da 3c 3f
       0.46488145 -2.5106773 -0.580479 0.7377047
000150 ba cd d7 3e 74 97 83 3f 03 1b 1a be 83 69 bb bd
       0.42149144 1.0280595 -0.15049367 -0.09150984
000160 3f fd b5 3e 0f cf 8a 3e fb 42 a2 bf bf 2d f9 be
       0.35544774 0.27111098 -1.2676691 -0.48667714
000170 a2 2a 6a be f6 61 05 3f a1 72 ec 3f ce 27 c5 bf
       -0.22867826 0.521026 1.8472482 -1.5402772
000180 16 03 07 bf 6e d2 7f 3f 72 43 bd 3e 96 10 18 3f
       -0.52739084 0.99930465 0.3696552 0.5940031
000190 f8 34 23 bf 57 ac 7d bf 25 de 93 3f 96 75 84 be
       -0.637527 -0.99091095 1.1552168 -0.2587096
0001a0 bd bd dd 3d 5a f9 88 3f 7f 0a 21 bf a2 d2 6f be
       0.10827205 1.0701096 -0.6290664 -0.23420194
0001b0 d2 93 7f 3f 36 29 ec bd 09 2a b1 bd 15 cc c1 3d
       0.9983493 -0.11531298 -0.08650596 0.09462754
0001c0 55 29 ef 3d c2 ab 11 c0 ef 3a 90 3e fc f5 06 be
       0.11677805 -2.2761083 0.28169963 -0.13179773
0001d0 0c 06 8a 3f d3 d1 ec 3f 5a 7e 59 3f 91 80 ee 3c
       1.0783095 1.8501533 0.8495842 0.02911404
0001e0 42 d0 97 bf e7 e7 1c bf 0f 58 90 be 41 74 8f bf
       -1.186043 -0.61291355 -0.28192183 -1.1207353
0001f0 71 79 3c c0 d8 21 2e bd dd bb 43 be 8d ff 23 c0
       -2.9449122 -0.042512745 -0.19114633 -2.5624726
000200 f5 ef f7 3e fa 71 a3 3d 03 67 d0 3e 8f d4 08 bf
       0.4842526 0.07980724 0.40703592 -0.5344934
000210 f4 1b cb bf 38 15 57 3f 07 20 74 be 41 ac 0d 3e
       -1.5867906 0.8401675 -0.23840342 0.13835241
000220 4d a1 9a be 57 d3 90 bd 4f 08 9d 3f 9f 2f 9d 3f
       -0.30201188 -0.0707156 1.226816 1.2280158
000230 85 47 2e bf 3a 15 81 3f 89 a1 0a bf 21 8f 08 c0
       -0.6807788 1.0084603 -0.54152733 -2.133736
000240 2a 7d 3c 3f b5 09 22 bf 59 e7 91 be b8 6f 19 3f
       0.73628485 -0.6329606 -0.28496817 0.59936094
000250 0d f0 ef 3f 67 3a 9e bf 81 c2 a2 bf d5 f4 3c bf
       1.8745133 -1.2361573 -1.2715608 -0.73811084
000260 a6 81 52 be 96 5b 29 bf 3c 06 1e 3f 76 19 59 3f
       -0.2055727 -0.66155374 0.6172826 0.84804475
000270 7a e4 27 bf 56 57 a2 be 61 62 27 bf 51 65 16 c0
       -0.65583 -0.31707257 -0.6538449 -2.3499339
000280 4e 90 df bf f0 65 42 bf 00 0f 94 bf c4 19 1f 3f
       -1.7465913 -0.75936794 -1.1567078 0.6214869
000290 f6 7f 18 be e7 3f 51 be a9 0c f2 3e 0a e2 83 3f
       -0.14892563 -0.20434533 0.47275284 1.0303357
0002a0 4f 24 1b 3f 0a 6d 1d 3f 39 29 7d 3e bf ad 38 3f
       0.6060228 0.61494505 0.24722756 0.72140115
0002b0 1b eb 66 be 58 80 86 bf 70 35 02 3d 82 05 29 bf
       -0.22550623 -1.0507917 0.031789243 -0.6602403
0002c0 7b 32 b6 be cf b3 2d bc 7a 43 8c 3e 81 0a e5 bf
       -0.3558539 -0.010601952 0.2739523 -1.789383
0002d0 56 06 29 bf d2 39 d8 3f 28 50 b4 bf 01 27 ae 3f
       -0.6602529 1.6892645 -1.4086962 1.3605653
0002e0 34 11 53 be 40 e3 ca be 74 c4 91 3f 60 21 9c 3f
       -0.20612031 -0.39626503 1.1388078 1.2197685
0002f0 b1 22 3e 3f a1 e7 e8 be 7d 35 18 3e d8 05 43 be
       0.74271685 -0.4548922 0.14864154 -0.19045198
000300 6e b9 8b bf af 7c 8b 3f 17 1b e8 3e 89 d4 12 3f
       -1.0915964 1.0897425 0.45333168 0.5735555
000310 78 90 2e bf fd 94 1c 3f 1e 75 7b bf 03 df 70 3f
       -0.6818919 0.6116484 -0.9822558 0.9409029
000320 50 7f 9e bf 1c 53 14 3e 01 f2 7c bf 5a 39 27 3e
       -1.2382603 0.14484829 -0.9880677 0.16330472
000330 6f 16 89 3e 95 79 0d 3e d4 cb bd 3f 52 07 ea 3e
       0.26774928 0.13815911 1.4827828 0.4570871
000340 92 20 07 bf 3c bb c2 3e 4b 5a 71 bf b3 2c c2 bf
       -0.52784073 0.38033473 -0.942784 -1.5169891
000350 1a 6f 18 3f d0 dc 16 3e f3 05 81 bf fb aa 22 bd
       0.5954453 0.14732671 -1.007994 -0.03971384
000360 5c 28 f6 3d 62 66 d0 3e e2 47 88 bf 24 72 63 3f
       0.12019417 0.40703112 -1.0646937 0.8884604
000370 48 fd 60 be 89 11 5b 3e d8 5b 87 3e 2d b2 d4 3e
       -0.21971619 0.21393408 0.2643726 0.41542187
000380 6b 68 ce 3e c6 b1 49 3f 35 08 8f 3f c2 85 69 3e
       0.4031404 0.78786886 1.117438 0.22804931
000390 b7 26 69 3a 43 5c c9 bf fc 9b 00 bf de eb 4c bf
       0.00088940136 -1.5731281 -0.50238013 -0.80047405
0003a0 69 9b 5b bf 8e 1c e7 3e f6 b6 b6 3f ce 3b d8 3e
       -0.8578401 0.45138973 1.4274585 0.42233127
0003b0 50 7d d1 be f3 a6 ed 3f 1b 23 23 bf 91 31 c8 be
       -0.40915918 1.8566574 -0.6372544 -0.39100316
0003c0 09 e4 1e 3d 91 fa 01 3f 8d 14 c0 3f 01 73 37 3f
       0.03879169 0.5077296 1.5006272 0.7165986
0003d0 e3 03 38 bf 84 ca 32 3f 83 2f 31 3f 38 f1 08 3f
       -0.7188093 0.69840264 0.6921312 0.5349307
0003e0 db 64 f2 be f9 09 d3 3e ed f4 4c bf cf e2 17 3f
       -0.47342572 0.41218546 -0.8006123 0.5933046
0003f0 63 2c 32 3f 17 32 3d bf f8 f1 8a bf 39 2f 52 3e
       0.6959898 -0.73904556 -1.0855093 0.20525827

cls_token f4 [1, 1, 18]
000000 2e 55 c4 3f 7f 4a 3c bf 3e 31 13 bd e0 10 55 bf
       1.5338495 -0.7355117 -0.035935633 -0.83228874
000010 9a 89 9b be 0d 6f 44 bf 97 4b 91 bf 62 53 89 bf
       -0.3037842 -0.7673195 -1.1351193 -1.0728571
000020 8e 7a ae bf b6 d9 f3 be e4 dc 79 bf 17 6f ee bf
       -1.3631151 -0.47627038 -0.9760268 -1.8627652
000030 da 2c 4a 3e 3b 80 b2 bf 70 6c 11 bf 24 55 bb 3e
       0.19743672 -1.3945383 -0.5680609 0.36588395
000040 88 aa 9a bf 68 ba 6b be
       -1.2083292 -0.23020327

weight f4 [18, 16]
000000 f4 c8 2f bf f0 e5 89 be 2d 89 64 3e 1d d2 56 3d
       -0.68666005 -0.2693324 0.22317953 0.052446473
000010 ab d4 36 3e 62 83 e4 3b d4 75 c8 3e 92 c4 fd bd
       0.17854564 0.00697367 0.39152396 -0.123910084
000020 ed 03 68 3e c7 cb c3 3d b2 66 e2 3e 34 b2 da bc
       0.22657748 0.09560352 0.44218975 -0.026696302
000030 3c c1 be 3e 51 0d 91 3e 96 32 d0 3e 55 fb b5 3e
       0.372568 0.28330472 0.40663594 0.35543314
000040 c1 7a 65 be cc 5c f1 3e 18 56 e6 bb f2 0c fa bc
       -0.22410108 0.4714111 -0.007029306 -0.03052375
000050 40 a2 44 3d ca cc f2 3d b2 80 ec be ea 09 84 3e
       0.048006296 0.11855467 -0.46191937 0.25788814
000060 c2 f4 32 3e ee fd 83 3e 70 2d e0 be 2f 57 c2 3d
       0.1747618 0.2577967 -0.43784666 0.09489285
000070 93 93 28 be bb d2 79 bc fb 1c a7 bd 60 bf eb 3d
       -0.16462545 -0.015247996 -0.081598245 0.11511111
000080 9c a2 f0 3d 28 53 a9 3e 83 e8 b0 3c 02 39 6e be
       0.11749765 0.33071256 0.021595245 -0.23263934
000090 69 fd cf 3e 8a ee 9d 3e 5f d0 75 bd 64 2d 03 3d
       0.40623024 0.30846053 -0.06001317 0.03202571
0000a0 7a 90 a1 3e 88 4b 17 3f 5f c5 5f 3d 7e 4c 71 3c
       0.3155554 0.59099627 0.054631587 0.01472771
0000b0 c6 e3 d3 3b 0f c4 33 3e c0 1f 03 be e5 ca eb be
       0.0064663617 0.17555259 -0.1280508 -0.46053234
0000c0 ac 06 53 3d d3 54 f4 be 7d b2 87 be b3 44 21 bf
       0.051520035 -0.47720966 -0.26503363 -0.6299545
0000d0 2d 94 74 3e cc 11 ce bd 79 00 ad bd 29 83 d6 be
       0.2388465 -0.10061988 -0.08447356 -0.41896942
0000e0 8c bb db 3c 1e b3 c7 be b5 51 b5 3a 08 a6 0c bf
       0.026822828 -0.39003843 0.0013833555 -0.54940844
0000f0 33 04 00 3f a6 79 21 be 21 09 93 3e f6 e6 01 bf
       0.5000641 -0.15769061 0.28717902 -0.50743043
000100 ed 88 b6 3e 65 4c 96 3e d4 9a 96 3e 0a 0a 16 3f
       0.3565134 0.2935516 0.29415 0.5860907
000110 55 fd 9c 3d 59 c1 50 3d eb 57 02 be 57 2c 88 3e
       0.07665507 0.05096564 -0.1272885 0.2659633
000120 f7 ea 92 3e 8a 3b c4 be c1 be f0 bd 39 0a 38 bb
       0.2869489 -0.38326675 -0.117551334 -0.0028082265
000130 f9 2b 93 3e d3 6c 4f be 81 b9 c8 bc d6 44 65 be
       0.28744486 -0.20256357 -0.024502518 -0.2238954
000140 f6 8b f9 be b4 60 d3 be be 91 1f be b6 28 04 3f
       -0.48739594 -0.41284716 -0.1558294 0.5162462
000150 74 7c ee be cb df 5c be a4 51 24 3e 7a 54 31 3f
       -0.46579325 -0.21569745 0.16046768 0.69269526
000160 f6 49 05 bf 37 b7 1a be d0 a6 4a 3e cd 92 de 3e
       -0.5206598 -0.15108953 0.19790196 0.43471375
000170 f3 e9 3f bf 74 f0 12 bf 2c 85 ad be 8e 7b b0 3e
       -0.74966353 -0.5739815 -0.33890665 0.34469265
000180 2c a3 87 bf 7a 30 5e be 45 bd 3b be a5 07 0c 3e
       -1.0596671 -0.2169818 -0.1833392 0.13674791
000190 6f 0e fb be 5a 37 77 3e ed 17 f6 3d e0 c4 a3 3d
       -0.4903445 0.24142209 0.12016282 0.07996535
0001a0 be c1 a8 be ed 07 0e 3e 2e f9 12 be 0d 01 8e 3d
       -0.32960314 0.13870211 -0.14352867 0.06933794
0001b0 17 7f 45 3e ff 48 bb 3e f5 0c ec 3e ae bc 8c 3e
       0.19286762 0.3657913 0.46103635 0.274877
0001c0 f1 08 34 3e 2e aa 06 be d5 1d 56 3c 67 63 5e bd
       0.17581536 -0.13150856 0.013068636 -0.054294016
0001d0 1d 43 af be 16 af de bc 90 19 88 bd c7 e4 57 3e
       -0.3423089 -0.027183097 -0.06645501 0.21083365
0001e0 65 99 15 be e1 b9 b1 3d 09 d4 96 3e 4e bf bf 3e
       -0.14609297 0.08678032 0.29458645 0.3745064
0001f0 00 83 48 bf 9e 7d 20 bf 07 28 8a be 30 3b b2 be
       -0.7832489 -0.62691677 -0.26983663 -0.3481078
000200 4a 02 10 3f 49 f1 31 be 0f c0 0a be b5 2f 2d be
       0.5625349 -0.17377199 -0.13549827 -0.1691273
000210 7e c9 4c 3e 85 81 b8 be 8d 62 fd bd 98 38 6b be
       0.19998738 -0.36036316 -0.12372313 -0.22970808
000220 a9 0a d7 3e 71 6b 9e bc 19 fb 67 3d 51 fa 9e bd
       0.4200032 -0.019338341 0.05663595 -0.07762588
000230 0e 40 a9 3e 7d a1 2f be 88 bf 4a be 20 62 44 3e
       0.33056682 -0.17151447 -0.19799626 0.19178057
000240 fe 01 2e bd 71 c2 a0 3e bd 8e 64 3e 9c e9 d1 3c
       -0.04248237 0.31398347 0.22320075 0.025624089
000250 09 2e 05 bf 64 d9 d9 3d 73 f4 36 3e 97 43 8e bd
       -0.5202337 0.10637167 0.17866687 -0.069464855
000260 eb a0 7b be c0 05 15 be 39 41 22 3c 81 f7 63 be
       -0.24573104 -0.14552975 0.009903246 -0.22262384
000270 66 5e 16 be 4a 09 db ba 31 82 59 3c fe d6 b1 be
       -0.14684448 -0.0016711142 0.013275669 -0.3473434
000280 b5 42 84 3e be 92 b4 bc 5f 8b 67 be ec 31 81 3e
       0.25832143 -0.022042628 -0.2261176 0.252334
000290 02 fa 07 3f d3 11 e7 3d 90 77 30 be 38 c7 7a be
       0.53115857 0.112826966 -0.1723311 -0.24490058
0002a0 ec 1b 46 3e de ad 88 3e 38 8d a5 3d e4 2d bd 3d
       0.19346589 0.2669515 0.08083576 0.092372686
0002b0 11 f7 3d be 1d a7 03 be 07 52 0d bf f3 c8 3a bf
       -0.1855128 -0.12856717 -0.5520329 -0.72962874
0002c0 03 27 31 3e 26 12 9c 3e 5b 92 ea 3d ce 0f c7 3d
       0.17300038 0.30482596 0.11453696 0.097198114
0002d0 18 98 79 3e 59 38 f2 bd bf 7d d2 3d 8f 02 31 3e
       0.24374425 -0.11827154 0.102778904 0.17286132
0002e0 e2 bc d0 3d 9d dd 50 3d 22 43 0f be af a8 10 3e
       0.101922765 0.050992597 -0.13990453 0.14126848
0002f0 b6 f5 29 3d 24 c8 24 be 1d e0 dc be 59 78 eb be
       0.041494094 -0.16091973 -0.43139735 -0.45990255
000300 4b ff 6d be 18 cd 9c 3d d9 2b 12 3f be 73 70 be
       -0.23241918 0.07656306 0.57098156 -0.23481652
000310 53 35 5d be e4 33 46 3e 27 31 01 3f 47 49 f6 bd
       -0.21602373 0.19355732 0.50465626 -0.12025695
000320 e6 dc cc bd 53 5d d7 3e c9 5c cc 3e 9e 19 2c bd
       -0.100030705 0.42063388 0.3991454 -0.042016618
000330 b9 db d0 bd b6 8b f6 3e a8 2b e0 3e 03 73 b7 3e
       -0.10198159 0.48153466 0.43783307 0.35829934
000340 2b ef 5e be 0d 33 da be 47 71 90 be fd 03 50 bf
       -0.21770923 -0.42617074 -0.28211424 -0.81256086
000350 a5 8a a4 be e8 8d 5a be 86 c0 64 bd 6f bd ea be
       -0.32137027 -0.21343195 -0.055847667 -0.4584765
000360 16 d9 52 bc 5b 86 81 3c 60 f9 c2 bd 78 8a 1e be
       -0.01286914 0.015811136 -0.09520221 -0.15482509
000370 2c bb 06 3d 68 de a8 bd 9f a4 8e bd 6c d0 69 bd
       0.032893345 -0.082455456 -0.06964993 -0.057083532
000380 ac d0 db 3e 29 3b 0f 3f fe 05 df 3e 04 d0 ef be
       0.42932642 0.55949646 0.4355926 -0.4683839
000390 5e 4d d8 3e a2 6c 96 3e 59 bb ae 3e 9e 73 39 be
       0.42246526 0.29379755 0.3412731 -0.1811051
0003a0 0d 52 f4 3e 0d 75 92 3e 32 e0 82 3e a1 ec 81 3d
       0.4771885 0.28604928 0.25561672 0.063439615
0003b0 92 62 9a 3e f1 b9 21 be 23 35 c7 bd 69 4b 3d be
       0.30153328 -0.15793587 -0.09726932 -0.18485798
0003c0 1c 38 ff 3d 6c 7b 6f 3e 97 20 fb 3e 6f b2 cd 3d
       0.12461874 0.23386925 0.49048302 0.10043799
0003d0 e1 d3 78 be 16 66 2e 3e e8 fb a5 3e 95 56 9a be
       -0.24299575 0.1703113 0.32418752 -0.30144182
0003e0 37 ab bc be bd b4 c3 3d 3f d4 5c bd b6 d8 b1 be
       -0.36849377 0.095559575 -0.05391335 -0.3473565
0003f0 0f e7 df bd 3e 20 cb 3b bc 02 d0 bd 3d de 1b bf
       -0.10932743 0.006198912 -0.101567715 -0.60885984

bias f4 [18]
000000 17 38 4f be de df 04 bf 98 43 f5 3d 01 58 5e bd
       -0.2023624 -0.51904094 0.11975783 -0.054283146
000010 6d 97 55 3e 09 92 6b 3d d5 ff 31 3e 9d af b8 3d
       0.20858546 0.057512317 0.17382748 0.090178706
000020 43 06 7d 3e f2 4d 70 be 65 58 25 3e 86 0d cf bd
       0.2470942 -0.23467234 0.16147001 -0.10110001
000030 80 cb f2 bc 35 fc 9d 3e 8c 93 64 3e 5d 87 8f 3d
       -0.029638052 0.3085648 0.2232191 0.0700824
000040 8f 02 df bc 63 06 88 3e
       -0.0272229 0.26567373

weight f4 [18]
000000 77 3f 7d 3f 46 9c 74 3f eb 65 8e 3f 5c af a2 3f
       0.98924965 0.95550954 1.1124853 1.2709765
000010 99 ac 9f 3f 93 1f 6e 3f 30 e3 95 3f 63 88 90 3f
       1.2474548 0.9301693 1.1709957 1.1291622
000020 86 42 a3 3f 7b 38 ad 3f e7 74 8d 3f 97 3e 7a 3f
       1.2754676 1.3532861 1.1051301 0.97751755
000030 6a 24 98 3f e2 9f 8f 3f cc a7 88 3f 25 11 93 3f
       1.1886113 1.1220667 1.0676208 1.1489607
000040 ea df 8c 3f f4 c8 9d 3f
       1.1005833 1.2326951

bias f4 [18]
000000 38 39 15 be 81 16 b0 3d e2 92 13 be 89 e3 30 3d
       -0.14572608 0.08598042 -0.144115 0.043185744
000010 b1 f0 b5 3c 6b 56 63 bd cc ae a9 3d 01 39 0f 3d
       0.022209497 -0.055502336 0.08285293 0.034966473
000020 b2 d3 94 3c a1 c4 8e 3d 07 75 80 3c 95 e5 9a 3c
       0.01816735 0.06971098 0.015680803 0.018908301
000030 b6 bb 5f bc ba 56 3b 3e c5 8e bd be a7 8e f3 3d
       -0.013655594 0.18294802 -0.37022987 0.11892443
000040 26 20 2f 3c 1b 6c b4 3d
       0.010688817 0.08809682

weight f4 [54, 18]
000000 c2 4f 8c 3e d6 ac 8e be 71 43 27 bd 2c 6c c5 be
       0.274046 -0.27866238 -0.0408358 -0.3855909
000010 26 1d b9 3e ed cf ad 3e ce 38 37 be 86 3e f1 bd
       0.3615505 0.33947697 -0.17892763 -0.117795035
000020 72 fd 6f bc f8 93 17 3e 65 19 11 3d a5 c9 91 be
       -0.014647828 0.1480254 0.03542461 -0.28474155
000030 bf bf 67 3d 7f 9b 23 be 25 93 41 3d 58 8f 15 be
       0.056579348 -0.15977286 0.04725947 -0.14605463
000040 3c b1 34 3d b1 80 8d be b6 45 94 bc f4 3e 55 be
       0.044114336 -0.27637246 -0.018099647 -0.20824796
000050 8d 15 1d 3e bb d7 53 3d 43 5e 1c 3e 5b ad 39 be
       0.15340252 0.05171941 0.15270333 -0.18132536
000060 3f 92 b5 bc 64 69 8a bc eb 2f 3a 3d da 30 e2 3d
       -0.022164462 -0.016895957 0.045455854 0.11044474
000070 62 74 85 be 42 18 3d 3d c8 0f 63 3d dd ec 80 be
       -0.26065356 0.046165712 0.055434972 -0.25180712
000080 87 a2 56 bd ec 86 f6 bd 40 74 a6 bd 59 0d 3d 3e
       -0.052401092 -0.12037453 -0.08127642 0.18462123
000090 60 ca 00 3e 5d 6e 7f bd 37 ad 1d be 49 7e bf 3d
       0.125772 -0.06236111 -0.15398107 0.09350259
0000a0 8e f8 c2 3d 0f f9 3e be ea bc 5d 3e d5 dc 30 3e
       0.09520064 -0.18649696 0.21654096 0.1727174
0000b0 a3 e2 0c 3e a8 86 d1 bd 25 09 c9 3d 68 e0 02 be
       0.1375833 -0.10230762 0.09816197 -0.12780917
0000c0 58 60 69 be d9 6e 26 3e 4e 66 89 bd 6a 96 5a bc
       -0.22790658 0.16253223 -0.06708966 -0.013341526
0000d0 98 c9 2d be cd 6f 1a bd 93 43 88 3d 58 6e 89 be
       -0.16971433 -0.037704278 0.06653514 -0.26841998
0000e0 00 ca 83 be 3c a3 7e be cb 7f 82 3e 0c 7c 56 3e
       -0.2574005 -0.24866956 0.25488123 0.20945758
0000f0 fe 72 8f be f4 6f b0 bd 71 51 35 be dc bd 82 3c
       -0.2801742 -0.08615103 -0.17706849 0.015959673
000100 31 cf 2e bd c7 7d 34 be db 51 3c 3e f9 bf ba bc
       -0.042678062 -0.17626105 0.183906 -0.022796618
000110 8f 3f 8a 3e b7 d5 31 be 5d 1c 93 3e 9f c5 09 be
       0.27001616 -0.17366682 0.28732577 -0.13454293
000120 de 32 33 3e 1a e0 15 3e f2 b6 bc 3c 42 cf 45 be
       0.17499873 0.14636269 0.023036454 -0.19317344
000130 d5 44 15 3e f1 60 b7 bd ca 80 14 be 02 ae a6 bd
       0.14577039 -0.08954037 -0.14502254 -0.08138658
000140 f0 38 a4 3c 58 8c 1f be be 65 6c bd e9 50 0e 3d
       0.020046681 -0.1558088 -0.057714216 0.03474513
000150 1c 2d 1c be f5 9f e3 3d 1f b4 44 3e 6f ec fc 3d
       -0.15251583 0.11114494 0.19209336 0.12349784
000160 48 71 fb bd 2b 82 55 bc 77 77 04 3e f5 06 1e be
       -0.12277466 -0.013031523 0.12936197 -0.15432341
000170 4d 78 80 3e 77 1d a6 3d 21 89 d5 3d f6 21 dc bd
       0.25091782 0.08111089 0.10426546 -0.10748665
000180 37 5e b7 3d 05 91 c7 3d 4a a9 a5 bd 27 92 0d be
       0.08953517 0.09744457 -0.0808893 -0.13825284
000190 76 5c 25 be fc 8f ab bd 73 e0 44 be aa 62 3f 3d
       -0.16148552 -0.08377072 -0.19226246 0.046724953
0001a0 b2 25 8f bd 37 7b 51 3e 61 81 39 bc a6 dc ef 3d
       -0.06989612 0.20457159 -0.01132235 0.11712007
0001b0 8e 4e f0 bd 08 4c 78 3e eb ce a5 ba a7 77 7b 3d
       -0.11733733 0.24247754 -0.0012650167 0.061393406
0001c0 3a 83 69 3c 7d 86 16 be 60 33 2a 3e eb 81 14 be
       0.014252478 -0.1469974 0.1662116 -0.14502685
0001d0 a4 71 76 bb 52 c4 24 3e e9 aa 5f 3d 87 ee 1b be
       -0.0037604356 0.16090515 0.054606352 -0.1522771
0001e0 07 51 1a 3d d3 f2 30 be 87 9a f2 bd 88 25 a9 3c
       0.03767493 -0.1728013 -0.1184588 0.02064778
0001f0 df 2d f5 3d 98 de 35 bd ca db 93 3c 3f 92 10 3d
       0.1197164 -0.044401735 0.01804914 0.03529572
000200 ca 60 0d 3d db 4d 46 bd 17 57 cf bd 84 5f 10 3e
       0.034516133 -0.048414093 -0.10124033 0.14098936
000210 46 5b 24 be eb 5d 3f bb 91 9e 27 be fb 4f ad bd
       -0.16050443 -0.0029200267 -0.16369082 -0.08462521
000220 1e aa a8 3e e8 a3 12 3e f8 a9 5a be d9 78 63 3e
       0.3294229 0.14320338 -0.213539 0.22214068
000230 e3 8a 43 bd a7 98 3f 3d b2 e0 5d be 9a c0 ba bd
       -0.047739875 0.04677644 -0.21667746 -0.09118767
000240 8a 27 7c 3d 58 db 97 be 04 fb 82 bd 7b 50 83 be
       0.061561145 -0.29659534 -0.06395534 -0.2564734
000250 8b 89 20 3e 83 77 8d 3c 20 e2 ad bd 53 4d 1c be
       0.15677468 0.017268902 -0.084903955 -0.15263872
000260 65 7f 89 be ce 1d cd bd 76 1d 33 be 42 1d e0 bd
       -0.26855007 -0.100154504 -0.17491707 -0.109430805
000270 6e a4 3e 3e 48 74 08 bc d8 a5 85 bd cf ef 61 3d
       0.18617412 -0.008328505 -0.06525773 0.05516034
000280 f0 cf 82 3e e9 f3 1d 3e 9f 90 40 3e fc 78 53 3e
       0.2554927 0.15425076 0.18805169 0.2065162
000290 e8 80 1f be ed 6d 74 be 0c 74 ae bd 19 e3 fb bd
       -0.15576518 -0.23870058 -0.08518228 -0.12299175
0002a0 54 c8 1f be 22 cf 02 3e f3 89 2e 3e fc c6 d6 3d
       -0.15603763 0.12774327 0.17044811 0.10487172
0002b0 3b f9 8f be 27 63 4f bd 73 69 05 3e f6 c3 c2 bc
       -0.28119835 -0.05063167 0.13028507 -0.023775082
0002c0 4e 98 14 3e 9a c4 07 be 9a a8 49 3e 54 f0 9d bc
       0.14511225 -0.13258591 0.19693223 -0.019279636
0002d0 ee 46 40 be b8 23 84 3e 44 f7 f0 3d da 9e 08 be
       -0.18777058 0.258085 0.11765912 -0.13341847
0002e0 bf 25 f2 bd 9a bb 1c 3d 2f 0c 87 3e f1 47 3a 3e
       -0.11823606 0.03826485 0.26376483 0.18191506
0002f0 ab 54 5f bd c3 a9 d9 3d 50 fd a7 3e 35 bf e1 bd
       -0.054524105 0.106280826 0.3281045 -0.11022798
000300 27 13 51 be d3 ef 20 be 6f f6 37 bd ef 7d 5e bc
       -0.20417462 -0.15716486 -0.04491275 -0.01357983
000310 03 36 a2 be 81 a8 d3 bb f4 4d 87 be cb d8 ba 3e
       -0.31681833 -0.006459296 -0.2642666 0.36493525
000320 e7 02 b9 3d 07 27 8b 3d 74 ce bc be c6 7c 14 bd
       0.09033757 0.06794553 -0.3687626 -0.036251806
000330 05 ca 08 3e 4d 1d 16 3e 98 46 d8 3e 8d 53 c2 be
       0.13358314 0.14659615 0.4224136 -0.3795437
000340 90 2a 41 3f 53 4d e1 3e 71 2a 9d be 8d 32 63 bd
       0.7545557 0.44004306 -0.30696443 -0.05546813
000350 14 ed d5 be 41 e3 c8 bb 1f 95 a7 bd 8b b1 b5 3e
       -0.4178244 -0.0061306064 -0.081827395 0.35487017
000360 6f ab d4 bd 5e 33 bf 3e 28 1f e8 3d 99 fa 6c 3e
       -0.10384261 0.37343878 0.113340676 0.2314247
000370 af bd a1 bd 3a 1c bd be b8 dc 37 3d 76 3d 46 3e
       -0.078975074 -0.36935598 0.04488823 0.19359383
000380 c7 8d 3e 3e c9 82 36 bd d7 23 a4 3d e6 3b 18 3d
       0.18608771 -0.04455832 0.080146484 0.0371665
000390 4c 36 b6 3c dc dd b0 3e 63 f1 2e bd 83 e1 6d 3e
       0.022242688 0.34544265 -0.042710673 0.23230557
0003a0 65 0f 45 be e0 23 4a 3e ac 31 9e be 0d 0a 36 bd
       -0.19244154 0.19740248 -0.30897272 -0.04444318
0003b0 cb e8 8b bd df 23 21 3e 81 71 8e be 27 34 9c be
       -0.06831511 0.1573634 -0.27820972 -0.3050854
0003c0 90 28 58 3e f4 ee 2c bc 52 74 9d 3e 23 66 e5 3e
       0.21109223 -0.010555018 0.30752808 0.44804487
0003d0 f3 01 36 bd 8c 11 8f bd 1d df 9c bd b1 14 d8 bd
       -0.044435453 -0.06985769 -0.07659743 -0.105508216
0003e0 0e 4f a5 bd 8f a8 76 bc 96 58 a3 be 74 a9 e8 3d
       -0.08071719 -0.015054836 -0.31903523 0.113604456
0003f0 85 50 2c 3e f5 03 f1 bd 21 65 39 3e dc 95 fb 3c
       0.16827591 -0.11768333 0.18104984 0.030711107

weight f4 [18, 18]
000000 72 9d b4 be 78 b8 4c be 29 b6 c9 3e 6b b0 9a 3b
       -0.3527637 -0.19992244 0.3939679 0.0047207377
000010 ba 1c 0f 3f d3 fd 44 3e 8c f8 e2 be c2 2d 04 be
       0.5590321 0.19237451 -0.4433025 -0.1290808
000020 aa e2 91 3e ef 4e 05 be 02 74 00 be 74 d3 3c 3e
       0.28493243 -0.13018392 -0.12544253 0.18440038
000030 3f 30 00 bf 4d f9 e3 3d c8 78 ef 3e 05 4c c5 3e
       -0.5007362 0.11131535 0.46771836 0.3853456
000040 e3 24 d0 be 3f 66 8b 3e ec 74 93 3e ab 0d a6 3e
       -0.40653142 0.27226445 0.28800142 0.32432303
000050 c8 ef 2f be 25 13 f7 be 14 06 17 3f d7 e5 05 bf
       -0.17181313 -0.48256794 0.5899365 -0.5230383
000060 50 c1 64 bb 3d 57 c5 3d f7 16 00 3e 97 8f a8 bd
       -0.0034905262 0.0963578 0.1250876 -0.082305126
000070 14 60 0e 3f 2b b5 1a 3e 27 83 3d 3f da 1d 83 3e
       0.55615354 0.15108173 0.7402825 0.25608712
000080 9a 6a d0 bd 35 a6 70 be c7 59 0a bc b2 00 4e bd
       -0.10176583 -0.23500903 -0.008444256 -0.05029363
000090 f0 d0 0d bf 6d c1 70 be 55 77 22 3e d1 27 cd ba
       -0.5539694 -0.23511286 0.15865834 -0.0015652125
0000a0 cf 6e cf 3e 62 ce 08 bf a8 9c a3 be 66 f7 16 3e
       0.40514228 -0.53439915 -0.31955457 0.14742813
0000b0 ce 3f b9 be cc a2 89 3e 7c 74 71 be bf 2d 53 be
       -0.36181492 0.26882017 -0.23579592 -0.2062292
0000c0 b9 90 6b 3e 56 74 98 bd ab 19 10 3f 94 34 55 bd
       0.23004426 -0.07444064 0.56289166 -0.052052096
0000d0 da 92 df 3e 94 27 7b bd 18 68 87 be f8 cc d2 3d
       0.43666726 -0.06131704 -0.26446605 0.10293001
0000e0 6e 3d a6 3e 9c b9 36 3f b7 5b 3a bd c3 d3 91 3d
       0.32468742 0.7137697 -0.045497622 0.071204685
0000f0 5d 10 fd 3e 88 80 f5 3e e2 01 a2 3e 8e 7a 6f bd
       0.49426547 0.47949624 0.3164206 -0.058466487
000100 2e 9a 03 be 32 21 17 3f b2 ef 5b 3e 6e a8 84 3c
       -0.12851784 0.5903503 0.21478155 0.016193595
000110 9e 2a 45 3e 49 f8 af 3e 60 02 b2 3d 72 4b 88 be
       0.19254538 0.34369114 0.08691859 -0.2662006
000120 21 04 74 3b f1 a0 73 3e 45 9c 09 bc 78 b9 18 3d
       0.0037233906 0.23791863 -0.008399074 0.03728625
000130 ff 89 6e be 2d 77 6e 3e 81 c3 86 bd a2 d4 8d bf
       -0.23294829 0.2328765 -0.06580258 -1.1080515
000140 4d 93 87 3e d7 75 a2 3e d7 69 49 3e ff f6 73 be
       0.2647957 0.3173053 0.19669281 -0.2382469
000150 cc 35 8f 3d 60 34 48 bf e7 e2 99 bd c0 e4 08 3e
       0.06992683 -0.7820492 -0.07513981 0.13368511
000160 7a 90 ad be 06 b6 7e 3e c9 52 8b 3e ec 41 78 bf
       -0.3389929 0.24874124 0.27211598 -0.9697559
000170 c2 40 12 bf d0 d6 e7 3e f1 0d 73 3e be 07 a4 3e
       -0.5713006 0.45281076 0.23735787 0.32037157
000180 03 5e 88 be 1d 2b 17 bf ec de 74 3e ce 2a 45 be
       -0.26634225 -0.5905016 0.23913163 -0.1925461
000190 17 66 ad be 7e a9 98 3d 0b 0d 0d 3e 7d 1e 4e bd
       -0.3386695 0.07454203 0.13774507 -0.050322045
0001a0 67 2c 5c 3e b4 3e 94 3e 04 ae 0e be 06 be 19 3f
       0.21501313 0.2895409 -0.13933569 0.6005558
0001b0 7c a1 02 be ee ca 21 be a4 d5 18 be e0 2a 01 3f
       -0.12756914 -0.15800068 -0.14925247 0.5045605
0001c0 ef e2 a9 be e2 34 42 bf d7 dd 3d bd d6 05 3b 3e
       -0.3318095 -0.7586194 -0.04635414 0.18263945
0001d0 7f 76 6b 3f 39 2f 05 be 24 04 1b be f4 03 d6 be
       0.91977686 -0.13006295 -0.15138298 -0.4179989
0001e0 6b 67 9d 3e 42 40 70 be ea 3b 3e be d4 e3 e9 be
       0.30742964 -0.23462012 -0.18577543 -0.45681632
0001f0 d6 91 b8 3e b0 2f 0d 3d dd 97 72 be 23 ec be 3e
       0.36048764 0.034469306 -0.23690744 0.37289533
000200 be 7a 96 be a9 8d a4 bd 59 99 0d bf a6 99 2a be
       -0.2939052 -0.08034832 -0.55312115 -0.16660175
000210 f2 a4 37 3f cb bb 32 3e 79 8d f5 be 4c 3e 1a be
       0.7173606 0.1745445 -0.47959498 -0.15062827
000220 11 3d 91 be 6c 11 74 be cf 63 e3 bd 1a c7 d7 3d
       -0.28366902 -0.23834771 -0.11103021 0.105360225
000230 a7 01 ae 3d c6 4c 3a be 5e b8 ed be f8 83 5e bd
       0.08496409 -0.18193349 -0.46429724 -0.054325074
000240 f3 a8 de be e5 ef 8d bd ee f1 33 3f e2 da f5 be
       -0.43488273 -0.06930522 0.7029103 -0.48018557
000250 38 c8 ed bd ec a7 5f bd 0b da d7 3e c4 54 38 3f
       -0.11610454 -0.054603502 0.4215854 0.7200434
000260 c5 ee 54 be ac bb 20 bd 5c 30 ae 3e 9d 7b a7 3d
       -0.20794208 -0.039241478 0.3402127 0.08177874
000270 ad dc 94 bd d7 3c e7 3e a1 1c dc bd dc 7b 65 be
       -0.07268653 0.45163605 -0.10747648 -0.2241053
000280 95 ee 03 bf 7b f1 d2 be e0 04 15 3e c7 64 18 3e
       -0.5153592 -0.4119986 0.14552641 0.14882194
000290 cb 3d 8e 3e 36 da cf 3d 2a c3 9e 3e 1f 44 24 3f
       0.2778152 0.10149042 0.31008273 0.64166445
0002a0 79 07 b9 3e 91 1c 3f be 61 c7 74 be c9 86 0b bd
       0.36138514 -0.18663241 -0.23904182 -0.034064088
0002b0 80 aa 79 bb 28 4a aa 3a 4b 4f 25 3d 76 88 2e 3e
       -0.003809601 0.0012992071 0.040358823 0.17044243
0002c0 f2 48 9e bf ac db 0f 3f c9 90 06 3f b5 1b 9a be
       -1.2366011 0.5619457 0.52564675 -0.30099264
0002d0 d1 da c4 3e d9 99 7d be a3 5b 94 3d 5f c5 93 3e
       0.38448194 -0.2476572 0.07244041 0.2886152
0002e0 7b 1f 9f bc a5 08 c1 be 42 74 00 3f e8 88 03 bf
       -0.01942419 -0.37701908 0.50177395 -0.5138078
0002f0 6e 68 48 be b4 87 66 3e 07 a1 d1 3e b6 5c 14 3e
       -0.19571087 0.22512704 0.40943167 0.14488491
000300 23 0d 0f bf e9 03 15 3e f3 ac c5 be f9 80 b8 3d
       -0.5587942 0.14552273 -0.38608512 0.090089746
000310 89 ed a7 3e b3 06 3c be 86 34 3a 3e 17 94 ca be
       0.32798412 -0.1836193 0.18184099 -0.3956611
000320 06 d2 5d bf 80 ed 00 bf 43 4e 8e 3e 0f 04 e3 3e
       -0.86648595 -0.50362396 0.27794084 0.44339034
000330 f5 c2 75 3e 88 db 20 bf 8d 2c 7c bd b1 a0 54 be
       0.24000151 -0.6283498 -0.061565924 -0.20764424
000340 17 71 c1 3d c0 d9 b6 be b4 a3 50 bf f2 01 33 3f
       0.09445398 -0.35713005 -0.8149979 0.69924843
000350 de 2e cc 3e 45 1f cc be f8 97 79 3c c3 73 8f be
       0.39879507 -0.39867607 0.015233986 -0.28018007
000360 b0 56 f7 3e 17 93 0f bf 03 6a d0 3e 0d 3f 8a be
       0.48308325 -0.56083816 0.4070588 -0.2700123
000370 2c 0e 8e bf 94 36 f7 bd 4d d3 1d be 5b 3b 3a be
       -1.1098075 -0.12070957 -0.15412636 -0.18186705
000380 e3 b5 47 be 92 58 c7 bd af c1 2d 3d f8 59 91 3e
       -0.19502978 -0.0973369 0.04242104 0.28388953
000390 1e 85 a7 bd b1 a1 e6 be f4 a5 bd 3c 8b c0 84 3d
       -0.08179687 -0.45045236 0.023150422 0.06482037
0003a0 2e c4 ed be 1b 3c f4 be 50 79 37 3f a3 01 08 3f
       -0.46438736 -0.47702107 0.71669483 0.531275
0003b0 69 13 89 be 78 62 a2 3e e3 d9 ce 3e 54 b6 ca 3e
       -0.2677262 0.3171575 0.4040061 0.3959223
0003c0 0c 89 33 3e 69 07 b5 be c0 62 40 bf af c4 90 be
       0.17532748 -0.35357216 -0.7515068 -0.28275058
0003d0 02 1a 17 be 75 ee 40 be 73 07 31 be 89 94 51 3e
       -0.14756015 -0.18840964 -0.17287998 0.20466818
0003e0 12 65 54 3c db 37 9e be ba 6c 15 be 86 e1 c6 3e
       0.01296355 -0.3090199 -0.14592257 0.38843936
0003f0 db ea f2 bd a5 b4 06 3f 7b 0f b7 be 7f 36 29 be
       -0.118612014 0.5261939 -0.35753998 -0.16524695

bias f4 [18]
000000 43 e7 f7 3c a4 3f 01 3e d6 75 00 3e 33 ec 22 3c
       0.030261641 0.12621933 0.12544951 0.00994401
000010 d2 3d b0 bd c7 55 b8 be 10 af 5c 3e 71 32 c4 3e
       -0.08605541 -0.36002943 0.21551156 0.38319734
000020 a4 ab d4 3e a4 80 80 bd be e3 82 3e 06 c2 b0 3e
       0.415372 -0.06274536 0.25564378 0.34523028
000030 c3 ce 40 be ba cf be 3d 7b 57 30 be d4 b2 c4 bd
       -0.18828873 0.093169644 -0.17220871 -0.09604421
000040 76 2a a8 be b8 d3 19 3e
       -0.32844895 0.1502217

weight f4 [18]
000000 c0 2f 87 3f 18 e7 f1 3e 60 e9 8e 3f 12 eb a8 3f
       1.0561447 0.47246623 1.116497 1.3196738
000010 0e b2 92 3f c6 4c 81 3f 94 79 8a 3f ab dc 90 3f
       1.1460588 1.0101554 1.0818353 1.1317343
000020 be 8f 61 3f 33 74 3f 3f 5f 17 44 3f 6f 47 66 3f
       0.8810996 0.7478668 0.7659816 0.8995275
000030 7a 70 93 3f 31 31 3f 3f 3c 1f 80 3f 04 2a 9a 3f
       1.15187 0.74684435 1.0009532 1.2044072
000040 21 aa 78 3f 01 86 b6 3f
       0.97134596 1.4259645

bias f4 [18]
000000 9b 42 ed be 69 00 86 3e bd df 04 3f 23 c4 94 3e
       -0.46339878 0.26172188 0.519039 0.2905589
000010 6c d1 80 bc ea f6 24 3e 91 40 86 3e f8 95 f4 3d
       -0.01572486 0.16109815 0.26221135 0.11942667
000020 af f4 ef 3e 29 27 04 be 5f 5f d2 be a4 cf 25 3e
       0.46866366 -0.12905563 -0.41088387 0.1619249
000030 7d a0 b7 be de 70 28 be d3 d0 1a bd da 06 2c 3e
       -0.3586463 -0.16449305 -0.037796807 0.16799489
000040 0e 39 92 be b8 82 e6 3d
       -0.28559154 0.112554014

weight f4 [12, 18]
000000 fd 93 a8 3e 68 c4 0c 3e ae 33 d6 be 1a 58 a6 be
       0.32925406 0.13746798 -0.41836303 -0.3248909
000010 ec 57 30 be 9f 29 23 3d 41 20 1e be 50 4d 8b be
       -0.1722104 0.039834615 -0.15441991 -0.27207422
000020 44 0e ea be 11 21 80 3d f2 ce 4f 3e ac ee 00 be
       -0.4571401 0.06256307 0.20293787 -0.12591046
000030 9f f7 d9 3e 4c c3 27 3e c6 df 9c 3b 4e 42 00 bf
       0.42571732 0.16383094 0.004787418 -0.5010117
000040 a4 7b df 3e 7d d8 b1 be 1c 05 85 be a4 12 9b bc
       0.43649018 -0.3473548 -0.2598046 -0.018929787
000050 13 93 dd be ab ba 97 be 7e c8 14 3e 54 fc 2d bd
       -0.4327627 -0.29634604 0.14529607 -0.042476967
000060 98 f2 55 3e ea 00 b2 3e dd 98 7e be 31 ce 61 be
       0.20893323 0.34766322 -0.24863 -0.22051312
000070 7b c7 ec 3d aa d6 24 3e 0e 32 98 bd a2 52 e7 3d
       0.115614854 0.16097513 -0.07431422 0.11295058
000080 83 de af bd f9 6b ab be fd 4a 9a 3e 6d 28 15 3f
       -0.085873626 -0.33480814 0.30135337 0.5826481
000090 b8 d3 2d bd f7 33 2f bd 32 15 be be 5c 05 6e bc
       -0.04243824 -0.042774167 -0.37125546 -0.014527645
0000a0 83 64 e6 be 15 b2 07 3f 04 17 01 3e 34 9f 13 bc
       -0.4499856 0.53006107 0.12606436 -0.009010125
0000b0 20 a1 0b bd 05 3d 20 bd 58 fa aa bd b8 9d 77 be
       -0.034089208 -0.039120693 -0.083485305 -0.24181259
0000c0 6f ad a2 3d 81 65 8c be ab 4f 23 bf 38 2b 2b bd
       0.07943236 -0.2742119 -0.6379344 -0.041789263
0000d0 b1 03 f6 3d 7c d5 08 3f 25 fc a8 3d d1 af ca bd
       0.12012423 0.5345075 0.08251218 -0.098968156
0000e0 fc d7 17 3f 56 17 ab 3e 66 a6 d2 3e 9c f1 c5 be
       0.5931394 0.3341624 0.41142577 -0.38660896
0000f0 8e d5 8e be de 70 97 3e de ee d4 3d 18 40 49 3e
       -0.27897304 0.29578298 0.10397123 0.19653356
000100 ac 0d ad be c8 92 bb be ae f2 26 3e 96 f4 3f be
       -0.33799493 -0.36635423 0.16303512 -0.18745646
000110 35 44 a1 be 91 86 a6 3e a1 ac 11 3d 28 21 eb be
       -0.3149735 0.3252454 0.035565022 -0.45923734
000120 a5 de 69 3d 31 9f 14 3e 56 5b aa be b1 fc cf 3e
       0.057097096 0.14513852 -0.3327281 0.40622476
000130 be 80 9e be b4 57 e4 3e 4d 79 a5 be 68 9f 62 be
       -0.30957597 0.44598162 -0.32319108 -0.22131121
000140 b6 24 c7 be b8 31 78 3e d5 b3 44 3e 06 a1 3c 3e
       -0.38895196 0.24237716 0.19209225 0.184208
000150 64 82 d5 bd fb aa 98 bd 1a 7e 4d 3d e0 7a 12 3e
       -0.10425261 -0.07454487 0.050169088 0.14304686
000160 82 e0 91 3d 3d 97 d3 be 50 c0 ae bd 3c c0 9f 3d
       0.071228996 -0.41326323 -0.085327744 0.07800338
000170 6a 4d eb 3d ee 22 ad bd 0e 5d 0f bf 60 6a a6 3e
       0.11489375 -0.08453928 -0.56001365 0.32503033
000180 8e d6 23 3e be 4f 37 bd e6 8c 0d 3d 32 22 70 3d
       0.15999815 -0.044753782 0.0345582 0.05862636
000190 ce 5f 74 be 0f 7c 85 bb f5 d6 18 bf 50 b5 75 bd
       -0.23864672 -0.004073627 -0.59703 -0.059987366
0001a0 7e e3 3c 3e c9 11 a3 3d d5 55 38 3e 26 3f 10 3e
       0.18446156 0.079623766 0.18001492 0.14086589
0001b0 07 cb 1f be 0b ad b5 3d bb d2 b6 bd 9d 1c 05 3e
       -0.15604793 0.08870896 -0.089269124 0.12999196
0001c0 f0 ac 9d 3d cf dd 6b ba ea 5c bd 3c 72 8e 82 3d
       0.07699001 -0.00089975906 0.023115594 0.063748255
0001d0 65 34 17 3c 5d 9b df bd 5c 67 33 be 33 b7 ad 3d
       0.0092288 -0.10918305 -0.17519897 0.08482208
0001e0 0a 60 ea bc bc 71 23 3d d3 48 02 bb 54 c5 87 3d
       -0.028610248 0.039903387 -0.0019879832 0.06629434
0001f0 2f 22 e4 bd 3c 4b 7f 3d 21 e0 d2 bb 14 4c 00 3e
       -0.111393325 0.06232761 -0.0064354097 0.12529022
000200 55 d7 69 be 00 4a 14 3f 53 3c 70 be a1 30 35 3e
       -0.22836049 0.57925415 -0.23460512 0.17694332
000210 d9 65 18 bf a3 16 75 3e 2c ba 62 3d 6f 4e be 3e
       -0.5953041 0.23934416 0.05535333 0.37169215
000220 d9 d2 7e be 33 ef b0 3e 0d 11 1e bf a1 03 cc bd
       -0.2488512 0.34557495 -0.6174477 -0.0996163
000230 b9 d7 4d 3e 43 48 0f 3f 9e e3 78 be 8a 61 e8 3d
       0.20101823 0.5596964 -0.24305579 0.11346729
000240 e9 ee e3 bd 05 16 3e bf 3c 6d 70 bd 5b 0d e2 3b
       -0.11129553 -0.7425235 -0.058697924 0.0068985648
000250 96 22 8d 3d 3c 35 2b bd aa e8 04 3e 88 52 6d 3f
       0.06891362 -0.041798815 0.1297938 0.9270406
000260 e6 bf 86 3e b9 b5 6e 3c cd bb a8 be 87 f7 e7 3e
       0.26318282 0.014569693 -0.3295578 0.45306036
000270 b6 6a 5a be cf d6 11 be 5c e1 0a be 96 74 c8 3e
       -0.2132977 -0.14242099 -0.1356253 0.39151448
000280 b7 85 0d bf 57 af 47 3e 0a 4e 39 bd 5a 35 87 bd
       -0.5528216 0.1950048 -0.04524044 -0.06601973
000290 72 45 20 bf 23 97 b4 3e 70 bb 99 3e 6c 21 8a bc
       -0.62605965 0.35271558 0.30025816 -0.01686164
0002a0 c8 66 30 be eb 41 8f be d4 57 7a be 04 81 ed 3c
       -0.17226708 -0.2797998 -0.24447566 0.028992184
0002b0 5c df 70 3e dd c0 ac be 89 f5 45 3e e1 d0 bc be
       0.23522705 -0.33740893 0.19331945 -0.36878112
0002c0 62 e6 31 bd 1c 2d 89 3e 38 60 a7 be 85 92 af be
       -0.0434326 0.26792228 -0.32690597 -0.34291473
0002d0 81 32 aa be cc 1f 0a be bf b7 e1 3d bb ba 84 3e
       -0.33241656 -0.13488692 0.11021375 0.25923714
0002e0 b6 a5 b3 3e 6a bd 1f bd 73 d8 cd 3e 97 de 06 3e
       0.35087365 -0.038999 0.402042 0.13170849
0002f0 a5 c7 77 be c4 29 fc 3e 22 26 86 3e c8 e4 3a bc
       -0.24197252 0.49250615 0.26200968 -0.011407085
000300 27 02 dd be e5 63 38 be dd 5c 17 bf a8 1c 7d 39
       -0.43165705 -0.18006857 -0.59126073 0.00024138635
000310 fe 06 02 3f 5a e4 c0 be 4a 96 18 3f 22 9e 48 bd
       0.5079192 -0.37674218 0.5960432 -0.048978932
000320 36 d5 9a 3d 9f bb 54 be 77 5f eb 3d a7 ac 92 be
       0.07560198 -0.20774697 0.11492818 -0.28647348
000330 18 c5 9a be e8 46 94 be 0b 3e 45 be 00 48 99 be
       -0.30228496 -0.28960347 -0.19261949 -0.29937744
000340 34 7e 93 3e d1 0c 8c be 2f 39 91 3e 1d ae b6 3e
       0.28807223 -0.27353528 0.2836394 0.35679713
000350 19 67 87 3e 45 ab 3b 3d d8 38 2f be 59 fb 9c 3e
       0.26445845 0.045817632 -0.17111528 0.30660513

bias f4 [12]
000000 7b 8f df be 88 e1 2d be 17 dc 78 be 7c 23 22 be
       -0.43664154 -0.16980565 -0.24302708 -0.15833849
000010 4c 04 a4 bd 91 4e 54 3d d6 6a bd be 04 a6 42 be
       -0.08008632 0.05183274 -0.36995572 -0.19008642
000020 87 5c 78 be 5d 2c ff bd e3 9d dd bc 15 7c 3a bd
       -0.24254046 -0.124596335 -0.027052825 -0.04552849

weight f4 [18, 12]
000000 f5 9c 93 be eb 06 0a 3e b3 9a 1f be 64 d9 d9 be
       -0.28830686 0.13479201 -0.15586357 -0.42548668
000010 4c b3 90 3d a0 32 12 bf 8e 0a 6f 3e c6 aa 0e bf
       0.07065448 -0.571085 0.2334387 -0.5572933
000020 15 77 71 3d 03 0a 05 be 12 6b 25 be 96 b0 8a be
       0.058951456 -0.129921 -0.16154125 -0.2708785
000030 39 9f 5c bd 1e b7 f3 be fa 4f 8a 3e 71 71 5c 3e
       -0.053862784 -0.47600645 0.27014142 0.2152765
000040 44 31 e8 3e 40 39 4d 3e 71 da 48 bd 5d 4a f3 bd
       0.45350087 0.2004137 -0.049036447 -0.11879418
000050 7f 08 30 3e 2d f8 fe bd 48 78 95 3e f1 2f af 3e
       0.17190741 -0.124496795 0.2919333 0.34216264
000060 1c d8 21 3f 3c d5 2b bc 28 3d 77 3e 31 db d7 bd
       0.6322038 -0.010487851 0.24144423 -0.10539854
000070 11 f6 ac be bc 05 c3 3d 6f b7 9f bd 5a b8 3c 3f
       -0.33781484 0.09522578 -0.07798659 0.737188
000080 4e c3 d0 bc 0c 13 11 bc 33 97 78 bd 82 d1 ea 3d
       -0.025483754 -0.008854639 -0.06069107 0.11465742
000090 7d a0 a8 3e cc a0 0e 3f d3 ca 84 3e 67 73 0e 3f
       0.32934943 0.55714107 0.25935993 0.5564484
0000a0 b5 5d 94 be 5e 66 b9 3e 60 cb 10 be 03 e6 9f be
       -0.28977743 0.36210912 -0.14140081 -0.31230173
0000b0 2c 1d ab 3e 72 c6 36 3d da 99 af be ac 20 e5 bd
       0.33420694 0.044622846 -0.34297067 -0.11187872
0000c0 65 e7 19 bf 0e db 01 be 68 d3 54 3c 58 6f ca be
       -0.60118705 -0.12681219 0.012989856 -0.39538074
0000d0 45 c2 96 3d 22 a1 9c bd f7 85 4e 3e 92 7c 01 be
       0.07361273 -0.07647921 0.20168291 -0.12645176
0000e0 11 0a 54 3d 15 b1 8f 3e e3 2d dd 3e 28 16 f8 bd
       0.051767413 0.2806479 0.4319907 -0.12113601
0000f0 f3 fa 23 3e 29 85 06 3f ac 67 3d be e8 e4 88 3e
       0.16013698 0.52546936 -0.18496579 0.26737142
000100 82 21 10 be a9 6e e9 39 2a a8 78 3d 53 b5 6c 3e
       -0.14075282 0.0004452367 0.06070725 0.23116045
000110 56 a6 8b 3e 98 d1 74 3e c8 93 9a 3e 26 fe e9 3d
       0.27275342 0.23908079 0.30190873 0.11425428
000120 90 53 ef 3d 94 12 a0 3b af 8c c0 3e d1 83 d9 bc
       0.1168586 0.004885027 0.37607333 -0.026552113
000130 e1 eb 95 3e b7 29 bc 3d 50 45 a3 3d 9a 6d d6 3e
       0.29281524 0.09187644 0.07972205 0.41880494
000140 70 c1 b1 3e 88 73 f4 3e 04 43 95 be 32 78 8a bc
       0.34717894 0.47744393 -0.2915269 -0.016903017
000150 50 e8 a7 3e b9 30 60 3e 29 8e 03 be 1a 21 fd bd
       0.32794428 0.21893586 -0.12847199 -0.12359829
000160 b6 6b 2d 3f 80 12 00 3e 72 db 1c 3e c9 57 ec 3d
       0.6774248 0.12507057 0.15318087 0.11540181
000170 a5 9a e7 be 1b 52 f4 3d 1a 6c 99 be 6d e6 9c 3e
       -0.45235172 0.11929723 -0.29965287 0.3064455
000180 f2 da 27 3f 96 ca e8 3d f9 e3 d8 bd fa c3 19 bf
       0.6556846 0.11366765 -0.10590357 -0.6006466
000190 76 ff 1d bd c1 1a 2c 3e 27 37 8a be 38 f8 8f be
       -0.038573705 0.16807081 -0.26995203 -0.28119063
0001a0 e1 b4 4a bd 8a 52 20 3f 7b 60 11 3e 6e 47 ff 3e
       -0.049488906 0.62625945 0.1419696 0.49859184
0001b0 a5 ef 80 3e 2c 6f e5 3d cc 07 9c 3e dc 4f 3a 3e
       0.25182834 0.11202845 0.304747 0.18194526
0001c0 29 e5 a2 3e 89 43 9f be 72 1b 82 3e b5 2b a2 be
       0.3181546 -0.31106213 0.25411564 -0.3167397
0001d0 0a 1d d7 bc d3 f2 06 3d f0 7c 75 be df ba 52 3e
       -0.026258964 0.03294642 -0.23973441 0.20579098
0001e0 4f 3d 27 3e 63 79 a3 be 46 3d 8f 3d 95 1a 7d 3e
       0.16331981 -0.31928548 0.06994109 0.24717171
0001f0 df af f9 be 48 13 76 bd 74 cf 07 3d 43 86 e7 be
       -0.48766991 -0.06007698 0.033156827 -0.4521962
000200 7e 98 a3 be 67 aa 07 bf 24 a9 09 3e 35 37 5a be
       -0.3195228 -0.5299439 0.13443428 -0.21310122
000210 dc d6 af 3e 19 bc f6 3c f1 25 26 bf ec 70 19 3f
       0.34343612 0.030118989 -0.64901644 0.5993793
000220 6a ae f0 bd 92 c5 21 3e bf 24 5c bd 5f ab be bc
       -0.11752017 0.15798023 -0.05374598 -0.023275075
000230 a6 0d 41 be a3 19 12 3e 3f 14 90 3e c9 71 4b 3f
       -0.18852863 0.14267592 0.28140447 0.794705
000240 12 83 91 be 1d 7e d6 bc 96 1e 52 be a5 66 e1 be
       -0.2842031 -0.026183182 -0.2051948 -0.44023624
000250 ba 2b 0c 3e 15 46 65 be 95 84 03 3c 5e 24 eb 3d
       0.13688555 -0.22390015 0.0080272155 0.11481546
000260 1f c7 41 bd 5c b1 19 3e 19 e1 b6 be 24 16 0b bf
       -0.047309037 0.15009063 -0.3571861 -0.5433066
000270 26 d7 16 bf 0e d9 b1 3e 99 78 86 be 82 af cd 3d
       -0.5892204 0.34735912 -0.26263884 0.10043241
000280 4a 6c b6 3e 0f 29 0b 3c 8e b6 18 3d 5a 51 d1 3e
       0.35629493 0.008493676 0.037283473 0.4088238
000290 9a 08 bf bd 7d ad 97 bd 59 4e f1 be d2 67 0f bd
       -0.093278125 -0.07406137 -0.47130087 -0.03501112
0002a0 98 2c 02 be d8 c9 51 bc a6 03 c1 3e b9 5e d5 3d
       -0.12712324 -0.012804471 0.37698096 0.104184575
0002b0 ce e9 fa bc 9c 55 1b 3e 78 65 6d 3d dc 56 da be
       -0.030629065 0.15169376 0.057958096 -0.42644393
0002c0 08 42 29 3f c8 c3 4a ba e4 4f e2 be 71 f9 39 bd
       0.6611638 -0.0007734862 -0.44201577 -0.0454039
0002d0 dc 7b c9 bd 36 d1 07 bb d6 89 89 be 43 e3 bd be
       -0.098380774 -0.0020724065 -0.26862973 -0.3708745
0002e0 7c 32 b6 3e 29 d3 5c 3d ff 33 fa bd 4c e0 0c 3f
       0.35585392 0.053912316 -0.12216949 0.5502975
0002f0 9d d7 f5 be a2 9d 4f bd 65 1e a1 be 22 4d 26 3e
       -0.48016062 -0.05068744 -0.31468502 0.16240361
000300 b3 bd 32 3e 5e 72 80 be 0c 45 35 3d 89 62 b8 be
       0.17455177 -0.25087255 0.0442553 -0.36012676
000310 28 84 8f be 00 68 b3 be 1e 20 1a 3e 03 1f 87 3d
       -0.28030515 -0.35040283 0.15051314 0.06597712
000320 68 6d cb 3e 33 9d 8f bc 7e 9b 23 3e 32 a1 04 3d
       0.39731908 -0.017531013 0.15977284 0.03238029
000330 f9 bb 08 3e 01 ac 4e be 67 39 e1 bd 8d 22 53 3d
       0.13352956 -0.20182802 -0.10997277 0.051546622
000340 3c 96 d2 be 81 c3 54 3d 7b df 1a 3d f0 5d 26 bd
       -0.41130245 0.05194426 0.037810784 -0.04061693
000350 63 24 b7 3e 9f d4 44 bd 3c 5e d9 3e f5 2a 83 3e
       0.35769948 -0.048054334 0.42454708 0.2561871

bias f4 [18]
000000 38 61 58 be e5 e5 4c 3e 4e 24 35 3d 39 39 f2 3d
       -0.21130836 0.20009573 0.044224076 0.118273206
000010 e5 9e e6 be 7a d3 29 bd 6e fd e9 3c ac 84 ad 3e
       -0.45043102 -0.041461445 0.028563228 0.33890283
000020 7e 67 ba bd 37 1c fe bc 09 c0 aa 3d 16 87 b1 3e
       -0.09101771 -0.031019313 0.08337409 0.34673375
000030 32 d4 a1 be 24 6d 76 be fe 24 ae 3d 23 47 d3 3e
       -0.31607205 -0.24065071 0.085031494 0.4126521
000040 b5 b9 85 be 4a a6 ba bd
       -0.26118246 -0.09113748

weight f4 [18]
000000 e3 44 de 3f af 88 0d 40 51 37 12 40 0a 2b e6 3f
       1.7364773 2.2114675 2.2846262 1.7981884
000010 1b e5 8e 3f 03 bd b1 3f ee 8b f7 3f 1b da c1 3f
       1.1163667 1.3885807 1.9339578 1.5144686
000020 3d 71 b9 3f 5c 73 18 40 f0 ff 0b 40 cd 04 98 3f
       1.4487683 2.382041 2.1874962 1.1876465
000030 88 8a 08 40 b7 14 c4 3f c8 12 f1 3f 57 29 db 3f
       2.1334553 1.5318822 1.8833857 1.7121991
000040 6e 87 e6 3f f2 2f f4 3f
       1.801008 1.9077132

bias f4 [18]
000000 d2 2e 43 3e 38 e6 20 be 22 f7 06 bf 24 88 94 bc
       0.1906083 -0.15712821 -0.52720845 -0.018131323
000010 1a 5f 90 3d 6d 84 3b bf 33 0b c7 be 8d c0 7a 3e
       0.07049389 -0.7324894 -0.38875732 0.24487515
000020 97 df 70 bc b9 12 c4 bd 66 2b ed 3e 89 86 88 be
       -0.0147017455 -0.095738836 0.46322173 -0.26665142
000030 a4 60 00 3f 4a 6e 5a 3e 56 bb 88 3e 52 f2 0c bd
       0.5014746 0.21331134 0.26705426 -0.034410782
000040 55 e8 83 be 1e 01 c8 3d
       -0.25763193 0.09765838

weight f4 [10, 18]
000000 85 80 c5 be a3 58 3a bf df e3 8e 3f 6a d6 77 3f
       -0.38574615 -0.727915 1.1163291 0.96811545
000010 2e 1c f1 be 99 27 2d 3e 22 db db bd 2f 20 ee be
       -0.47091812 0.16909637 -0.10735156 -0.4650893
000020 e1 63 f1 3e 1e a0 0c 3e 98 e1 9d 3e 04 59 3f be
       0.47146514 0.13732955 0.30836177 -0.186863
000030 15 ca 14 be 04 52 ac be 97 b9 2b bf 0d a4 18 bc
       -0.14530213 -0.33656323 -0.6708006 -0.0093164565
000040 c8 5a 41 3f 5f 3c d0 3d 85 ee 7d bf 1b c3 5f 3f
       0.75529146 0.10167765 -0.99192077 0.8740708
000050 62 88 35 3d 19 61 91 be 5c e6 cb 3e 69 12 b1 bd
       0.044319518 -0.28394392 0.39824188 -0.086460896
000060 27 45 90 be c7 23 eb 3e c5 6a a3 be 26 68 22 bf
       -0.2817776 0.45925733 -0.31917396 -0.6344017
000070 9f 0f 0a 3f f5 3f 75 3d 5d 11 05 3f 0e a7 f7 3d
       0.53930086 0.059875447 0.5197962 0.1209241
000080 89 6f b2 be 2f 47 25 3f d4 67 12 bf 5d 57 20 be
       -0.3485072 0.6456174 -0.5718968 -0.15658326
000090 18 4f 5f 3f 65 62 8e be ef 2b 13 be dd 4a f1 be
       0.8723006 -0.27809444 -0.14372228 -0.4712743
0000a0 91 66 3b be f1 f1 91 be 95 d8 44 bf aa 77 6d be
       -0.18300845 -0.285049 -0.7689298 -0.2319018
0000b0 d1 7d 8d be 0b d9 69 bd 06 8b ff 3e 9d 93 a5 be
       -0.27635053 -0.057091754 0.49910754 -0.32339182
0000c0 bb 20 de 3d 38 ab d8 3e cc a2 19 bf 64 99 3d 3f
       0.108460866 0.4231813 -0.60014033 0.7406218
0000d0 ef 1b f8 3e e0 36 cf 3e 5b 1b b3 3e 12 c4 80 be
       0.48458812 0.40471554 0.34981808 -0.2514959
0000e0 10 55 2b bf 86 b5 6f 3e 34 25 7a be 6f 3f 8f 3e
       -0.6692667 0.2340909 -0.24428254 0.27978083
0000f0 90 63 a4 3d a2 ee fe 3e 91 ca a7 3d 4f 0b f4 3e
       0.080268025 0.49791437 0.08192933 0.47664878
000100 cd 6e d2 3d 39 a9 d1 3e ed 85 e1 3c 7f bb 6f 3e
       0.1027504 0.4094942 0.027529681 0.23411368
000110 d6 cf 0e bf 87 07 11 3e ac a0 ba be 3d bc 39 bf
       -0.5578588 0.14163028 -0.36450708 -0.72552854
000120 77 a2 79 3e d5 c0 1c 3d a9 3e 09 be b9 e4 f1 be
       0.24378382 0.038269836 -0.13402809 -0.47244814
000130 b1 52 01 3c 8c 97 67 bd 97 e7 2c 3e f7 b4 7b 3e
       0.00789325 -0.05654101 0.1688522 0.24580751
000140 f2 1f 69 3e 12 83 57 bf 2a 39 41 bf c9 78 cf be
       0.22766092 -0.8418437 -0.7547785 -0.4052184
000150 b4 5d 05 3f 9f 08 42 be 20 c7 ba 3e 70 65 62 be
       0.52096105 -0.18948601 0.36480045 -0.22109008
000160 27 63 5c 3e 0e dd a1 3e 98 84 76 be 94 34 fa 3e
       0.21522199 0.31613964 -0.24074018 0.4886824
000170 cf 2f 30 be 68 fe ca 3e 31 51 93 3d ea 88 64 bc
       -0.17205738 0.39647222 0.071932204 -0.0139486585
000180 51 d8 3c 3f 5d 77 5d be 67 c6 32 bf 71 70 d7 3e
       0.7376757 -0.21627565 -0.6983399 0.42077973
000190 04 d7 67 3e 78 7b 62 be 46 22 1e bf 19 29 27 3f
       0.22640616 -0.22117412 -0.6177105 0.65297085
0001a0 7f 61 fa 3e ba ff 4f 3a eb 0a 61 be cf f7 f8 be
       0.4890251 0.00079345296 -0.21976821 -0.48626563
0001b0 23 d5 15 be b7 2d 08 3f bb 3b 57 3f ad bb 36 bd
       -0.14632086 0.53194755 0.84075516 -0.044612575
0001c0 f4 92 32 3d be 36 88 3f b9 c9 d1 be 30 b4 f0 be
       0.043597177 1.0641706 -0.40974215 -0.47012472
0001d0 2f 06 5d be 2a 98 99 bf 06 d3 b2 be 85 16 ac 3e
       -0.2158439 -1.1999562 -0.34926623 0.3361093
0001e0 03 4f 34 bf 82 ef 34 3e 14 64 04 bf 68 56 5b be
       -0.7043306 0.1766949 -0.5171521 -0.2141968
0001f0 de a3 0a 3f 5c a8 1b 3f 1c 8b 75 3d 57 84 2e bf
       0.5415629 0.6080377 0.05994712 -0.68170685
000200 47 73 03 bf a5 b4 d7 3e 45 06 3d be d8 cd cc be
       -0.51347774 0.42130008 -0.18459423 -0.40000796
000210 b0 f6 ed be 80 f9 ac 3e ee 91 4f be f1 eb 97 be
       -0.4647727 0.33784103 -0.20270512 -0.29672197
000220 30 f8 55 3f 2d 8c 9b bd a6 3d 5f 3f b2 c3 45 3d
       0.8358183 -0.07595096 0.87203443 0.048282333
000230 4f 6d ed 3e ac e0 82 be b9 3d b7 be 29 a5 c4 3e
       0.46372458 -0.25562036 -0.35789278 0.38407257
000240 b2 b0 7d 3e 04 62 fb 3e fc 83 20 be 40 24 eb be
       0.24774435 0.49098217 -0.15675348 -0.45926094
000250 5e e2 99 3e 70 e6 e8 bd b5 c6 dc bd 35 e1 c3 be
       0.30055517 -0.113720775 -0.10780088 -0.38257757
000260 09 ef 3a 3e d5 32 16 3f c6 26 b4 3c 9c fb 3a 3e
       0.18255247 0.58671314 0.021991145 0.18260044
000270 0a 11 c2 be 1c 76 01 bf 24 45 64 be b7 3f 97 be
       -0.37903625 -0.50570846 -0.22292 -0.29540798
000280 82 88 83 3d 54 d3 74 3e 1c 94 ec bd 23 bf 1b bf
       0.06422521 0.2390874 -0.11551687 -0.60838526
000290 23 74 29 be ca 71 d0 bd 4c 1b 30 be 3d 6b 4f 3e
       -0.16548209 -0.101779535 -0.17197913 0.20255752
0002a0 65 f2 24 3f 29 94 88 3e 5e 04 62 3e 41 7d 04 3f
       0.64432365 0.26675537 0.22071978 0.5175362
0002b0 db e7 0c bf 64 95 27 be b2 69 1f 3f ad 9b bd be
       -0.55041283 -0.16365582 0.62270653 -0.37032834
0002c0 a1 67 f7 3e a4 1a 08 bf 83 b1 48 be 77 d1 c4 3e
       0.4832125 -0.5316565 -0.19598965 0.3844106

bias f4 [10]
000000 47 1c 0c bf 40 e9 8b bd 91 e0 b2 3e 77 89 ae 3d
       -0.5473065 -0.06831598 0.34936956 0.08522313
000010 91 6f 29 3e dc ae 65 bb 9b ac 1f bf 13 5a 23 3f
       0.16546465 -0.0035046851 -0.6237275 0.6380932
000020 12 92 ac 3e a5 f3 bf be
       0.33705193 -0.37490574
