Case_Study_1/trained_transformer/verification/vit_24_4_6_32.pt (torch, 105994 bytes, 52 tensors)

pos_embedding f4 [1, 50, 24]
0	0x3bcc88ca	0.0062418925
1	0xc023a093	-2.5566757
2	0x3efbfc06	0.49215716
3	0x3fab5dbb	1.3387979
4	0x3f5a9d43	0.8539621
5	0xbe4d3b55	-0.20042165
6	0xbf4e2333	-0.8052246
7	0xbf719781	-0.943718
8	0xbf4af5c9	-0.7928129
9	0xbfd9d397	-1.7017697
10	0xbf8c5150	-1.0962315
11	0x3f5a1045	0.85181075
12	0x3fced3f7	1.6158437
13	0xbf73e8e7	-0.95277256
14	0x3f27601e	0.6538104
15	0xbd3607ec	-0.04444115
16	0xbf921fce	-1.1415956
17	0xbfa518a7	-1.2898148
18	0x3f29c320	0.6631336
19	0xbe3dd17f	-0.18536948
20	0xbf5bb9ce	-0.8583039
21	0xbf8baa0e	-1.0911272
22	0xbe401eaf	-0.18761705
23	0xbe74f5d4	-0.23921901
24	0x3e889272	0.2667423
25	0x400c3adf	2.1910932
26	0x3f28ddd7	0.659635
27	0xbfc4043e	-1.5313795
28	0xbfa6ca05	-1.3030401
29	0xbf14bf99	-0.58104855
30	0xbed1994c	-0.4093727
31	0x40238776	2.5551429
32	0x3dce41c5	0.10071138
33	0x3f36341f	0.7117328
34	0xbea29676	-0.31755418
35	0x3fdfa78a	1.7473004
36	0xbf38700c	-0.7204597
37	0xbd475b8a	-0.048671283
38	0x3f8d0cc8	1.1019526
39	0x3d59df4d	0.05319147
40	0x3ef163b5	0.47146383
41	0xbeb2fde1	-0.3495932
42	0x3fb365fb	1.4015497
43	0x3fc28b9f	1.5198859
44	0xbfa148ef	-1.2600383
45	0x3ed00711	0.4063039
46	0xbf2f31fa	-0.68435633
47	0xbfb2026f	-1.3906993
48	0x3f67a572	0.90486825
49	0x3f93dd14	1.1551843
50	0x3f4820fd	0.78175336
51	0xbf741208	-0.95340014
52	0xbd8872b3	-0.06662502
53	0xbe20caa4	-0.15702301
54	0x3ead6d32	0.33872372
55	0x3eb9ea78	0.36311698
56	0x3f16f822	0.5897237
57	0xbf1224d3	-0.5708744
58	0x3f77470c	0.96592784
59	0xbfcaba7a	-1.5838158
60	0xbfaac10a	-1.3340161
61	0x3f229ed8	0.63523626
62	0x3f04c184	0.5185778
63	0x3ee31474	0.44351542
64	0xbfc2b251	-1.5210668
65	0xbf026c7d	-0.5094679
66	0xbf217b8e	-0.63079154
67	0xbea4f88a	-0.3222087
68	0xbec3c0f7	-0.38233158
69	0x3e0364eb	0.12831466
70	0xbe953b79	-0.29146937
71	0x3fc607ea	1.5471165
72	0xbed3d27f	-0.41371533
73	0x3f31dd01	0.6947785
74	0x3ef9e868	0.48810124
75	0xbf193a92	-0.59854996
76	0xbf71d860	-0.9447079
77	0xbeace51b	-0.33768544
78	0xbf9eee4d	-1.2416474
79	0xbddaffdf	-0.10693335
80	0x3f308da7	0.68966144
81	0xbe94feb8	-0.29100585
82	0x3e5f187b	0.21786682
83	0xbfcbb7e0	-1.5915489
84	0x3fa99012	1.3247092
85	0x3fd21d62	1.6415217
86	0xbce529ac	-0.027973972
87	0xbf9d62e6	-1.2295806
88	0xbf32c292	-0.6982814
89	0x3f3a26e6	0.72715604
90	0xbf47e6bb	-0.7808644
91	0x3e433316	0.19062456
92	0xbf818d1e	-1.012119
93	0xbddca06a	-0.10772784
94	0xbee07423	-0.43838605
95	0x3f9d0a21	1.2268716
96	0xbf08b9c6	-0.5340847
97	0xbec8df98	-0.39233088
98	0x3f1c0864	0.60950303
99	0xbf8858f0	-1.0652142
100	0xbe98e49e	-0.2986192
101	0xbef16626	-0.47148246
102	0xbf9ea2c3	-1.2393421
103	0xbd9f0892	-0.077653065
104	0xbea9fd6e	-0.33201164
105	0xbfb4ddf9	-1.4130241
106	0xbe1e8042	-0.15478614
107	0x3e8f2658	0.2795894
108	0x3e76fe29	0.24120392
109	0xbf9494b8	-1.1607885
110	0x3dab3219	0.08359165
111	0xbf311fc1	-0.6918908
112	0x3f02eef3	0.5114586
113	0xbe9be011	-0.30444387
114	0x404692f8	3.1027203
115	0xbed338c3	-0.41254243
116	0xbfc6e9db	-1.5540117
117	0x3f8e31bf	1.1108931
118	0xbfa4e2ae	-1.2881677
119	0xc011879b	-2.2739017
120	0x3f330064	0.6992247
121	0x3fa500d5	1.2890879
122	0x3fab414c	1.3379302
123	0xbf006b58	-0.50163794
124	0x3e911e95	0.28343645
125	0x3df5a88a	0.11995037
126	0x3ec2da3e	0.3805713
127	0x3faf7dd5	1.3710276
128	0x3ef39796	0.47576588
129	0xbf632f4b	-0.8874404
130	0x3eb4b7af	0.3529639
131	0x3fa8096b	1.3127874
132	0xbfb68146	-1.4258201
133	0xbfb1109a	-1.3833191
134	0x3fed485b	1.8537706
135	0x403f8e8f	2.993076
136	0xc0200ca4	-2.5007715
137	0xbe11e6a8	-0.14248145
138	0xbf3ac2b0	-0.7295332
139	0xbede1efb	-0.4338301
140	0xbf642b97	-0.8912901
141	0x3fae71f2	1.3628523
142	0x3f573a64	0.8407347
143	0x3f5e986d	0.86951333
144	0x3fa273a6	1.2691543
145	0x4019bc56	2.40212
146	0xbda4e775	-0.080519594
147	0xbf567c38	-0.8378329
148	0xbdd98b18	-0.10622233
149	0x3eb13ce3	0.34616765
150	0x3e42bff7	0.19018541
151	0x3f843cce	1.0331056
152	0x3f5bbbf5	0.85833675
153	0xbf607c88	-0.8769002
154	0x3e3a65a5	0.18202837
155	0xbe2d6a79	-0.16935147
156	0xbd99ef2b	-0.07516321
157	0xbf36482b	-0.7120387
158	0xbffea05f	-1.9892691
159	0xbefae1a4	-0.49000275
160	0xbfaeb0a5	-1.3647658
161	0x3e0862ca	0.13318935
162	0xbf212189	-0.62941796
163	0xbe4188c5	-0.1889983
164	0x3f94b40d	1.1617447
165	0xbf8c4ca0	-1.0960884
166	0x3deaa598	0.11457366
167	0x3e979cdc	0.29611862
168	0x3e6016dd	0.21883722
169	0x3e3a4cde	0.18193385
170	0xbf736ff0	-0.9509268
171	0xbf1db1fc	-0.6159971
172	0xbe2e5cb3	-0.1702755
173	0xbf147d10	-0.5800333
174	0xbf259825	-0.6468528
175	0x3ea1cd56	0.3160197
176	0xbf0f485a	-0.55969775
177	0xbf5a63de	-0.85308635
178	0xbfabfbff	-1.3436278
179	0x3ead284c	0.33819807
180	0x3d0f5be3	0.03499974
181	0xbf5755e1	-0.84115416
182	0x3ecae828	0.39630246
183	0x3f148f3d	0.58031064
184	0xbe94e08d	-0.2907757
185	0x3d89af47	0.067228846
186	0xbe877967	-0.2645981
187	0xbf562042	-0.8364297
188	0xbfea6010	-1.8310566
189	0x40014640	2.0199127
190	0xbf16dae9	-0.5892778
191	0xbf13f05e	-0.57788646
192	0x3d9e38dc	0.07725689
193	0xbf6ed6b8	-0.93296385
194	0xbed253a4	-0.41079438
195	0x3dbbb4c5	0.091653384
196	0x3f0e05b3	0.55477446
197	0xbeb7677a	-0.35821134
198	0xbf8b82bb	-1.0899271
199	0xbfbc9975	-1.4734331
200	0x3feabf3f	1.8339614
201	0xbe3c66e1	-0.1839862
202	0xbd0c3669	-0.034231577
203	0x3f835d67	1.0262879
204	0xbbcdbd12	-0.0062786425
205	0x3d8c8782	0.068617836
206	0xbfd27007	-1.6440438
207	0x40436d9a	3.0535645
208	0xbf423c97	-0.758737
209	0x3d73d70c	0.059531257
210	0x3ea3a346	0.31960505
211	0x3fa69840	1.3015213
212	0xbf8dff43	-1.1093525
213	0xc023ef6d	-2.5614884
214	0xbfe3c6b4	-1.7795014
215	0x3f47bea5	0.78025275
216	0x3faaa8a9	1.3332721
217	0x3f0abadc	0.54191375
218	0xbf8f4071	-1.1191541
219	0x3f106747	0.5640759
220	0xbe8f03ed	-0.27932683
221	0x3f780bc1	0.96892935
222	0x3dc7d29b	0.09756967
223	0x3f567255	0.83768207
224	0xbeb3031a	-0.34963304
225	0xbf21644a	-0.63043654
226	0xbfba6d64	-1.4564633
227	0xbebb6c6c	-0.36606157
228	0xbe5aaa5a	-0.21354046
229	0xbfaf1d8e	-1.3680894
230	0xbfc77eb2	-1.5585539
231	0x3fa0c500	1.256012
232	0x3ddecb55	0.10878626
233	0x3f5fade1	0.87374693
234	0xbf1e299e	-0.6178225
235	0x3f007b23	0.5018789
236	0xbe0fef42	-0.14056113
237	0xbe2cae57	-0.1686338
238	0x3f35e9c5	0.7105983
239	0x3ef92ae0	0.48665524
240	0x3f76bbda	0.9638039
241	0xbd3b4527	-0.045720246
242	0xbe9cdc7d	-0.3063697
243	0xbf24e407	-0.6441044
244	0xbf2e67e0	-0.6812725
245	0x3e984411	0.2973943
246	0xc0126063	-2.287133
247	0xbf9f9b5a	-1.2469285
248	0xbf806d11	-1.0033284
249	0xbf123564	-0.5711272
250	0xbf19e71f	-0.6011829
251	0x3f775e89	0.96628624
252	0xbd26893f	-0.04065823
253	0x3fb07b45	1.3787619
254	0x3f317ffd	0.6933592
255	0xbf09f446	-0.53888357

cls_token f4 [1, 1, 24]
0	0xbe81efbd	-0.25378218
1	0xbf089735	-0.53355724
2	0xbfe81457	-1.8131207
3	0x3fa33ea6	1.2753494
4	0x3b623eeb	0.0034522365
5	0x4054769e	3.3197398
6	0xbb7be636	-0.0038436777
7	0x3edd74c9	0.43253163
8	0x3fae7741	1.3630143
9	0xbdc9e546	-0.098581836
10	0x3e5fb938	0.21847999
11	0x3e924cb0	0.28574133
12	0x3fbd6bb9	1.4798499
13	0x3f54bb13	0.8309795
14	0xbfb52121	-1.4150735
15	0xbe93e1a4	-0.28883088
16	0x3f1ef6eb	0.62095517
17	0xbed8b8a8	-0.42328382
18	0x3e338134	0.17529756
19	0xbfb5d156	-1.4204509
20	0xbfb7a6bc	-1.4347758
21	0xbe5178bb	-0.20456211
22	0x3f64ba96	0.8934721
23	0x3f48244f	0.781804

weight f4 [24, 16]
0	0x3e0d2683	0.13784222
1	0x3eb5a0ef	0.35474345
2	0x3e94553a	0.28971273
3	0x3e8128cf	0.25226447
4	0x3e847159	0.25867727
5	0x3e9babd5	0.30404535
6	0x3dae3ace	0.0850731
7	0xbdcf8d62	-0.101343885
8	0x3e2d75da	0.16939488
9	0x3e39efbc	0.18157858
10	0x3cef1aa2	0.029187504
11	0xbf043e35	-0.5165742
12	0x3f0042a7	0.50101703
13	0xbc029cea	-0.007971982
14	0xbe450cea	-0.19243208
15	0xbeb39d29	-0.3508084
16	0x3f0fcc91	0.5617152
17	0xbe62a73d	-0.22134109
18	0xbf11eaa1	-0.5699864
19	0xbefe66cb	-0.496878
20	0x3b96ec75	0.0046058246
21	0xbe6411ee	-0.22272465
22	0xbeebba20	-0.4604044
23	0x3bbc251c	0.0057417285
24	0xbec6187e	-0.3869056
25	0xbeff4612	-0.49858147
26	0xbed5bf29	-0.41747406
27	0xbcfe5934	-0.031048395
28	0xbf2febe2	-0.68719304
29	0xbf304e67	-0.6886963
30	0xbeb604e2	-0.355506
31	0xbe6ebefd	-0.23315044
32	0x3e8eadcc	0.27866971
33	0x3ed438b3	0.41449508
34	0x3ed4ef22	0.41588694
35	0x3e80c683	0.25151452
36	0xbdbfcb4c	-0.09364948
37	0x3eb7c6ed	0.35893956
38	0x3d928dfe	0.07155989
39	0x3cef5333	0.029214477
40	0x3e74a810	0.23892236
41	0x3f2a3dad	0.6650036
42	0x3e009790	0.12557817
43	0xbd42f6c7	-0.047598626
44	0xbdc5dae9	-0.096608944
45	0xbda716d1	-0.08158649
46	0xbf049061	-0.51782805
47	0xbed26dba	-0.4109934
48	0x3d5ca44b	0.05386762
49	0xbee8b938	-0.4545381
50	0xbe7931c2	-0.24335387
51	0xbf65a167	-0.89699405
52	0xbe3f23da	-0.1866602
53	0xbc9371c5	-0.017998585
54	0xbe41daf9	-0.18931188
55	0xbf17031a	-0.5898911
56	0x3d7303fc	0.05932997
57	0xbe97460b	-0.29545626
58	0xbdde7965	-0.10862998
59	0x3e0a68b9	0.13516511
60	0x3e444e24	0.19170433
61	0x3df4f078	0.11959928
62	0x3ebf0805	0.37310806
63	0x3eeef9a2	0.4667483
64	0x3eb9ec77	0.3631322
65	0xbe4dd476	-0.20100579
66	0xbe123698	-0.14278638
67	0x3e7e56b0	0.24837756
68	0x3eae0f41	0.33996013
69	0x3e613783	0.21993832
70	0x3dc150e4	0.09439257
71	0x3e412fbf	0.1886587
72	0x3daafdd2	0.08349194
73	0xbdf3d49b	-0.11905786
74	0x3ea890ad	0.3292288
75	0x3e274779	0.16335858
76	0x3dbdcf08	0.09268004
77	0xbddd63a7	-0.10810023
78	0xbea5fcb0	-0.32419348
79	0x3e99a44c	0.3000816
80	0xbe3e26f6	-0.1856955
81	0x3e0fd234	0.1404503
82	0xbd389ad9	-0.04506955
83	0x3eeed470	0.46646452
84	0xbf8bb05f	-1.0913199
85	0xbf14e9b4	-0.581691
86	0x3ea554dc	0.32291305
87	0x3ea4e7b4	0.32208025
88	0xbf904dda	-1.1273758
89	0xbef0c6e8	-0.47026753
90	0x3eb3d7b0	0.35125494
91	0x3e9b50ab	0.30334982
92	0xbf9327b5	-1.1496493
93	0xbec7bc25	-0.3901073
94	0x3d77c2bd	0.06048845
95	0xbe796b97	-0.24357449
96	0x3e77dca9	0.24205269
97	0xbd1ce31a	-0.03830252
98	0x3d4391df	0.047746535
99	0x3eb141a9	0.34620407
100	0xbee69d07	-0.45041677
101	0xbe754414	-0.23951751
102	0x3c1f3b69	0.009718754
103	0x3ed78610	0.4209447
104	0xbec00e73	-0.37511024
105	0x3d977a09	0.07396323
106	0x3e38cdd6	0.1804727
107	0x3eb4783c	0.35247982
108	0xbf1c62e9	-0.61088425
109	0xbe147301	-0.14496996
110	0x3eef6ae5	0.46761242
111	0x3f457b00	0.7714081
112	0x3ed50673	0.41606483
113	0x3e16b1d8	0.1471628
114	0x3de7f5ab	0.11326154
115	0xbf82bf27	-1.0214585
116	0x3c69ff4a	0.014282057
117	0x3e971e7f	0.29515454
118	0xbcf2c50c	-0.029634975
119	0xbf77ca2a	-0.9679285
120	0xbd3c3b95	-0.04595526
121	0xbe0d1376	-0.13776955
122	0x3de6b72f	0.11265408
123	0xbf3cd03a	-0.7375523
124	0x3eb33377	0.35000202
125	0x3e8362cc	0.25661314
126	0x3edc88b6	0.43073052
127	0x3e3b66ef	0.18300985
128	0x3f357251	0.7087756
129	0x3e6ae2ff	0.22938155
130	0x3e1b6fb2	0.15179327
131	0x3de9e0b2	0.1141981
132	0x3ea63e51	0.3246942
133	0x3dc1b61f	0.09458565
134	0xbe154156	-0.14575705
135	0x3f0e5676	0.5560068
136	0x3eec6f85	0.46178833
137	0xbea6d64c	-0.3258537
138	0xbdad4660	-0.084606886
139	0x3e8c214e	0.2736916
140	0xbe05ec1b	-0.13078348
141	0xbf59b3b7	-0.8503985
142	0xbea93148	-0.3304541
143	0x3ea489cc	0.3213638
144	0xbe3ee80e	-0.1864321
145	0xbd3a8c9c	-0.04554425
146	0xbf0233b0	-0.5086012
147	0x3d82a540	0.06379175
148	0xbe24aab3	-0.16080742
149	0xbe876280	-0.26442337
150	0xbda46551	-0.08027137
151	0x3da1c00c	0.07897958
152	0x3e5b2653	0.21401338
153	0xbdd893b3	-0.105750464
154	0xbe8aab3e	-0.27083772
155	0xbdeb6e68	-0.11495668
156	0x3ed76ae6	0.42073745
157	0x3efd71ac	0.49500787
158	0x3f092db8	0.53585386
159	0x3f3ffeb2	0.7499801
160	0xbf08e2f5	-0.5347131
161	0x3e979589	0.29606274
162	0x3e4895f0	0.19588447
163	0x3d1a1db8	0.037626
164	0x3d8feaf3	0.07027235
165	0x3f08e6d1	0.534772
166	0x3e9b84c8	0.30374742
167	0x3e549782	0.2076092
168	0x3e2772af	0.16352342
169	0x3f1bc353	0.60844916
170	0x3dfefc2d	0.124504425
171	0xbdc104b0	-0.09424722
172	0xbe088340	-0.13331318
173	0x3e8257e2	0.25457674
174	0x3dd030ec	0.10165581
175	0xbda0a619	-0.078441806
176	0x3f16270b	0.58653325
177	0x3e82cbe6	0.25546187
178	0xbded6429	-0.1159137
179	0xbf054a52	-0.5206653
180	0x3dae454c	0.08509311
181	0xbe0657af	-0.13119386
182	0xbdbb5347	-0.09146743
183	0xbdefa13f	-0.11700677
184	0x3dc021c5	0.09381441
185	0xbdb4339b	-0.087989055
186	0xbdc2a55e	-0.095041975
187	0xbe9815e3	-0.29704198
188	0x3c9dbb16	0.019254249
189	0xbe73a468	-0.23793185
190	0xbed6df58	-0.41967273
191	0x3e52aeb6	0.2057446
192	0x3f2b5542	0.6692697
193	0x3f04d3e0	0.51885796
194	0xbe6a4d2c	-0.22881001
195	0xbcc5d6b9	-0.02415024
196	0x3e95f3e7	0.29287645
197	0xbe55f554	-0.20894367
198	0xbf10dfc2	-0.5659143
199	0xbf18592e	-0.5951108
200	0x3ed22d5c	0.4105023
201	0xbd5dc4da	-0.05414281
202	0xbec368b3	-0.38165817
203	0xbf21cdaf	-0.63204473
204	0x3f06aacf	0.52604383
205	0xbe2e5ae7	-0.17026864
206	0xbeefca54	-0.46834052
207	0xbf24c718	-0.6436629
208	0xbe015d85	-0.12633331
209	0xbe933e29	-0.28758362
210	0xbe3d635d	-0.18494935
211	0xbf2de0a4	-0.679209
212	0xbd4cfed3	-0.050047707
213	0xbe3a3324	-0.18183571
214	0xbe18b07d	-0.14911075
215	0xbef00a36	-0.4688279
216	0x3e812ce4	0.2522956
217	0xbe96eb04	-0.29476178
218	0xbeeb65e6	-0.4597618
219	0x3db3552d	0.0875648
220	0x3e7ea882	0.24868968
221	0xbd35af89	-0.044356856
222	0xbe8d54aa	-0.27603656
223	0xbebd6824	-0.36993515
224	0xbf49f224	-0.788851
225	0xbf0e8640	-0.556736
226	0xbe156df0	-0.14592719
227	0xbefe7b11	-0.49703267
228	0xbefecf8f	-0.4976773
229	0xbebce6e4	-0.36894906
230	0xbdc04af3	-0.093892954
231	0xbe6e0da3	-0.2324739
232	0xbe15cc51	-0.14628722
233	0xbea173ed	-0.31533757
234	0x3dd78b95	0.1052467
235	0xbea0d6d4	-0.314139
236	0x3e27ffba	0.16406146
237	0xbd7aff79	-0.061278794
238	0xbd618046	-0.05505397
239	0xbddc17bc	-0.107467145
240	0x3c80a47b	0.01570343
241	0x3edd2a36	0.43196267
242	0xbc890b65	-0.016729066
243	0xbe14244a	-0.14466968
244	0xbdc503c8	-0.09619862
245	0x3dd53b74	0.104117304
246	0x3dcf67f2	0.10127248
247	0xbead2d2d	-0.3382353
248	0xbe22abc1	-0.15885831
249	0x3d4e3f64	0.050353423
250	0xbea4e39f	-0.3220491
251	0xbebbc94e	-0.3667702
252	0x3e89fe45	0.26951805
253	0x3f10bd91	0.56539255
254	0x3dff47d4	0.12464872
255	0xbf1fe5da	-0.624601

bias f4 [24]
0	0x3c7ee2eb	0.015557031
1	0xbbe04f67	-0.006845403
2	0x3d28c41d	0.041202653
3	0x3d159bfc	0.03652571
4	0xbe0ce6fd	-0.1375999
5	0x3c97eaa2	0.018544499
6	0x3e334dc6	0.17510137
7	0xba0bdeb5	-0.0005335615
8	0x3e18c5b2	0.14919165
9	0xbe030679	-0.12795438
10	0xbe33028b	-0.17481439
11	0x3da49b63	0.0803745
12	0x3e3a36c8	0.1818496
13	0xbe0b6597	-0.13612972
14	0x3db9d643	0.0907407
15	0xbe15f33d	-0.1464357
16	0xbda54115	-0.08069054
17	0xbeaa5971	-0.33271363
18	0xbdf688cf	-0.12037813
19	0xbe1fa963	-0.1559196
20	0x3e1dd571	0.15413453
21	0xbe5ae530	-0.2137649
22	0x3d41e51f	0.047337648
23	0x3e3727ac	0.17886227

weight f4 [24]
0	0x3f7c8f72	0.9865638
1	0x3f4479b3	0.767482
2	0x3f590840	0.84778214
3	0x3f818edd	1.0121723
4	0x3f5f1e0f	0.8715524
5	0x3f6a0d1e	0.91426265
6	0x3f5e1d29	0.86763245
7	0x3f6df56f	0.92952627
8	0x3f77ef79	0.9684978
9	0x3f88b09e	1.0678899
10	0x3f828553	1.0196937
11	0x3f34ff23	0.7070181
12	0x3f48f0b7	0.784923
13	0x3f84afab	1.036611
14	0x3f773b32	0.965747
15	0x3f485950	0.7826128
16	0x3f517c3a	0.8183018
17	0x3f7522e9	0.95756394
18	0x3f883b40	1.0643082
19	0x3f7ffc02	0.9999391
20	0x3f5763a7	0.8413643
21	0x3f6adac0	0.91740036
22	0x3f6fcd0a	0.9367224
23	0x3f7d1925	0.9886649

bias f4 [24]
0	0xbe3bcdd6	-0.18340239
1	0x3e22f957	0.15915428
2	0xbd571630	-0.052511394
3	0x3c41645b	0.011803712
4	0xbd5e5cc0	-0.054287672
5	0x3e4156d7	0.18880783
6	0x3ce9c808	0.028537765
7	0x3cba02d1	0.022706421
8	0xbd218170	-0.03943008
9	0xbdb0126f	-0.08597266
10	0x3d11f644	0.035635248
11	0x3cee8d58	0.029120132
12	0xbdc20fb7	-0.094756536
13	0x3ddf61a2	0.10907294
14	0x3e2a6171	0.16638733
15	0xbc8a6b1e	-0.01689678
16	0x3b16d305	0.002301396
17	0x3d13a1c9	0.036042962
18	0x3d8ab678	0.067730844
19	0xbe20674e	-0.15664408
20	0x3dfa2d0e	0.12215625
21	0x3c8ebc69	0.017423825
22	0xbc975f4e	-0.018478062
23	0xbe28624a	-0.16443744

weight f4 [72, 24]
0	0xbe285d78	-0.16441905
1	0x3d9d431e	0.07678817
2	0x3ea66ad6	0.32503384
3	0xbe2f1dca	-0.17101207
4	0x3e138a7a	0.14408293
5	0xbe802c17	-0.25033638
6	0xbcbb7c6e	-0.022886481
7	0xbeb5118f	-0.3536496
8	0xbe68aa33	-0.22721176
9	0x3e368445	0.17823894
10	0x3eab95bf	0.33512685
11	0x3d3a8b0a	0.045542754
12	0xbe0cf72a	-0.1376616
13	0xbf0b142c	-0.54327655
14	0xbdaeb6c3	-0.08530953
15	0xbe00d70a	-0.12582031
16	0xbb2cb48e	-0.0026352736
17	0x3dc8dda6	0.09807901
18	0x3e04c122	0.129643
19	0x3cc6ce15	0.02426819
20	0x3e33f9bf	0.1757574
21	0x3e61b063	0.22039942
22	0xbe9ad479	-0.3024023
23	0xbd141f3f	-0.03616261
24	0x3f1fbbb1	0.6239577
25	0x3e8a0ec1	0.2696438
26	0xbe3559e7	-0.17710076
27	0xbed5b55a	-0.41739923
28	0x3e9a54a4	0.301427
29	0xbdc5393f	-0.096300595
30	0x3cc9e3d2	0.024644766
31	0xbd83bba0	-0.06432271
32	0x3c0c6e92	0.008571284
33	0xbda164ae	-0.07880531
34	0xbe85f713	-0.26165065
35	0xbd5e5243	-0.05427767
36	0x3e1826b4	0.14858514
37	0xbe32b69f	-0.17452477
38	0xbd3691b8	-0.044572562
39	0xbed0d81c	-0.40789878
40	0x3e9c8219	0.30568007
41	0xbe31a0f2	-0.17346552
42	0xbee043ec	-0.4380182
43	0xbe8d2f9e	-0.27575392
44	0x3ccab1d5	0.024743
45	0xbe6251ca	-0.22101513
46	0x3ce3955d	0.027781183
47	0x3f172301	0.59037787
48	0xbda9f6f8	-0.08299059
49	0xbe7c2c8f	-0.24626373
50	0x3d655ede	0.055998676
51	0x3e7042e2	0.23463014
52	0x3f25db7f	0.6478805
53	0x3e5450ab	0.20733897
54	0xbea331e7	-0.3187401
55	0xbdf1b8a7	-0.11802798
56	0x3dbc654a	0.09199007
57	0x3e795037	0.24347006
58	0xbdf73a7e	-0.120717034
59	0x3e25b56c	0.16182488
60	0x3d066e71	0.03282017
61	0x3dc0a0af	0.09405648
62	0xbec095a2	-0.3761416
63	0xbcda0f40	-0.0266186
64	0xbe1e556c	-0.15462273
65	0xbc779666	-0.015111541
66	0x3ea2485d	0.31695834
67	0xbdbc267b	-0.09187027
68	0x3cfa0a1e	0.030522402
69	0xbf051c9a	-0.5199677
70	0xbe84cf90	-0.25939608
71	0x3e2b21f5	0.16712172
72	0xbe6e7d1b	-0.23289911
73	0x3d6f9a56	0.058496796
74	0x3eac536d	0.336574
75	0x3e3386e5	0.17531927
76	0xbe754e0a	-0.23955551
77	0x3ee20aef	0.44148967
78	0xbeb74253	-0.3579279
79	0xbdf2628a	-0.11835201
80	0xbe55a4e4	-0.20863682
81	0xbe8213c7	-0.25405714
82	0xbe2ed007	-0.17071544
83	0x3d4745be	0.048650496
84	0xbdc44cf5	-0.09584991
85	0x3f0c709d	0.54859334
86	0x3ed83c0a	0.42233306
87	0xbe36996a	-0.1783196
88	0x3d15bf08	0.036559135
89	0xbe928316	-0.28615636
90	0x3ec10cb8	0.37705016
91	0x3dceefe1	0.10104347
92	0x3d910e72	0.07082833
93	0xbee15c2e	-0.4401564
94	0xbe9de5a9	-0.3083928
95	0x3d567735	0.05235978
96	0x3db3064d	0.08741436
97	0xbec55435	-0.38540807
98	0xbc1c12f6	-0.009526005
99	0x3e7df641	0.2480097
100	0x3e8145d9	0.25248602
101	0x3e23c341	0.15992452
102	0xbec562d8	-0.38551974
103	0xbde906b9	-0.11378235
104	0x3ef8592e	0.4850554
105	0xbeb11a9f	-0.34590623
106	0x3c78f868	0.015195943
107	0xbdca4480	-0.098763466
108	0x3eed3985	0.46332946
109	0x3e6b1e75	0.22960837
110	0x3e03049b	0.12794726
111	0xbdb1656b	-0.08661922
112	0xbe4ffca2	-0.20311216
113	0xbdf795ac	-0.120890945
114	0x3e98ba43	0.29829606
115	0xbe1c4353	-0.15260057
116	0x3e1243c7	0.14283668
117	0xbe51dc48	-0.20494187
118	0x3ea581f8	0.3232572
119	0x3c3647d6	0.011125525
120	0x3e7dbbc2	0.24778655
121	0xbc8d5b5d	-0.01725548
122	0xbd9c98a3	-0.07646301
123	0x3d6e4091	0.058167044
124	0xbd8cf4e9	-0.068826504
125	0x3e4ff8b5	0.20309718
126	0x3e7993bb	0.24372761
127	0x3dda9aec	0.1067408
128	0x3da42946	0.08015685
129	0xbe921224	-0.28529465
130	0xbd982e1c	-0.0743067
131	0x3cfc544f	0.03080192
132	0xbd69c3b4	-0.057071403
133	0xbe5c5b11	-0.21519114
134	0xbe0575ef	-0.1303327
135	0xbdc9acbd	-0.098474
136	0xbde50681	-0.11182881
137	0x3e4c897d	0.19974323
138	0xbe9a937a	-0.3019064
139	0x3e6d1bf7	0.23155199
140	0xbe418a11	-0.18900324
141	0xbe69d57e	-0.22835347
142	0xbec3b664	-0.3822509
143	0x3eade2f4	0.33962214
144	0x3e1a51be	0.15070245
145	0x3c507e24	0.012725387
146	0xbe70f546	-0.23531064
147	0x3e9ac77a	0.30230314
148	0x3dd1393e	0.10215996
149	0x3e3687a2	0.17825177
150	0x3d9c6a16	0.07637422
151	0xbbdb9d89	-0.0067021293
152	0x3ed1dd1e	0.40989012
153	0xbe84a99b	-0.2591065
154	0x3ddc6a39	0.10762448
155	0xbd631ddf	-0.05544841
156	0x3e5d7e0b	0.21630113
157	0x3eb374af	0.3504996
158	0xbef5993a	-0.47968465
159	0xbc7b4c83	-0.015338066
160	0xbde405f3	-0.11133947
161	0xbe723a41	-0.23655035
162	0x3e70c3cc	0.2351219
163	0xbda972ca	-0.082738474
164	0xbec68dc5	-0.38780037
165	0x3e70fc49	0.23533739
166	0xbe59f051	-0.2128308
167	0x3eabbfba	0.33544713
168	0xbd903784	-0.07041839
169	0xbcbfee7d	-0.02342915
170	0x3e004dbd	0.12529655
171	0xbe0cd5b2	-0.13753393
172	0x3dae40ed	0.08508477
173	0x3e14eac4	0.14542681
174	0x3e09b912	0.13449505
175	0x3de34d5d	0.1109874
176	0x3e1746fc	0.14773172
177	0x3eb762a8	0.35817456
178	0x3e2f81ec	0.17139405
179	0x3e0f56a2	0.13997892
180	0xbe35f150	-0.17767835
181	0xbde80aae	-0.11330162
182	0x3e643ff0	0.22290015
183	0xbf05f808	-0.5233159
184	0x3e021bb2	0.12705877
185	0x3daca685	0.084301986
186	0xbeaed393	-0.34145793
187	0xbe3accfe	-0.18242261
188	0xbec490e8	-0.38391805
189	0x3ebf57c2	0.3737164
190	0xbd14f838	-0.036369532
191	0xbdf71d48	-0.12066132
192	0xbdf40860	-0.1191566
193	0x3e0790cc	0.1323883
194	0x3ea29dfa	0.31761152
195	0x3cb5a666	0.022174072
196	0x3ebe17bd	0.37127486
197	0xbdbf2dc9	-0.09334905
198	0xbe17bb42	-0.14817527
199	0x3e18441f	0.14869736
200	0xbe89b30c	-0.26894414
201	0x3d09947b	0.033588868
202	0x3f1354e4	0.5755141
203	0x3d181fed	0.03713982
204	0xbe06e9a9	-0.13175072
205	0x3e732525	0.23744638
206	0x3ee614d2	0.4493776
207	0xbedb60ee	-0.4284739
208	0x3dc4e897	0.096146755
209	0xbea058e6	-0.31317824
210	0xbeeb2a2a	-0.45930606
211	0xbc4762ae	-0.012169523
212	0x3dcfcd58	0.10146588
213	0x3e6f07fb	0.23342888
214	0xbedf34e7	-0.4359505
215	0xbed57afc	-0.41695392
216	0x3dde171d	0.10844252
217	0x3dd729ed	0.105060436
218	0xbe1a44cf	-0.15065311
219	0xbedcf721	-0.43157294
220	0x3e64a6df	0.22329281
221	0x3e0e7720	0.1391263
222	0xbeadc461	-0.33938888
223	0xbe5aea56	-0.21378455
224	0xbe619f61	-0.22033454
225	0xbda9d6a7	-0.08292895
226	0x3e0c46eb	0.13698928
227	0xbd024617	-0.031805124
228	0x3db2033e	0.08692025
229	0xbdd6c093	-0.10485949
230	0x3e6cabfd	0.23112483
231	0x3e1e5ccf	0.15465091
232	0x3f1fd613	0.62436026
233	0xbe6294e3	-0.22127108
234	0x3e607c9c	0.21922535
235	0xbe636aa9	-0.22208656
236	0xbb2ff4c0	-0.0026848763
237	0x3cee3df2	0.029082272
238	0xbcf698df	-0.030102191
239	0xbebe635d	-0.37185183
240	0xbdca39d0	-0.09874308
241	0xbe5fcb66	-0.21854934
242	0x3de49661	0.11161495
243	0x3ebdfeeb	0.3710855
244	0x3e1425d5	0.14467557
245	0xbdc6e2cf	-0.09711229
246	0xbe244f14	-0.16045791
247	0x3f06de04	0.5268252
248	0x3e257ef0	0.16161704
249	0xbefa43a6	-0.48879737
250	0xbd56e919	-0.052468393
251	0x3d6a4315	0.05719288
252	0x3da446f2	0.08021344
253	0x3f0f8f91	0.5607844
254	0x3d94bb98	0.07262343
255	0xbebbf459	-0.3670986

weight f4 [24, 24]
0	0xbea3a58b	-0.31962237
1	0xbd8d40fd	-0.06897161
2	0x3dadd458	0.08487767
3	0x3da358f7	0.07975953
4	0xbd619fc7	-0.055084016
5	0xbe2470ed	-0.16058703
6	0xbd8de547	-0.06928497
7	0xbe9ec58b	-0.31010088
8	0xbe301bef	-0.17198156
9	0x3e4b63b4	0.19862252
10	0x3d3aac59	0.04557452
11	0xbe7a7340	-0.24458027
12	0xbec695f3	-0.38786277
13	0x3ef72b6d	0.4827532
14	0x3e260a35	0.16214831
15	0x3eaa058b	0.33207354
16	0xbe896a7b	-0.2683905
17	0x3dc119f8	0.09428781
18	0xbe2332ae	-0.15937302
19	0xbe829bdf	-0.25509545
20	0xbe70284f	-0.23452877
21	0xbe7c885f	-0.24661396
22	0x3cedf3a7	0.029046847
23	0xbea0d90f	-0.31415603
24	0x3cd8a7a7	0.02644713
25	0xbe365e4b	-0.17809407
26	0xb9e1d1b0	-0.00043071574
27	0xbe505fed	-0.20349093
28	0x3bfaa619	0.007649195
29	0x3eb1fea7	0.34764597
30	0x3ec11cd7	0.37717316
31	0x3ecf525a	0.40492517
32	0xbe41166c	-0.1885621
33	0xbe184aef	-0.14872335
34	0x3ec29bc9	0.3800948
35	0xbe6b1a59	-0.2295927
36	0xbe0bab8b	-0.13639657
37	0x3ed803cf	0.42190406
38	0x3e01cfef	0.12676977
39	0x3d2b3d52	0.041806526
40	0x3e75f37e	0.24018666
41	0xbe5d6738	-0.21621406
42	0x3efc1ccd	0.49240723
43	0xbec39056	-0.38196057
44	0x3e12a471	0.14320542
45	0xbd399b9d	-0.04531442
46	0x3dc4147b	0.09574219
47	0xbe9b3b4e	-0.30318683
48	0xbe806393	-0.2507597
49	0x3e0f3fc0	0.13989162
50	0xbf148287	-0.5801167
51	0x3ef6c2f2	0.48195606
52	0xbca4fdd6	-0.02014057
53	0x3e66e90e	0.22549841
54	0x3e63fbb5	0.22263987
55	0x3d9ab3c8	0.07553822
56	0x3e08aaa8	0.1334635
57	0xbdd3af5c	-0.103361815
58	0xbe5cefb0	-0.21575809
59	0x3e50956d	0.20369501
60	0x3e04b8dc	0.12961143
61	0xbeb4e185	-0.35328308
62	0x3e994f1a	0.29943162
63	0xbe14240f	-0.1446688
64	0x3ebe1486	0.37125033
65	0x3e06602b	0.13122623
66	0x3e02eab2	0.12784842
67	0xbd16e24c	-0.036836907
68	0x3df6d46c	0.12052235
69	0x3d349388	0.04408601
70	0xbd26441e	-0.040592305
71	0xbe8aa71a	-0.27080613
72	0x3ea29c61	0.31759933
73	0x3b209ac0	0.00245063
74	0xbe174d34	-0.14775544
75	0x3e70e773	0.23525791
76	0xbe91ecb4	-0.28500903
77	0x3d3138a2	0.0432669
78	0x3e0bd468	0.13655245
79	0x3e8f52a9	0.27992752
80	0x3ea0a783	0.313778
81	0xbd88eef4	-0.06686202
82	0x3e04bb4b	0.12962072
83	0x3d2fb175	0.042893846
84	0xbdd1ce6c	-0.1024445
85	0xbedb2b70	-0.42806578
86	0xbeb231f3	-0.34803733
87	0x3e3b1f84	0.18273741
88	0x3e9d7acd	0.30757752
89	0xbd8f55e4	-0.06998804
90	0x3e70b7b9	0.23507585
91	0x39a131a4	0.00030745298
92	0xbd4f9afc	-0.050684914
93	0xbba10405	-0.0049138092
94	0xbe2d07a0	-0.1689744
95	0x3d7759d1	0.06038839
96	0xbe7f57d9	-0.24935855
97	0xbe8b04a8	-0.2715199
98	0x3e286753	0.16445665
99	0x3e235246	0.15949354
100	0x3e1556b4	0.14583856
101	0x3d076551	0.033055607
102	0xbe5d876d	-0.21633692
103	0xbe875ad1	-0.26436475
104	0x3ed3d197	0.41370842
105	0x3ee21901	0.441597
106	0xbe25e5ef	-0.16200994
107	0x3b390730	0.0028233044
108	0x3dfae30c	0.12250337
109	0xbe6c3586	-0.23067293
110	0xbe0b0373	-0.13575535
111	0x3d86aac4	0.0657554
112	0x3ea3ab05	0.31966415
113	0xbea734f8	-0.326576
114	0xbcacda23	-0.02110011
115	0xbecb8039	-0.39746264
116	0xbe34dce8	-0.17662394
117	0xbe9b371d	-0.30315486
118	0x3e16cf0d	0.14727421
119	0x3d9d4cf2	0.07680692
120	0x3e5355a3	0.20638137
121	0x3c4410bc	0.01196688
122	0xbeaacf50	-0.33361292
123	0xbe874a24	-0.26423752
124	0x3df3263e	0.118725285
125	0xbc466f92	-0.012111561
126	0x3e4a6d20	0.1976819
127	0x3deb01c0	0.11474943
128	0x3d8f5505	0.06998638
129	0x3cc99240	0.02460587
130	0x3e9a0d61	0.30088332
131	0xbd5e2b10	-0.054240286
132	0xbe211baa	-0.15733209
133	0xbd55111c	-0.05201827
134	0xbe492274	-0.19642049
135	0xbe7b1cc3	-0.2452269
136	0xbecd784b	-0.4013084
137	0x3d9bb25c	0.07602379
138	0x3c532b04	0.012888674
139	0x3ee58458	0.44827533
140	0xbe73a98c	-0.23795146
141	0xbe18067a	-0.1484622
142	0xbde5b65f	-0.11216425
143	0x3e728482	0.2368336
144	0x3e809192	0.2511106
145	0xbea05795	-0.3131682
146	0x3e913b36	0.28365487
147	0xbd9f0659	-0.077648826
148	0x3e42ff4e	0.19042704
149	0xbdb7def0	-0.08978069
150	0xbdb899f8	-0.09013742
151	0xbdcea4d0	-0.10090029
152	0xbe3025d0	-0.17201924
153	0xbe8bea56	-0.27327222
154	0xbebb1bff	-0.36544797
155	0xbdacc008	-0.084350646
156	0xbe5494a5	-0.20759828
157	0xbe3b6b84	-0.18302733
158	0x3e270511	0.16310526
159	0x3efb775b	0.49114498
160	0x3e1e4c9f	0.15458916
161	0xbde0e70e	-0.1098157
162	0xbecb9452	-0.39761597
163	0xbeb26588	-0.34843087
164	0x3e61e742	0.22060874
165	0x3c4f5c67	0.012656308
166	0xbe809df1	-0.251205
167	0xbd00aa3e	-0.031412356
168	0x3ed3f81d	0.41400233
169	0xbdedabde	-0.11605047
170	0xbdf81930	-0.12114179
171	0x3a696ab1	0.0008904143
172	0xbdbefba0	-0.093253374
173	0xbe08e9b9	-0.13370408
174	0xbe9b1b29	-0.3029416
175	0xbe2f28e0	-0.17105436
176	0xbdac1879	-0.08403105
177	0x3ceb847c	0.028749697
178	0x3e0a4867	0.13504182
179	0xbe4ae837	-0.19815145
180	0x3e8d1a4b	0.27559122
181	0x3e8223fa	0.25418073
182	0x3c68754c	0.014188122
183	0x3e3aaab5	0.18229182
184	0xbe4783c4	-0.19483858
185	0x3dd64344	0.10462049
186	0xbc3913e5	-0.011296247
187	0xbd33859b	-0.043828588
188	0x3dcd693f	0.1002984
189	0x3cfb88d4	0.030704893
190	0x3df4d869	0.119553395
191	0xbea40e85	-0.32042328
192	0x3ea6beb8	0.32567382
193	0xbe8496e9	-0.25896385
194	0x3b0649bd	0.0020490729
195	0xbc2e5090	-0.010639325
196	0x3ce01c47	0.027357234
197	0x3ed14464	0.4087249
198	0x3f1d9247	0.61551327
199	0x3e911ca5	0.28342167
200	0xbe7cea64	-0.24698788
201	0xbebcfb0d	-0.36910287
202	0xbe38f396	-0.1806167
203	0x3e882f17	0.26598427
204	0xbdc6cb43	-0.09706738
205	0x3e8df5e0	0.2772665
206	0xbd27ba42	-0.040949114
207	0xbddd6b16	-0.10811441
208	0xbc84d346	-0.016214024
209	0xbde10bd7	-0.109885864
210	0xbe0e2135	-0.13879855
211	0x3d8b08a3	0.06788757
212	0xbdac2415	-0.084053196
213	0x3c9cde8e	0.019149091
214	0xbe6d8530	-0.23195338
215	0x3eaa3fb5	0.3325173
216	0xbc23cba9	-0.009997287
217	0xbe322c18	-0.17399633
218	0xbe7090e9	-0.23492779
219	0x3d4301fa	0.047609307
220	0x3ec6061f	0.38676545
221	0x3e676288	0.2259618
222	0x3e0da12c	0.13831013
223	0xbd14b792	-0.03630788
224	0xbe987f64	-0.2978469
225	0x3d9c156f	0.07621276
226	0x3da8c9fe	0.08241652
227	0x3dda1436	0.10648386
228	0xbd9f60be	-0.07782124
229	0x3e8c4cdb	0.27402386
230	0x3eaf13f3	0.34194908
231	0x3e55b361	0.20869209
232	0x3e9e4f9a	0.30920106
233	0xbe4f911b	-0.20270197
234	0xbda6bcd2	-0.08141483
235	0xbda65ceb	-0.081231914
236	0xbf0c95c9	-0.54916054
237	0xbd7d29d0	-0.061807454
238	0x3eacbf51	0.33739713
239	0xbe8108c1	-0.2520199
240	0xbbdfa7b8	-0.0068254136
241	0xbe17c864	-0.14822537
242	0xbe4a38fb	-0.19748299
243	0x3d70d558	0.05879721
244	0x3d82ed49	0.06392915
245	0x3dd7a182	0.10528852
246	0xbe7f035c	-0.24903625
247	0x3dc85b0f	0.09782993
248	0x3d954e17	0.07290285
249	0x3e893c39	0.2680376
250	0xbd2af0d1	-0.041733567
251	0xbd5459b8	-0.051843375
252	0xbdd37a65	-0.10326079
253	0x3da5c18c	0.08093557
254	0xbe5858af	-0.2112758
255	0x3e3053aa	0.17219415

bias f4 [24]
0	0xbe8c54a8	-0.27408338
1	0x3d14d9b4	0.03634043
2	0xbd4b79c6	-0.04967668
3	0x3e469374	0.19392186
4	0x3dc7afd9	0.09750337
5	0xbe0919df	-0.13388775
6	0xbd966b2f	-0.073446624
7	0x3e1a87a8	0.15090811
8	0x3dd6ab70	0.10481918
9	0xbde31070	-0.110871196
10	0xbe6cb9e3	-0.23117785
11	0xbcbe1b82	-0.023206476
12	0x3e0ab759	0.13546504
13	0x3e27a760	0.16372442
14	0x3e79101e	0.24322554
15	0xbe349930	-0.17636561
16	0xbde22e72	-0.11044015
17	0x3dd67179	0.10470862
18	0xbda29a7f	-0.07939624
19	0x3e34cde1	0.17656662
20	0x3d640bee	0.05567544
21	0xbe315e23	-0.17321067
22	0xbe025cbc	-0.12730688
23	0x3e41133a	0.1885499

weight f4 [24]
0	0x3f1c175b	0.6097314
1	0x3f56f3e3	0.8396589
2	0x3f61cad1	0.882001
3	0x3f4d80cd	0.8027466
4	0x3f2ce4d1	0.67536646
5	0x3f425786	0.759148
6	0x3f4fce80	0.8117447
7	0x3f653a3c	0.89541984
8	0x3f85c891	1.0451833
9	0x3f4c1cf2	0.7973167
10	0x3f69a631	0.9126921
11	0x3f32fbe0	0.6991558
12	0x3f54121a	0.8284012
13	0x3f577dc8	0.841763
14	0x3f3322ce	0.6997498
15	0x3f7045ff	0.93856806
16	0x3f4a241e	0.7896136
17	0x3f37247f	0.71540064
18	0x3f5f2fe8	0.87182474
19	0x3f195cc9	0.59907204
20	0x3f3bce79	0.7336193
21	0x3f7cf968	0.98818064
22	0x3f43e726	0.7652458
23	0x3f9051d2	1.127497

bias f4 [24]
0	0xbd2fe89f	-0.042946454
1	0x3d02d0e0	0.03193748
2	0xbe866808	-0.26251245
3	0x3e07eefe	0.13274762
4	0xbcaea264	-0.021317668
5	0xbda4ef33	-0.08053436
6	0xbdf9830f	-0.121832006
7	0x3e7d3835	0.24728473
8	0x3bebe97f	0.0071994658
9	0xbda52805	-0.08064274
10	0xbe80c3d5	-0.25149408
11	0xbe809f45	-0.25121513
12	0x3b688168	0.0035477523
13	0xbd7adc5f	-0.06124532
14	0xbdb283ce	-0.08716546
15	0xbdca9681	-0.098919876
16	0xbd0ec060	-0.03485143
17	0xbe19789d	-0.14987417
18	0x3e0e26db	0.1388201
19	0x3ab26caf	0.0013612713
20	0xbe3358ad	-0.17514296
21	0xbe1904f5	-0.14943297
22	0xbe129a95	-0.14316781
23	0xbe2497ea	-0.16073576

weight f4 [32, 24]
0	0x3d3eab94	0.04655035
1	0xbd9acb18	-0.07558268
2	0xbe82f29b	-0.25575718
3	0x3d925439	0.071449704
4	0xbe8b94b2	-0.27261883
5	0xbdc58e18	-0.09646243
6	0x3e5ea91f	0.21744202
7	0x3d20ff5f	0.03930604
8	0xbd0b8842	-0.034065492
9	0x3e4f3c06	0.20237741
10	0x3dc609ec	0.09669861
11	0xbdf6e616	-0.12055604
12	0x3e5cf675	0.21578391
13	0x3d94334e	0.07236348
14	0x3e2d8478	0.16945064
15	0x3d4927c6	0.049110197
16	0x3d987fc4	0.07446244
17	0x3b0219c9	0.0019851795
18	0xbe87934b	-0.26479563
19	0x3e13aa2f	0.14420389
20	0x3e01ea07	0.1268693
21	0x3c78cc55	0.015185435
22	0xbddce17c	-0.10785195
23	0x3e9895bd	0.2980174
24	0x3ec6f510	0.38858843
25	0x3d898e7f	0.06716632
26	0x3e3cad02	0.18425372
27	0xbead6100	-0.33863068
28	0x3d5668b7	0.052345958
29	0x3db93678	0.09043592
30	0xbe3c1677	-0.18367945
31	0xbdf394c2	-0.11893608
32	0x3cea5743	0.028606063
33	0x3c38caf8	0.01127886
34	0x3e80d001	0.25158694
35	0x3e0528c1	0.13003828
36	0x3dfdb07a	0.12387176
37	0x3de2dac2	0.11076881
38	0xbba23df6	-0.004951234
39	0x3d9dc63e	0.07703827
40	0x3e1128b8	0.14175689
41	0x3c97ea87	0.018544449
42	0x3e0f17a5	0.13973863
43	0xbd8c471a	-0.06849499
44	0x3dc61729	0.09672386
45	0xbd2ee389	-0.042697463
46	0x3eb48c13	0.35263118
47	0xbea579be	-0.32319444
48	0xbd82fbdf	-0.06395697
49	0x3d83d991	0.06437982
50	0xbe10fbf9	-0.1415862
51	0x3d91b6d9	0.071149535
52	0xbd879e59	-0.06621999
53	0x3d031b56	0.03200849
54	0x3ece990a	0.40351135
55	0x3de32823	0.1109164
56	0xbd82d06c	-0.063874096
57	0x3e3a2de2	0.18181565
58	0x3dc3703b	0.09542891
59	0x3e1a157d	0.1504726
60	0xbde299e7	-0.11064511
61	0x3e631df3	0.22179393
62	0x3e857a47	0.26069853
63	0xbd5b4d55	-0.053540546
64	0x3ce478ca	0.027889628
65	0xbd1865b7	-0.037206378
66	0x3edd1c7d	0.43185797
67	0x3db6381c	0.08897421
68	0x3dd7e714	0.105421215
69	0xbe9fb380	-0.31191635
70	0xbe8cc412	-0.2749334
71	0x3e65c36b	0.22437827
72	0x3e6ea2c0	0.23304272
73	0xbc962b79	-0.018331276
74	0xbc1ad666	-0.009450531
75	0xbf04375a	-0.5164696
76	0x3c4710b7	0.012149981
77	0x3e092f58	0.13396966
78	0x3e418a2f	0.18900369
79	0xbdf21059	-0.11819524
80	0x3ef0de64	0.4704467
81	0x3db98c1d	0.090599276
82	0x3e9639c3	0.29340944
83	0x3dcdbc81	0.1004572
84	0xbca0128b	-0.019540092
85	0xbd309e48	-0.0431197
86	0xbce7e485	-0.028307209
87	0xbe0709fd	-0.13187404
88	0xbbed8383	-0.0072483434
89	0xbe920085	-0.2851602
90	0x3e241fbf	0.16027735
91	0x3e2485de	0.16066691
92	0xbbf34a8f	-0.0074246596
93	0x3e66b7de	0.22531077
94	0x3d405a9a	0.046961404
95	0x3e068b70	0.13139129
96	0x3e648256	0.22315344
97	0xbda0eda0	-0.07857823
98	0x3e261a93	0.16221075
99	0xbed280c8	-0.41113877
100	0x3d6d8e5e	0.0579971
101	0x3ea52a0a	0.32258636
102	0x3e3f6447	0.18690597
103	0x3c71e71c	0.014764573
104	0x3e317da3	0.17333083
105	0xbf34d722	-0.70640767
106	0x3e2d09b0	0.16898227
107	0x3df7efeb	0.121063076
108	0xbea66ade	-0.32503408
109	0x3e47ab58	0.19498956
110	0xbda42d1f	-0.08016419
111	0x3e53f445	0.2069865
112	0xbdc9e4e7	-0.09858113
113	0x3e94324a	0.28944618
114	0x3e2cbc19	0.16868629
115	0xbe5779d4	-0.21042567
116	0x3e8d70cb	0.27625117
117	0x3e89b95e	0.26899236
118	0xbe3d2301	-0.18470384
119	0xbd5a6a3e	-0.053323977
120	0xbe17e8c3	-0.14834885
121	0x3f069fae	0.525874
122	0x3cccd495	0.02500371
123	0x3e954dac	0.2916082
124	0x3e0ba3ee	0.13636753
125	0x3e96a46c	0.2942232
126	0x3e99c688	0.3003428
127	0xbefec5a4	-0.49760163
128	0xbe96e231	-0.29469445
129	0x3d26222a	0.040559925
130	0xbd3895ee	-0.04506486
131	0xbd0c13cd	-0.03419857
132	0xbf08faec	-0.53507876
133	0xbde6dbe3	-0.11272409
134	0x3e639e43	0.22228341
135	0xbe737ba3	-0.23777632
136	0x3cdf5c91	0.027265819
137	0x3dae9c73	0.08525934
138	0x3e2f7be1	0.171371
139	0xbe42feff	-0.19042586
140	0x3e60b72a	0.21944872
141	0x3d088112	0.033326216
142	0xbeed4d20	-0.46347904
143	0x3cf1a232	0.029496286
144	0x3e616119	0.22009696
145	0x3ecd2309	0.40065792
146	0xbe321fe2	-0.17394975
147	0xbe896703	-0.26836404
148	0x3e5b6776	0.21426186
149	0x3ea51c5e	0.32248205
150	0x3def4a5d	0.116841055
151	0x3db7c621	0.08973337
152	0x3d685287	0.05671933
153	0x3d32b798	0.04363212
154	0x3e510ca0	0.20414972
155	0xbe558e5a	-0.20855084
156	0xbdd07ab0	-0.10179651
157	0x3e42b208	0.19013226
158	0x3e72fce7	0.23729287
159	0x3e708573	0.23488407
160	0x3dd513d1	0.1040417
161	0xbe142c7f	-0.14470099
162	0x3e3120e6	0.17297706
163	0xbed0e2dd	-0.40798083
164	0x3ed031b8	0.40662932
165	0xbbf13af1	-0.0073617627
166	0xbdca37d9	-0.09873933
167	0xbf155f8a	-0.58348906
168	0xbd69bd80	-0.057065487
169	0xbdcda70e	-0.10041629
170	0x3e8f73ca	0.28018028
171	0xbe955c15	-0.29171816
172	0x3e5212f8	0.20515049
173	0x3e314c87	0.17314349
174	0x3e610750	0.21975446
175	0x3d086788	0.03330186
176	0x3e3ad3fb	0.18244927
177	0x3ddaf48d	0.106911756
178	0x3e7844d0	0.24245
179	0x3f15c151	0.584981
180	0x3e51a34d	0.2047245
181	0xbea29261	-0.31752303
182	0x3e52660f	0.20546745
183	0xbe240d13	-0.16020612
184	0xbe70967b	-0.23494904
185	0x3da53436	0.08066599
186	0x3a698a70	0.00089088734
187	0xbe221bd2	-0.15830925
188	0x3e81beec	0.25340974
189	0xbe0f57bb	-0.1399831
190	0xbe144ff4	-0.14483625
191	0xbe4a764d	-0.1977169
192	0xbd85b4ca	-0.065286234
193	0xbd5ce667	-0.053930666
194	0x3ea6786f	0.3251376
195	0x3daaa586	0.08332352
196	0x3e99531f	0.2994623
197	0xbe5241c4	-0.205329
198	0x3d67813a	0.056519724
199	0xbf07a725	-0.5298942
200	0xbe676d78	-0.22600353
201	0x3ddd3328	0.10800773
202	0x3e9f9cd2	0.31174332
203	0xbdc01623	-0.09379222
204	0xbd970166	-0.073733136
205	0xbec83e99	-0.39110258
206	0xbdb2a56c	-0.08722958
207	0xbcafeded	-0.021475757
208	0xbef23329	-0.47304657
209	0x3ccd3afc	0.02505254
210	0x3e8a18d3	0.26972064
211	0x3dbd31c3	0.09238007
212	0x3f0ff942	0.5623971
213	0x3b387785	0.002814741
214	0x3eb367b2	0.3504005
215	0xbc5464e2	-0.012963505
216	0x3d0d7c9e	0.034542672
217	0x3e78d1a2	0.24298719
218	0x3eb52d7b	0.3538626
219	0xbe9c1f1f	-0.30492494
220	0x3e2b01c2	0.1669989
221	0x3e96b72f	0.29436633
222	0xbd297a7c	-0.041376576
223	0xbe93f06a	-0.2889436
224	0x3e0b5d4c	0.13609809
225	0xbe2b19e4	-0.16709095
226	0xbe5e737d	-0.21723743
227	0x3ce83ed1	0.028350266
228	0x3e4a1981	0.19736291
229	0xbe4e030c	-0.2011835
230	0xbe29a30f	-0.16566108
231	0x3da7a18a	0.08185108
232	0xbdb74b71	-0.08949936
233	0x3f0a8771	0.5411292
234	0x3e9bd2c9	0.30434254
235	0xbe54ffa7	-0.20800649
236	0x3e0c2ce9	0.13689007
237	0x3e99e632	0.30058438
238	0x3de80938	0.11329883
239	0xbee8092a	-0.45319492
240	0x3cc72950	0.024311692
241	0xbdc78a21	-0.09743143
242	0xbe133196	-0.14374384
243	0xbe00e133	-0.12585907
244	0xbdb733a3	-0.08945396
245	0x3f04e184	0.5190661
246	0x3ec0510d	0.37561837
247	0xbab643c1	-0.001390569
248	0xbebb4750	-0.36577845
249	0x3db6c155	0.08923594
250	0x3e6c34af	0.23066972
251	0xbe8514aa	-0.25992328
252	0xbedf8297	-0.4365432
253	0xbd83feb2	-0.06445064
254	0x3de92279	0.11383528
255	0xbd1dfd9d	-0.038571943

bias f4 [32]
0	0xbe9cbd45	-0.3061315
1	0xbe2d2178	-0.16907299
2	0xbe8ff583	-0.28116998
3	0xbe19baed	-0.15012713
4	0xbef8e6fb	-0.48613724
5	0xbe2b54d2	-0.16731575
6	0xbdd97e23	-0.10619762
7	0xbe62b3e2	-0.22138932
8	0xbe86dc7b	-0.26340088
9	0xbd9cd3a2	-0.07657553
10	0xbeb17689	-0.34660748
11	0xbee3c0af	-0.44482943
12	0xbcd307a7	-0.025760485
13	0xbedd8f2f	-0.43273303
14	0xbe817311	-0.252831
15	0xbe250871	-0.16116501
16	0xbd58decf	-0.05294686
17	0xbe4e48a6	-0.201449
18	0xbc81e796	-0.0158575
19	0xbee75890	-0.45184755
20	0xbeb16f52	-0.34655243
21	0xbecf6b00	-0.40511322
22	0xbe81ab1e	-0.25325865
23	0xbe85327a	-0.26015073
24	0xbe545fb0	-0.20739627
25	0xbd755947	-0.059899595
26	0xbe8171be	-0.2528209
27	0xbe8577e0	-0.2606802
28	0xbeb4d8ee	-0.35321754
29	0xbda1cc0a	-0.079002455
30	0xbeddab5c	-0.432948
31	0xbe22d83b	-0.15902798

weight f4 [24, 32]
0	0xbd4e9f5f	-0.050444957
1	0xbd591ee5	-0.05300798
2	0xbd25264e	-0.040319733
3	0x3e5a9c05	0.21348579
4	0x3d96c6ec	0.0736216
5	0xbe748334	-0.23878175
6	0xbe531c27	-0.20616208
7	0x3c069638	0.008214526
8	0x3e046ac3	0.12931351
9	0xbdf52d82	-0.119715706
10	0x3e6c015b	0.23047392
11	0x3e11bf1a	0.14233056
12	0xbdb3194d	-0.0874506
13	0x3d048dbc	0.03236173
14	0xbe5cacc3	-0.21550278
15	0x3e064486	0.13112077
16	0x3e98f5da	0.2987507
17	0x3e7e52be	0.24836251
18	0x3e27ec84	0.16398817
19	0xbe62b5bb	-0.22139637
20	0xbe116b37	-0.14201055
21	0x3dec3738	0.1153397
22	0x3d210111	0.039307658
23	0x3d9c83b9	0.076423116
24	0x3de207b3	0.11036625
25	0xbd05780e	-0.032585196
26	0xbe16b66c	-0.14718026
27	0x3e3a524d	0.18195458
28	0xbe7ab8f5	-0.24484618
29	0xbe222e1f	-0.15837906
30	0xbd759db7	-0.05996486
31	0xbe0abaa9	-0.13547768
32	0x3cdf49f6	0.027256947
33	0x3eb37930	0.35053396
34	0x3daeba14	0.08531585
35	0xbdaa1ce7	-0.08306294
36	0xbceedd65	-0.029158304
37	0x3ed4bca2	0.41550165
38	0xbc0b45c9	-0.008500525
39	0xbe49634c	-0.19666785
40	0xbebf3da3	-0.37351713
41	0xbdfd39cf	-0.12364542
42	0x3db306e8	0.08741552
43	0x3d9fa83a	0.077957585
44	0x3d1ebf7e	0.03875684
45	0x3e8beb4e	0.2732796
46	0xbd237340	-0.039904833
47	0x3d0c6464	0.034275427
48	0x3ebfe203	0.3747712
49	0xbdc8922d	-0.09793506
50	0x3e51887a	0.20462218
51	0x3d9e96d8	0.07743615
52	0xbece61c8	-0.40308976
53	0x3da535c8	0.080668986
54	0xbd9ddff3	-0.077087305
55	0x3f39a438	0.725162
56	0xbcb2e815	-0.021839181
57	0x3e490210	0.19629693
58	0x3e63ecae	0.22258255
59	0x3e1c7ea8	0.1528269
60	0xbc36cf23	-0.011157784
61	0xbe79c3f5	-0.24391158
62	0xbd64395b	-0.05571876
63	0x3ea94c14	0.33065856
64	0xbd9a16ae	-0.07523857
65	0xbde164b7	-0.11005538
66	0xbecede3f	-0.40403935
67	0xbde55f6c	-0.11199841
68	0x3d54cb1d	0.051951516
69	0xbe4956ea	-0.19662061
70	0xbe2cb59d	-0.16866155
71	0xbdafc5f7	-0.08582681
72	0x3ebf3a38	0.37349105
73	0x3e7872f5	0.24262603
74	0xbe88ca92	-0.2671705
75	0xbe126cc2	-0.142993
76	0x3e6118ca	0.21982113
77	0x3cdff6d0	0.027339369
78	0xbeaadbd3	-0.33370838
79	0xbe90f9bf	-0.2831554
80	0x3e16108d	0.14654751
81	0x3e572810	0.21011376
82	0x3e19d8a1	0.15024044
83	0xbe9a383e	-0.30121034
84	0x3d5b08ed	0.05347531
85	0xbc4aee9a	-0.012385989
86	0xbdd6c88f	-0.10487472
87	0xbe220334	-0.15821534
88	0x3e549417	0.20759617
89	0xbdcbb97e	-0.09947489
90	0xbe3d45cf	-0.18483661
91	0x3d530baa	0.051524796
92	0xbe8189c0	-0.25300407
93	0xbe6d3d3f	-0.23167895
94	0x3f0a80ed	0.54102975
95	0xbedd860b	-0.4326633
96	0x3d8714b4	0.06595746
97	0xbe22b754	-0.15890247
98	0x3de29551	0.11063636
99	0xbda8a13b	-0.08233877
100	0xbdf42264	-0.11920622
101	0x3dea14de	0.11429761
102	0x3e3027fb	0.17202751
103	0xbe9dfab1	-0.30855325
104	0x3eda72f5	0.4266583
105	0xbe9e3690	-0.30901003
106	0xbbdcd007	-0.006738666
107	0x3e6b5ab4	0.22983819
108	0xbe7cb56d	-0.24678583
109	0x3e57708b	0.21039025
110	0xbe1b1fdf	-0.15148877
111	0xbcecac95	-0.028890887
112	0xbddcbd70	-0.1077832
113	0x3d873f3d	0.066038586
114	0xbe93e883	-0.2888833
115	0x3e8e3423	0.27774152
116	0x3dc8416f	0.097781055
117	0x3e5b072e	0.21389458
118	0xbe254ad4	-0.16141826
119	0x3e04550c	0.12923068
120	0xbe1233e2	-0.14277604
121	0xbc195dcb	-0.009360741
122	0xbdb1f266	-0.08688812
123	0xbe33a539	-0.17543496
124	0x3ddc3c9f	0.1075375
125	0xbe275fcc	-0.16345137
126	0x3ca81cc0	0.020521522
127	0x3e76195e	0.24033114
128	0xbdbce60d	-0.09223566
129	0xbdb0cde8	-0.086330235
130	0xbdbe0f7c	-0.09280297
131	0x3dfbef32	0.12301482
132	0x3e278b45	0.16361721
133	0x3d09ad4f	0.033612546
134	0xbeb1f507	-0.34757254
135	0xbd27d4c2	-0.040974386
136	0xbe2e5bf9	-0.17027272
137	0xbcad71cf	-0.021172432
138	0xbd0fb798	-0.035087198
139	0x3e669590	0.22517991
140	0xbd3ed95c	-0.04659401
141	0xbde86293	-0.113469265
142	0xbe33d6de	-0.17562434
143	0xbc86d2b0	-0.016457886
144	0x3dea1bb1	0.11431063
145	0xbcbcdf2f	-0.023055641
146	0xbe42e841	-0.1903391
147	0x3e30e57e	0.17275044
148	0xbe0b7d40	-0.13621998
149	0x3e01f633	0.12691574
150	0xbef3f3c3	-0.47646913
151	0xbe850225	-0.259782
152	0xbdd3ad3e	-0.10335778
153	0xbca9e714	-0.02074007
154	0xbe85d960	-0.26142406
155	0x3e83b176	0.2572133
156	0xbe7a9bd2	-0.24473503
157	0xbdb3d972	-0.08781709
158	0xbe83ebbb	-0.25765786
159	0xbd9d1825	-0.07670621
160	0x3e58ce82	0.21172526
161	0x3e2a6494	0.1663993
162	0x3e29be06	0.16576394
163	0x3ea46868	0.32110906
164	0xbe5cbf13	-0.21557264
165	0x3ee58ae0	0.44832516
166	0x3e5f9328	0.2183348
167	0x3e69d7c2	0.22836211
168	0xbe686e4b	-0.22698323
169	0x3d02ee63	0.031965625
170	0x3dbcc8b4	0.092179686
171	0x3d11b627	0.035574105
172	0xbe3b6e79	-0.1830386
173	0x3e672972	0.22574404
174	0x3e3b77d8	0.18307436
175	0x3db5c93f	0.08876275
176	0xbd1b73d5	-0.037952263
177	0x3d22685e	0.039650314
178	0x3d9fdcc6	0.07805781
179	0x3e7b3eb3	0.24535637
180	0xbd8dbde4	-0.069209844
181	0x3e1f8be5	0.1558071
182	0x3c2abbe9	0.010420778
183	0x3e1c044b	0.15236013
184	0xbe6db1fd	-0.23212428
185	0x3e5f0b6a	0.21781698
186	0x3e6d700a	0.23187271
187	0xbdc0531d	-0.093908526
188	0x3dfd99b4	0.12382832
189	0xbe2fab02	-0.17155078
190	0xbe80b18e	-0.25135463
191	0x3eb293da	0.34878427
192	0x3d43ecf1	0.047833387
193	0x3d0d764a	0.034536637
194	0x3dcd54f7	0.100259714
195	0xbe05d0b0	-0.13067889
196	0xbd9fbeca	-0.07800062
197	0x3d9951ce	0.07486306
198	0xbd59e128	-0.05319324
199	0x3eb5ed8a	0.3553279
200	0xbdf4d13a	-0.11953969
201	0x3c490ba8	0.0122708455
202	0x3e78063c	0.24221128
203	0xbca2cd33	-0.019873237
204	0xbe83a97c	-0.25715244
205	0xbe41e80b	-0.18936174
206	0x3d0fc7bb	0.035102587
207	0x3a98e1c4	0.0011663963
208	0xbe49635c	-0.19666809
209	0x3e2d2b97	0.1691116
210	0xbd51cee3	-0.051222693
211	0xba047a82	-0.00050536555
212	0xbcb89c57	-0.022535486
213	0x3e4edbaf	0.2020099
214	0x3ebd50ee	0.36975807
215	0x3ec48944	0.38385975
216	0xbdd37803	-0.10325625
217	0xbe69f917	-0.22848926
218	0x3e209df2	0.15685251
219	0x3b1ba89e	0.0023751627
220	0x3e90fd34	0.2831818
221	0xbe94ce7f	-0.29063794
222	0x3e115c95	0.14195473
223	0x3ee77b73	0.45211372
224	0xbe5f6be3	-0.218185
225	0x3d99be5b	0.075070105
226	0x3e150351	0.14552046
227	0xbd721386	-0.05910065
228	0x3ed30b31	0.41219476
229	0xbe4dfc20	-0.2011571
230	0xbe5f6ab0	-0.21818042
231	0x3cce33a3	0.025171107
232	0x3e744f6d	0.23858424
233	0xbee157de	-0.4401235
234	0x3ea080f5	0.31348386
235	0x3e1bede9	0.15227474
236	0xbd0dd2ab	-0.034624737
237	0xbdb2dd70	-0.08733642
238	0xbeb96505	-0.36209884
239	0xbdae7bd9	-0.08519716
240	0xbdf2df84	-0.118590385
241	0xbdc3c632	-0.09559287
242	0x3db7e544	0.08979276
243	0x3e937df0	0.2880702
244	0xbc39af69	-0.011333325
245	0xbe5678f2	-0.20944574
246	0xbd596206	-0.053071998
247	0x3ea18dbb	0.31553444
248	0x3db101a0	0.08642888
249	0x3ddcfdc7	0.10790592
250	0x3eaeb844	0.3412496
251	0x3e532a8a	0.20621696
252	0xbdd3abb1	-0.10335482
253	0x3df26c83	0.11837103
254	0xbe5a14bf	-0.21296977
255	0x3e5a5ac0	0.21323681

bias f4 [24]
0	0xbe12be2a	-0.14330354
1	0x3d6686fd	0.05628108
2	0x3dbeb40b	0.09311684
3	0xbe336f22	-0.17522863
4	0x3d7bc41b	0.061466318
5	0x3e2bd4fb	0.16780464
6	0x3d2a9bed	0.04165261
7	0xbbee5a29	-0.0072739315
8	0x3e04f48d	0.12983914
9	0xbe014fee	-0.12628147
10	0x3d21648b	0.039402526
11	0xbe1011c3	-0.14069276
12	0xbe3b5636	-0.18294606
13	0x3d011693	0.03151567
14	0x3dcb2695	0.09919468
15	0x3e148ad2	0.14506081
16	0x3d26b1f3	0.04069705
17	0xbd552a18	-0.052042097
18	0x3db7f3eb	0.089820705
19	0xbdb0dd98	-0.08636016
20	0xbcb8d979	-0.022564637
21	0x3a783184	0.00094678276
22	0xbd83c959	-0.064348884
23	0x3db307d5	0.08741728

weight f4 [24]
0	0x3f8c6bf8	1.097045
1	0x3f5e7c68	0.8690858
2	0x3f7b6eb4	0.98215795
3	0x3f8f4df6	1.1195667
4	0x3f923d3a	1.1424935
5	0x3f5b789a	0.857309
6	0x3f8381fe	1.0274045
7	0x3f6a3041	0.9147988
8	0x3f5cf0a5	0.86304694
9	0x3f92ea99	1.1477844
10	0x3f592cd7	0.84834045
11	0x3f5c8d0c	0.8615272
12	0x3f4ba3e1	0.79546934
13	0x3f7c2c61	0.98505217
14	0x3f72131a	0.94560397
15	0x3f83dd95	1.0301996
16	0x3f7fe8d8	0.99964666
17	0x3f49e790	0.7886896
18	0x3f82a366	1.0206115
19	0x3f73a206	0.95169103
20	0x3f880598	1.0626707
21	0x3f6eb6dc	0.9324777
22	0x3f5b0127	0.85548633
23	0x3f6c98dc	0.92420745

bias f4 [24]
0	0x3d68e22c	0.05685632
1	0x3cee5af8	0.029096112
2	0xbc046d20	-0.008082658
3	0xbb127dc6	-0.00223528
4	0x3dc0cb4d	0.094137765
5	0xbd2b51ea	-0.041826166
6	0xbdc4cce9	-0.09609396
7	0xbd88b351	-0.06674827
8	0xbe7777dc	-0.24166816
9	0x3d19ecd8	0.037579387
10	0xbd5fbd64	-0.054623976
11	0xbdfa6591	-0.122264035
12	0x3d924c31	0.071434386
13	0xbc83a409	-0.016069429
14	0xbd96e852	-0.0736853
15	0x3cfa373e	0.03054392
16	0xbbc9db92	-0.006160208
17	0x3d90ea96	0.07075994
18	0x3e0b9949	0.13632692
19	0xbd17133e	-0.036883585
20	0x3e102736	0.14077458
21	0x3d907928	0.07054359
22	0x3dc5c776	0.09657185
23	0xbe5ba578	-0.2144984
