Case_Study_1/trained_transformer/verification/vit_6_2_6_32.pt (torch, 26598 bytes, 30 tensors)

pos_embedding f4 [1, 50, 6]
00000000: fc55 f4bf 35e5 4abf 8c97 913f 9909 b03f
00000010: 0d44 c9be bdb6 d8bf 1951 0c3d dc6a adbf
00000020: b071 a5bf 8ab8 9bbe 3410 7a3e 5f83 b3be
00000030: 8ceb f2bf 4bfd 0bbf d347 38bf 2cc7 623f
00000040: fd34 b93b 3372 7c3f 5566 15bf 8475 0240
00000050: 2583 8e3f dafb 7c3e 45e0 1b3f b91d ae3d
00000060: dc4b 67bf a878 4f3f daf6 c7bd 1095 cfbf
00000070: 56f6 de3e e9d2 85bf 8b55 d13d 64a7 b83e
00000080: 3115 ccbf e879 9b3f b778 a4bf 6aab ca3f
00000090: d4b9 ecbe 4cc7 a73f cae3 c2bd 9297 e6bf
000000a0: eb5e bcbf 655b 8ebf 8875 08c0 ac15 d8bf
000000b0: 8eb4 043e 1879 053f 68e2 2e3e f805 943e
000000c0: f86b 1fbf dcfe cfbf 2a18 febc b0a2 e53e
000000d0: 4b81 ddbf eac4 1c3f 7876 083f c7f0 cbbe
000000e0: 4711 20bf 40f2 dc3f bfa0 48be 0c97 363f
000000f0: dab3 e1bf 6555 e63e e82c 093f 2a01 8ebf
00000100: 356a 9c3f 5be9 78be bb83 353f 236f 093f
00000110: 6230 903f ff9c 31bf 1106 4fbd 43bf 1bbf
00000120: 8698 943f 3bae 1dbf 70c4 19bf b741 873d
00000130: 4b9d 653f 237e d53f bd87 5a3f f451 4dbf
00000140: 462e 97bf 1165 26be ceae 3b3f d0db d33f
00000150: 41de dabf b586 7ebe 58cd b23e 6b8a c0be
00000160: 4e55 803e 825c c73e 00f3 bf3e 12b8 d23f
00000170: 3444 283f ef2f 0d3e 3902 51be c730 c3be
00000180: cd89 dcbd 2d1e 913e 4ae0 00c0 d7cc 2cbf
00000190: 7daa 0340 001c e63e ffdf 993f 5395 113f
000001a0: edcc 523f 0dc0 1b3e 1edd b73e 3261 35bd
000001b0: 6282 a3be cfba 59bf f6a4 82bf 4124 d6be
000001c0: 5ee2 0240 9be1 d03f 7c62 0abf 6b49 00be
000001d0: f5a8 893d e6f0 8cbf 876f 2640 38dc 8d3f
000001e0: 27ff 6d3f 7035 1a40 241f 2cbf 4f77 473f
000001f0: b183 75bf 2e74 833f edc2 7dbf 659d 7ebf
00000200: 2bc9 7d3f c7e2 96bf ab2f 493e 5097 dbbe
00000210: 1c54 183f f2f2 67be a9bd fdbf 3c8d e13e
00000220: 33e7 dfbf 3225 a13a 0bc8 b13f ebdc 023f
00000230: 30f0 7dbe 232e b2bf 0262 4cbf 84eb 1e3f
00000240: d864 48be f9b8 87be 0a23 39bf d09c bbbd
00000250: 5e40 9d3f dadf fcbf 371d 843f 86e8 ea3f
00000260: dca4 aebf ee30 4bc0 6665 1b3f 527a cbbf
00000270: 0daa 73bf 11fe 03bc 46f7 17be 6abd f03e
00000280: c560 b6bf 42cc 0e3e c8d0 fb3f dc44 e7bf
00000290: 0a62 193f 1e72 683e a23c ca3f 1152 293f
000002a0: 6ca1 4e3f 2de2 b43c 7466 57be 4447 4dbf
000002b0: d1b1 033f 8f18 0ebf c8b4 ed3e af26 293f
000002c0: 8de6 a23f 2d05 1fc0 e76d 92bf 7fe7 bf3f
000002d0: 4b13 cc3f 88a1 01c0 3102 5b3f 3514 28bf
000002e0: fecf e33e 5a4b f7be 4ada b13e 3b30 38bf
000002f0: a03f aabe e0aa 9fbf bbf1 d6bf 6f33 8e3f
00000300: baff 42bf 55a0 6cbf cc10 f9bf 8eaa b1bf
00000310: a5c8 94bf bb18 1240 9977 b23e 6b59 33bd
00000320: 7b45 573f e0c3 383f 6897 b53f 7a6c b83e
00000330: 88c2 8fbf 8a0f 65bf 6d0c f3bf 3c01 abbe
00000340: bc68 a7bf 94bc 883f f90c 543d 8285 303e
00000350: 8f89 f9be d969 aabf e66b a03e bd61 25bf
00000360: adf3 09c0 d525 703f 3629 c8be ab9a b53f
00000370: 5ff5 833f 64e8 0d40 572b 953f 9da7 a5bf
00000380: 2bb7 ab3f efc5 b73d 74f1 1b3f 468f b3be
00000390: 1fcd 153e 4d2d a6bf 53ec 183e 971b 11be
000003a0: 02a8 55bd 5a91 02bf e43e b13f 9a0f e1be
000003b0: ab78 33be a047 993f 93d3 3e3f 047d 7d3d
000003c0: fe5c aa3f aa6f 10be 5dc8 9dbf 0367 983e
000003d0: eb9f 373e d1af 2fbf 2058 87bd 8b29 313f
000003e0: 4f17 d13f 358c 7ebf a91a 5abe c6f8 2abe
000003f0: 1551 a43e e4c8 6d3f a6ca 44be 94a3 9a3d
-1.908874 -0.7925599 1.1374373 1.3752929 -0.3930973 -1.6930767 0.03425703 -1.3548236
-1.292532 -0.3041423 0.24420244 -0.35061166 -1.8978133 -0.5468337 -0.71984595 0.8858516
0.0056520686 0.98611754 -0.5835927 2.0384226 1.1133772 0.24705449 0.60889083 0.08501763
-0.9035013 0.8104348 -0.0976388 -1.6217365 0.43547314 -1.045499 0.10221394 0.3606521
-1.5943967 1.2146578 -1.2849339 1.5833561 -0.46235526 1.3107696 -0.095161036 -1.8015006
-1.4716467 -1.1121641 -2.1321735 -1.6881614 0.12959501 0.521379 0.17078555 0.28910804
-0.6227412 -1.6249652 -0.031017382 0.44850683 -1.7305082 0.61237967 0.5330577 -0.39832136
-0.62526363 1.7261429 -0.1959257 0.7132423 -1.7633011 0.44987026 0.53584146 -1.1094105
1.2219912 -0.24307768 0.7090413 0.53685206 1.1264765 -0.6938018 -0.050542895 -0.6083872
1.1609046 -0.6159398 -0.60065365 0.06604331 0.89693135 1.6679119 0.8536337 -0.80203176
-1.1810997 -0.16249491 0.73313606 1.6551456 -1.7099077 -0.24856074 0.3492229 -0.37605605
0.25065082 0.38937765 0.37490082 1.6462424 0.6572907 0.13787816 -0.20411004 -0.38123152
-0.10768471 0.28343335 -2.0136895 -0.6750006 2.0572808 0.44943237 1.2021483 0.56868476
0.8234394 0.1520998 0.35910887 -0.044282146 -0.31935412 -0.8505067 -1.0206592 -0.41824535
2.0450664 1.6318849 -0.54056525 -0.12528007 0.06721679 -1.1011016 2.600557 1.108283
0.92967457 2.4095116 -0.67235017 0.77916425 -0.9590407 1.026983 -0.9912556 -0.99458915
0.9913508 -1.1787957 0.1964709 -0.4288888 0.5950334 -0.2265127 -1.9823505 0.44053066
-1.7492431 0.001229441 1.3889173 0.51118344 -0.24798656 -1.392033 -0.7983705 0.6207812
-0.19569719 -0.2650831 -0.7231909 -0.09160769 1.2285268 -1.9755814 1.0321416 1.835221
-1.3644061 -3.1748614 0.60701597 -1.5896704 -0.9518135 -0.00805618 -0.14840421 0.4701951
-1.4248282 0.13945106 1.967309 -1.8067889 0.5991522 0.22699782 1.5799754 0.6614085
0.8071506 0.022080505 -0.21035177 -0.8018687 0.514432 -0.55506223 0.46426988 0.6607465
1.2726609 -2.484691 -1.143979 1.4992522 1.5943388 -2.025484 0.8555022 -0.65655833
0.44494623 -0.48299676 0.34736854 -0.71948594 -0.33251667 -1.2474022 -1.679252 1.1109446
-0.7617146 -0.9243215 -1.9458251 -1.3880174 -1.1623732 2.2827594 0.3485687 -0.043786447
0.84090394 0.7217388 1.418683 0.3602026 -1.1231241 -0.89476836 -1.8988167 -0.3339938
-1.3078837 1.068255 0.051770184 0.17238429 -0.4873776 -1.3313552 0.3133232 -0.6460226
-2.1554978 0.9380773 -0.3909394 1.4187826 1.0309256 2.217309 1.1653851 -1.2941777
1.3415273 0.089733 0.60915303 -0.35070246 0.14629029 -1.2982575 0.149339 -0.14170681
-0.052162178 -0.5100304 1.3847318 -0.43957216 -0.175265 1.1974983 0.74541587 0.061886802
1.3309629 -0.14105096 -1.2326771 0.29766092 0.17932098 -0.6862765 -0.066086054 0.69204015
1.6335238 -0.9943269 -0.21299233 -0.16696462 0.3209311 0.9288466 -0.19217929 0.07550731

cls_token f4 [1, 1, 6]
00000000: efc5 b93e 12a1 7b3e 5421 6cbf bc9c e0bf
00000010: 2400 bbbe 6221 c43f
0.36283824 0.24573162 -0.92238355 -1.7547832 -0.36523545 1.5322688

weight f4 [6, 16]
00000000: 05f4 0abf b074 93be 9ae8 81be 58fb 463e
00000010: 3cf7 30be be23 8dbd 826a 993d b177 a73e
00000020: 6fa3 a3be 32b6 07be 83aa 6c3e 8b3a 333e
00000030: 9106 20bf 215c d63b b02c cd3d 4da8 583e
00000040: d507 8ebd ff85 ae3d 9fb7 953e d909 a63d
00000050: 3d25 eabb fe0d 8b3e 20fc 703e a0dd 89bd
00000060: a4d2 3ebd ed12 823e d9cf ac3e 59d3 84be
00000070: d1d3 793d 4311 e23e d133 9b3e 660d 84be
00000080: 651f 403e 61bb 84bd 0814 61bd 935b 393d
00000090: 10b2 8b3e f0bc 1cbb e28e 61be 13a1 cd3d
000000a0: 2a1f 8e3e 4bd7 b1bd c61a 91bc 4b9f 203e
000000b0: fad8 00be ceb9 3bbe c40a 29be e361 1fbd
000000c0: 6d95 033e 4b2c e53c 200f 573d b03f 4c3e
000000d0: 3a47 273e c2c7 393e 2bf9 863b b616 213e
000000e0: 02df 153e 3727 e53d 1fae bb3d 6a73 793d
000000f0: 413c bdbc 67f6 773d 517c 4a3d 1b6a d13d
00000100: 1f38 2b3e 9183 bbbd 0bbf 493c b53d 91bd
00000110: 67b1 5dbb bf33 8e3d 9e2b 08bd 431a c33d
00000120: 2791 203d b92a 063d a8cc 00bb ff39 533d
00000130: a2b7 90be d9a0 55bd 36b5 ecbd 4bf1 0c3e
00000140: 91eb 9cbc afbd 37be cb9a 95be 71c0 97be
00000150: bbce 643e d4b7 1d3b e863 57be afda d8bd
00000160: 8d9b 163e 927f 07be 0351 19be 9529 68bd
00000170: 813f 30bd f67f 2fbe a748 8bbe d7c7 45be
-0.54278594 -0.28799963 -0.25372773 0.19431818 -0.17281812 -0.06891583 0.07491018 0.32708505
-0.31960627 -0.13253096 0.2311192 0.17502801 -0.6251002 0.0065417443 0.10018289 0.21157952
-0.069350876 0.085216515 0.29241654 0.08107347 -0.0071455524 0.27159113 0.23533678 -0.06731725
-0.0465876 0.25405064 0.33752325 -0.25942495 0.06099302 0.44153795 0.3031297 -0.25791472
0.18761976 -0.06481052 -0.054950744 0.045253348 0.27284288 -0.0023916326 -0.22027162 0.10040488
0.2775815 -0.08683642 -0.017712962 0.15685765 -0.1258277 -0.18332598 -0.16508013 -0.03891171
0.1284997 0.027975222 0.05250466 0.1994617 0.16335765 0.18142608 0.0041190586 0.1573132
0.14635852 0.1118912 0.0916407 0.060901083 -0.02310002 0.060537722 0.049434964 0.10225316
0.16720627 -0.09155954 0.012313615 -0.07091848 -0.0033827664 0.069434635 -0.03324472 0.095264934
0.039200928 0.032755587 -0.0019653235 0.05156898 -0.282651 -0.05215535 -0.11558001 0.13763921
-0.019155296 -0.17943452 -0.2921966 -0.2963901 0.22344486 0.002406587 -0.21034205 -0.105885856
0.14707775 -0.13232258 -0.1497231 -0.05668028 -0.043029312 -0.17138657 -0.27203867 -0.19314514

bias f4 [6]
00000000: b25e f4bb 1570 e03d c7db 9e3c 15b2 c73d
00000010: 1bfa 9dbc 8207 bdbc
-0.0074575776 0.10958878 0.019391907 0.09750763 -0.019284299 -0.023074869

weight f4 [6]
00000000: b5af 873f 3bd1 903f 5048 923f 06b2 a63f
00000010: 0cf4 a83f d1d3 9b3f
1.0600497 1.1313852 1.1428318 1.3023078 1.3199477 1.2174016

bias f4 [6]
00000000: c2ea 603d b1bd 69bd 1bca 5c3d 1998 b0bc
00000010: e6a4 e5bc 3358 db3b
0.054911382 -0.05706567 0.05390368 -0.0215569 -0.028032731 0.006693864

weight f4 [18, 6]
00000000: 9754 d1bd e7b5 ddbe 887d a13e 5f26 d93d
00000010: 5a3b 61bf 7815 203f e884 60be 1a66 2d3f
00000020: c2df 07be 8cdb 213f c331 2d3e bd9c 57be
00000030: 5d51 2c3e 2044 9dbe c224 d7bd 9a2e 303e
00000040: 557b 9c3e e752 2dbf 0fc9 a7be 1094 b43d
00000050: 9980 143f 2763 af3e 6d3a adbe 2576 0e3e
00000060: 0755 983e d1f2 c03e c0e2 8abe 341c 603e
00000070: 7640 2ebd ad40 8a3e 0cd2 08bb 5af8 593e
00000080: 20cd 40bf 1cdb edbd cd0e d4be 95ba 8f3e
00000090: 3e66 033f be4f 223e 987a 813e 0b3a b43d
000000a0: 83e3 8fbf b1ed 0d3e dd95 6f3e 75c9 0cbc
000000b0: 4de0 f5be 4400 dabe 79c6 eb3e 1123 1bbf
000000c0: b336 ad3e 1bc0 18be a2b0 ad3d 4ffc 3c3e
000000d0: 7406 ab3e 8545 40bf 8d2a 56be 5317 8abe
000000e0: 4d7e 74be 8cfc 06bf 7878 21bd 0005 113f
000000f0: 787f 41be 1b66 c03e 4eda be3c 4b14 393e
00000100: d3e5 6dbc b014 27bf 1cb0 e0be ca9f 29be
00000110: 45ac 3a3e 325a 593f b89d 533a 7905 f93d
00000120: c109 e63d eb6d c8be bb48 01bf 0132 323f
00000130: 6cc5 9e3c c5b9 14bf a485 03bf 8549 d2be
00000140: 030f 11be 4191 1cbe 8d40 093f ae0f 6a3e
00000150: c0df a1be bc78 e43c 17f6 c43e b8f0 df3e
00000160: c432 67bc a095 ccbd a9e2 adbe 3d2f 16bf
00000170: 3389 a13d e39d 8f3d c803 483f 8f28 04bf
00000180: bca2 f53d b9ed e1be a61f 613f 6264 83bf
00000190: d375 7cbc 21d5 843d d0a3 e03e fc1d 26bd
000001a0: 6e10 5bbe 7632 23bd 9525 4fbf 0f44 de3e
-0.10221212 -0.43302843 0.31541085 0.10603022 -0.8798119 0.6253276 -0.219257 0.6773392
-0.1326895 0.63225627 0.16913514 -0.21055885 0.16827913 -0.30716038 -0.10505058 0.17205277
0.30562845 -0.67704624 -0.32770583 0.08817303 0.58008724 0.34255335 -0.33833638 0.13912256
0.2975237 0.37685254 -0.27126122 0.21885759 -0.042541943 0.2700247 -0.002087715 0.21286145
-0.75312996 -0.116140574 -0.41417542 0.28072038 0.51327884 0.15850732 0.25288844 0.08800133
-1.1241306 0.13860203 0.23397012 -0.008592953 -0.4802269 -0.42578328 0.4604986 -0.6060038
0.33830795 -0.14917032 0.08480956 0.18455623 0.3340336 -0.7510608 -0.2091467 -0.2697092
-0.23876305 -0.52729106 -0.03942153 0.56648254 -0.18896282 0.375779 0.023297455 0.18074147
-0.014520126 -0.6526594 -0.4388436 -0.16564861 0.18229778 0.8490325 0.0008072513 0.12159247
0.11232329 -0.3914636 -0.505016 0.6960755 0.019381247 -0.5809596 -0.51375794 -0.41071716
-0.14165883 -0.15289785 0.5361412 0.22857544 -0.3161602 0.027889602 0.38469002 0.4373834
-0.014111225 -0.09989476 -0.3396199 -0.5866583 0.07887497 0.070125364 0.7813077 -0.5162439
0.1199393 -0.4412668 0.87938917 -1.0265009 -0.015408951 0.064859636 0.4387498 -0.04055594
-0.21392986 -0.039843045 -0.8091672 0.434113

weight f4 [6, 6]
00000000: 094f acbe 7550 0d3f c137 10be 866a 08bf
00000010: 8105 793e 696f de3e 6db6 b03e eed0 ccbd
00000020: 26ca 9dbe a1ca 793e 8621 733f 0abc 82be
00000030: 7ad3 4a3c bd52 6f3e 0250 783e 702f 1e3f
00000040: 070c 00bf abe1 85bc f55d 86be b03e c1bd
00000050: ef73 833d 8a94 d43e 5a63 29be 6a45 af3e
00000060: a7d6 343f e923 73be 6688 25bb a0ca 4cbe
00000070: 9be7 97be b813 2cbf 6267 8dbe 8fc4 813e
00000080: 4b4e 81be 25e7 db3d f0a1 c3be 964a 02bf
-0.3365405 0.5520089 -0.14083768 -0.5328754 0.24318506 0.43444374 0.3451418 -0.10000788
-0.3081829 0.24393703 0.9497303 -0.25534087 0.0123795215 0.23371406 0.2424927 0.61791134
-0.5001835 -0.016342958 -0.2624356 -0.09435785 0.06418597 0.41519576 -0.16541806 0.34232646
0.70640033 -0.23744167 -0.0025258302 -0.1999917 -0.29668888 -0.6721759 -0.27617937 0.25345275
-0.25255045 0.10737447 -0.38209486 -0.5089506

bias f4 [6]
00000000: 44c3 b63e f0a4 82bc 1cba 1dbe 28c1 ab3d
00000010: 119a c8be dcea de3e
0.3569585 -0.015947789 -0.15403026 0.08386451 -0.39180043 0.43538558

weight f4 [6]
00000000: 39e1 563f b6a7 5c3f 1cfc 853f ef7b 593f
00000010: b295 7d3f bb5d 693f
0.8393741 0.86193407 1.0467563 0.8495473 0.9905654 0.91158646

bias f4 [6]
00000000: 40db aeba f9b4 253d f6ad 883c 90b2 cebc
00000010: 607a 1a3e 192d d9bd
-0.0013340488 0.040455792 0.016684514 -0.02523163 0.15085745 -0.10604305

weight f4 [32, 6]
00000000: 45b0 f53d 98dd e23d c021 3dbd e844 9f3e
00000010: 80a3 34bd 6207 02bf cbc0 003b 3ca1 3bbe
00000020: 7a04 e0bc 42b6 d1be bcbb 99be 6205 3dbd
00000030: 86f1 e13d 92e0 4b3d 208f 67be 45c7 ffbe
00000040: 1a80 ccbc 8257 583e d1b6 c7be cd4d f8bd
00000050: 6f93 023f 97f2 3fbe d4f8 ce3d 124b d3be
00000060: 2295 c8be 959a 373e 6624 693e 9a03 413b
00000070: a661 253e af44 85bd ed1c c93b e1d9 57be
00000080: 3097 05bf d6fc a43e 51f4 f63d 537f a63e
00000090: 6841 1a3c 07d9 cd3e 8d89 98be 5d50 44be
000000a0: 8ea1 e3bd 8d8f db3e 7574 903e 739a 913a
000000b0: c8f7 d5be 949f 983e 5cb7 47bd b74c c7be
000000c0: e0ba 883e 6f64 abbb eb94 e4bd 5a65 813e
000000d0: bfd7 80be bb7a 89be 79ba fc3e d943 dfbd
000000e0: bd44 eebc 1a55 e3bb 544f afbe 8af0 3ebe
000000f0: bcbe 4dbe dcfc ee3d 7cf7 bebd 8699 4bbe
00000100: 6dd1 cebd 5a48 bcbc 08c6 17bf 5518 803d
00000110: bdc6 823e 3cc4 21be 450b e9be 407a 93be
00000120: 42ee 663e ca89 3b3f 5c31 b7be e48d b73e
00000130: a58b 143f 4457 943e cdf4 dd3d fa71 8fbe
00000140: a581 a53c f567 6f3e fe17 2fbe e615 513d
00000150: 81bf fb3e 88b8 47be 2f8f e4be 8cf9 f4be
00000160: 9207 e8be 0613 8dbd 5cbb 41be 03b7 fbbe
00000170: 6c13 a33e 727c fbbd 84dd cd3e ccd2 b93e
00000180: 177b e43d be7e a5be 4d1c b7be 7f58 d9be
00000190: eac9 463e d5c4 0c3f 2c26 aebd c244 afbe
000001a0: 30f9 683d e023 07bf a628 873d e16a 043e
000001b0: 60eb 2c3d c69e 13be 67fd 20be 0eef 15bf
000001c0: 0208 f43e 44ab e7bd 57ca 4abe e9ab f63d
000001d0: 4b42 f1be 67f7 a03e f9da 4cbd 8a58 a23d
000001e0: 3477 a83e d78e 03bf 77f7 80be 0ad4 5cbc
000001f0: 85bf 723e 9790 113e e7b5 79be b4e0 eabe
00000200: d8dd 07be 6197 8c3e d7ff de3d a37e 413d
00000210: a451 b73e 4fd3 bcbe 442e 3a3c 5072 803e
00000220: c22b 95bd 33b9 ec3e 156f 66bc 675b 1a3f
00000230: 0dd0 7a3e f492 98be 31c0 9b3e ba65 7c3d
00000240: 7f59 c03d 00f3 f63e 2bec b7be f272 40be
00000250: c948 2dbe b2e9 563e 7c0a 53be 488c 9e3e
00000260: 709b 5a3e 579a a13e 24b8 5b3f 557a 9abe
00000270: 31ba 81be b2b6 0f3f 9d54 f5be f79e 3d3e
00000280: 39f9 96be 6715 b93d 6f85 d9bd 880f babe
00000290: 34c5 c83b 7450 d53e 6602 5abe 2b64 35be
000002a0: 90e7 ba3e 1d61 b43e c29e 0abe f910 883c
000002b0: d3b3 be3e 2d43 5a3e 494d f93e 692b 773e
000002c0: b7cf 24be b7c9 d5be b972 5a3e 24d2 c43e
000002d0: fc0d 01bf 59c1 53be 7b30 9fbe aaef f13e
000002e0: a038 d63e 73dc 98bd ea8f c9be 0530 913e
000002f0: d285 2bbd d8dd 83bd a034 b8be c582 a4be
0.11996511 0.11077422 -0.046174765 0.3110726 -0.04410124 -0.50792515 0.0019646164 -0.18323225
-0.027345885 -0.40959364 -0.30026042 -0.04614771 0.11032395 0.049774714 -0.22613192 -0.49956718
-0.024963427 0.21127132 -0.39006665 -0.12124214 0.51006216 -0.18744884 0.10106054 -0.41268212
-0.3917628 0.17930062 0.22767791 0.002945161 0.16150531 -0.06507241 0.0061374814 -0.21079208
-0.5218382 0.3222415 0.120583184 0.32519016 0.009415008 0.4020464 -0.29792443 -0.19171281
-0.111147985 0.42882958 0.2821385 0.0011108652 -0.41790605 0.29809248 -0.04875885 -0.38925716
0.26705074 -0.0052304785 -0.11161216 0.25272638 -0.251646 -0.26851448 0.49361017 -0.10901613
-0.029085511 -0.006937635 -0.3424021 -0.18646446 -0.2009229 0.11669323 -0.09324548 -0.19882783
-0.100985385 -0.022983719 -0.59286547 0.06254641 0.2554225 -0.15797514 -0.4551641 -0.28804207
0.22551826 0.73257124 -0.35779846 0.3585044 0.5802558 0.28972828 0.10837708 -0.28016645
0.02020342 0.233795 -0.17098996 0.051046275 0.49169543 -0.19503987 -0.4464049 -0.4784664
-0.45318276 -0.06888394 -0.18919128 -0.49163064 0.31850755 -0.122795954 0.40208066 0.36293638
0.1115629 -0.3232326 -0.3576378 -0.4245033 0.19412962 0.5498784 -0.085033745 -0.34232146
0.05687827 -0.52789116 0.0659955 0.12931396 0.04221666 -0.14416036 -0.15721665 -0.58567894
0.4766236 -0.11311963 -0.19803749 0.12044508 -0.4712089 0.31438753 -0.050013516 0.07927044
0.32903445 -0.5138983 -0.251888 -0.013478288 0.23705871 0.14215313 -0.24385796 -0.4587456
-0.1326822 0.27459243 0.10888641 0.04723991 0.35804474 -0.36879966 0.01136357 0.25087214
-0.07283737 0.46235046 -0.01406457 0.6029572 0.24493428 -0.29799616 0.30420068 0.06162045
0.0939207 0.4823227 -0.3592237 -0.18793848 -0.16922297 0.20987585 -0.20609468 0.309664
0.21348357 0.31563064 0.8582785 -0.30171457 -0.25337365 0.56138146 -0.47916117 0.18517672
-0.29487017 0.09037285 -0.106211536 -0.36339974 0.006127024 0.41662943 -0.21289977 -0.17713992
0.36504793 0.35230342 -0.13537124 0.016609656 0.3724657 0.21314688 0.48691776 0.24137653
-0.16094862 -0.4175546 0.21332826 0.38441575 -0.50411963 -0.20679225 -0.31091675 0.47253162
0.41840076 -0.07463922 -0.3936761 0.28356948 -0.041875668 -0.06438798 -0.3597765 -0.3213102

bias f4 [32]
00000000: 2e1c 2ebe 1fd3 80be a0c8 d33d c7e0 10bf
00000010: 4b59 1d3e e6ed ddbe 3ef8 dfbe 8550 953e
00000020: f4d1 ecbd 6e7b b6be 2306 323d 352d bcbe
00000030: 4bb9 653e fc1e d1be 19ca dfbe c436 05bf
00000040: f4ac db3c 6e33 4ebe 3418 56bc 3c2d 88be
00000050: f4d5 ccbe a87a 65bc 7875 20bf 87b3 a0be
00000060: 1b06 44be df5a a4be ae51 07bf 41a3 f8be
00000070: f245 e9be 2936 1bbe 7bb8 aabc 3ef5 95be
-0.17002937 -0.25161073 0.103410006 -0.56592983 0.15366094 -0.43345565 -0.4374408 0.29162994
-0.11563483 -0.35641044 0.043462884 -0.3675324 0.22433965 -0.40843952 -0.43708876 -0.5203669
0.026815869 -0.20136806 -0.013067294 -0.2659701 -0.40006983 -0.014006294 -0.62679243 -0.31386968
-0.19142954 -0.3210058 -0.5285901 -0.48562053 -0.45561177 -0.15157379 -0.02083992 -0.29288667

weight f4 [6, 32]
00000000: ef8d 53be 385e 4abd 1ca3 27bc 75aa 3bbe
00000010: 9655 85be be58 c0bd 018a d13e bfa3 92be
00000020: 0570 63be b56a 3abe f7ff 203d 9fde 79bd
00000030: 9c92 d23d d21d edbc 48ef dbbe 617e 543e
00000040: 1111 79be 44a4 12be 5f29 59be a190 8bbd
00000050: 7fb2 9b3d 5ae4 273d eca2 10bc 9cc7 7e3e
00000060: e693 833e 8a6b 6c3e c0a6 0d3c 3f04 073e
00000070: e0fa cd3d 040c b8bc 7dd2 403e 449d efbd
00000080: da85 7cbe 3133 74bd 61da c5bc 9eb7 2d3f
00000090: dd0f 3c3c 8340 173f c164 cc3e 40eb 93be
000000a0: f506 dd3d 53c4 023e 6102 41bd 2312 8a3d
000000b0: dcc0 13be 132c 75bd 11b9 4dbe 0ab0 353e
000000c0: 6bb5 0d3e 3167 c13e 8c0d 42bd 3dab 2fbd
000000d0: 222e 113f c8ac babc 693f bbbe de22 4fbe
000000e0: 89c0 5abe 7060 ecbe f538 acbe f44e cf3d
000000f0: 0a32 cc3e 2acc ddbe 142d d3be 2721 debc
00000100: 54a8 1f3e a464 93be 9909 b5bd 1176 15bc
00000110: a316 0d3e 01fe d8bd ef63 833d 9d74 543e
00000120: 6078 1c3e 85bb f13d 4c42 efbc 06b6 983e
00000130: 4aac 80be 82ba 9cbc 85c9 363d 5de1 1d3e
00000140: 1433 3bbd 5cbb 4a3e bb54 58be adee b3bd
00000150: 5658 903e cdcf 463e f7c9 c0bb 1bbc ebbd
00000160: 599c 98bb 5999 213e 24e1 043e 686d debe
00000170: c7dc 78be 74b1 08be 17de ccbd def4 ba3d
00000180: 247f 23be e3e2 14bd 3eab 50bd 87d2 86be
00000190: 382e 9bbd ba3f 453d 44cd 8d3d 2e4d 8ebd
000001a0: bd13 21bc 051a 5f3e e4c2 ea3d c58b b13e
000001b0: 13fb 22be eb60 cf3d 04cd 383e 9138 69be
000001c0: e7a5 8cbe a7c0 3f3d 794f 3e3e 06cf 3d3e
000001d0: 5e21 bebd 3a61 c83d 5d04 bdbd e152 22be
000001e0: 8ed2 3d3d ec22 cebe 94a5 393e 4593 9e3e
000001f0: 0e51 9ebe 43f8 373e b283 9d3c e13b e23d
00000200: c6ad 7a3e 2e57 cabc b9fe 743e b02a 10bf
00000210: 1497 45bd 82d8 94be fd30 c6be aa29 b4bd
00000220: 2da9 1f3e ddd5 26bd 2ed0 eebd 45cf efbe
00000230: 3ce1 c03d f244 a23d bf0d dd3e 9cb5 e83d
00000240: 0a5f ee3c 4b47 833e 0777 ae3e 6fcc 8f3e
00000250: 2a48 a8bd a732 81bd e07c e3bc f6fd ffbc
00000260: 583d 63be 1321 e1bc d14f edbe 45b5 d83d
00000270: db79 803e 433e 9b3d 11ac 293c b18e 273e
00000280: cd12 f9bd 2fc3 c2bc dfe8 ad3e 6e3e a5bd
00000290: 0269 573d b5e7 cc3e 90fb 30bf d910 883d
000002a0: 1a24 2cbc e0b0 f2bd 21b4 adbd e7ca cabd
000002b0: b6eb b53e cca5 523e ad59 6f3c a5f6 efbe
000002c0: 8633 0e3f dfea 39bd a1ea d93d 76ea 453e
000002d0: a29d 67be 44a9 913e 07b2 e83e ed57 e23d
000002e0: 5c18 c33d 2752 c03e 11ec 8a3e d606 fabd
000002f0: 3954 bbbd 7984 2d3e 950b 933e 3691 d73e
-0.20659612 -0.04940626 -0.010231759 -0.18326743 -0.2604186 -0.09391926 0.409256 -0.28640553
-0.22210701 -0.18204768 0.039306607 -0.061003324 0.1028187 -0.028944883 -0.42955995 0.20751335
-0.24322917 -0.14320475 -0.21207188 -0.06814695 0.07602405 0.040989257 -0.008827906 0.24880832
0.25698775 0.23087898 0.008645713 0.13185214 0.10057616 -0.022466667 0.18830295 -0.11699918
-0.24660435 -0.059619132 -0.024151983 0.678583 0.0114783915 0.5908281 0.3992062 -0.2889042
0.107923426 0.12770204 -0.04712141 0.067417406 -0.14429039 -0.059856486 -0.20090128 0.17742935
0.13838737 0.3777404 -0.0473762 -0.042887915 0.5671102 -0.022787467 -0.36571816 -0.20228145
-0.21362509 -0.46167326 -0.33637205 0.10122481 0.39881927 -0.43319827 -0.4124533 -0.027115418
0.15591556 -0.2878772 -0.08839721 -0.0091223875 0.13778166 -0.105953224 0.06415545 0.2074761
0.15280294 0.11803345 -0.029206418 0.29826373 -0.25131446 -0.019131903 0.044625778 0.15418
-0.04570301 0.19798034 -0.21126072 -0.08785758 0.28192395 0.19415207 -0.005883451 -0.11510488
-0.00465731 0.15781154 0.1297651 -0.43442845 -0.2430297 -0.13348943 -0.10003298 0.09128736
-0.15966469 -0.03634919 -0.05094456 -0.26332495 -0.07577175 0.048156478 0.06923917 -0.069483146
-0.009831366 0.2178727 0.11462954 0.34676948 -0.1591609 0.101259075 0.18046957 -0.22775485
-0.27470323 0.046814587 0.18585004 0.18536004 -0.09283708 0.097841695 -0.09229348 -0.15851928
0.04634338 -0.40261018 0.1812957 0.30971733 -0.30921215 0.17965798 0.019227836 0.11046577
0.24480352 -0.024699774 0.23925294 -0.56315136 -0.048239782 -0.29071432 -0.3870925 -0.08797009
0.15591879 -0.0407313 -0.11660801 -0.46837822 0.0941796 0.079233065 0.4317455 0.11362764
0.029098053 0.2564033 0.34075186 0.28085658 -0.08216889 -0.06308489 -0.027769506 -0.031249028
-0.2219137 -0.027481591 -0.46349958 0.105814494 0.25092968 0.07580235 0.010355965 0.16363026
-0.12161789 -0.023774711 0.3396673 -0.08068548 0.052590378 0.40020528 -0.69133854 0.066438384
-0.010506654 -0.118501425 -0.084816225 -0.09901982 0.35531396 0.20571059 0.014608783 -0.46867862
0.5554737 -0.045390006 0.10640455 0.19327721 -0.22618726 0.28449452 0.45448324 0.11051927
0.095261306 0.37562677 0.2713323 -0.12208335 -0.091469236 0.16945066 0.28719774 0.42102975

bias f4 [6]
00000000: 7613 02be a68a 433d bd90 08bd 5db3 123e
00000010: f638 dfbd 25ec 01be
-0.12702736 0.047739647 -0.03334116 0.14326234 -0.10899536 -0.12687738

weight f4 [6]
00000000: 968e 773f 9e88 a83f a0b7 bd3f aab3 ab3f
00000010: 74e6 a93f 8907 aa3f
0.96701944 1.3166692 1.4821663 1.3414204 1.3273454 1.328355

bias f4 [6]
00000000: 11c2 96bc 4ef7 fbbd f021 f2bc e3ed cabc
00000010: 4d15 7abe 4a3a b63e
-0.018403085 -0.12303029 -0.029557198 -0.024771636 -0.24422188 0.35591346

weight f4 [18, 6]
00000000: 68c8 803e 6447 59bf a4f8 4c3e 8c25 49be
00000010: 4875 d73e 37cc 08bf 8219 a6bc 309b 5ebc
00000020: b7c7 a93e a8ab 853c 83b2 0bbf 3eb7 043f
00000030: 1805 ad3d a66e 7ebf cf8b f23d 5412 833f
00000040: 8630 103f 89ad 00bf 9359 10bf 5c4e 29bf
00000050: bd99 2b3f c549 943e c3c1 02bf f01c f83e
00000060: c17f d53e daaf bf3f 372a 7a3d 73ce aabd
00000070: 4168 c13e 452a 98be 4820 543e bb33 64bd
00000080: 4fa5 143b 3620 dcbc b01f 6a3e 2103 e3be
00000090: c059 2dbc e078 d33e 9b27 053f c13b 2ebf
000000a0: 19bc 14bf 6ae8 2abd 50cd adbe 143a 993e
000000b0: cc5d 303f 61dc 4b3e fa91 81be 20e1 aebe
000000c0: bfcb ffbe c93d 12bf d0a7 903c 85c8 cf3e
000000d0: bf24 ec3d 71e8 ab3e 4d82 013e 58bd 0fbf
000000e0: 2a45 113e 8055 8ebe 58c9 113f 318f fabe
000000f0: d46c dd3e b935 653b 0497 a8be b977 8bbf
00000100: 1453 1c3e 2b61 30be b0b6 6e3d 30e0 523e
00000110: 572a 8fbf 3e21 febc fbd3 723d 25c8 adbb
00000120: e7d1 e63d 348b 22be c98f cd3e e913 1a3f
00000130: ddfe 67be da8c 8abe b5c1 523e fca9 a6bd
00000140: 7713 c1be 3e3d 6b3e 848c 6ebe aa5e 2b3f
00000150: 1307 09bf d357 f13e dc48 debe 1a24 1f3d
00000160: a24f be3e 19c0 d1be 26d9 aebc 8f51 e73d
00000170: 8678 38bf 19f6 61bd 2e4b d43e c610 c13e
00000180: ef98 123f 2549 12bf 9efc 723e 57d3 f4bd
00000190: ab1d cd3d 586c 823e 5f51 efbe bd3d 043e
000001a0: f65d ea3d 4edf 493f b96e 9abd ffef febe
0.25152898 -0.8487456 0.20016724 -0.19643229 0.42081666 -0.5343661 -0.020275835 -0.013586804
0.33160183 0.016317204 -0.5456926 0.51842105 0.08448237 -0.99387586 0.118430726 1.0239968
0.5632404 -0.50264794 -0.5638668 -0.6613519 0.6703146 0.28962532 -0.51076907 0.48459578
0.4169903 1.4975541 0.061075415 -0.08340158 0.37774852 -0.2971975 0.2071544 -0.055713397
0.002268154 -0.026870828 0.2286365 -0.44338325 -0.01058048 0.41303158 0.5201356 -0.6805993
-0.58099514 -0.041725554 -0.33945704 0.29927123 0.6889312 0.19908287 -0.25306684 -0.34156132
-0.49960133 -0.57125527 0.017658144 0.40582672 0.11530446 0.33575776 0.12647362 -0.5614829
0.1418654 -0.27799606 0.5694785 -0.4893737 0.43247092 0.0034974648 -0.32927716 -1.0895911
0.15266067 -0.17224567 0.058279693 0.20593333 -1.1184796 -0.03102171 0.05928419 -0.0053034
0.112705044 -0.15873414 0.40148762 0.6018663 -0.22655816 -0.27060586 0.20581706 -0.08137891
-0.37710163 0.22972581 -0.2329579 0.6694132 -0.5352642 0.47137317 -0.43414962 0.03885279
0.3717013 -0.4096687 -0.021343779 0.11294853 -0.72058904 -0.055166338 0.41463608 0.3770811
0.5726461 -0.5714286 0.23729178 -0.119543724 0.10015424 0.25473285 -0.4674177 0.12914176
0.11443703 0.7885636 -0.0754065 -0.49792477

weight f4 [6, 6]
00000000: 79dc 4cbe 0d0f 26bf 3dcc 2e3e b9d1 033f
00000010: c5b0 16bf 690c e83c 1d1d cfbe 74f0 833e
00000020: 765e 60be 2671 2fbe 1e8b 2ebf f808 3dbf
00000030: 5c49 2e3e 3d23 3ebe e15e 893e 968f 0d3f
00000040: 4127 c3bd 6a07 72be c569 023f 2a29 393f
00000050: c8d2 b73e 66a6 8abd 07c5 d23e bbf7 4d3e
00000060: f800 023f 87ac fdbe ac5f 4abf 1829 6e3e
00000070: 029b bc3e 48a7 c23e 1436 583e ffff 113c
00000080: b025 523d b2f5 0cbf 83b8 e2bd 656f 06bf
-0.20005979 -0.64866716 0.17070098 0.51491886 -0.5886348 0.02832623 -0.404519 0.2576939
-0.21911034 -0.17133006 -0.68181026 -0.7384181 0.17020172 -0.1856813 0.268302 0.5529722
-0.095289715 -0.2363564 0.5094264 0.72328436 0.35903 -0.06770019 0.41165945 0.20114033
0.5078273 -0.4954569 -0.79052234 0.23257864 0.36837012 0.3801825 0.21114379 0.008911132
0.051305473 -0.550624 -0.11070349 -0.52513725

bias f4 [6]
00000000: dd60 9b3e 0030 433d 2d1d 233e 306e b8bd
00000010: 1e8a 5a3d 5868 cbbe
0.30347338 0.0476532 0.15929098 -0.090053916 0.053354375 -0.39728045

weight f4 [6]
00000000: c15a 8e3f bd1f a33f f74d 973f ba0a 923f
00000010: a756 6a3f 6f9f 853f
1.1121446 1.2744061 1.1820668 1.1409523 0.9153847 1.043928

bias f4 [6]
00000000: 0289 ea3d dbf4 27bd cc31 993d c5df 193e
00000010: 6dce 83bc 2810 62bd
0.114519134 -0.041004997 0.07480201 0.15026768 -0.016089642 -0.05519119

weight f4 [32, 6]
00000000: 8ccc 2f3d ca71 8d3e 2e0e 0b3c e15b 4c3e
00000010: 19bb dc3d 4cc7 083e 4dd5 0d3f 5d9f af3e
00000020: e051 2ebe 281a ec3d 3987 563f d714 04bf
00000030: c9d5 00be 7091 0c3f c934 14be a7b6 01bf
00000040: 8d9d 97bd 5532 96be 5be3 41be bbd8 443f
00000050: 8bab 493d 07e5 573d 9f5d a33e a7df 7abd
00000060: 0b63 11be 69d4 013f 9f51 0b3e e94e aa3e
00000070: 30da a53e 8acf 3bbc 1218 c2bd c7d9 b53e
00000080: 91a5 293e 297f a6be 2447 a73b 081f e53e
00000090: 1fc2 1b3e 2e6f 753f 1e76 6b3e 05a0 543e
000000a0: 6eae 263e dfa1 1fbf 7d8c 06be 7601 b9be
000000b0: baf7 173e eb39 0bbf 12aa 053e db1a 7e3e
000000c0: 2d8b c2be 66f3 c13c 53a4 ce3d e22d 7cbe
000000d0: 01ca 13bf 1b03 3d3d faab 813d f4b4 333f
000000e0: ed5d 39bf d438 a43e 6c95 8bbe 35cf 35be
000000f0: a531 e4bd a84f 51be 62c2 e0be f916 a53e
00000100: ddc2 9f3e 320e ba3e d6c3 8f3e 64ec 9d3e
00000110: 1fef 843e 51a5 c6bd 9543 cfbe c5bd b03e
00000120: 5b00 043e fb84 a3be da20 103f 1cc2 7b3e
00000130: c3f7 1c3e 227c cabd c3d0 debe 1b8f d73e
00000140: 628e 833e 103d c8be 93eb b0bd 9b98 d4be
00000150: a65d 303e 57df c23e fb32 653e 3ade 163f
00000160: a93d ccbe fdcb 32bf bb6d b4be cedc 13bf
00000170: 6bf1 f03d 1e12 3fbe a03c f03e 24f8 0bbf
00000180: c644 d03e 763a 55be d158 6abd 3a5c 763e
00000190: 65f9 e8be 882f 00be f64b babd 219b bdbe
000001a0: 40ed 7d3e 34df c2be dc12 743e 980a fe3e
000001b0: e910 c63b c9fd 9fbe 9b29 9f3e b943 32bf
000001c0: a370 ca3d dad8 cd3e 493a 323e c11d 703f
000001d0: b752 7dbe d891 8ebd 8cf2 ddbe 6979 163d
000001e0: 1e7d e9be bfcb 5f3e eb6f 6abd 7f0a 0b3d
000001f0: 28db e2bd 0fbd a83e fdc0 b8be 7154 5abc
00000200: 087a 97be 153d 4b3f ba1f 8f3e e02d ddbe
00000210: 2401 46be 3a70 fd3e 99c8 01bf b95c c83e
00000220: 6538 073f 4382 69bd aeac 323f 3e74 0b3e
00000230: 1206 92be 6d2c c0bd d745 e93d 2ca5 8c3d
00000240: 1a8f f63e 3f5e b2be 145c 23bf d86a c33c
00000250: c4c7 e4be f425 31bb 88e8 6a3e b5bd 0b3f
00000260: 7cd0 1abe e08a c8be 342f d83d de4c 92be
00000270: ffee 2d3e ab34 5b3f 6be8 bebe a4ff 9a3e
00000280: 4381 9fbe 627b b2be fb9e 1b3d 1557 f83e
00000290: ec33 fabe 9cc2 f4be 1850 b83e 97a8 b5bc
000002a0: bf06 e0bc f1d9 ffbe 521c b23e af5b 603e
000002b0: 04ce 7cbe e84c 0abf b6fe 9cbd cf3e 64bc
000002c0: 01fd 5e3e 725d 33bf 7c71 94bb ace3 28bf
000002d0: 479c c23e ffac 363f 9186 74bf 5f9e 8fbe
000002e0: 3406 b03e 61c7 31be a170 593f 3179 81be
000002f0: de45 24bf 8f6c 963e 7675 9d3e 0e5b fe3b
0.04291968 0.27625877 0.008487267 0.19956924 0.107778735 0.13357276 0.55403596 0.34301272
-0.1702342 0.115284264 0.83800083 -0.515943 -0.12581553 0.5490942 -0.14473261 -0.5066933
-0.07403097 -0.29335275 -0.18934385 0.76893204 0.04923586 0.052708652 0.31907365 -0.061248448
-0.14197938 0.5071474 0.13605355 0.3326333 0.32393026 -0.011463055 -0.09477247 0.35517713
0.16567065 -0.3251889 0.005104916 0.44750237 0.1521077 0.9587277 0.22994277 0.20764168
0.16277477 -0.6235637 -0.1313953 -0.36133927 0.14840594 -0.5438525 0.13053158 0.24814932
-0.37996808 0.023675632 0.10089936 -0.24626878 -0.5773011 0.04614554 0.0633163 0.7019799
-0.72408944 0.32074606 -0.27262437 -0.17754824 -0.111422814 -0.20440543 -0.43898302 0.3224409
0.31203356 0.36338955 0.28079098 0.30844414 0.25963685 -0.096995 -0.40481248 0.34519783
0.1289076 -0.31937394 0.5630013 0.24585766 0.15328889 -0.09886958 -0.43518648 0.42101368
0.25694567 -0.39109087 -0.08638682 -0.4152268 0.17223224 0.3806102 0.22382729 0.5893284
-0.39890793 -0.6984251 -0.35239968 -0.57758796 0.11764797 -0.18659255 0.46921253 -0.5467551
0.4067747 -0.20823082 -0.05721361 0.24058619 -0.45502773 -0.12518132 -0.0909652 -0.37032416
0.24797535 -0.38060915 0.2383532 0.49617457 0.0060444963 -0.3124831 0.3108643 -0.69634587
0.09884765 0.40204507 0.17405047 0.937954 -0.24738584 -0.06961411 -0.4334911 0.03673688
-0.4560327 0.21855067 -0.05723564 0.033945557 -0.11076957 0.3295674 -0.36084738 -0.013325796
-0.2958529 0.7939008 0.27953893 -0.43199062 -0.19336373 0.49499685 -0.5069671 0.39133242
0.52820426 -0.057008993 0.6979474 0.13618562 -0.28520256 -0.093834735 0.11390274 0.068674415
0.48156053 -0.3483753 -0.63812375 0.023854658 -0.4468366 -0.0027030678 0.22940266 0.54586345
-0.15118593 -0.39168453 0.10555878 -0.2857427 0.16985701 0.8562724 -0.37286696 0.30273163
-0.31153306 -0.3485976 0.037993412 0.48503938 -0.48867738 -0.47804725 0.35998607 -0.022175116
-0.027346967 -0.49970964 0.34787232 0.21909975 -0.24687964 -0.540236 -0.0766577 -0.01393099
0.21776201 -0.7006446 -0.00453013 -0.659724 0.38009855 0.7135772 -0.9551783 -0.28050515
0.34379733 -0.17361213 0.84937483 -0.25287774 -0.6416911 0.293797 0.30753678 0.0077623194

bias f4 [32]
00000000: 8b42 ac3e f2b3 f63d 0f4a 3fbd 43f3 d2be
00000010: 5a10 843e ee27 22be b6b3 843e 8bbc d83d
00000020: fadd 3abe 0700 5abe 109d bbbd 222a 753e
00000030: 8a0a 9d3e 7e44 28bd b226 a1be cd7b 6bbe
00000040: 6149 af3e 490b 37be 5a22 853e ab83 d13d
00000050: fdd7 2a3d 7b6a 0f3e 0ad6 1d3e 03ca c1be
00000060: 367a 2f3e d4d6 fcbe d719 96bd 4775 f53d
00000070: ee2d 00bf 41c4 fdbe ea71 c2be 4de7 6cbe
0.33644518 0.120460406 -0.046701487 -0.4120122 0.25793725 -0.15835544 0.2591836 0.10582837
-0.1824874 -0.21289073 -0.09160817 0.23941854 0.30672103 -0.041080944 -0.31474835 -0.22996445
0.3423567 -0.17875399 0.2600277 0.10230192 0.04170989 0.14005463 0.1541368 -0.37849435
0.17136464 -0.4938265 -0.07329147 0.119852595 -0.50070083 -0.49563792 -0.37977535 -0.23135109

weight f4 [6, 32]
00000000: bd00 a7bd fab3 b2be 873a a13e eb9e eabc
00000010: 3076 4bbe 8f6d fabd 004b 913d e81f 023e
00000020: aa2a 81be fa71 a8be b47f 27bd 42f0 fbbd
00000030: 6e8a 9f3e f9e7 b83d 90ef eebb abdd cb3e
00000040: 3700 ebbd 3ef0 303e fbd8 df3c ebc5 443e
00000050: 3ef8 3abe b063 8f3e 5c45 8d3d 6d8e d6be
00000060: 5a92 5b3e 4a49 c4bd 6b03 b9be 7b70 803e
00000070: dbcc 05bf f09f 313f 02f9 2e3f 5f9c 183f
00000080: 2e84 b53d c7d3 103e a05f 7dbd 8974 d5bc
00000090: c398 8f3d 5749 58bc 7ee6 c6bd 2882 263d
000000a0: a39a 623e 7aab d43e 9dfd 2fbe d1b6 6e3e
000000b0: cf43 aebd 427b e0be f780 adbe 961f 9fbf
000000c0: 30d7 b13e b12d c6bd 6af6 943d 1c23 153f
000000d0: fd7e e33d 00b1 e3be 1dcc 353e 86df 4b3c
000000e0: 416e 463e ed73 79bd 94cd 51be c9eb b2be
000000f0: ff6f 3d3e 9705 01be 5f73 01be 777d b5be
00000100: dc38 8c3c 8bf7 343d 16c9 91bd 1211 b7be
00000110: 45a7 313e 9e16 bebd 661a c73e 3f82 34be
00000120: f888 c83d a3e6 273f 4a29 25be dc35 52be
00000130: 71f4 253e 06ee d33b 9a09 1e3f 6eda 103f
00000140: e69b 10be 9103 31be 9b27 90be 6166 03be
00000150: b6fe 7ebc 2294 153f 0abf 9e3e 4be1 d4bd
00000160: 28e5 f8bd f0fa 9b3e bffc a73e 4a28 9ebe
00000170: b551 5ebe 94ae 623d f199 513f bd1b 853e
00000180: 3d8e b3bd 2b42 8bbe 6b03 ba3d 2da6 d93e
00000190: ee38 133d 0471 233e 6e76 d4be d2d7 ca3e
000001a0: 88d1 803e 7572 49bf 7e3d 2f3e 407f 903d
000001b0: 5d02 083e d589 0e3e b486 49bf d6da ecbe
000001c0: cc86 88be 5ccf b83e e283 8a3e b9da 1abe
000001d0: 5ce0 a53e 2047 08be b298 27bf 2432 8bbd
000001e0: b08a bdbe 88f7 0dbe fbef 9abe 0ce3 a33b
000001f0: 7d7d 2d3c cc28 dfbe 357a 71bf dcb4 d5be
00000200: fe13 b73d a846 1d3e 5b53 87be 511a 9abe
00000210: e131 943d 5775 873e 3043 abbd 535a f53d
00000220: 9928 d7bd cdaa 963d 5269 ff3c 3f2c 8e3d
00000230: f252 13be 8edc 4bbe d27d efbe f3cb e33d
00000240: 9ed4 a0be c519 ffbd a22d 98bb f9ca e43d
00000250: d0de 053e 901a 80be e9f2 ae3c 39b0 a53e
00000260: a703 f0bd 9814 913e b03f 6d3f 174f 9e3e
00000270: aa54 7a3d f06c 1a3f 411f cf3d 4eb4 0ebf
00000280: 1074 08bd 4e3f b7be 5cb6 e4bd ca51 0e3e
00000290: 2d1a 23be b8c9 d8be b5ae 5f3e aff8 80be
000002a0: 37c6 5ebe 84d1 eabd 47c1 9e3e c1cf 61be
000002b0: 235e 9abe 2849 84bd 4c2d 1b3f 4720 093e
000002c0: 9202 0d3c f6ed 6ebe 328e a2be 151b 2b3d
000002d0: 10c3 15be 4898 ec3e 7a8f a7be 7f7f 16bb
000002e0: b5b0 d73e b2b0 7dbd 1cc2 983e 12b0 69be
000002f0: e24f 3a3e 6da6 4bbe 8182 44bf a8e5 923d
-0.08154438 -0.34902936 0.31489965 -0.028640231 -0.19869304 -0.12227928 0.07094383 0.12707484
-0.25227863 -0.32899457 -0.04089327 -0.12301685 0.311603 0.0902862 -0.0072917417 0.39817557
-0.1147465 0.17279145 0.027325144 0.19216125 -0.1825876 0.28005743 0.06897995 -0.41905537
0.21442547 -0.09584291 -0.3613542 0.25085816 -0.5226571 0.6938467 0.68348706 0.59613603
0.08863102 0.14143287 -0.061858773 -0.026056545 0.07011559 -0.013201079 -0.09711932 0.04065147
0.22129302 0.41537076 -0.1718659 0.23311926 -0.08509027 -0.43844038 -0.33887455 -1.2431514
0.34734488 -0.09676684 0.07273562 0.582567 0.111082055 -0.44470978 0.17753644 0.012443429
0.19377996 -0.06090157 -0.20488578 -0.34945515 0.18499754 -0.12599789 -0.12641667 -0.35447285
0.017116956 0.044181388 -0.07118432 -0.3575521 0.17348965 -0.09281658 0.38887328 -0.1762781
0.0979175 0.655863 -0.16129032 -0.20528358 0.16206528 0.0064675836 0.617334 0.565833
-0.1412197 -0.17286517 -0.28155217 -0.12832023 -0.0155636575 0.5842916 0.31005126 -0.10394534
-0.12153083 0.30464888 0.32810017 -0.30890113 -0.21710856 0.055342272 0.8187552 0.25997725
-0.08767364 -0.2719892 0.09082683 0.42509595 0.035942964 0.15961081 -0.41496605 0.39617783
0.2515986 -0.7869027 0.17113301 0.07055521 0.13282152 0.13919766 -0.78721166 -0.4626071
-0.26665342 0.36095703 0.27053744 -0.15122499 0.32397735 -0.13308382 -0.6546737 -0.06796673
-0.37019873 -0.13863957 -0.30261216 0.0050014313 0.010589001 -0.43585813 -0.943271 -0.41739547
0.0893936 0.15358984 -0.26430783 -0.30098203 0.07236076 0.2645671 -0.083624244 0.119801186
-0.1050579 0.073567964 0.03117815 0.06942033 -0.1438711 -0.19908354 -0.4677568 0.111228846
-0.31412214 -0.12456087 -0.0046441117 0.111715265 0.13073277 -0.25020266 0.021356063 0.3236101
-0.11719447 0.28336024 0.92675304 0.30919716 0.0611159 0.60322475 0.10113383 -0.55743873
-0.03331381 -0.35790485 -0.11167595 0.13898388 -0.15927954 -0.423414 0.21843989 -0.2518973
-0.217553 -0.11465743 0.31006834 -0.22051908 -0.30149946 -0.06459266 0.6061599 0.13391219
0.00860657 -0.23332962 -0.3174911 0.041773874 -0.14625192 0.4620993 -0.3272665 -0.0022964177
0.42127004 -0.061936088 0.29835594 -0.22821072 0.18194535 -0.19887705 -0.76761633 0.0717271

bias f4 [6]
00000000: 9a42 67bd e04e c83c 1044 df3c 8aac 283c
00000010: 9378 2b3d aa06 82be
-0.05646 0.024451673 0.027254134 0.010295043 0.041863035 -0.2539571

weight f4 [6]
00000000: f665 2340 f89f 1240 a43b 2340 e606 ef3f
00000010: 4321 2440 b83b f73f
2.5530982 2.2910137 2.5505152 1.867398 2.5645301 1.93151

bias f4 [6]
00000000: d817 b93e b9ca abbe 113a ea3d 009d 42bf
00000010: 8625 b1be e668 f23d
0.36151004 -0.33553103 0.114368565 -0.76020813 -0.3459894 0.11836414

weight f4 [10, 6]
00000000: f603 68bf 0fbf edbe fa24 e93d e138 b53c
00000010: c8a7 ca3f aee9 30bb 93b9 403e fa94 8ebd
00000020: 32a3 6c3f 57ce 1dbf 01c8 7dbf 69a7 b33d
00000030: 1a4a 71bd b707 39bf 4364 a63f 8238 533e
00000040: a8c6 913e c2e6 34bf f2c9 823f 7b9f ffbe
00000050: 9713 68be 75d2 a93d 8816 45bf 834b f43e
00000060: 7b02 69bf 5282 923f 2a15 ae3d b5ff d5be
00000070: 3987 2cbe 599c 1d3f 7ef1 b9be 70ac 17bf
00000080: 6c2f 79bf 3e44 c53e 9623 2fbf e61c d83e
00000090: efd9 b6bf ecde e3be 0e16 993f 6d20 e63e
000000a0: 7a17 2b3e a678 383f 0459 5b3f 06d1 4b3f
000000b0: c913 833e ad47 63bf 8e7c 083f f9ee b6be
000000c0: b80f b53c f6c4 85bd 8af3 d73e 80b5 743f
000000d0: 0d0d 3ebf 2032 4abf 26a8 bc3e fdcd 903f
000000e0: c37d 63bf 30c1 79be 3185 a4be 6eff 0e3e
-0.90631044 -0.4643483 0.11384006 0.022121849 1.5832453 -0.0026994753 0.18820791 -0.06962009
0.92436516 -0.61642975 -0.99133307 0.08772165 -0.05890856 -0.72277397 1.2999347 0.20627025
0.28471875 -0.7066461 1.0217879 -0.4992636 -0.22663723 0.082920946 -0.76987505 0.4771386
-0.9101941 1.1446021 0.085001305 -0.4179665 -0.16848458 0.6156669 -0.36317056 -0.59247494
-0.97337985 0.38528627 -0.68413675 0.42209548 -1.4285258 -0.44506013 1.1959856 0.44946614
0.16708174 0.72059095 0.856827 0.7961582 0.25601032 -0.88781244 0.53315055 -0.35729197
0.022102222 -0.06531708 0.42177993 0.9558945 -0.74238664 -0.78982735 0.36847037 1.1312863
-0.8886377 -0.24390101 -0.32132867 0.13964626

bias f4 [10]
00000000: eee0 c2be 59c4 2e3f 5770 ee3e 3d95 edbb
00000010: 1087 873e 47b9 cc3e d07d 07bf c679 e73e
00000020: 090d 85be ab06 cbbe
-0.38062233 0.6826835 0.46570083 -0.0072504566 0.26470232 0.39985105 -0.5292635 0.45210093
-0.25986508 -0.39653525
