Case_Study_1/trained_transformer/verification/vit_6_2_6_32.pt (torch, 26598 bytes, 30 tensors)

pos_embedding f4 [1, 50, 6]
0	0xbff50aa8	-1.9143877
1	0xbf51ca35	-0.8194917
2	0x3f9647e8	1.1740694
3	0x3faa634d	1.3311554
4	0xbeced35c	-0.4039563
5	0xbfd2fab2	-1.6482756
6	0xbc264fea	-0.010150889
7	0xbfb43a7a	-1.4080346
8	0xbf96f475	-1.1793352
9	0xbe9c5bd5	-0.30538812
10	0x3e9f4a3e	0.3111133
11	0xbeb508d8	-0.3535831
12	0xbfd3b744	-1.6540303
13	0xbf31a741	-0.69395834
14	0xbf499e89	-0.7875753
15	0x3f5b3632	0.8562957
16	0xbd2b3b3c	-0.041804537
17	0x3f89b312	1.0757773
18	0xbef72a4a	-0.48274451
19	0x3fe4fe39	1.7890083
20	0x3f9158cf	1.1355227
21	0xbd273a66	-0.040827177
22	0x3f36a0ef	0.71339315
23	0x3de0b3c7	0.1097179
24	0xbf1c073c	-0.6094854
25	0x3f62e43a	0.88629496
26	0xbedae460	-0.4275236
27	0xbfc78a03	-1.5588993
28	0x3e8b9e21	0.2726908
29	0xbf8e8f3c	-1.1137462
30	0x3d3ef90c	0.04662423
31	0x3e5ad72a	0.21371141
32	0xbfcb2a0f	-1.587221
33	0x3f8f88b3	1.1213592
34	0xbf94ed14	-1.163485
35	0x3fd54f11	1.6664754
36	0xbefb2b94	-0.49056685
37	0x3f9b9a24	1.2156415
38	0xbdc2348a	-0.09482677
39	0xbfe5c59f	-1.7950934
40	0xbfb79bc2	-1.4344409
41	0xbf8963b4	-1.0733552
42	0xbfe0c348	-1.7559595
43	0xbfe8910b	-1.8169264
44	0xbc72c260	-0.01481685
45	0x3eebd5d2	0.4606157
46	0x3dbf37eb	0.093368374
47	0x3eebdb1e	0.4606561
48	0xbf253132	-0.6452819
49	0xbfd83161	-1.6890069
50	0xbe1db0ee	-0.15399525
51	0x3eedda62	0.46455675
52	0xbfc89643	-1.5670856
53	0x3f2b8b72	0.6700965
54	0x3f3f6e8f	0.74778074
55	0xbdceea69	-0.10103304
56	0xbebd7071	-0.36999848
57	0x3ff4d5f4	1.9127793
58	0xbf0e9130	-0.5569029
59	0x3ef78f10	0.48351336
60	0xbfd63a0f	-1.6736468
61	0x3ecc7c4f	0.3993859
62	0x3ef0dc02	0.47042853
63	0xbf6d0d15	-0.92598087
64	0x3f7979a5	0.9745124
65	0xbd13eeb2	-0.03611631
66	0x3f52a297	0.8227934
67	0x3ea7c505	0.327675
68	0x3f9ca4bc	1.2237773
69	0xbf412609	-0.7544866
70	0x3d774a20	0.060373425
71	0xbf0a5879	-0.5404125
72	0x3fbbfa0d	1.4685684
73	0xbf23f445	-0.640446
74	0xbf029a86	-0.51017034
75	0x3d15a389	0.036532912
76	0x3f67dd4c	0.9057205
77	0x3fd5a6d5	1.6691538
78	0x3fd6268b	1.6730512
79	0xbf53871a	-0.82628024
80	0xbfb87c50	-1.4412937
81	0xbf07fcd6	-0.5312017
82	0x3f36165a	0.71127856
83	0x3fc1d9f6	1.5144641
84	0xbfb969f1	-1.4485456
85	0xbde80567	-0.113291554
86	0x3f0ab5ec	0.5418384
87	0xbe669008	-0.22515881
88	0xbe7a4adc	-0.24442619
89	0x3e5381e2	0.20655015
90	0x3f073a89	0.5282369
91	0x3fda53ed	1.7056862
92	0x3f4380c9	0.76368386
93	0xbba816b1	-0.005129658
94	0xbeaad002	-0.33361822
95	0xbec8cab8	-0.39217162
96	0x3dd7e54a	0.1054178
97	0xbdf1c2e7	-0.11804753
98	0xbff3e174	-1.9053178
99	0xbf0e1f9f	-0.55517
100	0x40024960	2.0357285
101	0x3ee15386	0.44009036
102	0x3fa0053b	1.2501596
103	0x3ef9cfc2	0.4879132
104	0x3f556611	0.83358866
105	0x3d9f38f4	0.07774535
106	0x3ee0bf18	0.43895793
107	0xbcf42ce8	-0.02980657
108	0xbec81518	-0.39078593
109	0xbe379456	-0.1792768
110	0xbf92d444	-1.1471028
111	0xbed6a3a3	-0.4192172
112	0x40041ea5	2.0643704
113	0x3fb95047	1.4477624
114	0xbf735d36	-0.95064104
115	0x3e77b092	0.2418845
116	0xbcadfe30	-0.02123937
117	0xbf8e752c	-1.1129508
118	0x402955a0	2.6458511
119	0x3f8e38ee	1.1111124
120	0x3e39abc6	0.18131933
121	0x401c2de2	2.4403005
122	0x3dde5bfc	0.108573884
123	0x3f24707a	0.64234126
124	0xbfa191db	-1.2622637
125	0x3f5fcb48	0.8741956
126	0xbf8a4b8d	-1.0804306
127	0xbf5a07be	-0.85168064
128	0x3f93596e	1.1511667
129	0xbf800588	-1.0001688
130	0xbd7c09bf	-0.061532732
131	0xbf1ab575	-0.6043313
132	0x3f0b0fcb	0.54320973
133	0xbe532297	-0.20618664
134	0xc0021b75	-2.0329258
135	0x3f159ec8	0.58445406
136	0xbfd7466a	-1.6818364
137	0xbd50e61a	-0.051000692
138	0x3fa712e3	1.3052639
139	0x3ee11f76	0.43969315
140	0xbec96406	-0.39334124
141	0xbfb22c00	-1.3919678
142	0xbf39d301	-0.7258759
143	0x3f269f9a	0.6508728
144	0xbec7c247	-0.3901541
145	0xbef8a591	-0.48563817
146	0xbf271509	-0.6526647
147	0xbd970876	-0.07374661
148	0x3fb05ac3	1.3777698
149	0xc004f89c	-2.077674
150	0x3fc0b73b	1.5055918
151	0x3fe4f23f	1.7886428
152	0xbfad7dc2	-1.3554003
153	0xc048f106	-3.139711
154	0x3f087450	0.5330248
155	0xbfcf8279	-1.6211692
156	0xbf27b067	-0.65503544
157	0xbeb2177e	-0.34783548
158	0xbe280a74	-0.16410238
159	0x3e607d70	0.2192285
160	0xbf9f42aa	-1.2442219
161	0x3e45a379	0.19300641
162	0x3fe23495	1.7672297
163	0xbfec304e	-1.8452241
164	0x3f6429de	0.89126384
165	0x3e90f1a6	0.28309363
166	0x3fb3e4e0	1.4054222
167	0x3f3a9038	0.7287631
168	0x3eba4e69	0.36387947
169	0xbe548090	-0.20752168
170	0x3e582967	0.21109544
171	0xbf5a3a2d	-0.8524502
172	0x3f0bba18	0.5458083
173	0xbeec4d3d	-0.46152678
174	0x3f22177c	0.63317084
175	0x3f4563d9	0.7710548
176	0x3f983292	1.1890433
177	0xc022370d	-2.53461
178	0xbf90b2d5	-1.1304575
179	0x3fc7946d	1.5592171
180	0x3fe39a1d	1.7781407
181	0xbff3d09d	-1.9048039
182	0x3f17ec0e	0.59344566
183	0xbf00d3a9	-0.5032297
184	0x3ef0fd39	0.47068194
185	0xbeda9d2b	-0.42698035
186	0x3e961b46	0.29317683
187	0xbf29a6ed	-0.66270334
188	0xbef9acc8	-0.48764634
189	0xbf8d57e5	-1.1042448
190	0xbfe585ec	-1.7931495
191	0x3f91eeab	1.1400961
192	0xbf548474	-0.8301461
193	0xbf55ce6e	-0.8351811
194	0xc0026675	-2.0375035
195	0xbfaba815	-1.341067
196	0xbfaae17f	-1.3350066
197	0x400faba6	2.2448516
198	0x3f0996cf	0.5374574
199	0x3e10090a	0.14065948
200	0x3f4ca46a	0.79938376
201	0x3f17884e	0.5919236
202	0x3fbbf934	1.4685426
203	0x3e876436	0.26443642
204	0xbf8208e5	-1.0158964
205	0xbf8f7c8f	-1.1209887
206	0xbff4af30	-1.9115963
207	0xbe78ff6a	-0.24316183
208	0xbfbb8e98	-1.4652891
209	0x3f726f3b	0.94700974
210	0xbd82a259	-0.063786216
211	0x3e1e5e3e	0.15465638
212	0xbef4a5a7	-0.47782633
213	0xbfade515	-1.3585535
214	0x3eab7e62	0.3349486
215	0xbf27b432	-0.6550933
216	0xbff7d502	-1.936188
217	0x3f67426d	0.9033573
218	0xbf0246d3	-0.5088932
219	0x3fac660b	1.3468641
220	0x3f642cab	0.8913066
221	0x401a22c5	2.4083722
222	0x3f756f0d	0.95872575
223	0xbfb705c7	-1.4298638
224	0x3fb6d40b	1.428346
225	0x3d6d86fe	0.057990067
226	0x3f3212c4	0.69559884
227	0xbe9b9058	-0.30383563
228	0x3e833f96	0.2563445
229	0xbf97cc8b	-1.1859297
230	0x3e3e4a7b	0.185831
231	0xbe5fc0ee	-0.2185094
232	0xbd5e319b	-0.054246526
233	0xbf06de8b	-0.52683324
234	0x3fa2694a	1.2688382
235	0xbeb093b4	-0.3448769
236	0xbe4154d4	-0.18880016
237	0x3f9aae48	1.2084436
238	0x3f4fe71e	0.8121203
239	0x3d17313a	0.03691218
240	0x3fa53c36	1.2909
241	0xbea298c1	-0.31757167
242	0xbf9cba6b	-1.224439
243	0x3eab83bf	0.33498952
244	0x3e0df5c7	0.13863288
245	0xbf3089f1	-0.6896048
246	0xbec8260e	-0.39091533
247	0x3f468adb	0.77555627
248	0x3fcf6b9a	1.6204712
249	0xbf54e2f1	-0.83158785
250	0xbea69350	-0.32534266
251	0xbd4bdbad	-0.049770046
252	0x3e9e1287	0.3087351
253	0x3f50a315	0.81498843
254	0xbebf2ee9	-0.37340477
255	0xbb908f26	-0.004411596

cls_token f4 [1, 1, 6]
0	0x3eb6f369	0.35732582
1	0x3e600cd8	0.218799
2	0xbf62c055	-0.88574725
3	0xbfe6430a	-1.7989209
4	0xbec08f73	-0.37609443
5	0x3fc9dd71	1.5770704

weight f4 [6, 16]
0	0xbf07270c	-0.52793956
1	0xbe9a92ca	-0.30190116
2	0xbe7a18b5	-0.24423487
3	0x3e36262d	0.17788
4	0xbe273dbf	-0.16332148
5	0xbdf3ba89	-0.11900813
6	0x3d91066f	0.07081305
7	0x3e93fe26	0.28904837
8	0xbeb18ffe	-0.3468017
9	0xbd5747b2	-0.05255861
10	0x3e7ccca2	0.24687436
11	0x3e283882	0.16427806
12	0xbf1d26fc	-0.6138761
13	0x3b3b66fc	0.002859532
14	0x3d8f5eee	0.07000528
15	0x3de7699f	0.112994425
16	0xbe2438b0	-0.1603725
17	0x3e0ea94b	0.13931768
18	0x3ea7d850	0.3278222
19	0xbb478c48	-0.0030448604
20	0xbd25bf2c	-0.04046552
21	0x3ea7ffee	0.32812446
22	0x3e90d998	0.2829101
23	0xbe3a2fb7	-0.18182264
24	0xbd4970ac	-0.049179718
25	0x3e97b9b7	0.29633877
26	0x3e9c56ae	0.3053488
27	0xbeaa9269	-0.33314827
28	0x3d63a8be	0.055580847
29	0x3edd745b	0.43252835
30	0x3e85d6c6	0.26140422
31	0xbe79a460	-0.2437911
32	0x3e3f9ba1	0.18711711
33	0xbbcfcc90	-0.0063415244
34	0xbc8cee9c	-0.017203622
35	0x3d857014	0.06515518
36	0x3e7fa76d	0.24966212
37	0x3d2e8a3a	0.042612292
38	0xbe3992f2	-0.18122461
39	0x3e022180	0.12708092
40	0x3e96cb8a	0.29452163
41	0xbd882de4	-0.06649378
42	0xbba7f4bf	-0.0051256116
43	0x3dc8b6d0	0.09800494
44	0xbdd464c7	-0.10370784
45	0xbe0167d9	-0.12637271
46	0xbde6f8aa	-0.11277898
47	0x3c216da5	0.009852801
48	0x3e27cf1b	0.16387598
49	0xbc8655c6	-0.016398322
50	0x3d246a6a	0.040140547
51	0x3e48ef2c	0.19622487
52	0x3dfee263	0.124455236
53	0x3e3dba51	0.18528105
54	0xbc27937e	-0.010228036
55	0x3e5c5eb0	0.21520495
56	0x3e05c245	0.13062389
57	0x3e136ce0	0.14397001
58	0x3ddf7058	0.109101
59	0x3dba9aa0	0.09111524
60	0xbd843881	-0.0645609
61	0x3d98a58f	0.07453453
62	0x3d018703	0.031622898
63	0x3e06e82e	0.13174507
64	0x3e1b8e65	0.15191038
65	0xbde93f32	-0.11389007
66	0xbbea0276	-0.0071414066
67	0xbd6a2ba3	-0.05717052
68	0x3dae93cd	0.085242845
69	0x3d8fff18	0.07031077
70	0xbd7c3593	-0.06157453
71	0x3db11988	0.08647448
72	0x3d9eb708	0.07749754
73	0xbd1ae458	-0.03781542
74	0xbd05d0c5	-0.0326698
75	0x3dcf4c36	0.10121958
76	0xbe54743b	-0.20747463
77	0xbdc04f51	-0.093901284
78	0xbe03453c	-0.1281938
79	0x3e1975ce	0.14986345
80	0xbc3885c3	-0.01126236
81	0xbe421c32	-0.18956068
82	0xbea54677	-0.32280323
83	0xbe6a4921	-0.22879459
84	0x3e4a7365	0.19770582
85	0xbd32445d	-0.043522228
86	0xbe8b44f8	-0.27201056
87	0xbd554a41	-0.052072767
88	0x3e0bd0c9	0.13653864
89	0xbe3ae5dd	-0.18251748
90	0xbe1c9700	-0.15291977
91	0x3ccc2e5e	0.024924453
92	0xbde7b9ef	-0.11314761
93	0xbe5049f0	-0.20340705
94	0xbe8d24f5	-0.27567258
95	0xbe532862	-0.20620874

bias f4 [6]
0	0x3d8ccd29	0.06875069
1	0x3d617fe8	0.05505362
2	0x3dca1d3e	0.09868859
3	0x3dbaa2b4	0.091130644
4	0x3ca1af4a	0.019736905
5	0xbd9e259c	-0.07722017

weight f4 [6]
0	0x3f8fa3e8	1.1221895
1	0x3f94ec92	1.1634696
2	0x3f96df80	1.1786957
3	0x3fa5de56	1.2958477
4	0x3fa5fb4c	1.2967315
5	0x3f97c331	1.1856443

bias f4 [6]
0	0x3c4918af	0.012273951
1	0xbd9fd394	-0.07804027
2	0x3d060de3	0.032728087
3	0x3b8bd783	0.0042676344
4	0x3c9e58e3	0.019329494
5	0xbb1df203	-0.002410055

weight f4 [18, 6]
0	0x3c43d930	0.011953637
1	0xbecef13e	-0.40418428
2	0x3ea700e0	0.32617855
3	0x3e8b4e14	0.27208006
4	0xbf61b88c	-0.8817222
5	0x3ef1e452	0.47244507
6	0xbe5bd758	-0.21468866
7	0x3f607964	0.8768523
8	0xbdc01c88	-0.09380442
9	0x3ed9c7af	0.4253516
10	0x3da224b7	0.07917159
11	0xbe772dba	-0.24138537
12	0xbd1185cb	-0.035527986
13	0xbea78284	-0.32716763
14	0x3dfdc672	0.12391366
15	0x3d9f137a	0.07767387
16	0x3ecac5d8	0.39604068
17	0xbf35003f	-0.707035
18	0xbe9c74bd	-0.30557814
19	0x3e34afb5	0.17645152
20	0x3f15a49d	0.58454305
21	0x3e615af1	0.22007348
22	0xbee22b9e	-0.44173902
23	0x3e398351	0.181165
24	0x3e56ad31	0.20964505
25	0x3f08f115	0.5349286
26	0xbe4101ae	-0.18848297
27	0x3d9e6337	0.077337675
28	0xbdc7c2c0	-0.097539425
29	0x3e92f569	0.28702858
30	0x3e57f29f	0.21088646
31	0x3e23567f	0.15950964
32	0xbf67fb4b	-0.9061782
33	0xbe67a300	-0.22620773
34	0xbe457937	-0.19284521
35	0x3dd92f82	0.106047645
36	0x3f0ecc20	0.5578022
37	0x3d497b50	0.049189866
38	0x3e6012b8	0.2188214
39	0x3dcd6248	0.10028511
40	0xbf8e6f11	-1.1127645
41	0x3e4401c9	0.19141306
42	0x3e929939	0.28632525
43	0xbd12e6ac	-0.035864517
44	0xbeeceef9	-0.46276072
45	0xbf3445f1	-0.7041922
46	0x3ee9784f	0.455996
47	0xbf0957fc	-0.5364988
48	0x3eff26fc	0.4983443
49	0x3e2a6297	0.16639172
50	0xbc5ca66f	-0.013467415
51	0x3d98511a	0.07437344
52	0xbd1436f3	-0.036185216
53	0xbf160104	-0.585953
54	0xbe6e88fd	-0.23294444
55	0xbe4cb652	-0.19991425
56	0xbeb75ee9	-0.35814598
57	0xbf20f1c2	-0.62868893
58	0xbc468227	-0.012115992
59	0x3f08bdc4	0.5341456
60	0xbe940be2	-0.28915316
61	0x3e9fa6b0	0.3118186
62	0x3c932c14	0.017965354
63	0x3e782138	0.24231422
64	0x3a97faf4	0.0011595176
65	0xbedb5366	-0.42837065
66	0xbee9cdfc	-0.45664966
67	0xbe0b347a	-0.13594237
68	0x3e5b5d7a	0.21422377
69	0x3f637bab	0.8886058
70	0xbd1fd9bf	-0.03902602
71	0x3e31a033	0.17346267
72	0x3e19d57f	0.15022849
73	0xbee44716	-0.44585484
74	0xbf1b887a	-0.6075512
75	0x3f38f566	0.7224945
76	0x3d10fe4a	0.03539876
77	0xbf2d5122	-0.67701924
78	0xbee9380a	-0.45550567
79	0xbf12cbd6	-0.5734228
80	0xbe4c63ba	-0.19959918
81	0xbd9f1a06	-0.077686355
82	0x3f139716	0.57652414
83	0x3e56e5dc	0.20986122
84	0xbeab0408	-0.33401513
85	0x3e01749d	0.1264214
86	0x3f133451	0.57501704
87	0x3f023962	0.5086881
88	0x3d182ac1	0.03715015
89	0xbe13d7c9	-0.14437784
90	0xbebdeae8	-0.37093282
91	0xbee69344	-0.4503423
92	0x3d468372	0.0484652
93	0x3d82fbd3	0.06395688
94	0x3f43921b	0.76394814
95	0xbf042037	-0.51611656
96	0x3e1fd83b	0.15609829
97	0xbee995ca	-0.45622092
98	0x3f965006	1.1743171
99	0xbf2e3282	-0.6804582
100	0xbe21952a	-0.15779558
101	0xbc319d94	-0.010840792
102	0x3edc2caf	0.4300284
103	0xbd87d70e	-0.06632815
104	0xbe8573fb	-0.2606505
105	0xbd4f7c07	-0.05065539
106	0xbf25f4cc	-0.64826655
107	0x3ec905ff	0.39262387

weight f4 [6, 6]
0	0xbef2d609	-0.4742892
1	0x3f1cdbd6	0.61272943
2	0xbe591192	-0.21198109
3	0xbf00af01	-0.50267035
4	0x3ed8b489	0.42325237
5	0xbd01cf55	-0.031691868
6	0x3e990941	0.29889873
7	0xbf029c43	-0.51019686
8	0xbf1a8733	-0.6036255
9	0x3e844375	0.25832716
10	0x3f434127	0.7627129
11	0xbecba0b0	-0.39771032
12	0xbb1b97fc	-0.0023741713
13	0x3e38a3fc	0.18031305
14	0x3ee39902	0.44452673
15	0x3f113507	0.5672154
16	0xbf132e13	-0.5749218
17	0x3e9e19fe	0.30879205
18	0xbe5f3d4b	-0.21800725
19	0xbcb1dc3a	-0.021711458
20	0xbe20b0a1	-0.15692379
21	0x3ed9db28	0.42550015
22	0xbe958528	-0.29203153
23	0x3e856f4d	0.26061478
24	0x3f56917d	0.8381575
25	0xbd8c35ae	-0.06846176
26	0x3e00f726	0.1259428
27	0xbe42fdb4	-0.19042093
28	0xbebc3eca	-0.36766654
29	0xbf126814	-0.5719006
30	0xbeb13704	-0.34612286
31	0x3e911506	0.28336352
32	0xbdbd3d5a	-0.092402175
33	0x3df6b981	0.12047101
34	0xbda1387f	-0.07872104
35	0xbed8e211	-0.42359975

bias f4 [6]
0	0x3e9ff3b3	0.31240615
1	0x3cdea95e	0.02718037
2	0xbdf14b4a	-0.117819384
3	0x3d79199f	0.06081545
4	0xbed4e562	-0.41581255
5	0x3ee77c4d	0.4521202

weight f4 [6]
0	0x3f5f3ecf	0.87205213
1	0x3f62e1dc	0.88625884
2	0x3f845a82	1.0340121
3	0x3f5167eb	0.8179919
4	0x3f87b6bd	1.0602642
5	0x3f5fec14	0.874696

bias f4 [6]
0	0xbd88beeb	-0.0667704
1	0x3d7a9fec	0.06118767
2	0xbd9ed93b	-0.07756277
3	0xbc72f59b	-0.014829065
4	0x3e0bf5c2	0.13667968
5	0xbd855d25	-0.065119065

weight f4 [32, 6]
0	0x3e823456	0.25430554
1	0xbe0e2245	-0.1388026
2	0xbe5ca476	-0.21547112
3	0x3e9194c6	0.28433818
4	0xbc48e881	-0.0122624645
5	0xbea7da18	-0.3278358
6	0xbcd9deee	-0.026595559
7	0xbe740106	-0.23828515
8	0xbd060982	-0.03272391
9	0xbed0525a	-0.4068783
10	0xbe4695a7	-0.19393025
11	0xbd966ec0	-0.07345343
12	0x3de6bd56	0.11266582
13	0x3e29bfce	0.16577074
14	0xbe5b0f42	-0.21392539
15	0xbf0f3082	-0.5593339
16	0xbe216b71	-0.15763642
17	0x3e8db74e	0.27678913
18	0xbf093422	-0.53595173
19	0x3d887c4f	0.06664335
20	0x3dd92254	0.10602251
21	0x3e1551bf	0.14581965
22	0xbe2b8467	-0.16749726
23	0xbe50bd8e	-0.2038481
24	0xbef2ef84	-0.4744836
25	0x3e59b94c	0.21262091
26	0x3e863059	0.2620876
27	0xbc53d533	-0.012929249
28	0x3d57f0b9	0.052719805
29	0x3d2d3c31	0.04229373
30	0x3d365017	0.044509973
31	0xbe413076	-0.18866143
32	0xbefb0484	-0.49026883
33	0x3e5206b3	0.20510368
34	0x3e101fb4	0.14074594
35	0x3ea409db	0.3203877
36	0x3e7c471a	0.24636498
37	0xbe25743d	-0.16157623
38	0x3e40b810	0.18820214
39	0xbe7a5f4c	-0.24450415
40	0x3ebab05f	0.36462685
41	0x3e67086d	0.22561808
42	0x3e98318d	0.29725304
43	0xbe469752	-0.19393662
44	0xbeaab001	-0.33337405
45	0x3ed68ec1	0.41905788
46	0xbd764f8c	-0.060134456
47	0xbeb6ae67	-0.35679933
48	0x3e36bc52	0.17845276
49	0xbdfa4f7a	-0.1222219
50	0xbb128095	-0.0022354473
51	0x3ce7889c	0.028263383
52	0xbe55136c	-0.2080819
53	0xbd32ad00	-0.043622017
54	0x3ef8af3d	0.48571196
55	0xbe60ca60	-0.219522
56	0x3d48f367	0.04906025
57	0xbdf42b8e	-0.1192237
58	0xbe6e60f9	-0.2327918
59	0xbe362cfb	-0.17790596
60	0xbeaba4df	-0.33524224
61	0x3eb4401a	0.35205156
62	0xbe3aec4a	-0.182542
63	0xbea223c0	-0.316679
64	0xbd70f077	-0.058823075
65	0x3d370062	0.0446781
66	0xbee7a37e	-0.45241922
67	0x3e8843f2	0.26614338
68	0x3e572bf1	0.21012856
69	0xbe755d9b	-0.23961489
70	0xbf06be4c	-0.5263412
71	0xbeb6611d	-0.35620967
72	0x3e75a94e	0.23990366
73	0x3f2c2302	0.6724092
74	0xbe85062d	-0.25981274
75	0x3eb15922	0.34638315
76	0x3f0ce183	0.55031604
77	0x3e863841	0.26214793
78	0x3cf84790	0.030307561
79	0xbea9d108	-0.3316729
80	0x3e324cbf	0.17412089
81	0x3e82f6aa	0.25578815
82	0xbe642032	-0.22277907
83	0x3da1e8fc	0.07905766
84	0x3ef3e9cf	0.4763932
85	0x3de5822b	0.11206468
86	0xbef6d340	-0.48208046
87	0xbee2c82c	-0.44293344
88	0xbf07d1ea	-0.5305468
89	0xbe71ad9f	-0.23601387
90	0xbe12565a	-0.14290753
91	0xbee23dd8	-0.44187808
92	0x3ec08058	0.3759792
93	0x3d81db1a	0.063406184
94	0x3e8cade6	0.27476424
95	0x3e77a07a	0.2418231
96	0x3e0551a4	0.13019425
97	0xbeb344e2	-0.3501349
98	0xbec5f05f	-0.3865995
99	0xbeb5173e	-0.35369295
100	0x3df6b040	0.12045336
101	0x3f1293a2	0.5725652
102	0xbdb26f82	-0.08712675
103	0xbeccfaef	-0.40035197
104	0x3d227374	0.039660886
105	0xbed3f279	-0.4139593
106	0x3e35fa82	0.17771342
107	0x3d9d52df	0.07681822
108	0x3e020334	0.12696534
109	0xbdcefc52	-0.1010672
110	0xbe52d9fb	-0.20590965
111	0xbf291b2d	-0.6605709
112	0x3ea6dc90	0.3259015
113	0xbdafdf49	-0.0858751
114	0xbe3bc406	-0.18336496
115	0xbe5aa679	-0.21352567
116	0xbebd960d	-0.37028542
117	0x3e99a59d	0.30009165
118	0x3dddc2fb	0.10828205
119	0x3d7a7896	0.061150156
120	0x3e742b36	0.23844609
121	0xbf011d73	-0.5043556
122	0xbe8c31b7	-0.2738168
123	0x3e58ecb2	0.21184042
124	0xbcd18ee3	-0.025580829
125	0x3e59dce8	0.21275675
126	0xbeb63ec7	-0.3559477
127	0xbec7d9cb	-0.3903335
128	0xbd8b3a78	-0.067982614
129	0x3f07edd0	0.5309725
130	0x3c7f4abc	0.015581783
131	0xbd4c8047	-0.049927022
132	0x3e6e3a38	0.23264396
133	0xbe88201e	-0.26587003
134	0x3e4ce925	0.20010813
135	0x3ecede11	0.40403798
136	0xbe80c620	-0.25151157
137	0x3ef65246	0.48109645
138	0xbe998e02	-0.29991156
139	0x3e80dfaf	0.25170657
140	0x3eccfd2a	0.400369
141	0x3dfb52a5	0.122716226
142	0x3f0b4993	0.5440914
143	0x3ce13a46	0.027493607
144	0x3e006415	0.12538178
145	0x3f13af65	0.57689506
146	0xbedd866c	-0.43266618
147	0xbe4bd273	-0.19904499
148	0xbe9febf4	-0.31234705
149	0x3e95422f	0.29152057
150	0xbe92a6fe	-0.2864303
151	0x3eccf07a	0.4002722
152	0x3e1d3b4b	0.1535465
153	0x3e67a81f	0.22622727
154	0x3f5fc356	0.87407434
155	0xbe785a56	-0.2425321
156	0xbee07a69	-0.43843392
157	0x3f213658	0.62973547
158	0xbea85dcc	-0.3288406
159	0x3e459971	0.19296815
160	0xbed3bea8	-0.41356397
161	0x3e5269d1	0.20548178
162	0xbe051ded	-0.12999697
163	0xbe9bfaf4	-0.304649
164	0x3e1eefa1	0.15521099
165	0x3e6abee4	0.22924381
166	0xbe295fb7	-0.16540419
167	0xbe7b4544	-0.24538141
168	0x3ed840b4	0.42236865
169	0x3eb32c42	0.34994704
170	0xbe425e31	-0.18981244
171	0x3e1592a0	0.14606714
172	0x3e50b7a9	0.20382561
173	0x3e1fe258	0.15613687
174	0x3f024d99	0.50899655
175	0x3e5fd802	0.21859744
176	0xbe534e0b	-0.2063524
177	0xbec43603	-0.38322458
178	0x3e704be5	0.23466451
179	0x3ea5c4bc	0.3237666
180	0xbe987429	-0.29776123
181	0xbdf059ce	-0.11735879
182	0xbecbd9e1	-0.39814666
183	0x3ee3056a	0.44340068
184	0x3edf2000	0.43579102
185	0xbdff8d13	-0.1247808
186	0xbed64ab1	-0.4185386
187	0x3e1ffa24	0.15622765
188	0xbe34a1bb	-0.1763982
189	0x3e4f3476	0.20234856
190	0xbec5070c	-0.3848194
191	0xbe6886bf	-0.22707652

bias f4 [32]
0	0xbe3387cf	-0.17532276
1	0xbe22f96d	-0.15915461
2	0x3d0c1292	0.034197398
3	0xbf4f7d48	-0.8105054
4	0x3e21e2ed	0.15809222
5	0xbef2c120	-0.47412968
6	0xbf0405a3	-0.515711
7	0x3e8425b4	0.25810015
8	0xbe95402b	-0.2915052
9	0xbed910e0	-0.42395687
10	0x3cd3fed4	0.025878347
11	0xbebf2ad2	-0.37337357
12	0x3e6a40b7	0.22876249
13	0xbe932e92	-0.28746468
14	0xbee5f0ce	-0.44910282
15	0xbf0e748a	-0.55646574
16	0x3db0b7fc	0.08628842
17	0xbe265c54	-0.16246158
18	0x3df1c2fa	0.11804767
19	0xbe7f43ec	-0.24928254
20	0xbe97df50	-0.2966256
21	0x3c1f2a9c	0.009714749
22	0xbf0c6332	-0.5483886
23	0xbe7a880e	-0.24465963
24	0xbe894690	-0.26811647
25	0xbeac8beb	-0.337005
26	0xbe971ed6	-0.29515713
27	0xbedb4972	-0.42829472
28	0xbec8c374	-0.3921162
29	0xbe917e0a	-0.28416473
30	0xbd91e085	-0.07122902
31	0xbecf4a06	-0.40486163

weight f4 [6, 32]
0	0xbd83e18c	-0.06439504
1	0xbdff5b68	-0.12468606
2	0x3c84370c	0.01613953
3	0xbf25881d	-0.6466082
4	0xbe8582a7	-0.26076242
5	0x3d77d206	0.06050303
6	0xbd03caf1	-0.032175962
7	0xbe82f054	-0.2557398
8	0xbdccfab8	-0.10008758
9	0xbe53b8b7	-0.20675932
10	0xbd2e3abb	-0.04253648
11	0xbe8e91fd	-0.27845755
12	0xbdfb3ff4	-0.122680575
13	0xbca6f476	-0.02038024
14	0xbeefd9da	-0.46845895
15	0x3dd16187	0.1022368
16	0xbe0ef4e4	-0.13960606
17	0xbd6aad19	-0.057293985
18	0xbd971fe2	-0.07379128
19	0xbc4a4ee2	-0.012347909
20	0xbc901c4b	-0.017591616
21	0x3e8adf24	0.27123368
22	0xbce042f9	-0.027375685
23	0x3cbbe382	0.022935633
24	0x3eb5bbdd	0.3549489
25	0x3e9bc3cb	0.30422816
26	0xbe315a29	-0.1731955
27	0x3d4e45b5	0.050359447
28	0x3de640f4	0.112428576
29	0xbe760b18	-0.2402767
30	0x3dfdd139	0.12393422
31	0x3d8a86ee	0.06764017
32	0xbeb0a995	-0.3450438
33	0x3c9988f4	0.018742062
34	0xbe0aaa60	-0.13541555
35	0x3f2defdb	0.67944115
36	0xbd30c282	-0.043154247
37	0x3f0e0dce	0.55489814
38	0x3ec52999	0.385083
39	0xbebcdef3	-0.36888847
40	0x3cd83eb6	0.02639709
41	0x3e3ca328	0.18421614
42	0xbe250658	-0.16115701
43	0x3c7422d0	0.014900878
44	0xbca0251a	-0.019548941
45	0xbdd72930	-0.10505903
46	0xbd24e8e2	-0.040261157
47	0x3ea4ab3b	0.32161888
48	0x3dbf73b1	0.09348238
49	0x3ed1d734	0.409845
50	0x3dfccbab	0.12343534
51	0x3da4089b	0.08009454
52	0x3ef74332	0.48293453
53	0xbd723e9e	-0.059141748
54	0xbdee7d1a	-0.11644955
55	0xbdd2cde1	-0.102931745
56	0xbe34f03e	-0.1766977
57	0xbf0410b5	-0.5158799
58	0xbd7effaf	-0.062255558
59	0xbef337b0	-0.47503424
60	0x3e8566d5	0.26055017
61	0xbe874380	-0.26418686
62	0xbec57d6d	-0.38572255
63	0x3d99f0d7	0.0751664
64	0x3da75579	0.081705995
65	0xbe3edcf8	-0.1863898
66	0xbd84bdc4	-0.064815074
67	0xbf095947	-0.5365185
68	0x3e7ad1f9	0.2449416
69	0xbe43f063	-0.19134669
70	0x3e29ba70	0.16575027
71	0x3e13eef9	0.1444663
72	0x3d248b0b	0.040171664
73	0x3ddebbba	0.1087565
74	0x3e089297	0.1333717
75	0x3e9b8f94	0.3038298
76	0xbe6d9e2b	-0.23204868
77	0x3d3e9817	0.046531763
78	0xbd1b5fa3	-0.037933003
79	0x3c718925	0.01474217
80	0xbe653d17	-0.22386585
81	0x3dcbff48	0.099608004
82	0xbe98d0b6	-0.29846734
83	0xbd0821fe	-0.033235542
84	0x3e899711	0.26873067
85	0x3cc30632	0.023806665
86	0xbbf035b8	-0.0073306225
87	0xbdbe673b	-0.092970334
88	0x3da5f762	0.08103825
89	0x3df50dd4	0.11965528
90	0x3df21ec6	0.11822276
91	0xbdeedb19	-0.11662883
92	0x3e2bcec6	0.16778097
93	0xbe6fd6f2	-0.23421839
94	0xbe111762	-0.14169076
95	0xbe5cf1ee	-0.21576664
96	0xbdd82d3c	-0.10555503
97	0xbddbaa64	-0.10725859
98	0xbdfcbba2	-0.123404756
99	0x3e3a390b	0.18185823
100	0xbd664326	-0.05621638
101	0xbe0026c0	-0.12514782
102	0xbeb405bf	-0.35160634
103	0xbc9b3198	-0.018944547
104	0x3ccede8d	0.025252605
105	0x3e3ccd96	0.184378
106	0x3e774159	0.24146022
107	0x3e655a29	0.22397675
108	0xbdd9f2d4	-0.10642019
109	0xba5bd4d8	-0.0008385903
110	0x3e9dbaeb	0.3080667
111	0xbe331b84	-0.17490965
112	0xbea0cfbf	-0.31408498
113	0x3d95ec13	0.07320418
114	0x3d9f4848	0.077774584
115	0x3eb62a46	0.35579127
116	0xbe2570f3	-0.16156368
117	0xbd96fde6	-0.07372646
118	0xbe6cd628	-0.23128569
119	0x3d9b53c2	0.07584335
120	0xbdd3970f	-0.103315465
121	0xbec77c17	-0.3896186
122	0x3dcd09b4	0.10011616
123	0x3e6c6b39	0.23087777
124	0xbeac518c	-0.33655965
125	0x3dc5d5e5	0.09659938
126	0xbd38741f	-0.045032617
127	0x3e9eb866	0.3100006
128	0x3dd39f7c	0.103331536
129	0x3bf62cd2	0.007512667
130	0x3e72e51e	0.23720214
131	0x3e91a2f8	0.28444648
132	0xbdd25989	-0.10270984
133	0xbdf53dfa	-0.11974712
134	0x3e864938	0.26227736
135	0xbd11add0	-0.03556615
136	0x3df4a351	0.11945213
137	0xbc091540	-0.008366883
138	0xbe5623e8	-0.20912135
139	0xbee0cd56	-0.4390666
140	0x3e068f7f	0.13140677
141	0x3e30ae7c	0.1725406
142	0x3ee61b7a	0.44942838
143	0x3d82f7c1	0.063949116
144	0x3d91f624	0.07127026
145	0x3e7998ec	0.24374741
146	0x3ea747e3	0.32672033
147	0xbc3419f4	-0.010992516
148	0xbcc380c6	-0.023865115
149	0x3d9d04ca	0.07666929
150	0x3e0024ec	0.12514085
151	0xbea424a0	-0.32059193
152	0xbefc75c0	-0.49308586
153	0x3be8bc32	0.0071025128
154	0xbf04c165	-0.51857597
155	0xbcd41081	-0.025886776
156	0x3d29de7a	0.041471936
157	0x3e9abc52	0.30221802
158	0x3e27f3b8	0.16401565
159	0x3e9f9fd6	0.31176633
160	0x3d0e9d7c	0.034818158
161	0xbd0a17c3	-0.033714067
162	0x3ed7a8f0	0.42121077
163	0xbd4e47c7	-0.05036142
164	0x3db2f44f	0.087380044
165	0x3eab241d	0.3342599
166	0xbed9b915	-0.4252402
167	0x3dc6e5d9	0.09711809
168	0x3c5a2178	0.013313644
169	0xbe03f2aa	-0.12885538
170	0xbd8c0deb	-0.06838592
171	0x3e063458	0.13105905
172	0x3e8cfb33	0.275354
173	0x3e66d3d4	0.22541744
174	0xbdbceefa	-0.09225269
175	0xbea1b745	-0.31585136
176	0x3f0efc9b	0.55854195
177	0xbd888870	-0.066666484
178	0x3d957eaa	0.0729955
179	0x3de45bf2	0.1115035
180	0xbda796fe	-0.08183096
181	0x3e9c5895	0.30536333
182	0x3eb13f20	0.34618473
183	0x3e8465d7	0.25858948
184	0x3e8845ca	0.26615745
185	0x3eaa0e8e	0.3321423
186	0x3ec1eb0b	0.37874636
187	0x3d4fdb28	0.050746113
188	0xbe509755	-0.20370229
189	0x3e10c0b9	0.14136018
190	0x3e784358	0.2424444
191	0x3e8f485b	0.2798489

bias f4 [6]
0	0xbe2c602b	-0.1683356
1	0xbb9e44e5	-0.00482999
2	0x3c63412c	0.013870519
3	0x3dd4139b	0.10355302
4	0xbd949ac3	-0.07256081
5	0xbd9d97c3	-0.07694962

weight f4 [6]
0	0x3f6832f2	0.90702736
1	0x3f9fd84c	1.2487884
2	0x3fbf1aa7	1.4930009
3	0x3fa8e331	1.3194333
4	0x3fb19dc1	1.3876268
5	0x3fb147db	1.3850054

bias f4 [6]
0	0x3d556137	0.052094664
1	0xbd60f566	-0.05492153
2	0x3bfbda7b	0.007685957
3	0xbcd9b3a9	-0.026574926
4	0xbe7c33d4	-0.24629146
5	0x3e9522b9	0.29128054

weight f4 [18, 6]
0	0x3e3cebd0	0.1844933
1	0xbf030806	-0.5118412
2	0x3ea90b1b	0.33016285
3	0xbdb95c43	-0.09050801
4	0x3efffc53	0.49997196
5	0xbf24bbde	-0.6434916
6	0x3d8bd544	0.068277866
7	0x3dc734ea	0.097268894
8	0x3ea5ce7d	0.323841
9	0x3e08859a	0.13332215
10	0xbf18955f	-0.5960292
11	0x3ee6bfa1	0.45068076
12	0x3d83ca94	0.06435123
13	0xbefcbbce	-0.49362034
14	0x3dace76a	0.08442576
15	0x3f6f77e0	0.9354229
16	0x3f07df8b	0.53075475
17	0xbf06c9cf	-0.52651685
18	0xbee32d9b	-0.44370732
19	0xbea3f8cb	-0.3202575
20	0x3f0fd079	0.5617748
21	0x3e642bf0	0.22282386
22	0xbf09268e	-0.53574455
23	0x3ed7ff92	0.42187172
24	0x3edf646c	0.43631303
25	0x3f4e0156	0.8047079
26	0xbd5f786e	-0.05455821
27	0xbe9d7e9d	-0.3076066
28	0x3f1f7c69	0.6229921
29	0xbe8c0861	-0.27350143
30	0x3e009200	0.12555695
31	0xbf1398b8	-0.57654905
32	0x3d5fac15	0.05460747
33	0xbd4be8ea	-0.04978267
34	0x3ec85051	0.39123777
35	0xbeef2a0d	-0.4671177
36	0x3def84d1	0.116952546
37	0x3ef46bba	0.4773844
38	0x3f0281be	0.5097922
39	0xbf312633	-0.6919891
40	0xbf199a4c	-0.60001063
41	0xbdc24042	-0.094849125
42	0xbe792c29	-0.24333252
43	0x3e16d4e9	0.14729656
44	0x3f3a4092	0.72754776
45	0x3e8748b1	0.26422647
46	0xbecfec05	-0.40609756
47	0xbead829d	-0.33888713
48	0xbea14b22	-0.31502634
49	0xbf06f3d6	-0.52715814
50	0xbd8facb8	-0.07015365
51	0x3f00e5f7	0.503509
52	0x3e05234f	0.1300175
53	0x3eb52740	0.35381508
54	0x3e3da756	0.18520865
55	0xbf04bdbb	-0.51852006
56	0x3d218818	0.03943643
57	0xbe514a58	-0.20438516
58	0x3f13152a	0.5745417
59	0xbef610b0	-0.48059607
60	0x3f1f4cf2	0.62226784
61	0xbf0a36ae	-0.53989685
62	0xbea382df	-0.31935784
63	0xbf1bd05f	-0.60864824
64	0x3f1c5185	0.6106189
65	0xbcf7ce4c	-0.030249737
66	0x3dced0e2	0.10098435
67	0x3e93cc31	0.28866723
68	0xbf8df200	-1.1089478
69	0xbda9ef6d	-0.0829762
70	0xbde169f3	-0.11006536
71	0x3d9e124f	0.07718336
72	0x3e8bd3ac	0.2730993
73	0xbe7ac988	-0.2449094
74	0x3ee44536	0.44584054
75	0x3f16deb4	0.5893357
76	0xbe840397	-0.2578399
77	0xbe558ec3	-0.2085524
78	0x3de9b1a9	0.11410839
79	0x3cb2d270	0.02182886
80	0xbea50cd1	-0.3223634
81	0x3d40b79b	0.0470501
82	0xbe2db41b	-0.16963236
83	0x3f56d20a	0.83914244
84	0xbf0aebf2	-0.54266274
85	0x3ed4ba1a	0.41548234
86	0xbec86d50	-0.391459
87	0x3e6773ae	0.22602722
88	0x3ec55e53	0.38548526
89	0xbf1d696d	-0.6148899
90	0xbda5ff59	-0.08105344
91	0x3dfa7e06	0.12231068
92	0xbf35a2a6	-0.70951307
93	0xbe5100b4	-0.20410424
94	0x3ef9b2e4	0.48769295
95	0x3eb3bc45	0.35104576
96	0x3eeebb2d	0.4662718
97	0xbe71a208	-0.23596966
98	0x3f03ff6c	0.5156162
99	0xbe1e78e8	-0.1547581
100	0x3d79b280	0.060961246
101	0x3e00da34	0.12583238
102	0xbf0ce44f	-0.5503587
103	0x3d91e950	0.07124579
104	0x3e0b3837	0.13595663
105	0x3f63a217	0.88919204
106	0xbca41def	-0.020033805
107	0xbf1f9721	-0.6233998

weight f4 [6, 6]
0	0xbe257522	-0.16157964
1	0xbf2f25cb	-0.6841704
2	0x3e8c73a5	0.2743198
3	0x3f049dde	0.51803386
4	0xbe8262e0	-0.2546606
5	0x3daa9b61	0.083304174
6	0xbef323d6	-0.47488278
7	0x3d5bb1d2	0.05363638
8	0xbe2ff565	-0.17183454
9	0xbe5f8cae	-0.21831009
10	0xbf264e23	-0.6496298
11	0xbf7babba	-0.9830891
12	0x3ddf5a57	0.10905903
13	0x3dd34a4c	0.103169054
14	0x393cfe12	0.00018023726
15	0x3f3086fd	0.68955976
16	0x3daa0228	0.083011925
17	0xbe894235	-0.26808324
18	0x3f2ab9f1	0.66689974
19	0x3e720078	0.23632991
20	0x3f1df088	0.61695147
21	0xbe347a7d	-0.1762485
22	0x3e5df446	0.21675214
23	0x3e2c4fb1	0.16827275
24	0x3ed6bc7c	0.41940677
25	0xbf05ed0c	-0.5231483
26	0xbf49c2e1	-0.78812987
27	0x3e4cfecf	0.20019077
28	0xbe8f4aeb	-0.27986845
29	0x3e8fed5b	0.28110775
30	0x3e888dc7	0.26670668
31	0x3ef22d7e	0.47300333
32	0xbe252bd3	-0.16129999
33	0xbee0a24b	-0.4387382
34	0x3e01a135	0.12659152
35	0xbdd67c25	-0.104728974

bias f4 [6]
0	0x3ea53ac2	0.3227139
1	0xbd2ae10d	-0.04171853
2	0x3e79d0a6	0.24396
3	0xbe7c818c	-0.24658793
4	0x3ca999b5	0.020703176
5	0xbe30051c	-0.17189449

weight f4 [6]
0	0x3f92f5ed	1.14813
1	0x3f9515b5	1.164725
2	0x3f8c591c	1.0964694
3	0x3f8211f4	1.0161729
4	0x3f6a0224	0.91409516
5	0x3f762613	0.96151847

bias f4 [6]
0	0x3e402cb0	0.18767047
1	0x3cac99bf	0.021069406
2	0xbbe029bf	-0.006840914
3	0x3e322ded	0.17400332
4	0x3dea6662	0.11445309
5	0xbe15602b	-0.14587466

weight f4 [32, 6]
0	0xbcbb011a	-0.022827674
1	0x3e31db22	0.17368749
2	0xbd9c4d31	-0.076319106
3	0x3f23d1de	0.63992107
4	0xbd550250	-0.05200416
5	0x3e4a22ea	0.19739881
6	0x3ea0b60d	0.31388894
7	0x3e87e5ef	0.26542613
8	0xbdfec8d4	-0.12440649
9	0x3e932b79	0.28744105
10	0x3e9eb65a	0.30998498
11	0xbef88734	-0.48540652
12	0xbe947356	-0.28994244
13	0x3edd842e	0.43264908
14	0xbc600513	-0.013673085
15	0xbf05f69b	-0.52329415
16	0xbd8eff1a	-0.069822505
17	0xbe5d1ced	-0.21593066
18	0xbece0e4c	-0.40245283
19	0x3f482177	0.78176063
20	0x3e0cb0f6	0.1373938
21	0x3e07074d	0.13186379
22	0x3f11f830	0.5701933
23	0xbdd546f4	-0.10413924
24	0x3e98d6e7	0.29851457
25	0x3f5af9a7	0.8553719
26	0xbf8640b6	-1.0488498
27	0xbe1b72ee	-0.15180561
28	0x3f0642cc	0.52445674
29	0xbde0cd69	-0.10976679
30	0xbcad00f0	-0.021118611
31	0x3ea78937	0.32721874
32	0xbd9d550d	-0.07682238
33	0xbeb88f65	-0.360469
34	0x3e3c92ff	0.1841545
35	0x3edadb19	0.42745283
36	0x3ef82023	0.48462018
37	0x3f21d868	0.63220835
38	0x3d6714b2	0.05641622
39	0x3ed02d6b	0.4065965
40	0x3e41ca6c	0.18924874
41	0xbf3752f2	-0.7161094
42	0xbe0281f2	-0.12744883
43	0xbe85e3ac	-0.26150262
44	0x3e0c72c1	0.1371565
45	0xbeff9eac	-0.49925745
46	0x3d5e3693	0.054251265
47	0x3e83edda	0.25767404
48	0xbe083e77	-0.13305078
49	0x3d345214	0.04402359
50	0xbd513b47	-0.051081922
51	0x3df26d35	0.11837236
52	0xbf0b8136	-0.54494035
53	0xbe0fbbc0	-0.14036465
54	0x3e3dac67	0.18522798
55	0x3e0ec9db	0.13944189
56	0xbf87c017	-1.0605496
57	0xba93f947	-0.00112895
58	0xbe801bea	-0.25021297
59	0x3d83b053	0.064301156
60	0xbd64501e	-0.05574047
61	0xbd57ea79	-0.052713845
62	0xbeaaec65	-0.3338348
63	0x3de1db35	0.110281385
64	0x3e652502	0.22377399
65	0x3ea49de2	0.32151705
66	0x3e8ab020	0.27087498
67	0x3e838e33	0.25694427
68	0x3e724c49	0.23661913
69	0xbcda9f88	-0.026687399
70	0xbef62c48	-0.4808066
71	0x3ed6fc4b	0.4198936
72	0x3d53c354	0.05169995
73	0xbec01e92	-0.37523323
74	0x3ebf33e9	0.37344292
75	0x3f040cab	0.5158183
76	0x3e1932ac	0.14960736
77	0xbd077f24	-0.033080235
78	0xbf0bc8fa	-0.5460354
79	0x3eb1ead9	0.34749487
80	0x3e70c2b3	0.23511772
81	0xbe95d45d	-0.29263583
82	0x3d125de3	0.03573407
83	0xbedc536d	-0.430324
84	0xbd2bf241	-0.04197908
85	0x3efe8477	0.49710438
86	0x3e3e0ae4	0.18558842
87	0x3f040c81	0.5158158
88	0xbecf43a3	-0.4048129
89	0xbf03e295	-0.5151761
90	0xbe46e313	-0.1942256
91	0xbf15c984	-0.58510613
92	0x3e1dabbe	0.15397546
93	0xbebe4be2	-0.3716727
94	0x3e8d7468	0.27627873
95	0xbedc3b15	-0.43013826
96	0x3ed8eb2b	0.4236692
97	0xbe7284df	-0.23683499
98	0xbd055963	-0.03255595
99	0x3e49eb8f	0.19718765
100	0xbead184b	-0.33807597
101	0xbe715cfe	-0.2357063
102	0xbde15a1e	-0.110035166
103	0xbee2aa83	-0.44270715
104	0x3e2bedd5	0.16789944
105	0xbe32b1c1	-0.1745062
106	0x3ea8f8aa	0.33002216
107	0x3edb4913	0.4282919
108	0xbd691a1b	-0.05690966
109	0xbe91e6ba	-0.28496343
110	0x3eb42ec5	0.35191932
111	0xbf05db49	-0.5228773
112	0xbc19c57a	-0.009385461
113	0x3eda8e9f	0.42686936
114	0x3dea3b48	0.11437088
115	0x3f459f93	0.77196616
116	0xbe92b420	-0.2865305
117	0x3d224050	0.039612114
118	0xbec4bdfd	-0.384262
119	0x3d1f7b2b	0.03893582
120	0xbed44882	-0.4146157
121	0x3e9924be	0.29910845
122	0xbe3ee900	-0.1864357
123	0x3e8ecd59	0.27891043
124	0xbe09eacc	-0.13468474
125	0x3e901dee	0.28147835
126	0xbf090b5a	-0.53532946
127	0x3e40af89	0.18816961
128	0xbf0a696c	-0.5406711
129	0x3eec24e3	0.46121892
130	0x3e95105f	0.29114053
131	0xbe74ca44	-0.23905283
132	0x3cd23060	0.025657833
133	0x3d892551	0.06696571
134	0xbf4df55f	-0.8045253
135	0x3ea8af0c	0.3294605
136	0x3f3f6d8f	0.7477655
137	0xbd1cf052	-0.038315125
138	0x3ea09269	0.31361702
139	0x3e836436	0.25662392
140	0xbdd095fc	-0.10184857
141	0x3d96140b	0.07328042
142	0x3e24c89e	0.16092154
143	0xbe0f6453	-0.14003114
144	0x3f26ed3b	0.65205735
145	0xbf006d4a	-0.5016676
146	0xbf157619	-0.5838333
147	0x3e728c7b	0.23686402
148	0x3d850120	0.06494355
149	0xbeb83907	-0.35981008
150	0xbd9e45c1	-0.07728148
151	0x3e85f51d	0.2616357
152	0xbc81b022	-0.015831057
153	0xbdfcedd7	-0.12350052
154	0x3e913b77	0.2836568
155	0xbeaaadcb	-0.3333572
156	0x3e9c308c	0.30505788
157	0x3f3c166b	0.7347171
158	0xbe19362e	-0.14962074
159	0xbd92cf20	-0.07168412
160	0xbec74e3c	-0.38926876
161	0xbeb27bf6	-0.348602
162	0xbdb42402	-0.087959304
163	0x3eef321f	0.46717927
164	0xbf2063d9	-0.62652355
165	0xbed25f93	-0.41088542
166	0x3ef796b3	0.48357162
167	0x3cbf3d35	0.023344615
168	0xbc94064e	-0.018069413
169	0xbeecf310	-0.46279192
170	0x3edfb483	0.43692407
171	0x3e69a1e1	0.22815658
172	0xbe91230d	-0.28347054
173	0xbf265c5f	-0.649847
174	0xbe608cb6	-0.21928677
175	0xbe892883	-0.2678872
176	0x3e9049a1	0.28181174
177	0xbf1a21b5	-0.6020768
178	0xbe08f251	-0.13373686
179	0xbf0341bd	-0.51272184
180	0x3eb8a765	0.36065212
181	0x3e811dbf	0.25218007
182	0x3d747648	0.059683114
183	0xbed1088f	-0.40826842
184	0x3f18ee51	0.5973864
185	0xbeb33c7a	-0.35007077
186	0x3f218732	0.63096917
187	0xbe32f782	-0.17477229
188	0xbf1108b7	-0.5665392
189	0x3bc22714	0.0059250686
190	0x3db35db4	0.08758107
191	0x3e314911	0.17313029

bias f4 [32]
0	0x3edfd3a9	0.4371617
1	0x3e2b83c2	0.1674948
2	0x3df104be	0.117684826
3	0xbec72815	-0.38897768
4	0x3d5eda06	0.054407142
5	0xbe274c3c	-0.16337675
6	0x3e2d1e83	0.1690617
7	0x3e1b01e1	0.15137435
8	0xbea4cbc3	-0.32186708
9	0xbe106c17	-0.14103733
10	0xbe202629	-0.15639557
11	0x3ea90d52	0.33017975
12	0x3eb85555	0.36002603
13	0xbc0477c5	-0.008085196
14	0xbe7d605e	-0.24743792
15	0xbdac2228	-0.08404952
16	0x3ea8d526	0.3297512
17	0xbe693e9f	-0.22777794
18	0x3eb64634	0.35600436
19	0x3d3ad646	0.045614503
20	0x3da5ef18	0.08102244
21	0x3e7b23e7	0.24525414
22	0x3e6628d7	0.22476517
23	0xbed376ff	-0.41301724
24	0xbd8e2fa0	-0.069426775
25	0xbf0111f2	-0.5041801
26	0xbd1fff7e	-0.039062016
27	0x3e07ac91	0.13249423
28	0xbef06ec3	-0.46959504
29	0xbef01867	-0.46893618
30	0xbea62fb5	-0.32458273
31	0xbdd53160	-0.10409808

weight f4 [6, 32]
0	0x3d342d04	0.043988243
1	0xbe696ce3	-0.22795443
2	0x3e83393e	0.2562961
3	0x3e40e922	0.18838933
4	0x3ec9b9a7	0.39399454
5	0x3d8cc6c2	0.068738475
6	0xbe9bc05a	-0.3042019
7	0x3d9eeacd	0.077596284
8	0xbe21f0d8	-0.15814531
9	0xbed6673a	-0.4187563
10	0xbda2d6e6	-0.07951145
11	0xbdcccedd	-0.100003935
12	0x3ea68080	0.32519913
13	0x3e29b45a	0.16572705
14	0x3e256eb2	0.16155508
15	0x3ecdf0fe	0.40222925
16	0xbd967a7a	-0.07347579
17	0x3e0a57ef	0.13510107
18	0x3c046734	0.008081246
19	0x3e2e97f0	0.17050147
20	0xbd8e85e3	-0.069591306
21	0x3d90d1c4	0.070712596
22	0x3c2edc1d	0.010672596
23	0xbe3b51fc	-0.18292993
24	0x3f061296	0.5237211
25	0xbce7ae52	-0.028281365
26	0xbe0ee119	-0.13953055
27	0x3e8f7eb6	0.2802636
28	0xbf09b076	-0.53784883
29	0x3f2f68b8	0.68519163
30	0xbd0822a3	-0.033236157
31	0x3e9a4d8a	0.30137283
32	0x3e4177b2	0.18893316
33	0xbd9b95a4	-0.07596901
34	0x3c6ef3c0	0.014584482
35	0x3d898947	0.06715637
36	0xbe85bb45	-0.26119438
37	0xbda86446	-0.08222251
38	0xbdae0556	-0.084971115
39	0xba76ea65	-0.0009419083
40	0x3dc8452b	0.09778818
41	0xbe90967f	-0.2823982
42	0xbcb47077	-0.022026284
43	0x3e00c1ad	0.12573881
44	0x3cf09fed	0.029373134
45	0xbdd6cefa	-0.104886964
46	0xbeb34f72	-0.3502155
47	0xbf6704d8	-0.90241766
48	0x3e84f09b	0.25964817
49	0xbdc59ad1	-0.096486695
50	0x3d2bd709	0.04195312
51	0x3edd7d26	0.43259543
52	0x3dcf6a54	0.10127702
53	0xbdc4b74e	-0.09605275
54	0x3e638b5b	0.22221129
55	0xbd1c41f6	-0.038148843
56	0x3dc7e0f2	0.09759702
57	0x3d3543f9	0.044254277
58	0xbec50f2a	-0.38488132
59	0xbeb225af	-0.34794375
60	0x3e90b030	0.2825942
61	0xbcd0fe85	-0.02551199
62	0x3edf2e4f	0.43590018
63	0xbe35f1fb	-0.1776809
64	0xbcf05de8	-0.029341653
65	0x3b413e3c	0.0029486557
66	0x3cf5f391	0.030023368
67	0xbf05291a	-0.5201584
68	0x3f02a98b	0.5103995
69	0xbe34ec16	-0.17668185
70	0x3e90c445	0.28274742
71	0xbe2dfd6f	-0.16991208
72	0x3e0a7420	0.1352086
73	0x3d2c2b52	0.0420335
74	0xbcb21389	-0.02173783
75	0xbe986f47	-0.29772398
76	0x3e168563	0.1469932
77	0x3d8f6979	0.07002539
78	0x3e8680b2	0.26270062
79	0x3f02a052	0.5102588
80	0xbe7f7df5	-0.24950393
81	0xbe34766a	-0.17623296
82	0xbea30e83	-0.3184701
83	0xbdb5a0c5	-0.08868555
84	0xbccfc2b6	-0.0253614
85	0x3f34e174	0.70656514
86	0x3e2ca05d	0.16858049
87	0xbdb996c0	-0.090619564
88	0x3e0c8225	0.13721521
89	0x3d45b086	0.04826405
90	0xbe6ec954	-0.23318988
91	0x3a305a94	0.00067273644
92	0xbeb622c0	-0.35573387
93	0xbc4389b3	-0.0119346855
94	0x3da7a5e2	0.081859365
95	0xbdadb247	-0.08481269
96	0xbe4a91cc	-0.1978218
97	0xbe5172ad	-0.20453902
98	0xbcbab410	-0.022790939
99	0x3f27af62	0.6550199
100	0xbf3dcb1a	-0.74138033
101	0xbd88d2f3	-0.0668086
102	0xbe9f2d48	-0.31089234
103	0x3ecf9cc5	0.40549293
104	0xbd6e5ee9	-0.058195982
105	0x3e5f9b3a	0.21836558
106	0xbb3996af	-0.0028318574
107	0x3deff041	0.11715747
108	0x3d95171d	0.07279799
109	0x3d7a0f38	0.06104967
110	0xbf08b372	-0.5339881
111	0xbed0edc4	-0.408064
112	0xbe839e1f	-0.25706574
113	0x3ea71264	0.32631218
114	0x3e917309	0.28408077
115	0xbb21fdfc	-0.0024718037
116	0x3e7bdb71	0.24595429
117	0xbece5c8a	-0.40304977
118	0xbeb3464c	-0.3501457
119	0x3d566114	0.052338675
120	0xbed603c8	-0.4179976
121	0x3ccd8c37	0.025091274
122	0x3f0d075e	0.55089366
123	0xbf015fa3	-0.50536555
124	0xbddf2a94	-0.10896793
125	0xbebe0d4a	-0.37119514
126	0xbea75c4c	-0.32687604
127	0xbe233bb3	-0.15940742
128	0x3e4e96da	0.20174733
129	0x3d5c02ca	0.053713597
130	0xbecb245f	-0.39676186
131	0xbef8fad0	-0.48628855
132	0xbb9395a9	-0.004503925
133	0x3e9a65e6	0.30155867
134	0x3e907205	0.2821199
135	0x3e0886bc	0.13332647
136	0x3e40c345	0.1882449
137	0x3ec84350	0.39113855
138	0xbbf13d56	-0.007362048
139	0x3e82f2e1	0.25575927
140	0xbe1ef557	-0.15523277
141	0xbef9eca3	-0.48813352
142	0xbd44c4df	-0.048039313
143	0x3dd0875d	0.101820685
144	0x3d747d49	0.059689794
145	0xbddb6e5b	-0.10714408
146	0x3d4695be	0.04848265
147	0x3d90585c	0.07048103
148	0x3e4611d1	0.19342734
149	0xbcc93257	-0.024560137
150	0x3e2d7005	0.16937263
151	0x3d479755	0.048728306
152	0xbeb8193c	-0.35956752
153	0x3da994af	0.08280312
154	0x3ed17fa2	0.4091769
155	0x3ea77cd4	0.32712424
156	0x3e48d741	0.19613363
157	0x3eb99d8d	0.36253014
158	0xbd856ccf	-0.06514894
159	0xbe96c704	-0.29448712
160	0xbe875a06	-0.2643587
161	0xbd10810e	-0.035279326
162	0x3c09f214	0.008419532
163	0xbe60a15d	-0.21936555
164	0xbdd05f9a	-0.101744846
165	0xbe89d32d	-0.26918927
166	0x3e336c28	0.17521727
167	0xbe31c5b7	-0.17360578
168	0xbe7609ac	-0.24027127
169	0x3e35980a	0.1773378
170	0x3e52c8fa	0.20584479
171	0xbe55f757	-0.20895134
172	0xbeaf933f	-0.34292027
173	0xbe81f261	-0.25380233
174	0x3e448a24	0.19193321
175	0xbd72a1bf	-0.059236284
176	0xbe2cb7dc	-0.16867012
177	0xbe2de3c7	-0.16981421
178	0xbe8931a1	-0.26795676
179	0x3c823505	0.015894422
180	0xbe8488af	-0.2588553
181	0x3dd80cf9	0.10549349
182	0xbf09c431	-0.5381499
183	0x3daf37ac	0.085555404
184	0x3c96a576	0.018389445
185	0x3dc93984	0.09825423
186	0x3ecb6548	0.3972571
187	0xbd94c291	-0.07263673
188	0x3e829464	0.25503838
189	0x3d907cd9	0.07055063
190	0xbefff6b9	-0.49992922
191	0x3e63af77	0.22234903

bias f4 [6]
0	0x3c369278	0.011143319
1	0x3d340099	0.043945882
2	0xbd2b8d84	-0.041883007
3	0x3cc194ed	0.023630584
4	0x3dfaed08	0.122522414
5	0xbeb2472b	-0.34819922

weight f4 [6]
0	0x4021a1bf	2.5254972
1	0x401566a9	2.3343909
2	0x40229911	2.5405924
3	0x3fdff1b7	1.749564
4	0x401b90f6	2.4307227
5	0x400e47e7	2.2231386

bias f4 [6]
0	0x3ecac849	0.3960593
1	0xbeb1e03f	-0.347414
2	0x3e858452	0.26077515
3	0xbf4d77e4	-0.80261064
4	0xbed5c127	-0.41748926
5	0x3e0b024c	0.13575095

weight f4 [10, 6]
0	0xbf422dfb	-0.7585141
1	0xbd94e2c3	-0.07269814
2	0x3ebc9ca4	0.36838257
3	0xbe39cf4a	-0.18145481
4	0x3fbba0a0	1.4658394
5	0xbef1984d	-0.4718651
6	0x3e58aa90	0.21158814
7	0xbd1c01a3	-0.0380875
8	0x3f7c1358	0.98467016
9	0xbe8da4d2	-0.2766481
10	0xbfa3bde3	-1.2792324
11	0x3e000adb	0.12504141
12	0xbe180ad3	-0.14847879
13	0xbf520342	-0.8203622
14	0x3fa1cd67	1.2640809
15	0x3df8edd5	0.12154738
16	0x3e4e468b	0.20144098
17	0xbec562c2	-0.3855191
18	0x3f82b6ee	1.0212076
19	0xbef49a48	-0.47773957
20	0xbe90bf41	-0.28270915
21	0x3df222fa	0.118230775
22	0xbf3f49b7	-0.74721855
23	0x3ef152a0	0.4713335
24	0xbf503d8e	-0.81343925
25	0x3f934476	1.1505268
26	0x3d0b59fc	0.034021363
27	0xbe8ca5ff	-0.27470395
28	0xbf045a87	-0.51700634
29	0x3f3a46eb	0.7276446
30	0xbeab83d4	-0.33499014
31	0xbf4e6123	-0.8061697
32	0xbf51d10d	-0.8195961
33	0x3ea29010	0.31750536
34	0xbf0f0572	-0.55867684
35	0x3ef81e10	0.48460436
36	0xbfc325bf	-1.5245894
37	0xbf0d0607	-0.5508732
38	0x3fc64e43	1.5492634
39	0x3eea01e2	0.4570456
40	0xbbf8c213	-0.007591495
41	0x3f6bf951	0.921773
42	0x3f3bbac0	0.7333183
43	0x3f54ecc0	0.8317375
44	0x3e57f1cf	0.21088336
45	0xbf87f4c3	-1.062157
46	0x3eb404dc	0.35159957
47	0xbd7644d6	-0.06012424
48	0xbce66423	-0.02812392
49	0x3e751534	0.2393387
50	0x3d7c4410	0.061588347
51	0x3f62b665	0.8855956
52	0xbde3392d	-0.1109489
53	0xbf99ae57	-1.2006329
54	0x3efadcf4	0.489967
55	0x3f7f35cb	0.99691457
56	0xbf71060e	-0.94149864
57	0x3b115632	0.002217662
58	0xbe3be6cc	-0.18349761
59	0xbcaeb816	-0.021328013

bias f4 [10]
0	0xbf12fde8	-0.5741868
1	0x3f0cb228	0.54959345
2	0x3f136775	0.5757974
3	0xbd22e8ba	-0.039772727
4	0x3e84c9f7	0.25935337
5	0x3ebeb9a9	0.37251022
6	0xbeebfeb5	-0.46092764
7	0x3f35023d	0.7070654
8	0xbe66e5a9	-0.22548546
9	0xbf052150	-0.52003956
