Case_Study_1/trained_transformer/verification_64/vit_24_2_6_12.pt (torch, 47560 bytes, 30 tensors)

pos_embedding f4 [1, 17, 24]
0	0x3e8ad339	0.27114275
1	0xbed237ed	-0.41058293
2	0xbf577c23	-0.8417379
3	0x3fb89e4c	1.4423308
4	0x3dfd2577	0.123606615
5	0x3ee72883	0.45148095
6	0x3f353ad6	0.707929
7	0xbfd286c4	-1.6447377
8	0xbe27c0bb	-0.16382115
9	0xbf8324ce	-1.0245607
10	0x3fe8bd24	1.8182721
11	0x3ee2bda4	0.4428531
12	0xbf58ac8c	-0.84638286
13	0x3f78446e	0.96979415
14	0x3fc0cc88	1.5062418
15	0x3e1213ba	0.14265338
16	0xbd9706eb	-0.073743664
17	0x3f15085b	0.58215874
18	0xbf76878b	-0.9630057
19	0xbfd13b86	-1.634629
20	0x3f3f7ee4	0.74802995
21	0x3f4a51f9	0.7903133
22	0xbf14d1b4	-0.5813248
23	0xbf6aad48	-0.91670656
24	0xbf8aab6c	-1.0833564
25	0xbc2a8d58	-0.010409676
26	0x3f9eb5e2	1.2399256
27	0x3d9c2ffe	0.07626341
28	0x3e7517cb	0.23934858
29	0x3eb41ec1	0.35179713
30	0xbf6960b8	-0.91163206
31	0x3fc18fdb	1.5122026
32	0x37f475a0	2.914184e-05
33	0xbef96aa0	-0.4871416
34	0x3f21dd58	0.6322837
35	0x3d1a7a96	0.037714563
36	0x3e3b8725	0.18313272
37	0x3f2bde84	0.67136407
38	0x4037612e	2.8653064
39	0x3f0c3bbd	0.54778653
40	0x3d9b178f	0.07572853
41	0xbfffdb42	-1.9988787
42	0x3f585dd7	0.8451819
43	0x3dc0735f	0.09397005
44	0xbf9a14bb	-1.2037576
45	0xbeb7008a	-0.357426
46	0x3f400c79	0.7501903
47	0xbf6b73ec	-0.9197376
48	0x3c9f5e59	0.019454168
49	0x3f563dce	0.83688056
50	0x3e66d969	0.22543873
51	0x3f081ef4	0.5317223
52	0x3dce50f5	0.10074035
53	0xbf0212da	-0.50810015
54	0xbef85a8b	-0.4850658
55	0xbeb9a9db	-0.36262402
56	0x3c101634	0.008794356
57	0x3f3b773f	0.7322883
58	0x3ef8550a	0.4850238
59	0xbf514ef7	-0.81761116
60	0xbf146b08	-0.57975817
61	0xc0014141	-2.0196078
62	0x3fa44e2c	1.2836356
63	0x3f908371	1.1290113
64	0xbfce5026	-1.6118209
65	0xbf8586e1	-1.0431787
66	0xbe5366fd	-0.20644756
67	0xbd848fbe	-0.06472729
68	0x3d735473	0.05940671
69	0x3c0c80d8	0.008575641
70	0x3e80063a	0.2500475
71	0x3ef8abc1	0.48568538
72	0x3fcf8d0e	1.6214921
73	0xbf1c6f0c	-0.61106944
74	0x3eb5ccdc	0.35507858
75	0xbfc3c28b	-1.5293745
76	0x3f871ffb	1.0556635
77	0x3d6d5776	0.057944737
78	0x3e921734	0.28533328
79	0x3e0b9f48	0.1363498
80	0xbef2dbd5	-0.47433344
81	0xbfc839c4	-1.5642629
82	0x3ee86e8e	0.45396847
83	0x3e8adae3	0.27120122
84	0xbf4f681e	-0.81018245
85	0x3fdcaa68	1.7239504
86	0x3e5e0cec	0.21684617
87	0xbe2deaec	-0.16984147
88	0xbf35f438	-0.71075773
89	0xbf56d5ec	-0.8392017
90	0xbf672875	-0.9029611
91	0x3e61fd2b	0.22069232
92	0x3f996bf3	1.1986068
93	0xbe6cda0b	-0.23130052
94	0xbf5828ef	-0.8443746
95	0x3ebecc69	0.37265328
96	0xbf34b6f2	-0.7059165
97	0x400957f5	2.1459935
98	0xbece33e3	-0.4027396
99	0x3f6cbc3e	0.92474735
100	0x3db71cfa	0.08941074
101	0xbfb1bc8a	-1.3885663
102	0xbee2768b	-0.44231066
103	0x3e85b031	0.26110986
104	0x3f839c34	1.0282044
105	0xbf2aaeb9	-0.66672856
106	0x3f9ae682	1.2101595
107	0xbe2d436a	-0.16920248
108	0xbfaa7182	-1.331589
109	0x3e2e837e	0.17042348
110	0xc028ebd7	-2.6393945
111	0x3ecacc31	0.3960891
112	0x3e3936f6	0.18087372
113	0xbec05059	-0.375613
114	0x3f3d7356	0.74004114
115	0xbec03727	-0.37542078
116	0xbf0947e2	-0.5362531
117	0x3dfe62bd	0.124211766
118	0x3ea84083	0.3286172
119	0xc0010997	-2.0162103
120	0x400c68f9	2.193907
121	0x3f3de7cc	0.7418182
122	0xbdcaca10	-0.099018216
123	0x4001016e	2.0157123
124	0xbf3ec103	-0.7451326
125	0xbe940771	-0.28911927
126	0xbfad7937	-1.3552617
127	0x3ec15a79	0.37764338
128	0xbf254593	-0.64559287
129	0x402ad85c	2.6694555
130	0xbefd3c44	-0.49460042
131	0x3f8e3715	1.111056
132	0xbfa79845	-1.3093344
133	0xbf19dafb	-0.6009976
134	0xbf86ef8f	-1.0541857
135	0xbd629e36	-0.055326663
136	0x3facdb35	1.3504397
137	0x3fadb2f3	1.3570236
138	0x3f7a32bc	0.97733665
139	0xbf3aadca	-0.7292143
140	0x3f8b4478	1.088027
141	0x3fbd9e1f	1.481388
142	0x400cdedf	2.201103
143	0xbedc8c0a	-0.4307559
144	0x3ceb9283	0.028756386
145	0x3ea9455c	0.3306073
146	0x3e1202e6	0.14258918
147	0x3fdb1ea3	1.7118725
148	0x3e8eff39	0.27929094
149	0xbf0b4e8c	-0.5441673
150	0x3fce2bae	1.610708
151	0xbfe5e617	-1.7960843
152	0xbf131456	-0.57452905
153	0xbd968f0d	-0.073515035
154	0xbe90080d	-0.28131142
155	0xbfd64098	-1.6738462
156	0x3f5118f3	0.81678694
157	0xbe626636	-0.22109303
158	0xbfa0a781	-1.2551118
159	0xbf0f4b15	-0.5597394
160	0xbf1ff50f	-0.62483305
161	0xbf6ef226	-0.9333824
162	0xbe384307	-0.17994319
163	0x3f81da95	1.0144831
164	0xbf67adfc	-0.90499854
165	0xbfb1cdc0	-1.3890915
166	0xbf80cecc	-1.0063109
167	0xbf3b989f	-0.73279756
168	0xbfa259a6	-1.2683609
169	0xbd61b549	-0.055104528
170	0xbe58e91b	-0.21182673
171	0xbe299072	-0.16559008
172	0x401b3448	2.425066
173	0x3f2ce90a	0.6754309
174	0xbef0d3e4	-0.4703666
175	0xbfaeba35	-1.3650576
176	0x3f4015a7	0.7503304
177	0x3ec0eea7	0.37682077
178	0x3c9b83ee	0.018983807
179	0xbf81a4e8	-1.012845
180	0xc024fa62	-2.5777822
181	0xbf0230c5	-0.50855666
182	0x3e0912dd	0.13386102
183	0x3ee12a50	0.43977594
184	0x3fb6c4ac	1.427877
185	0xbeb67fb0	-0.35644293
186	0xbf906de4	-1.1283536
187	0x3f3a3d1a	0.72749484
188	0x3def044e	0.11670743
189	0xbf5a4a0f	-0.85269254
190	0xbdfe612b	-0.12420877
191	0xbfbdf0a9	-1.4839069
192	0xbf4595dd	-0.771818
193	0xbef18983	-0.47175226
194	0x3ebed57d	0.37272254
195	0x3eb80b37	0.35946056
196	0xbdfa52e0	-0.122228384
197	0xbee6c15f	-0.45069405
198	0xbe9b133e	-0.30288118
199	0xbe1adadd	-0.15122552
200	0x3ee1745b	0.44034085
201	0x3d5fe6cb	0.05466346
202	0xbf75b133	-0.9597351
203	0xbf157f84	-0.583977
204	0x3e63da8d	0.2225134
205	0xbefc0d49	-0.49228886
206	0xbf1ef32d	-0.62089807
207	0x3c7311f3	0.014835822
208	0xbfccef26	-1.6010482
209	0x3fbd2c46	1.4779136
210	0xbfa0e65a	-1.2570298
211	0xbed3b258	-0.41347003
212	0x3d9f6860	0.0778358
213	0xbe3fb211	-0.1872027
214	0x3f1ba456	0.6079763
215	0xbfb4df1f	-1.4130591
216	0x3ebb95e7	0.36637804
217	0xbe1222b9	-0.14271058
218	0x3ec7bcbb	0.39011177
219	0x3e4d6f7f	0.20062064
220	0xbf4d930c	-0.803025
221	0xbe2515b9	-0.16121568
222	0xbe633e05	-0.22191627
223	0x3fadea1f	1.3587073
224	0xbd02c9d4	-0.03193076
225	0x3f65175c	0.8948877
226	0x3e3a81a7	0.18213521
227	0xbdc579d6	-0.09642379
228	0xbf8e2933	-1.1106323
229	0xbf3bbcce	-0.7333497
230	0xbe972f36	-0.29528207
231	0x3ed050c4	0.4068662
232	0xbf353f5a	-0.7079979
233	0xbed48c75	-0.4151341
234	0xbf5c0c0b	-0.85955876
235	0x3e868486	0.26272982
236	0x3f21f74e	0.6326798
237	0x3ff6b29a	1.9273255
238	0x3ebf8c2c	0.3741163
239	0x3f61be87	0.88181347
240	0xbf0aa78d	-0.5416191
241	0x3fa34611	1.2755758
242	0x3f4e04d2	0.80476105
243	0xbe191c61	-0.14952232
244	0x40272a8e	2.6119723
245	0x3ee2978e	0.44256252
246	0xbf767048	-0.9626508
247	0xbe9cf951	-0.30658963
248	0x3f859682	1.0436556
249	0x3cd5dadf	0.026105342
250	0x3f63eea9	0.8903604
251	0xbf38db33	-0.7220947
252	0x3fec7fa1	1.8476449
253	0x3dceff41	0.101072796
254	0xc0104b05	-2.2545788
255	0xbefd9489	-0.49527386

cls_token f4 [1, 1, 24]
0	0xc0008365	-2.0080197
1	0xbf94d5a6	-1.16277
2	0x3f5160e1	0.8178845
3	0xbeab9f79	-0.33520105
4	0x3fd404d2	1.6563971
5	0x3f5837eb	0.84460324
6	0x3f139d46	0.57661855
7	0xbe30655c	-0.17226166
8	0xbe8a82df	-0.27052972
9	0x3f4353e6	0.76299894
10	0xc00b4f59	-2.176718
11	0x3f6bec0f	0.9215707
12	0x3ebc5411	0.36782888
13	0x3fc83bc8	1.5643244
14	0x3e6bfc73	0.2304552
15	0xbf060fe2	-0.52367985
16	0x3f08c8a1	0.53431135
17	0x3f37ea40	0.7184181
18	0x3d6f4f12	0.058425017
19	0x3fb1cc19	1.3890411
20	0x3ec9a0d3	0.39380512
21	0x3e59e1ac	0.21277493
22	0x3ddf491f	0.109026186
23	0xbfac1476	-1.3443744

weight f4 [24, 4]
0	0xbf027694	-0.50962186
1	0xbf1a4228	-0.60257196
2	0x3f86a8ed	1.0520302
3	0x3faf1b42	1.3680193
4	0x3f9b19d7	1.2117261
5	0x3f7fb52e	0.99885833
6	0xbe56ff64	-0.20995861
7	0xbf99a0c1	-1.2002183
8	0x3fa32afc	1.2747493
9	0x3f83767e	1.0270536
10	0xbf9abcfd	-1.2088925
11	0xbe1dee66	-0.15422973
12	0x3da02e94	0.07821384
13	0xbf5545fc	-0.8330991
14	0x3e88214a	0.26587898
15	0xbf95e585	-1.1710669
16	0xbec29446	-0.3800375
17	0xbf7bcb60	-0.983572
18	0xbeb45fec	-0.35229433
19	0xbf62ef9e	-0.88646877
20	0xbf8a1fa2	-1.0790904
21	0x3f3bacf3	0.73310775
22	0x3f3bbc94	0.7333462
23	0xbfb3250a	-1.3995678
24	0xbf807dc1	-1.0038377
25	0x3f3862cd	0.7202576
26	0xbf834218	-1.0254545
27	0x3f910f9b	1.1332887
28	0x3f95a185	1.1689917
29	0xbf48ca4e	-0.7843369
30	0xbf0979d1	-0.537015
31	0xbf150d91	-0.58223826
32	0xbf94ad36	-1.161536
33	0x3fa8779d	1.3161503
34	0xbf54d0e6	-0.83131254
35	0x3f5984fb	0.8496854
36	0xbf7a8552	-0.9785968
37	0x3e4cdfc0	0.20007229
38	0x3ef3d4ec	0.47623384
39	0x3f0c018d	0.54689866
40	0x3e9a1cf1	0.30100206
41	0x3e42c70d	0.19021244
42	0x3f89c6d6	1.0763805
43	0x3f7305e6	0.94930875
44	0xbeb0c065	-0.34521785
45	0xbe52c8f0	-0.20584464
46	0x3f64815b	0.8925988
47	0x3e8657bb	0.26238808
48	0x3df9e890	0.12202561
49	0xbf7f9ee4	-0.9985182
50	0xbfa5fc6d	-1.2967659
51	0xbf04648e	-0.51715934
52	0x3f414258	0.7549186
53	0x3f6646cf	0.89951795
54	0x3da64ee5	0.08120517
55	0x3f300550	0.68758106
56	0x3e6d1d40	0.23155689
57	0xbea34ec6	-0.31896037
58	0xbf009ad8	-0.5023627
59	0x3f4f10ba	0.808849
60	0xbf3ead76	-0.7448343
61	0xbe19541d	-0.14973493
62	0xbfb0152e	-1.3756464
63	0x3e83987c	0.25702274
64	0xbfba1980	-1.4539032
65	0x3f261be2	0.64886296
66	0xbf8eff47	-1.1171654
67	0x3ddfb307	0.10922819
68	0x3f83d700	1.0299988
69	0x3f647b37	0.8925051
70	0x3efd7daa	0.49509937
71	0x3f6beb52	0.92155945
72	0x3f131361	0.57451445
73	0x3f1f0fde	0.62133586
74	0x3fc0b607	1.505555
75	0x3d556684	0.05209972
76	0xbde9b319	-0.11411113
77	0xbfb4c264	-1.4121823
78	0x3f3f30d0	0.74683857
79	0x3e8d456d	0.2759203
80	0x3ef95183	0.48695
81	0xbfb2c266	-1.3965576
82	0xbcb6c81b	-0.022312215
83	0x3e82969d	0.25505534
84	0xbf36f541	-0.7146798
85	0x3fc171ce	1.5112855
86	0xbe624d5f	-0.22099827
87	0xbf9ad93e	-1.2097547
88	0x3be38c65	0.0069442266
89	0xbf2985dd	-0.66219884
90	0xbf7df104	-0.99195886
91	0x3fb5e83b	1.4211496
92	0xbe1c6575	-0.15273078
93	0x3ed10680	0.40825272
94	0x3e9b650c	0.3035053
95	0x3ec19d86	0.37815493

bias f4 [24]
0	0xbd93e606	-0.07221608
1	0x3e02dbed	0.12779208
2	0xbea7528a	-0.3268016
3	0xbde93096	-0.1138622
4	0xbe3206d7	-0.17385422
5	0x3ead9469	0.3390229
6	0x3deaecd3	0.11470952
7	0xbd84609f	-0.064637415
8	0xbe05c3ee	-0.13063022
9	0xbdba3a67	-0.090931706
10	0xbee25ddc	-0.44212234
11	0xbe7bcf61	-0.24590828
12	0x3e7ee7f9	0.24893178
13	0x3ccb9ea2	0.024855915
14	0xbea58e69	-0.32335213
15	0x3df42cce	0.11922608
16	0x3d7a5367	0.061114695
17	0x3e524002	0.2053223
18	0x3ea0ce4a	0.31407386
19	0x3d5c45b9	0.05377743
20	0x3dec18b5	0.1152815
21	0x3ede8ea4	0.434682
22	0x3ec66608	0.3874972
23	0xbde5062e	-0.11182819

weight f4 [24]
0	0x3f6ca401	0.9243775
1	0x3f7c216d	0.98488504
2	0x3fb018cd	1.3757569
3	0x3f6f79c1	0.93545157
4	0x3f89db65	1.0770079
5	0x3f960c91	1.1722585
6	0x3f652987	0.8951649
7	0x3f573986	0.8407215
8	0x3f905c70	1.127821
9	0x3f700309	0.9375463
10	0x3f87e2b1	1.0616056
11	0x3f300061	0.6875058
12	0x3f8c4ab8	1.0960302
13	0x3f51392d	0.8172787
14	0x3f12660f	0.5718698
15	0x3f657025	0.89624244
16	0x3f955825	1.1667525
17	0x3f7b2dab	0.9811656
18	0x3f9c2318	1.219821
19	0x3f7a73b8	0.9783282
20	0x3f73ed38	0.9528384
21	0x3f53a462	0.82672703
22	0x3f37e7c1	0.71838003
23	0x3f40c911	0.75306803

bias f4 [24]
0	0xbe2c64ae	-0.16835281
1	0xbdf66d0a	-0.12032516
2	0x3d38b5e0	0.045095325
3	0x3dfa26ee	0.122144565
4	0xbc9e2b37	-0.019307716
5	0xbe492d50	-0.19646192
6	0xbc518a54	-0.012789328
7	0x3ca1aa6a	0.01973458
8	0x3d727d48	0.05920151
9	0x3ad4ec3e	0.0016244722
10	0x3c6a53b8	0.014302187
11	0x3e19a052	0.15002564
12	0x3dbcd5d1	0.0922047
13	0xbd1ed50f	-0.038777407
14	0x3de65035	0.11245767
15	0x3d36139c	0.044452295
16	0x3e61d95c	0.22055572
17	0xbe1e8871	-0.15481736
18	0xbd3eaa02	-0.04654885
19	0xbea87ac3	-0.3290616
20	0xbdd8692d	-0.10566936
21	0xbd315a58	-0.04329905
22	0xbe351951	-0.17685439
23	0x3d46dcf5	0.048550565

weight f4 [72, 24]
0	0x3ea80558	0.32816577
1	0x3ec42dc4	0.38316166
2	0xbdac02cb	-0.0839897
3	0xbd863fe1	-0.06555153
4	0xbe45223a	-0.19251338
5	0xbee3b119	-0.44471052
6	0xbdc62662	-0.0967529
7	0xba9aae3d	-0.0011801195
8	0x3e187654	0.14888889
9	0xbd70ca4a	-0.058786668
10	0xbd6205bd	-0.055181254
11	0x3e9b93e9	0.30386284
12	0xbe82b203	-0.25526437
13	0x3d767da1	0.060178403
14	0xbda0a48e	-0.07843886
15	0xbdfac55a	-0.12244673
16	0xbe23b5ec	-0.15987366
17	0x3e6b7310	0.22993112
18	0x3f1b2acd	0.60612184
19	0x3c247a4a	0.010038922
20	0xbe2f101e	-0.17095992
21	0x3d8cf435	0.06882516
22	0xbe76102e	-0.2402961
23	0x3e29742e	0.16548225
24	0x3e438813	0.19094877
25	0x3b57f589	0.0032952747
26	0xbcad4db4	-0.021155216
27	0x3cbb4b28	0.022862986
28	0xbd15238f	-0.036410864
29	0xbf03dae5	-0.5150588
30	0xbd844f88	-0.06460482
31	0x3df408c6	0.11915736
32	0x3f0555b1	0.5208388
33	0xbd0d2b95	-0.03446539
34	0xb5f06800	-1.7911661e-06
35	0xbe603f4b	-0.21899144
36	0x3e06403c	0.13110441
37	0xbef76453	-0.4831873
38	0x3e1f37c1	0.15548612
39	0x3e493ad3	0.19651346
40	0xbe952f8d	-0.2913784
41	0x3d0d07a0	0.0344311
42	0xbd13c04d	-0.036072064
43	0x3e12be72	0.14330462
44	0x3c3a1be1	0.011359186
45	0xbcb2bea1	-0.021819415
46	0x3f0dce7a	0.55393183
47	0xbd8fdcfa	-0.0702457
48	0x3cc1e3d8	0.023668215
49	0xbdd30e44	-0.10305455
50	0x3eea2795	0.45733324
51	0xbe99bbde	-0.30026144
52	0xbee4e646	-0.44706935
53	0xbded2bfa	-0.115806535
54	0x3eb8dd3a	0.36106282
55	0xbd893443	-0.06699421
56	0x3edf6975	0.43635145
57	0x3c5e4d5b	0.013568248
58	0xbe82b032	-0.2552505
59	0xbf0bacbe	-0.5456046
60	0x3f17b436	0.59259355
61	0xbe1cff1a	-0.15331689
62	0xbe1cd844	-0.15316874
63	0x3e973f8d	0.29540673
64	0x3dd16685	0.10224632
65	0xbdbdaba1	-0.09261251
66	0xbd69b333	-0.057055663
67	0xbd770f49	-0.06031731
68	0xbe8f596f	-0.2799792
69	0xbe64c7b5	-0.22341807
70	0x3efd5e2d	0.49485913
71	0x3c80683f	0.015674708
72	0x3e17c019	0.14819373
73	0xbea1835f	-0.3154554
74	0x3c724fab	0.014789502
75	0xbe8e1281	-0.27748492
76	0x3dc4c4a6	0.0960782
77	0xbf2265f9	-0.6343685
78	0x3e5b491a	0.21414605
79	0x3e3d5592	0.18489674
80	0xbd6bdd3b	-0.05758403
81	0xbd148022	-0.03625501
82	0x3ed08663	0.4072753
83	0xbe5f8e14	-0.21831542
84	0x3ef8160b	0.48454317
85	0xbe5a11aa	-0.21295801
86	0x3e1cd312	0.15314892
87	0x3df0f777	0.1176595
88	0x3e88b52a	0.26700717
89	0xbed96d00	-0.42465973
90	0xbe751d44	-0.23936945
91	0x3e8fa73a	0.2805727
92	0x3e628697	0.22121654
93	0xbf29daed	-0.6634968
94	0x3ed721fb	0.42018113
95	0xbc2484d4	-0.010041434
96	0x3ea648fa	0.32477552
97	0x3d9d34d1	0.076760896
98	0x3e329c2f	0.17442392
99	0xbe664ea8	-0.22490942
100	0x3e9e8f57	0.30968735
101	0xbe4bbaa2	-0.19895414
102	0x3d6eafd1	0.05827314
103	0xbe5f1a0a	-0.21787277
104	0x3e51b890	0.20480561
105	0xbf408866	-0.7520813
106	0xbe8c9a6a	-0.2746156
107	0xbe48c02d	-0.19604559
108	0xbd56f276	-0.052477323
109	0xbe95cc42	-0.292574
110	0xba8c1c05	-0.0010689503
111	0x3e7979de	0.24362895
112	0xbe8d819a	-0.2763794
113	0x3e10c093	0.14135961
114	0x3e5e1f34	0.2169159
115	0xbd87d0e1	-0.06631637
116	0xbef6df5f	-0.48217294
117	0x3e296da2	0.16545728
118	0x3ea64780	0.32476425
119	0xbe94fd62	-0.29099566
120	0x3cedfe14	0.029051818
121	0x3e02ea56	0.12784705
122	0xbec50e0f	-0.38487288
123	0xbe314635	-0.17311938
124	0x3ee2ccaf	0.44296786
125	0xbdfe953a	-0.124308065
126	0x3e8789de	0.26472372
127	0xbddabaaf	-0.10680138
128	0x3eca597c	0.39521396
129	0xbe7f3059	-0.24920787
130	0xbe0be56d	-0.13661738
131	0x3e176d22	0.14787725
132	0xbe95a037	-0.29223797
133	0x3d2fda2b	0.04293267
134	0x3dc7d01d	0.09756491
135	0x3ea3d53c	0.31998622
136	0x3efd02a1	0.49416068
137	0xbea6fada	-0.3261326
138	0xbe79cd98	-0.24394834
139	0xbe8deb35	-0.2771851
140	0xbe6e3335	-0.23261721
141	0x3e78bcbd	0.24290748
142	0x3d119d44	0.03555037
143	0xbd2b83aa	-0.04187361
144	0xbcb391d4	-0.021920122
145	0xbe375230	-0.17902446
146	0xbde41c78	-0.111382425
147	0x3ea110a6	0.31458014
148	0xbc8c46db	-0.01712363
149	0xbdaa505e	-0.0831611
150	0xbca4ef53	-0.02013365
151	0xbdf49a56	-0.119435
152	0xbe0cd504	-0.13753134
153	0xbc305272	-0.010761844
154	0x3cc525c0	0.024065852
155	0xbe274a0c	-0.1633684
156	0x3e4f54d1	0.20247199
157	0xbe6debe3	-0.23234515
158	0x3d68dde0	0.05685222
159	0xbe0c83d6	-0.13722166
160	0x3e9a7263	0.30165395
161	0xbd8cb01c	-0.06869528
162	0x3d77e56f	0.06052154
163	0x3e7def97	0.24798428
164	0x3b828019	0.0039825556
165	0xbe85064d	-0.2598137
166	0x3ada32a8	0.0016647177
167	0xbcb81ffe	-0.022476193
168	0xbdedcf12	-0.11611761
169	0xbe68d4cf	-0.2273743
170	0xbdf861d7	-0.121280365
171	0x3e525ddf	0.20543621
172	0x3dc615a4	0.09672096
173	0x3e40872d	0.18801565
174	0x3ca391c5	0.01996697
175	0x3d398a65	0.045298
176	0xbe24fc3c	-0.16111845
177	0xbdbfbaf9	-0.09361834
178	0xbe333d72	-0.17503908
179	0x3e6fe44f	0.23426937
180	0xbdc2f19e	-0.09518741
181	0xbe92f076	-0.28699082
182	0x3dd86c8d	0.105675794
183	0x3d651f0c	0.05593781
184	0x3ef5877b	0.47954926
185	0xbec6bdc8	-0.38816667
186	0xbefd67b0	-0.4949317
187	0xbe614bd1	-0.22001578
188	0x3eb9d0a2	0.36291987
189	0x3e8f4d95	0.27988878
190	0xbdaf85d9	-0.08570451
191	0x3e111218	0.14167058
192	0xbe14081f	-0.14456223
193	0x3e8eeb35	0.27913824
194	0x3d9ae7ae	0.07563721
195	0x3d77c306	0.060488723
196	0x3f19ab77	0.6002726
197	0x3e21be86	0.15795335
198	0x3cc38374	0.023866393
199	0x3e22bc21	0.15892078
200	0x3bd758ee	0.0065718805
201	0xbe4a46a7	-0.19753514
202	0xbe7c1666	-0.2461792
203	0x3e833f9b	0.25634465
204	0x3e2fee3a	0.1718072
205	0xbe33c0f1	-0.1755407
206	0x3debcbfb	0.115135156
207	0x3db2c3fd	0.08728788
208	0x3cbf56d9	0.023356842
209	0xbe0dcf83	-0.1384869
210	0xbee0ef7b	-0.4393271
211	0xbe58ee07	-0.2118455
212	0xbad1c098	-0.0016002832
213	0x3e85e42a	0.26150638
214	0x3e2c9b22	0.16856053
215	0xbcd6091d	-0.026127392
216	0x3e02ae82	0.12761882
217	0x3e4e2928	0.20132887
218	0x3e868a58	0.26277423
219	0xbd921e28	-0.07134658
220	0xbd297c36	-0.041378222
221	0xbe3c157d	-0.18367572
222	0x3df60c22	0.12014033
223	0x3e1c8cb9	0.15288056
224	0x3dd24e78	0.10268873
225	0xbe395dd2	-0.18102196
226	0xbd54cad7	-0.051951256
227	0xbae2e8c8	-0.0017311806
228	0xbe98d306	-0.29848498
229	0x3d54badd	0.05193602
230	0x3e153be2	0.14573625
231	0x3e77ff11	0.24218394
232	0xbea7fa42	-0.3280812
233	0x3d9dbc45	0.07701925
234	0x3ea0d07d	0.31409064
235	0xbeb857e2	-0.3600455
236	0x3d9fb2bf	0.07797765
237	0x3df07869	0.117417164
238	0x3db1d133	0.0868248
239	0xbd131e32	-0.03591747
240	0x3ddfb08a	0.10922344
241	0xbf0e68db	-0.55628747
242	0xbed33381	-0.41250232
243	0xbee1a144	-0.44068348
244	0x3e8c36e3	0.27385625
245	0xbe3f4fef	-0.18682836
246	0xbdbcb675	-0.092144884
247	0xbe34a803	-0.17642216
248	0xbbe32693	-0.0069320886
249	0xbd9d0589	-0.07667071
250	0xbd5d93d1	-0.054096047
251	0x3e2d3831	0.16915967
252	0xbdcfa2c9	-0.10138471
253	0x3e50d1c5	0.2039252
254	0xbd00bd0e	-0.031430297
255	0x3e29b47c	0.16572756

weight f4 [24, 24]
0	0x3eda1bb6	0.42599267
1	0x3dc9b1bf	0.098483555
2	0x3ddccbe0	0.107810736
3	0xbd885c44	-0.06658223
4	0x3e8ba882	0.27277
5	0xbea37ce4	-0.3193122
6	0xbe68c39b	-0.22730868
7	0x3e590cc2	0.21196273
8	0x3e774ef3	0.2415121
9	0xbd090ae9	-0.03345767
10	0x3e5be871	0.21475388
11	0xbe091735	-0.13387759
12	0xbe0281a4	-0.12744766
13	0xbe18925e	-0.14899585
14	0xbde8354d	-0.11338291
15	0xbd35775d	-0.044303287
16	0xbd83a63d	-0.06428192
17	0xbda910e1	-0.082551725
18	0x3e24714d	0.16058846
19	0xbca89330	-0.020577997
20	0xbe4d4225	-0.20044763
21	0x3e2f7257	0.17133461
22	0xbe6ad1c4	-0.22931582
23	0xbd1bc10c	-0.0380259
24	0xbdaeb9db	-0.08531543
25	0xbf042053	-0.5161182
26	0x3d4e329a	0.050341226
27	0x3e3cdff7	0.18444811
28	0x3c8ac240	0.016938329
29	0xbe0bcd1a	-0.13652459
30	0xbec0c8ed	-0.37653294
31	0x3ee21c41	0.4416218
32	0x3d938815	0.0720369
33	0xbed37ce4	-0.4130622
34	0xbdd2ee11	-0.10299314
35	0x3e742414	0.23841888
36	0x3e02ea8c	0.12784785
37	0x3e04c837	0.12967001
38	0x3e5570f6	0.20843872
39	0x3e4b428c	0.19849604
40	0xbe0a2844	-0.13491923
41	0xbd910879	-0.07081694
42	0xbdf3df64	-0.11907843
43	0xbcbb4b72	-0.022863124
44	0xbd86c80b	-0.06581124
45	0xbf290a45	-0.66031295
46	0x3e890751	0.26763394
47	0x3ec70f35	0.3887879
48	0x3e23070d	0.15920658
49	0x3c422653	0.0118499575
50	0xbe652ee1	-0.22381164
51	0x3e3aff7f	0.18261527
52	0xbd501ec5	-0.050810594
53	0x3dc3180e	0.095260724
54	0xbdf58bab	-0.1198953
55	0x3d000e20	0.03126347
56	0xbe3c36d4	-0.1838029
57	0xbcf14e96	-0.029456418
58	0xbe0c7d90	-0.13719773
59	0xbde9f55a	-0.1142375
60	0xbb6bfc91	-0.0036008696
61	0xbd96baba	-0.07359834
62	0x3cec3561	0.028834047
63	0xbe18a890	-0.14908051
64	0x3e283841	0.16427709
65	0x3e3764ba	0.17909518
66	0xbe6b6480	-0.22987556
67	0xbe48139b	-0.19538729
68	0x3e3b422d	0.18286963
69	0xbe4d7b1d	-0.20066495
70	0xbd5b8824	-0.05359663
71	0xbe590508	-0.21193326
72	0x3e22784a	0.15866199
73	0xbd2cea3a	-0.042215563
74	0xbe7c30b1	-0.2462795
75	0xbf2bf306	-0.671677
76	0x3d5fccb4	0.05463858
77	0x3ea44c1a	0.3208931
78	0x3e7af030	0.24505687
79	0xbeb43272	-0.35194737
80	0xbe8fb403	-0.28067026
81	0xbd4289b6	-0.047494613
82	0x3d132a53	0.035929035
83	0xbd08b556	-0.03337606
84	0x3e142360	0.1446662
85	0xbe330f3a	-0.17486277
86	0xbd6688af	-0.056282695
87	0xbe2e4380	-0.17017937
88	0xbe5c2a91	-0.21500613
89	0x3dedcb2c	0.116110176
90	0xbebf116e	-0.37317985
91	0x3cf4d600	0.0298872
92	0xbed8ddac	-0.42356622
93	0xbdc11630	-0.0942806
94	0xbd1b756d	-0.037953783
95	0x3d0a5a53	0.033777546
96	0x3d9144c1	0.07093192
97	0x3e0d7941	0.13815786
98	0x3d336118	0.043793768
99	0x3dbbb92b	0.09166177
100	0x3ea34a77	0.3189275
101	0xbd575656	-0.05257257
102	0x3e51cf26	0.20489177
103	0xbe665084	-0.22491652
104	0x3e983682	0.29729086
105	0x3e0f93f5	0.14021285
106	0x3dfbbb84	0.12291625
107	0x3e647d8a	0.22313514
108	0xbe4cb1ce	-0.19989702
109	0xbe3272f2	-0.1742666
110	0xbe5696de	-0.20955989
111	0xbd8bd3dc	-0.06827518
112	0x3dcb0e23	0.09914806
113	0x3f046a06	0.5172428
114	0xbe16c85c	-0.14724869
115	0xbe40bd60	-0.18822241
116	0xbeb4363c	-0.35197628
117	0xbe262a2c	-0.16227025
118	0xbf2d437e	-0.6768111
119	0x3e069d43	0.13145928
120	0x3e83a7ef	0.2571406
121	0xbdd29760	-0.10282779
122	0xbd8d19cc	-0.06889686
123	0x3ea12ce8	0.31479573
124	0xbebb403c	-0.36572444
125	0x3d1d9100	0.03846836
126	0xbd8cc012	-0.06872572
127	0xbe815bc3	-0.2526532
128	0xbe544edc	-0.20733207
129	0x3e62b808	0.22140515
130	0x3eb9d836	0.36297768
131	0x3df23f6d	0.11828504
132	0xbe8c890a	-0.27448303
133	0xbda37144	-0.07980588
134	0x3e69690f	0.22793983
135	0xbe05b38a	-0.1305677
136	0x3d99c5ec	0.07508454
137	0xbeddf4d7	-0.4335086
138	0x3c8289da	0.015934873
139	0xbf0331fe	-0.5124816
140	0xbe269c88	-0.1627065
141	0xbe8e0269	-0.27736214
142	0xbd1ff694	-0.039053515
143	0xbe75df78	-0.24011028
144	0xbd27db4e	-0.04098063
145	0x3d0868d1	0.033303086
146	0x3e01ab41	0.12662984
147	0x3e842c29	0.25814942
148	0x3cda7457	0.026666803
149	0x3db3827f	0.087651245
150	0x3df128c1	0.11775351
151	0x3e362306	0.17786798
152	0x3edf3d9b	0.4360169
153	0x3e2ad5ab	0.1668307
154	0x3ec1f290	0.37880373
155	0xbd65e58f	-0.056127127
156	0x3df490fd	0.11941717
157	0x3e066c98	0.13127363
158	0x3d9ba736	0.07600252
159	0xbcbc717c	-0.023003332
160	0xbcb7e7cb	-0.022449395
161	0xbe98cf98	-0.2984588
162	0x3d6eb34b	0.058276456
163	0x3e75a63d	0.23989196
164	0x3e3e3e5d	0.18578477
165	0xbe503d29	-0.20335831
166	0xbea8bbea	-0.32955867
167	0xbe03aa32	-0.12857893
168	0x3eddf044	0.4334737
169	0x3e040959	0.12894191
170	0xbcb4cdca	-0.022070784
171	0xbef7d08c	-0.48401296
172	0xbe3363e3	-0.17518573
173	0x3e2680c1	0.16260053
174	0x3d74ab14	0.059733465
175	0x3e3c29af	0.18375276
176	0xbe8b5f6f	-0.27221248
177	0xbde15f87	-0.110045485
178	0xbdb374d4	-0.087625176
179	0xbcee03fc	-0.029054634
180	0x3ed1eadb	0.40999493
181	0x3ea166f6	0.31523865
182	0x3f173ce0	0.5907726
183	0x3ef86302	0.48513037
184	0x3dc20fac	0.094756454
185	0x3ddffa7b	0.10936447
186	0x3ebe9c56	0.3722865
187	0x3c8a7026	0.01689918
188	0x3e4a1f04	0.19738394
189	0x3dcf5cfa	0.10125156
190	0xbd51ebc8	-0.05125025
191	0xbdc2a817	-0.09504717
192	0x3e000294	0.12500983
193	0x3b845512	0.0040384615
194	0xbd5fc2a4	-0.054628983
195	0xbe9b6910	-0.30353594
196	0xbef72f9f	-0.4827852
197	0xbdad36da	-0.08457728
198	0xbe2e5892	-0.17025974
199	0xbe59bba8	-0.21262991
200	0xbe87e100	-0.2653885
201	0xbe86e5bb	-0.26347145
202	0xbf0bd6d2	-0.54624665
203	0x3f0377b8	0.5135455
204	0x3dcc42ea	0.099737
205	0x3d865c43	0.06560566
206	0xbe3d3842	-0.18478492
207	0x3d1d98ec	0.038475916
208	0xbe230eba	-0.15923586
209	0xbe271801	-0.1631775
210	0x3e292f98	0.16522062
211	0xbe1ab716	-0.15108904
212	0xbde9c8fc	-0.11415288
213	0x3dceceb4	0.10098019
214	0x3dbd83ef	0.0925368
215	0xbefb226c	-0.490497
216	0x3da4b1d2	0.08041729
217	0x3df91875	0.12162868
218	0xbe270573	-0.16310672
219	0x3d8835b2	0.066508666
220	0xbe0d65a5	-0.13808306
221	0xbd9f5d14	-0.07781425
222	0x3dac2c37	0.08406871
223	0x3e24600a	0.16052261
224	0x3db40946	0.08790831
225	0x3e56b8eb	0.20968978
226	0xbd257c21	-0.04040158
227	0xbe79529e	-0.24347922
228	0xbdc21037	-0.09475749
229	0xbe47a58b	-0.19496743
230	0x3dd92427	0.10602599
231	0xbdfb07c8	-0.122573435
232	0x3ca587ec	0.020206414
233	0xbdef7e5f	-0.11694025
234	0xbe61e6f4	-0.22060758
235	0xbd08148e	-0.033222727
236	0xbe5c5e61	-0.21520378
237	0x3e769920	0.2408185
238	0x3f05b97d	0.5223616
239	0x3e826298	0.25465846
240	0x3c51a2f2	0.012795197
241	0xbe751f29	-0.23937668
242	0x3dde06a7	0.108411126
243	0xbc9e62de	-0.019334253
244	0x3b99e40a	0.004696374
245	0x3cf2cc68	0.029638484
246	0xbe810a86	-0.2520334
247	0xbe9e8897	-0.30963585
248	0x3e3c1cc5	0.1837035
249	0x3e7e0194	0.2480529
250	0x3ac571df	0.0015063843
251	0x3dcd3f70	0.10021865
252	0x3d83aea7	0.06429797
253	0x3e80e08c	0.25171316
254	0x3e608da1	0.21929027
255	0x3d3b805a	0.045776702

bias f4 [24]
0	0x3dba3e40	0.090939045
1	0xbdce4eb8	-0.10073608
2	0x3c24e9b6	0.010065487
3	0x3db82c9e	0.08992885
4	0xbe7d1876	-0.24716362
5	0x3dde5de1	0.1085775
6	0x3e03fa5c	0.12888473
7	0xbd0f1ec4	-0.03494145
8	0xbc96c8db	-0.018406322
9	0x3d2ac159	0.041688297
10	0x3e082f3f	0.13299273
11	0xbcb7a532	-0.022417638
12	0x3bd40763	0.006470607
13	0x3e22e372	0.15907076
14	0x3e50c2be	0.20386788
15	0x3e5c0cfc	0.21489328
16	0x3e2531ba	0.1613225
17	0xbd58be3f	-0.052915808
18	0xbc95637d	-0.018235916
19	0xbdcbea01	-0.09956742
20	0xbdb592b9	-0.08865876
21	0x3e1be59a	0.15224305
22	0x3e5a799a	0.2133545
23	0x3ebe2e58	0.37144732

weight f4 [24]
0	0x3f8534cd	1.0406739
1	0x3f7fa1fd	0.9985655
2	0x3fc5e5b1	1.5460721
3	0x3f603dd1	0.87594324
4	0x3f4f790c	0.8104408
5	0x3f83594f	1.026163
6	0x3f609c8c	0.8773887
7	0x3f59f681	0.8514176
8	0x3fa4c05d	1.2871205
9	0x3f90b746	1.1305931
10	0x3f8d3943	1.10331
11	0x3f42d82d	0.7611111
12	0x3f8f4e62	1.1195796
13	0x3f6e06c5	0.9297908
14	0x3f2bdfea	0.6713854
15	0x3f1ecaae	0.62028015
16	0x3f9116f9	1.1335136
17	0x3f80cc5f	1.0062369
18	0x3f776c28	0.9664941
19	0x3f7b29e2	0.98110783
20	0x3f74f5ee	0.9568776
21	0x3f706f7a	0.939201
22	0x3f6a4e45	0.9152568
23	0x3f34a188	0.7055898

bias f4 [24]
0	0x3ce76c30	0.02824983
1	0xbd7ef782	-0.06224776
2	0xbd54e4eb	-0.051976126
3	0xbd334a84	-0.043772236
4	0x3c9da6a3	0.019244498
5	0x3d2cf39c	0.04222451
6	0xbcf1208e	-0.029434469
7	0x3d7dcae5	0.061961073
8	0x3da860f9	0.08221621
9	0xb79237c0	-1.7430517e-05
10	0x3d178b73	0.036998224
11	0x3dc3fd18	0.09569758
12	0x3ddfabea	0.10921462
13	0xbdbd76d5	-0.09251181
14	0x3d7738eb	0.060357016
15	0x3e058610	0.13039422
16	0xbcda5480	-0.02665162
17	0x3d5d9cab	0.05410449
18	0x3d239630	0.03993815
19	0xbdf47d6c	-0.11937985
20	0x3d845eb4	0.06463376
21	0x3d05d4bb	0.03267358
22	0x3b95591e	0.0045577427
23	0x3e3b2c71	0.18278672

weight f4 [12, 24]
0	0xbe0f12f0	-0.13972068
1	0x3d20af3d	0.03922962
2	0x3edf0659	0.4355953
3	0x3e7b6e33	0.24553756
4	0x3d16d05d	0.036819804
5	0x3dd4383f	0.103622906
6	0xbe17bbf6	-0.14817795
7	0x3ead3b4b	0.338343
8	0xbe49c0a4	-0.19702393
9	0xbddc465e	-0.10755609
10	0xbe6c77d9	-0.23092593
11	0xbc94d0b2	-0.01816592
12	0xbda7bb3d	-0.0819001
13	0x3d3f3085	0.04667713
14	0xbc37343f	-0.01118189
15	0x3e0fa9d4	0.14029628
16	0xbe114f76	-0.14190468
17	0xbe2c83da	-0.16847172
18	0xbe2740b5	-0.16333278
19	0x39c9dbc0	0.00038501434
20	0x3e9ac727	0.30230066
21	0x3dbb2016	0.09136979
22	0xbe35d1f0	-0.17755866
23	0xbdc3a289	-0.095524855
24	0x3e9977c8	0.29974198
25	0xbdf3b8df	-0.11900496
26	0x3e91a011	0.28442433
27	0xbcc865fd	-0.024462694
28	0xbe3634e3	-0.17793612
29	0xbe5440f4	-0.20727903
30	0x3e9baa6c	0.3040346
31	0xbdf04e88	-0.11733729
32	0x3f2a3c9e	0.66498744
33	0x3ea28934	0.31745303
34	0x3dbd3d3b	0.092401944
35	0xbdf806f4	-0.12110701
36	0xbe8f5dbb	-0.28001198
37	0xbea468ef	-0.32111308
38	0xbd0c3305	-0.034228344
39	0x3eebc888	0.4605143
40	0xbd0d4221	-0.034486894
41	0xbee791bc	-0.45228374
42	0x3dbcce69	0.09219057
43	0xbe1ff579	-0.15620984
44	0xbda203a9	-0.07910854
45	0xbe00c0f6	-0.12573609
46	0x3dd0378a	0.10166843
47	0x3e564797	0.20925747
48	0xbccb3d35	-0.02480946
49	0x3d5c27ae	0.05374878
50	0x3e3ad7ea	0.18246427
51	0xbe84fd7b	-0.2597464
52	0x3dd4dfc9	0.10394246
53	0xbe8abb27	-0.2709591
54	0x3e2c1d20	0.16807985
55	0xbea05e05	-0.3132173
56	0x3ec5b47c	0.3861426
57	0xbe6ec86a	-0.2331864
58	0xbf04cac7	-0.51871914
59	0x3cb190cd	0.021675492
60	0xbbe82498	-0.0070844404
61	0x3de57068	0.112030804
62	0x3d976f5f	0.07394289
63	0x3da30a7c	0.07960984
64	0x3f38b3bf	0.7214927
65	0x3d0d3882	0.03447772
66	0xbcb20a04	-0.021733291
67	0xbebbe796	-0.36700124
68	0xbdaf79d6	-0.0856816
69	0xbe70b95d	-0.2350821
70	0x3e497b5d	0.19675966
71	0x3d877b62	0.0661533
72	0xbe4a8dd8	-0.19780672
73	0xbdfc339b	-0.123145305
74	0xbda82a0e	-0.08211146
75	0x3d7505cf	0.059819993
76	0x3e4c4e00	0.1995163
77	0x3dca6a3c	0.09883544
78	0xbd91d8bf	-0.07121419
79	0x3dccd4bb	0.100015126
80	0x3e4c09fe	0.19925687
81	0x3e7419af	0.23837923
82	0xbeadb96a	-0.33930522
83	0xbd2af3e8	-0.041736513
84	0x3d6d58d2	0.057946034
85	0xbee495b0	-0.44645452
86	0x3d73dd07	0.05953696
87	0xbd130d92	-0.035901614
88	0xbd3c7b55	-0.046016056
89	0xbea816f5	-0.32830015
90	0xbe3f85c9	-0.18703379
91	0x3ddf163f	0.10892915
92	0x3e5c8a7b	0.21537201
93	0xbe34c424	-0.17652947
94	0xbdf96f4e	-0.12179433
95	0xbd623cee	-0.05523389
96	0x3e912ddf	0.2835531
97	0x3e44bd95	0.19212945
98	0x3d8221e5	0.06354121
99	0xbe47d288	-0.19513905
100	0xbe627b9c	-0.22117466
101	0xbeb2271e	-0.3479547
102	0xbe768224	-0.24073082
103	0x3dfbfcbd	0.123040654
104	0xbde420cb	-0.11139067
105	0x3cd9511c	0.026527934
106	0x3dd935c6	0.106059596
107	0x3da93c3d	0.08263443
108	0xbeb2fa4c	-0.34956586
109	0x3e61202f	0.21984933
110	0x3df1d882	0.11808874
111	0x3dd19916	0.10234277
112	0xbdaf2001	-0.08551026
113	0x3e451e13	0.19249754
114	0xbc457c5c	-0.012053575
115	0xbdc541f5	-0.09631721
116	0xbcd61bef	-0.026136367
117	0xbe86a9df	-0.26301476
118	0x3dd91c5a	0.10601111
119	0x3e2b172b	0.16708057
120	0x3eb2834b	0.34865794
121	0x3c8df9c0	0.017331004
122	0xbe8d41fe	-0.2758941
123	0xbd1aefa9	-0.037826214
124	0x3dbe9fc6	0.09307818
125	0x3d90289f	0.07038998
126	0x3de0cbbe	0.10976361
127	0x3ddf77b0	0.109115005
128	0xbed43002	-0.41442877
129	0xbdaa9eda	-0.0833108
130	0x3d0cfea3	0.034422528
131	0x3ea9e3ea	0.33181697
132	0xbe7b97ab	-0.24569575
133	0xbe62041e	-0.22071883
134	0x3e9f0b1a	0.31063157
135	0xbcd1d551	-0.025614413
136	0xbe886dac	-0.26646173
137	0xbe9e66ef	-0.30937907
138	0x3d849eca	0.06475599
139	0x3e55b1b8	0.20868576
140	0x3e3c478b	0.18386666
141	0xbe8aa46e	-0.27078575
142	0xbd93408a	-0.07190044
143	0xbe5a4f2f	-0.21319269
144	0xbed1a46e	-0.40945762
145	0x3ef82652	0.48466736
146	0x3f5cde7d	0.8627699
147	0x3ca4a81f	0.020099698
148	0x3e082ba1	0.13297893
149	0x3e7bff1d	0.24609037
150	0x3e8b49e0	0.272048
151	0x3cac9630	0.021067709
152	0xbe12431d	-0.14283414
153	0xbebc5561	-0.3678389
154	0x3e2e2a47	0.17008315
155	0xbdccb13e	-0.09994744
156	0x3db4c401	0.08826447
157	0x3d80c9ab	0.06288465
158	0x3d98fe06	0.07470326
159	0x3dbb4363	0.09143712
160	0x3e120fc1	0.14263822
161	0xbe0d3a8b	-0.13791864
162	0x3e7ea084	0.2486592
163	0xbe688bb2	-0.2270954
164	0xbe4bf592	-0.19917896
165	0x3dad6d23	0.08468082
166	0xbeb59036	-0.35461587
167	0xbd925d1f	-0.07146668
168	0xbde3844d	-0.11109219
169	0x3e80e3dc	0.25173843
170	0x3e9f145f	0.3107023
171	0xbe0b97c6	-0.13632116
172	0x3d847777	0.064680986
173	0x3d83a131	0.06427229
174	0xbe702067	-0.2344986
175	0x3ecb7f82	0.39745718
176	0xbea24d4e	-0.31699604
177	0xbe97d0ee	-0.29651588
178	0x3e0d937f	0.13825797
179	0x3de40662	0.1113403
180	0xbf170caa	-0.590037
181	0xbdadb11d	-0.08481047
182	0xbdb2890d	-0.087175466
183	0xbdb2974c	-0.08720264
184	0xbe2ffc10	-0.17185998
185	0x3cb565e5	0.022143314
186	0x3ebf2ce8	0.37338948
187	0x3e8a8af9	0.27059153
188	0xbebf08f0	-0.37311506
189	0x3e5b7a51	0.21433379
190	0xbe473fb2	-0.19457892
191	0x3e6344f5	0.22194274
192	0x3e2ed8c0	0.17074871
193	0xbe3557f0	-0.17709327
194	0xbea639f4	-0.3246609
195	0xbea9bb3b	-0.33150658
196	0xbe08189d	-0.13290639
197	0xbee31ac8	-0.4435637
198	0x3dbeaa84	0.09309867
199	0x3e5e3ad2	0.21702126
200	0x3eb14598	0.34623408
201	0xbda8aa55	-0.08235613
202	0xbe049a47	-0.12949477
203	0x3da47054	0.080292374
204	0xbe94ea30	-0.2908492
205	0xbe440030	-0.19140697
206	0xbe2e810d	-0.17041416
207	0x3e0ebcc8	0.13939202
208	0x3f2e94aa	0.68195593
209	0xbee62c22	-0.44955546
210	0xbeca5041	-0.39514354
211	0x3e9d0b58	0.30672717
212	0xbe6f9750	-0.23397565
213	0x3e99b749	0.30022648
214	0xbdbe7168	-0.09298974
215	0x3de4f477	0.111794405
216	0xbe2f48ed	-0.17117663
217	0x3eadf74b	0.33977732
218	0x3ebfc65c	0.37456024
219	0xbd8bde92	-0.06829561
220	0x3d6a197d	0.057153214
221	0xbeb4ce46	-0.35313624
222	0x3e764884	0.240511
223	0xbe21bd13	-0.15794782
224	0x3e693630	0.22774577
225	0xbf1c51d5	-0.61062366
226	0xbd5ab528	-0.05339542
227	0xbe2f21c4	-0.17102724
228	0x3d950bc3	0.07277634
229	0x3e9a1a9b	0.30098423
230	0xbe0baa01	-0.1363907
231	0x3e97c337	0.29641125
232	0x3db5977c	0.08866784
233	0xbd2b185d	-0.04177128
234	0xbe9deff0	-0.3084712
235	0xbe6f2ecc	-0.23357695
236	0xbe4b5f8b	-0.19860666
237	0x3e4afdf0	0.19823432
238	0xbe9bdbf9	-0.30441263
239	0x3ba3a056	0.004993479
240	0xbdb61ac7	-0.08891826
241	0xbc862a54	-0.016377605
242	0xbee095b9	-0.4386423
243	0xbef204ce	-0.4726929
244	0xbe969e99	-0.29417875
245	0xbe969602	-0.29411322
246	0xbe1ff844	-0.1562205
247	0x3df0f97d	0.11766336
248	0x3eb3a68d	0.35088006
249	0x3e008690	0.12551332
250	0x3ea87c5b	0.32907376
251	0x3d6f7f42	0.058470972
252	0xbe51130f	-0.20417427
253	0x3db7dd66	0.08977775
254	0x3ddcb468	0.10776597
255	0xbe168a01	-0.14701082

bias f4 [12]
0	0xbd86f44a	-0.06589563
1	0xbdb32150	-0.08746588
2	0xbe7865eb	-0.24257629
3	0xbcf2f929	-0.029659824
4	0x3d04bc81	0.032406334
5	0x3d36a2a7	0.04458871
6	0xbe9d7ecc	-0.307608
7	0xbea745f2	-0.32670552
8	0xbebb1141	-0.365366
9	0xbde83e0e	-0.11339961
10	0xbeae89d3	-0.34089527
11	0xbdb24764	-0.08705023

weight f4 [24, 12]
0	0xbe1cbde2	-0.1530681
1	0xbd8c5d53	-0.06853738
2	0xbdcedee4	-0.10101107
3	0x3e39e18a	0.18152443
4	0x3ea03fe3	0.31298742
5	0x3e2bcf76	0.16778359
6	0x3f106051	0.5639697
7	0x3de7eb96	0.11324231
8	0xbe7a2bcb	-0.24430768
9	0x3d87ac8d	0.06624708
10	0xbe01613b	-0.12634747
11	0xbeaeab25	-0.34114948
12	0x3d7a025e	0.061037414
13	0xbee14da4	-0.44004548
14	0xbd8a68d2	-0.06758274
15	0xbec9b668	-0.39396977
16	0x3e1db5ff	0.15401457
17	0x3e950493	0.29105052
18	0x3f04536c	0.5168979
19	0xbf45d4b1	-0.77277666
20	0xbe3df2f7	-0.18549715
21	0x3e044648	0.12917435
22	0x3d1871af	0.037217792
23	0xbee52923	-0.44757947
24	0xbc8e0bd6	-0.017339628
25	0xbe86abbd	-0.263029
26	0xbe1e53cb	-0.15461652
27	0x3e19ff99	0.15038909
28	0xbdb7a20c	-0.08966455
29	0x3cebc7f9	0.028781878
30	0xbbb19938	-0.0054198764
31	0x3d79e5da	0.06101022
32	0x3f2136d9	0.62974316
33	0x3e9e59ef	0.3092799
34	0xbe5043ba	-0.20338336
35	0x3e4d0256	0.20020422
36	0x3d89e754	0.067335755
37	0xbe050133	-0.12988739
38	0xbdb4c87c	-0.08827302
39	0x3e3b6c11	0.18302943
40	0xbd7d0760	-0.06177461
41	0xbec658c8	-0.3873961
42	0x3e08b9b8	0.13352096
43	0x3ded5539	0.115885206
44	0xbdd773a8	-0.105201066
45	0x3d9991b5	0.074984945
46	0xbcd4708b	-0.02593257
47	0x3eaceaa4	0.33772767
48	0x3e077611	0.13228633
49	0xbe8867ba	-0.26641637
50	0xbe5042ef	-0.20338033
51	0x3e818b5e	0.2530164
52	0xbe736f60	-0.23772955
53	0x3dddeaa8	0.10835773
54	0x3e8e372c	0.27776468
55	0xbe27da20	-0.16391802
56	0x3ea6da35	0.32588354
57	0x3e9de8c7	0.30841658
58	0xbe123c97	-0.14280926
59	0x3d9b1955	0.07573191
60	0xbdedc3bb	-0.11609598
61	0x3e44d646	0.19222364
62	0x3d23962f	0.039938148
63	0x3d5c5776	0.053794347
64	0x3d7fe58b	0.06247477
65	0xbeeac85e	-0.45855993
66	0x3e88d4b7	0.2672479
67	0xbdc02059	-0.0938117
68	0x3ee44dca	0.44590598
69	0xbd92c3b4	-0.07166234
70	0x3e6fc095	0.23413308
71	0xbec6eaf6	-0.38851136
72	0xbe0ca3c5	-0.13734348
73	0x3b6258ac	0.0034537716
74	0x3ecc68c8	0.39923692
75	0xbdc2b785	-0.0950766
76	0x3e6db152	0.23212174
77	0xbe9f57d2	-0.3112169
78	0x3db95326	0.090490624
79	0xbd37eaf7	-0.044901814
80	0x3db28b49	0.08717973
81	0x3db02af7	0.08601945
82	0x3e4f63bd	0.20252891
83	0x3ebea1d9	0.37232855
84	0x3df2d35d	0.118567206
85	0x3e67b765	0.22628553
86	0xbe3be5fb	-0.1834945
87	0x3df294d3	0.11844792
88	0x3e90e786	0.28301638
89	0x3e457241	0.19281866
90	0x3d0135a7	0.031545307
91	0xbe13593c	-0.14389509
92	0xbf0cb601	-0.54965216
93	0x3f119a02	0.5687562
94	0xbeefa367	-0.46804354
95	0x3f14873d	0.5801886
96	0x3e55a21d	0.20862623
97	0x3e8d85bc	0.27641094
98	0xbdff2e6d	-0.12460027
99	0x3d5288f5	0.051400144
100	0x3c9866f2	0.018603776
101	0xbc3909c5	-0.011293833
102	0x3dbae0d8	0.09124917
103	0x3f08d07b	0.53443116
104	0x3d330eb3	0.04371519
105	0xbdf06d08	-0.11739546
106	0x3e1ee55a	0.15517178
107	0x3e5d12d7	0.21589218
108	0xbd635466	-0.05550041
109	0xbd5ef4db	-0.05443273
110	0x3dc41bf7	0.09575646
111	0xbea0e0bc	-0.3142146
112	0xbe901d96	-0.28147572
113	0xbe5ede3b	-0.21764462
114	0x3cb3820a	0.021912593
115	0x3e6b871e	0.23000762
116	0x3e4c2998	0.19937742
117	0x3f046204	0.5171206
118	0x3e8075ad	0.2508978
119	0xbeec645c	-0.46170318
120	0x3c9afc91	0.018919261
121	0x3ef90a70	0.48640776
122	0x3e9cca88	0.3062327
123	0xbe1defb7	-0.15423475
124	0xbed98867	-0.4248688
125	0x3e84ecb7	0.2596185
126	0xbe17cf2b	-0.14825122
127	0xbea0b472	-0.3138767
128	0xbe9010e4	-0.28137887
129	0x3d9cf923	0.076647066
130	0x3c872043	0.016494876
131	0x3e987177	0.29774067
132	0xbeec1350	-0.46108484
133	0x3eade1f7	0.3396146
134	0xbe1558a4	-0.14584595
135	0x3dec4358	0.11536282
136	0x3d89ffff	0.067382805
137	0x3f050c33	0.5197174
138	0x3e7b993d	0.24570175
139	0xbdd27609	-0.1027642
140	0xbeb4fe2b	-0.35350165
141	0xbdc2b91d	-0.09507964
142	0x3e923c1b	0.28561482
143	0xbdf3416a	-0.11877711
144	0xbd73fdb1	-0.05956811
145	0xbdbe3e85	-0.092892684
146	0x3e9f52f4	0.31117976
147	0xbb961837	-0.0045805234
148	0x3b575977	0.0032859722
149	0xbe291ea2	-0.16515592
150	0x3eac72ca	0.33681327
151	0xbece6605	-0.4031221
152	0x3b8a364d	0.004217899
153	0x3de2d33a	0.110754445
154	0xbe6b4d5d	-0.2297873
155	0xbe2a9777	-0.16659342
156	0x3b5569f4	0.0032564374
157	0x3e762175	0.240362
158	0x3ea62946	0.32453364
159	0x3daa1ce2	0.0830629
160	0xbe0d7ee1	-0.13817932
161	0xbda1bf6e	-0.078978404
162	0xbf3ec987	-0.74526256
163	0x3eb03d60	0.34421825
164	0xbcf6021e	-0.030030306
165	0xbe4628d9	-0.1935152
166	0xbf14e727	-0.5816521
167	0x3d9f0dda	0.07766314
168	0xbead4833	-0.33844146
169	0xbd4fac93	-0.05070169
170	0xbee14ba2	-0.44003016
171	0x3db4ceb3	0.08828487
172	0xbe0dfe90	-0.13866639
173	0x3db6e12f	0.08929669
174	0xbeba0860	-0.36334515
175	0x3e240afb	0.16019814
176	0xbedf9308	-0.43666863
177	0x3e6169fb	0.22013085
178	0xbe855d41	-0.2604771
179	0xbeebc4f2	-0.46048695
180	0x3eb8223d	0.35963622
181	0xbe37b745	-0.17941006
182	0xbeeb8f80	-0.4600792
183	0x3efadec1	0.48998073
184	0xbcabeb0c	-0.020986103
185	0xbe3ddc36	-0.18541035
186	0x3e504d94	0.20342094
187	0x3e410e10	0.1885302
188	0xbf053bfa	-0.5204464
189	0xbe1db424	-0.1540075
190	0x3ec9f103	0.3944169
191	0xbb5f1636	-0.0034040338
192	0xbdb1560f	-0.086589925
193	0x3d6b2dc5	0.057416696
194	0xbe882159	-0.26587942
195	0x3e926ad0	0.28597116
196	0xbc68208d	-0.014167917
197	0xbd65b665	-0.056082148
198	0x3e36d897	0.1785606
199	0xbe339bef	-0.17539953
200	0x3e3e7850	0.18600583
201	0x3df201aa	0.11816724
202	0xbca002a2	-0.019532505
203	0xbd94aedb	-0.072599135
204	0x3e50ee87	0.20403491
205	0x3ed6bdc3	0.41941652
206	0xbb336cbd	-0.0027378045
207	0xbe9d2eee	-0.30699867
208	0x3e96e162	0.29468828
209	0xbea3d56f	-0.31998774
210	0x3e4c7faf	0.19970582
211	0xbdc694a5	-0.096963204
212	0xbbb6f7eb	-0.0055837533
213	0x3ea84f35	0.3287293
214	0xbce77e5a	-0.028258491
215	0x3d243763	0.040091883
216	0x3ec6a888	0.38800454
217	0xbe4efcc1	-0.20213605
218	0x3e0e9379	0.13923444
219	0xbea34010	-0.31884813
220	0xbe409132	-0.18805388
221	0xbe93e5c5	-0.28886238
222	0xbe9f23c2	-0.3108197
223	0x3e113b34	0.1418274
224	0x3eb91819	0.36151198
225	0xbee247b0	-0.44195318
226	0x3ede8221	0.43458655
227	0x3e47b2ab	0.1950175
228	0xbdbb759c	-0.091532916
229	0xbcf8a367	-0.030351354
230	0xbe10e36f	-0.14149259
231	0x3d949a28	0.072559655
232	0xbd22ca21	-0.039743546
233	0x3e72739a	0.23676911
234	0xbe3e94b0	-0.18611407
235	0xbe1f92e6	-0.15583381
236	0xbe874036	-0.26416177
237	0xbe01bf6e	-0.12670681
238	0xbedda2dc	-0.43288314
239	0x3cb31b91	0.02186373
240	0xbddbfd1b	-0.107416354
241	0x3e4d1105	0.20026024
242	0xbe89ec3a	-0.2693804
243	0xbd479a3b	-0.04873107
244	0xbdf471dc	-0.119357795
245	0x3e84f932	0.2597137
246	0x3e1242a4	0.14283234
247	0x3e3320d8	0.17492998
248	0xbf02cd54	-0.51094556
249	0xbd40ad5a	-0.04704032
250	0x3e9571c6	0.29188365
251	0xbeb8b987	-0.36079046
252	0xbe67728c	-0.2260229
253	0x3ee9c555	0.45658365
254	0xbe3715a7	-0.17879353
255	0x3cd07ac5	0.025449166

bias f4 [24]
0	0x3d0d6f8b	0.034530204
1	0x3d94cbd1	0.072654374
2	0xbe1cd716	-0.15316424
3	0x3e6800f5	0.22656615
4	0xbe12b03f	-0.14325045
5	0xbe0cc5bd	-0.13747306
6	0x3e3831ab	0.17987697
7	0xbe89e3bb	-0.26931557
8	0x3e6cbc6e	0.23118755
9	0x3e8e8b2f	0.27840564
10	0x3d0f71fe	0.03502082
11	0xbb0122f2	-0.0019704667
12	0xbe54a260	-0.20765066
13	0xbe56130f	-0.20905708
14	0x3e98c6e7	0.2983925
15	0x3e8fd1be	0.28089708
16	0x3e4cf388	0.20014775
17	0xbe222111	-0.15832926
18	0x3e094ce5	0.13408239
19	0xbdd4d168	-0.103915036
20	0x3e4ce5be	0.20009515
21	0x3e64040a	0.22267166
22	0xbea294d8	-0.31754184
23	0xbe132597	-0.14369808

weight f4 [24]
0	0x3f93203c	1.1494212
1	0x3f7b43d3	0.98150367
2	0x3f9edc21	1.2410928
3	0x3f794ff1	0.97387606
4	0x3f8bc047	1.0918053
5	0x3fba4f09	1.455537
6	0x3f8d215b	1.1025804
7	0x3f882e57	1.0639142
8	0x3f85cade	1.0452535
9	0x3f9209f0	1.1409283
10	0x3f830400	1.0235596
11	0x3f55f618	0.83578634
12	0x3f9161ae	1.1357934
13	0x3f8cc2a4	1.09969
14	0x3f407e99	0.7519317
15	0x3f64030c	0.8906715
16	0x3fad3879	1.3532859
17	0x3f541c85	0.8285602
18	0x3f85fe52	1.0468237
19	0x3f5428f3	0.82874984
20	0x3efe4e09	0.4966891
21	0x3f878093	1.0586113
22	0x3f72209e	0.9458102
23	0x3f5dbbe5	0.8661483

bias f4 [24]
0	0x3dc3c7d4	0.095595986
1	0xbe25a1ac	-0.16174954
2	0x3e29761a	0.16548958
3	0x3d9e4e07	0.07729726
4	0x3db8e9ee	0.090289935
5	0xbd0fbf71	-0.035094682
6	0xbc6163ba	-0.013756687
7	0x3df9238c	0.12164983
8	0xbe03e5fb	-0.128807
9	0xbe635335	-0.2219971
10	0xbe352c07	-0.17692576
11	0x3e8e14a2	0.27750117
12	0x3c5ea223	0.013588461
13	0xbe359761	-0.17733528
14	0x3e615dc4	0.22008425
15	0x3e48a2ba	0.19593325
16	0x3da970bc	0.082734555
17	0xbec456cd	-0.38347474
18	0xbcadc655	-0.021212736
19	0x3dc0c9bf	0.0941348
20	0x3ce82c52	0.028341446
21	0xbde71ddb	-0.11284991
22	0xbd820864	-0.06349257
23	0x3e0e8aa5	0.13920076

weight f4 [72, 24]
0	0xbe8db4d2	-0.27677017
1	0xbdf11120	-0.117708445
2	0xbc11e9e7	-0.008905864
3	0xbe2389b6	-0.15970501
4	0x3dce74c3	0.10080864
5	0xbe286a84	-0.16446882
6	0xbcb75ac6	-0.022382151
7	0xbca84a3a	-0.020543206
8	0xbe8f1d09	-0.2795184
9	0x3f2998bf	0.662487
10	0x3e713000	0.23553467
11	0xbd50d2f4	-0.05098243
12	0x3d7ce556	0.06174215
13	0xbe3772fc	-0.17914957
14	0x3e3c75a1	0.18404247
15	0xbed455ec	-0.41471803
16	0x3e2362c2	0.15955642
17	0x3de51734	0.11186066
18	0xbd44290c	-0.047890708
19	0xbdf2cc96	-0.11855428
20	0x3d84fdd9	0.0649373
21	0x3dc79d1f	0.09746765
22	0x3e6712bb	0.22565739
23	0xbe0fe58f	-0.14052413
24	0xbe30744a	-0.17231861
25	0xbe8243f3	-0.25442466
26	0x3e3a63f9	0.18202199
27	0x3dac8daf	0.084254615
28	0x3e8fd912	0.280953
29	0x3d64baa9	0.055842075
30	0x3e690157	0.22754417
31	0xbe000c8d	-0.12504788
32	0x3e0fbd7d	0.14037128
33	0xbf10ec6d	-0.5661076
34	0x3da6a93e	0.08137749
35	0x3e107b6c	0.14109582
36	0xbea1fd29	-0.31638458
37	0x3e97b2ad	0.29628506
38	0x3dcc7be7	0.0998457
39	0x3e25063e	0.16115662
40	0x3dd5601d	0.10418723
41	0x3e925d59	0.28586844
42	0xbdfe9a56	-0.12431781
43	0xbeae32f2	-0.34023243
44	0x3e82618d	0.2546505
45	0x3e9968b0	0.29962683
46	0xbe99f0cc	-0.30066526
47	0xbe3e087e	-0.18557927
48	0x3e7fc63b	0.24977963
49	0x3d03d015	0.032180864
50	0x3edeb4a0	0.4349718
51	0xbe0f51e4	-0.13996083
52	0x3e0c54b1	0.13704182
53	0x3e5b1d63	0.21397929
54	0xbcf2228e	-0.029557493
55	0x3d550980	0.052011013
56	0xbf340627	-0.7032189
57	0x3e92ef96	0.28698415
58	0xbe9937fe	-0.2992553
59	0x3e07483d	0.1321115
60	0xbed5ca25	-0.41755787
61	0xbe8091c3	-0.25111207
62	0xbed2a8d3	-0.41144428
63	0x3dccc9a6	0.09999399
64	0xbc8b9021	-0.0170365
65	0x3eae3dde	0.34031576
66	0xbf0cbb94	-0.5497372
67	0xbeb7b50c	-0.35880315
68	0xbe1965e7	-0.14980279
69	0x3d8188de	0.063249335
70	0x3f0bf863	0.54675883
71	0x3e7ed279	0.24884976
72	0xbdb8986e	-0.09013449
73	0xbd9839ee	-0.07432924
74	0xbe5efd98	-0.21776426
75	0x3ea1ae0f	0.3157811
76	0xbe65f9cc	-0.22458571
77	0xbdb3269a	-0.08747597
78	0xbe7a81a3	-0.24463515
79	0x3e716f34	0.23577577
80	0x3efe8b72	0.49715763
81	0xbe87d396	-0.26528615
82	0xbe554e89	-0.2083074
83	0xbe42b4a7	-0.19014226
84	0xbe401571	-0.18758179
85	0x3de39c63	0.11113813
86	0x3e18a2a0	0.14905787
87	0xbd56e65c	-0.05246578
88	0x3e0047c4	0.12527376
89	0xbeb7bbe3	-0.35885534
90	0x3f02ba8e	0.5106591
91	0x3dab351f	0.083597414
92	0x3e1d6415	0.1537021
93	0xbd8202bc	-0.06348178
94	0xbde39b61	-0.111136205
95	0xbe9e813d	-0.30957976
96	0x3e61f50c	0.22066134
97	0x3e6350db	0.22198813
98	0x3c2f5dd9	0.010703527
99	0xbe0ceadd	-0.13761468
100	0xbea1132b	-0.31459936
101	0xbec6168b	-0.38689074
102	0x3c7d7436	0.015469601
103	0x3e8b4351	0.27199796
104	0xbed110bd	-0.40833083
105	0x3ca1d345	0.019754061
106	0x3e3cdff8	0.18444812
107	0xbec923eb	-0.39285216
108	0xbe8ab9f0	-0.27094984
109	0xbeafd0b7	-0.34338924
110	0xbd7f8ffc	-0.062393174
111	0x3eebc45d	0.4604825
112	0xbedbc5aa	-0.42924243
113	0x3e695b35	0.22788699
114	0x3ea0bd7b	0.31394562
115	0x3ea18e9c	0.31554115
116	0xbd24da37	-0.04024717
117	0xbc6dd948	-0.014517136
118	0x3d000562	0.031255133
119	0x3d897c59	0.067131706
120	0x3e891d8e	0.2678036
121	0x3e31d5c9	0.17366709
122	0xbd5a1613	-0.053243708
123	0x3afcfa57	0.0019300681
124	0xbe99fd71	-0.30076173
125	0xbdb97f71	-0.09057511
126	0x3d142624	0.036169186
127	0x3e378b6e	0.17924282
128	0x3d47f21e	0.048814885
129	0x3e9df808	0.30853295
130	0x3d8d7677	0.06907361
131	0x3c9458a7	0.018108679
132	0x3e66959d	0.2251801
133	0xbe2ff718	-0.17184103
134	0x3d37b484	0.044849887
135	0xbdd58f1e	-0.10427688
136	0xbf1905b5	-0.59774333
137	0xbc7643eb	-0.015030841
138	0x3de7b8ff	0.11314582
139	0xbd1b271e	-0.037879102
140	0x3dd2908c	0.102814764
141	0xbe525404	-0.20539862
142	0x3eb2029b	0.34767613
143	0xbe05a5fc	-0.130516
144	0xbd286ddf	-0.041120406
145	0xbe2b0cd7	-0.16704117
146	0x3ec7a5b4	0.3899361
147	0x3d3f2fc2	0.046676405
148	0xbe05e8b1	-0.13077046
149	0xbdfe0dd1	-0.12404979
150	0x3d9e06f9	0.07716174
151	0x3d39657f	0.04526281
152	0x3d70557c	0.058675274
153	0x3e09f6f8	0.13473117
154	0xbe8da4ea	-0.27664882
155	0x3e24b462	0.16084436
156	0xbeeaf254	-0.45888007
157	0xbeec30c3	-0.46130952
158	0x3e7f78d5	0.24948438
159	0xbdef6561	-0.11689258
160	0xbe4aa5b9	-0.1978978
161	0x3cd25448	0.025674954
162	0x3e13b9c5	0.14426334
163	0x3c0ce356	0.008599123
164	0x3dd055b2	0.10172595
165	0xbd522a8b	-0.051310103
166	0x3e4356dd	0.19076104
167	0xbe3fa3b1	-0.18714787
168	0x3db559ad	0.08854995
169	0x3e1f3004	0.1554566
170	0xbe3ea128	-0.18616164
171	0x3d5c1cd8	0.053738445
172	0x3db239e1	0.08702446
173	0xbe224fae	-0.15850708
174	0xbe927ab4	-0.2860924
175	0x3da72d14	0.08162895
176	0xbee485a4	-0.4463321
177	0x3f5446b2	0.8292037
178	0xbe1bf547	-0.15230285
179	0x3cba17c3	0.022716409
180	0xbe18cdee	-0.14922306
181	0xbeabd23e	-0.3355884
182	0xbe3f0e33	-0.1865776
183	0xbe839a96	-0.25703877
184	0x3ed2b6f3	0.41155204
185	0xbd973648	-0.073834
186	0xbdc43fdd	-0.095824935
187	0xbe4dd7ae	-0.20101807
188	0x3d18fcff	0.03735065
189	0xbdf4e963	-0.119585775
190	0x3d313961	0.04326761
191	0xbd26cd59	-0.04072318
192	0x3de0e328	0.109808266
193	0x3e66a602	0.22524264
194	0x3cdc3428	0.026880339
195	0x3e97656b	0.29569563
196	0x3cc71739	0.024303066
197	0x3caf39b9	0.021389829
198	0xbebe53c6	-0.3717329
199	0xbcbbd24c	-0.022927426
200	0xbd6ec3b0	-0.05829209
201	0x3eeec602	0.46635443
202	0xbec92280	-0.39284134
203	0xbd1b905f	-0.03797948
204	0xbd393179	-0.045213196
205	0x3d16a88a	0.036781825
206	0x3e9b11f4	0.30287135
207	0xbec1765b	-0.3778561
208	0x3e5b0d20	0.21391726
209	0xbd98d960	-0.07463336
210	0xbe42dc58	-0.19029367
211	0xbe17a50b	-0.14809053
212	0xbe3cc26f	-0.18433546
213	0x3d5bdbda	0.053676464
214	0x3e37abb8	0.17936599
215	0x3dcd0a4b	0.10011729
216	0xbd84151a	-0.06449337
217	0x3e8fb8cf	0.28070685
218	0xbd88dcb2	-0.06682719
219	0xbd1c4bd6	-0.03815826
220	0xbe78f946	-0.2431384
221	0xbe260c49	-0.16215624
222	0xbe94c3b8	-0.29055572
223	0xbd93a5fc	-0.072093934
224	0xbe23095c	-0.15921539
225	0x3ebf213d	0.37330046
226	0xbdb10829	-0.086441346
227	0xbc705c40	-0.014670432
228	0xbdcb8504	-0.0993748
229	0x3c960dd3	0.018317139
230	0xbe6ba4c4	-0.23012072
231	0x3c451a25	0.012030159
232	0x3f02c9df	0.5108928
233	0xbe11649a	-0.14198533
234	0x3e0e3f0a	0.13891235
235	0x3e667f15	0.22509415
236	0x3c4c1399	0.012455844
237	0x3dab1613	0.0835382
238	0xbef71238	-0.48256087
239	0x3d499dea	0.049222864
240	0xbd0451e1	-0.03230465
241	0x3d487217	0.04893693
242	0xbea85ae5	-0.32881847
243	0xbd40e37e	-0.047091953
244	0xbefbb1ea	-0.49159175
245	0x3e6a265a	0.22866192
246	0xbd6dfd55	-0.058102924
247	0xbda00acd	-0.0781456
248	0x3ea647fe	0.324768
249	0x3df0c20e	0.11755763
250	0x3e7e7963	0.24850993
251	0x3cb01a18	0.021496817
252	0x3e787564	0.24263531
253	0x3b55f56e	0.0032647508
254	0xbe11235a	-0.14173642
255	0xbec34164	-0.38135827
