Case_Study_1/trained_transformer/verification_64/vit_12_4_6_12.pt (torch, 50186 bytes, 52 tensors)

pos_embedding f4 [1, 17, 12]
0	0xc0422721	-3.0336382
1	0x3f08efba	0.53490794
2	0xbfd398db	-1.6531023
3	0xbf913736	-1.1344974
4	0x3f87a457	1.0597028
5	0x400746d6	2.1136985
6	0xbfa6fbf9	-1.3045646
7	0x3e94168a	0.28923446
8	0xbed14b6e	-0.4087786
9	0xbf347da6	-0.70504224
10	0xbe3bead1	-0.18351294
11	0x3f188816	0.5958265
12	0xbf041511	-0.51594645
13	0xbf955930	-1.1667843
14	0x3fb22d26	1.3920028
15	0xbf43cb6b	-0.76482266
16	0x3f847c3d	1.0350415
17	0x3efb1dce	0.49046177
18	0xbff00ccb	-1.8753904
19	0xbf02f48c	-0.511544
20	0xbfc3981c	-1.5280795
21	0xbf4db052	-0.8034717
22	0x3f2e030a	0.6797339
23	0x401cce74	2.450101
24	0x3f0f83cc	0.5606048
25	0x3f67d7c6	0.9056362
26	0xbf133c6b	-0.57514066
27	0x3e5b81fc	0.21436304
28	0xbe964b53	-0.29354343
29	0xbed7e2ff	-0.42165372
30	0xbd5e5fd7	-0.05429062
31	0x3e5e9f89	0.21740545
32	0xbe8d8396	-0.27639455
33	0xbf8ecfef	-1.1157206
34	0x3ebdaf9f	0.3704805
35	0xbed1eb3a	-0.40999776
36	0x3f5ad33d	0.85478574
37	0x3f5e360b	0.86801213
38	0xbe008936	-0.12552342
39	0xbf5e6fdb	-0.8688943
40	0xbd608a31	-0.05481929
41	0x3e698e90	0.2280829
42	0xbe89a7f8	-0.26885962
43	0x3eac16f7	0.3361127
44	0xbfa3fe39	-1.2811958
45	0x3f6a1f1a	0.9145371
46	0x3f3cbffe	0.73730457
47	0xbe894955	-0.2681376
48	0xbfab2845	-1.3371664
49	0x3ef37155	0.47547403
50	0xbf8a4348	-1.0801783
51	0xbe0a38b6	-0.13498196
52	0xbead18b7	-0.33807918
53	0x3d1c9488	0.038227588
54	0xbf0b715a	-0.54469836
55	0x3e988df4	0.29795802
56	0x3fc0c255	1.5059305
57	0x3ed59773	0.4171711
58	0xc00ac449	-2.1682303
59	0x3e342625	0.17592676
60	0x3f65afc7	0.8972134
61	0xc00ac7c6	-2.1684432
62	0xbdd71c96	-0.10503499
63	0xbec5a597	-0.38602898
64	0xbd137b28	-0.036006123
65	0x3ff9baf7	1.9510182
66	0xbf0ce70d	-0.55040056
67	0x3f8aae0b	1.0834364
68	0x3e597e48	0.21239579
69	0x3f3a7e65	0.7284911
70	0xbfa928a1	-1.3215524
71	0xbffb78ca	-1.9646237
72	0xbe90f9a8	-0.28315473
73	0xbe8379f5	-0.25678983
74	0x3fc2ca44	1.5217977
75	0x3f8473bb	1.0347818
76	0xbef30861	-0.4746733
77	0xbf3ac8dc	-0.7296274
78	0x3fb78f35	1.4340578
79	0x3f53a0a0	0.8266697
80	0xbf16a00f	-0.5883798
81	0xbe9136aa	-0.28362018
82	0x3e2bf6e2	0.16793397
83	0xbf5ac29b	-0.85453194
84	0x3f9ab905	1.2087713
85	0x3f3adb84	0.72991204
86	0x3fab67f6	1.3391101
87	0xbfc6e13a	-1.5537484
88	0x3ef77867	0.48334047
89	0x3eaf68c3	0.34259614
90	0x3f4f6f76	0.8102945
91	0x3e1ea92a	0.15494218
92	0x3e0d64f9	0.1380805
93	0xbf18eabd	-0.5973318
94	0xbf032e18	-0.5124221
95	0xbff0e001	-1.881836
96	0x3fc2de41	1.5224077
97	0xbf011dc0	-0.5043602
98	0xbd247485	-0.040150184
99	0xbf68141a	-0.9065567
100	0x3f040853	0.515752
101	0xbefd9324	-0.49526322
102	0x3e03b954	0.12863666
103	0xba0178ca	-0.00049389584
104	0x400aa045	2.166032
105	0x3fa7af61	1.3100396
106	0x3fcd91ce	1.6060121
107	0x400b5fc5	2.1777203
108	0x3ee6dbd5	0.45089594
109	0x3f4b4068	0.7939515
110	0xbfa0dfe5	-1.2568327
111	0x3f2c876e	0.6739415
112	0x3f989f51	1.192362
113	0x3ec89026	0.39172477
114	0x3e972ed3	0.29527912
115	0xbcb19ebb	-0.021682134
116	0x3fa46fd1	1.2846624
117	0x3d631a60	0.055445075
118	0x3fab9cb9	1.3407203
119	0xbdad4889	-0.084611006
120	0x3f19f6b6	0.60142076
121	0x3f045879	0.516975
122	0xbf082399	-0.5317932
123	0x3fa4e2b2	1.2881682
124	0xbffe7919	-1.9880706
125	0x3eaedf5d	0.34154788
126	0xbf826549	-1.018716
127	0x3f937380	1.1519623
128	0xbfad2cd2	-1.3529303
129	0x3da5e771	0.081007846
130	0xbdde80b7	-0.10864394
131	0x3e82da41	0.2555714
132	0xbe84f28a	-0.25966293
133	0x3f84e412	1.0382102
134	0xbfac30eb	-1.3452429
135	0xbf4d4244	-0.8017924
136	0xbf61534f	-0.88017744
137	0x3fbe18d4	1.4851327
138	0x3ee40d4e	0.445414
139	0xbf0f8998	-0.56069326
140	0x3f5d1b94	0.86370206
141	0xbcbf1e97	-0.023330016
142	0xbe6989b6	-0.22806439
143	0x3f34fa1a	0.70694125
144	0x3f84bc63	1.0369991
145	0xbf057c77	-0.52143043
146	0xbf88404b	-1.0644621
147	0xbf2649db	-0.64956445
148	0x3f3aec87	0.7301716
149	0xbf0e63e4	-0.5562117
150	0x3f37671b	0.716417
151	0xbf72c83b	-0.9483678
152	0xbe8f3bb4	-0.27975237
153	0xbe72e844	-0.23721415
154	0xbe86fc2f	-0.26364276
155	0x3e6eecb1	0.23332478
156	0xbe61f2e2	-0.22065309
157	0xbf936ba6	-1.1517227
158	0xbf843ab2	-1.0330412
159	0xbee5cabb	-0.44881234
160	0xbe7e3a16	-0.24826846
161	0xc0166206	-2.3497329
162	0x3e8cbe95	0.27489153
163	0x3edc97fe	0.4308471
164	0x3fcdcb33	1.6077636
165	0x3e0c6114	0.13708907
166	0xbf8d0251	-1.1016332
167	0x3f8aa201	1.083069
168	0xbe872a55	-0.26399484
169	0x3ec3d341	0.3824711
170	0x3fabd2f7	1.3423756
171	0x3fe501d4	1.7891183
172	0x3efcb79a	0.49358827
173	0x3f9799d3	1.1843818
174	0x3eaa9fcd	0.33325043
175	0xbf46a295	-0.7759183
176	0xbe53367a	-0.2062625
177	0x3c837f48	0.016051903
178	0x3fa24e38	1.268012
179	0x3f0af759	0.5428367
180	0xbdf5a6af	-0.11994683
181	0x3ec66d1e	0.38755125
182	0x3fc06ff8	1.503417
183	0xbf4f25a3	-0.80916804
184	0x3e8878dd	0.2665471
185	0xbdbbb160	-0.09164691
186	0xbf6deb6c	-0.9293735
187	0xbfc9db24	-1.5770001
188	0xbc67820f	-0.0141301295
189	0x3e56752e	0.20943138
190	0x3f18d3f9	0.59698445
191	0x3fbf8c4c	1.496469
192	0x3e164185	0.14673431
193	0x3fe00b58	1.7503462
194	0xbeb7a5eb	-0.35868773
195	0xbf2e5078	-0.68091536
196	0xbed6e50a	-0.41971618
197	0xbf5f85af	-0.8731336
198	0xbece0ad9	-0.4024265
199	0x3efd9417	0.49527046
200	0xbf82ca09	-1.0217906
201	0xbe8ec738	-0.27886367
202	0x3eb993ba	0.3624552
203	0x3e42d0d0	0.19024968

cls_token f4 [1, 1, 12]
0	0x3f4f2b55	0.80925494
1	0xbf717825	-0.9432395
2	0xbf95fec6	-1.1718376
3	0x3f3f4f03	0.7472994
4	0x3e5ee8a6	0.21768436
5	0xbfd52983	-1.6653293
6	0xbe24606d	-0.16052409
7	0x3fe12104	1.75882
8	0x3e0a2548	0.13490784
9	0xbf861aba	-1.0476906
10	0xbddabfc6	-0.10681109
11	0xbf043e79	-0.51657826

weight f4 [12, 4]
0	0xbe186b21	-0.14884616
1	0xbeca81b0	-0.3955207
2	0x3fa8d899	1.31911
3	0x3f49ed8a	0.7887808
4	0xbf2afdf7	-0.6679377
5	0xbe68eed6	-0.22747359
6	0xbffabe58	-1.9589338
7	0xbe58adbe	-0.21160027
8	0xbea1acb9	-0.3157709
9	0xbf204394	-0.62603116
10	0x3e9827d3	0.29717883
11	0x3f413b97	0.7548155
12	0x3f587600	0.84555054
13	0xbf74ca1d	-0.956209
14	0x3e95878a	0.2920497
15	0xbfb37b90	-1.4022083
16	0x3f940670	1.1564465
17	0xbf8c63e7	-1.0967988
18	0x3e4483a2	0.19190839
19	0xbf31d2b8	-0.69462156
20	0xbf19481f	-0.59875673
21	0xbf8b9014	-1.0903344
22	0xbf33d211	-0.7024241
23	0xbeffd4d6	-0.49967068
24	0x3f38035d	0.7188013
25	0x3ed979c6	0.42475718
26	0xbf201e8d	-0.62546617
27	0x3ec80799	0.39068297
28	0xbf077cb8	-0.5292468
29	0xbec9af39	-0.39391497
30	0x3f264035	0.6494172
31	0xbf8e4ff4	-1.111815
32	0xbfd82ec7	-1.6889275
33	0x3e485d2d	0.19566794
34	0x3f8381e1	1.0274011
35	0xbe0e5604	-0.139
36	0x3e595bbb	0.21226399
37	0x3fafcf06	1.3735054
38	0xbf46a294	-0.77591825
39	0xbf6957f6	-0.9114984
40	0x3f20cfac	0.6281688
41	0x3f9b932d	1.215429
42	0x3f21104a	0.6291548
43	0x3e885cf2	0.26633412
44	0xbde5618b	-0.112002455
45	0xbec9cb16	-0.39412755
46	0xbe383b7f	-0.17991446
47	0x3fc85cb7	1.5653294

bias f4 [12]
0	0x3e156810	0.14590478
1	0x3e8315b1	0.25602487
2	0xbe84673f	-0.2586002
3	0x3ef011d8	0.46888614
4	0x3e8e64ad	0.27811185
5	0x3eecab65	0.46224514
6	0xbdc405a8	-0.09571391
7	0x3da5512c	0.08072123
8	0xbe6004f3	-0.21876888
9	0x3e8f883e	0.28033632
10	0xbddd6ba9	-0.1081155
11	0xbecbef08	-0.39830804

weight f4 [12]
0	0x3f802fdf	1.0014609
1	0x3f941669	1.1569339
2	0x3f7a18b3	0.9769394
3	0x3f7eb2a9	0.99491364
4	0x3f89d8fa	1.0769341
5	0x3f86c60f	1.0529193
6	0x3f9f55ee	1.2448099
7	0x3f7e3b67	0.9930939
8	0x3f35bb69	0.7098909
9	0x3f881f7f	1.0634612
10	0x3f968ba0	1.176136
11	0x3f4ecf17	0.80784744

bias f4 [12]
0	0xbe2c7bd0	-0.16844106
1	0x3d59cd82	0.053174503
2	0x3e226bb3	0.15861396
3	0xbcc7ab72	-0.024373744
4	0xbd927e10	-0.07152951
5	0x3d445ec5	0.04794194
6	0x3d9b940d	0.07596598
7	0x3d84b7e1	0.064803846
8	0x3daad857	0.08342045
9	0xbe6e1c11	-0.23252894
10	0xbd7f08fc	-0.062264428
11	0x3d84dcd1	0.0648743

weight f4 [36, 12]
0	0xbef6384f	-0.48089835
1	0x3da209e6	0.07912044
2	0xbe3d1961	-0.18466713
3	0x3e230449	0.15919603
4	0xbd724f17	-0.059157457
5	0x3dd161ff	0.102237694
6	0x3e03cde3	0.12871508
7	0x3b93447e	0.004494249
8	0xbea3f0cf	-0.3201966
9	0xbbdfa040	-0.006824523
10	0x3d91a7fd	0.07112119
11	0xbddfab28	-0.10921317
12	0xbefe12ef	-0.4962382
13	0x3da27a9b	0.079335414
14	0x3ddad5d0	0.10685313
15	0xbe29a68f	-0.16567443
16	0x3f2996bc	0.6624563
17	0xbdd4ac5a	-0.10384436
18	0x3de7a417	0.113105945
19	0xbbf3bf84	-0.007438602
20	0xbd35d948	-0.04439667
21	0xbdd2fef3	-0.10302534
22	0x3d197a00	0.037469864
23	0x3c349ce1	0.011023731
24	0xbeaa39e1	-0.33247283
25	0x3d8e2240	0.069401264
26	0x3ec5cf4a	0.38634712
27	0xbe8e6561	-0.2781172
28	0x3d70a907	0.058754947
29	0xbd6f627a	-0.058443524
30	0x3d30d3ae	0.043170623
31	0x3e27f4ae	0.16401932
32	0xbeb51bef	-0.35372874
33	0x3e31fb70	0.17381072
34	0xbf0c86b6	-0.5489305
35	0x3d0b4cd5	0.03400882
36	0xbec1ff59	-0.37890127
37	0x3e61d55f	0.22054051
38	0xbe5675b8	-0.20943344
39	0xbdd87adb	-0.10570308
40	0xbecc17b8	-0.39861846
41	0x3e6840d1	0.22680975
42	0x3db39c2d	0.087700225
43	0x3e211a66	0.15732726
44	0x3ec195db	0.37809643
45	0xbcef257a	-0.029192675
46	0xbe164076	-0.14673027
47	0x3e3c58f2	0.18393305
48	0x3dd4cc84	0.10390571
49	0x3c183f93	0.009292501
50	0x3e129037	0.14312826
51	0xbc8810f2	-0.016609643
52	0xbd14af1a	-0.036299802
53	0xbec109d1	-0.37702802
54	0xbe8d988a	-0.2765544
55	0xbe1b7b7c	-0.15183824
56	0xbe86c563	-0.2632247
57	0xbe19a096	-0.15002665
58	0x3e07cebe	0.1326246
59	0xbcdaf849	-0.02672972
60	0x3e075768	0.13216937
61	0xbece324a	-0.40272743
62	0xbea3dcce	-0.32004398
63	0x3e2eb655	0.17061742
64	0xbd9c2c7f	-0.076256745
65	0x3dfb0967	0.12257653
66	0xbe4d2dec	-0.20037049
67	0x3cd0af00	0.025474072
68	0xbcce4cd6	-0.025183123
69	0xbeb2a93c	-0.3489474
70	0x3ed244f3	0.4106823
71	0x3d45b8fd	0.04827212
72	0x3e434ad5	0.19071515
73	0xbe1aec0d	-0.15129109
74	0x3d6bcf33	0.057570647
75	0x3c953466	0.018213462
76	0xbefd40b4	-0.49463427
77	0xbe62bfd8	-0.22143495
78	0x3f3c3733	0.7352173
79	0xbd7a712f	-0.061143097
80	0x3dc5ef50	0.09664786
81	0x3e978fee	0.29601997
82	0x3f2c403b	0.6728551
83	0xbece5f75	-0.40307203
84	0xbe23bf4e	-0.15990946
85	0xbee9f24e	-0.45692676
86	0xbe3dc946	-0.18533811
87	0x3e3eeaa4	0.18644196
88	0x3e738744	0.23782068
89	0x3d87eb58	0.06636685
90	0x3dba8995	0.09108273
91	0x3f01e6d1	0.5074282
92	0x3d7dad1d	0.06193267
93	0xbe36247c	-0.17787355
94	0xbf0595d8	-0.5218177
95	0x3e630a62	0.2217193
96	0x3efab342	0.48964888
97	0xbedf87b8	-0.43658233
98	0xbe304c36	-0.17216572
99	0x3ea01666	0.3126709
100	0x3d206884	0.039162174
101	0xbecaf526	-0.39640158
102	0xbe7b4194	-0.24536735
103	0x3d32cc01	0.043651585
104	0x3dedab8f	0.11604988
105	0xbd1fc228	-0.03900352
106	0x3f184ac4	0.59489083
107	0x3e66dd9f	0.22545479
108	0xbd52832f	-0.051394638
109	0x3f02fcfe	0.51167285
110	0xbc74a3db	-0.014931644
111	0xbf061724	-0.5237906
112	0xbeb1a4b4	-0.3469597
113	0x3c723cd3	0.014785009
114	0x3f26e2dd	0.65189916
115	0xbed79ba6	-0.42110938
116	0xbe29b932	-0.16574553
117	0x3c2f146b	0.01068602
118	0x3e67e836	0.22647175
119	0x3e5680bb	0.20947544
120	0x3df68301	0.12036706
121	0x3e022b6b	0.12711875
122	0x3e417d3d	0.18895431
123	0xbda2ce47	-0.079495005
124	0x3dc4fa13	0.0961801
125	0x3db0d2d1	0.0863396
126	0x3efaf945	0.49018303
127	0xbe2c0512	-0.16798809
128	0xbeff51a3	-0.4986697
129	0xbedcea12	-0.4314733
130	0x3f897de3	1.0741543
131	0xbea10c7b	-0.31454834
132	0x3d6a2f52	0.057174034
133	0xbdbe1aaa	-0.092824295
134	0x3ce98f1b	0.02851062
135	0xbe11e856	-0.14248785
136	0xbc56ac95	-0.01310267
137	0xbe512cd5	-0.20427258
138	0x3ec65b98	0.38741755
139	0x3cc40fb9	0.023933278
140	0x3e60a3dc	0.21937507
141	0x3e92cc31	0.2867141
142	0x3ec72254	0.38893378
143	0x3de2b11a	0.11068936
144	0xbd48e370	-0.049045026
145	0x3ace1e00	0.0015725493
146	0xbea67a9f	-0.32515427
147	0xbdc4c3d3	-0.09607663
148	0x3e8c9458	0.27456927
149	0xbd6d06fc	-0.05786799
150	0x3e171f14	0.14757949
151	0xbe228224	-0.15869957
152	0xbe1c48fa	-0.15262213
153	0x3ea52cc2	0.3226071
154	0x3e955699	0.2916763
155	0xbebc579b	-0.36785588
156	0xbe8e5f14	-0.27806914
157	0x3ea6cb82	0.3257714
158	0x3e8c0888	0.2735026
159	0xbda29060	-0.079376936
160	0x3ed94d57	0.42441818
161	0xbeaea14a	-0.3410743
162	0xbebc50e5	-0.36780468
163	0x3a6926c9	0.0008894024
164	0xbed4bcd0	-0.41550303
165	0x3e5bb2e2	0.21454957
166	0x3cbef8fc	0.023312084
167	0xbeb61e1e	-0.35569853
168	0xbe61fdf9	-0.22069539
169	0xbe63f1ad	-0.2226016
170	0xbe923d44	-0.28562367
171	0x3e2e8949	0.17044558
172	0x3f13f3ad	0.57793695
173	0xbe1d6968	-0.1537224
174	0x3ef8841d	0.48538294
175	0xbeb2ff55	-0.34960428
176	0x3e9a92c5	0.301901
177	0xbdd1c62b	-0.10242876
178	0xbda663f5	-0.08124534
179	0x3d42c771	0.047553483
180	0x3df524b3	0.119698904
181	0xbeb8e8aa	-0.3611501
182	0x3e56dcff	0.20982741
183	0xbdf42ac7	-0.11922222
184	0x3e9a1e57	0.30101272
185	0xbf12367a	-0.57114375
186	0xbe6273de	-0.22114512
187	0xbe691764	-0.22762829
188	0xbd46e473	-0.04855771
189	0xbe19e477	-0.15028559
190	0xbe038efc	-0.12847513
191	0x3cf549a6	0.029942345
192	0x3e641351	0.22272994
193	0xbde0a9bc	-0.10969874
194	0xbcdc837e	-0.02691817
195	0xbe43bb13	-0.19114332
196	0xbe0b2cc6	-0.13591298
197	0x3ea4a97b	0.32160553
198	0x3d8774a0	0.06614041
199	0x3dffa7b2	0.12483157
200	0x3d9c852b	0.07642587
201	0xbf0ba5ea	-0.5455004
202	0xbe2a8037	-0.16650473
203	0xbea25aa7	-0.31709787
204	0x3eb4b6ac	0.35295618
205	0xbe4c6d3e	-0.19963548
206	0x3e0cfd5e	0.13768527
207	0x3c82e88e	0.015980031
208	0xbdc449ab	-0.095843635
209	0xbe9b267d	-0.30302802
210	0xbde11e45	-0.109921016
211	0x3ed48715	0.4150931
212	0x3e92b3ab	0.286527
213	0x3e6e7edb	0.23290579
214	0x3e312eb6	0.17302975
215	0xbd91b460	-0.07114482
216	0xbdad883f	-0.084732525
217	0xbe95d275	-0.29262128
218	0x3e0ad033	0.13555984
219	0x3e545bbd	0.2073812
220	0xbec273b1	-0.3797889
221	0xbe5e1f7f	-0.21691702
222	0xbe1141fd	-0.14185329
223	0x3f3380c2	0.70118344
224	0x3db44a9e	0.088032946
225	0xbeed1b4c	-0.46309888
226	0xbdd34455	-0.10315768
227	0xbe09b874	-0.1344927
228	0x3e989383	0.29800043
229	0x3eb9bec1	0.36278346
230	0x3e4eb2bf	0.20185374
231	0xbeec0ef0	-0.46105146
232	0x3e7d9612	0.24764279
233	0x3ead1ced	0.3381113
234	0x3ccfadd9	0.025351452
235	0xbf0f3036	-0.5593294
236	0x3e5702b7	0.2099713
237	0xbdc43a45	-0.095814265
238	0xbe8a7768	-0.27044225
239	0x3e80cdfc	0.25157154
240	0xbed2c337	-0.41164562
241	0x3cc4cab7	0.024022443
242	0xbd1169b6	-0.035501204
243	0x3e320dfd	0.17388149
244	0xbeb54433	-0.35403594
245	0xbd6ecd2b	-0.058301132
246	0x3f10b73b	0.5652959
247	0x3da7167c	0.081585854
248	0xbe75249e	-0.2393975
249	0x3d9784a0	0.07398343
250	0xbe690fa3	-0.22759871
251	0x3ee0b410	0.43887377
252	0x3ea418da	0.3205021
253	0xbeb771fb	-0.35829148
254	0x3ec8a406	0.3918764
255	0x3d2fcb2a	0.04291836

weight f4 [12, 12]
0	0xbcf13666	-0.029444885
1	0x3dbb068a	0.091321066
2	0x3e5fb505	0.21846397
3	0x3e112258	0.14173257
4	0xbd8356b8	-0.06413025
5	0xbe8f0ddf	-0.2794027
6	0x3c4369a5	0.011927043
7	0xbe9d56c9	-0.30730274
8	0x3dc71129	0.0972007
9	0xbee067c6	-0.43829173
10	0xbee37179	-0.4442251
11	0xbd86bbe2	-0.065788046
12	0xbe061eaf	-0.13097642
13	0xbe2fb203	-0.1715775
14	0xba66d579	-0.00088056136
15	0xbdd46abb	-0.1037192
16	0x3da96ad7	0.08272331
17	0x3e89178a	0.2677577
18	0x3ecb4be9	0.39706352
19	0x3e296c3b	0.16545193
20	0x3ea8c3f3	0.32961997
21	0x3ecf8371	0.4052997
22	0xbe754fa0	-0.23956156
23	0xbe91b655	-0.2845942
24	0xbe959f4a	-0.2922309
25	0x3d388224	0.045045987
26	0x3e8de177	0.2771108
27	0xbd5c159e	-0.053731553
28	0xbe5596f4	-0.20858365
29	0xbe5d423e	-0.216073
30	0xbc983144	-0.01857818
31	0x3c1f8480	0.00973618
32	0x3eca4352	0.39504486
33	0xbee039fc	-0.4379424
34	0x3ec7c7a1	0.39019492
35	0x3de4a84f	0.11164915
36	0x3dc54d4c	0.09633884
37	0x3d68ca01	0.05683327
38	0xbe5b4e98	-0.214167
39	0x3e0d7106	0.13812646
40	0xbe855f59	-0.26049307
41	0xbdf04004	-0.1173096
42	0x3eb6b1aa	0.35682422
43	0xbea1c3ae	-0.31594604
44	0x3de5e375	0.112250246
45	0x3e33fb63	0.17576365
46	0x3e89de91	0.26927617
47	0xbefcc9ff	-0.4937286
48	0xbe17286d	-0.14761515
49	0xbd02985c	-0.031883582
50	0x3c90282a	0.017597277
51	0x3e14cdc9	0.14531626
52	0x3e325587	0.17415439
53	0xbd9265f4	-0.07148352
54	0xbd0fb23f	-0.035082098
55	0xbd22eee6	-0.039778613
56	0xbd959fb1	-0.07305849
57	0x3ca45759	0.020061182
58	0x3d85f6ba	0.065412
59	0x3e840ead	0.25792447
60	0x3e24b974	0.1608637
61	0x3d283186	0.041062854
62	0x3d8288ae	0.06373726
63	0x3e4f31ce	0.20233843
64	0x3d64e6a8	0.055884033
65	0xbe115e91	-0.1419623
66	0x3d97c14a	0.07409914
67	0xbf37a512	-0.7173625
68	0xbd91fc6f	-0.07128226
69	0xbd324ace	-0.04352837
70	0x3cee8086	0.02911402
71	0x3e460530	0.19337916
72	0x3d3d9bbc	0.046291098
73	0xbe39cb00	-0.18143845
74	0x3dc1208f	0.09430038
75	0xbe129844	-0.14315897
76	0xbe0cbb93	-0.13743429
77	0x3e1b3461	0.151567
78	0xbe7dcfe1	-0.24786331
79	0x3db51300	0.088415146
80	0xbe8c7258	-0.27430987
81	0x3c8965e1	0.016772212
82	0xbe0f69cb	-0.140052
83	0xbe960fc8	-0.29308915
84	0xbd3c07f6	-0.04590603
85	0x3e3bdaf9	0.1834525
86	0x3d7ec9c2	0.06220413
87	0x3e9a8094	0.30176222
88	0xbcad8012	-0.021179233
89	0x3f02ef7d	0.5114668
90	0x3c3bfc47	0.011473722
91	0xbecaacf9	-0.39585093
92	0xbe99aa25	-0.30012622
93	0xbe241203	-0.16022496
94	0xbcfda0fe	-0.030960556
95	0xbdfe38e0	-0.12413192
96	0xbc3775ca	-0.011197517
97	0x3ed2e67d	0.41191474
98	0x3ec1e625	0.378709
99	0xbdb2d802	-0.087326065
100	0x3e663711	0.22481944
101	0x3dea9d8c	0.11455831
102	0x3e4bed48	0.19914734
103	0x3e292ef0	0.16521811
104	0x3e1da46b	0.15394752
105	0xbd176f3f	-0.036971327
106	0x3de75e3c	0.11297271
107	0xbe15c12f	-0.14624475
108	0xbe2731cd	-0.16327591
109	0x3d8eb76b	0.06968578
110	0xbd830694	-0.06397739
111	0xbddd0282	-0.10791494
112	0xbc7d2b1a	-0.015452171
113	0x3e76107c	0.24029726
114	0x3e39cfed	0.18145724
115	0x3d02dc55	0.031948406
116	0x3e2b4dc9	0.16728891
117	0xbd47facd	-0.048823167
118	0xbe498f29	-0.19683518
119	0x3dda9311	0.10672582
120	0x3da2e855	0.0795447
121	0x3ebaae09	0.36460903
122	0x3c7a9d9b	0.015296365
123	0x3e47e02d	0.1951911
124	0x3e2feeb4	0.17180902
125	0xbe44ab40	-0.19205952
126	0x3d2d9468	0.04237786
127	0xbcf9336c	-0.030420028
128	0xbdd8e741	-0.10590983
129	0xbe2d7c07	-0.16941844
130	0xbe1886c9	-0.14895166
131	0x3e7b9a24	0.24570519
132	0x3e706cb8	0.23478973
133	0xbe9167a7	-0.28399393
134	0x3e1fb422	0.15596059
135	0xbe83d837	-0.25750896
136	0xbdb292b0	-0.08719385
137	0x3e0b76c3	0.13619523
138	0xbd96c73e	-0.07362221
139	0x3eba945c	0.36441314
140	0x3da4c0b8	0.08044571
141	0x3e53e08a	0.20691124
142	0xbef63748	-0.4808905
143	0x3ac3d61a	0.0014941127

bias f4 [12]
0	0xbd592c4d	-0.053020764
1	0xbdb148a6	-0.08656435
2	0xbdfb49a9	-0.12269909
3	0xbd95fd38	-0.07323688
4	0x3e156fc2	0.14593413
5	0xbe4c735c	-0.19965881
6	0x3db982f8	0.090581834
7	0xbe4e7246	-0.2016078
8	0x3d82a936	0.06379931
9	0xbd98c4c5	-0.07459406
10	0xbe970f8e	-0.29504055
11	0x3e20865e	0.15676257

weight f4 [12]
0	0x3f545cc1	0.8295403
1	0x3f6a320a	0.91482604
2	0x3f4d2fc7	0.8015103
3	0x3f8f96d5	1.1217905
4	0x3f8b6868	1.0891237
5	0x3f6443e1	0.89166075
6	0x3f424e97	0.7590117
7	0x3f5c94ad	0.8616436
8	0x3f821695	1.0163141
9	0x3fa07455	1.2535502
10	0x3f8906dc	1.0705218
11	0x3f6fff52	0.9374896

bias f4 [12]
0	0xbdaa7b1c	-0.083242625
1	0xbe19db45	-0.15025051
2	0xbc52ac3f	-0.0128584495
3	0x3dde13df	0.10843634
4	0x3e40b66c	0.18819588
5	0xbd99cb19	-0.07509441
6	0x3cbc776c	0.023006164
7	0xbd038bbf	-0.032115694
8	0xbd8f6fbc	-0.070037335
9	0x3d4362f6	0.0477018
10	0xbc6392ba	-0.013889963
11	0x3db10b42	0.086447254

weight f4 [12, 12]
0	0xbe6af1e2	-0.22943833
1	0x3f04e12b	0.5190608
2	0x3e22dc62	0.15904382
3	0xbe82edbd	-0.25572005
4	0xbee5cae9	-0.4488137
5	0xbd01416e	-0.03155654
6	0x3d82c02c	0.0638431
7	0x3e693360	0.22773504
8	0xbbcd5663	-0.0062664016
9	0xbe80a050	-0.2512231
10	0xbea55930	-0.32294607
11	0xbdbb95b6	-0.091594145
12	0xbd38a152	-0.045075722
13	0xbdf82984	-0.121172935
14	0x3e779460	0.24177694
15	0x3eb7a5c6	0.35868663
16	0xbdbfb4c5	-0.09360651
17	0x3ea8962f	0.3292708
18	0xbe1777e5	-0.1479183
19	0xbd585b4c	-0.052821442
20	0x3e8801d0	0.26563883
21	0xbf145226	-0.5793785
22	0xbee5da80	-0.44893265
23	0xbe65c608	-0.22438824
24	0xbe6daa24	-0.23209435
25	0xbe2aa4dd	-0.16664453
26	0x3db3e751	0.087843545
27	0x3c1e7f62	0.009673925
28	0xbeb073ae	-0.34463257
29	0xbe8f0d01	-0.2793961
30	0x3cca24fb	0.024675837
31	0x3ea0001f	0.31250092
32	0x3e085216	0.13312563
33	0x3f190d53	0.59785956
34	0x3dd43443	0.10361531
35	0xbdfd1368	-0.12357217
36	0xbec186bd	-0.3779811
37	0x3e2be353	0.16785936
38	0xbdb4972d	-0.08817897
39	0x3d4bbccc	0.049740598
40	0xbdccffdd	-0.100097395
41	0xbe943ab2	-0.2895103
42	0xbce5ba9f	-0.02804309
43	0xbd961329	-0.07327873
44	0xbe511463	-0.20417933
45	0x3efe2259	0.4963558
46	0x3e2748a1	0.163363
47	0xbe8a1bf0	-0.2697444
48	0xbe780cef	-0.24223684
49	0x3e82ebf6	0.2557065
50	0xbe1ea2d1	-0.15491797
51	0xbeab9d71	-0.33518556
52	0xbeaaea68	-0.33381963
53	0xbe9b444b	-0.3032554
54	0xbe511020	-0.20416307
55	0x3e0266cd	0.12734528
56	0x3ebc76e9	0.3680947
57	0xbe53f16d	-0.20697565
58	0x3e8eb6ca	0.27873832
59	0xbd7a8a15	-0.06116684
60	0x3e84a5be	0.259077
61	0x3d23db40	0.040004015
62	0x3dd3da41	0.10344363
63	0xbe739e82	-0.23790935
64	0xbe5a4091	-0.21313693
65	0x3e46102d	0.19342108
66	0xbe0e1911	-0.1387675
67	0xbeba2593	-0.36356792
68	0x3ebbbbd8	0.3666675
69	0xbf050b8b	-0.5197074
70	0xbe6cc477	-0.2312182
71	0x3e6ea61e	0.23305556
72	0x3dbc8670	0.092053294
73	0xbe465212	-0.19367245
74	0xbe1c7fac	-0.15283078
75	0xbe821001	-0.25402835
76	0xbeec3cec	-0.4614023
77	0x3e6dfaf6	0.23240265
78	0xbd8672d7	-0.06564873
79	0x3e94eba3	0.29086027
80	0x3e806f93	0.25085124
81	0x3d578218	0.0526143
82	0x3e6f55f6	0.23372635
83	0xbed29575	-0.41129652
84	0xbe485872	-0.19564989
85	0x3e87d6f2	0.26531178
86	0xbd22e19f	-0.03976595
87	0xbe0a292c	-0.13492268
88	0xbdfe11df	-0.124057524
89	0x3ea535af	0.3226752
90	0x3e23b30f	0.15986274
91	0xbbc7404c	-0.006080663
92	0xbe238ab4	-0.1597088
93	0xbe42e933	-0.19034271
94	0xbda6941e	-0.0813372
95	0x3ed437a9	0.41448715
96	0xbc911c12	-0.01771358
97	0x3d54d3cb	0.051959794
98	0xbdad0ca1	-0.084496744
99	0x3efa389b	0.48871312
100	0x3de2824a	0.11060007
101	0x3d637ddd	0.055539954
102	0xbe04a57a	-0.1295375
103	0xbe13435d	-0.14381166
104	0x3de04471	0.10950554
105	0x3ec719cd	0.38886872
106	0xbe167210	-0.14691949
107	0x3e133618	0.14376104
108	0xba8bcb51	-0.0010665451
109	0x3dc4e5a0	0.0961411
110	0xbd949934	-0.07255784
111	0xbef7e011	-0.48413137
112	0xbda22bc7	-0.07918506
113	0x3e23ebdf	0.16007946
114	0xbe71f051	-0.2362683
115	0xbe03ef27	-0.12884198
116	0x3ee3b28b	0.44472155
117	0x3df8fd62	0.12157704
118	0x3e12333e	0.1427736
119	0x3e68a3ea	0.22718778
120	0xbef76c0f	-0.4832463
121	0x3d928f7e	0.07156275
122	0x3ce00f81	0.027351143
123	0xbd3b76d0	-0.045767605
124	0xbf232d9f	-0.6374149
125	0x3d9d2f7e	0.07675074
126	0x3e9d7b72	0.30758244
127	0xbee9d350	-0.4566903
128	0x3ebfad94	0.37437117
129	0xbe3ab416	-0.1823276
130	0xbbf52c13	-0.0074820607
131	0x3e5926a7	0.21206151
132	0x3e3d36de	0.18477961
133	0xbe1681ff	-0.14698027
134	0x3ebbc8c8	0.3667662
135	0xbed92131	-0.42408136
136	0xbeab5d98	-0.33469844
137	0xbe1f4ab4	-0.1555584
138	0xbc9cf0c0	-0.019157767
139	0x3e872141	0.26392558
140	0xbdf3a438	-0.118965566
141	0x3eb8b115	0.36072603
142	0x3e2a11a8	0.16608298
143	0xbbcd0cb7	-0.0062576192

bias f4 [12]
0	0x3c8fa6f4	0.017535664
1	0xbea6629f	-0.32497117
2	0xbebe59a2	-0.3717776
3	0x3c8cfb15	0.017209569
4	0x3c6918e2	0.014227124
5	0x3d24d157	0.040238705
6	0xbd7e588e	-0.06209617
7	0x3d549c23	0.051906716
8	0x3d938405	0.07202915
9	0x3c41181a	0.011785531
10	0xbe0c7612	-0.13716915
11	0x3d308829	0.043098602

weight f4 [12, 12]
0	0xbe093ac0	-0.13401318
1	0xbee78437	-0.4521806
2	0xbe969481	-0.29410174
3	0xbf14e4e0	-0.58161736
4	0x3e172dcd	0.14763565
5	0xbe8675d4	-0.2626177
6	0x3ef921ad	0.48658505
7	0xbd97bff5	-0.0740966
8	0xbea0df48	-0.3142035
9	0x3d0ebefa	0.0348501
10	0x3ef00c2b	0.46884283
11	0xbe7b04e7	-0.24513589
12	0x3ea8ea7e	0.32991403
13	0x3ec6b4be	0.3880977
14	0xbe827cdb	-0.25485882
15	0x3dd985e3	0.1062124
16	0xbe315824	-0.17318779
17	0x3c8792d0	0.016549498
18	0x3c047870	0.008085355
19	0xbdf817f4	-0.12113944
20	0x3e60c9d6	0.21951994
21	0xbe8c74b4	-0.27432787
22	0xbeeffedb	-0.46874127
23	0x3deb3de4	0.11486414
24	0xbe4c4c32	-0.19950941
25	0x3e774221	0.2414632
26	0xbdca4731	-0.0987686
27	0xbe2ddf2b	-0.16979663
28	0x3e0a1e0f	0.13488029
29	0x3f00cbf1	0.5031119
30	0xbe15c86f	-0.1462724
31	0x3e11e10d	0.14246006
32	0xbd6fd350	-0.058551133
33	0x3e874669	0.26420906
34	0xbd1756f8	-0.036948174
35	0xbec449f7	-0.3833768
36	0xbe220b9f	-0.15824746
37	0x3ed12f36	0.40856332
38	0xbd2d3772	-0.042289205
39	0xbd83c49e	-0.06433986
40	0xbe2a39be	-0.1662359
41	0x3e23bec9	0.15990748
42	0x3e214b41	0.15751363
43	0xbee5c702	-0.44878393
44	0x3e2c3fcb	0.1682121
45	0x3d8ac373	0.0677556
46	0xbe24458f	-0.1604216
47	0x3dccb558	0.09995526
48	0xbeaeab63	-0.34115133
49	0x3e154969	0.14578785
50	0xbe2fbbc1	-0.17161466
51	0x3e57be51	0.21068694
52	0xbd70c642	-0.058782823
53	0x3e62e2b2	0.2215679
54	0xbe1822b6	-0.14856991
55	0x3a3139c8	0.0006760624
56	0x3e0bc274	0.13648397
57	0xbdfae52c	-0.12250742
58	0xbe2a7d32	-0.1664932
59	0xbdb38930	-0.08766401
60	0xbeac34af	-0.33633944
61	0xbda2406d	-0.079224445
62	0xbe486f38	-0.19573677
63	0xbb181716	-0.002320712
64	0xbe5f7087	-0.2182027
65	0x3eb84449	0.35989597
66	0xbe55b736	-0.2087067
67	0xbca273ec	-0.019830666
68	0x3e92ebf0	0.2869563
69	0xbd0b9087	-0.03407338
70	0xbe1dda85	-0.1541539
71	0xbe0bb325	-0.13642557
72	0xbea57daf	-0.3232245
73	0x3df535bb	0.11973139
74	0x3d63d267	0.055620577
75	0x3e883b30	0.26607656
76	0xbe8253f0	-0.25454664
77	0x3e2be867	0.16787873
78	0xbe907dfd	-0.2822112
79	0xbdb6421d	-0.08899329
80	0xbe81f370	-0.2538104
81	0xbd6ccffe	-0.057815544
82	0x3e043f1e	0.12914702
83	0xbe8c99a9	-0.27460983
84	0xbe0856b0	-0.13314319
85	0x3d183901	0.03716374
86	0x3ee0a2b2	0.43874127
87	0xbb586a04	-0.0033022175
88	0xbe63f663	-0.22261958
89	0xbe59622c	-0.21228856
90	0xbdd6f7a0	-0.104964495
91	0xbe2a17ea	-0.16610685
92	0xbd72a4a3	-0.05923904
93	0x3ee07251	0.43837216
94	0x3e8fc637	0.28080913
95	0xbe2a7c05	-0.16648872
96	0x3db6450a	0.08899887
97	0xbf0282de	-0.5098094
98	0xbd0963f1	-0.033542577
99	0x3e92e54e	0.2869057
100	0x3e46c009	0.19409193
101	0x3e10b684	0.14132124
102	0x3e86c40f	0.26321456
103	0x3c6952f7	0.014240972
104	0x3e41cd24	0.18925911
105	0xbd9dc84b	-0.077042185
106	0xbe922076	-0.2854039
107	0x3e535500	0.20637894
108	0x3b53f69e	0.003234304
109	0xbcebc573	-0.028780675
110	0x3e9a607c	0.30151737
111	0xbd328c0b	-0.043590587
112	0xbd09e87c	-0.03366898
113	0xbe54972b	-0.20760791
114	0x3e80563d	0.25065795
115	0xbdd7cf1c	-0.1053755
116	0xbd35043d	-0.044193495
117	0xbedb82a5	-0.4287311
118	0xbd5982a8	-0.05310312
119	0x3ed614c0	0.41812706
120	0x3dbe3d05	0.09288982
121	0xbee56953	-0.44806919
122	0x3da2379f	0.07920765
123	0xbe217166	-0.15765914
124	0xbe282c51	-0.16423155
125	0x3e2a6624	0.16640526
126	0xbe68e252	-0.22742584
127	0xbda20277	-0.079106264
128	0x3dc3017a	0.09521766
129	0xbc6ae988	-0.014337905
130	0x3c828a76	0.015935164
131	0x3ee93968	0.4555161
132	0x3e75085f	0.23928975
133	0xbe8b8e0c	-0.2725681
134	0xbdd52015	-0.1040651
135	0xbd946090	-0.0724498
136	0x3d6024bd	0.054722536
137	0xbe36958c	-0.17830485
138	0xbdd7b263	-0.105320714
139	0x3e0065c2	0.12538818
140	0xbe9543bb	-0.29153237
141	0xbda7af8d	-0.081877805
142	0x3ea08fcd	0.3135971
143	0x3dc6cb9e	0.09706806

bias f4 [12]
0	0xbeb912e2	-0.3614722
1	0xbe42919c	-0.19000858
2	0x3ebd0857	0.36920425
3	0x3e3afb99	0.1826004
4	0xbe5103b1	-0.20411564
5	0x3e8d5083	0.27600488
6	0x3e1e4af4	0.1545828
7	0x3eaf58a7	0.34247324
8	0x3d8ab1db	0.067722045
9	0xbd9d1597	-0.076701336
10	0x3da0c5e9	0.07850248
11	0x3df7b0ca	0.12094267

weight f4 [12]
0	0x3f833aaf	1.0252284
1	0x3f8746ad	1.0568444
2	0x3f8ffb55	1.1248575
3	0x3f91219f	1.1338385
4	0x3f9b6783	1.2140964
5	0x3f9099ef	1.1296977
6	0x3f7c49e4	0.9855025
7	0x3f87de7d	1.0614773
8	0x3f857422	1.0426066
9	0x3fa0e9df	1.2571372
10	0x3f9698fd	1.1765438
11	0x3f4c938b	0.7991263

bias f4 [12]
0	0x3bc3643a	0.0059628757
1	0x3d996fbb	0.07492014
2	0x3c46ffb6	0.012145927
3	0xbd700277	-0.0585961
4	0x3c6648ff	0.01405549
5	0xbd1280e0	-0.035767436
6	0x3d73317b	0.05937336
7	0x3d13d1b2	0.036088653
8	0x3df9fc75	0.122063555
9	0x3c2802c4	0.010254566
10	0xbe0a5b99	-0.13511504
11	0x3bc0bdac	0.0058819856

weight f4 [36, 12]
0	0xbe9731c7	-0.29530165
1	0x3f051152	0.51979554
2	0x3eb28ac7	0.34871504
3	0xbdbc761a	-0.092022136
4	0x3db17222	0.08664347
5	0xbe7bbb9a	-0.24583283
6	0xbebd40b0	-0.36963415
7	0xbe9662ea	-0.2937234
8	0xbf2b39ae	-0.6688489
9	0xbee24bbc	-0.44198406
10	0xbd2460f4	-0.040131524
11	0x3ee9891f	0.45612428
12	0x3eefe5c5	0.46854988
13	0x3e557f74	0.20849401
14	0x3daa16a3	0.08305099
15	0xbe72f6a9	-0.23726906
16	0xbedde9dd	-0.43342486
17	0xbe9973c9	-0.2997115
18	0x3dd74344	0.10510877
19	0x3d6370a8	0.05552736
20	0x3ed6895a	0.41901666
21	0x3e1ae3cb	0.15125959
22	0x3e1906c3	0.14943986
23	0xbea7850d	-0.32718697
24	0xbe88bd0b	-0.26706728
25	0x3eb0e395	0.3454863
26	0xbe741913	-0.2383769
27	0xbe0f0d71	-0.13969971
28	0x3e22e73e	0.15908524
29	0x3eb82729	0.35967377
30	0xbeab9863	-0.335147
31	0x3f04e8fc	0.51918006
32	0x3e87201c	0.26391685
33	0xbdb7e753	-0.089796685
34	0xbf681d58	-0.90669775
35	0x3d8e63bf	0.06952619
36	0x3ea65066	0.32483214
37	0x3e10befa	0.14135352
38	0x3eec1494	0.4610945
39	0xbf0a98d9	-0.54139477
40	0x3e928a0d	0.2862095
41	0xbe0ef3a7	-0.13960133
42	0xbe62d7d9	-0.22152652
43	0x3dabac53	0.083824776
44	0x3dd6723b	0.104710065
45	0xbeb96316	-0.3620841
46	0xbee0164d	-0.43767014
47	0xbc8aec0f	-0.016958265
48	0xbf04cb5a	-0.5187279
49	0x3e906446	0.28201503
50	0x3e851de9	0.25999382
51	0xbef73822	-0.48285013
52	0x3e9f6a82	0.31135947
53	0x3e6cd93a	0.2312974
54	0x3db43bc4	0.08800462
55	0x3ee54227	0.44777033
56	0x3e988b28	0.29793668
57	0x3e8b8a34	0.27253878
58	0xbeb19016	-0.3468024
59	0x3d1c10ca	0.03810195
60	0x3e177481	0.14790536
61	0xbe03276e	-0.1280801
62	0x3e0dafd2	0.13836601
63	0x3ef84b88	0.48495126
64	0xbe8d676c	-0.27617967
65	0xbdaa703e	-0.0832219
66	0xbe84fdac	-0.25974786
67	0x3ed2c1ec	0.41163576
68	0x3d3bf4f7	0.045887914
69	0x3e41a5d5	0.18910916
70	0x3d9ca437	0.07648509
71	0x3d8b6da4	0.06808022
72	0x3e8b6e8c	0.27232778
73	0xbc606382	-0.0136955995
74	0xbeb2c392	-0.34914833
75	0x3e2d65aa	0.16933313
76	0xbec53855	-0.3851954
77	0xbd6cb54c	-0.057790086
78	0xbe273787	-0.16329776
79	0x3e4a07c3	0.19729523
80	0x3b654d08	0.003498854
81	0xbe06fc4c	-0.13182181
82	0x3eb90001	0.36132815
83	0xbbd160dd	-0.006389721
84	0xbdf577b4	-0.11985722
85	0xbeacf945	-0.33783928
86	0x3ccad102	0.024757866
87	0xbd8a404f	-0.06750547
88	0x3e7119a2	0.23544934
89	0x3d81553e	0.06315087
90	0x3db3414b	0.08752688
91	0x3e1d6cba	0.15373507
92	0x3f1b3876	0.6063303
93	0x3e86546b	0.2623628
94	0x3e3f7531	0.18697049
95	0x3cdee673	0.027209496
96	0x3e92c6eb	0.28667387
97	0x3ed2eb04	0.41194928
98	0xbd8778e4	-0.06614855
99	0xbe93a33d	-0.28835478
100	0xbed1b3e9	-0.40957573
101	0x3d397de4	0.045286074
102	0x3e90993f	0.28241917
103	0xbeae8624	-0.34086716
104	0xbc9a0062	-0.01879901
105	0x3e2590c2	0.16168502
106	0x3b4f5723	0.003163763
107	0x3c12f2d5	0.0089690285
108	0x3a206fde	0.0006120185
109	0xbe9836c4	-0.29729283
110	0x3d02eff1	0.031967107
111	0xbdd1eff5	-0.10250846
112	0xbe713f06	-0.23559198
113	0xbeb9eb90	-0.36312532
114	0x3eb4f141	0.35340312
115	0xbddb330d	-0.107030965
116	0x3e0042cb	0.1252548
117	0x3e6caa96	0.23111948
118	0xbd16ea81	-0.036844734
119	0xbe13573e	-0.14388749
120	0x3e8d33b2	0.27578503
121	0xbbd893e0	-0.006609425
122	0x3ecf01f0	0.40431166
123	0x3c9e14f3	0.019297099
124	0xbefe722f	-0.4969649
125	0xbe4de74a	-0.20107761
126	0xbb3ab0c4	-0.0028486708
127	0xbeadc9b2	-0.33942944
128	0x3e865c6c	0.26242387
129	0x3e9313bb	0.2872599
130	0xbeb0e8a4	-0.3455249
131	0x3cbec06e	0.023285117
132	0x3d5628ee	0.052285127
133	0x3e95e166	0.29273528
134	0x3e439191	0.19098498
135	0xbec11e28	-0.3771832
136	0xbea9192e	-0.33027023
137	0xbe1be24e	-0.15223047
138	0x3eacb520	0.33731937
139	0xbea87257	-0.32899734
140	0x3dcc2588	0.09968096
141	0xbea0c627	-0.31401178
142	0xbd870344	-0.0659242
143	0xbedd5739	-0.43230608
144	0x3d47d0ca	0.0487831
145	0xbe8e50c4	-0.27795994
146	0xbee40f01	-0.44542697
147	0x3f343804	0.70397973
148	0x3f2e90b4	0.6818955
149	0xbe1ff108	-0.1561929
150	0xbe1b6882	-0.15176585
151	0xbe4409e7	-0.19144402
152	0x3e62a699	0.22133864
153	0xbe24924e	-0.16071436
154	0x3d0e989b	0.034813505
155	0x3dbf9b5d	0.09355805
156	0xbecc6d24	-0.39927018
157	0x3e91e8cb	0.2849792
158	0x3e72c975	0.23709662
159	0x3cdfb8ae	0.027309742
160	0xbe7b45f5	-0.24538405
161	0x3f020321	0.50786024
162	0x3e38baf7	0.18040071
163	0x3bfa7699	0.0076435325
164	0xbe682c9c	-0.22673267
165	0x3f1571ef	0.58376974
166	0x3d38cbbe	0.04511618
167	0xbb8dd843	-0.004328759
168	0xbea3c06b	-0.3198274
169	0x3ed7f66b	0.4218019
170	0x3e89d60b	0.26921114
171	0xbf26a261	-0.6509152
172	0xbc9ead56	-0.019369762
173	0x3efb2af1	0.490562
174	0xbec6efda	-0.38854867
175	0xbeba3bb5	-0.36373678
176	0x3c9faff5	0.019493083
177	0x3edae35b	0.42751583
178	0x3e31838b	0.17335336
179	0x3ada72ec	0.001666633
180	0xbd855030	-0.06509435
181	0xbdef3d2e	-0.11681591
182	0x3ec5ec56	0.38656873
183	0x3f0aca7d	0.5421522
184	0xbee33e4d	-0.4438347
185	0x3d86bf91	0.06579507
186	0x3d704ba1	0.058665875
187	0x3cba5f5f	0.022750555
188	0xbf3344ef	-0.7002706
189	0x3f320901	0.6954499
190	0x3e4e4b58	0.20145929
191	0x3d20afad	0.039230037
192	0xbe17f043	-0.14837746
193	0x3d42b07e	0.047531597
194	0x3e97d529	0.29654816
195	0x3f1b7260	0.607214
196	0x3e805519	0.25064924
197	0xbe98135b	-0.29702267
198	0xbe690826	-0.22757015
199	0x3c9e9267	0.01935692
200	0xbe96281c	-0.29327476
201	0x3e3c53ff	0.18391417
202	0x3e840cfb	0.25791153
203	0xbea48082	-0.32129294
204	0xbea4e480	-0.32205582
205	0x3ea14b5e	0.31502813
206	0xbf132e6b	-0.57492703
207	0xbe279f62	-0.16369393
208	0xbe4e0163	-0.20117716
209	0x3ef74289	0.4829295
210	0xbe3d7f27	-0.18505536
211	0x3b83fd76	0.0040280176
212	0xbdac0583	-0.08399489
213	0xbe645095	-0.22296365
214	0x3c879f0e	0.016555335
215	0x3dba1faf	0.090880744
216	0xbcbadd8e	-0.022810724
217	0xbe1bde31	-0.15221478
218	0xbc96f0dd	-0.0184254
219	0x3e89a659	0.26884726
220	0x3eff955e	0.49918646
221	0xbd840def	-0.0644797
222	0xbf149e96	-0.5805448
223	0x3deba699	0.11506385
224	0xbe165db2	-0.1468418
225	0x3e7bc0f2	0.24585322
226	0xbe60d7fd	-0.21957393
227	0x3d8cc71c	0.068739146
228	0x3e83d84e	0.25750965
229	0xbf175d4c	-0.59126735
230	0x3ae23761	0.0017258936
231	0x3d95e9db	0.07319995
232	0xbe60f5b4	-0.21968728
233	0xbddabe2e	-0.10680805
234	0x3ee1e741	0.44121745
235	0xbde89e97	-0.113583736
236	0xbf1727e8	-0.5904527
237	0x3e490c7e	0.19633672
238	0xbe38aeeb	-0.18035476
239	0x3e993b0f	0.2992787
240	0x3ce4b0fa	0.02791642
241	0x3e1ce8a4	0.1532312
242	0xbe594125	-0.21216257
243	0x3d8110e4	0.0630205
244	0x3ccd5942	0.025066976
245	0xbf34126e	-0.7034062
246	0xbd6a5e78	-0.057219
247	0x3ea11472	0.3146091
248	0x3e1ea30b	0.15491883
249	0x3f147afe	0.5800017
250	0xbcf416b4	-0.029795982
251	0x3e875c9d	0.26437846
252	0x3ea3a711	0.319634
253	0xbedcc37e	-0.431179
254	0x3dee2343	0.116278194
255	0xbcc0b4f7	-0.02352379

weight f4 [12, 12]
0	0xbe5b8ec6	-0.21441182
1	0xbda163b7	-0.07880347
2	0x3df56695	0.119824566
3	0x3e821279	0.2540472
4	0x3e10c933	0.14139251
5	0xbe680ce9	-0.22661175
6	0x3eb84423	0.35989484
7	0x3de08951	0.10963691
8	0xbe1233e0	-0.14277601
9	0x3dcb748f	0.09934341
10	0x3da23821	0.07920862
11	0xbe4bd4fb	-0.19905464
12	0x3cfe7be0	0.031064928
13	0x3e21e5bb	0.15810291
14	0xbe43b628	-0.19112456
15	0xbe367318	-0.17817342
16	0x3e5b344b	0.21406667
17	0xbe8acd0f	-0.27109572
18	0x3e822913	0.25421962
19	0x3dfadfb8	0.12249702
20	0x3e036e38	0.12835014
21	0xbe9a54a4	-0.301427
22	0xbeb571c8	-0.3543837
23	0x3e8085d0	0.2510209
24	0xbf102c63	-0.5631773
25	0x3ea29cb8	0.31760192
26	0xbd123d49	-0.035702977
27	0xbd4a52b0	-0.049395263
28	0xbe923773	-0.2855793
29	0x3de8add6	0.113612816
30	0x3e968e3f	0.294054
31	0x3d93ee65	0.072232045
32	0xbe276010	-0.16345239
33	0xbe8a6480	-0.270298
34	0x3e95c71c	0.2925347
35	0x3dc56a84	0.09639457
36	0x3e056ada	0.13029042
37	0xbc2263b2	-0.0099114645
38	0x3d1264a1	0.0357405
39	0xbeed0d15	-0.46299043
40	0x3e995000	0.29943848
41	0xbeacc487	-0.33743688
42	0xbeaca708	-0.33721185
43	0x3e7c241b	0.24623148
44	0x3bd3a5c6	0.0064589707
45	0x3eb1bace	0.34712833
46	0x3df6ebf3	0.120567225
47	0xbf083d2f	-0.5321836
48	0xbe9053c7	-0.28188917
49	0x3c7a400b	0.015274058
50	0xbebbd1aa	-0.36683398
51	0x3cebaa9c	0.028767876
52	0x3d59a8d1	0.05313951
53	0xbe42a46f	-0.19008039
54	0x3dc87435	0.0978779
55	0xbde489d7	-0.11159103
56	0xbd80853a	-0.06275411
57	0xbd6c7f96	-0.057738863
58	0x3e397b4c	0.1811344
59	0xbe25ca3e	-0.1619043
60	0xbf03d916	-0.5150312
61	0x3ea05627	0.3131573
62	0x3d81289f	0.06306576
63	0x3e3ce9e5	0.18448599
64	0x3ec05819	0.37567213
65	0x3edafa1a	0.42768937
66	0xbd635dd9	-0.055509422
67	0x3d63568a	0.055502452
68	0x3e2b192a	0.16708818
69	0xbed2b95c	-0.41157043
70	0xbeed16ae	-0.46306366
71	0x3e0cfb7b	0.13767807
72	0xbdbbac29	-0.09163696
73	0xbf073d3d	-0.5282782
74	0xbe8203cc	-0.25393522
75	0xbed91927	-0.42402002
76	0xbc9b4a5b	-0.018956354
77	0x3d44920d	0.047990847
78	0x3dee6ce3	0.11641862
79	0xbe0c0cbd	-0.13676734
80	0x3dcb8e93	0.09939303
81	0x3dae34d9	0.08506174
82	0xbe14ff3b	-0.14550488
83	0xbd7328ff	-0.05936527
84	0x3eb276f7	0.34856388
85	0x3e659768	0.22421038
86	0x3ea99f83	0.3312951
87	0x3e457a9b	0.19285052
88	0x3e3cc451	0.18434264
89	0x3ee43e68	0.44578862
90	0x3b89e2ce	0.0042079454
91	0xbeb82038	-0.3596208
92	0x3e67e101	0.22644426
93	0xbd95dbb2	-0.07317294
94	0x3edf4970	0.43610716
95	0x3ef5778a	0.47942764
96	0x3e7cf422	0.24702504
97	0x3f0755fe	0.5286559
98	0xbdf7f3bd	-0.12107036
99	0xbe8caffa	-0.2747801
100	0x3e157e21	0.14598896
101	0x3cc97c09	0.024595277
102	0x3ddeb6b9	0.10874695
103	0xbe9a3fc3	-0.3012677
104	0x3c882677	0.016619904
105	0x3e95a339	0.29226092
106	0xbd619733	-0.055075835
107	0x3cc69b5c	0.024244003
108	0xbe26ca3c	-0.16288084
109	0x3e137eb3	0.144038
110	0xbd9f28b7	-0.077714376
111	0x3ea3453a	0.31888753
112	0x3d4428f6	0.047890626
113	0xbe993a79	-0.29927424
114	0xbedcb14a	-0.4310401
115	0x3e2f1275	0.17096885
116	0x3db218eb	0.08696159
117	0xbdddb094	-0.10824695
118	0xbe054988	-0.13016331
119	0xbe0e36c3	-0.13888077
120	0x3e034118	0.128178
121	0xbe82de0a	-0.25560027
122	0x3ec7fc1c	0.39059532
123	0x3ba11999	0.0049163816
124	0xbd54b2cf	-0.051928338
125	0x3eba5851	0.36395505
126	0xbce97042	-0.028495912
127	0x3e4cdc19	0.20005836
128	0xbe34dfc5	-0.17663486
129	0x3e9241e1	0.28565887
130	0xbb3bea42	-0.0028673564
131	0xbc46245d	-0.012093631
132	0x3d7726de	0.0603398
133	0xbb870b8d	-0.00412125
134	0x3e6a6ed8	0.22893846
135	0x3e0605d1	0.13088156
136	0xbe14495f	-0.14481114
137	0xbe183d53	-0.14867143
138	0x3e361465	0.17781217
139	0xbe169531	-0.1470535
140	0xbed58378	-0.41701865
141	0xbd9452c4	-0.07242349
142	0x3e827b76	0.25484818
143	0x3eac3681	0.33635333

bias f4 [12]
0	0x3db54569	0.088511296
1	0x3e174991	0.14774157
2	0xbe37c2e9	-0.17945446
3	0xbe8a386a	-0.26996166
4	0xbdfdf4d2	-0.124002114
5	0xbe256b0c	-0.16154116
6	0xbe2a7ede	-0.16649958
7	0xbe23441c	-0.1594395
8	0xbdc08a7e	-0.09401415
9	0xbe38d80f	-0.1805117
10	0x3d76c971	0.060250703
11	0xbdba30cb	-0.09091338

weight f4 [12]
0	0x3f7bb0df	0.9831676
1	0x3f679dc1	0.9047509
2	0x3f473f01	0.7783051
3	0x3f7ddb79	0.99163014
4	0x3f7cc53a	0.98738444
5	0x3f69f10e	0.91383445
6	0x3f6f0ef6	0.93382204
7	0x3f67d05d	0.9055231
8	0x3f836690	1.0265675
9	0x3f6b4697	0.91904587
10	0x3f883b32	1.0643065
11	0x3f62cb83	0.88591784

bias f4 [12]
0	0xbe11cb43	-0.14237694
1	0xb94497e8	-0.00018748606
2	0x3e434c43	0.1907206
3	0x3e1089c9	0.14115061
4	0xbe07f68e	-0.13277647
5	0x3c6d72af	0.014492675
6	0x3d0ea756	0.034827553
7	0x3de537f5	0.111923136
8	0xbd8dde65	-0.06927184
9	0x3e17cb49	0.14823641
10	0xbdeba536	-0.11506121
11	0xbd57c47d	-0.05267762

weight f4 [12, 12]
0	0xbd7e26b7	-0.06204864
1	0x3e4fc7bd	0.20291038
2	0xbeea4c93	-0.45761546
3	0xbdcd4f66	-0.1002491
4	0xbd6b106e	-0.057388715
5	0xbe73e87c	-0.23819155
6	0x3e38bae6	0.18040046
7	0xbe8d6c14	-0.2762152
8	0x3ece2f24	0.4027034
9	0x3e97caef	0.29647014
10	0xbec4801e	-0.38378996
11	0x3e750ef8	0.23931491
12	0x3ea4f51a	0.32218248
13	0xbd605dbf	-0.054776903
14	0xbd9a16df	-0.075238936
15	0x3dd28986	0.10280137
16	0x3f15aa81	0.58463293
17	0xbd5ab22f	-0.053392585
18	0xbe56e69c	-0.20986408
19	0xbc1b3a5d	-0.009474364
20	0xbec20f32	-0.37902218
21	0x3e6d2245	0.23157604
22	0xbead24d0	-0.33817148
23	0xbd6a0a70	-0.05713886
24	0x3dbff17f	0.093722336
25	0x3c2025c3	0.009774628
26	0xbb80f940	-0.003935963
27	0x3e9a0200	0.3007965
28	0xbdce02c0	-0.10059118
29	0xbdf9c71a	-0.12196179
30	0xbdd16b97	-0.10225599
31	0x3e41b9c3	0.18918519
32	0x3d55b7a6	0.052177094
33	0xbee0f6eb	-0.43938383
34	0xbe0f6b4e	-0.14005777
35	0x3c53012c	0.012878697
36	0xbd8c8a91	-0.06862367
37	0x3e3e9927	0.1861311
38	0x3e1c5cc3	0.15269761
39	0x3de6c41c	0.11267874
40	0x3e100cc5	0.14067371
41	0x3e750837	0.23928915
42	0xbdc0684a	-0.093948916
43	0xbe1bab57	-0.1520208
44	0x3e0b4ded	0.13603945
45	0xbe37d8c1	-0.17953779
46	0xbd0d94d4	-0.03456576
47	0xbddeb2e9	-0.10873968
48	0xbe1fbbc3	-0.15598969
49	0x3e057d6b	0.13036124
50	0xbec1e632	-0.37870938
51	0xbe0ed39e	-0.13947913
52	0xbeaa7f35	-0.33300176
53	0xbda3ffd5	-0.080077805
54	0x3e9a645e	0.301547
55	0xbe7d8444	-0.24757487
56	0x3ef48782	0.47759634
57	0x3e78dfaa	0.24304071
58	0x3e4419fa	0.19150534
59	0xbe824358	-0.25442004
60	0x3cfc6e3a	0.030814279
61	0x3d7e984c	0.06215696
62	0xbeb48f83	-0.3526574
63	0xbdb66510	-0.08905995
64	0xbe54c709	-0.20779051
65	0x3e96fb91	0.29488805
66	0x3e46aec0	0.194026
67	0xbefc5619	-0.49284437
68	0x3c416c96	0.011805674
69	0x3d5612ba	0.052263953
70	0xbea07adb	-0.3134373
71	0x3ed30739	0.41216448
72	0x3eaf1170	0.3419299
73	0xbe9512bc	-0.29115856
74	0xbec06670	-0.37578154
75	0xbede7f67	-0.43456575
76	0x3e131077	0.1436175
77	0x3e0c5604	0.13704687
78	0x3cf99918	0.030468509
79	0xbe80a073	-0.25122413
80	0xbe24abc0	-0.16081142
81	0xbd3757de	-0.04476153
82	0x3dfb2c63	0.122643255
83	0x3e373c33	0.17894058
84	0xbe82f394	-0.2557646
85	0xbea68010	-0.3251958
86	0x3e4ab5c8	0.19795907
87	0xbb6fdc40	-0.0036599785
88	0x3e4c1015	0.1992801
89	0xbeb66628	-0.35624814
90	0xbe987ec6	-0.2978422
91	0x3e4a7013	0.19769315
92	0x3de8510b	0.11343583
93	0x3ebf43c3	0.37356386
94	0x3ece7b1c	0.403283
95	0x3d6fbe72	0.058531232
96	0x3e6bda1b	0.2303242
97	0xbe949c97	-0.2902572
98	0x3e28f966	0.16501388
99	0xbe09936f	-0.13435148
100	0xbd417b1f	-0.047236558
101	0x3e8dd9ae	0.2770514
102	0xbe99d513	-0.30045375
103	0x3bc7c844	0.0060968716
104	0x3ea99394	0.33120406
105	0xbcd19963	-0.025585836
106	0x3dd87eff	0.105710976
107	0x3e13da46	0.14438733
108	0xbe76c62a	-0.24099031
109	0x3e0d477f	0.13796805
110	0x3decf02b	0.11569246
111	0xbe7d2698	-0.24721754
112	0x3e9fe6b9	0.31230715
113	0x3d4f239b	0.050571065
114	0x3e559ed2	0.20861366
115	0x3cceb900	0.0252347
116	0x3e6ffd4d	0.2343647
117	0xbdce74e6	-0.1008089
118	0x3eb3fc3a	0.3515337
119	0xbe9c6f46	-0.30553645
120	0xbd7d38b4	-0.061821654
121	0x3e60aadf	0.21940182
122	0xbe1efd49	-0.15526308
123	0xbe47b657	-0.19503151
124	0xbea39ebf	-0.3195705
125	0x3d837712	0.06419195
126	0xbe9385aa	-0.28812915
127	0xbd291aed	-0.041285444
128	0x3eb3090f	0.3496785
129	0xbe66b9c8	-0.22531807
130	0xbe883463	-0.26602468
131	0x3ce124be	0.02748334
132	0x3dedb6a5	0.11607102
133	0x3eb703ff	0.35745236
134	0xbd3795fd	-0.044820774
135	0x3eb37800	0.3505249
136	0xbd3625a3	-0.044469487
137	0xbe801028	-0.25012326
138	0x3e4e2a04	0.20133215
139	0xbe0a9532	-0.13533476
140	0x3db28f37	0.08718722
141	0x3e130e73	0.1436098
142	0x3c582e47	0.013194627
143	0x3e3e58cc	0.18588561

bias f4 [12]
0	0xbeaec2bf	-0.34132954
1	0x3ca9d5e4	0.020731874
2	0xbe4ffd49	-0.20311464
3	0x3bb203dd	0.0054325894
4	0x3b996c67	0.004682112
5	0xbe02c5ac	-0.12770718
6	0xbc4064a5	-0.0117427455
7	0xbdecca5c	-0.115620345
8	0x3db04974	0.0860776
9	0xbe8052ed	-0.25063267
10	0xbeb98d44	-0.3624059
11	0x3d89ef50	0.06735098

weight f4 [12, 12]
0	0xbe8be0b2	-0.27319866
1	0x3d91fc48	0.07128197
2	0x3e4102eb	0.1884877
3	0xbe3439c0	-0.17600155
4	0x3eaee4fe	0.34159082
5	0x3e7b61e0	0.24549055
6	0x3df5eb97	0.12007826
7	0xbe243b88	-0.16038334
8	0xbea6b7e1	-0.32562163
9	0x3d4afa6b	0.049555223
10	0x3cc21aa6	0.023694348
11	0xbe914d81	-0.28379443
12	0xbe0f42b1	-0.13990285
13	0xbbdd3814	-0.00675107
14	0x3de07bce	0.10961114
15	0xbe0fee93	-0.14055853
16	0x3d463b02	0.048396118
17	0x3dcbff78	0.09960836
18	0xbe1e1c58	-0.154405
19	0xbe752684	-0.23940474
20	0xbe52126d	-0.20514841
21	0x3ebd32ec	0.36952913
22	0xbdbfe7cd	-0.09370384
23	0xbc2c0e76	-0.010501495
24	0xbeb65450	-0.356112
25	0xbe0e6209	-0.13904585
26	0x3e91b065	0.2845489
27	0x3df6d9db	0.120532714
28	0xbd819cda	-0.06328745
29	0x3d7ddb7a	0.061976887
30	0xbe9365e0	-0.28788662
31	0x3dea9644	0.11454442
32	0x3e0a0ec9	0.13482203
33	0xbdf0383a	-0.11729474
34	0xbde0036e	-0.10938154
35	0x3eafd082	0.34338766
36	0x3cad4178	0.021149382
37	0xbccbcce7	-0.024877978
38	0xbc4c47d1	-0.012468294
39	0xbdedfc27	-0.1162036
40	0x3e5a09f1	0.21292855
41	0x3ef79ec3	0.48363313
42	0x3e6e13c8	0.23249733
43	0x3dc7268a	0.097241476
44	0x3e75f1de	0.24018046
45	0xbce297cd	-0.027660275
46	0x3e39d9a0	0.18149424
47	0xbe60fbf8	-0.21971118
48	0xbd8e63ea	-0.06952651
49	0x3e47fc88	0.19529927
50	0x3d4924cd	0.04910736
51	0x3c02723c	0.007961806
52	0xbed82c38	-0.42221236
53	0x3e77a7d5	0.24185117
54	0x3e20d9a7	0.15708028
55	0x3ec995e7	0.3937218
56	0xbe77732e	-0.24165031
57	0xbec400ba	-0.38281804
58	0x3ea743fd	0.32669058
59	0x3e18a118	0.14905202
60	0xbd8d3aed	-0.06896005
61	0x3e9d97e1	0.30779937
62	0x3cba1f97	0.022720141
63	0x3e67739b	0.22602694
64	0xbe31f25d	-0.1737761
65	0xbec35e65	-0.38157955
66	0xbea0be32	-0.31395108
67	0xbe69f66f	-0.22847913
68	0xbcfd2f7b	-0.03090643
69	0x3e7880b4	0.24267846
70	0xbbc2da5b	-0.00594644
71	0xbe791147	-0.24322997
72	0x3d962e88	0.07333094
73	0x3e5d36c2	0.2160292
74	0x3de3448f	0.11097061
75	0xbdb72974	-0.089434534
76	0xbdb7bdec	-0.089717716
77	0xbde9fe8c	-0.11425504
78	0x3e53c59b	0.20680849
79	0xbe0e4965	-0.13895185
80	0x3e0079b9	0.12546434
81	0x3e501892	0.20321873
82	0xbe87e38b	-0.2654079
83	0xbe2aa537	-0.16664587
84	0x3e9e6609	0.30937222
85	0x3ec3bb73	0.3822895
86	0xbe985da7	-0.2975895
87	0xbdf43a0a	-0.119251326
88	0xbe87c8b4	-0.26520312
89	0x3f1201bc	0.57033896
90	0xbda8a6a9	-0.08234913
91	0x3d819654	0.06327501
92	0xbe660edf	-0.2246661
93	0xbe364f05	-0.17803581
94	0x3d7f9da2	0.06240619
95	0x3e8983ad	0.26858273
96	0x3e9d358a	0.3070491
97	0xbea4428e	-0.32082027
98	0x3e0a0dcd	0.13481827
99	0xbde93e61	-0.11388851
100	0xbedb8a02	-0.4287873
101	0xbec1cf59	-0.37853506
102	0x3a59f2e3	0.0008314086
103	0x3dfff1d6	0.124972984
104	0x3eb32372	0.3498798
105	0x3d87adef	0.06624972
106	0xbe3dfe4b	-0.18554036
107	0x3d23ff35	0.040038306
108	0xbda0fa41	-0.07860232
109	0x3e7543cd	0.23951645
110	0xbe65e336	-0.22449955
111	0x3caad5cf	0.020853905
112	0xbeca3a87	-0.39497778
113	0xbe136e55	-0.14397557
114	0xbdad036c	-0.08447918
115	0xbe578fb1	-0.21050908
116	0x3e098962	0.13431314
117	0x3e91a1d1	0.2844377
118	0x3ee83a2e	0.45356888
119	0x3b94ee87	0.0045450362
120	0xbebcc091	-0.36865667
121	0x3d1529a2	0.036416657
122	0xbd25ec9d	-0.040508855
123	0x3e686126	0.22693309
124	0x3da0c971	0.07850922
125	0xbe49c58f	-0.19704269
126	0xbf03647d	-0.5132521
127	0xbe28f1b0	-0.16498446
128	0xbeaee2ab	-0.3415731
129	0xbe572339	-0.2100953
130	0xbe95e2f4	-0.29274714
131	0x3d4b8534	0.04968758
132	0x3edaaa5f	0.42708108
133	0xbe6af6b6	-0.22945675
134	0xbe082c7b	-0.13298218
135	0x3a1ff04d	0.0006101176
136	0x3e487db9	0.1957921
137	0xbdab271b	-0.08357068
138	0xbdff5f3d	-0.12469337
139	0xbef367f0	-0.47540236
140	0x3e0fab3c	0.14030164
141	0xbdea8cba	-0.11452623
142	0xbdbf053c	-0.0932717
143	0x3dd12601	0.10212327

bias f4 [12]
0	0x3e10737e	0.14106557
1	0xbb6d7768	-0.0036234502
2	0xbe88398a	-0.266064
3	0xbd8325c9	-0.06403691
4	0x3ccff1c7	0.025383843
5	0xbb044fdc	-0.0020189201
6	0xbe0be62d	-0.13662024
7	0x3e576946	0.21036252
8	0x3e39c1f1	0.18140389
9	0x3e22fb49	0.1591617
10	0x3dc23f20	0.094846964
11	0xbc0ef405	-0.008725171

weight f4 [12]
0	0x3f97a7db	1.18481
1	0x3f918212	1.1367819
2	0x3f8808b0	1.0627651
3	0x3f8d4700	1.1037292
4	0x3f8cea46	1.1008995
5	0x3f92ad35	1.1459109
6	0x3f998999	1.1995116
7	0x3f84fe5a	1.0390122
8	0x3f85ce65	1.0453612
9	0x3f96949b	1.1764101
10	0x3f8e2995	1.110644
11	0x3f9003dc	1.1251178

bias f4 [12]
0	0xbd970e5d	-0.073757865
1	0x3e30f242	0.17279914
2	0xbdaf8c89	-0.08571727
3	0xbdc7b18c	-0.09750661
4	0xbd9d2157	-0.07672375
5	0x3dc850dd	0.097810484
6	0xbd380499	-0.04492626
7	0x3dbc4dca	0.091945246
8	0x3dd2c524	0.10291508
9	0x3bd65004	0.0065403003
10	0xbe11c500	-0.14235306
11	0x3d8cc62e	0.06873737
