Examples/verification/training/models/verification_4x4/vit_12_1_6_12.pt (torch, 17639 bytes, 19 tensors)

pos_embedding f4 [1, 5, 12]
1.1680053 -0.079681985 0.2793655 -0.06190545 -0.18359426 0.03807822 0.28637964 -0.07781931
-1.3670073 -0.36900082 -0.8795452 -0.8259466 -0.12548944 -0.8005349 0.9284536 -0.73564297
-0.82800317 0.33749625 0.17006616 0.22367416 0.4229635 -0.73901933 1.0409487 0.6825465
-1.099691 0.43010122 0.80594057 -0.25976333 -0.20736817 -0.4919666 -0.8094773 -0.43094203
0.8298675 0.015344461 -0.86409396 0.75776803 -0.7891247 1.5389841 -0.6445479 0.3462761
0.48656026 -0.53197724 -0.10869499 0.09880527 -0.8121987 -0.3457238 -1.2875923 -0.6105316
0.36135176 -0.15283044 0.7597167 0.1912972 1.6144187 1.1620046 0.59658694 0.50944704
1.6528506 -0.47716495 0.13803974 -0.8629403
00000000: 3381 953f 4f30 a3bd ff08 8f3e 9290 7dbd
00000010: 2200 3cbe e8f7 1b3d 5aa0 923e bb5f 9fbd
00000020: 18fa aebf aded bcbe e029 61bf 3d71 53bf
00000030: 4e80 00be dbef 4cbf 23af 6d3f 1953 3cbf
00000040: 04f8 53bf 4fcc ac3e d325 2e3e d70a 653e
00000050: ac8e d83e 5f30 3dbf cf3d 853f 5ebb 2e3f
00000060: adc2 8cbf 3a36 dc3e 1f52 4e3f b3ff 84be
00000070: 5258 54be 0ce3 fbbe e839 4fbf 6fa4 dcbe
00000080: 3272 543f 5667 7b3c 4335 5dbf 16fd 413f
00000090: 1404 4abf 6efd c43f 1701 25bf 1a4b b13e
000000a0: 6d1e f93e a92f 08bf 7b9b debd 6b5a ca3d
000000b0: 41ec 4fbf b602 b1be d3cf a4bf cd4b 1cbf
000000c0: 1903 b93e 957f 1cbe cb7c 423f 6ae3 433e
000000d0: 46a5 ce3f 91bc 943f ecb9 183f 1f6b 023f
000000e0: 9c90 d33f f74e f4be 4a5a 0d3e a8e9 5cbf

cls_token f4 [1, 1, 12]
-0.14188957 -0.28246918 0.640442 -0.53617054 -0.5630027 1.0875988 0.19002278 1.1122694
1.4681588 -0.2352579 -1.1380595 1.9780052
00000000: 804b 11be cd9f 90be 02f4 233f 7942 09bf
00000010: f220 10bf 7036 8b3f 5595 423e d85e 8e3f
00000020: a1ec bb3f 72e7 70be efab 91bf 462f fd3f

weight f4 [12, 4]
-0.45742124 1.1849759 -0.13830894 -0.87956834 -0.27468514 -1.6056138 -0.8699719 0.6879955
-0.25804308 1.0148507 0.39516786 -0.13121706 1.8365573 0.36707965 0.016874643 -0.76934487
-1.683483 0.9411888 0.67808163 0.9665538 0.036265504 0.38571027 -1.0950987 0.85834694
-0.32639444 -0.962159 1.0281101 0.099332824 -0.81822133 -1.210917 -0.10165789 0.74648184
-1.6975847 0.99670523 0.9772718 1.0615244 1.2493389 -0.027323462 0.59096104 1.4338831
1.1873168 -0.5670678 0.5694757 0.77176595 -0.61186737 0.6248417 -0.78138095 -1.122373
00000000: 1e33 eabe 4aad 973f dca0 0dbe 642b 61bf
00000010: 88a3 8cbe c184 cdbf 7ab6 5ebf 7920 303f
00000020: 391e 84be a1e6 813f 7153 ca3e c45d 06be
00000030: 4f14 eb3f ddf1 bb3e b13c 8a3c c9f3 44bf
00000040: 5f7c d7bf c0f1 703f c296 2d3f 1270 773f
00000050: 238b 143d d17b c53e 322c 8cbf a0bc 5b3f
00000060: 2c1d a7be 0d50 76bf 1d99 833f 026f cb3d
00000070: f476 51bf 54ff 9abf 0332 d0bd 6f19 3f3f
00000080: 754a d9bf 1328 7f3f 7c2e 7a3f 08e0 873f
00000090: 56ea 9f3f 74d5 dfbc 3949 173f 7b89 b73f
000000a0: fff9 973f 5b2b 11bf 29c9 113f 7492 453f
000000b0: 57a3 1cbf a0f5 1f3f 9508 48bf eba9 8fbf

bias f4 [12]
0.0599036 -0.16132158 -0.4159422 -0.34778106 -0.12579693 0.32346037 -0.07555571 -0.20956562
-0.35464472 -0.3482059 -0.09244708 -0.12720811
00000000: 7a5d 753d 7c31 25be 60f6 d4be 5c10 b2be
00000010: e9d0 00be 999c a53e f4bc 9abd 5f98 56be
00000020: fe93 b5be 0b48 b2be e554 bdbd d842 02be

weight f4 [12]
1.3069837 1.0872318 0.9604027 1.2526035 0.95933646 1.2213018 1.3228085 1.4223946
0.98695725 1.2777269 0.85545856 1.387158
00000000: 3e4b a73f 692a 8b3f f4dc 753f 5055 a03f
00000010: 1397 753f 9e53 9c3f ca51 a93f 0711 b63f
00000020: 3ba9 7c3f 8e8c a33f 55ff 5a3f 658e b13f

bias f4 [12]
0.08152683 0.07473314 -0.17191803 -0.06701203 -0.01969943 -0.043450035 -0.023372112 0.10447761
-0.094389185 -0.029137561 0.076944634 0.05101599
00000000: 8af7 a63d b00d 993d 480b 30be 9a3d 89bd
00000010: b360 a1bc aaf8 31bd df76 bfbc 5bf8 d53d
00000020: 1e4f c1bd e5b1 eebc 2695 9d3d 25f6 503d

weight f4 [36, 12]
-0.16212061 0.14509252 -0.054116026 0.011089706 -0.090735994 -0.25710446 -0.013314875 0.15403523
0.02218726 -0.15583469 -0.012398047 0.05801822 -0.03480255 -0.22410354 -0.079097986 -0.099006645
0.043048974 0.2961267 0.032402106 0.16358222 -0.061769314 -0.18547215 -0.15602149 0.27241752
0.16444804 0.09381546 -0.25429323 0.19716689 -0.18968204 0.112691626 0.01714637 0.050720084
-0.11565146 -0.062602095 0.15031458 0.18278341 0.05869865 0.085922524 0.06728141 -0.3019718
-0.25445688 0.16141191 0.102117255 0.26371947 -0.19099689 -0.21893093 -0.41997278 0.37018907
-0.051296435 -0.2424424 -0.019027615 0.018684665 0.0709135 -0.028676746 0.1795758 -0.105532244
-0.114580356 -0.05723381 0.057503052 0.2309971 0.20290093 -0.010307898 0.41774687 -0.3289996
-0.23234414 0.07832658 0.3225174 0.09749463 -0.13834193 -0.1743428 -0.38493 0.02276342
-0.22537182 -0.21167457 0.11686339 -0.027403018 0.1720644 -0.2058838 0.029561639 -0.20706917
-0.047825944 0.06295622 -0.29921776 0.30670315 0.05282505 0.1152228 0.072683744 0.026509248
0.13441928 0.050479818 0.075419754 0.29588884 -0.23169337 0.027422491 -0.31669018 0.40658414
0.0051166723 -0.3182858 0.38642487 -0.29127476 0.07522875 0.37264353 0.42493257 -0.11517484
-0.26774663 -0.24977121 -0.0965641 -0.031074394 0.37659013 -0.2676817 0.08761234 -0.4820442
-0.07949867 0.12505713 0.4201586 0.27455416 -0.32820296 -0.25792474 -0.25886562 0.14909989
-0.08486959 0.026778001 -0.027369106 0.010294501 -0.2565958 0.33925158 0.3972186 -0.0064953505
0.09191378 -0.14993624 -0.37293863 0.28238106 -0.14563572 0.54790485 -0.5731606 0.5604475
0.5202643 -0.021833679 -0.14117643 -0.45422402 0.48782074 0.5651283 0.18683937 -0.35673746
0.2900683 0.18835336 0.25345525 0.15242906 -0.21537538 -0.12768777 -0.17707215 0.06846438
0.19819103 -0.11822966 -0.018656012 -0.12266799 -0.6191862 0.35800308 -0.21323912 0.05348821
0.042775296 -0.009458696 0.08598812 0.52238244 -0.08003392 0.22005177 0.111643024 0.07152735
-0.055043932 -0.1438669 -0.30914617 0.049499758 -0.022838237 0.63795584 -0.6370125 -0.0727754
-0.28355154 -0.52292067 0.24025948 0.009978652 0.2879608 -0.26933947 -0.040996578 0.12853035
-0.22642796 1.0326372 -0.8556023 -0.3036028 -0.26490968 -0.50780183 0.120854646 -0.06418967
0.034569137 -0.095944814 -0.23108006 0.16436787 -0.14580736 -0.27506232 -0.2981432 0.05241296
-0.31090176 0.41672888 0.0037097398 0.051672194 -0.32978225 0.1363817 -0.46261048 0.68475336
-0.17255235 -0.008709193 -0.2023886 -0.10391176 -0.21321873 0.40298554 -0.086195834 0.12892152
0.029369958 0.012744791 0.13160588 0.116446935 0.016942123 -0.088782586 0.12717801 0.0805475
0.20124236 -0.013670357 -0.06448084 0.06337142 -0.29414704 -0.6047565 -0.25369206 -0.124088615
0.036118947 0.09972446 -0.20387802 -0.07987826 -0.28484935 0.56534225 0.6088801 -0.049541615
-0.0049324897 -0.028563559 0.20547444 -0.10196549 -0.16495621 -0.26075438 0.030529771 0.027677344
0.030453594 -0.24676707 0.51519257 0.33771038 -0.34735495 -0.020705398 0.00080884114 -0.32413605
00000000: f202 26be 2293 143e c4a8 5dbd 99b1 353c
00000010: cbd3 b9bd 32a3 83be a226 5abc 69bb 1d3e
00000020: 0fc2 b53c 2193 1fbe 2e21 4bbc 83a4 6d3d
00000030: 1e8d 0ebd 667b 65be 20fe a1bd ffc3 cabd
00000040: 1f54 303d eb9d 973e 12b8 043d 1982 273e
00000050: d201 7dbd 69ec 3dbe 19c4 1fbe 4f7a 8b3e
00000060: 1165 283e 5222 c03d b932 82be 1ee6 493e
00000070: 023c 42be deca e63d 8b76 8c3c ddbf 4f3d
00000080: acda ecbd 8735 80bd 11ec 193e 932b 3b3e
00000090: ff6d 703d 26f8 af3d d6ca 893d 0c9c 9abe
000000a0: 2c48 82be 2a49 253e da22 d13d 3d06 873e
000000b0: b094 43be 6e2f 60be ac06 d7be 6c89 bd3e
000000c0: 361c 52bd d242 78be cddf 9bbc 9510 993c
000000d0: 193b 913d 7feb eabc b8e2 373e 4a21 d8bd
000000e0: 1ba9 eabd 006e 6abd 5288 6b3d 818a 6c3e
000000f0: 43c5 4f3e 75e2 28bc ebe2 d53e a372 a8be
00000100: 9feb 6dbe b069 a03d 0021 a53e 44ab c73d
00000110: 82a9 0dbe eb86 32be 8c15 c5be 5a7a ba3c
00000120: dfc7 66be 38c1 58be 1356 ef3d 4b7c e0bc
00000130: a631 303e 34d3 52be 402b f23c f109 54be
00000140: 23e5 43bd 31ef 803d 1233 99be 3208 9d3e
00000150: 145f 583d eef9 eb3d 37db 943d ec29 d93c
00000160: 35a5 093e edc3 4e3d ac75 9a3d be7e 973e
00000170: 0741 6dbe 22a5 e03c 3725 a2be cc2b d03e
00000180: c2a9 a73b 5bf6 a2be 7bd9 c53e f721 95be
00000190: 8811 9a3d 22cb be3e c390 d93e c9e0 ebbd
000001a0: 1616 89be 06c4 7fbe 66c3 c5bd ba8f febc
000001b0: 6cd0 c03e 930d 89be 196e b33d 7fce f6be
000001c0: 33d0 a2bd fa0e 003e 071f d73e 5d92 8c3e
000001d0: 380a a8be b60e 84be 098a 84be a4ad 183e
000001e0: 1cd0 adbd 8a5d db3c 2d35 e0bc 44aa 283c
000001f0: 8660 83be 62b2 ad3e 3d60 cb3e f3d6 d4bb
00000200: 4b3d bc3d e388 19be d0f1 bebe 4094 903e
00000210: 8821 15be 7e43 0c3f a7ba 12bf 7d79 0f3f
00000220: 0b30 053f 8bdc b2bc 8e90 10be 0d90 e8be
00000230: a4c3 f93e 40ac 103f d252 3f3e 4ba6 b6be
00000240: d583 943e b4df 403e e3c4 813e 5d16 1c3e
00000250: 5d8b 5cbe 95c0 02be 6752 35be 0e37 8c3d
00000260: 97f2 4a3e 6422 f2bd 7ed4 98bc 5b39 fbbd
00000270: fd82 1ebf 2e4c b73e 5b5b 5abe 7416 5b3d
00000280: 2635 2f3d a5f8 1abc 8a1a b03d dbba 053f
00000290: d3e8 a3bd 4055 613e 19a5 e43d ee7c 923d
000002a0: bf75 61bd d851 13be 6848 9ebe 42c0 4a3d
000002b0: 4117 bbbc 1351 233f 4013 23bf 450b 95bd
000002c0: ab2d 91be 21de 05bf 9506 763e 807d 233c
000002d0: 996f 933e dde6 89be 07ec 27bd 769d 033e
000002e0: bbdc 67be 752d 843f c108 5bbf d471 9bbe
000002f0: 3ea2 87be 4dff 01bf a482 f73d e075 83bd
00000300: 5e98 0d3d b77e c4bd 40a0 6cbe 0d50 283e
00000310: 864e 15be f8d4 8cbe 3aa6 98be f9ae 563d
00000320: 842e 9fbe 7d5d d53e 1b1f 733b 39a6 533d
00000330: 38d9 a8be a5a7 0b3e 48db ecbe ff4b 2f3f
00000340: 90b1 30be 01b1 0ebc f53e 4fbe b0cf d4bd
00000350: 0356 5abe 1f54 ce3e 7187 b0bd 0104 043e
00000360: 4499 f03c 87cf 503c b1c3 063e bb7b ee3d
00000370: 35ca 8a3c a5d3 b5bd f43a 023e 16f6 a43d
00000380: 7a12 4e3e a2f9 5fbc 880e 84bd e0c8 813d
00000390: 719a 96be 52d1 1abf ede3 81be 2c22 febd
000003a0: 76f1 133d 563c cc3d 66c5 50be 3797 a3bd
000003b0: c6d7 91be 45ba 103f 91df 1b3f 26ec 4abd
000003c0: b9a0 a1bb 20fe e9bc e467 523e 48d3 d0bd
000003d0: 48ea 28be 9981 85be 9219 fa3c 99bb e23c
000003e0: d179 f93c 82b0 7cbe a9e3 033f 60e8 ac3e
000003f0: 82d8 b1be 5e9e a9bc 6908 543a 29f5 a5be

weight f4 [12, 12]
-0.18884082 0.68068737 -0.74708855 0.3052476 0.6676431 -0.071532406 0.6871181 0.93149644
-0.47017807 0.11095021 -0.30962545 0.24897271 0.68606436 0.112877056 -0.528136 -0.76122105
-0.536386 0.11847963 -0.48442194 0.8146675 0.21088214 -0.26034322 -0.58199275 -0.074319854
0.66176754 -0.24138887 -0.020004258 -0.18771988 -0.33495465 -0.24924302 0.17698897 0.17798756
0.5696858 0.0899253 -0.26450366 0.44000432 0.14342928 -1.0292784 0.28332102 0.13915697
0.21528807 0.28377426 -0.41669324 -0.10893491 -0.108159386 -0.42794216 0.5180917 -0.67085683
0.27696592 -0.061804213 -0.045040816 -0.31086975 -0.7291555 -0.33356836 -0.3191977 -0.045918167
-0.38244122 -0.39384007 0.71969664 0.59054726 0.057751846 -0.3135537 -0.68380564 -0.11380586
0.44488174 -0.9618561 0.37105772 -0.05174417 -0.47170603 0.3929567 0.19632305 -0.5646752
-0.70273113 -0.15089788 -0.41265273 0.30027452 0.10690689 0.44689253 0.05450977 -0.5998171
0.062294103 0.15668654 -0.11031024 0.2693168 0.3799556 0.8740831 0.0038277414 0.64127773
0.37025288 -0.4134315 -0.04615328 -0.1440512 0.23076081 -0.033481274 0.039243974 -0.693328
-0.63549083 -0.11994813 0.17554122 -0.08434011 -0.28992665 -0.0640147 0.094906405 -0.46845397
0.6498521 0.24377201 -0.25587657 -0.18740821 0.09491724 -0.50873214 -0.7550941 0.21415707
0.2974255 0.17046298 -0.14712049 0.028445289 -0.57241774 0.028360134 -0.58080995 0.48291984
-0.4126729 0.48974523 0.8536706 0.059425674 0.09999326 -0.16101155 -0.24334766 0.28744355
-0.025891576 -0.2197406 0.2965784 -0.2747019 0.5255867 0.283653 1.1942745 -0.27478874
0.33342358 0.30176297 0.16954736 -0.28688252 -0.3668376 -0.059378576 -0.41271594 -0.21673687
00000000: 7d5f 41be 8741 2e3f 3241 3fbf 6a49 9c3e
00000010: a8ea 2a3f 957f 92bd f9e6 2f3f 8d76 6e3f
00000020: 2ebb f0be dd39 e33d 3a87 9ebe b4f2 7e3e
00000030: eaa1 2f3f 162c e73d ec33 07bf 62df 42bf
00000040: 9850 09bf 73a5 f23d 2706 f8be 0d8e 503f
00000050: 7df1 573e b54b 85be 7afd 14bf 0235 98bd
00000060: 9969 293f a52e 77be f8df a3bc a439 40be
00000070: 2d7f abbe 9039 7fbe 993c 353e 5f42 363e
00000080: eed6 113f c12a b83d 066d 87be 3f48 e13e
00000090: 20df 123e 65bf 83bf 740f 913e 2a7f 0e3e
000000a0: 7a74 5c3e dc4a 913e d158 d5be 4419 dfbd
000000b0: ab82 ddbd 3c1b dbbe a8a1 043f 46bd 2bbf
000000c0: 7ace 8d3e 6a26 7dbd b87c 38bd 522a 9fbe
000000d0: efa9 3abf 79c9 aabe e26d a3be b014 3cbd
000000e0: 56cf c3be 68a5 c9be 0a3e 383f 1b2e 173f
000000f0: 338d 6c3d 1c8a a0be e30d 2fbf 0c13 e9bd
00000100: 8ac7 e33e 343c 76bf 47fb bd3e b2f1 53bd
00000110: 7483 f1be 9f31 c93e e908 493e 8e8e 10bf
00000120: 30e6 33bf f984 1abe 3847 d3be 95bd 993e
00000130: 00f2 da3d 19cf e43e a345 5f3d 9d8d 19bf
00000140: 1a28 7f3d 7072 203e 56ea e1bd e4e3 893e
00000150: 8a89 c23e e9c3 5f3f d8da 7a3b c72a 243f
00000160: c991 bd3e 4bad d3be 390b 3dbd 2882 13be
00000170: 904c 6c3e a923 09bd 4abe 203d f27d 31bf
00000180: 87af 22bf 5da7 f5bd 14c1 333e 82ba acbd
00000190: 4471 94be 241a 83bd 4a5e c23d 33d9 efbe
000001a0: b55c 263f 5f9f 793e 4102 83be f0e7 3fbe
000001b0: f863 c23d 453c 02bf d94d 41bf fe4b 5b3e
000001c0: 2848 983e d98d 2e3e c1a6 16be 1806 e93c
000001d0: f889 12bf 8353 e83c f6af 14bf 4541 f73e
000001e0: dd49 d3be e3bf fa3e 288a 5a3f 5668 733d
000001f0: 44c9 cc3d 36e0 24be 2130 79be cd2b 933e
00000200: 921a d4bc ae03 61be 20d9 973e baa5 8cbe
00000210: da8c 063f f73a 913e fddd 983f 1cb1 8cbe
00000220: 7fb6 aa3e ad80 9a3e d39d 2d3e 44e2 92be
00000230: 23d2 bbbe f336 73bd 814f d3be 45f0 5dbe

bias f4 [12]
-0.18745597 0.17321081 0.095255435 0.2594697 0.21141744 -0.2597764 0.055192947 -0.22422938
0.23023714 0.07554333 0.1802316 -0.30677584
00000000: 75f4 3fbe 2d5e 313e 4815 c33d 36d9 843e
00000010: d07d 583e 6a01 85be 0012 623d 639c 65be
00000020: 49c3 6b3e 76b6 9a3d a28e 383e b911 9dbe

weight f4 [12]
0.93315846 1.161641 1.3778173 1.5969797 1.2612911 1.1123531 0.8600086 0.97717804
1.363712 1.195234 1.0051229 1.1597277
00000000: 79e3 6e3f a7b0 943f 515c b03f d569 cc3f
00000010: fd71 a13f 9661 8e3f 8629 5c3f 5728 7a3f
00000020: 1d8e ae3f 6dfd 983f dea7 803f f571 943f

bias f4 [12]
-0.25990734 0.19114299 -0.2301456 0.06123699 0.24930662 -0.12638502 -0.40928456 -0.20385611
-0.05492663 0.14589353 0.24207902 -0.22237515
00000000: 9312 85be fdba 433e 4aab 6bbe a3d3 7a3d
00000010: 3c4a 7f3e 136b 01be bf8d d1be a8bf 50be
00000020: bffa 60bd 1d65 153e 90e3 773e 50b6 63be

weight f4 [12, 12]
0.019693954 0.036008473 0.18252634 -0.22323206 0.14428952 -0.45621526 -0.33500195 0.2118702
-0.2722976 -0.21069378 0.09292038 0.67668045 -0.24144891 -0.2440986 0.06713752 -0.08183912
0.027053377 -0.052755095 -0.12916137 -0.18016493 -0.12891126 0.034741275 -0.0050224974 -0.10743201
0.38851264 0.3370348 -0.06458356 -0.061014157 0.23181897 0.05527336 -0.1161702 -0.0804004
-0.7654664 0.03674311 -0.27329245 -0.061177943 -0.28026778 0.24136011 -0.1576093 -0.08631731
-0.20625837 -0.51127946 -0.29554498 -0.013953284 0.5656567 -0.2116991 0.3529309 -0.74799335
-0.19773047 -0.311943 -0.4689238 -0.27856565 0.23102885 0.45522934 -0.14528815 0.42703828
0.2780081 -0.2123258 0.3331433 -0.055762757 0.02567731 -0.38913566 0.6603483 -0.44752678
0.62615657 -0.03313263 -0.3729389 0.17346326 0.08029282 0.2529399 -0.20410153 0.25558254
-0.10902749 -0.25429836 -0.0998691 -0.2870126 -0.5665778 0.098156676 0.06319659 0.09645136
0.5618114 0.6168229 0.13693725 -0.45070708 0.3774413 -0.7587082 0.22361822 0.23322697
-0.29365924 0.1682693 0.26293626 0.14100495 0.06711766 -0.12074615 -0.553919 0.18661942
-0.25888538 0.10208226 -0.14393471 -0.14841853 0.13185263 0.018965803 -0.2245992 -0.23625128
-0.04570536 0.12479954 0.39154384 0.10642157 0.3410581 0.021599283 0.5133082 -0.8324022
-0.27935058 0.18336494 0.20240602 0.17009169 0.19189344 0.5660662 -0.11707023 0.031185439
-0.052544 -0.36469853 -0.27761418 0.3620162 0.14762317 -0.4652584 0.15389773 -0.5846378
-0.3978204 0.6186937 -0.11535959 0.06848398 0.48978788 -0.26893884 -0.21126486 -0.51250845
-0.3796737 0.54778385 0.08009897 -0.6545887 -0.11623665 0.26651388 0.3793524 0.031992123
00000000: 3755 a13c 9f7d 133d 2fe8 3a3e f296 64be
00000010: a2c0 133e 0c95 e9be 6085 abbe 80f4 583e
00000020: 976a 8bbe 1cc0 57be 0a4d be3d ee3a 2d3f
00000030: 623e 77be fcf4 79be 657f 893d 459b a7bd
00000040: 0b9f dd3c ba15 58bd e142 04be 287d 38be
00000050: 5001 04be de4c 0e3d c393 a4bb 5005 dcbd
00000060: 21eb c63e d38f ac3e 6344 84bd fbe9 79bd
00000070: f461 6d3e 5266 623d a4ea edbd f7a8 a4bd
00000080: 9bf5 43bf f17f 163d fdec 8bbe b995 7abd
00000090: 427f 8fbe 1b27 773e 5564 21be 21c7 b0bd
000000a0: 6535 53be 36e3 02bf ac51 97be 519c 64bc
000000b0: e1ce 103f a6c7 58be 5cb3 b43e 7e7c 3fbf
000000c0: db79 4abe feb6 9fbe c816 f0be 28a0 8ebe
000000d0: d492 6c3e d213 e93e 6bc6 14be c3a4 da3e
000000e0: 1457 8e3e ef6b 59be c291 aa3e 7d67 64bd
000000f0: 3959 d23c ca3c c7be 960c 293f 3b22 e5be
00000100: cc4b 203f 15b6 07bd d9f1 bebe 5aa0 313e
00000110: 9070 a43d 5781 813e feff 50be b7db 823e
00000120: ce49 dfbd 6533 82be 2c88 ccbd 51f3 92be
00000130: 3e0b 11bf 5e06 c93d 376d 813d 4a88 c53d
00000140: dfd2 0f3f 1be8 1d3f 4739 0c3e 14c3 e6be
00000150: fc3f c13e b33a 42bf 2dfc 643e 0dd3 6e3e
00000160: 815a 96be ca4e 2c3e 959f 863e 9a63 103e
00000170: fc74 893d c249 f7bd a3cd 0dbf 2919 3f3e
00000180: a08c 84be 8110 d13d 9f63 13be 07fb 17be
00000190: 6004 073e 2c5e 9b3c 55fd 65be dbeb 71be
000001a0: 8b35 3bbd e796 ff3d 6f78 c83e 8df3 d93d
000001b0: 2b9f ae3e fbf0 b03c 2b68 033f 5018 55bf
000001c0: 0a07 8fbe 05c4 3b3e 8643 4f3e 842c 2e3e
000001d0: b77f 443e b7e9 103f 84c2 efbd 9b78 ff3c
000001e0: 6138 57bd c4b9 babe 7223 8ebe 305a b93e
000001f0: 872a 173e 5936 eebe 5e97 1d3e d3aa 15bf
00000200: 1eaf cbbe b662 1e3f a641 ecbd 5441 8c3d
00000210: 7ac5 fa3e 5ab2 89be d155 58be c133 03bf
00000220: 9764 c2be 903b 0c3f ee0a a43d 2093 27bf
00000230: 7b0d eebd 8274 883e 7a3a c23e 2c0a 033d

bias f4 [12]
-0.12057236 -0.36924356 0.3939675 -0.23932426 -0.045390762 -0.14772347 0.1382916 0.11531897
0.037974037 0.15501891 -0.15865637 -0.13222459
00000000: a4ee f6bd 7e0d bdbe 1cb6 c93e 6b11 75be
00000010: aaeb 39bd d244 17be 509c 0d3e 5a2c ec3d
00000020: aa8a 1b3d 47bd 1e3e d176 22be e265 07be

weight f4 [12, 12]
-0.18392833 0.16977853 -0.29766306 -0.839896 -0.5954329 0.39227042 -0.66936374 0.0020229805
-0.17807756 -0.02430187 -0.10031289 -0.13929354 0.004577709 0.13451937 0.06662319 0.23132004
0.7511922 0.3498503 0.25362998 -0.034237325 0.031586308 -0.83823323 -0.12613073 0.42098355
0.26946864 0.00594475 0.057376903 -0.24067535 0.086332746 -0.2047055 0.06231983 0.22644612
-0.23654495 0.064388916 -0.24265538 -0.03276135 0.18878937 0.35072783 -0.058538556 -0.08208946
-0.28677046 0.1354556 0.3668733 0.03598697 0.0017354647 -0.3890357 -0.50946325 0.21352385
-0.0509387 0.21087372 -0.07535095 -0.14663824 0.3250094 0.23743379 0.005174814 0.030629024
-0.23287681 0.22518009 0.35918674 0.72900707 0.086458534 -0.082900554 0.040262226 0.4935566
0.45766482 -0.028207934 -0.5707043 -0.10501097 -0.04812333 0.24468099 -0.5110689 -0.5953798
-0.6347732 0.024754073 0.01662685 -0.39785364 0.10123898 -0.1999415 0.36192155 0.12067778
0.019227397 -0.4078718 0.0018337229 -0.36868906 -0.34372625 0.0840417 0.696186 0.42564446
0.09432078 -0.1959993 -0.79913753 -0.6160029 -0.017898068 -0.018596517 0.54837 0.13621177
0.3135529 0.09726289 0.2897068 -0.7174369 -0.26936576 -0.5829301 0.37253723 -0.3809486
-0.05073905 0.20973065 -0.34504223 0.40279266 0.28896326 0.19611092 0.33421674 0.2950919
-0.081085876 -0.15974061 0.2743537 -0.06735546 0.0031156887 0.42580566 -0.51423085 -0.4876094
0.31656387 0.12794706 0.38267174 0.93794787 -0.16023445 -0.21541832 -0.08947511 0.5231033
0.46476543 0.13165323 -0.037158366 -0.4180853 0.18219234 0.35936478 -0.5817727 -0.14533648
-0.13176964 -0.38777992 0.0043132505 -0.34651583 0.33804882 0.08417284 0.49946082 0.40419692
00000000: b557 3cbe 6cda 2d3e 4b67 98be 6d03 57bf
00000010: 4a6e 18bf abd7 c83e 6c5b 2bbf fb93 043b
00000020: f759 36be b714 c7bc d870 cdbd f7a2 0ebe
00000030: 9b00 963b 72bf 093e bd71 883d 29df 6c3e
00000040: 224e 403f 941f b33e cadb 813e 703c 0cbd
00000050: a560 013d 7496 56bf 6a28 01be 288b d73e
00000060: cbf7 893e 2dcc c23b 0b04 6b3d 9973 76be
00000070: 39cf b03d 529e 51be 1443 7f3d 7ee1 673e
00000080: d738 72be 56de 833d a77a 78be c430 06bd
00000090: 0052 413e 9992 b33e 20c6 6fbd 851e a8bd
000000a0: 94d3 92be dfb4 0a3e d1d6 bb3e 1367 133d
000000b0: 8878 e33a b02f c7be 2f6c 02bf ffa5 5a3e
000000c0: 19a5 50bd 48ef 573e 9951 9abd 5628 16be
000000d0: a267 a63e d821 733e 7c91 a93b b8e9 fa3c
000000e0: 4277 6ebe 9c95 663e 53e7 b73e 35a0 3a3f
000000f0: 2c11 b13d c4c7 a9bd 01ea 243d 73b3 fc3e
00000100: 0b53 ea3e 5314 e7bc ad19 12bf fe0f d7bd
00000110: f81c 45bd a78d 7a3e 69d5 02bf d06a 18bf
00000120: 7f80 22bf 0ec9 ca3c 0835 883c 79b3 cbbe
00000130: 6256 cf3d 77bd 4cbe c84d b93e e925 f73d
00000140: c682 9d3c 93d4 d0be 8859 f03a d0c4 bcbe
00000150: e3fc afbe 0e1e ac3d 3f39 323f 12ee d93e
00000160: 412b c13d 0ab4 48be 4794 4cbf 5eb2 1dbf
00000170: f89e 92bc b957 98bc fa61 0c3f 197b 0b3e
00000180: 018a a03e c431 c73d 7354 943e f2a9 37bf
00000190: 4fea 89be e83a 15bf 33bd be3e b20b c3be
000001a0: c0d3 4fbd a2c3 563e 60a9 b0be d73a ce3e
000001b0: fef2 933e 4dd1 483e 751e ab3e 4916 973e
000001c0: 5a10 a6bd 0b93 23be 1778 8c3e a9f1 89bd
000001d0: 9530 4c3b 3303 da3e a2a4 03bf f0a7 f9be
000001e0: a914 a23e 8e04 033e 8ded c33e 5a1d 703f
000001f0: 8014 24be 9f96 5cbe ba3e b7bd 19ea 053f
00000200: bcf5 ed3e 1bd0 063e 5f33 18bd 470f d6be
00000210: a190 3a3e a9fe b73e 0eef 14bf 16d3 14be
00000220: 9fee 06be 178b c6be 2b56 8d3b 866a b1be
00000230: bc14 ad3e cf62 ac3d 54b9 ff3e e6f2 ce3e

bias f4 [12]
-0.142404 -0.09534337 0.06775329 -0.39867738 0.18320878 -0.054971386 -0.14642823 0.13976613
0.15532202 0.24779607 -0.22800277 -0.12162836
00000000: 5bd2 11be 6343 c3bd 3dc2 8a3d 711f ccbe
00000010: 159b 3b3e ad29 61bd 48f1 15be da1e 0f3e
00000020: bc0c 1f3e 41be 7d3e 8f79 69be 4a18 f9bd

weight f4 [12]
1.5693412 2.2325158 1.6558682 1.8484881 2.4992042 1.9541645 1.6910994 1.8465319
2.1140606 2.2998004 1.8159211 1.766036
00000000: 2ce0 c83f 8ae1 0e40 7df3 d33f 429b ec3f
00000010: f6f2 1f40 1022 fa3f f275 d83f 285b ec3f
00000020: c54c 0740 ee2f 1340 1a70 e83f 780d e23f

bias f4 [12]
0.038092796 -0.36412135 -0.55156785 -0.31161857 -0.19999902 -0.26548705 0.09195869 0.66958064
0.22835433 0.31961966 -0.1680445 0.3833341
00000000: 3107 1c3d 1d6e babe 8d33 0dbf 788c 9fbe
00000010: 8bcc 4cbe ebed 87be d654 bc3d a369 2b3f
00000020: b8d5 693e 30a5 a33e db13 2cbe 5e44 c43e

weight f4 [10, 12]
-0.08485972 -0.09887272 0.052098252 0.8863291 -0.8574831 -0.31021178 0.85080886 -0.16394572
0.11390898 0.19743364 0.463 -0.9270309 -0.11308099 -0.15992215 -0.37731156 0.27711767
0.72827727 -0.870471 -0.7791856 -0.46597168 -0.70741737 0.99744064 1.0022258 0.104014024
0.3421331 -0.0095744515 -0.6165665 -0.18017673 0.05156668 0.055724602 0.41885358 0.7081454
-0.3359813 0.47043476 -0.83321774 0.42933056 0.56107205 -0.22669761 -0.59756154 -0.59702605
0.5878355 -0.3974462 0.45373338 0.10527709 0.47604713 -0.10784043 0.17478204 -0.39925763
0.21987873 1.5123948 0.62666994 -0.25135046 -0.31564903 0.207109 -0.6032163 -0.019032648
0.18577303 -0.37854156 -0.46770233 0.23023376 -0.83934414 -0.51055086 0.2551586 -0.42626402
-0.24553052 -0.11817627 0.056771047 0.20430908 1.2120004 0.013789692 0.01063448 0.615244
-0.24026097 0.39236394 0.17298643 0.6450068 -1.2789272 0.828292 -0.5155843 0.05611616
-0.4070675 1.312498 -0.21504219 -0.052866567 0.09773981 0.47905633 0.041304562 -0.68278456
0.5737212 0.2750751 -0.012753089 0.74325216 -0.11893623 -0.44694605 0.58876157 -0.69926107
0.36043072 -0.6142246 0.23250729 0.24658833 -0.39823577 0.4921544 -0.25796604 0.20438038
-0.10539755 -0.24211477 0.07511347 0.23732655 -0.3024792 0.63791543 0.5692046 -0.124288164
0.3014878 0.64750034 -0.08245554 -1.3057219 0.25048262 -0.7110245 -0.21143496 -0.27958608
00000000: efca adbd c87d cabd fa64 553d 77e6 623f
00000010: 0384 5bbf 14d4 9ebe 9cce 593f 63e1 27be
00000020: 1c49 e93d 0b2c 4a3e 560e ed3e e651 6dbf
00000030: 0297 e7bd a2c2 23be fb2e c1be 5ee2 8d3e
00000040: 6170 3a3f 30d7 5ebf b578 47bf d793 eebe
00000050: 4e19 35bf 4558 7f3f ef48 803f 4e05 d53d
00000060: 122c af3e 29de 1cbc 4dd7 1dbf 4080 38be
00000070: 9537 533d 7b3f 643d fa73 d63e 0449 353f
00000080: be05 acbe d3dc f03e c24d 55bf 37d1 db3e
00000090: 6ba2 0f3f 6b23 68be cbf9 18bf b3d6 18bf
000000a0: 637c 163f 117e cbbe be4f e83e 849b d73d
000000b0: 73bc f33e 72db dcbd 10fa 323e 7f6b ccbe
000000c0: e427 613e 2796 c13f 716d 203f 02b1 80be
000000d0: c09c a1be 6214 543e 626c 1abf 5bea 9bbc
000000e0: 493b 3e3e 33d0 c1be ae76 efbe 66c2 6b3e
000000f0: 42df 56bf 76b3 02bf 26a4 823e 473f dabe
00000100: 5a6c 7bbe 6606 f2bd c288 683d 6636 513e
00000110: d422 9b3f 29ee 613c 3e3c 2e3c a180 1d3f
00000120: f906 76be ede3 c83e 5b23 313e 2a1f 253f
00000130: e3b3 a3bf f20a 543f 55fd 03bf 0fda 653d
00000140: 276b d0be efff a73f 0534 5cbe 9d8a 58bd
00000150: cf2b c83d df46 f53e f92e 293d f8ca 2ebf
00000160: 64df 123f a5d6 8c3e 55f2 50bc c645 3e3f
00000170: d794 f3bd 1dd6 e4be 14b9 163f c602 33bf
00000180: 608a b83e d33d 1dbf 6416 6e3e a781 7c3e
00000190: 8fe5 cbbe a9fb fb3e 2014 84be 1749 513e
000001a0: acda d7bd efec 77be 17d5 993d bb05 733e
000001b0: 8ede 9abe 6d4e 233f 65b7 113f cb8a febd
000001c0: 9c5c 9a3e 95c2 253f 73de a8bd e521 a7bf
000001d0: 423f 803e b405 36bf 6882 58be e825 8fbe

bias f4 [10]
-0.7142089 -0.1317753 0.61487335 0.19856447 -0.27085307 0.49719268 -0.42744476 0.24162923
0.5842039 -0.3922284
00000000: 65d6 36bf 1bf0 06be 5768 1d3f 7c54 4b3e
00000010: 41ad 8abe 0a90 fe3e 0ada dabe a76d 773e
00000020: 638e 153f 29d2 c8be
